Results/test24/SnowBall.onnx (onnx, 143334 bytes, 9 tensors)

action_model._discrete_distribution.branches.0.bias f4 [3]
00000000: 0000 0000 0000 0000 0000 0000
0.0 0.0 0.0

action_model._discrete_distribution.branches.0.weight f4 [3, 128]
00000000: 2354 103a 33a3 6d3c 1c1e 11bc 9ec4 333c
00000010: 5428 49bc 2bd3 123b 94c8 273c 1477 4c3c
00000020: ec98 03bc a000 8a3a d250 373c e9a9 093a
00000030: 519e a0ba df4c 813c f779 843c 0fec 93ba
00000040: 59c2 cc3b 5fd5 1bbc a878 063b 8213 68bb
00000050: 3815 533b 675c 98ba d969 923a b7eb 73bc
00000060: 72ec aabb 6391 efbc d8a2 783b b349 2c3c
00000070: 93fe 83bc a492 45bb 7da4 573a 30ad a93b
00000080: b5fc 653a 880a 633c 7fac 7bbb b6c2 96bc
00000090: cbd5 013b 0ba3 c73b 7842 c53c e3fb dbbb
000000a0: 5123 933a d84d fb3b 2e23 cbbb f2e3 ecbb
000000b0: d56e da3b cbdf 61bb 2df5 9c3b e049 afbc
000000c0: adda e5b8 bde8 f1bb 3683 ae3b afe1 3ebb
000000d0: e789 ecbb 1032 5bbb 7d66 8ebc b090 903c
000000e0: 8978 b7bb d30f bf3b d84e 09bc 60bf 66bc
000000f0: b3d3 1d3b 1b14 5abb 33a7 083b 9b35 573b
00000100: c300 dabc a025 593a d67c bfba 855d 1cbc
00000110: 05e5 54bb cf5c fe3b 25eb a9bb 2f6b 9e3b
00000120: 37df 51bc 55d4 0d38 3ad3 dcbb 1f74 2c3c
00000130: 4b9d 923b f179 393a 3ddb a7bb 55a1 57bc
00000140: 1432 94bc 32ff ac3a 1dc2 ab3b 0256 9abb
00000150: 3a8d 423c 0a7b 393b b6b2 05bc 1762 b83b
00000160: e475 bdbb 432f a5bb e470 023c c0ca 6ebc
00000170: cf04 7d3c 45fe b8ba e612 8dbc fdf3 ecbb
00000180: 54d3 19bc 1c7e 003c bf84 42bc 5dd0 443a
00000190: cb64 b9b7 701c da3b b28f fbbb 42a5 c93b
000001a0: 3d46 abbb b8d8 58bb 33a6 8039 a81b 673c
000001b0: 5e12 323c 8fee ed3b da87 54ba 474b 353c
000001c0: 0cfb 093c 4a3b 723b 871b 2a3c b3a6 f6ba
000001d0: b0d4 4dbb 6b1e 3dba b6be 263b 136a 84bc
000001e0: ba85 b13b 1b59 c4ba a124 80bb e8d0 85bb
000001f0: 3222 8dbb d2bf d2bb 2813 f43b e0a0 4db9
00000200: fb20 51ba 77ac 02bc 3b51 f33b 32fd 183c
00000210: 55b9 633c 9a7a 6a3b 2a77 903b a943 023c
00000220: ddaf 78bc b593 44bc 3238 b3bb 685a 6fbb
00000230: 523b 1a3c 10d2 2db8 5362 c4bc c0a4 75bb
00000240: 3342 1fbc 4873 953b 1a93 71bc 568c 3dbb
00000250: bc68 273b aaf4 b4bc cfb9 4f3a 3c17 133c
00000260: ad89 ebba 4acd dbbb 00f6 dbba b6db 073c
00000270: 7296 7b3b eab6 c43c 98fe 5d3b d844 f9bb
00000280: a595 6c3a dd3d 1c3a e339 013c 2d22 25bb
00000290: c3e5 86bb cbf1 4f3b 4d8e 6c3b 3430 a23b
000002a0: 77ad 343c a287 59bb 72f0 7439 8c66 a53b
000002b0: 5e66 9a3c 7b38 1cba 7390 973c ac5c c8bb
000002c0: bf11 fdbb 6887 8abc ebeb 1e3b 06a2 413a
000002d0: 62e2 543c 1fc9 6fbb d2d3 58bc e886 55bc
000002e0: 7e7f 193c b552 143b 7397 eebb 3d00 7bbc
000002f0: ffdb b6ba dfc3 58bb 475a f8ba da1b dbba
00000300: a760 5bbc 2066 433c ab73 843c 5d3b 5bbc
00000310: 1802 d53a 8792 c93b 6309 ccbb 1276 ecbb
00000320: e746 97bc 8ee2 203c 686f 13bc a397 2bbc
00000330: 103a ab3b e540 493c 4371 16bc 1ca2 99bb
00000340: bb84 82bb fb5d 9cba 9265 943b a03c d4bb
00000350: 8593 ab3b cee9 0bbc d4d9 94b9 4b22 8bba
00000360: 8904 c33a ffbe 043c a525 14bb ca29 4fbb
00000370: 4c0e 833c bbc0 28bc eab0 453b 0250 43bc
00000380: c25d a23b 43d6 4dbc 3d99 f43a 4527 063b
00000390: 1516 b8bb 1baa 163c 0567 55bc ea4f 473b
000003a0: ffd1 21bb 0fcf 553c 2d6e b43b 12d9 b4ba
000003b0: bfad 50bb d796 d9ba a30d debb 9fc6 8e3c
000003c0: fe14 c0bb b091 cfbb b104 82bc f7d2 523b
000003d0: a3ff 173a f390 ec3b 86b5 4a3b 2220 8e3c
000003e0: c74a fd3b 9726 b33b 2a36 08bc 4a8d 603b
000003f0: 4499 063b b4e5 113b 20a9 113c 176a 5b3b
0.00055057014 0.014504242 -0.008857276 0.01097217 -0.012277681 0.0022403698 0.010240693 0.012479562
-0.008032065 0.0010528751 0.011188703 0.0005251454 -0.0012254213 0.015783725 0.016171439 -0.0011285561
0.006248754 -0.009511321 0.0020518694 -0.0035412018 0.0032208692 -0.0011624218 0.0011170461 -0.014887742
-0.0052161748 -0.02924413 0.003793886 0.010515618 -0.016112601 -0.003014722 0.000822611 0.0051781163
0.0008773313 0.013857491 -0.0038402376 -0.018403392 0.0019811268 0.0060924343 0.024079546 -0.006713377
0.0011225735 0.007669192 -0.006199262 -0.0072293216 0.0066660442 -0.0034465666 0.0047899694 -0.021397531
-0.000109603025 -0.007382481 0.0053257 -0.0029126217 -0.0072185877 -0.0033446588 -0.017382855 0.017647117
-0.0055990857 0.005830744 -0.008380614 -0.014083713 0.0024082481 -0.0033276144 0.0020851612 0.0032838348
-0.026611691 0.00082834996 -0.0014609348 -0.009543781 -0.003248514 0.0077625285 -0.005185502 0.0048345546
-0.012809566 3.381477e-05 -0.0067390474 0.010525732 0.004474317 0.00070753606 -0.005122571 -0.013161023
-0.018090285 0.0013198613 0.005241646 -0.00470996 0.011874491 0.0028302097 -0.008160284 0.0056269276
-0.005781876 -0.0050410344 0.007961486 -0.014574707 0.015443041 -0.0014113864 -0.017220926 -0.007231234
-0.009388763 0.007842567 -0.011872469 0.0007507855 -2.2100654e-05 0.006656222 -0.007677042 0.0061537335
-0.005226879 -0.0033088159 0.0002453789 0.014105715 0.010868637 0.0072611044 -0.00081074017 0.011065311
0.008421671 0.0036961609 0.01038254 -0.0018817991 -0.003140729 -0.00072143105 0.0025443262 -0.016163861
0.005417553 -0.0014980169 -0.0039106165 -0.0040837415 -0.004307055 -0.006431558 0.0074485727 -0.00019610254
-0.0007977632 -0.007975689 0.007425455 0.00933771 0.013899167 0.0035778643 0.0044087367 0.007950702
-0.015178648 -0.011998107 -0.0054693455 -0.0036522392 0.009413557 -4.144205e-05 -0.023972666 -0.0037482232
-0.009720373 0.0045608617 -0.014744544 -0.0028922758 0.0025544604 -0.022089321 0.0007924111 0.0089777075
-0.0017970108 -0.006707822 -0.0016781688 0.008292129 0.0038389233 0.024013001 0.0033873674 -0.007607084
0.00090249843 0.0005960146 0.007887336 -0.0025197372 -0.004116745 0.0031729813 0.003609556 0.004949594
0.011027685 -0.0033192416 0.00023359226 0.005047625 0.01884764 -0.0005959344 0.018501496 -0.006114563
-0.0077230628 -0.01691027 0.0024249505 0.0007386509 0.012993427 -0.0036588383 -0.013234096 -0.013032652
0.009368775 0.0022632305 -0.0072812377 -0.015319881 -0.0013951062 -0.0033075733 -0.0018947803 -0.0016716674
-0.013389743 0.011926204 0.016168436 -0.0133808525 0.0016251234 0.0061515006 -0.006226705 -0.0072162235
-0.018466426 0.00981964 -0.008998729 -0.010473165 0.0052254274 0.0122835385 -0.009182277 -0.0046885144
-0.003983108 -0.0011929864 0.0045287097 -0.0064769536 0.0052360916 -0.00853963 -0.00028391054 -0.0010615078
0.0014878671 0.008102178 -0.0022605446 -0.0031610602 0.015998028 -0.010299857 0.0030165263 -0.011920931
0.0049550245 -0.012563291 0.0018661391 0.0020470184 -0.0056178668 0.00919583 -0.01302505 0.0030412623
-0.0024691818 0.013049855 0.005506298 -0.0013797602 -0.0031841842 -0.001660074 -0.006776528 0.017428694
-0.0058618775 -0.006334506 -0.015871378 0.0032169202 0.0005798286 0.0072194277 0.003093095 0.017349306
0.0077298614 0.0054672468 -0.008313695 0.0034263902 0.002053813 0.0022262158 0.00889042 0.0033479983

action_model._discrete_distribution.branches.1.bias f4 [3]
00000000: 0000 0000 0000 0000 0000 0000
0.0 0.0 0.0

action_model._discrete_distribution.branches.1.weight f4 [3, 128]
00000000: f95a 0bbc dafc 60bc 925b e13b 7fba 923c
00000010: 43d6 093b cb87 4bbb b5dc 0b3c 1adc d9ba
00000020: e7db b3bb 2318 a0bb 0642 a43b e9e9 263c
00000030: dfdf 27bc 59e0 b6ba c245 4f3b c103 1fbc
00000040: af69 e23a 66ed 833c f251 2fbb eb1f 1f3c
00000050: 631e aa3b 1055 d0bb 28ca fbbb 3a5e 103b
00000060: fb38 25bc cbc2 7b3c 2b83 4f3c 9fea 5cbb
00000070: 69c2 abbb cf8e e0bb a184 c9ba 4243 f0ba
00000080: 9024 a53b fbf8 98bb 71eb 8a3b 7072 7f3b
00000090: 6bf2 f83b 2d04 083b 5725 1d3c d4d7 123c
000000a0: 97fe 583b 2479 1bbb d848 653a 9f00 4cbc
000000b0: 530f a13b d6c9 87bc a371 71bb 88ac 913b
000000c0: 0ac5 bc3a d5e0 eebb 65d9 6b3b 9396 973a
000000d0: 4bc4 ec3b 8832 0c3a d9fc 0d3a 8b99 1abc
000000e0: 163f 0e3c ea7d 733b 8f85 40bb a31a 00bc
000000f0: 0d91 bfba 956d d4bb 8b4c fa3b 0813 4dbb
00000100: 0b49 68bc 37b9 4bbb 82ed 7c3b c02e 62bb
00000110: 659b 5f3b 285b 5bba 8375 85bb f4b3 a6bb
00000120: 1d04 1dbc 336a b2bb a524 dbbb 9c31 943c
00000130: 0e4c 8ebb 0561 94bb d033 92bc 38af d4bb
00000140: abdd 3fba b88a 91bb 9246 06bc 4c92 3dbb
00000150: 9ad6 d2bb 0a09 23bc 18d3 103c 808a 623c
00000160: d366 813b c5c3 aebb 8a6d 1c3b f5f7 e33a
00000170: 4338 b43b d799 c4bb 1fb3 d5bb 85ed 5a3b
00000180: 4a9c 2a3b edfb 74ba e181 443b d709 913b
00000190: f512 383a 53d2 d53b b289 d43a f33a c4bb
000001a0: 5219 1b3c b7f6 70bb 4fdb 423c 4e18 923a
000001b0: 6961 8bba 9708 7a3b 3ace 573c ef97 39bc
000001c0: 5f78 3d3b 378b 983b c0a6 82bc c785 13bc
000001d0: b3d5 d4bb 7b40 18bc 2894 81bb 38fd 363a
000001e0: 46e1 023c 3325 3d3b ffe0 0d3a ffbf c43b
000001f0: 98fc 26bc 93e9 8bbc eb58 a7ba a3b1 7e3b
00000200: a8df 0b3c 2240 90ba e5f9 7ebc 0f7e 05bb
00000210: 2319 343c 8f3e 40bb 9e25 28bc c44d 0cbc
00000220: fbe0 1cbc 060a 0abc 7925 313b c3a1 74bc
00000230: fc4a b3ba cdda d23b 03d4 2f3c c06d d73b
00000240: 7c56 9e3b ca8a b93a b0e9 fa39 1c3a 283c
00000250: 204e b13b a173 0cbc f2dd f53b f4bd 4b3c
00000260: d9aa 12bc c1cf 833c 0a25 91bb 1df6 74bc
00000270: 050d d13b 8083 75ba 45d2 7d3c 87b6 afbc
00000280: 3712 eebb b325 82bb 52fe e63b 7e2f 0e3b
00000290: 8fee 4a3c 786d 1bbb 5caf 1ebc 978b 8d3a
000002a0: 7d8b dab9 8fd5 383b f1c8 09bc 3a0a bfbb
000002b0: 10df 133c 503b 993b 5830 d73b 0b4e 123c
000002c0: 470c 6bbc f321 a83c 9e1b 8f39 eb05 d43a
000002d0: 19f9 afbb 93aa 813c 39e0 113b f275 6e3b
000002e0: 398f bd3b 2fd1 803c 7976 b2bb 42c9 95bc
000002f0: d3e9 2dbc 5ce6 1e3c 349d 82bb c88f 24bc
00000300: 66a5 8eba 8bf5 d038 5f5c 1cbc 2336 ecba
00000310: b408 b3b9 aa47 55ba 9af1 fcbb e268 f23a
00000320: fd53 cf3a 8f32 28bc 0f73 2cbc 7bb8 d0ba
00000330: 52a8 a83a 7a86 68bc 71aa 333b 5fb9 1a3c
00000340: 128e dcbb 6059 eb3a 7d66 e33a e414 c8bb
00000350: b3ac 07bc 0c38 0aba f70d 56bc 40c2 8d3b
00000360: 5dc4 b0ba f90d 4cbc edab 763a 438e 9ebb
00000370: 1383 93ba 2236 523c 3df9 1b3b e094 863c
00000380: f398 94bc b1ee 363c 6fc2 bb3b 8ba3 e33a
00000390: 356f 6cbc 17a9 c4bb c326 433b 7b75 913b
000003a0: 7af0 7b3b d0a3 f3ba 17d0 a33a 09df ae3a
000003b0: d3bc f5bb 48db cfb9 ec98 1abc 4575 87b9
000003c0: db7a 83bc 31d0 1dbc f07c 763c 8526 323c
000003d0: 4be5 3dba 2b44 243a e1ce 3e3c 43bc f6bb
000003e0: 31b3 233c 4f01 febb 975c 713a 4683 8ebb
000003f0: 5d86 6eba 50b9 1bbb 71b2 3d3c 2f6a 5a3c
-0.008505576 -0.0137321595 0.006877371 0.017911194 0.002103225 -0.003105628 0.008536507 -0.0016621382
-0.005488861 -0.00488569 0.0050127534 0.010187604 -0.010246246 -0.0013952359 0.0031627272 -0.009705485
0.0017273928 0.016104411 -0.0026751724 0.0097122 0.0051916107 -0.0063577965 -0.007684011 0.002202882
-0.010084386 0.0153662665 0.01266555 -0.003370918 -0.0052416814 -0.0068529616 -0.001537461 -0.0018330591
0.005039759 -0.0046683527 0.0042394926 0.0038978122 0.007597258 0.0020754442 0.009591422 0.00896259
0.0033110732 -0.0023723328 0.00087465113 -0.01245132 0.004915157 -0.016575735 -0.0036841414 0.004445616
0.0014401984 -0.0072899857 0.0035987732 0.001156526 0.0072255484 0.0005348106 0.00054164004 -0.009436022
0.008682033 0.0037153908 -0.0029376482 -0.007818851 -0.0014615372 -0.0064827898 0.007638519 -0.003129186
-0.014177571 -0.0031085738 0.0038593714 -0.0034512728 0.0034119722 -0.00083677704 -0.0040728464 -0.00508737
-0.0095835 -0.005444789 -0.006687718 0.018090062 -0.0043425625 -0.004528167 -0.017846972 -0.0064906143
-0.0007319103 -0.0044415854 -0.008195536 -0.002892631 -0.006434274 -0.009950886 0.008839391 0.013826966
0.003949025 -0.005333396 0.0023869001 0.0017392623 0.005499871 -0.0059997845 -0.006521597 0.0033405733
0.0026033097 -0.0009345401 0.002998464 0.004426222 0.0007021868 0.0065253167 0.0016215353 -0.0059884726
0.009466486 -0.0036768147 0.011893108 0.0011146159 -0.0010633889 0.0038152093 0.013171727 -0.011327728
0.0028910858 0.0046552676 -0.015948653 -0.009004063 -0.0064952015 -0.009292717 -0.003954429 0.00069804816
0.00798828 0.0028861284 0.000541225 0.006004333 -0.010192059 -0.01707915 -0.0012767588 0.0038863204
0.0085372105 -0.0011005441 -0.015562509 -0.0020369326 0.010992321 -0.0029334163 -0.010262875 -0.008563463
-0.009575124 -0.008425241 0.0027030392 -0.014931145 -0.0013678963 0.0064347745 0.0107317 0.0065743625
0.004832087 0.0014155742 0.00047857827 0.010267761 0.0054109246 -0.00857249 0.0075032646 0.012435425
-0.008951866 0.016090276 -0.004429464 -0.014951256 0.006379726 -0.00093656033 0.015492027 -0.02144934
-0.007265355 -0.0039717793 0.0070493603 0.0021695788 0.012385978 -0.0023716372 -0.009685364 0.0010799047
-0.00041684127 0.0028203463 -0.008409725 -0.0058300765 0.00902535 0.00467626 0.0065670423 0.00892974
-0.014346189 0.020524 0.00027295662 0.001617608 -0.005370271 0.015828406 0.0022258891 0.003638622
0.0057848957 0.015724747 -0.005446252 -0.018284444 -0.01061483 0.009698477 -0.003986025 -0.010044046
-0.0010883033 9.963949e-05 -0.009543507 -0.0018021505 -0.00034148025 -0.0008135984 -0.007719231 0.0018494392
0.0015817877 -0.01026596 -0.010525479 -0.001592412 0.0012867546 -0.014192218 0.0027414823 0.00944361
-0.0067308033 0.0017955713 0.001734927 -0.006106006 -0.008280921 -0.0005272634 -0.013064853 0.004326135
-0.0013486255 -0.012454503 0.0009409774 -0.0048387363 -0.0011254273 0.012830289 0.002379968 0.016428411
-0.018139338 0.011165307 0.0057299654 0.0017367465 -0.014430811 -0.0060016024 0.0029777742 0.0044390536
0.0038442896 -0.0018588249 0.0012497929 0.0013341616 -0.0074993162 -0.00039645494 -0.0094358735 -0.0002583658
-0.016049793 -0.009632156 0.015044436 0.010873442 -0.0007243945 0.00062662613 0.011646003 -0.0075297668
0.009991453 -0.007751621 0.00092072174 -0.004349145 -0.0009099001 -0.0023761578 0.011578188 0.01333098

discrete_action_output_shape f4 [1, 2]
00000000: 0000 4040 0000 4040
3.0 3.0

network_body._body_endoder.seq_layers.0.bias f4 [128]
00000000: 0000 0000 0000 0000 0000 0000 0000 0000
00000010: 0000 0000 0000 0000 0000 0000 0000 0000
00000020: 0000 0000 0000 0000 0000 0000 0000 0000
00000030: 0000 0000 0000 0000 0000 0000 0000 0000
00000040: 0000 0000 0000 0000 0000 0000 0000 0000
00000050: 0000 0000 0000 0000 0000 0000 0000 0000
00000060: 0000 0000 0000 0000 0000 0000 0000 0000
00000070: 0000 0000 0000 0000 0000 0000 0000 0000
00000080: 0000 0000 0000 0000 0000 0000 0000 0000
00000090: 0000 0000 0000 0000 0000 0000 0000 0000
000000a0: 0000 0000 0000 0000 0000 0000 0000 0000
000000b0: 0000 0000 0000 0000 0000 0000 0000 0000
000000c0: 0000 0000 0000 0000 0000 0000 0000 0000
000000d0: 0000 0000 0000 0000 0000 0000 0000 0000
000000e0: 0000 0000 0000 0000 0000 0000 0000 0000
000000f0: 0000 0000 0000 0000 0000 0000 0000 0000
00000100: 0000 0000 0000 0000 0000 0000 0000 0000
00000110: 0000 0000 0000 0000 0000 0000 0000 0000
00000120: 0000 0000 0000 0000 0000 0000 0000 0000
00000130: 0000 0000 0000 0000 0000 0000 0000 0000
00000140: 0000 0000 0000 0000 0000 0000 0000 0000
00000150: 0000 0000 0000 0000 0000 0000 0000 0000
00000160: 0000 0000 0000 0000 0000 0000 0000 0000
00000170: 0000 0000 0000 0000 0000 0000 0000 0000
00000180: 0000 0000 0000 0000 0000 0000 0000 0000
00000190: 0000 0000 0000 0000 0000 0000 0000 0000
000001a0: 0000 0000 0000 0000 0000 0000 0000 0000
000001b0: 0000 0000 0000 0000 0000 0000 0000 0000
000001c0: 0000 0000 0000 0000 0000 0000 0000 0000
000001d0: 0000 0000 0000 0000 0000 0000 0000 0000
000001e0: 0000 0000 0000 0000 0000 0000 0000 0000
000001f0: 0000 0000 0000 0000 0000 0000 0000 0000
0.0 0.0 0.0 0.0 0.0 0.0 0.0 0.0
0.0 0.0 0.0 0.0 0.0 0.0 0.0 0.0
0.0 0.0 0.0 0.0 0.0 0.0 0.0 0.0
0.0 0.0 0.0 0.0 0.0 0.0 0.0 0.0
0.0 0.0 0.0 0.0 0.0 0.0 0.0 0.0
0.0 0.0 0.0 0.0 0.0 0.0 0.0 0.0
0.0 0.0 0.0 0.0 0.0 0.0 0.0 0.0
0.0 0.0 0.0 0.0 0.0 0.0 0.0 0.0
0.0 0.0 0.0 0.0 0.0 0.0 0.0 0.0
0.0 0.0 0.0 0.0 0.0 0.0 0.0 0.0
0.0 0.0 0.0 0.0 0.0 0.0 0.0 0.0
0.0 0.0 0.0 0.0 0.0 0.0 0.0 0.0
0.0 0.0 0.0 0.0 0.0 0.0 0.0 0.0
0.0 0.0 0.0 0.0 0.0 0.0 0.0 0.0
0.0 0.0 0.0 0.0 0.0 0.0 0.0 0.0
0.0 0.0 0.0 0.0 0.0 0.0 0.0 0.0

network_body._body_endoder.seq_layers.0.weight f4 [128, 138]
00000000: 1d90 a43d e563 7ebd 5155 67be a2ae 51bd
00000010: 0609 83bd a0e0 d7bc 8e3a 1f3d 5d9f 09bd
00000020: abd1 5dba 68b3 b8bd eb42 f13c a2a8 933d
00000030: 4f91 373e 544e 82bd 70b7 f53d 42b7 90bd
00000040: 2430 6bbd c9a4 80bd 6c23 753c 020a 4b3d
00000050: 690f b9bd 2300 0cbe 599b 99bd 15f8 053c
00000060: 787d e0bc 4f3b ee3d 6659 d13b ce43 033d
00000070: 24a2 09be 268e 9dbd 31bb e9bc e570 63bd
00000080: cfd7 4dbc 1c01 923d f989 083d ebb9 6abd
00000090: ef99 343d 5830 bebd 3731 acbd 7e13 ab3c
000000a0: a9e4 acbd 5ab4 973c 846b 40ba b237 d03c
000000b0: 5954 8c3d 0e4d 6a3d b561 bbbd b248 773d
000000c0: 2edd 183d 6c61 8a3d 126e 143e 1474 923c
000000d0: 3c08 163b 5b08 573d 5c07 933c 70ee 6d3d
000000e0: bbad 16be f404 67bc 65eb 923d 196c 90bd
000000f0: ce63 73bd 2450 89bc 274a 59bd feea dfbd
00000100: 2eb1 323e 192f f5bc 5243 163d 72f2 81bc
00000110: 9cd3 b23d b4ab 8fbd 9959 f6bc 7e10 8dbc
00000120: ad51 423e 5494 3dbd fc83 ebbd 7fb1 f5bc
00000130: 24e0 c03b d73b c7bd 6301 a0bd 8521 febd
00000140: 8f1b a1bd ab1b c63a 9576 193e 37f8 b53d
00000150: 035d f8bd 8bf2 c63c baad b8bc 38b9 f8bd
00000160: 67a1 d33d bb1c 3d3e 2a80 523c ed60 533c
00000170: c5a2 0b3e 9cd6 053d c2d3 503b cefa 1c3d
00000180: 4eee 92bc 4393 073d 5c87 ea3d 4512 40bd
00000190: d45e 6d3d dcfe bcbd e521 233d e26a a9bc
000001a0: 4439 88ba d493 583d 458e b73c 8dbd e4bd
000001b0: 239b 16be eaa3 103d 0a16 7ebd 2b09 f83d
000001c0: eb84 3fbe 354a 583d 9d1b 4fbd 6091 633d
000001d0: e1f1 1b3c cade cabd 120a e93d ca16 013e
000001e0: c37b 7d3d eb73 e13d abf2 4f3d 8c34 f1bc
000001f0: 59cf b93c 4f42 b73d 946e 04be 91f9 043c
00000200: a384 c9bc 5e2a 8b3d 259d 59be de1e 423d
00000210: 0aba 31bd 1144 2fbc b3dc 4bbd 948e b1bd
00000220: cdea 3b3d b068 363e d226 a93d ad6c f93d
00000230: 9dbc 363d df31 a5bd d7d3 60bd cc00 7f3c
00000240: b028 d9bd 7f11 f2bd eb43 363e ea69 34be
00000250: 96ec ddbd 666d bb3d 18bc 43bd 3e87 32bd
00000260: e866 a6bd d642 c93d d719 3b3d 6ca4 523d
00000270: 376b 863e b922 a73d 0532 ebbd 8caf 13be
00000280: 8123 bb3d cccc fabc 458f 043d 4773 99bc
00000290: b67e 803c aa4d 343e 76c5 db3a 6f04 353e
000002a0: 1b47 aabd 1934 88bc 5eae b8bd 0d59 94bd
000002b0: 6997 253d b567 a93d 77b4 d5bb ff3f 0c3e
000002c0: 84f9 a2bc 1f1f 48bd 0e65 4b3d 2eab 25bd
000002d0: a495 b7bd 168a 4e3d 7cc5 24bc b526 3fba
000002e0: 5f66 7e3d b7b5 9b3d a2bd a8bc b7e0 6b3d
000002f0: 25df b13b 8a0a 35be 6594 233a 3474 31bd
00000300: 8d29 6a3c 77cc b13d 8e9b 2b3e 3569 643d
00000310: e1d6 dfbd 7b54 d33d d0f3 1e3e 9eb4 adbb
00000320: f905 833d ca27 1f3e b9ec 5e3d d22d d8bc
00000330: 5fac 313d a430 d6bc d915 f9bc d6df f3bd
00000340: 8188 77bb bdad c83c a708 b13d 6c06 4abe
00000350: b36d 013e d666 81bd 6cef 91bd aeaf 9abc
00000360: f06f 0a3e ca38 313d 5016 e6bd 4dbe 643d
00000370: 42a2 96bc 56f9 ad3c 7296 dabd 127e 85bd
00000380: e445 833d 6692 71bc 0117 a4bd b9d1 aabc
00000390: 3172 b3bd f3bc 63bd 245f 1dbc 7649 d53d
000003a0: ca02 29be de37 1cbd 5ba9 f53c 8ec1 d13c
000003b0: 37cb 7c3c 90ad 34be db74 b5bc 4e96 983b
000003c0: fd88 8d3d 2e32 e0bc 8f89 d23b e41c 25bd
000003d0: 77cc 30bd d150 91bd fe54 fa3d 4382 17be
000003e0: 2eeb 00be dd66 b5bd c99a 9bbd 1724 bfbd
000003f0: 0b10 a53d 1780 12bc a7c5 4a3c 8fac 463b
0.080353 -0.062106986 -0.2259114 -0.051191933 -0.063982055 -0.026352227 0.0388742 -0.033599246
-0.0008461724 -0.09018594 0.029450854 0.072098985 0.17926525 -0.06362596 0.119978786 -0.07066204
-0.057418957 -0.0628143 0.0149620585 0.04957009 -0.090361424 -0.13671927 -0.07500333 0.008176823
-0.027403578 0.11632406 0.006388831 0.032047085 -0.13440758 -0.07693128 -0.028531643 -0.055527586
-0.01256366 0.07129118 0.033334706 -0.05730621 0.044092115 -0.092865646 -0.084078245 0.020883318
-0.08442051 0.018518616 -0.000734024 0.025417183 0.068520255 0.05720239 -0.091494955 0.060372062
0.03732031 0.06756863 0.14495113 0.017877616 0.0022893092 0.052498203 0.017947845 0.05808872
-0.1471471 -0.014100302 0.07173804 -0.07051868 -0.059421353 -0.016761847 -0.053049233 -0.10933493
0.17450401 -0.029929684 0.036685295 -0.015862677 0.087317675 -0.07015172 -0.03007202 -0.017219778
0.1897647 -0.046284035 -0.114997834 -0.029991863 0.0058860946 -0.097282104 -0.078127645 -0.12408737
-0.078665845 0.0015114447 0.14986642 0.08885234 -0.121271156 0.024285575 -0.022543777 -0.12144703
0.103335194 0.18467991 0.0128479395 0.012901527 0.1363631 0.03267537 0.0031864499 0.038325123
-0.017935898 0.033099424 0.11451599 -0.046892423 0.057951763 -0.09228298 0.039827246 -0.020680849
-0.0010393043 0.052875355 0.022406707 -0.111689664 -0.14707617 0.03531257 -0.062032737 0.12111124
-0.18703048 0.052805144 -0.050563443 0.055558562 0.009518118 -0.09905775 0.11378874 0.1260635
0.061885606 0.11008438 0.050768536 -0.029444002 0.022681879 0.08948194 -0.12932807 0.008116142
-0.024599379 0.0679519 -0.21251352 0.04739272 -0.04339031 -0.010697381 -0.049771022 -0.08669773
0.04587822 0.17813373 0.082593575 0.121789314 0.04461347 -0.08066153 -0.054889526 0.015564155
-0.10603464 -0.11819743 0.17799346 -0.17618528 -0.10836141 0.091517255 -0.047786802 -0.04358601
-0.081250966 0.09827201 0.04567894 0.051426336 0.26253673 0.0816092 -0.1148415 -0.14422435
0.09137631 -0.030615233 0.032363195 -0.018731726 0.01568542 0.17607751 0.0016767222 0.17677473
-0.083143435 -0.016626405 -0.09017633 -0.072435476 0.0404276 0.08271734 -0.006521757 0.13696288
-0.019894369 -0.048857804 0.04965692 -0.040446453 -0.089640886 0.050424658 -0.01005685 -0.00072918396
0.062109347 0.07603019 -0.020598236 0.05758735 0.005428212 -0.17679802 0.0006240069 -0.04332371
0.014292133 0.08681577 0.16758558 0.055764396 -0.10929657 0.10318848 0.15522695 -0.0053010723
0.063976236 0.15542522 0.054424975 -0.026389036 0.043377277 -0.02614624 -0.030405926 -0.11907928
-0.0037770572 0.024496907 0.086442284 -0.19729012 0.12639503 -0.063184425 -0.07125744 -0.018882599
0.13519263 0.04326705 -0.112347245 0.055845547 -0.018387917 0.021237057 -0.106732264 -0.06518187
0.06409815 -0.014744377 -0.080122 -0.020851957 -0.08762015 -0.055600118 -0.009605203 0.10414402
-0.1650497 -0.038139217 0.029987982 0.02560499 0.01542931 -0.17644334 -0.022150448 0.0046565896
0.06910894 -0.027367678 0.0064250897 -0.040310755 -0.043163743 -0.07095493 0.12223242 -0.14795785
-0.12589714 -0.0885751 -0.07597882 -0.093330555 0.080597006 -0.008941672 0.012376226 0.0030315255

network_body._body_endoder.seq_layers.2.bias f4 [128]
00000000: 0000 0000 0000 0000 0000 0000 0000 0000
00000010: 0000 0000 0000 0000 0000 0000 0000 0000
00000020: 0000 0000 0000 0000 0000 0000 0000 0000
00000030: 0000 0000 0000 0000 0000 0000 0000 0000
00000040: 0000 0000 0000 0000 0000 0000 0000 0000
00000050: 0000 0000 0000 0000 0000 0000 0000 0000
00000060: 0000 0000 0000 0000 0000 0000 0000 0000
00000070: 0000 0000 0000 0000 0000 0000 0000 0000
00000080: 0000 0000 0000 0000 0000 0000 0000 0000
00000090: 0000 0000 0000 0000 0000 0000 0000 0000
000000a0: 0000 0000 0000 0000 0000 0000 0000 0000
000000b0: 0000 0000 0000 0000 0000 0000 0000 0000
000000c0: 0000 0000 0000 0000 0000 0000 0000 0000
000000d0: 0000 0000 0000 0000 0000 0000 0000 0000
000000e0: 0000 0000 0000 0000 0000 0000 0000 0000
000000f0: 0000 0000 0000 0000 0000 0000 0000 0000
00000100: 0000 0000 0000 0000 0000 0000 0000 0000
00000110: 0000 0000 0000 0000 0000 0000 0000 0000
00000120: 0000 0000 0000 0000 0000 0000 0000 0000
00000130: 0000 0000 0000 0000 0000 0000 0000 0000
00000140: 0000 0000 0000 0000 0000 0000 0000 0000
00000150: 0000 0000 0000 0000 0000 0000 0000 0000
00000160: 0000 0000 0000 0000 0000 0000 0000 0000
00000170: 0000 0000 0000 0000 0000 0000 0000 0000
00000180: 0000 0000 0000 0000 0000 0000 0000 0000
00000190: 0000 0000 0000 0000 0000 0000 0000 0000
000001a0: 0000 0000 0000 0000 0000 0000 0000 0000
000001b0: 0000 0000 0000 0000 0000 0000 0000 0000
000001c0: 0000 0000 0000 0000 0000 0000 0000 0000
000001d0: 0000 0000 0000 0000 0000 0000 0000 0000
000001e0: 0000 0000 0000 0000 0000 0000 0000 0000
000001f0: 0000 0000 0000 0000 0000 0000 0000 0000
0.0 0.0 0.0 0.0 0.0 0.0 0.0 0.0
0.0 0.0 0.0 0.0 0.0 0.0 0.0 0.0
0.0 0.0 0.0 0.0 0.0 0.0 0.0 0.0
0.0 0.0 0.0 0.0 0.0 0.0 0.0 0.0
0.0 0.0 0.0 0.0 0.0 0.0 0.0 0.0
0.0 0.0 0.0 0.0 0.0 0.0 0.0 0.0
0.0 0.0 0.0 0.0 0.0 0.0 0.0 0.0
0.0 0.0 0.0 0.0 0.0 0.0 0.0 0.0
0.0 0.0 0.0 0.0 0.0 0.0 0.0 0.0
0.0 0.0 0.0 0.0 0.0 0.0 0.0 0.0
0.0 0.0 0.0 0.0 0.0 0.0 0.0 0.0
0.0 0.0 0.0 0.0 0.0 0.0 0.0 0.0
0.0 0.0 0.0 0.0 0.0 0.0 0.0 0.0
0.0 0.0 0.0 0.0 0.0 0.0 0.0 0.0
0.0 0.0 0.0 0.0 0.0 0.0 0.0 0.0
0.0 0.0 0.0 0.0 0.0 0.0 0.0 0.0

network_body._body_endoder.seq_layers.2.weight f4 [128, 128]
00000000: 2d30 b7bd d2ae 97bc 7ef8 efbd e5b0 7c3e
00000010: 084e 3dbd 0be8 50be 7cfc f03c 8123 143e
00000020: e925 693d 4b9e 1ebc 9555 823b c8dc 1abd
00000030: 86f0 19bd 41db 513e 2587 883d c2ea 97bd
00000040: 5114 c43d cd4d dbbc 572b 3bbd d495 863d
00000050: d7ef b13d 6553 393d 37f8 433d fe3b 0cbe
00000060: 1969 a7bc c037 48be 3c57 093d 8099 323e
00000070: 0aa8 13be 3a96 173d 5f7e 5abd 8fe2 9dbc
00000080: 0116 ce3d 23eb 013d 98e0 1c3e 285b cdbd
00000090: 2aa9 06be 1618 a8bd c1cf ecbc 7fd7 dd3d
000000a0: 99c6 0abc de19 d83d 88fa 993d 51f3 63bd
000000b0: 6c4a 2ebd 6048 fabd 89f6 c0bd 9afd 5a3d
000000c0: d06f b9bd a5e8 663d 5d7e 8f3d 8c1a 9abd
000000d0: 754c e63d 0720 93bd 341d 2d3d 3891 2fbd
000000e0: a36a 433c 12c0 8d3d 2206 e53d f3d2 8d3c
000000f0: 69f9 373d bb92 62bd 3e0e 8a3d 125c 1dbe
00000100: 5bc3 47bd c5f2 cbbd a2e2 913d d423 d1bd
00000110: 9c2d b6bd 10af 2fbc 54ed 92bd 76b4 9cbd
00000120: d36a b8bd 88e6 fd3d 52d4 a13d 22aa 0cbe
00000130: 081d 3a3e 907c bc3c ebae 3ebd 6674 883d
00000140: d642 2b3d 93a8 d4bd 454b bfbd 272d 943c
00000150: 430a 01bd 5a5d eebc f2f6 3abd bf08 b6bd
00000160: 6b38 57bb f601 91bd e872 ebbd 82c2 973d
00000170: 88cc 073e 86ab f0bc 28f6 233e f5eb 823d
00000180: 190f 593d d3b1 013d e578 f43d abe6 013e
00000190: 5938 35bd f88d 753e 5a56 be3d cd30 2ebc
000001a0: 9acd 433c 939b ee3d e888 ea3c 0761 4bbd
000001b0: cdcb eb3d ea84 65bd 2e8f 23bc 1531 0bbe
000001c0: 22f2 4cbe 6086 3fbe 4d2b 9bbd 2b67 073c
000001d0: 079d b7bd f32f b83c 550e 073e 22b7 c6bb
000001e0: b277 633e 3b8a 9b3c 07ab 753d 155a 23be
000001f0: 7a48 01bd 1340 c13d a39d 10bd 0fdd e1bc
00000200: 61b6 1cbd d966 aa3d 63b0 d13d a6d5 973d
00000210: 45cd 8dbd 789a 143e cd88 7c3d fefc 273d
00000220: 0c91 aebd c3e2 e73c b842 53bc 2a31 593d
00000230: dae3 d93d 4b64 8abd 97ca 023d cf26 bf3c
00000240: f0ab f13d aa93 ddba abe5 13be 7c0f 783d
00000250: 8de6 0fbe a560 12bc 4b03 bc3c d71b 513d
00000260: 0dd2 a23d b977 71be 836d 9e3d 009a a63d
00000270: 8ca8 c3bb 5efa ffbd 4eff a4bd 32f7 7c3c
00000280: e5f5 cbbd 7810 d2bb 9795 c3bd b901 39bd
00000290: 8bef ee3d a08d b93c bbd8 65bd 4e15 9fbd
000002a0: 97e1 533d e52f 743c a11d 2bbe 6133 9fbd
000002b0: b4ee d8bc 912f c2bd f7c9 283e e30a 27be
000002c0: 5b09 4fbc f4f3 9b3d 2c0e 183e fd7c 4bbe
000002d0: 4d41 8a3b 1463 0e3e b645 203d 9384 8f3d
000002e0: bf56 6abd 3561 ed3c e95b 033c 016f a53d
000002f0: 4b95 e5bd f325 1c3d 9cad d83c d6b7 00be
00000300: 718c 14bb ea4e 2f3e 77af 413d 5102 c33c
00000310: 85f4 333d a3f5 a13d d91a b43d 5b4f c53c
00000320: fa74 99bd 707b c23c 5f7a 1dbc a8e1 dcbd
00000330: 6a0a 3bbe fd16 d1bb cc22 2abd dd0b 14bd
00000340: 63c8 86bd 902f 0dbb a124 9ebd 3e7c 18be
00000350: 4eb2 8f3d fe5f 193e dfc8 dc3d ba42 233d
00000360: 97d2 d63d 7c44 333d c97c ec3a c212 a73d
00000370: b037 5bbd c019 263c fc54 753e bd58 a73d
00000380: 8152 b73d 35d0 00be e513 1b3e f9dd f4bd
00000390: 849b 84bc 0201 c4bd 7632 9b3c 62b1 b4bc
000003a0: 8a11 893c cb6b 003e fa1a 673d befc 143d
000003b0: 6096 573e f73e f6bd aead 4dbe e4a3 84bb
000003c0: cafd 713d bac3 cd3c 51f7 3c3e 2989 c43d
000003d0: 6ed9 9b3c f967 1fbd f350 b03c 7c3c 0c3e
000003e0: 0eca 243d 49c3 613e 5ed6 bf3d 98f6 e33d
000003f0: c9a6 99bd feb6 e83d 1937 a3bd 05e0 5ebd
-0.08944736 -0.018515978 -0.11717318 0.24676855 -0.046216995 -0.20401017 0.029417269 0.14466669
0.05692092 -0.009681295 0.0039774873 -0.03780821 -0.037582897 0.20493795 0.06666402 -0.074178234
0.095741875 -0.026770497 -0.04569563 0.06571546 0.08688324 0.045245547 0.047844138 -0.1369476
-0.020435857 -0.19552517 0.03353046 0.17441368 -0.1441957 0.0370085 -0.053343173 -0.01927307
0.10062791 0.031718384 0.1532005 -0.10027152 -0.13150468 -0.08207719 -0.028907659 0.10832118
-0.008470201 0.10551809 0.07518488 -0.055651966 -0.042551443 -0.12220836 -0.09422023 0.05346451
-0.0905453 0.05637421 0.07006524 -0.07524595 0.11245052 -0.07183843 0.04226418 -0.0428631
0.01192728 0.069214 0.1118281 0.017312502 0.04491559 -0.055315714 0.06740998 -0.15367153
-0.04877029 -0.09958414 0.07123305 -0.10211912 -0.08895418 -0.0107228905 -0.07174173 -0.07651608
-0.0900475 0.12397486 0.07901825 -0.13736776 0.18175137 0.023008615 -0.046553534 0.06662826
0.041811787 -0.103837155 -0.093405284 0.018087937 -0.031503927 -0.029097248 -0.04564566 -0.08888387
-0.0032840024 -0.07080452 -0.11496526 0.07410146 0.13261616 -0.029378664 0.1601187 0.063926615
0.052992914 0.031663727 0.11937121 0.12685649 -0.04424319 0.23979938 0.09293814 -0.010631752
0.011950875 0.11650767 0.028629735 -0.04965308 0.11513481 -0.05603496 -0.009982867 -0.13592942
-0.20014241 -0.18703604 -0.07576618 0.008264343 -0.089654975 0.022483801 0.13189061 -0.0060643116
0.22213629 0.018986812 0.059977558 -0.15952332 -0.03156326 0.09436049 -0.035306584 -0.02757123
-0.038259868 0.08320398 0.10238721 0.07413797 -0.06923918 0.1451205 0.0616539 0.041012757
-0.08523759 0.02830637 -0.012894325 0.053025402 0.10639162 -0.067574106 0.031931486 0.023333935
0.118003726 -0.0016904969 -0.1444308 0.060561642 -0.14052792 -0.008934175 0.022950789 0.05105194
0.0795022 -0.23580827 0.077357315 0.08134842 -0.00597102 -0.124989256 -0.08056508 0.015439795
-0.0995901 -0.0064106546 -0.095500164 -0.04516766 0.11666783 0.02265054 -0.056114893 -0.077677354
0.05172881 0.014903997 -0.16710521 -0.077734716 -0.02648101 -0.09481729 0.16483293 -0.16312747
-0.012636508 0.0761489 0.14849156 -0.19871898 0.0042192102 0.13904983 0.03912898 0.070077084
-0.057211634 0.028977016 0.008017519 0.08077813 -0.11210116 0.03812213 0.02644997 -0.12570128
-0.0022666717 0.17119947 0.047286477 0.023804815 0.043934364 0.079081796 0.08794183 0.024085691
-0.07493015 0.0237405 -0.009611695 -0.10785228 -0.18265691 -0.0063809142 -0.04153709 -0.036144126
-0.065811895 -0.0021543242 -0.0772183 -0.14891145 0.07016431 0.14978024 0.107805006 0.039858557
0.104893856 0.043766484 0.001804256 0.08157875 -0.053519905 0.010137975 0.239582 0.08171222
0.08951283 -0.12579425 0.15144308 -0.119564004 -0.016187437 -0.09570505 0.01894496 -0.022057239
0.016731996 0.1254112 0.05642221 0.036373846 0.21053457 -0.12023728 -0.20085785 -0.0040478576
0.059079923 0.025117744 0.18453719 0.09596474 0.019024577 -0.038917515 0.021522975 0.13694948
0.040231757 0.22047152 0.09367059 0.111310184 -0.07502515 0.11363028 -0.079694934 -0.05441286
