Results/test29/SnowBall.onnx (onnx, 143334 bytes, 9 tensors)

action_model._discrete_distribution.branches.0.bias f4 [3]
0	0x00000000	0.0
1	0x00000000	0.0
2	0x00000000	0.0

action_model._discrete_distribution.branches.0.weight f4 [3, 128]
0	0x3bef19b0	0.0072967634
1	0x3b096199	0.0020962714
2	0xbc730f38	-0.014835171
3	0x3c066c51	0.008204536
4	0x3bad8785	0.005295696
5	0xbc2b9e1e	-0.01047471
6	0x3c75f9b3	0.015013146
7	0xbb306e74	-0.0026921304
8	0xbc006dc3	-0.007838669
9	0xbb192377	-0.0023367086
10	0xbba8b612	-0.0051486576
11	0x3b72fd8d	0.0037077398
12	0xbbe541fd	-0.006996392
13	0x3ba24249	0.0049517495
14	0x3be31687	0.0069301757
15	0xba445fd3	-0.00074910856
16	0xbb805689	-0.003916566
17	0xbc5e0c33	-0.013552713
18	0x3c104868	0.0088063255
19	0x3c01d733	0.007924843
20	0x3bdc6d65	0.006726908
21	0x3a849e23	0.0010117929
22	0x3ad9802d	0.0016593985
23	0x3c138e9b	0.009006168
24	0xbc167f44	-0.009185616
25	0xbc049a39	-0.00809341
26	0xbc0f176b	-0.008733611
27	0xbbaeee19	-0.005338442
28	0x3ac76949	0.0015213873
29	0x3bf5f148	0.0075055696
30	0x3bb82833	0.0056200265
31	0xbb792f35	-0.0038022522
32	0x3c1e1edb	0.009650911
33	0xbc676fa7	-0.014125741
34	0x3c48b6f6	0.012250653
35	0xbc340dc4	-0.01098961
36	0xbc359299	-0.011082315
37	0xbbc8c8b3	-0.006127441
38	0xbae795a0	-0.0017668493
39	0x3c86c432	0.016450975
40	0x3b67a277	0.003534464
41	0xbbb5ae0a	-0.0055444287
42	0x3c366a87	0.011133797
43	0xbbe6d95d	-0.0070449547
44	0xbc53e52a	-0.012933055
45	0xbc108725	-0.0088212835
46	0x3ba2af7b	0.0049647666
47	0xbb2df007	-0.0026540773
48	0xbc54b3f3	-0.012982356
49	0xbc17b008	-0.009258278
50	0xbc484017	-0.012222311
51	0x3b964967	0.004586387
52	0x3c2efc51	0.010680274
53	0xbb7cf43a	-0.0038597719
54	0x3c7b9a03	0.0153565435
55	0x3b9eb037	0.004842784
56	0x3bbd705b	0.005781216
57	0xbbaa5f1e	-0.005199327
58	0xbbf2cefb	-0.007409928
59	0x393c8a73	0.00017980654
60	0xba1f651e	-0.0006080436
61	0xbba87c95	-0.0051418045
62	0x3a9b13c8	0.0011831457
63	0x3b8fca93	0.0043881624
64	0x3ba259f3	0.0049545704
65	0x3b002768	0.0019554738
66	0x3b988227	0.0046541872
67	0x3b3047d4	0.0026898282
68	0xbb3d8f57	-0.0028924549
69	0xbc26d6c7	-0.010183043
70	0xbb25b2d3	-0.002528359
71	0xbc7f286b	-0.015573601
72	0x3c4c4f97	0.012470148
73	0x3b1c90a4	0.0023889923
74	0x3ba7576a	0.005106856
75	0xbba43f5d	-0.0050124363
76	0xbbac9a43	-0.005267413
77	0x3b709e37	0.0036715397
78	0x3b5fb3a0	0.0034134164
79	0x3ada6f22	0.00166652
80	0xbb55c390	-0.0032617785
81	0x3bcc016f	0.006225757
82	0x3b660f27	0.0035104246
83	0xbb974313	-0.00461615
84	0x3b18c877	0.0023312846
85	0x3c5a7247	0.01333291
86	0x3be30a32	0.0069287056
87	0x3b872187	0.00412387
88	0xbc0e56e7	-0.008687711
89	0x3a9eed8b	0.0012125237
90	0x3b9968af	0.0046816687
91	0xbc522325	-0.012825762
92	0xbbcf1dc8	-0.006320689
93	0xbbf3647a	-0.007427749
94	0x3c2d2cc3	0.010569754
95	0xbb3d42d1	-0.0028878937
96	0xbb74712d	-0.0037298903
97	0xbbd5daa8	-0.00652631
98	0x3c9707e7	0.018436385
99	0xbbe2931b	-0.006914509
100	0xba749c03	-0.0009331109
101	0xba831600	-0.0010001063
102	0xbb309cd4	-0.0026948946
103	0xba0b0e57	-0.0005304566
104	0x3b6605a8	0.0035098586
105	0x3ca105e4	0.01965613
106	0xba2d3718	-0.0006607636
107	0xbb2a4003	-0.0025978095
108	0xbbd27db5	-0.006423677
109	0xbbfa96b3	-0.0076473593
110	0xbbb36eaf	-0.005475841
111	0xbb07ad0b	-0.0020702507
112	0x3ca2914f	0.01984468
113	0xbacc82a1	-0.0015602895
114	0x3bb0e127	0.005397934
115	0xbc250a6b	-0.010073285
116	0xbbea7257	-0.0071547437
117	0x3cb7cd7a	0.022436846
118	0x39b938fa	0.000353284
119	0xbc8eccb7	-0.0174316
120	0xbc30dfff	-0.010795592
121	0x3c23339b	0.009961034
122	0x3c3f6505	0.0116818
123	0xbbf0fc00	-0.0073542595
124	0x3c27a572	0.010232316
125	0x3b402f35	0.0029325013
126	0xbb32cc9a	-0.0027282597
127	0x3ad08dbb	0.001591138
128	0xbc0eb991	-0.008711235
129	0xbb8e6d84	-0.0043465514
130	0x3c07988a	0.008276114
131	0x3c845eac	0.016158424
132	0xb9f29a1f	-0.00046272666
133	0x3b93b50f	0.004507668
134	0x3be111f8	0.006868597
135	0x3cae5767	0.021281911
136	0xbb6ff9cf	-0.0036617403
137	0x3bbd4761	0.0057763313
138	0xbba545e6	-0.005043733
139	0xbae1f028	-0.001723771
140	0x3bd93e78	0.0066297613
141	0x3acce277	0.0015631457
142	0xbc512667	-0.0127655035
143	0xbc972a45	-0.018452773
144	0xbb8a7746	-0.0042256443
145	0x3a8831e1	0.0010390842
146	0x3c201e64	0.009772871
147	0xbc46d45e	-0.012135593
148	0xba78fed2	-0.00094984204
149	0x3b56ea0b	0.003279331
150	0xbc24114b	-0.010013889
151	0xbbc7d1e0	-0.006098017
152	0xbcad59d5	-0.021161
153	0xbbfb3b5a	-0.0076669874
154	0xba8724bd	-0.0010310631
155	0xbabc9c74	-0.0014389888
156	0x3caba77f	0.020953892
157	0xbc8919a1	-0.016735854
158	0xbc1925c0	-0.009347379
159	0x3b34d138	0.0027590524
160	0x3b928909	0.0044719023
161	0xbc60476d	-0.013688904
162	0xbbcc46cb	-0.006234025
163	0xbbfcb902	-0.0077124843
164	0xbc5f7468	-0.013638593
165	0xbb11cabf	-0.002224609
166	0xbbfc5ca7	-0.0077014747
167	0x3b9766cb	0.004620408
168	0xb91ae9da	-0.00014773701
169	0xbc243011	-0.010021226
170	0x3a65eb9f	0.0008770767
171	0x3c30d988	0.010794051
172	0xbba62a86	-0.005070987
173	0xbbde65af	-0.006787024
174	0x3b9a0a0b	0.0047009042
175	0xbc32a882	-0.010904433
176	0x3c1d83ed	0.009613973
177	0xb9cde5cf	-0.00039271868
178	0xbb2accca	-0.0026062005
179	0x3ab8cd27	0.0014099226
180	0x3bdbb2a8	0.006704647
181	0x3c4e9f37	0.012611202
182	0x3c3f5675	0.011678328
183	0xbb0cb5c8	-0.0021470655
184	0x3ba664b6	0.0050779236
185	0x3b7b279b	0.0038323167
186	0xbc04ad2f	-0.008097931
187	0xbaa4f078	-0.0012583872
188	0xbb85bf32	-0.00408163
189	0xba5882b0	-0.000825922
190	0xbbfcd6e3	-0.007716046
191	0xbb70bb65	-0.003673279
192	0xbc05979d	-0.008153823
193	0x3b3ce478	0.0028822701
194	0xbd0120b0	-0.031525314
195	0xbc257857	-0.010099492
196	0xbb9615b5	-0.0045802244
197	0x3c0250ee	0.007953865
198	0x3b110319	0.002212709
199	0xbbe5f05f	-0.00701718
200	0x3c8fb2cb	0.01754131
201	0xbc1b9499	-0.009495878
202	0xba3812ed	-0.0007021863
203	0x3c0853e3	0.008320781
204	0xbbadadd2	-0.005300262
205	0xbabc2649	-0.0014354672
206	0x3c19613e	0.009361563
207	0x3b9912cb	0.0046714297
208	0x3b06ae7c	0.0020550778
209	0x3aab2083	0.0013055954
210	0x3c54c7ed	0.012987119
211	0x3c085cbf	0.008322894
212	0x3b6409ca	0.0034795874
213	0xbc9a87e5	-0.018863628
214	0xbc0952db	-0.008381571
215	0xbbe7dfdb	-0.007076246
216	0xbbf7f7a2	-0.007567362
217	0x3baf3690	0.0053470805
218	0x3bbbbcd8	0.005729299
219	0xbc4dbb2d	-0.012556833
220	0xbaff767d	-0.0019490268
221	0x3bf01e18	0.007327806
222	0x3b876acb	0.0041326038
223	0xbbf6fe3b	-0.007537631
224	0x3bdec21d	0.0067980425
225	0xba245914	-0.0006269377
226	0xbc562a67	-0.013071633
227	0x3bc660ab	0.006054004
228	0xbb56f735	-0.0032801155
229	0x39f4faa7	0.00046726057
230	0xbc24c697	-0.010057113
231	0x3aaf9288	0.001339511
232	0x3b57d75a	0.0032934756
233	0x3bdc804a	0.0067291604
234	0xbb664c78	-0.0035140794
235	0x3b371fed	0.0027942613
236	0xbc9e68ff	-0.019337175
237	0x3c448e03	0.011996749
238	0xbbb7dc60	-0.0056109875
239	0x3ba0141f	0.004885211
240	0xbad2fc33	-0.001609689
241	0x3b09bb07	0.0021016018
242	0x3a4acb51	0.0007735985
243	0x3a89506f	0.0010476242
244	0xba8a54eb	-0.0010553872
245	0x3bd35ee3	0.0064505204
246	0x3c269201	0.010166646
247	0x3c2ec7b2	0.010667728
248	0xbbbab526	-0.005697864
249	0xbb963f04	-0.0045851488
250	0xbb38a0fe	-0.002817213
251	0xbc945ae2	-0.018109743
252	0x3c22c892	0.009935515
253	0x3b91368f	0.0044315527
254	0xbb55a205	-0.0032597792
255	0xbc4538bb	-0.012037451

action_model._discrete_distribution.branches.1.bias f4 [3]
0	0x00000000	0.0
1	0x00000000	0.0
2	0x00000000	0.0

action_model._discrete_distribution.branches.1.weight f4 [3, 128]
0	0xbb874d9d	-0.0041291253
1	0x3c51f748	0.012815304
2	0x3add0a2a	0.0016863991
3	0x3c0887c2	0.008333148
4	0xbbcdf84f	-0.006285704
5	0x3bb205c1	0.005432815
6	0x3c2d43fb	0.01057529
7	0xbbe8961d	-0.007097973
8	0xbc158655	-0.0091262655
9	0xbc9c7362	-0.019097988
10	0xbaaf4e20	-0.0013374723
11	0x3b4df7d7	0.0031428242
12	0x3a615980	0.00085964054
13	0xbbf5a880	-0.0074968934
14	0x3a5dea48	0.00084653916
15	0x3c3a2bfe	0.011363028
16	0x3be08f2b	0.0068530045
17	0xbc50fb08	-0.012755163
18	0xbc3e232d	-0.011605066
19	0xbbd028b5	-0.006352509
20	0xb98df197	-0.00027073614
21	0xbc3ae79c	-0.011407759
22	0x3c073198	0.00825157
23	0x3c314f1c	0.010822084
24	0x3c824a74	0.015904643
25	0xbc3e196a	-0.011602739
26	0x3a43bdea	0.0007466959
27	0x3b454ae3	0.003010445
28	0xba462972	-0.00075592764
29	0x3b11b289	0.002223166
30	0xbca07eec	-0.019591771
31	0x3abb48cb	0.0014288662
32	0x3b09f05f	0.0021047813
33	0xbc0decc8	-0.00866241
34	0xbb9d1ad5	-0.0047944584
35	0x398f3818	0.0002731688
36	0xbc94b933	-0.018154716
37	0xba9aaab1	-0.0011800138
38	0x3ba5d655	0.0050609508
39	0x3c3ed8ca	0.011648366
40	0xbb483d7a	-0.003055422
41	0xbadc9d08	-0.0016831467
42	0x394f4625	0.00019767189
43	0xbc7bdf38	-0.015373044
44	0x3ba3d481	0.0049996977
45	0x3c3bd673	0.011464703
46	0x3aecac87	0.0018056788
47	0xbc8ee430	-0.017442793
48	0x3c11b66b	0.0088935895
49	0x3caaec1b	0.020864537
50	0x3ad9b990	0.0016611088
51	0xbb8c64c5	-0.0042844736
52	0xbba77a5b	-0.0051110215
53	0x3c0d0384	0.008606795
54	0xbae42233	-0.0017405212
55	0xbc25dd80	-0.0101236105
56	0x3c92adc7	0.01790513
57	0xbb519b58	-0.0031983461
58	0xbb2d7616	-0.002646809
59	0xbc2be5eb	-0.010491828
60	0x3bcfddc0	0.0063435733
61	0xba8e027a	-0.0010834478
62	0xbb8a7e64	-0.0042264927
63	0xbc48664b	-0.01223142
64	0xbc356589	-0.011071571
65	0xbcb8ebb7	-0.022573335
66	0xbc145626	-0.0090537425
67	0x3cbf654c	0.023363732
68	0x3b231e54	0.0024889903
69	0xb9bd2663	-0.0003607749
70	0xbbefb5a3	-0.007315354
71	0x3bda8c15	0.006669531
72	0xbb93e4ac	-0.004513344
73	0xbc2369e5	-0.009973978
74	0xbac86d7f	-0.0015291421
75	0x3b9e565b	0.0048320717
76	0x39c7baa5	0.000380953
77	0xbb503d02	-0.0031774645
78	0xba27484a	-0.00063813163
79	0x38d6b6a5	0.000102383354
80	0xbbb6963b	-0.005572108
81	0x3c02eda7	0.007991231
82	0xba7cb2ad	-0.0009639662
83	0xbb0792bf	-0.0020686833
84	0x3b160dab	0.002289633
85	0x3b1fe665	0.00243988
86	0x3b7d8d08	0.0038688798
87	0xbc917041	-0.017753722
88	0xba9c5ab7	-0.0011928891
89	0xbb777260	-0.0037757382
90	0x3c6631c0	0.014049947
91	0xbbc1bfb0	-0.0059127435
92	0x3bbda4ab	0.005787452
93	0x3b182f54	0.002322157
94	0x3bede8d2	0.0072604204
95	0xbc1597be	-0.009130416
96	0x3c3d6b9b	0.0115613
97	0x3bfcdf32	0.0077170366
98	0x3cdd3f55	0.027007738
99	0x3bdde8b3	0.0067721247
100	0xbad75f5b	-0.0016431616
101	0x3bd9670f	0.0066346
102	0xbc91a1ec	-0.017777406
103	0x3b3dcd23	0.0028961382
104	0x3b7ab0ef	0.0038252433
105	0x3bece0ea	0.0072289603
106	0xbb3f7935	-0.0029216532
107	0xbc23a6e3	-0.009988519
108	0xbc4c748f	-0.012478962
109	0xbb8bb8e4	-0.004263984
110	0x3c0c603c	0.008567866
111	0x3b2256e8	0.0024771038
112	0x3c603cc8	0.013686366
113	0xbb66052a	-0.0035098293
114	0x3c77c4cf	0.015122606
115	0x3ca0c2a3	0.01962406
116	0x3a89ffd3	0.0010528512
117	0x3b12d502	0.0022404795
118	0x3caa3561	0.020777406
119	0xbb4aa635	-0.003092182
120	0xbbe61328	-0.0070213266
121	0x3b352faf	0.002764683
122	0xbc18d785	-0.009328728
123	0x3ad54e5d	0.0016273964
124	0xb90dcd64	-0.00013523322
125	0x3bee0818	0.0072641484
126	0xbbbf50b7	-0.0058384794
127	0x3c7d7c80	0.015471578
128	0xbb6c7a57	-0.0036083662
129	0x3bb944ad	0.0056539387
130	0x3a940e5d	0.0011295784
131	0xbc6be998	-0.014398955
132	0x3c8316c3	0.016002065
133	0xb92a4943	-0.00016239755
134	0xbb52473f	-0.0032085923
135	0x3a64d738	0.000872958
136	0xbc6bbfd5	-0.014388998
137	0xbb10b0b3	-0.0022077977
138	0x3bd19285	0.0063956403
139	0xbc4ddf78	-0.012565486
140	0x3bc5175c	0.0060147475
141	0xbc1b777a	-0.009488935
142	0xbb821592	-0.0039698565
143	0xbba6fa32	-0.0050957436
144	0x3c8a3e82	0.01687551
145	0xbbcd88bf	-0.006272405
146	0x3c0c88b4	0.008577514
147	0x3c4e3e4f	0.012588098
148	0x3c4b2d16	0.012400886
149	0xbb75ea7a	-0.0037523792
150	0x3b9ede67	0.00484829
151	0x3bf6c99b	0.0075313575
152	0xbbb78571	-0.0056006243
153	0x3abaa6b0	0.001424035
154	0xb9eb3f07	-0.00044869652
155	0x3c830d0b	0.01599743
156	0x39a816ac	0.0003206035
157	0x3c116248	0.00887353
158	0x3be09193	0.0068532913
159	0x3c83cd87	0.016089214
160	0xbc0c1b71	-0.008551464
161	0x3c346840	0.011011183
162	0x3c0f0988	0.0087303
163	0xbb520e25	-0.0032051888
164	0x3b4f404a	0.0031624013
165	0x3b8d8853	0.0043192296
166	0x3af0805a	0.0018348799
167	0xbbc8117b	-0.0061055995
168	0xbcad314a	-0.021141667
169	0x3b0517b1	0.002030831
170	0xb97ab280	-0.00023908354
171	0xbb41544f	-0.0029499715
172	0x3bdf50ad	0.006815037
173	0xb986a5d3	-0.0002568202
174	0xbbd8746f	-0.006605677
175	0x3b96b4d7	0.0045991945
176	0x3bd82bb8	0.0065970086
177	0xbbb6eeb7	-0.0055826562
178	0x3c170048	0.009216376
179	0xbbb86aca	-0.0056279646
180	0x3c034ad3	0.008013445
181	0x3c48394d	0.012220693
182	0xbaf9414f	-0.0019016656
183	0xbbce2550	-0.006291069
184	0xbb9cf582	-0.004790009
185	0xbb934780	-0.0044946074
186	0xbae306ba	-0.001732073
187	0xbc04e9e6	-0.008112406
188	0xbb878ce7	-0.00413667
189	0xbc40a1da	-0.011757338
190	0xbc9ddea3	-0.0192712
191	0xbc49bb1a	-0.012312675
192	0xbbc279b4	-0.0059349183
193	0x3bca718a	0.0061780857
194	0x3c06f0db	0.008236135
195	0xbc626977	-0.01381909
196	0x3c71e005	0.014762883
197	0x3a52d177	0.0008042077
198	0x3c123b63	0.008925292
199	0x3c1b0fd0	0.009464219
200	0xbb4b4129	-0.003101418
201	0xbb0d4bb9	-0.0021560027
202	0xbcad6fcb	-0.021171471
203	0x3c9afd02	0.018919472
204	0xbb0031b9	-0.0019560887
205	0x3bc8f2ef	0.0061324756
206	0xba248073	-0.0006275244
207	0xbabbcf20	-0.0014328696
208	0x3bf48175	0.0074617215
209	0xbb4cb200	-0.0031234026
210	0x3ac346d6	0.001489843
211	0xbc70703a	-0.014675194
212	0x3c413f59	0.011794888
213	0xbc439d07	-0.011939294
214	0xbc0d9763	-0.00864205
215	0x3b5ef6bb	0.0034021575
216	0xbc27ae43	-0.010234418
217	0x3b449a9d	0.0029999383
218	0x3bff3a28	0.007788915
219	0x3ac587f8	0.0015070429
220	0x3bc80907	0.006104592
221	0x3b502645	0.0031761092
222	0xbc7d49a7	-0.015459455
223	0xbaa94c1d	-0.001291636
224	0x3acb6405	0.0015517479
225	0xbbcc811d	-0.0062409774
226	0xbc016c8a	-0.007899413
227	0x3bf4a9dd	0.0074665383
228	0x3c43dccb	0.011954497
229	0xbb6a0397	-0.0035707706
230	0xbc1b63b3	-0.009484219
231	0x3ad145ba	0.0015966215
232	0xbbcdd112	-0.0062810266
233	0xbc09c292	-0.008408206
234	0x3c399301	0.011326552
235	0x3caed0ae	0.02133974
236	0xbb0cfbe1	-0.0021512436
237	0x3c0f29d4	0.008738
238	0x3b9a6a44	0.004712375
239	0xbc716050	-0.014732435
240	0xbb18b78d	-0.0023302764
241	0x3be16be2	0.0068793157
242	0xbb60981b	-0.003427035
243	0x3bfeb54d	0.0077730776
244	0x398e05e1	0.0002708873
245	0xbbd8c49d	-0.006615235
246	0x3c9afa22	0.0189181
247	0xbbf8eea2	-0.0075968066
248	0xbb18e0ff	-0.0023327467
249	0xbbfd2e78	-0.007726487
250	0xbc41d159	-0.0118296975
251	0x3c22aa65	0.009928321
252	0x3b173119	0.0023070036
253	0xb9ee1190	-0.00045407983
254	0x3b9a1aaf	0.004702888
255	0x3b687f60	0.0035476312

discrete_action_output_shape f4 [1, 2]
0	0x40400000	3.0
1	0x40400000	3.0

network_body._body_endoder.seq_layers.0.bias f4 [128]
0	0x00000000	0.0
1	0x00000000	0.0
2	0x00000000	0.0
3	0x00000000	0.0
4	0x00000000	0.0
5	0x00000000	0.0
6	0x00000000	0.0
7	0x00000000	0.0
8	0x00000000	0.0
9	0x00000000	0.0
10	0x00000000	0.0
11	0x00000000	0.0
12	0x00000000	0.0
13	0x00000000	0.0
14	0x00000000	0.0
15	0x00000000	0.0
16	0x00000000	0.0
17	0x00000000	0.0
18	0x00000000	0.0
19	0x00000000	0.0
20	0x00000000	0.0
21	0x00000000	0.0
22	0x00000000	0.0
23	0x00000000	0.0
24	0x00000000	0.0
25	0x00000000	0.0
26	0x00000000	0.0
27	0x00000000	0.0
28	0x00000000	0.0
29	0x00000000	0.0
30	0x00000000	0.0
31	0x00000000	0.0
32	0x00000000	0.0
33	0x00000000	0.0
34	0x00000000	0.0
35	0x00000000	0.0
36	0x00000000	0.0
37	0x00000000	0.0
38	0x00000000	0.0
39	0x00000000	0.0
40	0x00000000	0.0
41	0x00000000	0.0
42	0x00000000	0.0
43	0x00000000	0.0
44	0x00000000	0.0
45	0x00000000	0.0
46	0x00000000	0.0
47	0x00000000	0.0
48	0x00000000	0.0
49	0x00000000	0.0
50	0x00000000	0.0
51	0x00000000	0.0
52	0x00000000	0.0
53	0x00000000	0.0
54	0x00000000	0.0
55	0x00000000	0.0
56	0x00000000	0.0
57	0x00000000	0.0
58	0x00000000	0.0
59	0x00000000	0.0
60	0x00000000	0.0
61	0x00000000	0.0
62	0x00000000	0.0
63	0x00000000	0.0
64	0x00000000	0.0
65	0x00000000	0.0
66	0x00000000	0.0
67	0x00000000	0.0
68	0x00000000	0.0
69	0x00000000	0.0
70	0x00000000	0.0
71	0x00000000	0.0
72	0x00000000	0.0
73	0x00000000	0.0
74	0x00000000	0.0
75	0x00000000	0.0
76	0x00000000	0.0
77	0x00000000	0.0
78	0x00000000	0.0
79	0x00000000	0.0
80	0x00000000	0.0
81	0x00000000	0.0
82	0x00000000	0.0
83	0x00000000	0.0
84	0x00000000	0.0
85	0x00000000	0.0
86	0x00000000	0.0
87	0x00000000	0.0
88	0x00000000	0.0
89	0x00000000	0.0
90	0x00000000	0.0
91	0x00000000	0.0
92	0x00000000	0.0
93	0x00000000	0.0
94	0x00000000	0.0
95	0x00000000	0.0
96	0x00000000	0.0
97	0x00000000	0.0
98	0x00000000	0.0
99	0x00000000	0.0
100	0x00000000	0.0
101	0x00000000	0.0
102	0x00000000	0.0
103	0x00000000	0.0
104	0x00000000	0.0
105	0x00000000	0.0
106	0x00000000	0.0
107	0x00000000	0.0
108	0x00000000	0.0
109	0x00000000	0.0
110	0x00000000	0.0
111	0x00000000	0.0
112	0x00000000	0.0
113	0x00000000	0.0
114	0x00000000	0.0
115	0x00000000	0.0
116	0x00000000	0.0
117	0x00000000	0.0
118	0x00000000	0.0
119	0x00000000	0.0
120	0x00000000	0.0
121	0x00000000	0.0
122	0x00000000	0.0
123	0x00000000	0.0
124	0x00000000	0.0
125	0x00000000	0.0
126	0x00000000	0.0
127	0x00000000	0.0

network_body._body_endoder.seq_layers.0.weight f4 [128, 138]
0	0x3e0ce115	0.13757737
1	0x3d267a5c	0.040644035
2	0xbd4dc8a5	-0.050240178
3	0x3de9d1dc	0.114169806
4	0x3d645523	0.055745255
5	0x3c2f7922	0.010710033
6	0x3d7d5cf9	0.061856244
7	0xbd0ae505	-0.033909816
8	0xbc904067	-0.017608834
9	0xbcf59ba4	-0.029981442
10	0xbcdfe040	-0.02732861
11	0x3c84b0d1	0.016197594
12	0xbd73118d	-0.05934291
13	0x3e0aa92c	0.13541096
14	0x3c5752a8	0.013142265
15	0x3c222e54	0.009898741
16	0x3e4399e9	0.19101681
17	0xbdb92ecc	-0.09042129
18	0xbc09344c	-0.008374285
19	0x3c41353f	0.01179248
20	0xbd4974f5	-0.049183805
21	0xbd8ccbc7	-0.06874805
22	0xbd1a10a8	-0.03761354
23	0xbd150ebd	-0.03639101
24	0x3e0cd83d	0.13754363
25	0x3d90fa40	0.070789814
26	0xbd7067b0	-0.058692634
27	0x3da2381d	0.07920859
28	0xbafb1dbb	-0.0019158641
29	0xbdad8b82	-0.08473875
30	0xbe2f97ef	-0.17147802
31	0xbe1006d6	-0.14065108
32	0x3d001fb6	0.031280242
33	0xbe15d5b5	-0.14632304
34	0xbdda4e55	-0.10659472
35	0xbcbb993c	-0.022900216
36	0xbdbc5aaf	-0.09196984
37	0x3aa45ed1	0.0012540465
38	0x3d045365	0.032306094
39	0x3d04c113	0.032410692
40	0xbd8be50f	-0.06830799
41	0xbd6248ac	-0.055245087
42	0xbd662f41	-0.05619741
43	0xbd847aed	-0.06468759
44	0x3ce9e998	0.028553769
45	0x3e0c9202	0.13727573
46	0xbda6f40d	-0.08152018
47	0x3e3df3f9	0.185501
48	0x3ce0c9c3	0.027439957
49	0x3d67354f	0.056447323
50	0x3d047d77	0.032346215
51	0xbd1f225f	-0.03885114
52	0x3d11db60	0.035609603
53	0xbd114036	-0.035461627
54	0x3c977998	0.018490598
55	0x3ce820e6	0.028336
56	0x3e05439c	0.13014072
57	0xbd0b1fc8	-0.033965856
58	0x3cb084b4	0.021547653
59	0x3e182246	0.14856824
60	0x3c9cfed5	0.019164482
61	0xbcc693b9	-0.024240362
62	0x3dc5c2d0	0.09656298
63	0xbbfbb56a	-0.0076815384
64	0x3c25a408	0.010109909
65	0xbe08e7a6	-0.13369617
66	0x3cc1a9a6	0.023640465
67	0x3c21dea0	0.009879738
68	0xbd65d9b2	-0.056115814
69	0xbd3cf262	-0.04612959
70	0xbd429c7e	-0.047512524
71	0xbcd22b08	-0.025655285
72	0xbc348dc4	-0.011020128
73	0x3d0daebc	0.034590468
74	0x3cf4c9a2	0.029881302
75	0x3e3d39e0	0.18479109
76	0x3daa84df	0.083261244
77	0xbe1bd849	-0.15219225
78	0xbddf864c	-0.10914287
79	0xbd09566b	-0.03352968
80	0xbdde030b	-0.10840424
81	0x3e0bcaaa	0.13651529
82	0xbe0c76ec	-0.1371724
83	0xbe06edad	-0.13176604
84	0xbc26cc48	-0.01018054
85	0xbcc92c05	-0.024557123
86	0x3cb4111f	0.02198082
87	0x3d809381	0.06278134
88	0x3dbcf28d	0.092259504
89	0xbe855e9b	-0.2604874
90	0xbdbb4156	-0.09143321
91	0xbc0b1aa3	-0.008490237
92	0x3d98eec4	0.07467416
93	0x3c98101b	0.018562367
94	0xbe0ebb67	-0.13938676
95	0xbd35fd5d	-0.04443108
96	0x3e1a048c	0.15040797
97	0x3e695a76	0.22788414
98	0xbe125a62	-0.14292291
99	0xbdc72bfb	-0.097251855
100	0xbca46275	-0.02006648
101	0xbd4ae9df	-0.049539443
102	0xbcd20796	-0.025638383
103	0x3d63afb4	0.055587485
104	0xbe1b7ee2	-0.1518512
105	0x3c818337	0.015809638
106	0xbd3484b5	-0.04407187
107	0x3df51b58	0.11968106
108	0xbc889562	-0.016672794
109	0xbd6d841b	-0.057987314
110	0xbd00b15b	-0.03141914
111	0xbe16ca45	-0.14725597
112	0x3c6e17d7	0.014532051
113	0x3e07244a	0.13197437
114	0xbe1c35e7	-0.15254937
115	0xbbe67d87	-0.007034007
116	0x3c3ce252	0.011528568
117	0x3c586caa	0.013209501
118	0x3c4751b1	0.012165473
119	0xbdc64996	-0.09682004
120	0xbdc56d0a	-0.09639938
121	0x3d45ebd9	0.048320625
122	0x3b6923b4	0.003557426
123	0xbd7b702e	-0.06138628
124	0xbce5760b	-0.028010389
125	0xbd6d1e28	-0.057890087
126	0x3d05928a	0.032610454
127	0x3d2e12ad	0.04249828
128	0xbe076bb8	-0.13224685
129	0xbde4aeed	-0.11166177
130	0xbda663eb	-0.081245266
131	0xb97ac9c6	-0.00023917024
132	0x3c96cfd9	0.018409656
133	0x3c922032	0.017837618
134	0xbbc6babc	-0.006064741
135	0xbdb55c2a	-0.088554695
136	0xbbd86ba6	-0.0066046296
137	0xbd7b275c	-0.061316833
138	0x3d24b578	0.040212125
139	0xbc5fd5ee	-0.013661845
140	0xbd2e292a	-0.042519726
141	0x3d1a45ab	0.037664097
142	0xbdea9d15	-0.11455742
143	0xbdbac99c	-0.09120485
144	0xbca40a85	-0.020024547
145	0x3d28b25d	0.041185725
146	0xbc1b59de	-0.009481875
147	0xbd6ff2b4	-0.05858107
148	0x3d437695	0.04772051
149	0x3d4d239b	0.050082784
150	0xbdf8082a	-0.12110932
151	0xbd13ab54	-0.036052063
152	0x3dcf9bc1	0.101371296
153	0xbdacbfcf	-0.08435022
154	0x3d766b71	0.060161058
155	0xbbfec04c	-0.0077743884
156	0x3d350614	0.04419525
157	0x3d69bbed	0.057063986
158	0xbd903126	-0.07040624
159	0xbe195d40	-0.14976978
160	0x3d7fd42a	0.062458195
161	0xbbc99249	-0.0061514718
162	0x3c5a5c8f	0.013327732
163	0x3c30dd30	0.010794923
164	0x3bac3f69	0.0052565825
165	0x3cf1d1da	0.02951901
166	0xbc03d505	-0.008046393
167	0xbd82678a	-0.06367405
168	0xbd4a34f8	-0.04936692
169	0x3da52b9f	0.08064961
170	0x3c5cb5a7	0.013471044
171	0xbd9bf829	-0.07615692
172	0x3d9bd5fb	0.07609173
173	0x3bd2ec8e	0.006436891
174	0xbd4d23f9	-0.050083134
175	0xbd12c26a	-0.03582994
176	0xbd8b1e58	-0.06792897
177	0xbd55b942	-0.05217863
178	0xbc77a247	-0.0151143735
179	0x3e3ac403	0.18238835
180	0x3d0c0248	0.034181863
181	0xbdc814ce	-0.09769593
182	0xbe24ed77	-0.1610621
183	0x3cc7f168	0.024407104
184	0x3ddd5bfa	0.10808559
185	0x3da0bced	0.07848535
186	0xbe4d5b61	-0.2005439
187	0x3d81787c	0.06321809
188	0x3db6d78b	0.0892783
189	0x3d3a2854	0.045448616
190	0x3c5a5dc3	0.013328019
191	0x3e1390e3	0.14410739
192	0x3be04d63	0.0068451627
193	0xbd504495	-0.050846655
194	0xbd107395	-0.035266478
195	0xbdfded09	-0.123987265
196	0xbce1dab2	-0.027570102
197	0x3d77fdac	0.060544655
198	0x3c140583	0.009034517
199	0xbd76f861	-0.060295466
200	0x3df97748	0.12180954
201	0x3a628d99	0.00086423155
202	0xbdfb1d02	-0.12261392
203	0xbdb0829d	-0.086186625
204	0xb9b8a588	-0.00035218545
205	0x3d998379	0.074957795
206	0x3d492646	0.049108766
207	0x3c156221	0.009117634
208	0xbbb27e67	-0.0054471972
209	0xbddb9091	-0.10720933
210	0xbdc787e6	-0.097427174
211	0xbdc658ca	-0.09684904
212	0xbd7bea4b	-0.061502736
213	0x3dd2c574	0.102915674
214	0x3e1b4b6f	0.15165494
215	0x3e28b82c	0.16476506
216	0xbd11ed3a	-0.035626628
217	0x3d85b92c	0.06529459
218	0xbe07122b	-0.13190524
219	0x3e05b22a	0.13056245
220	0xbc3f6591	-0.01168193
221	0xbde89180	-0.11355877
222	0xbb7b73fc	-0.0038368693
223	0x3d022009	0.031768832
224	0xbd9f3876	-0.07774441
225	0xbd446097	-0.047943678
226	0x3c94e932	0.018177602
227	0x3a8af43c	0.0010601352
228	0x3c35d335	0.011097719
229	0xba77d37c	-0.0009453816
230	0xbdfe57cb	-0.12419089
231	0xbdcb8112	-0.099367276
232	0x3d4e5f24	0.050383702
233	0xbdf7f437	-0.12107127
234	0x3d31d9b8	0.043420523
235	0x3dc9d4e1	0.098550566
236	0x3e313d40	0.17308521
237	0x3d170b46	0.036875986
238	0xbdfbdfbc	-0.12298533
239	0xbd92b423	-0.071632646
240	0xbdbb48b5	-0.09144727
241	0xbc0f71fd	-0.008755204
242	0x3d0f8a92	0.03504426
243	0xbd7cd1df	-0.061723586
244	0xbcd6f12c	-0.026238047
245	0x3d8bdf61	0.068297155
246	0x3d9efc07	0.07762914
247	0x3d3b251d	0.04568969
248	0x3e1a4262	0.15064386
249	0x3c997e7c	0.01873707
250	0xbdc90095	-0.09814564
251	0x3dc38741	0.09547282
252	0xbcc749f0	-0.024327248
253	0x3d367198	0.044541925
254	0xbd13b9ca	-0.036065854
255	0xbc40da38	-0.011770777

network_body._body_endoder.seq_layers.2.bias f4 [128]
0	0x00000000	0.0
1	0x00000000	0.0
2	0x00000000	0.0
3	0x00000000	0.0
4	0x00000000	0.0
5	0x00000000	0.0
6	0x00000000	0.0
7	0x00000000	0.0
8	0x00000000	0.0
9	0x00000000	0.0
10	0x00000000	0.0
11	0x00000000	0.0
12	0x00000000	0.0
13	0x00000000	0.0
14	0x00000000	0.0
15	0x00000000	0.0
16	0x00000000	0.0
17	0x00000000	0.0
18	0x00000000	0.0
19	0x00000000	0.0
20	0x00000000	0.0
21	0x00000000	0.0
22	0x00000000	0.0
23	0x00000000	0.0
24	0x00000000	0.0
25	0x00000000	0.0
26	0x00000000	0.0
27	0x00000000	0.0
28	0x00000000	0.0
29	0x00000000	0.0
30	0x00000000	0.0
31	0x00000000	0.0
32	0x00000000	0.0
33	0x00000000	0.0
34	0x00000000	0.0
35	0x00000000	0.0
36	0x00000000	0.0
37	0x00000000	0.0
38	0x00000000	0.0
39	0x00000000	0.0
40	0x00000000	0.0
41	0x00000000	0.0
42	0x00000000	0.0
43	0x00000000	0.0
44	0x00000000	0.0
45	0x00000000	0.0
46	0x00000000	0.0
47	0x00000000	0.0
48	0x00000000	0.0
49	0x00000000	0.0
50	0x00000000	0.0
51	0x00000000	0.0
52	0x00000000	0.0
53	0x00000000	0.0
54	0x00000000	0.0
55	0x00000000	0.0
56	0x00000000	0.0
57	0x00000000	0.0
58	0x00000000	0.0
59	0x00000000	0.0
60	0x00000000	0.0
61	0x00000000	0.0
62	0x00000000	0.0
63	0x00000000	0.0
64	0x00000000	0.0
65	0x00000000	0.0
66	0x00000000	0.0
67	0x00000000	0.0
68	0x00000000	0.0
69	0x00000000	0.0
70	0x00000000	0.0
71	0x00000000	0.0
72	0x00000000	0.0
73	0x00000000	0.0
74	0x00000000	0.0
75	0x00000000	0.0
76	0x00000000	0.0
77	0x00000000	0.0
78	0x00000000	0.0
79	0x00000000	0.0
80	0x00000000	0.0
81	0x00000000	0.0
82	0x00000000	0.0
83	0x00000000	0.0
84	0x00000000	0.0
85	0x00000000	0.0
86	0x00000000	0.0
87	0x00000000	0.0
88	0x00000000	0.0
89	0x00000000	0.0
90	0x00000000	0.0
91	0x00000000	0.0
92	0x00000000	0.0
93	0x00000000	0.0
94	0x00000000	0.0
95	0x00000000	0.0
96	0x00000000	0.0
97	0x00000000	0.0
98	0x00000000	0.0
99	0x00000000	0.0
100	0x00000000	0.0
101	0x00000000	0.0
102	0x00000000	0.0
103	0x00000000	0.0
104	0x00000000	0.0
105	0x00000000	0.0
106	0x00000000	0.0
107	0x00000000	0.0
108	0x00000000	0.0
109	0x00000000	0.0
110	0x00000000	0.0
111	0x00000000	0.0
112	0x00000000	0.0
113	0x00000000	0.0
114	0x00000000	0.0
115	0x00000000	0.0
116	0x00000000	0.0
117	0x00000000	0.0
118	0x00000000	0.0
119	0x00000000	0.0
120	0x00000000	0.0
121	0x00000000	0.0
122	0x00000000	0.0
123	0x00000000	0.0
124	0x00000000	0.0
125	0x00000000	0.0
126	0x00000000	0.0
127	0x00000000	0.0

network_body._body_endoder.seq_layers.2.weight f4 [128, 128]
0	0xbbeee073	-0.00728994
1	0xbd338b56	-0.043834053
2	0x3d242cbd	0.04008173
3	0x3e068f1b	0.13140528
4	0x3c840a74	0.016118266
5	0x3d59137d	0.0529971
6	0xbe230a6b	-0.15921943
7	0xbd6bea6e	-0.057596616
8	0xbcef3b82	-0.02920318
9	0x3da6a4be	0.08136891
10	0x3da79adc	0.08183834
11	0x3aeeca9d	0.0018218342
12	0xbc524640	-0.012834132
13	0xbd939f41	-0.0720811
14	0x3d82b04c	0.06381282
15	0xbd30a3c7	-0.04312494
16	0x3d56e33c	0.0524628
17	0xbd94413d	-0.07239006
18	0x3e0badea	0.13640562
19	0xbde969aa	-0.11397107
20	0x3dd56908	0.10420424
21	0x3d38eadb	0.04514585
22	0x3d639fbb	0.055572253
23	0xbd285696	-0.0410982
24	0x3d457b65	0.04821338
25	0xbcc7e33f	-0.024400352
26	0x3dc3f4d5	0.095681824
27	0x3c4c5e71	0.012473688
28	0xbd9f4e66	-0.07778625
29	0x3d25edb4	0.040509894
30	0x3d2d4040	0.0422976
31	0xbd302520	-0.043004155
32	0xbd83ebe7	-0.06441479
33	0x3dc62778	0.09675497
34	0x3d007021	0.031356934
35	0x3da5ed1e	0.08101867
36	0x3c94a6e7	0.018145991
37	0x3d0d8dde	0.034559123
38	0xbe056d86	-0.13030061
39	0x3e07a388	0.13245976
40	0xbb87c175	-0.004142935
41	0x3d099c7f	0.033596512
42	0x3c9cb480	0.019129038
43	0x3d88c4af	0.066781394
44	0x3d914e1a	0.07094975
45	0x3cd12f2e	0.025535192
46	0x3c729703	0.014806512
47	0x3e1407ef	0.14456151
48	0x3d86ee92	0.065884724
49	0xbcc98f63	-0.024604505
50	0xbd22ea4c	-0.039774224
51	0x3dbfdd51	0.09368385
52	0x3e0ac8d3	0.13553171
53	0xbd617bfa	-0.055049874
54	0xbe2ed84e	-0.17074701
55	0x3da7eb4a	0.08199175
56	0xbe3b859f	-0.18312691
57	0x3e2fab35	0.17155154
58	0x3e7f2f2d	0.2492034
59	0xbe022bfc	-0.12712091
60	0x3d22b0b9	0.039719317
61	0xbd8b88b7	-0.06813186
62	0x3e41d1e6	0.18927726
63	0xbdc368ab	-0.09541448
64	0xbdb27b8a	-0.087149695
65	0x3d9ef983	0.07762434
66	0x3d2f42ef	0.042788442
67	0x3dd9d692	0.10636629
68	0x3df6fc09	0.12059791
69	0xbc0613a5	-0.008183395
70	0x3da239b3	0.079211615
71	0xbe2d25b6	-0.16908917
72	0x3e0b4030	0.13598704
73	0xbda170e2	-0.07882859
74	0xbd7247dd	-0.059150565
75	0x3abed88e	0.0014560388
76	0x3e404bc5	0.18778904
77	0xbdec79a4	-0.115466386
78	0x39d5b5e1	0.00040762036
79	0xbc674ccd	-0.014117432
80	0x3de5e5a5	0.11225442
81	0xbd6a04c9	-0.05713347
82	0x3d71cfce	0.05903607
83	0x3e3977c3	0.18112092
84	0x3e0232f4	0.1271475
85	0x3dd9a977	0.10628026
86	0x3def85a4	0.11695412
87	0x3d51537c	0.051105008
88	0x3b86ee0c	0.004117733
89	0x3d7b7a96	0.061396204
90	0xbc3a1b60	-0.011359066
91	0x3d1472fb	0.036242466
92	0xbd4f47dc	-0.05060564
93	0x3e4915a5	0.19637163
94	0xbde5cc83	-0.11220648
95	0x3ddcabb0	0.10774934
96	0x3b86ed86	0.0041176705
97	0x3d7b976f	0.061423715
98	0x3d73aa30	0.059488475
99	0x3e19ba92	0.15012577
100	0x3db72484	0.08942512
101	0xbc93a7e3	-0.01802439
102	0xbd05c050	-0.032654107
103	0x3c2fa2f0	0.01072
104	0x3de4a281	0.11163808
105	0xbc18e03d	-0.009330806
106	0xbd284c16	-0.041088186
107	0xbe076c71	-0.13224961
108	0x3d624b31	0.05524749
109	0xbd7921f6	-0.060823403
110	0xbd156544	-0.036473528
111	0x3d59898c	0.05310969
112	0x3e0d832c	0.1381957
113	0x3c5285ef	0.012849315
114	0x3d6aad0c	0.057293937
115	0xbb5324d1	-0.003221799
116	0xbd9cfa5c	-0.0766494
117	0x3d435790	0.047690928
118	0xbd85f0bb	-0.06540056
119	0xbd0abfae	-0.033874206
120	0xbdd19ea2	-0.10235335
121	0xbd356ff7	-0.04429623
122	0xbcdab6f8	-0.026698574
123	0x3dd70fb1	0.1050104
124	0x3c827a48	0.015927449
125	0xbdcae2cc	-0.09906539
126	0x3d0deec2	0.034651525
127	0x3d4ae970	0.04953903
128	0xbdfe8197	-0.12427061
129	0x3e53da51	0.2068875
130	0x3d684366	0.0567049
131	0x3e09b648	0.13448441
132	0x3d6b2c18	0.057415098
133	0x3e1697e2	0.14706376
134	0xbd84850e	-0.06470691
135	0xbcc78d12	-0.02435926
136	0xbd0e5b7c	-0.034755215
137	0xbc4a6faf	-0.012355729
138	0xbd5a351c	-0.053273305
139	0x3c89fe87	0.016845
140	0xbcb58c11	-0.022161515
141	0x3d8c3f5c	0.06848022
142	0xbdc698b6	-0.09697096
143	0xbdfcaebc	-0.123380154
144	0x3da6d6b2	0.08146419
145	0xbbc9928e	-0.006151504
146	0x3c221838	0.0098934695
147	0xbe0359a1	-0.1282716
148	0xbdd7f6fa	-0.10545154
149	0x3d8780fd	0.066163994
150	0xbcdc6a59	-0.02690618
151	0x3c6f41d1	0.014603094
152	0xbe4a0cbf	-0.19731425
153	0x3ca17512	0.019709144
154	0x3c75f79c	0.015012648
155	0xbbc8729e	-0.006117179
156	0x3dd33d37	0.1031441
157	0x3ce0ce39	0.027442085
158	0x3d975823	0.073898576
159	0x3d668f13	0.05628879
160	0xbc8d1634	-0.017222501
161	0xbe22c6ee	-0.15896198
162	0x3c03fe6e	0.008056266
163	0x3dcd19e6	0.10014705
164	0xbe18636f	-0.14881681
165	0x3d3d81c7	0.046266343
166	0xbdc84f6b	-0.09780773
167	0xbe10d0ab	-0.141421
168	0xbb035455	-0.002003928
169	0xbdce4b50	-0.100729585
170	0x3cab2c5e	0.02089518
171	0xbd781ded	-0.060575414
172	0xbe385d27	-0.18004285
173	0x3aad3dca	0.0013217267
174	0x3d508c5f	0.05091512
175	0xbce2a053	-0.02766434
176	0xbe19e580	-0.15028954
177	0x3d0ad139	0.033890937
178	0x3d056376	0.032565556
179	0xbd5b3a0b	-0.05352215
180	0x3df775cd	0.120830156
181	0x3dd1abf5	0.10237876
182	0xbaec2e04	-0.0018019085
183	0xbe0fd4a9	-0.14045967
184	0x3d2b2d85	0.041791458
185	0xbca0fde6	-0.019652318
186	0x3d5fb34f	0.05461436
187	0xb99fca3c	-0.0003047752
188	0xbdc34f92	-0.09536661
189	0xbdfbc75a	-0.12293883
190	0x3e187b0b	0.14890687
191	0x3b9737da	0.0046148123
192	0x3cce2a81	0.025166752
193	0xbd4183f0	-0.047244966
194	0x3e0a656f	0.13515256
195	0x3d6ec431	0.05829257
196	0xbe52c2b2	-0.20582083
197	0x3c1f236f	0.009713038
198	0x3cbbd71e	0.022929724
199	0xbc90c591	-0.017672332
200	0x3dc2deeb	0.095151745
201	0xbd7483dd	-0.059696067
202	0xbd829585	-0.06376175
203	0x3da53600	0.0806694
204	0xbc937f0f	-0.018004922
205	0x3b7875f9	0.0037912114
206	0xbda89d75	-0.082331575
207	0xbd529f0d	-0.051421214
208	0xbd5348a4	-0.051582947
209	0x3db9bf32	0.09069671
210	0xbd0d3391	-0.034473006
211	0xbd62c01d	-0.055358995
212	0x3da441f0	0.08020389
213	0x3d2204ac	0.039555237
214	0x3cbbdeaf	0.022933332
215	0xbc94d99e	-0.018170174
216	0xbdc1d2fb	-0.094640695
217	0xbc93c32d	-0.018037403
218	0x3dd1a6c2	0.10236885
219	0x3db20bc3	0.086936496
220	0xbd206957	-0.03916296
221	0x3d2a01b8	0.041505545
222	0xbe19bf1c	-0.15014309
223	0x3bce4dd4	0.006295899
224	0xbd65fc75	-0.056148965
225	0xbdadb74d	-0.084822275
226	0xbdd5d49b	-0.10440942
227	0xbda8dd1d	-0.08245299
228	0x3db33898	0.08751029
229	0x3dedb58c	0.11606893
230	0xbc40f300	-0.011776686
231	0x3e4aa56e	0.19789669
232	0x3db46a68	0.08809358
233	0xbdd1ca7a	-0.102436975
234	0xbd95ea0d	-0.07320032
235	0xbce712c3	-0.028207188
236	0xbe112e69	-0.1417786
237	0x3dc28c0c	0.09499368
238	0x3d5958fd	0.05306338
239	0xbd27f8b6	-0.041008674
240	0xbbc08ae1	-0.0058759307
241	0x3d135378	0.035968274
242	0xbdcae667	-0.09907227
243	0xbe52517c	-0.20538896
244	0x3d8bb119	0.06820888
245	0x3d0df234	0.03465481
246	0x3c577e77	0.01315271
247	0x3c8d72e0	0.01726669
248	0xbd90563d	-0.07047699
249	0x3d09e2e3	0.03366364
250	0x3e3baa99	0.18326797
251	0x3d79bb9a	0.060969926
252	0x3de84232	0.11340751
253	0xbd5e9d1c	-0.05434905
254	0x3d9bbeb1	0.07604731
255	0x3d01e245	0.031709928
