Results/test22/SnowBall/SnowBall-320.pt (torch, 287319 bytes, 14 tensors)

discrete_act_size_vector f4 [1, 2]
3.0 3.0
00000000: 0000 4040 0000 4040

network_body._body_endoder.seq_layers.0.weight f4 [128, 138]
0.036487143 0.108546056 0.044240493 0.08225723 -0.15007783 0.14001133 -0.07153794 -0.06477943
-0.12291732 -0.19347228 0.015558364 0.03686019 0.14984052 0.016878195 -0.04242605 0.12145527
0.19620046 -0.1005275 0.03762593 -0.09833043 0.023720775 0.047259122 0.10211726 0.081698775
0.09592625 0.0612411 0.110183135 -0.18256035 0.042883605 0.10173123 -0.10190412 0.10080545
-0.058961242 0.015199131 0.025500957 -0.11017798 0.068031624 0.13259228 0.08937825 -0.046517175
-0.017765602 0.0029673553 0.26774088 0.09671154 -0.07106395 0.068902194 0.1056972 -0.19631803
-0.12561524 -0.08854317 -0.013535582 -0.07582327 -0.0030784237 -0.014812027 -0.012562789 0.06559263
-0.078072116 -0.055044435 -0.021221133 -0.08736737 -0.0031323745 -0.086287156 -0.05751023 0.062991545
-0.037290633 0.06502156 -0.15459481 0.09932432 0.003722736 -0.09400206 0.10941058 -0.03637869
-0.025248867 0.066674 -0.05729978 0.032153204 0.019101093 0.067154564 -0.11033453 0.08112641
-0.059848767 -0.0029313448 -0.05015029 0.08751802 -0.056220975 -0.06571559 0.0045425324 0.11987983
-0.16963609 0.119342275 0.09702739 -0.091150835 0.020212766 0.030631116 -0.06957524 -0.004039861
0.035541 0.059123334 0.08144853 -0.023209356 0.05471164 0.05167171 0.14872341 0.19461899
0.13036837 0.08606099 -0.0066243806 -0.09938795 0.16211465 -0.13302425 -0.03278907 -0.10683702
-0.006078931 0.064445935 -0.110683024 0.086463325 -0.012392845 0.059765656 0.0043313703 -0.120959215
-0.021504782 -0.02262395 0.038219552 0.041069813 0.08109891 -0.03611203 -0.0044916873 -0.04711519
-0.1061877 0.13791268 0.02206972 0.036716152 -0.09163893 0.14261182 0.025744718 -0.08828783
0.08442892 -0.0320455 0.04865157 -0.10538173 0.06703415 -0.08476105 -0.012674583 -0.02950574
0.048090916 0.01864899 -0.118189655 0.0055760224 -0.09805846 -0.16901122 0.08954219 -0.026934132
0.027008852 -0.11701134 0.089899264 -0.028339854 -0.099571265 0.0934283 -0.018085888 -0.026056275
0.048004344 -0.015606983 -0.054300733 -0.1740764 -0.03298854 -0.08895543 0.073565856 0.024202226
0.008585963 0.051114824 0.0016066891 -0.0702134 0.04080502 0.07352882 -0.02665568 0.10644205
-0.08112642 0.050242785 0.14757289 0.065206714 0.020532254 0.021993844 0.023352647 -0.12048991
0.099033475 -0.07887695 0.040614244 0.1453076 -0.08193443 -0.042272408 0.031153234 -0.044777945
-0.107686214 -0.11197302 0.039166916 -0.076977886 0.040488347 0.056247286 0.05227828 -0.033397257
0.041923918 0.11303203 -0.017886195 -0.049859367 -0.016545614 0.01606307 -0.07230581 -0.0208575
0.098096795 -0.0037026189 0.08227742 -0.06799806 0.05894713 0.105067864 0.06937578 0.013024115
0.06266926 -0.1355168 0.03686432 0.06598069 0.0036593203 0.0325293 -0.107516654 0.09000556
-0.012935887 -0.00078230846 -0.11843527 0.097813636 0.016830893 0.057220936 0.037909225 -0.002183031
-0.13128191 0.01452033 0.14933965 0.20336369 -0.022295924 -0.1843687 0.15215579 0.10485792
-0.17559801 0.08400449 -0.06961871 -0.12421821 -0.049123872 0.034450173 0.091203794 -0.01770741
-0.090693414 0.13814116 0.045451116 0.07284995 -0.023968253 -0.08128836 0.11361639 0.006886805
00000000: 8b73 153d 654d de3d 8535 353d 7b76 a83d
00000010: 01ae 19be 215f 0f3e 7c82 92bd 14ab 84bd
00000020: 13bc fbbd 991d 46be 82e8 7e3c b6fa 163d
00000030: cb6f 193e 2444 8a3c f0c6 2dbd 8abd f83d
00000040: c6e8 483e 5de1 cdbd a61d 1a3d 7761 c9bd
00000050: 1252 c23c c892 413d db22 d13d b051 a73d
00000060: fb74 c43d f3d7 7a3d b2a7 e13d 1af1 3abe
00000070: b8a6 2f3d 7758 d03d 1bb3 d0bd 1673 ce3d
00000080: 5881 71bd c705 793c 62e7 d03c fea4 e1bd
00000090: 2a54 8b3d 45c6 073e f20b b73d cb88 3ebd
000000a0: 2b89 91bc f677 423b 5515 893e b310 c63d
000000b0: fa89 91bd 981c 8d3d c677 d83d 9807 49be
000000c0: 48a1 00be 1f56 b5bd 59c4 5dbc 3b49 9bbd
000000d0: 61bf 49bb 25ae 72bc 28d4 4dbc 6e55 863d
000000e0: 46e4 9fbd 4676 61bd f1d7 adbc aaed b2bd
000000f0: 8648 4dbb 52b7 b0bd d98f 6bbd b601 813d
00000100: 10be 18bd 062a 853d 1a4e 1ebe 8d6a cb3d
00000110: 25f9 733b 2784 c0bd a712 e03d d201 15bd
00000120: b6d6 cebc 618c 883d 2db3 6abd 14b3 033d
00000130: e579 9c3c 5588 893d 12f7 e1bd 9a25 a63d
00000140: fb23 75bd ce1b 40bb 646a 4dbd a63c b33d
00000150: f747 66bd e595 86bd 86d9 943b 8e83 f53d
00000160: 15b5 2dbe b969 f43d 4cb6 c63d 4aad babd
00000170: 3e95 a53c 1bee fa3c 777d 8ebd cf60 84bb
00000180: 7193 113d 4f2b 723d 7dce a63d 8c21 bebc
00000190: 5019 603d b7a5 533d f34a 183e 334a 473e
000001a0: 497f 053e bf40 b03d 5511 d9bb e98b cbbd
000001b0: 6201 263e 8237 08be d54d 06bd 5ecd dabd
000001c0: c531 c7bb 3bfc 833d c8ad e2bd af13 b13d
000001d0: 5c0b 4bbc d5cc 743d 2bee 8d3b 77b9 f7bd
000001e0: cc2a b0bc dd55 b9bc 1b8c 1c3d d238 283d
000001f0: 2f17 a63d 35ea 13bd 012f 93bb dcfb 40bd
00000200: f078 d9bd fb38 0d3e 8fcb b43c ad63 163d
00000210: 31ad bbbd d508 123e 96e6 d23c 40d0 b4bd
00000220: 12e9 ac3d 2442 03bd de46 473d 60d2 d7bd
00000230: 3349 893d 3497 adbd 0ea9 4fbc 06b6 f1bc
00000240: fbfa 443d c4c5 983c 6b0d f2bd 11b7 b63b
00000250: e0d2 c8bd 4711 2dbe e561 b73d f8a4 dcbc
00000260: ab41 dd3c a4a3 efbd 1b1d b83d fb28 e8bc
00000270: 05ec cbbd 5657 bf3d db28 94bc f873 d5bc
00000280: 34a0 443d 6eb4 7fbc 726a 5ebd 1541 32be
00000290: fe1e 07bd 442e b6bd b2a9 963d bf43 c63c
000002a0: 24ac 0c3c c75d 513d 8a97 d23a 0bcc 8fbd
000002b0: 2a23 273d 4796 963d 035d dabc 4afe d93d
000002c0: 9c25 a6bd 61cb 4d3d 591d 173e 198b 853d
000002d0: 4233 a83c 6f2c b43c 0d4e bf3c 6ac3 f6bd
000002e0: 10d2 ca3d 3d8a a1bd 1f5b 263d 84cb 143e
000002f0: 3dcd a7bd d525 2dbd 1135 ff3c 1469 37bd
00000300: 978a dcbd 1c52 e5bd 7d6d 203d 95a6 9dbd
00000310: 1cd7 253d 8e63 663d c021 563d 90cb 08bd
00000320: 6ab8 2b3d 567d e73d 1286 92bc 5639 4cbd
00000330: ab8a 87bc b396 833c 1215 94bd 59dd aabc
00000340: f9e6 c83d a3a7 72bb 1081 a83d 9142 8bbd
00000350: 8c72 713d d22d d73d e414 8e3d 1963 553c
00000360: be58 803d ebc4 0abe 0bff 163d e220 873d
00000370: 35d1 6f3b 713d 053d b131 dcbd d654 b83d
00000380: 0bf1 53bc d513 4dba 318e f2bd 8452 c83d
00000390: f1e0 893c 8060 6a3d b446 1b3d 2f11 0fbb
000003a0: c46e 06be aee6 6d3c 7eec 183e 923e 503e
000003b0: f1a5 b6bc 26cb 3cbe bace 1b3e c0bf d63d
000003c0: f7cf 33be 8c0a ac3d 4194 8ebd 1e66 febd
000003d0: 1d36 49bd a01b 0d3d 0ec9 ba3d 210f 91bc
000003e0: 78bd b9bd e074 0d3e f32a 3a3d 5b32 953d
000003f0: 1259 c4bc 837a a6bd b6af e83d b5aa e13b

network_body._body_endoder.seq_layers.0.bias f4 [128]
0.0 0.0 0.0 0.0 0.0 0.0 0.0 0.0
0.0 0.0 0.0 0.0 0.0 0.0 0.0 0.0
0.0 0.0 0.0 0.0 0.0 0.0 0.0 0.0
0.0 0.0 0.0 0.0 0.0 0.0 0.0 0.0
0.0 0.0 0.0 0.0 0.0 0.0 0.0 0.0
0.0 0.0 0.0 0.0 0.0 0.0 0.0 0.0
0.0 0.0 0.0 0.0 0.0 0.0 0.0 0.0
0.0 0.0 0.0 0.0 0.0 0.0 0.0 0.0
0.0 0.0 0.0 0.0 0.0 0.0 0.0 0.0
0.0 0.0 0.0 0.0 0.0 0.0 0.0 0.0
0.0 0.0 0.0 0.0 0.0 0.0 0.0 0.0
0.0 0.0 0.0 0.0 0.0 0.0 0.0 0.0
0.0 0.0 0.0 0.0 0.0 0.0 0.0 0.0
0.0 0.0 0.0 0.0 0.0 0.0 0.0 0.0
0.0 0.0 0.0 0.0 0.0 0.0 0.0 0.0
0.0 0.0 0.0 0.0 0.0 0.0 0.0 0.0
00000000: 0000 0000 0000 0000 0000 0000 0000 0000
00000010: 0000 0000 0000 0000 0000 0000 0000 0000
00000020: 0000 0000 0000 0000 0000 0000 0000 0000
00000030: 0000 0000 0000 0000 0000 0000 0000 0000
00000040: 0000 0000 0000 0000 0000 0000 0000 0000
00000050: 0000 0000 0000 0000 0000 0000 0000 0000
00000060: 0000 0000 0000 0000 0000 0000 0000 0000
00000070: 0000 0000 0000 0000 0000 0000 0000 0000
00000080: 0000 0000 0000 0000 0000 0000 0000 0000
00000090: 0000 0000 0000 0000 0000 0000 0000 0000
000000a0: 0000 0000 0000 0000 0000 0000 0000 0000
000000b0: 0000 0000 0000 0000 0000 0000 0000 0000
000000c0: 0000 0000 0000 0000 0000 0000 0000 0000
000000d0: 0000 0000 0000 0000 0000 0000 0000 0000
000000e0: 0000 0000 0000 0000 0000 0000 0000 0000
000000f0: 0000 0000 0000 0000 0000 0000 0000 0000
00000100: 0000 0000 0000 0000 0000 0000 0000 0000
00000110: 0000 0000 0000 0000 0000 0000 0000 0000
00000120: 0000 0000 0000 0000 0000 0000 0000 0000
00000130: 0000 0000 0000 0000 0000 0000 0000 0000
00000140: 0000 0000 0000 0000 0000 0000 0000 0000
00000150: 0000 0000 0000 0000 0000 0000 0000 0000
00000160: 0000 0000 0000 0000 0000 0000 0000 0000
00000170: 0000 0000 0000 0000 0000 0000 0000 0000
00000180: 0000 0000 0000 0000 0000 0000 0000 0000
00000190: 0000 0000 0000 0000 0000 0000 0000 0000
000001a0: 0000 0000 0000 0000 0000 0000 0000 0000
000001b0: 0000 0000 0000 0000 0000 0000 0000 0000
000001c0: 0000 0000 0000 0000 0000 0000 0000 0000
000001d0: 0000 0000 0000 0000 0000 0000 0000 0000
000001e0: 0000 0000 0000 0000 0000 0000 0000 0000
000001f0: 0000 0000 0000 0000 0000 0000 0000 0000

network_body._body_endoder.seq_layers.2.weight f4 [128, 128]
0.02507316 -0.18681948 0.0018650746 -0.100182846 0.14549473 -0.07895471 -0.115867764 -0.11647934
0.08923714 -0.05745827 0.0061562713 -0.010231337 0.026881479 0.015949707 -0.14619766 0.1245375
-0.089979544 -0.24128205 0.0945753 -0.09863096 0.094285205 -0.13212955 -0.035003416 0.22878559
-0.021707902 -0.026776716 0.032113615 -0.096453875 -0.020665323 0.011645547 -0.0090143345 0.16671112
-0.010439605 0.12484517 -0.009649202 0.13273568 -0.17710365 -0.09828824 -0.053316053 -0.031556636
-0.024584688 0.05556619 -0.012839032 0.09070279 -0.13917963 -0.1562996 0.16306125 -0.06788457
-0.027231857 -0.039873894 0.08335492 -0.17451218 -0.07975617 -0.083072856 0.02423316 -0.1242949
0.0004484551 0.060897227 0.056508258 -0.12164588 0.04422994 -0.07656731 -0.05907572 0.10065565
0.03240545 0.035687584 -0.15093109 0.15583843 -0.02347952 -0.07858033 -0.00031378923 -0.2193082
-0.1140227 0.11859256 0.12945712 -0.13887522 0.081549704 -0.21775374 0.07335293 0.004175617
-0.026199527 0.022474794 0.03745661 0.019060735 -0.0075035566 0.08557343 0.059400473 -0.07998131
-0.04290787 0.098002166 -0.028482616 -0.02770886 0.05483201 0.09248953 0.022120768 0.1303366
-0.054187417 0.078821294 -0.020563506 0.032720465 -0.1299716 0.0035594297 -0.09371144 0.053844154
0.022219965 0.024347205 -0.05067255 0.081866 -0.06279073 -0.034911975 -0.1695167 -0.02664956
0.011715387 0.021051276 -0.027098129 0.017887488 0.045369633 0.07857359 0.10577922 -0.015808873
-0.099086516 0.07992723 0.091552794 -0.012717456 0.12126608 -0.056815654 0.031011257 -0.006645041
0.21101801 0.040614117 0.0035074367 0.022229156 0.06519986 -0.09549047 -0.06828707 -0.056963537
0.01951364 0.12609199 -0.04059744 -0.103485264 -0.15813924 0.0011429004 0.05469896 0.060940508
0.16742544 -0.02366317 -0.11841994 -0.09196147 -0.14561845 0.18102361 0.048836123 0.13124801
0.08165254 0.08405502 0.052703056 -0.038941674 0.10656762 -0.018930372 0.050961103 0.022218889
0.05142425 0.0036635788 -0.034700293 0.14824688 0.04013299 0.016690843 -0.10169442 -0.02573809
0.04190105 -0.23406294 -0.04728896 0.07277895 0.02115839 0.1714738 0.07973649 0.062394045
-0.0055843815 -0.04867902 0.021772312 -0.05409083 -0.03107779 -0.035431813 0.004431568 0.16052616
0.106902234 0.013952833 0.06625334 -0.09715459 -0.01772672 0.2026521 -0.025757316 -0.00083676254
-0.025900094 0.053501196 0.02249351 0.075594135 -0.16543183 -0.044269163 -0.022116756 0.102426305
-0.056409724 -0.07298909 0.07549442 0.10365135 -0.08967802 0.1158027 0.111793675 -0.03934919
0.0036860458 0.0776951 -0.014242163 0.111462325 0.03655831 0.012219314 -0.0999089 0.007754315
0.007818589 0.119678706 -0.039922573 0.115804195 0.23707235 0.009515757 -0.0654298 0.0029963113
-0.09802338 0.002026736 0.021865444 -0.07852233 -0.04439693 -0.029993974 -0.1321345 -0.002479171
-0.0046635894 0.07442307 -0.04688674 0.032800302 0.07209408 -0.03872533 0.041113246 0.027485527
-0.056984328 0.11302771 -0.03677183 -0.04717326 -0.082563184 0.068136945 0.059131294 -0.094699204
0.05307087 -0.06302751 -0.04849394 -0.22579385 0.00010861005 0.0471672 -0.12226655 -0.0469746
00000000: 3a66 cd3c 9b4d 3fbe 8575 f43a aa2c cdbd
00000010: 92fc 143e 02b3 a1bd 144c edbd b88c eebd
00000020: f6c1 b63d 5d59 6bbd 8cba c93b 56a1 27bc
00000030: 8c36 dc3c f6a8 823c d7b4 15be 840d ff3d
00000040: 3247 b8bd a412 77be b2b0 c13d 07ff c9bd
00000050: 9a18 c13d f84c 07be be5f 0fbd c546 6a3e
00000060: c5d4 b1bc d85a dbbc 9189 033d 9c89 c5bd
00000070: 534a a9bc f7cc 3e3c dcb0 13bc 52b6 2a3e
00000080: e10a 2bbc d3ae ff3d b017 1ebc ddeb 073e
00000090: a95a 35be 584b c9bd ef61 5abd 8841 01bd
000000a0: d465 c9bc 6099 633d ce5a 52bc 62c2 b93d
000000b0: 1b85 0ebe 010d 20be 87f9 263e 1107 8bbd
000000c0: 5815 dfbc cf52 23bd fcb5 aa3d 52b3 32be
000000d0: 3457 a3bd 1a22 aabd 9f84 c63c 538e febd
000000e0: a01e eb39 5f6f 793d 3475 673d 7a21 f9bd
000000f0: 742a 353d 52cf 9cbd 62f9 71bd 8d24 ce3d
00000100: 94bb 043d 252d 123d ae8d 1abe 1c94 1f3e
00000110: 1f58 c0bc b9ee a0bd 1484 a4b9 5492 60be
00000120: bc84 e9bd a8e0 f23d 6890 043e 4e35 0ebe
00000130: 8803 a73d d6fa 5ebe 103a 963d 9dd3 883b
00000140: 64a0 d6bc 0f1d b83c 1a6c 193d 4225 9c3c
00000150: 65e0 f5bb 1f41 af3d e94d 733d 3ecd a3bd
00000160: 2ac0 2fbd 5cb5 c83d 6054 e9bc b1fd e2bc
00000170: 8897 603d 276b bd3d 9d36 b53c f576 053e
00000180: a0f3 5dbd 0f6d a13d cc74 a8bc e505 063d
00000190: 4617 05be 5245 693b c9eb bfbd b08b 5c3d
000001a0: a506 b63c ca73 c73c 058e 4fbd 5da9 a73d
000001b0: 6d98 80bd dcff 0ebd c995 2dbe 2e50 dabc
000001c0: e5f1 3f3c ba73 ac3c e5fc ddbc c888 923c
000001d0: 82d5 393d 31eb a03d c7a2 d83d 9c81 81bc
000001e0: dfed cabd e3b0 a33d 0880 bb3d e05c 50bc
000001f0: 5a5a f83d 88b7 68bd 520b fe3c a5be d9bb
00000200: 1b15 583e fd5a 263d 06dd 653b eb19 b63c
00000210: 8187 853d 8290 c3bd 17da 8bbd 9952 69bd
00000220: 12db 9f3c 421e 013e 8049 26bd 15f0 d3bd
00000230: 41ef 21be 60cd 953a 040c 603d c19c 793d
00000240: 9371 2b3e 44d9 c1bc 2786 f2bd 4c56 bcbd
00000250: 011d 15be 415e 393e 6308 483d e165 063e
00000260: 7239 a73d 0a25 ac3d 29df 573d 4e81 1fbd
00000270: 2040 da3d de13 9bbc 97bc 503d 6304 b63c
00000280: 3ca2 523d a718 703b e521 0ebd 08ce 173e
00000290: 7d62 243d 3cbb 883c 2a45 d0bd b0d8 d2bc
000002a0: 6fa0 2b3d 32ae 6fbe 12b2 41bd 210d 953d
000002b0: 5c54 ad3c d496 2f3e e34c a33d e690 7f3d
000002c0: 30fd b6bb a763 47bd d95b b23c 598e 5dbd
000002d0: d996 febc f320 11bd b036 913b f860 243e
000002e0: 8fef da3d 6c9a 643c d5af 873d fcf8 c6bd
000002f0: a037 91bc 0884 4f3e 0201 d3bc 2f5a 5bba
00000300: 6f2c d4bc 1224 5b3d 4f44 b83c 19d1 9a3d
00000310: f666 29be 9553 35bd 332e b5bc e2c4 d13d
00000320: e20d 67bd 4e7b 95bd d29c 9a3d 2947 d43d
00000330: 1ca9 b7bd f729 ed3d 15f4 e43d 9e2c 21bd
00000340: 9691 713b 9c1e 9f3d f657 69bc 5c46 e43d
00000350: 2bbe 153d 8533 483c 0a9d ccbd e917 fe3b
00000360: 8a19 003c 1c1a f53d da85 23bd c02a ed3d
00000370: 18c3 723e fae7 1b3c 0f00 86bd c35d 443b
00000380: 7bc0 c8bd fdd2 043b 291f b33c 51d0 a0bd
00000390: 8ed9 35bd ecb5 f5bc 444e 07be 9679 22bb
000003a0: 06d1 98bb 1f6b 983d 4f0c 40bd 9c59 063d
000003b0: 10a6 933d 749e 1ebd 5d66 283d 5429 e13c
000003c0: 6668 69bd 127b e73d 0f9e 16bd c038 41bd
000003d0: e316 a9bd 628b 8b3d a833 723d a8f1 c1bd
000003e0: d760 593d 9114 81bd 95a1 46bd 8136 67be
000003f0: 94c5 e338 6532 413d e366 fabd 7068 40bd

network_body._body_endoder.seq_layers.2.bias f4 [128]
0.0 0.0 0.0 0.0 0.0 0.0 0.0 0.0
0.0 0.0 0.0 0.0 0.0 0.0 0.0 0.0
0.0 0.0 0.0 0.0 0.0 0.0 0.0 0.0
0.0 0.0 0.0 0.0 0.0 0.0 0.0 0.0
0.0 0.0 0.0 0.0 0.0 0.0 0.0 0.0
0.0 0.0 0.0 0.0 0.0 0.0 0.0 0.0
0.0 0.0 0.0 0.0 0.0 0.0 0.0 0.0
0.0 0.0 0.0 0.0 0.0 0.0 0.0 0.0
0.0 0.0 0.0 0.0 0.0 0.0 0.0 0.0
0.0 0.0 0.0 0.0 0.0 0.0 0.0 0.0
0.0 0.0 0.0 0.0 0.0 0.0 0.0 0.0
0.0 0.0 0.0 0.0 0.0 0.0 0.0 0.0
0.0 0.0 0.0 0.0 0.0 0.0 0.0 0.0
0.0 0.0 0.0 0.0 0.0 0.0 0.0 0.0
0.0 0.0 0.0 0.0 0.0 0.0 0.0 0.0
0.0 0.0 0.0 0.0 0.0 0.0 0.0 0.0
00000000: 0000 0000 0000 0000 0000 0000 0000 0000
00000010: 0000 0000 0000 0000 0000 0000 0000 0000
00000020: 0000 0000 0000 0000 0000 0000 0000 0000
00000030: 0000 0000 0000 0000 0000 0000 0000 0000
00000040: 0000 0000 0000 0000 0000 0000 0000 0000
00000050: 0000 0000 0000 0000 0000 0000 0000 0000
00000060: 0000 0000 0000 0000 0000 0000 0000 0000
00000070: 0000 0000 0000 0000 0000 0000 0000 0000
00000080: 0000 0000 0000 0000 0000 0000 0000 0000
00000090: 0000 0000 0000 0000 0000 0000 0000 0000
000000a0: 0000 0000 0000 0000 0000 0000 0000 0000
000000b0: 0000 0000 0000 0000 0000 0000 0000 0000
000000c0: 0000 0000 0000 0000 0000 0000 0000 0000
000000d0: 0000 0000 0000 0000 0000 0000 0000 0000
000000e0: 0000 0000 0000 0000 0000 0000 0000 0000
000000f0: 0000 0000 0000 0000 0000 0000 0000 0000
00000100: 0000 0000 0000 0000 0000 0000 0000 0000
00000110: 0000 0000 0000 0000 0000 0000 0000 0000
00000120: 0000 0000 0000 0000 0000 0000 0000 0000
00000130: 0000 0000 0000 0000 0000 0000 0000 0000
00000140: 0000 0000 0000 0000 0000 0000 0000 0000
00000150: 0000 0000 0000 0000 0000 0000 0000 0000
00000160: 0000 0000 0000 0000 0000 0000 0000 0000
00000170: 0000 0000 0000 0000 0000 0000 0000 0000
00000180: 0000 0000 0000 0000 0000 0000 0000 0000
00000190: 0000 0000 0000 0000 0000 0000 0000 0000
000001a0: 0000 0000 0000 0000 0000 0000 0000 0000
000001b0: 0000 0000 0000 0000 0000 0000 0000 0000
000001c0: 0000 0000 0000 0000 0000 0000 0000 0000
000001d0: 0000 0000 0000 0000 0000 0000 0000 0000
000001e0: 0000 0000 0000 0000 0000 0000 0000 0000
000001f0: 0000 0000 0000 0000 0000 0000 0000 0000

action_model._discrete_distribution.branches.0.weight f4 [3, 128]
-0.0032946602 0.004090511 0.0028403269 -0.0024820757 -0.0028287848 0.006673019 0.0060481206 0.0037238616
0.0061334404 -0.0070141642 0.008485283 0.009887101 -0.009330715 -0.01575782 -0.007267917 -0.007812696
-0.0029959385 -0.0025323252 -0.020034514 0.006908094 0.0017575242 0.006374386 0.0072294744 -0.0041987374
0.0028016584 -0.0052169836 -0.022543797 0.008332798 -0.004590729 0.006774135 -0.0074332813 -0.005681992
-0.0032280234 0.012608707 0.0073786736 -0.008261275 -0.00075948075 -0.0008212921 0.020186678 0.00017549905
-0.014386094 0.001273061 0.010541881 -0.011708246 -0.005124681 0.0077675465 -0.009458529 -0.0047263075
-0.014286436 0.0059682066 0.007361023 -0.0022701805 0.008006494 0.016522473 -0.0068187714 -0.01906436
0.006174637 -0.011859987 0.002665465 0.001160265 0.0015472333 0.009159353 -0.0039050297 0.006936203
-0.011157658 0.008134662 0.009183491 -0.0065848054 0.007146695 0.0062017567 -0.0026398886 -0.00046305038
-0.0009679046 -0.0136749735 -0.010853648 0.01685308 0.01056929 -0.002200004 -0.001991892 0.016234249
-0.0026527513 0.0011087422 0.0060935244 0.0053638555 -0.005980683 -0.0086507425 -0.0007010102 0.0013849273
-0.016773557 -0.0018269949 0.008243611 0.005386775 0.0030943172 -0.0059266905 0.007840372 0.00017959466
-0.011719699 -0.02023694 0.0070244647 -0.011585627 0.0045615872 0.017302746 -0.0054478976 -0.010024331
-0.0012364992 -0.00512854 0.0067021362 0.006449734 -0.0018057451 0.005481665 0.0019099687 -0.008956974
-0.0016675638 -0.0076136887 -0.014055221 0.0020389797 -0.0045684143 0.010398134 0.0024063066 0.00019827003
-0.012588455 0.019319316 -0.009910851 -0.0070179612 0.0092813065 0.0011475709 -0.0039877924 0.0023639563
-0.020301377 -0.013099884 0.011454578 0.0044895103 0.01343889 0.0033228397 0.009093928 0.0006568754
-0.0041001937 -0.0049117142 0.0014521804 0.0009198896 -0.010114904 -0.0012990938 -0.0030413407 0.007904962
-0.017814443 0.0029921674 0.0046735303 0.0061770855 0.0035209933 0.010285899 -0.0019796637 -0.0049144397
0.013738926 -0.016850209 0.00951487 -0.0011714915 -0.012764742 0.0053800154 -0.002680289 -0.013751146
0.002587446 -0.001683996 0.017159224 -0.0061760503 0.006576597 -0.009231875 0.014844644 -0.0072745616
-0.0064067207 -0.0018375012 0.0024514624 0.000629367 -0.0115842 0.019636754 0.003323916 0.024936488
0.0010298587 0.0019137573 -0.0037359782 -0.012860428 -0.0048561473 0.004255979 -0.013429321 -0.0019279014
0.0010346296 0.004475068 -0.0037429393 -0.005426156 -0.011703717 0.005952378 0.010961845 -0.0023617006
-0.006237944 0.0034510214 -0.0073137335 0.0108886715 0.025079478 0.0039338586 -0.004140551 0.018245867
0.003524915 0.0021371504 0.01030236 0.008333345 -0.0026277236 -0.004977461 0.019934092 0.006709084
-0.0006241084 -0.0020271093 0.000941851 0.018891279 0.0076232473 0.0018146032 -0.0005286841 -0.005570453
0.010161765 0.008408737 0.0039306968 0.004272073 0.0008558293 0.014321044 0.009844323 0.020321276
0.0071934164 -0.00695108 -0.0026342853 -0.0116844615 0.008845533 0.0025991262 -0.00021638387 -0.0022972212
-0.0010076653 -0.01460719 -5.346511e-05 -0.017852444 -0.0037479848 0.0010877496 -0.011044382 0.011692306
0.0067134923 -0.009115289 -0.0026920233 0.01151388 0.0033232712 -0.00016672068 -0.0036424994 -0.012293888
-0.013294081 0.007379809 0.00016507396 0.0050065266 -0.0026582726 0.0010649051 -0.00044170077 0.010792717
00000000: 3aeb 57bb b109 863b c724 3a3b 52aa 22bb
00000010: 2263 39bb 57a9 da3b 502f c63b 080c 743b
00000020: 07fb c83b 13d7 e5bb db05 0b3c 82fd 213c
00000030: dbdf 18bc 8b16 81bc b527 eebb d200 00bc
00000040: 8257 44bb 5ef5 25bb 6c1f a4bc 4b5d e23b
00000050: ba5c e63a 3ae0 d03b 3ae5 ec3b 9095 89bb
00000060: 079c 373b 3bf3 aabb c5ad b8bc 4a86 083c
00000070: d36d 96bb 90f9 dd3b e292 f3bb 0130 babb
00000080: 3f8d 53bb c094 4e3c cdc8 f13b 4c5a 07bc
00000090: e417 47ba fb4b 57ba 885e a53c 2b06 3839
000000a0: a7b3 6bbc d7dc a63a dbb7 2c3c f1d3 3fbc
000000b0: f1ec a7bb e786 fe3b f2f7 1abc 24df 9abb
000000c0: a811 6abc f290 c33b bd34 f13b 4fc7 14bb
000000d0: ab2d 033c 235a 873c 0070 dfbb dc2c 9cbc
000000e0: 9c54 ca3b 6450 42bc 15af 2e3b 0814 983a
000000f0: 89cc ca3a 1c11 163c 87eb 7fbb 1749 e33b
00000100: 9cce 36bc 3f47 053c 5a76 163c 5ac5 d7bb
00000110: d32e ea3b 1b38 cb3b fb01 2dbb 92c5 f2b9
00000120: faba 7dba ff0c 60bc 80d3 31bc 780f 8a3c
00000130: d12a 2d3c f12d 10bb 678a 02bb b0fd 843c
00000140: c8d9 2dbb 3753 913a 30ac c73b 48c3 af3b
00000150: 9bf9 c3bb d8bb 0dbc 00c4 37ba 7386 b53a
00000160: b368 89bc c777 efba 3610 073c 8b83 b03b
00000170: 07ca 4a3b af34 c2bb e774 003c 9351 3c39
00000180: fb03 40bc f0c7 a5bc 7b2d e63b a4d1 3dbc
00000190: 5e79 953b 7dbe 8d3c 4784 b2bb 173d 24bc
000001a0: 0712 a2ba 500d a8bb 989d db3b 4a58 d33b
000001b0: c0ae ecba 8a9f b33b ea57 fa3a 46c0 12bc
000001c0: 2892 daba 407c f9bb df47 66bc 67a0 053b
000001d0: a3b2 95bb ef5c 2a3c 20b3 1d3b b5e6 4f39
000001e0: cf3f 4ebc 8b43 9e3c 1f61 22bc edf6 e5bb
000001f0: 9f10 183c 176a 963a 07ac 82bb 9bec 1a3b
00000200: 134f a6bc e5a0 56bc fbab 3b3c be1c 933b
00000210: ca2e 5c3c 00c4 593b b3fe 143c 2932 2c3a
00000220: eb5a 86bb 72f2 a0bb 1757 be3a bf24 713a
00000230: fbb8 25bc 5b46 aaba 3b51 47bb d083 013c
00000240: 98ef 91bc 3d18 443b 6a24 993b 2669 ca3b
00000250: 77c0 663b 3086 283c 3fbd 01bb 4f09 a1bb
00000260: 3b19 613c 7309 8abc 42e4 1b3c bb8c 99ba
00000270: 3523 51bc d74a b03b caa7 2fbb 7d4c 61bc
00000280: 2492 293b 87b9 dcba 8091 8c3c 7760 cabb
00000290: 7f80 d73b 4a41 17bc f336 733c 725f eebb
000002a0: 78ef d1bb 4fd8 f0ba b7a8 203b 1bfc 243a
000002b0: a8cb 3dbc 42dd a03c 0fd6 593b 9b47 cc3c
000002c0: 53fc 863a 0ad7 fa3a 50d7 74bb 8bb4 52bc
000002d0: 5120 9fbb bd75 8b3b a806 5cbc a3b1 fcba
000002e0: 699c 873a 97a3 923b 1a4c 75bb e5cd b1bb
000002f0: f2c0 3fbc 2a0c c33b 4f99 333c c3c6 1abb
00000300: ab67 ccbb 882a 623b 0ba8 efbb 6666 323c
00000310: 7a73 cd3c 99e7 803b 76ad 87bb 5b78 953c
00000320: 4302 673b 6f0f 0c3b 3bcb 283c 9588 083c
00000330: e335 2cbb f819 a3bb d24c a33c e0d7 db3b
00000340: 359b 23ba 40d9 04bb 8de6 763a e2c1 9a3c
00000350: 6fcc f93b fbd7 ed3a 6497 0aba 5988 b6bb
00000360: 887d 263c cdc4 093c 13cd 803b bffc 8b3b
00000370: bb59 603a d0a2 6a3c 154a 213c ce78 a63c
00000380: c0b6 eb3b e3c5 e3bb f9a3 2cbb 2f70 3fbc
00000390: dbec 103c 1a56 2a3b 1ae5 62b9 fa8c 16bb
000003a0: a313 84ba ff52 6fbc ba3f 60b8 4a3f 92bc
000003b0: c0a0 75bb d292 8e3a 7ff3 34bc 1691 3f3c
000003c0: dbfc db3b 4b58 15bc a86c 30bb b7a4 3c3c
000003d0: 3dcb 593b bed1 2eb9 00b7 6ebb 4e6c 49bc
000003e0: 6bcf 59bc 53d2 f13b b417 2d39 ca0d a43b
000003f0: 6a36 2ebb 4994 8b3a 1394 e7b9 f0d3 303c

action_model._discrete_distribution.branches.0.bias f4 [3]
0.0 0.0 0.0
00000000: 0000 0000 0000 0000 0000 0000

action_model._discrete_distribution.branches.1.weight f4 [3, 128]
0.004680219 0.008545372 -0.011942141 -0.0024579584 0.0057779397 -0.006523516 0.0009583407 -0.0018753294
-0.0014482312 -0.0057840045 -0.008230051 0.0028774212 0.0056677083 -5.645919e-05 -0.009284453 0.0013556447
-0.0051694177 -0.0104660755 0.0046845884 -0.0014516136 -0.0069124633 -0.0025638917 -0.017368043 -0.0035401066
0.004786224 -0.005630937 0.021793088 -0.0091361115 0.0014097625 -0.003343964 -0.0035528403 -0.0053125466
-0.0032301755 -0.0075039617 0.0020139778 -0.009442243 -0.0078036073 -0.0060382797 0.0045574303 0.005843159
-0.006696292 0.0010243274 0.008168136 -0.017402088 0.0022845545 -0.002480753 -0.009758989 -0.0013392514
0.008943523 0.016243001 0.00840238 0.0016128764 -0.012493786 0.007424861 -0.00027733456 -0.010050851
-0.0021432582 -0.0155644035 0.0014727656 0.010551009 0.0059304233 0.010012144 -0.0047965646 0.006163036
-0.009836032 0.00108447 -0.00096542103 -0.002328073 -0.0033240903 0.0019562251 0.009011948 -0.0073708496
-0.0041501992 0.00486412 -0.01047858 0.0021299862 -0.0031971044 0.0056238878 -0.0011835091 -0.0006895327
-0.0077354806 0.008841279 -1.45068525e-05 -0.0068249926 0.008928374 0.007423432 -0.0041273255 0.0056773038
-0.00080337655 -0.014563483 -0.0043630693 0.027207077 -0.01640194 -0.0030938436 0.005496995 0.008117894
-0.0076327766 0.010878622 -0.013207379 0.004683455 0.021573896 0.0047583273 -0.0012331149 0.0041978136
-0.014757806 0.004242814 -0.0017624898 0.009769029 0.001879461 0.00978665 -0.0025513552 -0.01142562
-0.006524323 0.0075310594 0.0035716833 0.0027974208 0.002499381 0.010857238 -0.0052882503 0.004924315
-0.0032449649 -0.001149115 -0.0026501848 -0.0010058838 0.018769177 0.012420383 0.014501216 0.0034992264
0.0053153695 0.0038607758 -0.004039104 0.024058342 -0.006820801 -0.009542642 -0.0046697324 -0.004466855
0.0073611364 -0.007260038 -0.0067837923 0.015328417 0.006337379 -0.0059346994 -0.02365235 9.826151e-06
0.006897638 0.0065794825 -0.01277352 -0.0025170124 -0.0050909594 -0.014061987 0.004776552 -0.017763501
-0.00031106817 0.016383989 -0.002497183 0.012990043 0.011823908 -0.0056767478 -0.006494636 -0.009461406
0.0038594939 -0.009326938 0.009207072 0.01064858 -0.024382258 0.011465099 -0.012987668 0.0052707936
-0.0030911649 -0.009888915 0.022610655 -0.014148451 -0.011860713 -0.003772537 -0.006750397 -0.0022651155
0.001264498 -0.001386818 -0.008957977 0.009440999 -0.010370544 0.014940487 -0.001789246 -0.0004510572
0.008924955 0.011976709 0.003931896 -0.005177511 0.00040386835 0.006547749 -0.0019817215 0.02183789
-0.008594371 -0.0016538751 0.0014951658 0.0054620323 -0.009601935 -0.006007676 0.007870679 0.0054742736
-0.012186762 -0.01227141 -0.0040286914 0.007326851 -0.0043738256 0.0038676385 -0.0047205356 -0.0016773855
-0.003731753 0.0016553095 0.0013390337 0.00026045725 0.009860127 -0.000482383 0.00514701 -0.0050848313
-0.0056057214 -0.0050680055 -0.011054064 -0.011970687 -0.0055933315 -0.0048880735 0.0019435276 -0.005016915
0.0066174897 0.027826522 0.0044793426 0.0044245976 -0.007554239 -0.00043680237 -0.0037652382 -0.0018013719
0.00037796597 0.010539173 0.0069507197 -0.02153606 0.0051555955 -0.0019357533 0.0078584 0.009884209
-0.0065135374 -0.015735332 0.0016162923 0.007838181 -0.026138598 -0.0065516904 -0.0029014167 0.0067867683
-0.003276258 -0.014951176 -0.007619982 0.0225526 -0.0023915232 1.0467124e-05 0.0025799077 -0.010721478
00000000: 865c 993b e301 0c3c f8a8 43bc b315 21bb
00000010: df54 bd3b 38c3 d5bb 2839 7b3a 9dcd f5ba
00000020: 93d2 bdba bf87 bdbb 56d7 06bc 1e93 3c3b
00000030: 2fb8 b93b 98ce 6cb8 d11d 18bc e3af b13a
00000040: 3864 a9bb e779 2bbc 2d81 993b 1244 beba
00000050: f281 e2bb f706 28bb 6d47 8ebc 2201 68bb
00000060: c2d5 9c3b b983 b8bb 6b87 b23c a1af 15bc
00000070: c8c7 b83a 6826 5bbb c5d6 68bb df14 aebb
00000080: 5ab1 53bb cbe3 f5bb f1fc 033b a3b3 1abc
00000090: 67b5 ffbb c3dc c5bb 7f56 953b f877 bf3b
000000a0: 926c dbbb b942 863a a5d3 053c d38e 8ebc
000000b0: 77b8 153b 2194 22bb 2be4 1fbc d289 afba
000000c0: db87 123c 0b10 853c 23aa 093c 2767 d33a
000000d0: bdb2 4cbc 404c f33b 3767 91b9 53ac 24bc
000000e0: e875 0cbb d701 7fbc d009 c13a 24de 2c3c
000000f0: ff53 c23b fa09 243c 802c 9dbb 4bf3 c93b
00000100: 4f27 21bc c624 8e3a 4f14 7dba 9592 18bb
00000110: fbd8 59bb 0334 003b d9a6 133c 2b87 f1bb
00000120: 65fe 87bb 3263 9f3b 5aae 2bbc 3d97 0b3b
00000130: 8386 51bb 9748 b83b fa1f 9bba c2c1 34ba
00000140: ea79 fdbb 03db 103c 7562 73b7 30a4 dfbb
00000150: 5148 123c 4340 f33b 843e 87bb ad08 ba3b
00000160: b099 52ba ad9b 6ebc 14f8 8ebb 60e1 de3c
00000170: 5c5d 86bc 15c2 4abb 2320 b43b ea00 053c
00000180: 5f1c fabb 3f3c 323c c363 58bc ab77 993b
00000190: bdbb b03c beeb 9b3b 78a0 a1ba d08d 893b
000001a0: baca 71bc 4e07 8b3b 5803 e7ba 470e 203c
000001b0: 3f58 f63a 2f58 203c a334 27bb 8632 3bbc
000001c0: fdc9 d5bb 1bc7 f63b e712 6a3b ef54 373b
000001d0: a8cc 233b 8fe2 313c 0f49 adbb 265c a13b
000001e0: 7aa9 54bb e79d 96ba b9ae 2dbb dcd7 83ba
000001f0: d1c1 993c dd7e 4b3c 8296 6d3c 4753 653b
00000200: 8d2c ae3b 1205 7d3b 765a 84bb 0016 c53c
00000210: 0781 dfbb be58 1cbc 8e04 99bb b25e 92bb
00000220: b035 f13b 9de5 edbb 934a debb 0a24 7b3c
00000230: caa9 cf3b de77 c2bb 93c2 c1bc ffda 2437
00000240: 9505 e23b b398 d73b 0748 51bc 76f4 24bb
00000250: 10d2 a6bb 4064 66bc 9f84 9c3b c384 91bc
00000260: dd16 a3b9 b737 863c c7a7 23bb 30d4 543c
00000270: 11b9 413c 0304 babb f5d0 d4bb 0304 1bbc
00000280: 90ef 7c3b 03d0 18bc 42d9 163c 6277 2e3c
00000290: 4dbd c7bc 1cd8 3b3c 3aca 54bc 9fb6 ac3b
000002a0: 2495 4abb 1e05 22bc fb39 b93c e8ce 67bc
000002b0: 7053 42bc ab3c 77bb 6f32 ddbb 5572 14bb
000002c0: 83bd a53a e4c5 b5ba 7bc4 12bc 6bae 1a3c
000002d0: 37e9 29bc f2c8 743c 2285 eaba df7b ecb9
000002e0: f939 123c f539 443c 22d7 803b 1ca8 a9bb
000002f0: 4bbe d339 808e d63b c5df 01bb 60e5 b23c
00000300: 68cf 0cbc d7c6 d8ba 70f9 c33a d9fa b23b
00000310: 6f51 1dbc 0adc c4bb 05f4 003c 8961 b33b
00000320: fcaa 47bc 060e 49bc 1d03 84bb 1516 f03b
00000330: 4f52 8fbb 3578 7d3b b9ae 9abb b8db dbba
00000340: 6d90 74bb f8f6 d83a 8482 af3a fb8d 8839
00000350: 5f8c 213c 5ae8 fcb9 40a8 a83b a89e a6bb
00000360: 33b0 b7bb 8311 a6bb 1b1c 35bc b320 44bc
00000370: 4448 b7bb 222c a0bb f7bd fe3a ef64 a4bb
00000380: 87d7 d83b 72f4 e33c 73c7 923b 37fc 903b
00000390: 8d89 f7bb 9f02 e5b9 37c2 76bb 031c ecba
000003a0: bc29 c639 7fac 2c3c ddc2 e33b 646c b0bc
000003b0: 45f0 a83b 1ab9 fdba 85c0 003c 61f1 213c
000003c0: 836f d5bb 62e7 80bc c5d9 d33a b76b 003c
000003d0: 9d20 d6bc 90af d6bb b225 3ebb 8a63 de3b
000003e0: 7db6 56bb c7f5 74bc 0bb1 f9bb 3bc0 b83c
000003f0: 1abb 1cbb f59b 2f37 ab13 293b 23a9 2fbc

action_model._discrete_distribution.branches.1.bias f4 [3]
0.0 0.0 0.0
00000000: 0000 0000 0000 0000 0000 0000

network_body._body_endoder.seq_layers.0.weight f4 [128, 138]
-0.16175133 -0.014567156 0.05481215 0.01336347 -0.11277372 -0.088978805 -0.005488431 -0.067338094
-0.02931353 -0.058838807 -0.08175448 0.06687438 -0.09091465 -0.0438322 -0.05888283 0.059777196
0.02651442 0.030759118 -0.14167687 -0.19654118 0.023829103 -0.08209087 0.013774788 0.08365572
-0.14082004 -0.0029129891 -0.1197607 0.052041873 -0.08701655 -0.117367275 -0.0024047694 -0.10906612
0.011145156 -0.069983415 -0.039896622 -0.024185773 -0.047999237 -0.037036795 0.04619777 -0.043436617
-0.062516235 0.0120181 0.09672052 0.03954922 -0.06145567 -0.019638663 -0.094909765 0.09561576
0.041447178 0.0907624 -0.0018437684 -0.03944775 -0.11866998 -0.08098399 0.106378555 -0.025331734
0.050240412 -0.022081906 0.12860842 -0.04919067 -0.076313704 0.0704847 0.109806955 -0.02637774
-0.06393237 0.053963516 -0.17131747 0.019369422 -0.06343445 0.004434561 -0.01751664 -0.10186551
-0.01166845 -0.09668825 0.010817779 -0.07083607 0.2055575 -0.13586125 -0.07699172 -0.13856857
-0.05317716 0.03272751 -0.15639466 -0.12136989 0.0022584284 0.058040753 0.13670294 -0.06080625
-0.08980481 0.13512635 -0.05249855 0.05283694 0.121527106 -0.2054024 -0.04319559 0.07391975
-0.057735853 0.0482661 0.03745407 -0.06657395 -0.0881697 0.017159045 -0.055874497 -0.15030394
-0.13080451 -0.035264045 0.045017757 -0.08490192 -0.09572121 0.0640295 -0.0038388432 -0.017487831
0.10534431 -0.055978537 0.03873452 0.03681852 0.10348716 -0.087974384 -0.15318045 0.014897403
-0.10081419 0.028679201 0.16678372 0.015231128 -0.11595972 -0.015642006 0.07522484 -0.11284732
-0.059166577 -0.016201641 0.08466096 0.055358406 -0.013957383 0.008910048 -0.072420575 -0.063723356
0.13025507 0.23663597 -0.07837144 -0.057962194 -0.23918983 0.065541215 -0.15081522 -0.1317763
0.06599787 0.12020652 0.018777382 0.0014502577 0.027213106 -0.14578596 0.06407499 -0.035804216
-0.075411886 0.15065673 0.006788865 0.0007265416 0.15567946 0.00035843716 0.15615122 -0.022122493
-0.101814605 -0.06905503 0.09698054 -0.100448444 0.032502253 -0.024416521 0.0184844 -0.09096715
-0.022927707 0.09727358 0.011150804 -0.034234148 0.006909546 0.055600274 0.08740937 0.030200139
-0.038038537 -0.028276887 -0.039312147 -0.08947025 -0.050017294 0.029738054 -0.04874959 0.13632934
-0.024546582 0.1518075 -0.1819496 0.1584795 0.012973708 0.07230426 0.06306833 -0.031377386
-0.044696786 -0.025362326 -0.0391239 -0.049522143 0.016832674 0.020685824 -0.0261 -0.1537512
-0.084290326 -0.13395764 -0.06168773 0.07765414 -0.04103289 -0.019634942 0.07883195 -0.05290542
0.078722015 -0.053789835 0.09159623 0.01767213 0.08948675 0.15017883 -0.00472127 0.09544883
0.022872673 -0.055637274 -0.06788389 -0.26975602 0.042329755 -0.046473585 -0.01407028 0.068545155
0.1273527 0.23348245 -0.0009941857 0.098515674 0.0904163 0.13781628 -0.15880963 -0.055553485
0.0144433165 0.09932856 0.19411892 0.1477517 0.040522646 0.06923045 0.017598951 -0.019702956
0.07434154 -0.078790426 -0.020520316 -0.009644794 0.06295913 0.11442547 0.08058867 0.043321546
0.015274439 0.078843325 0.037267417 0.030100642 -0.04597066 0.039809585 -0.08590718 0.020610396
00000000: 24a2 25be 15ab 6ebc b482 603d 75f2 5a3c
00000010: e8f5 e6bd 853a b6bd 4cd8 b3bb 8ee8 89bd
00000020: ee22 f0bc f600 71bd e56e a7bd 6ff5 883d
00000030: 7631 babd 6589 33bd 1f2f 71bd efd8 743d
00000040: c534 d93c 8cfa fb3c be13 11be 1742 49be
00000050: 4035 c33c 421f a8bd a6af 613c b153 ab3d
00000060: 2133 10be d9e7 3ebb 1945 f5bd dc29 553d
00000070: bc35 b2bd 415e f0bd 5699 1dbb 0f5e dfbd
00000080: 2c9a 363c 7753 8fbd a46a 23bd 3e21 c6bc
00000090: d99a 44bd e5b3 17bd df39 3d3d 98ea 31bd
000000a0: 8308 80bd 91e7 443c 6815 c63d 5dfe 213d
000000b0: f1b8 7bbd 43e1 a0bc 0d60 c2bd 32d2 c33d
000000c0: 84c4 293d a3e1 b93d 9aaa f1ba f793 21bd
000000d0: 3f09 f3bd efda a5bd 00dd d93d 7f84 cfbc
000000e0: e4c8 4d3d 1de5 b4bc edb1 033e 287c 49bd
000000f0: 5c4a 9cbd 485a 903d 78e2 e03d 2116 d8bc
00000100: f9ee 82bd d908 5d3d d96d 2fbe 9fac 9e3c
00000110: ece9 81bd cb4f 913b 0e7f 8fbc dd9e d0bd
00000120: 072d 3fbc 7d04 c6bd 0e3d 313c 8012 91bd
00000130: aa7d 523e 361f 0bbe d6ad 9dbd ebe4 0dbe
00000140: 4bd0 59bd 480d 063d ec25 20be c790 f8bd
00000150: 2402 143b 24bc 6d3d dbfb 0b3e f90f 79bd
00000160: 96eb b7bd 905e 0a3e b808 57bd 8c6b 583d
00000170: 34e3 f83d 0255 52be dced 30bd 3d63 973d
00000180: 6e7c 6cbd adb2 453d 7069 193d ec57 88bd
00000190: 5192 b4bd 2091 8c3c a8dc 64bd 47e9 19be
000001a0: 9ef1 05be 0871 10bd 8a64 383d 0fe1 adbd
000001b0: 7b09 c4bd e621 833d 1a95 7bbb a442 8fbc
000001c0: c2be d73d c049 65bd 17a8 1e3d 04cf 163d
000001d0: 13f1 d33d ea2b b4bd 56db 1cbe 3d14 743c
000001e0: ac77 cebd a5f0 ea3c 5ac9 2a3e fb8b 793c
000001f0: 4a7c edbd aa23 80bc 7b0f 9a3d 7f1c e7bd
00000200: a758 72bd 4eb9 84bc ba62 ad3d 7fbf 623d
00000210: 82ad 64bc 73fb 113c 3d51 94bd 6481 82bd
00000220: 9661 053e b350 723e 3581 a0bd c469 6dbd
00000230: 2eee 74be 793a 863d 4e6f 1abe 5ef0 06be
00000240: e429 873d d62e f63d 06d3 993c 9316 be3a
00000250: 05ee de3c ea48 15be c039 833d 71a7 12bd
00000260: 8c71 9abd c245 1a3e 2175 de3b 6275 3e3a
00000270: 706a 1f3e 9fec bb39 1be6 1f3e 3b3a b5bc
00000280: 2d84 d0bd b96c 8dbd bc9d c63d eab7 cdbd
00000290: 1521 053d 2805 c8bc 996c 973c fc4c babd
000002a0: e3d2 bbbc 5f37 c73d ddb1 363c 1b39 0cbd
000002b0: 7969 e23b 1dbd 633d af03 b33d 4866 f73c
000002c0: 4cce 1bbd eea4 e7bc c605 21bd 2e3c b7bd
000002d0: efde 4cbd 389d f33c a6ad 47bd eb99 0b3e
000002e0: ea15 c9bc 6d73 1b3e ff50 3abe 7348 223e
000002f0: ad8f 543c 4214 943d f829 813d 9385 00bd
00000300: fa13 37bd a7c4 cfbc 6240 20bd bbd7 4abd
00000310: ade4 893c 5175 a93c abcf d5bc f470 1dbe
00000320: 68a0 acbd 312c 09be 46ac 7cbd 2209 9f3d
00000330: 1b12 28bd 75d9 a0bc a572 a13d 5bb3 58bd
00000340: 0239 a13d bb52 5cbd ce96 bb3d 25c5 903c
00000350: d444 b73d 7bc8 193e e2b4 9abb ad7a c33d
00000360: 795f bb3c e9e3 63bd b506 8bbd 761d 8abe
00000370: f761 2d3d 165b 3ebd 0887 66bc 6761 8c3d
00000380: bf68 023e 0616 6f3e 564f 82ba 96c2 c93d
00000390: 2e2c b93d b61f 0d3e fe9e 22be 0d8c 63bd
000003a0: a9a3 6c3c c66c cb3d 1cc7 463e 394c 173e
000003b0: 13fb 253d b2c8 8d3d ad2b 903c 1868 a1bc
000003c0: 6140 983d e05c a1bd 391a a8bc 3305 1ebc
000003d0: b7f0 803d e757 ea3d ac0b a53d ef71 313d
000003e0: a441 7a3c 9c78 a13d b8a5 183d 9f95 f63c
000003f0: bb4b 3cbd 600f 233d 1bf0 afbd 22d7 a83c

network_body._body_endoder.seq_layers.0.bias f4 [128]
0.0 0.0 0.0 0.0 0.0 0.0 0.0 0.0
0.0 0.0 0.0 0.0 0.0 0.0 0.0 0.0
0.0 0.0 0.0 0.0 0.0 0.0 0.0 0.0
0.0 0.0 0.0 0.0 0.0 0.0 0.0 0.0
0.0 0.0 0.0 0.0 0.0 0.0 0.0 0.0
0.0 0.0 0.0 0.0 0.0 0.0 0.0 0.0
0.0 0.0 0.0 0.0 0.0 0.0 0.0 0.0
0.0 0.0 0.0 0.0 0.0 0.0 0.0 0.0
0.0 0.0 0.0 0.0 0.0 0.0 0.0 0.0
0.0 0.0 0.0 0.0 0.0 0.0 0.0 0.0
0.0 0.0 0.0 0.0 0.0 0.0 0.0 0.0
0.0 0.0 0.0 0.0 0.0 0.0 0.0 0.0
0.0 0.0 0.0 0.0 0.0 0.0 0.0 0.0
0.0 0.0 0.0 0.0 0.0 0.0 0.0 0.0
0.0 0.0 0.0 0.0 0.0 0.0 0.0 0.0
0.0 0.0 0.0 0.0 0.0 0.0 0.0 0.0
00000000: 0000 0000 0000 0000 0000 0000 0000 0000
00000010: 0000 0000 0000 0000 0000 0000 0000 0000
00000020: 0000 0000 0000 0000 0000 0000 0000 0000
00000030: 0000 0000 0000 0000 0000 0000 0000 0000
00000040: 0000 0000 0000 0000 0000 0000 0000 0000
00000050: 0000 0000 0000 0000 0000 0000 0000 0000
00000060: 0000 0000 0000 0000 0000 0000 0000 0000
00000070: 0000 0000 0000 0000 0000 0000 0000 0000
00000080: 0000 0000 0000 0000 0000 0000 0000 0000
00000090: 0000 0000 0000 0000 0000 0000 0000 0000
000000a0: 0000 0000 0000 0000 0000 0000 0000 0000
000000b0: 0000 0000 0000 0000 0000 0000 0000 0000
000000c0: 0000 0000 0000 0000 0000 0000 0000 0000
000000d0: 0000 0000 0000 0000 0000 0000 0000 0000
000000e0: 0000 0000 0000 0000 0000 0000 0000 0000
000000f0: 0000 0000 0000 0000 0000 0000 0000 0000
00000100: 0000 0000 0000 0000 0000 0000 0000 0000
00000110: 0000 0000 0000 0000 0000 0000 0000 0000
00000120: 0000 0000 0000 0000 0000 0000 0000 0000
00000130: 0000 0000 0000 0000 0000 0000 0000 0000
00000140: 0000 0000 0000 0000 0000 0000 0000 0000
00000150: 0000 0000 0000 0000 0000 0000 0000 0000
00000160: 0000 0000 0000 0000 0000 0000 0000 0000
00000170: 0000 0000 0000 0000 0000 0000 0000 0000
00000180: 0000 0000 0000 0000 0000 0000 0000 0000
00000190: 0000 0000 0000 0000 0000 0000 0000 0000
000001a0: 0000 0000 0000 0000 0000 0000 0000 0000
000001b0: 0000 0000 0000 0000 0000 0000 0000 0000
000001c0: 0000 0000 0000 0000 0000 0000 0000 0000
000001d0: 0000 0000 0000 0000 0000 0000 0000 0000
000001e0: 0000 0000 0000 0000 0000 0000 0000 0000
000001f0: 0000 0000 0000 0000 0000 0000 0000 0000

network_body._body_endoder.seq_layers.2.weight f4 [128, 128]
0.054989625 0.062072225 -0.06711302 -0.19604829 0.007246598 0.0043169595 0.04302603 0.058905773
-0.17273054 0.045124974 0.07233144 -0.009097146 0.026848227 0.012243323 -0.13004965 -0.04663288
0.029192753 0.083947964 -0.07098317 0.14912377 0.12169431 0.008740639 -0.13475753 -0.026027847
-0.13243218 -0.11071425 -0.05826736 0.11685119 0.0939786 0.0428663 0.05168606 0.032722548
-0.078484446 -0.20113657 -0.006091668 -0.0075140083 -0.104452565 0.021056026 0.06820895 0.0014246036
0.17432639 0.038390566 -0.01123949 0.092144266 0.10575867 0.025272187 -0.03274797 -0.021702299
-0.04489061 0.0051566726 -0.09771184 -0.08473963 -0.08989968 -0.0013251713 -0.012547023 0.020890677
0.015743442 0.12439289 -0.06739123 -0.092814535 -0.037470564 0.049467936 0.035795614 -0.15811765
0.14627567 -0.018242478 0.08681174 -0.022469064 -0.008391081 0.044578187 0.082224526 -0.07384531
-0.048259854 0.06761214 -0.15494975 0.04834205 0.020679027 0.08437973 -0.107876636 -0.023654
-0.039018903 0.09825008 0.08973128 -0.039848026 -0.028347645 -0.0018230292 0.035639025 -0.051041108
-0.02554975 0.031329546 0.054551445 0.119436644 -0.092322625 -0.014588502 0.10553319 0.10348643
0.1168738 -0.057484917 -0.07327466 -0.09938308 -0.012972449 -0.04012745 -0.026022347 -0.05429474
0.067880675 -0.052022934 -0.11728649 0.060043015 -0.101078615 -0.016210584 0.06131048 -0.003677163
0.051055275 0.014010841 0.06465559 -0.23298371 -0.024814792 -0.053464774 -0.13452172 -0.08931231
-0.03738141 -0.05436688 0.08808424 -0.018655127 0.06854367 0.16294041 0.06353883 0.02539512
0.0036318956 -0.002857472 0.1715004 -0.03840507 0.07947918 0.01870179 0.020293495 0.06290194
-0.120903015 -0.05152373 -0.013807773 -0.013951724 -0.042088002 0.026249852 -0.029085632 -0.10922293
0.010219474 0.018809147 0.043500353 -0.0031230894 0.020298868 -0.16312875 0.026389588 -0.057733867
-0.053810347 0.076252356 0.008867265 0.011553688 0.07191783 0.027890118 -0.078536466 -0.038593743
0.015289033 0.09158225 0.039783232 -0.02879102 0.018372573 -0.013365892 -0.040590864 -0.065023124
0.17646304 0.14831476 0.040537577 0.15846637 0.06626309 -0.0739158 0.007311069 0.02759004
0.24082161 -0.021720082 -0.028413268 -0.0642657 -0.06815292 -0.004165694 -0.014281992 0.092209674
-0.07747958 -0.064338304 0.2510836 -0.08046227 -0.04832818 -0.09583292 0.0712024 -0.0675531
-0.07651549 -0.27103835 0.06022127 -0.07101668 0.011265905 -0.03835277 -0.04538065 0.025364906
0.112170644 -0.036321834 -0.043206047 -0.11625556 0.04933258 0.044788286 -0.017040163 0.041996535
0.09667974 -0.030835329 -0.16250518 -0.023653846 -0.17044996 -0.08587936 0.039064385 0.08603557
0.14301851 -0.07865715 0.038001172 -0.14854507 -0.02062533 0.12771803 0.23830277 0.07326997
-0.0051564374 0.044680636 -0.07986132 -0.09045232 0.16763812 0.0045360834 0.09915913 0.21893662
-0.13452175 0.15811941 -0.10705525 0.135371 0.14036378 -0.061943308 -0.003330294 -0.09624867
0.008887161 -0.17439556 -0.05003631 -0.16215895 0.07914226 0.07714674 0.050526027 0.14065033
0.07041031 -0.05708299 0.010956821 -0.012481673 -0.103765056 0.11582624 -0.030327681 0.042759966
00000000: cd3c 613d 723f 7e3d 8d72 89bd e2c0 48be
00000010: df74 ed3b 4875 8d3b 103c 303d 2e47 713d
00000020: 46e0 30be f7d4 383d 8222 943d 320c 15bc
00000030: d0f0 db3c 3898 483c bc2b 05be 1e02 3fbd
00000040: a425 ef3c e9ec ab3d a05f 91bd e7b3 183e
00000050: de3a f93d e634 0f3c e1fd 09be 5a38 d5bc
00000060: 4d9c 07be 27be e2bd c1a9 6ebd ad4f ef3d
00000070: da77 c03d 9394 2f3d c3b4 533d 1408 063d
00000080: 74bc a0bd bff6 4dbe 9d9c c7bb 1238 f6bb
00000090: 3aeb d5bd b07d ac3c 22b1 8b3d c4b9 ba3a
000000a0: 9e82 323e 6d3f 1d3d d625 38bc 22b6 bc3d
000000b0: 0098 d83d 9e07 cf3c bc22 06bd 05c9 b1bc
000000c0: 37df 37bd 4ef9 a83b 251d c8bd f98b adbd
000000d0: 531d b8bd 5fb1 adba 0792 4dbc ed22 ab3c
000000e0: 64f8 803c b3c1 fe3d 6a04 8abd 8c15 bebd
000000f0: bc7a 19bd e49e 4a3d 6c9e 123d 98e9 21be
00000100: 4ac9 153e 4071 95bc 5bca b13d 0b11 b8bc
00000110: bf7a 09bc 9e97 363d 5565 a83d 363c 97bd
00000120: 20ac 45bd 3c78 8a3d 26ab 1ebe 5002 463d
00000130: 1067 a93c 48cf ac3d 6dee dcbd 09c6 c1bc
00000140: 49d2 1fbd 5737 c93d 09c5 b73d af37 23bd
00000150: 5239 e8bc b6f2 eeba 3afa 113d 7b10 51bd
00000160: b64d d1bc 6953 003d 5671 5f3d 339b f43d
00000170: a513 bdbd 9d04 6fbc c921 d83d b2f0 d33d
00000180: 885b ef3d 4e75 6bbd 0611 96bd 5b89 cbbd
00000190: 658a 54bc ae5c 24bd d12c d5bc 2964 5ebd
000001a0: 0605 8b3d 0016 55bd e633 f0bd aaef 753d
000001b0: 4e02 cfbd 0fcc 84bc b320 7b3d 8ffc 70bb
000001c0: 561f 513d ba8d 653c 266a 843d 4893 6ebe
000001d0: 6448 cbbc e1fd 5abd 10c0 09be 5fe9 b6bd
000001e0: 401d 19bd ceaf 5ebd 8365 b43d a3d2 98bc
000001f0: a060 8c3d dad9 263e a520 823d 6d09 d03c
00000200: 1905 6e3b 6d44 3bbb cd9d 2f3e a24e 1dbd
00000210: fbc5 a23d 7f34 993c 8b3e a63c bbd2 803d
00000220: 009c f7bd 8c0a 53bd ff39 62bc c695 64bc
00000230: 7864 2cbd ee09 d73c fe44 eebc 46b0 dfbd
00000240: 956f 273c a415 9a3c 6d2d 323d bfac 4cbb
00000250: d049 a63c 390b 27be fa2e d83c 597a 6cbd
00000260: 3d68 5cbd 322a 9c3d 0148 113c ae4b 3d3c
00000270: a849 933d d179 e43c bad7 a0bd 7914 1ebd
00000280: da7e 7a3c 7a8f bb3d bef3 223d 25db ebbc
00000290: 1482 963c 9dfc 5abc 9b42 26bd d82a 85bd
000002a0: bab2 343e d3df 173e bb0a 263d 0245 223e
000002b0: f1b4 873d 2b61 97bd b191 ef3b 8204 e23c
000002c0: f199 763e 50ee b1bc f1c2 e8bc bc9d 83bd
000002d0: c293 8bbd 6080 88bb 04ff 69bc 6dd8 bc3d
000002e0: 9dad 9ebd cdc3 83bd 088e 803e 67c9 a4bd
000002f0: c5f3 45bd 0d44 c4bd 90d2 913d 4859 8abd
00000300: 27b4 9cbd 8ac5 8abe 94aa 763d 3171 91bd
00000310: a194 383c cb17 1dbd 0fe1 39bd 10ca cf3c
00000320: b9b9 e53d 34c6 14bd d3f8 30bd 6517 eebd
00000330: f610 4a3d ec73 373d d097 8bbc 8f04 2c3d
00000340: 0700 c63d 5f9a fcbc c267 26be b6c5 c1bc
00000350: 6f8a 2ebe 85e1 afbd fa01 203d 6b33 b03d
00000360: 7273 123e 0017 a1bd 1ea7 1b3d 331c 18be
00000370: 74f6 a8bc 84c8 023e a405 743e 910e 963d
00000380: 55f7 a8bb 0b03 373d 558e a3bd 113f b9bd
00000390: 54a9 2b3e 6da3 943b f113 cb3d ec30 603e
000003a0: 12c0 09be 0eea 213e c83f dbbd b29e 0a3e
000003b0: 86bb 0f3e 44b8 7dbd 1041 5abb 061e c5bd
000003c0: 749b 113c c094 32be e0f2 4cbd ff0c 26be
000003d0: 5615 a23d 1cff 9d3d 61f4 4e3d a406 103e
000003e0: 4833 903d dacf 69bd 3d84 333c ee7f 4cbc
000003f0: c682 d4bd 4f36 ed3d c271 f8bc 1325 2f3d

network_body._body_endoder.seq_layers.2.bias f4 [128]
0.0 0.0 0.0 0.0 0.0 0.0 0.0 0.0
0.0 0.0 0.0 0.0 0.0 0.0 0.0 0.0
0.0 0.0 0.0 0.0 0.0 0.0 0.0 0.0
0.0 0.0 0.0 0.0 0.0 0.0 0.0 0.0
0.0 0.0 0.0 0.0 0.0 0.0 0.0 0.0
0.0 0.0 0.0 0.0 0.0 0.0 0.0 0.0
0.0 0.0 0.0 0.0 0.0 0.0 0.0 0.0
0.0 0.0 0.0 0.0 0.0 0.0 0.0 0.0
0.0 0.0 0.0 0.0 0.0 0.0 0.0 0.0
0.0 0.0 0.0 0.0 0.0 0.0 0.0 0.0
0.0 0.0 0.0 0.0 0.0 0.0 0.0 0.0
0.0 0.0 0.0 0.0 0.0 0.0 0.0 0.0
0.0 0.0 0.0 0.0 0.0 0.0 0.0 0.0
0.0 0.0 0.0 0.0 0.0 0.0 0.0 0.0
0.0 0.0 0.0 0.0 0.0 0.0 0.0 0.0
0.0 0.0 0.0 0.0 0.0 0.0 0.0 0.0
00000000: 0000 0000 0000 0000 0000 0000 0000 0000
00000010: 0000 0000 0000 0000 0000 0000 0000 0000
00000020: 0000 0000 0000 0000 0000 0000 0000 0000
00000030: 0000 0000 0000 0000 0000 0000 0000 0000
00000040: 0000 0000 0000 0000 0000 0000 0000 0000
00000050: 0000 0000 0000 0000 0000 0000 0000 0000
00000060: 0000 0000 0000 0000 0000 0000 0000 0000
00000070: 0000 0000 0000 0000 0000 0000 0000 0000
00000080: 0000 0000 0000 0000 0000 0000 0000 0000
00000090: 0000 0000 0000 0000 0000 0000 0000 0000
000000a0: 0000 0000 0000 0000 0000 0000 0000 0000
000000b0: 0000 0000 0000 0000 0000 0000 0000 0000
000000c0: 0000 0000 0000 0000 0000 0000 0000 0000
000000d0: 0000 0000 0000 0000 0000 0000 0000 0000
000000e0: 0000 0000 0000 0000 0000 0000 0000 0000
000000f0: 0000 0000 0000 0000 0000 0000 0000 0000
00000100: 0000 0000 0000 0000 0000 0000 0000 0000
00000110: 0000 0000 0000 0000 0000 0000 0000 0000
00000120: 0000 0000 0000 0000 0000 0000 0000 0000
00000130: 0000 0000 0000 0000 0000 0000 0000 0000
00000140: 0000 0000 0000 0000 0000 0000 0000 0000
00000150: 0000 0000 0000 0000 0000 0000 0000 0000
00000160: 0000 0000 0000 0000 0000 0000 0000 0000
00000170: 0000 0000 0000 0000 0000 0000 0000 0000
00000180: 0000 0000 0000 0000 0000 0000 0000 0000
00000190: 0000 0000 0000 0000 0000 0000 0000 0000
000001a0: 0000 0000 0000 0000 0000 0000 0000 0000
000001b0: 0000 0000 0000 0000 0000 0000 0000 0000
000001c0: 0000 0000 0000 0000 0000 0000 0000 0000
000001d0: 0000 0000 0000 0000 0000 0000 0000 0000
000001e0: 0000 0000 0000 0000 0000 0000 0000 0000
000001f0: 0000 0000 0000 0000 0000 0000 0000 0000

value_heads.value_heads.extrinsic.weight f4 [1, 128]
-0.20542625 0.10954551 0.061022807 0.20288138 0.15297619 -0.21293132 0.1533787 0.14501067
-0.06853128 -0.15042256 0.051212203 0.19457255 0.15869065 0.07280894 -0.14064273 -0.045260645
-0.20955342 0.088643946 0.0057517444 0.16802453 -0.1557413 -0.19471174 0.17650804 0.19667666
-0.041865367 -0.13072084 -0.19979364 -0.09597134 -0.16073741 0.08237043 0.05397246 0.10756525
-0.017349714 0.19899535 0.14055827 -0.06886794 -0.035270046 -0.033433605 -0.14638308 -0.20853737
0.10732859 0.006941958 0.020789316 -0.20401773 0.027604243 0.018021036 0.19496422 0.19959281
0.04191838 -0.21332125 -0.124015614 -0.036413357 -0.053446755 0.168094 -0.0357953 0.16798021
-0.20354779 -0.037154052 -0.21018147 0.11692352 -0.123805426 -0.050186295 -0.013496399 0.1574414
0.044426043 -0.068286374 -0.009191962 -0.102214836 0.025472784 0.082772344 -0.2136748 0.12809756
-0.17977783 -0.12367649 0.1991156 -0.045523714 0.16167474 0.013148732 0.0034445112 -0.15574403
0.20985152 -0.03666636 -0.02972403 0.16980372 0.09902018 -0.1953757 0.14058745 -0.1691237
0.15411997 0.20647082 -0.03186577 0.03326472 -0.048954487 -0.12951733 -0.101711534 0.20042755
0.19428201 -0.0052995556 -0.21386884 0.13394241 -0.18067603 0.08926793 0.21307375 -0.18864281
-0.17398648 -0.18259929 -0.19267425 0.21520734 -0.06647699 0.07381068 0.08317513 0.11859866
0.16104048 -0.19095828 0.21285297 0.00042322712 0.06924178 -0.21565846 -0.07324964 -0.12929496
-0.008063772 0.015077523 0.004125346 0.008125231 0.10709078 0.07613607 -0.13911332 0.031291965
00000000: 425b 52be 6559 e03d 0df3 793d 23c0 4f3e
00000010: caa5 1c3e ab0a 5abe 4e0f 1d3e ad7d 143e
00000020: 215a 8cbd 5f08 1abe e3c3 513d 073e 473e
00000030: cd7f 223e db1c 953d a604 10be 3a63 39bd
00000040: 2c95 56be f58a b53d 2179 bc3b 9f0e 2c3e
00000050: a67a 1fbe 8462 47be 86be 343e 9b65 493e
00000060: 057b 2bbd afdb 05be b496 4cbe 9f8c c4bd
00000070: 5998 24be d4b1 a83d 3a12 5d3d 2b4b dc3d
00000080: fd20 8ebc 70c5 4b3e 82ee 0f3e a20a 8dbd
00000090: 5377 10bd adf1 08bd 72e5 15be d28a 55be
000000a0: 17cf db3d 5d79 e33b 5b4e aa3c 06ea 50be
000000b0: 4b22 e23c daa0 933c b3a4 473e 0f62 4c3e
000000c0: 9bb2 2b3d e370 5abe e6fb fdbd 2c26 15bd
000000d0: fcea 5abd d520 2c3e 189e 12bd 0103 2c3e
000000e0: d56e 50be d92e 18bd d039 57be 9975 ef3d
000000f0: b38d fdbd 2590 4dbd 0020 5dbc 5238 213e
00000100: 15f8 353d bad9 8bbd e299 16bc 0356 d1bd
00000110: 4dac d03c 8c84 a93d 91cd 5abe 022c 033e
00000120: ae17 38be 194a fdbd f6e4 4b3e 1377 3abd
00000130: 108e 253e c76d 573c 4fbd 613b 5d7b 1fbe
00000140: 51e3 563e 772f 16bd cf7f f3bc 07e1 2d3e
00000150: 18cb ca3d 9110 48be 28f6 0f3e c32e 2dbe
00000160: a0d1 1d3e 166d 533e af85 02bd 9640 083d
00000170: 8084 48bd 31a0 04be 234e d0bd e13c 4d3e
00000180: ddf1 463e e5a7 adbb 6f00 5bbe 3328 093e
00000190: 2303 39be 1bd2 b63d 0130 5a3e 952b 41be
000001a0: 8329 32be 4ffb 3abe 664c 45be 505f 5c3e
000001b0: 1725 88bd 0e2a 973d b957 aa3d dbe3 f23d
000001c0: cce7 243e 918a 43be 21f6 593e 95e4 dd39
000001d0: a2ce 8d3d 92d5 5cbe e803 96bd e665 04be
000001e0: e91d 04bc b707 773c e92d 873b b01f 053c
000001f0: 6952 db3d 3aed 9b3d b973 0ebe 012c 003d
