Results/test16/SnowBall/SnowBall-192.onnx (onnx, 141414 bytes, 6 tensors)

action_model._discrete_distribution.branches.0.bias f4 [4]
00000000: 0000 0000 0000 0000 0000 0000 0000 0000
0.0 0.0 0.0 0.0

action_model._discrete_distribution.branches.0.weight f4 [4, 128]
00000000: 773e 9239 ca53 8bbc dbc1 b13c cf04 553c
00000010: a865 69ba e737 a7bb ab66 a23b 164c 9bbb
00000020: c5d3 8b3a 72ae f2ba 0aa7 5a3c b4d4 333b
00000030: c6d6 9fbb dd79 0f3c 41bf 3fba dbb5 7fbb
00000040: 442c b3bb 891c 133c 1736 973b 470f 2e3a
00000050: e321 94ba 7336 153c 63ee babb 25d7 0fbc
00000060: d295 b83a 8778 2fba 97c5 933b 03a6 953c
00000070: e9bf 1ebc b286 ef3b bbf3 a93b c390 2f3c
00000080: 2f16 7a3a 6089 323b d72a 1abb 807f f0bb
00000090: c3f5 61bc 8710 283c 36d2 41bc 3394 2f3c
000000a0: 1b46 2c3a 1c7c a639 a828 ef3a 6f60 50bc
000000b0: 1a24 f33b 87c1 1abc 90ad 1d3c bc36 39bb
000000c0: 6a1b f7bb 189e f33b 520c 16bc bd87 d8bb
000000d0: 94da a1bb 471f 683b 2cc9 c33b cf9c 953b
000000e0: 4fd5 43bc 686c 383b 1881 17bc 2a2e e43a
000000f0: 9979 1d3b b20d 593c 54c5 4c3c 6fd0 9ebb
00000100: 0b2d e63b 8fc1 043c ffc8 23ba 1678 463c
00000110: ce9b 43bb 6dfe febb fcc9 0fbb fb74 debb
00000120: 161d 143c 8b7f 533c 23ad 89bc 6b1c 0a3c
00000130: c729 2dbc cbe2 1b3c 6204 793a ae90 30bc
00000140: 1017 823b 4fa0 5e3b 3fec cb3b 63c4 a2bc
00000150: c085 4ebc 5301 f2bb d5fe e2bb 1f12 e7bb
00000160: 705a da3b adab b1ba 6b10 b2bb a7d1 21bc
00000170: 9ff5 7c3c 0fa7 37ba cc8f 80bb 026f 0cbc
00000180: f539 81bb df00 3cbb 950a e73a c346 953b
00000190: cd5c 063b dd05 133b 3fa9 f6ba 6308 69bc
000001a0: bdd8 d43b d4c1 99bc 878c 333c f1b3 0bbc
000001b0: b420 413c 2065 a43b 2ad2 69ba 6bfc 6f3c
000001c0: ab08 12bc 8f9f a83a 5f87 6cba e297 7e3b
000001d0: 6cdb 163c 2176 21bb cd0f 68bc e250 7b3c
000001e0: 7dba f63b a281 75bc d0a6 e43b a4c1 893b
000001f0: 5dee 7e3b 529a af3a 760f 9e3a 0dc5 55bb
00000200: 92ee 7e3c d608 253b 8f53 5cbc a744 643b
00000210: 75b6 a83a 704e eebb ba91 f23b 0d28 653b
00000220: 3238 043c 3b25 be3c 7b4d 41bb 9a29 aeba
00000230: 03e5 e4bb dbb1 923a 2365 babb 41b3 9e3b
00000240: 0fa8 f839 7039 58bb 9b50 d6b8 6cfc c13c
00000250: 2295 10bc d5e0 da3b 0d7f fc3b 17bd d83b
00000260: 0f33 79ba 7f40 cfbb 6c82 87bc 97b2 a2b9
00000270: d9b5 c93b 3e79 b2bb 51be 42bb 16aa b73b
00000280: b040 30bc 3797 f5bb 4378 54bc bc7d bdba
00000290: 3b4b 71bc 6dd5 433b a8d8 cc38 df14 cbbc
000002a0: 5924 24bc efeb c5ba a62a 3abb 9a1c a13b
000002b0: ba8a d33c 277e 1fbc 50c6 b03a 1185 41ba
000002c0: 7f88 34bc 2537 15ba a61f 403c 7fc3 643b
000002d0: c323 16bc c07f 3b3b 77f9 8bbc 8f62 a7bc
000002e0: db35 eabb 89d2 113c 135c 69bc 3074 933b
000002f0: a74a aabc 1f84 fe3b 8a4f 6a3c e204 59b8
00000300: 13d9 23bc 4766 053c bf2b 9e3b 1c0f b1bb
00000310: f18e 073b 44fd 133c f38f 1f3c d43f 263b
00000320: fb51 383b ab4c d6b9 7807 e9b9 a5d7 853c
00000330: f0a8 22bc c74a 37bc 9f93 8fbb dbbb 953b
00000340: bafc c7bb 07cc f8bb d8e4 f43a 2bf7 083c
00000350: 72cd 4fbb fb0b e03b b097 e93b bf4f bd3b
00000360: a42b 1bbc f84e ce3b d086 07bb 38c2 723c
00000370: c126 89ba 206c 7b3c bab7 613b 5ffb 6dba
00000380: cc41 133c a31e 023c 0378 2e3c be5b 41bb
00000390: 47ee c83c a7c2 40bb 51dc 3c3c f8ed 893b
000003a0: b041 78bc 7f17 d33a af9a 7cbc e035 bb3b
000003b0: 5bcd 403b 537e 093c 6397 8e3b 59ab 2e3b
000003c0: 85e9 703b 24aa 1bba a2be 79bc ef94 dabb
000003d0: 2306 343b f0a0 aabb 6b90 a6bc 3228 6c3b
000003e0: 037b d0bb bb92 e03a aa40 84bc 32e9 ce3b
000003f0: 45e5 783b e8fe 54bc 2f7c b5bb d06a fe3a
0.0002789383 -0.017007727 0.021698883 0.013001635 -0.00089033926 -0.0051030996 0.0049560866 -0.0047392948
0.0010667971 -0.0018515124 0.013345489 0.0027440013 -0.004877898 0.008757082 -0.0007314571 -0.0039018306
-0.0054679234 0.008978971 0.0046146023 0.000663985 -0.0011301603 0.00910722 -0.0057046874 -0.008779322
0.0014082736 -0.000669368 0.0045096385 0.018267637 -0.00968931 0.007309758 0.0051865256 0.010715666
0.0009540049 0.0027242526 -0.002352407 -0.007339418 -0.013791504 0.010257847 -0.011829903 0.010716486
0.0006571726 0.00031754456 0.001824637 -0.012718304 0.007420075 -0.009445555 0.0096239 -0.0028261384
-0.00754111 0.0074346177 -0.009158211 -0.006607978 -0.0049393866 0.0035419033 0.0059749093 0.004565812
-0.011952712 0.0028140787 -0.009247087 0.0017408777 0.0024028777 0.013247894 0.012498219 -0.0048466246
0.0070244125 0.008102789 -0.00062479073 0.012113592 -0.0029847506 -0.0077817948 -0.002194046 -0.0067888475
0.009040138 0.012908827 -0.01680619 0.008429627 -0.0105690425 0.009514521 0.0009499249 -0.010776682
0.0039700344 0.0033970063 0.006223231 -0.019869035 -0.012605131 -0.0073854118 -0.006927351 -0.0070517207
0.006663613 -0.0013555192 -0.005434086 -0.009876645 0.01543942 -0.00070057897 -0.003923392 -0.008571388
-0.0039436766 -0.0028687043 0.0017627055 0.0045555546 0.002050209 0.0022433915 -0.001881875 -0.014223191
0.006495564 -0.018769182 0.010958797 -0.008526788 0.011787582 0.005016938 -0.00089195615 0.0146475835
-0.008913199 0.0012864935 -0.00090228574 0.0038847853 0.009207588 -0.002463706 -0.014163923 0.015339108
0.0075295554 -0.01498452 0.0069778934 0.004203992 0.00388994 0.0013397431 0.0012059051 -0.0032618672
0.015559809 0.0025182269 -0.013447656 0.003483096 0.0012871759 -0.007272534 0.007402626 0.00349665
0.008070039 0.023211112 -0.0029495645 -0.0013287545 -0.006985308 0.0011191921 -0.005688326 0.004843146
0.0004742746 -0.003299322 -0.00010219329 0.023679934 -0.0088246185 0.006679634 0.0077055753 0.006614338
-0.00095062045 -0.006324827 -0.016541682 -0.00031032108 0.006155711 -0.005446582 -0.0029715488 0.0056049926
-0.01075761 -0.007494833 -0.012968126 -0.0014457027 -0.014727409 0.002988185 9.7678334e-05 -0.024790226
-0.010018432 -0.0015100221 -0.0028406768 0.0049167397 0.025822986 -0.009734667 0.0013486836 -0.0007382194
-0.011018871 -0.0005692116 0.011726296 0.0034906564 -0.0091638 0.002861008 -0.017086728 -0.020432739
-0.0071475334 0.008900293 -0.014243144 0.0044999346 -0.02078755 0.007767215 0.01430119 -5.174138e-05
-0.010000485 0.008142061 0.0048269923 -0.0054034125 0.0020684565 0.009032551 0.00973891 0.0025367634
0.0028125036 -0.00040874383 -0.00044446788 0.016338179 -0.009927973 -0.011187262 -0.0043816115 0.0045695133
-0.0061031254 -0.0075926813 0.0018683923 0.008359711 -0.0031708148 0.0068373657 0.0071286783 0.0057773287
-0.009470854 0.006296035 -0.002067972 0.014816813 -0.001046382 0.015345603 0.0034441785 -0.000907829
0.008987855 0.007941875 0.01064873 -0.0029504145 0.024527682 -0.0029412897 0.011527137 0.0042092763
-0.01515238 0.0016105025 -0.015417739 0.0057132095 0.0029419276 0.008391934 0.004351543 0.0026652424
0.0036760282 -0.00059381337 -0.015243204 -0.0066705863 0.0027469478 -0.0052071735 -0.020332536 0.00360347
-0.0063623204 0.0017133573 -0.016144115 0.00631442 0.0037978452 -0.0130002275 -0.0055384855 0.0019410495

network_body._body_endoder.seq_layers.0.bias f4 [128]
00000000: 0000 0000 0000 0000 0000 0000 0000 0000
00000010: 0000 0000 0000 0000 0000 0000 0000 0000
00000020: 0000 0000 0000 0000 0000 0000 0000 0000
00000030: 0000 0000 0000 0000 0000 0000 0000 0000
00000040: 0000 0000 0000 0000 0000 0000 0000 0000
00000050: 0000 0000 0000 0000 0000 0000 0000 0000
00000060: 0000 0000 0000 0000 0000 0000 0000 0000
00000070: 0000 0000 0000 0000 0000 0000 0000 0000
00000080: 0000 0000 0000 0000 0000 0000 0000 0000
00000090: 0000 0000 0000 0000 0000 0000 0000 0000
000000a0: 0000 0000 0000 0000 0000 0000 0000 0000
000000b0: 0000 0000 0000 0000 0000 0000 0000 0000
000000c0: 0000 0000 0000 0000 0000 0000 0000 0000
000000d0: 0000 0000 0000 0000 0000 0000 0000 0000
000000e0: 0000 0000 0000 0000 0000 0000 0000 0000
000000f0: 0000 0000 0000 0000 0000 0000 0000 0000
00000100: 0000 0000 0000 0000 0000 0000 0000 0000
00000110: 0000 0000 0000 0000 0000 0000 0000 0000
00000120: 0000 0000 0000 0000 0000 0000 0000 0000
00000130: 0000 0000 0000 0000 0000 0000 0000 0000
00000140: 0000 0000 0000 0000 0000 0000 0000 0000
00000150: 0000 0000 0000 0000 0000 0000 0000 0000
00000160: 0000 0000 0000 0000 0000 0000 0000 0000
00000170: 0000 0000 0000 0000 0000 0000 0000 0000
00000180: 0000 0000 0000 0000 0000 0000 0000 0000
00000190: 0000 0000 0000 0000 0000 0000 0000 0000
000001a0: 0000 0000 0000 0000 0000 0000 0000 0000
000001b0: 0000 0000 0000 0000 0000 0000 0000 0000
000001c0: 0000 0000 0000 0000 0000 0000 0000 0000
000001d0: 0000 0000 0000 0000 0000 0000 0000 0000
000001e0: 0000 0000 0000 0000 0000 0000 0000 0000
000001f0: 0000 0000 0000 0000 0000 0000 0000 0000
0.0 0.0 0.0 0.0 0.0 0.0 0.0 0.0
0.0 0.0 0.0 0.0 0.0 0.0 0.0 0.0
0.0 0.0 0.0 0.0 0.0 0.0 0.0 0.0
0.0 0.0 0.0 0.0 0.0 0.0 0.0 0.0
0.0 0.0 0.0 0.0 0.0 0.0 0.0 0.0
0.0 0.0 0.0 0.0 0.0 0.0 0.0 0.0
0.0 0.0 0.0 0.0 0.0 0.0 0.0 0.0
0.0 0.0 0.0 0.0 0.0 0.0 0.0 0.0
0.0 0.0 0.0 0.0 0.0 0.0 0.0 0.0
0.0 0.0 0.0 0.0 0.0 0.0 0.0 0.0
0.0 0.0 0.0 0.0 0.0 0.0 0.0 0.0
0.0 0.0 0.0 0.0 0.0 0.0 0.0 0.0
0.0 0.0 0.0 0.0 0.0 0.0 0.0 0.0
0.0 0.0 0.0 0.0 0.0 0.0 0.0 0.0
0.0 0.0 0.0 0.0 0.0 0.0 0.0 0.0
0.0 0.0 0.0 0.0 0.0 0.0 0.0 0.0

network_body._body_endoder.seq_layers.0.weight f4 [128, 138]
00000000: a3da 94bd 65bb 863d e03b baba c4bd 913d
00000010: 58bd f2bd c126 77be b216 803d af94 163d
00000020: d013 24bd 66bf b1bd 304f 4bbe 30ad a4bd
00000030: 2055 3abe 5e8f c0bc a15e b6bc 2e6d 513e
00000040: 0ff3 54bd f28f 91bc a18f edbd 1cfd e0bd
00000050: f291 13bd ac52 eb3b 4aa2 b53d 1fdd babd
00000060: 19e1 8cbc b9c7 0b3e d8fc 22bd a728 fe3d
00000070: 909b 52bd 0749 0d3e db96 c33d f759 abbb
00000080: 09a4 3bbd 731f 01bd cb85 e43b a8ea 5c3d
00000090: bde8 2cbe baff 0bbd ce9c 7f3c 8ec8 063c
000000a0: 961c 2d3e d431 2f3e 3361 d73d 1866 d93d
000000b0: 5f7d b0bc 329d f23b 39c7 f63c e4f5 6fbd
000000c0: 65c9 afbc dffd 573d 1791 8d3d a60b 8d3d
000000d0: 3083 9f3d 126d 3cbe ce64 d4bc 07d7 dabd
000000e0: f65c afbd 0a9f a13b d84f d93d 72f3 493d
000000f0: 3690 19bc 0ec5 053e cb4d 5cbd 3af2 c73c
00000100: 87f6 f2bd fcde 12bd c2c8 5d3a 6e82 97bd
00000110: 68c1 e33d 4a53 13be e5e3 883c 0839 32ba
00000120: 1d17 873c a571 15be a95b 233d b671 243c
00000130: 2654 b0bd e273 e4bd 006b 7e3d e66c 1dbd
00000140: 385d d53c dbb1 8dbb 71ce ebba 7035 263d
00000150: 131e 5f3b 5b01 113e aa63 2f3d e07c 753d
00000160: 6076 58bd 7faa dd3c 6a9a edbd 4823 803d
00000170: 0188 dc3c d9e2 2abd be39 7abd 42a9 e5bc
00000180: bc3e b43d 5b05 3c3d 3d70 c83d 1697 e33b
00000190: e3c1 563b ad14 c83c f983 e63d 0e6a 57bd
000001a0: 8261 c03c 43b7 a13d 61ae af3d a822 b5bd
000001b0: 579a 183d 328c e6bd 26c5 7d3d 01f6 0fbc
000001c0: 0940 38be 1377 19bc e423 dd3d 1dcf bcbd
000001d0: 5da5 76bd 39ea 8e3d 3f77 bcbd 8715 d93d
000001e0: b34e 36bd 98c1 9b3d d2c6 dcbc a790 13bd
000001f0: 034f 40bc fc21 953d 5555 b7bc 38b5 b6bd
00000200: e1be 62bd 9503 bf3d 15fd ad3d 6329 993c
00000210: 8c4f 053d af4e 6c3d ead1 143c ceed ff3c
00000220: 2e67 ab3d 4bb3 09be 041f 95bc c14b 4bbd
00000230: 9dbd 133e f829 ed3c 82b9 33be f42c 903b
00000240: 4dae 763c 2fa2 033c 3aa9 6e3d 14e4 17be
00000250: fcf8 4d3e 3fd5 9abc 4ed0 763d bc2c dbbc
00000260: 91f5 e5bd 7844 02bd 2325 473c 2f1c f63b
00000270: a547 17bd b015 473d 50ea 10be 767f 1a3e
00000280: 3e48 4eb8 9042 353d 7e44 9abd 2a34 17be
00000290: 52ea 3fbc 2bfa 063e 9605 613e a6aa 393e
000002a0: 6627 5d3d 73a2 f53d 4d6a 1dbd 82c9 c23d
000002b0: a0bf f3bc 9d3c 9dbd 4456 593d e54b 17bd
000002c0: fe74 8b3d bfdd a13d 2857 a4bc edaf 223c
000002d0: 089f 6f3d 03da 143b f553 1ebd 3dbb e23d
000002e0: 1f21 40bd 42e8 853d f937 9a3d f01c 553d
000002f0: 1cf0 c0bb 6867 2c3d 73de 053e 2bdb 1fbe
00000300: 4469 1d3d 873d 7c3d 18dd b5bc b0ff ab3d
00000310: 3cea dabc a6f2 af3d 66f9 99bd 451a d8bb
00000320: aadb 823c 8c05 933d 3a82 463d 589c fbbd
00000330: 7311 313d 60ac 3c3e cab9 213d 2461 e43d
00000340: 1328 b6bd f2a7 01be d061 2abd 1f7a 8fbd
00000350: 7fc6 8abc 6d4e c4bd 3549 37bd 60a1 1b3e
00000360: e0a6 b13c 95d5 8abd bc76 98bc 80fc dc3d
00000370: 0936 1d3d 7787 ebbc f000 02be cad3 123e
00000380: fe6f 583d 3651 9fbd 6477 52bd 452d 62be
00000390: d84e e6bd f9bc 673d c99a c93c 3c7a 18be
000003a0: d692 49bd 1f7c 3c3d b686 dbbc ae20 0cbe
000003b0: 460c 5dbd 3994 303e 8ec0 ac3c 2174 473b
000003c0: 1736 adbd 1fa0 d53d b86d 0f3c 6229 893c
000003d0: eb26 b8bd 1a63 3ebd 0d74 ed3c 48c7 82bd
000003e0: c879 d6bd be5b ce3d 920a 9abd 6208 cdbc
000003f0: 5c3e 1d3e 80f6 743d e9ab bf3c 48e9 9fbd
-0.07268264 0.065787114 -0.0014208518 0.07116273 -0.11852521 -0.24135877 0.06254329 0.03676289
-0.040057957 -0.086790845 -0.19854426 -0.080408454 -0.18196535 -0.023505863 -0.02226192 0.20451805
-0.05198961 -0.017768834 -0.11599661 -0.10985777 -0.036027856 0.007181486 0.08868845 -0.09124207
-0.017197179 0.13650407 -0.03979191 0.124100976 -0.051417887 0.13797389 0.09550258 -0.0052292305
-0.045810733 -0.031524133 0.006973957 0.053934723 -0.16885658 -0.034179427 0.01560135 0.008226527
0.16905436 0.17108852 0.10516586 0.10615176 -0.021544157 0.007403993 0.030124294 -0.05858411
-0.021458337 0.052732345 0.06912439 0.068869874 0.07788694 -0.18400982 -0.025926974 -0.106855445
-0.08562653 0.004932289 0.10610932 0.049304433 -0.0093727615 0.13063452 -0.053785127 0.024407495
-0.118634276 -0.035857186 0.0008460396 -0.07397924 0.11120874 -0.14387241 0.016710231 -0.00067986595
0.016490513 -0.14594133 0.039882336 0.010036876 -0.086098 -0.111549154 0.062113762 -0.03843393
0.026045427 -0.0043241805 -0.0017990601 0.040578306 0.0034045025 0.14160673 0.042819656 0.059933543
-0.052847266 0.027058838 -0.11601718 0.06256729 0.02692032 -0.041720245 -0.061090223 -0.02803481
0.08801028 0.045903545 0.09787033 0.006945501 0.0032769374 0.024423921 0.112556405 -0.052591376
0.023483995 0.078962825 0.08578182 -0.08844501 0.037256565 -0.11257209 0.061955594 -0.008786679
-0.17993177 -0.009366768 0.10797861 -0.09219191 -0.060216296 0.06978268 -0.09202432 0.10599809
-0.044508647 0.076052845 -0.026950274 -0.036026623 -0.011737588 0.07281873 -0.022379557 -0.089212835
-0.055357818 0.09326855 0.08495537 0.018696493 0.032546565 0.057692226 0.009083251 0.031241324
0.08369289 -0.13447301 -0.018203266 -0.04963279 0.144278 0.028950676 -0.17551234 0.00439989
0.015056205 0.008034273 0.058266856 -0.14833099 0.20114511 -0.018900512 0.06025725 -0.02675473
-0.11228479 -0.03180358 0.01215485 0.007510684 -0.03693356 0.048604667 -0.14151883 0.15087685
-4.9181508e-05 0.044252932 -0.07532595 -0.14765993 -0.011713581 0.13181369 0.21974787 0.18131503
0.05399265 0.11993875 -0.038431454 0.09511091 -0.02975446 -0.07677577 0.053060785 -0.036937613
0.06809424 0.07903623 -0.02006109 0.009929639 0.058501273 0.0022712953 -0.038654286 0.11070869
-0.046906587 0.0653844 0.07530207 0.05202955 -0.0058879983 0.042090803 0.13073139 -0.1561095
0.038430467 0.061582115 -0.022200152 0.08398378 -0.02672302 0.085912034 -0.07518272 -0.0065949284
0.015973885 0.07178792 0.048464037 -0.122856796 0.04322953 0.18425131 0.039483823 0.111513406
-0.08894362 -0.12661722 -0.041597188 -0.070057146 -0.016940353 -0.09585271 -0.04474755 0.15198278
0.021686018 -0.06779019 -0.018611304 0.10790348 0.03838161 -0.028751118 -0.1269567 0.14338604
0.05284118 -0.07779162 -0.05138339 -0.22087581 -0.11245507 0.056576703 0.02460994 -0.14890379
-0.0492123 0.04601681 -0.026797634 -0.13684341 -0.053966783 0.17244042 0.021087911 0.0030434208
-0.084575824 0.10430931 0.008754186 0.016743366 -0.08991798 -0.04648123 0.028986001 -0.06385666
-0.10472447 0.10076092 -0.075215474 -0.025028411 0.1535582 0.059805393 0.023397403 -0.07808167

network_body._body_endoder.seq_layers.2.bias f4 [128]
00000000: 0000 0000 0000 0000 0000 0000 0000 0000
00000010: 0000 0000 0000 0000 0000 0000 0000 0000
00000020: 0000 0000 0000 0000 0000 0000 0000 0000
00000030: 0000 0000 0000 0000 0000 0000 0000 0000
00000040: 0000 0000 0000 0000 0000 0000 0000 0000
00000050: 0000 0000 0000 0000 0000 0000 0000 0000
00000060: 0000 0000 0000 0000 0000 0000 0000 0000
00000070: 0000 0000 0000 0000 0000 0000 0000 0000
00000080: 0000 0000 0000 0000 0000 0000 0000 0000
00000090: 0000 0000 0000 0000 0000 0000 0000 0000
000000a0: 0000 0000 0000 0000 0000 0000 0000 0000
000000b0: 0000 0000 0000 0000 0000 0000 0000 0000
000000c0: 0000 0000 0000 0000 0000 0000 0000 0000
000000d0: 0000 0000 0000 0000 0000 0000 0000 0000
000000e0: 0000 0000 0000 0000 0000 0000 0000 0000
000000f0: 0000 0000 0000 0000 0000 0000 0000 0000
00000100: 0000 0000 0000 0000 0000 0000 0000 0000
00000110: 0000 0000 0000 0000 0000 0000 0000 0000
00000120: 0000 0000 0000 0000 0000 0000 0000 0000
00000130: 0000 0000 0000 0000 0000 0000 0000 0000
00000140: 0000 0000 0000 0000 0000 0000 0000 0000
00000150: 0000 0000 0000 0000 0000 0000 0000 0000
00000160: 0000 0000 0000 0000 0000 0000 0000 0000
00000170: 0000 0000 0000 0000 0000 0000 0000 0000
00000180: 0000 0000 0000 0000 0000 0000 0000 0000
00000190: 0000 0000 0000 0000 0000 0000 0000 0000
000001a0: 0000 0000 0000 0000 0000 0000 0000 0000
000001b0: 0000 0000 0000 0000 0000 0000 0000 0000
000001c0: 0000 0000 0000 0000 0000 0000 0000 0000
000001d0: 0000 0000 0000 0000 0000 0000 0000 0000
000001e0: 0000 0000 0000 0000 0000 0000 0000 0000
000001f0: 0000 0000 0000 0000 0000 0000 0000 0000
0.0 0.0 0.0 0.0 0.0 0.0 0.0 0.0
0.0 0.0 0.0 0.0 0.0 0.0 0.0 0.0
0.0 0.0 0.0 0.0 0.0 0.0 0.0 0.0
0.0 0.0 0.0 0.0 0.0 0.0 0.0 0.0
0.0 0.0 0.0 0.0 0.0 0.0 0.0 0.0
0.0 0.0 0.0 0.0 0.0 0.0 0.0 0.0
0.0 0.0 0.0 0.0 0.0 0.0 0.0 0.0
0.0 0.0 0.0 0.0 0.0 0.0 0.0 0.0
0.0 0.0 0.0 0.0 0.0 0.0 0.0 0.0
0.0 0.0 0.0 0.0 0.0 0.0 0.0 0.0
0.0 0.0 0.0 0.0 0.0 0.0 0.0 0.0
0.0 0.0 0.0 0.0 0.0 0.0 0.0 0.0
0.0 0.0 0.0 0.0 0.0 0.0 0.0 0.0
0.0 0.0 0.0 0.0 0.0 0.0 0.0 0.0
0.0 0.0 0.0 0.0 0.0 0.0 0.0 0.0
0.0 0.0 0.0 0.0 0.0 0.0 0.0 0.0

network_body._body_endoder.seq_layers.2.weight f4 [128, 128]
00000000: da86 1e3d f9f3 cb3b c917 eabd 3f30 12bd
00000010: 5dc0 3a3d e265 23be 3ce6 cd3d 8464 543d
00000020: 38a0 b63c 5a50 68bd 3197 5c3e 8b10 943d
00000030: 51e8 19be 52b1 93bb 5848 aa3d 117e 623a
00000040: 7859 d53d 51d6 eabd 02ce 10bc 655c 173e
00000050: 830a b5bd 2837 cd3d 51c0 c83c ca91 5abd
00000060: 80b6 e7bd 3f26 b6bd 16af 25be cfa3 04bd
00000070: c4d3 2b3d 8c33 b33c 89f3 ec3c ea92 ca3d
00000080: c19b f83b 6e1c e2ba 24e6 733d 32b6 b63d
00000090: 314a b4bb 1095 093d ebe2 04bd 82b8 443d
000000a0: e3b8 f83c 7657 073e a017 7e3d 785a 00bc
000000b0: 0ba6 023d 2b27 0dba ca1a d53d 7283 aa3d
000000c0: 027f 6c3d 96b7 663d f436 833d f71b fbbd
000000d0: 96fc 6ebc 0172 14be 59de 41be 5887 473b
000000e0: 5acf 2ebe 2e1e 5ebd 8670 d93d f8f4 b23a
000000f0: 43f2 1dbe 384f abbd 956a 043e f801 ea3d
00000100: d15a 163c af73 163d bf70 8cbd c820 033e
00000110: f4e1 053e 26c2 6d3c 56f0 febd 5441 c03d
00000120: 2508 983c c544 ac3d fbce 6d3c 11a3 64be
00000130: 1025 07bd bd5e 34be e8a3 cb3d 12c1 2fbd
00000140: 5c52 143e ae31 f43d 09bb a9bd 008a 43bd
00000150: 6771 81bd f399 9b3d 1719 f0bd 317a b9ba
00000160: 3050 8bbc ab03 8f3c 52ec 223b 473d 90bc
00000170: 0e45 cfbc d762 013e 671d ac3c d3f2 b5bc
00000180: 4e67 8dbd 6de3 9fbd 3cdd c33d e6c0 b1bd
00000190: 5f07 543c ab1e 03bd 8273 0bbd 3799 38bd
000001a0: 6068 f23d 512a 88bd 3c6d 92bd bab4 ae3d
000001b0: 3082 d3bd 625c 21bd 69e1 05be 89de 113d
000001c0: de4c 803d fc47 8d3e 087e b93d 565b ee3d
000001d0: 5715 85bd 4429 3b3d 0efc 76bd 9982 69be
000001e0: 71fb 1d3d 2f35 cdbc 5440 d8bd 7ef2 1bbd
000001f0: 1250 363d 2a30 48be 8353 a3bd d83a b4bc
00000200: dff8 7fbc 4dce d93d 0202 be3b 8653 2fbe
00000210: 0b75 6e3c 705f 1d3d a775 7cbc 4837 16bd
00000220: 1825 033e 5272 f5bc 59b6 d6bd 919b 02bc
00000230: 7f74 a73d 6aec 3dbe a471 e4bc 6630 ee3c
00000240: 046e 043e bab7 b1bd 84c7 233d 9dd3 17bd
00000250: 27a2 f0bc 3789 063e f84e 70bd b3f5 853d
00000260: 2604 e0bb e961 2b3d 892b 87bc 1d7c b93c
00000270: ca97 cb3d 2ca1 2c3c 1e2f 343d f277 03be
00000280: dc62 27bd 957d 583e 729e c83d 51f6 a93d
00000290: ad7b 59bd dabf 2c3d 1f59 b2bc 97a1 f8bd
000002a0: d2d8 9f3c 9bc4 3a3d 86a1 06bc 1934 c43d
000002b0: 6550 ba3d 90a3 8a3b 22cb 703d 82f0 c23d
000002c0: 8572 ac3d 802f 42be 8f0d f53c a587 9bbd
000002d0: bf7f 6e39 2829 2fbd f562 833d 77cf 74bd
000002e0: 4b25 efbd 427b f33c 6636 85bd e423 22bb
000002f0: ea33 473d 829c 45bd 9bd1 a8bd c341 823d
00000300: 4b6c a4bd 2fdc e33c 9038 b93c 72a9 aabc
00000310: bf51 a13d 075d 6c3c 7435 24be 9376 363d
00000320: f981 923d 4251 943c 07af 2ebd 6e2c 5d3c
00000330: a439 a13a d323 a63d a16f 8a3d 729b e83c
00000340: 1d82 37bc 0f39 f3bd 1b56 9dbd dc58 37be
00000350: b824 0abe 6920 a63d e414 85bd 58ae b2bd
00000360: 16c0 62bd e759 2abe 37ea 8cbc 0878 95bc
00000370: 1c60 163c 0932 cc3c 9887 2f3e 5ace 0fbc
00000380: 74ea d3bd 064b 1abe 72c6 efbc c9dc 093e
00000390: 5ed7 563e 3384 0d3e 4806 713c f009 2c3d
000003a0: 7a2c 4c3e 15b5 173e f361 b53d dca1 09bd
000003b0: 2028 ee3d c2cc 27be ba2f 03bc 3b34 0fbe
000003c0: ad8a 263d 79d7 4abe 9923 f8bd b264 a53d
000003d0: 96bf 12be 2e15 843d 4cff 2a3c c303 9d3d
000003e0: bc5d c7bd db1b e5bd 3043 75bd d3fe 65bd
000003f0: 844a c53d 8e29 d5bd de32 ccbd c6f6 c23d
0.038702823 0.006224152 -0.11430318 -0.035690542 0.04559361 -0.15956834 0.10053679 0.05185367
0.022293195 -0.056717254 0.2154205 0.07229718 -0.15030028 -0.004507222 0.0831458 0.0008640001
0.104174554 -0.11466659 -0.008838179 0.1478134 -0.088398956 0.10020286 0.024505766 -0.05336169
-0.11314106 -0.088940136 -0.16180071 -0.032382783 0.041950002 0.021875165 0.02892472 0.09891303
0.0075869267 -0.0017250904 0.05954565 0.0892147 -0.0055020084 0.033589423 -0.03244297 0.048027523
0.030361598 0.13216957 0.06203425 -0.007834069 0.031896632 -0.00053845596 0.104055 0.083258525
0.05773831 0.056327425 0.06406966 -0.12261193 -0.014586588 -0.14496614 -0.18932475 0.0030445661
-0.17071286 -0.054228 0.10617165 0.0013653329 -0.15424447 -0.08364719 0.12931283 0.11426157
0.009176926 0.03673142 -0.06857442 0.12805474 0.13074476 0.014511621 -0.12448184 0.0938746
0.018558571 0.08411554 0.01451468 -0.2232783 -0.03299433 -0.17614265 0.09943372 -0.042908736
0.14484543 0.11923538 -0.08287627 -0.04773903 -0.06320458 0.07597723 -0.117235355 -0.0014150796
-0.01700601 0.017457804 0.0024860096 -0.017607344 -0.025301483 0.1263536 0.021010114 -0.022210514
-0.069044694 -0.0780705 0.095636815 -0.086793706 0.0129412105 -0.03201167 -0.034045704 -0.045067992
0.11836314 -0.06648696 -0.07149741 0.085305646 -0.10327566 -0.039394744 -0.13074268 0.035612617
0.06264661 0.27593982 0.09057242 0.11638515 -0.06498211 0.04569365 -0.06029897 -0.22803725
0.03856987 -0.025049774 -0.105591446 -0.038073055 0.044509955 -0.19549623 -0.07974913 -0.022000715
-0.0156233 0.10635052 0.005798579 -0.17121705 0.014554272 0.038421094 -0.01540891 -0.036673814
0.12807119 -0.029961739 -0.10483999 -0.00797166 0.08176517 -0.18547216 -0.02788622 0.029075813
0.12932593 -0.08677621 0.039985195 -0.037067045 -0.029374195 0.13138281 -0.05866906 0.06541004
-0.006836432 0.04184142 -0.016500251 0.02264219 0.09941061 0.010536473 0.043990247 -0.12838724
-0.040865764 0.21141656 0.09795846 0.08298934 -0.053096462 0.04217515 -0.021771012 -0.12140196
0.019512568 0.045597654 -0.008217221 0.09580249 0.09097365 0.004230924 0.058787473 0.095185295
0.0842028 -0.18963432 0.029913692 -0.075942315 0.00022745038 -0.04276386 0.06415359 -0.059768166
-0.11677035 0.02972186 -0.06504516 -0.002474063 0.048633493 -0.04824496 -0.08243104 0.06360199
-0.08028468 0.027814953 0.022609979 -0.020832751 0.0787692 0.014426476 -0.16036016 0.044546675
0.071536966 0.018105153 -0.042647388 0.013499362 0.0012300503 0.08112302 0.06759573 0.028394435
-0.011200455 -0.118761174 -0.07682439 -0.17904991 -0.1349057 0.081116505 -0.06498125 -0.0872466
-0.05535897 -0.16635858 -0.017201526 -0.018245712 0.009178188 0.024926202 0.17141569 -0.008777225
-0.10347453 -0.15067682 -0.02926943 0.13463129 0.20980594 0.13819961 0.01471097 0.042001665
0.19938841 0.14815171 0.08856573 -0.033601627 0.11628747 -0.16386703 -0.008006984 -0.13984768
0.040659595 -0.19808759 -0.12116165 0.08075847 -0.14330897 0.06449352 0.010436844 0.07666733
-0.09734675 -0.11186954 -0.059878528 -0.056151222 0.09633353 -0.104083166 -0.0997064 0.095197245
