Results/test16/SnowBall/SnowBall-192.pt (torch, 285511 bytes, 11 tensors)

network_body._body_endoder.seq_layers.0.weight f4 [128, 138]
0	0xbd94daa3	-0.07268264
1	0x3d86bb65	0.065787114
2	0xbaba3be0	-0.0014208518
3	0x3d91bdc4	0.07116273
4	0xbdf2bd58	-0.11852521
5	0xbe7726c1	-0.24135877
6	0x3d8016b2	0.06254329
7	0x3d1694af	0.03676289
8	0xbd2413d0	-0.040057957
9	0xbdb1bf66	-0.086790845
10	0xbe4b4f30	-0.19854426
11	0xbda4ad30	-0.080408454
12	0xbe3a5520	-0.18196535
13	0xbcc08f5e	-0.023505863
14	0xbcb65ea1	-0.02226192
15	0x3e516d2e	0.20451805
16	0xbd54f30f	-0.05198961
17	0xbc918ff2	-0.017768834
18	0xbded8fa1	-0.11599661
19	0xbde0fd1c	-0.10985777
20	0xbd1391f2	-0.036027856
21	0x3beb52ac	0.007181486
22	0x3db5a24a	0.08868845
23	0xbdbadd1f	-0.09124207
24	0xbc8ce119	-0.017197179
25	0x3e0bc7b9	0.13650407
26	0xbd22fcd8	-0.03979191
27	0x3dfe28a7	0.124100976
28	0xbd529b90	-0.051417887
29	0x3e0d4907	0.13797389
30	0x3dc396db	0.09550258
31	0xbbab59f7	-0.0052292305
32	0xbd3ba409	-0.045810733
33	0xbd011f73	-0.031524133
34	0x3be485cb	0.006973957
35	0x3d5ceaa8	0.053934723
36	0xbe2ce8bd	-0.16885658
37	0xbd0bffba	-0.034179427
38	0x3c7f9cce	0.01560135
39	0x3c06c88e	0.008226527
40	0x3e2d1c96	0.16905436
41	0x3e2f31d4	0.17108852
42	0x3dd76133	0.10516586
43	0x3dd96618	0.10615176
44	0xbcb07d5f	-0.021544157
45	0x3bf29d32	0.007403993
46	0x3cf6c739	0.030124294
47	0xbd6ff5e4	-0.05858411
48	0xbcafc965	-0.021458337
49	0x3d57fddf	0.052732345
50	0x3d8d9117	0.06912439
51	0x3d8d0ba6	0.068869874
52	0x3d9f8330	0.07788694
53	0xbe3c6d12	-0.18400982
54	0xbcd464ce	-0.025926974
55	0xbddad707	-0.106855445
56	0xbdaf5cf6	-0.08562653
57	0x3ba19f0a	0.004932289
58	0x3dd94fd8	0.10610932
59	0x3d49f372	0.049304433
60	0xbc199036	-0.0093727615
61	0x3e05c50e	0.13063452
62	0xbd5c4dcb	-0.053785127
63	0x3cc7f23a	0.024407495
64	0xbdf2f687	-0.118634276
65	0xbd12defc	-0.035857186
66	0x3a5dc8c2	0.0008460396
67	0xbd97826e	-0.07397924
68	0x3de3c168	0.11120874
69	0xbe13534a	-0.14387241
70	0x3c88e3e5	0.016710231
71	0xba323908	-0.00067986595
72	0x3c87171d	0.016490513
73	0xbe1571a5	-0.14594133
74	0x3d235ba9	0.039882336
75	0x3c2471b6	0.010036876
76	0xbdb05426	-0.086098
77	0xbde473e2	-0.111549154
78	0x3d7e6b00	0.062113762
79	0xbd1d6ce6	-0.03843393
80	0x3cd55d38	0.026045427
81	0xbb8db1db	-0.0043241805
82	0xbaebce71	-0.0017990601
83	0x3d263570	0.040578306
84	0x3b5f1e13	0.0034045025
85	0x3e11015b	0.14160673
86	0x3d2f63aa	0.042819656
87	0x3d757ce0	0.059933543
88	0xbd587660	-0.052847266
89	0x3cddaa7f	0.027058838
90	0xbded9a6a	-0.11601718
91	0x3d802348	0.06256729
92	0x3cdc8801	0.02692032
93	0xbd2ae2d9	-0.041720245
94	0xbd7a39be	-0.061090223
95	0xbce5a942	-0.02803481
96	0x3db43ebc	0.08801028
97	0x3d3c055b	0.045903545
98	0x3dc8703d	0.09787033
99	0x3be39716	0.006945501
100	0x3b56c1e3	0.0032769374
101	0x3cc814ad	0.024423921
102	0x3de683f9	0.112556405
103	0xbd576a0e	-0.052591376
104	0x3cc06182	0.023483995
105	0x3da1b743	0.078962825
106	0x3dafae61	0.08578182
107	0xbdb522a8	-0.08844501
108	0x3d189a57	0.037256565
109	0xbde68c32	-0.11257209
110	0x3d7dc526	0.061955594
111	0xbc0ff601	-0.008786679
112	0xbe384009	-0.17993177
113	0xbc197713	-0.009366768
114	0x3ddd23e4	0.10797861
115	0xbdbccf1d	-0.09219191
116	0xbd76a55d	-0.060216296
117	0x3d8eea39	0.06978268
118	0xbdbc773f	-0.09202432
119	0x3dd91587	0.10599809
120	0xbd364eb3	-0.044508647
121	0x3d9bc198	0.076052845
122	0xbcdcc6d2	-0.026950274
123	0xbd1390a7	-0.036026623
124	0xbc404f03	-0.011737588
125	0x3d9521fc	0.07281873
126	0xbcb75555	-0.022379557
127	0xbdb6b538	-0.089212835
128	0xbd62bee1	-0.055357818
129	0x3dbf0395	0.09326855
130	0x3dadfd15	0.08495537
131	0x3c992963	0.018696493
132	0x3d054f8c	0.032546565
133	0x3d6c4eaf	0.057692226
134	0x3c14d1ea	0.009083251
135	0x3cffedce	0.031241324
136	0x3dab672e	0.08369289
137	0xbe09b34b	-0.13447301
138	0xbc951f04	-0.018203266
139	0xbd4b4bc1	-0.04963279
140	0x3e13bd9d	0.144278
141	0x3ced29f8	0.028950676
142	0xbe33b982	-0.17551234
143	0x3b902cf4	0.00439989
144	0x3c76ae4d	0.015056205
145	0x3c03a22f	0.008034273
146	0x3d6ea93a	0.058266856
147	0xbe17e414	-0.14833099
148	0x3e4df8fc	0.20114511
149	0xbc9ad53f	-0.018900512
150	0x3d76d04e	0.06025725
151	0xbcdb2cbc	-0.02675473
152	0xbde5f591	-0.11228479
153	0xbd024478	-0.03180358
154	0x3c472523	0.01215485
155	0x3bf61c2f	0.007510684
156	0xbd1747a5	-0.03693356
157	0x3d4715b0	0.048604667
158	0xbe10ea50	-0.14151883
159	0x3e1a7f76	0.15087685
160	0xb84e483e	-4.9181508e-05
161	0x3d354290	0.044252932
162	0xbd9a447e	-0.07532595
163	0xbe17342a	-0.14765993
164	0xbc3fea52	-0.011713581
165	0x3e06fa2b	0.13181369
166	0x3e610596	0.21974787
167	0x3e39aaa6	0.18131503
168	0x3d5d2766	0.05399265
169	0x3df5a273	0.11993875
170	0xbd1d6a4d	-0.038431454
171	0x3dc2c982	0.09511091
172	0xbcf3bfa0	-0.02975446
173	0xbd9d3c9d	-0.07677577
174	0x3d595644	0.053060785
175	0xbd174be5	-0.036937613
176	0x3d8b74fe	0.06809424
177	0x3da1ddbf	0.07903623
178	0xbca45728	-0.02006109
179	0x3c22afed	0.009929639
180	0x3d6f9f08	0.058501273
181	0x3b14da03	0.0022712953
182	0xbd1e53f5	-0.038654286
183	0x3de2bb3d	0.11070869
184	0xbd40211f	-0.046906587
185	0x3d85e842	0.0653844
186	0x3d9a37f9	0.07530207
187	0x3d551cf0	0.05202955
188	0xbbc0f01c	-0.0058879983
189	0x3d2c6768	0.042090803
190	0x3e05de73	0.13073139
191	0xbe1fdb2b	-0.1561095
192	0x3d1d6944	0.038430467
193	0x3d7c3d87	0.061582115
194	0xbcb5dd18	-0.022200152
195	0x3dabffb0	0.08398378
196	0xbcdaea3c	-0.02672302
197	0x3daff2a6	0.085912034
198	0xbd99f966	-0.07518272
199	0xbbd81a45	-0.0065949284
200	0x3c82dbaa	0.015973885
201	0x3d93058c	0.07178792
202	0x3d46823a	0.048464037
203	0xbdfb9c58	-0.122856796
204	0x3d311173	0.04322953
205	0x3e3cac60	0.18425131
206	0x3d21b9ca	0.039483823
207	0x3de46124	0.111513406
208	0xbdb62813	-0.08894362
209	0xbe01a7f2	-0.12661722
210	0xbd2a61d0	-0.041597188
211	0xbd8f7a1f	-0.070057146
212	0xbc8ac67f	-0.016940353
213	0xbdc44e6d	-0.09585271
214	0xbd374935	-0.04474755
215	0x3e1ba160	0.15198278
216	0x3cb1a6e0	0.021686018
217	0xbd8ad595	-0.06779019
218	0xbc9876bc	-0.018611304
219	0x3ddcfc80	0.10790348
220	0x3d1d3609	0.03838161
221	0xbceb8777	-0.028751118
222	0xbe0200f0	-0.1269567
223	0x3e12d3ca	0.14338604
224	0x3d586ffe	0.05284118
225	0xbd9f5136	-0.07779162
226	0xbd527764	-0.05138339
227	0xbe622d45	-0.22087581
228	0xbde64ed8	-0.11245507
229	0x3d67bcf9	0.056576703
230	0x3cc99ac9	0.02460994
231	0xbe187a3c	-0.14890379
232	0xbd4992d6	-0.0492123
233	0x3d3c7c1f	0.04601681
234	0xbcdb86b6	-0.026797634
235	0xbe0c20ae	-0.13684341
236	0xbd5d0c46	-0.053966783
237	0x3e309439	0.17244042
238	0x3cacc08e	0.021087911
239	0x3b477421	0.0030434208
240	0xbdad3617	-0.084575824
241	0x3dd5a01f	0.10430931
242	0x3c0f6db8	0.008754186
243	0x3c892962	0.016743366
244	0xbdb826eb	-0.08991798
245	0xbd3e631a	-0.04648123
246	0x3ced740d	0.028986001
247	0xbd82c748	-0.06385666
248	0xbdd679c8	-0.10472447
249	0x3dce5bbe	0.10076092
250	0xbd9a0a92	-0.075215474
251	0xbccd0862	-0.025028411
252	0x3e1d3e5c	0.1535582
253	0x3d74f680	0.059805393
254	0x3cbfabe9	0.023397403
255	0xbd9fe948	-0.07808167

network_body._body_endoder.seq_layers.0.bias f4 [128]
0	0x00000000	0.0
1	0x00000000	0.0
2	0x00000000	0.0
3	0x00000000	0.0
4	0x00000000	0.0
5	0x00000000	0.0
6	0x00000000	0.0
7	0x00000000	0.0
8	0x00000000	0.0
9	0x00000000	0.0
10	0x00000000	0.0
11	0x00000000	0.0
12	0x00000000	0.0
13	0x00000000	0.0
14	0x00000000	0.0
15	0x00000000	0.0
16	0x00000000	0.0
17	0x00000000	0.0
18	0x00000000	0.0
19	0x00000000	0.0
20	0x00000000	0.0
21	0x00000000	0.0
22	0x00000000	0.0
23	0x00000000	0.0
24	0x00000000	0.0
25	0x00000000	0.0
26	0x00000000	0.0
27	0x00000000	0.0
28	0x00000000	0.0
29	0x00000000	0.0
30	0x00000000	0.0
31	0x00000000	0.0
32	0x00000000	0.0
33	0x00000000	0.0
34	0x00000000	0.0
35	0x00000000	0.0
36	0x00000000	0.0
37	0x00000000	0.0
38	0x00000000	0.0
39	0x00000000	0.0
40	0x00000000	0.0
41	0x00000000	0.0
42	0x00000000	0.0
43	0x00000000	0.0
44	0x00000000	0.0
45	0x00000000	0.0
46	0x00000000	0.0
47	0x00000000	0.0
48	0x00000000	0.0
49	0x00000000	0.0
50	0x00000000	0.0
51	0x00000000	0.0
52	0x00000000	0.0
53	0x00000000	0.0
54	0x00000000	0.0
55	0x00000000	0.0
56	0x00000000	0.0
57	0x00000000	0.0
58	0x00000000	0.0
59	0x00000000	0.0
60	0x00000000	0.0
61	0x00000000	0.0
62	0x00000000	0.0
63	0x00000000	0.0
64	0x00000000	0.0
65	0x00000000	0.0
66	0x00000000	0.0
67	0x00000000	0.0
68	0x00000000	0.0
69	0x00000000	0.0
70	0x00000000	0.0
71	0x00000000	0.0
72	0x00000000	0.0
73	0x00000000	0.0
74	0x00000000	0.0
75	0x00000000	0.0
76	0x00000000	0.0
77	0x00000000	0.0
78	0x00000000	0.0
79	0x00000000	0.0
80	0x00000000	0.0
81	0x00000000	0.0
82	0x00000000	0.0
83	0x00000000	0.0
84	0x00000000	0.0
85	0x00000000	0.0
86	0x00000000	0.0
87	0x00000000	0.0
88	0x00000000	0.0
89	0x00000000	0.0
90	0x00000000	0.0
91	0x00000000	0.0
92	0x00000000	0.0
93	0x00000000	0.0
94	0x00000000	0.0
95	0x00000000	0.0
96	0x00000000	0.0
97	0x00000000	0.0
98	0x00000000	0.0
99	0x00000000	0.0
100	0x00000000	0.0
101	0x00000000	0.0
102	0x00000000	0.0
103	0x00000000	0.0
104	0x00000000	0.0
105	0x00000000	0.0
106	0x00000000	0.0
107	0x00000000	0.0
108	0x00000000	0.0
109	0x00000000	0.0
110	0x00000000	0.0
111	0x00000000	0.0
112	0x00000000	0.0
113	0x00000000	0.0
114	0x00000000	0.0
115	0x00000000	0.0
116	0x00000000	0.0
117	0x00000000	0.0
118	0x00000000	0.0
119	0x00000000	0.0
120	0x00000000	0.0
121	0x00000000	0.0
122	0x00000000	0.0
123	0x00000000	0.0
124	0x00000000	0.0
125	0x00000000	0.0
126	0x00000000	0.0
127	0x00000000	0.0

network_body._body_endoder.seq_layers.2.weight f4 [128, 128]
0	0x3d1e86da	0.038702823
1	0x3bcbf3f9	0.006224152
2	0xbdea17c9	-0.11430318
3	0xbd12303f	-0.035690542
4	0x3d3ac05d	0.04559361
5	0xbe2365e2	-0.15956834
6	0x3dcde63c	0.10053679
7	0x3d546484	0.05185367
8	0x3cb6a038	0.022293195
9	0xbd68505a	-0.056717254
10	0x3e5c9731	0.2154205
11	0x3d94108b	0.07229718
12	0xbe19e851	-0.15030028
13	0xbb93b152	-0.004507222
14	0x3daa4858	0.0831458
15	0x3a627e11	0.0008640001
16	0x3dd55978	0.104174554
17	0xbdead651	-0.11466659
18	0xbc10ce02	-0.008838179
19	0x3e175c65	0.1478134
20	0xbdb50a83	-0.088398956
21	0x3dcd3728	0.10020286
22	0x3cc8c051	0.024505766
23	0xbd5a91ca	-0.05336169
24	0xbde7b680	-0.11314106
25	0xbdb6263f	-0.088940136
26	0xbe25af16	-0.16180071
27	0xbd04a3cf	-0.032382783
28	0x3d2bd3c4	0.041950002
29	0x3cb3338c	0.021875165
30	0x3cecf389	0.02892472
31	0x3dca92ea	0.09891303
32	0x3bf89bc1	0.0075869267
33	0xbae21c6e	-0.0017250904
34	0x3d73e624	0.05954565
35	0x3db6b632	0.0892147
36	0xbbb44a31	-0.0055020084
37	0x3d099510	0.033589423
38	0xbd04e2eb	-0.03244297
39	0x3d44b882	0.048027523
40	0x3cf8b8e3	0.030361598
41	0x3e075776	0.13216957
42	0x3d7e17a0	0.06203425
43	0xbc005a78	-0.007834069
44	0x3d02a60b	0.031896632
45	0xba0d272b	-0.00053845596
46	0x3dd51aca	0.104055
47	0x3daa8372	0.083258525
48	0x3d6c7f02	0.05773831
49	0x3d66b796	0.056327425
50	0x3d8336f4	0.06406966
51	0xbdfb1bf7	-0.12261193
52	0xbc6efc96	-0.014586588
53	0xbe147201	-0.14496614
54	0xbe41de59	-0.18932475
55	0x3b478758	0.0030445661
56	0xbe2ecf5a	-0.17071286
57	0xbd5e1e2e	-0.054228
58	0x3dd97086	0.10617165
59	0x3ab2f4f8	0.0013653329
60	0xbe1df243	-0.15424447
61	0xbdab4f38	-0.08364719
62	0x3e046a95	0.12931283
63	0x3dea01f8	0.11426157
64	0x3c165ad1	0.009176926
65	0x3d1673af	0.03673142
66	0xbd8c70bf	-0.06857442
67	0x3e0320c8	0.12805474
68	0x3e05e1f4	0.13074476
69	0x3c6dc226	0.014511621
70	0xbdfef056	-0.12448184
71	0x3dc04154	0.0938746
72	0x3c980825	0.018558571
73	0x3dac44c5	0.08411554
74	0x3c6dcefb	0.01451468
75	0xbe64a311	-0.2232783
76	0xbd072510	-0.03299433
77	0xbe345ebd	-0.17614265
78	0x3dcba3e8	0.09943372
79	0xbd2fc112	-0.042908736
80	0x3e14525c	0.14484543
81	0x3df431ae	0.11923538
82	0xbda9bb09	-0.08287627
83	0xbd438a00	-0.04773903
84	0xbd817167	-0.06320458
85	0x3d9b99f3	0.07597723
86	0xbdf01917	-0.117235355
87	0xbab97a31	-0.0014150796
88	0xbc8b5030	-0.01700601
89	0x3c8f03ab	0.017457804
90	0x3b22ec52	0.0024860096
91	0xbc903d47	-0.017607344
92	0xbccf450e	-0.025301483
93	0x3e0162d7	0.1263536
94	0x3cac1d67	0.021010114
95	0xbcb5f2d3	-0.022210514
96	0xbd8d674e	-0.069044694
97	0xbd9fe36d	-0.0780705
98	0x3dc3dd3c	0.095636815
99	0xbdb1c0e6	-0.086793706
100	0x3c54075f	0.0129412105
101	0xbd031eab	-0.03201167
102	0xbd0b7382	-0.034045704
103	0xbd389937	-0.045067992
104	0x3df26860	0.11836314
105	0xbd882a51	-0.06648696
106	0xbd926d3c	-0.07149741
107	0x3daeb4ba	0.085305646
108	0xbdd38230	-0.10327566
109	0xbd215c62	-0.039394744
110	0xbe05e169	-0.13074268
111	0x3d11de89	0.035612617
112	0x3d804cde	0.06264661
113	0x3e8d47fc	0.27593982
114	0x3db97e08	0.09057242
115	0x3dee5b56	0.11638515
116	0xbd851557	-0.06498211
117	0x3d3b2944	0.04569365
118	0xbd76fc0e	-0.06029897
119	0xbe698299	-0.22803725
120	0x3d1dfb71	0.03856987
121	0xbccd352f	-0.025049774
122	0xbdd84054	-0.105591446
123	0xbd1bf27e	-0.038073055
124	0x3d365012	0.044509955
125	0xbe48302a	-0.19549623
126	0xbda35383	-0.07974913
127	0xbcb43ad8	-0.022000715
128	0xbc7ff8df	-0.0156233
129	0x3dd9ce4d	0.10635052
130	0x3bbe0202	0.005798579
131	0xbe2f5386	-0.17121705
132	0x3c6e750b	0.014554272
133	0x3d1d5f70	0.038421094
134	0xbc7c75a7	-0.01540891
135	0xbd163748	-0.036673814
136	0x3e032518	0.12807119
137	0xbcf57252	-0.029961739
138	0xbdd6b659	-0.10483999
139	0xbc029b91	-0.00797166
140	0x3da7747f	0.08176517
141	0xbe3dec6a	-0.18547216
142	0xbce471a4	-0.02788622
143	0x3cee3066	0.029075813
144	0x3e046e04	0.12932593
145	0xbdb1b7ba	-0.08677621
146	0x3d23c784	0.039985195
147	0xbd17d39d	-0.037067045
148	0xbcf0a227	-0.029374195
149	0x3e068937	0.13138281
150	0xbd704ef8	-0.05866906
151	0x3d85f5b3	0.06541004
152	0xbbe00426	-0.006836432
153	0x3d2b61e9	0.04184142
154	0xbc872b89	-0.016500251
155	0x3cb97c1d	0.02264219
156	0x3dcb97ca	0.09941061
157	0x3c2ca12c	0.010536473
158	0x3d342f1e	0.043990247
159	0xbe0377f2	-0.12838724
160	0xbd2762dc	-0.040865764
161	0x3e587d95	0.21141656
162	0x3dc89e72	0.09795846
163	0x3da9f651	0.08298934
164	0xbd597bad	-0.053096462
165	0x3d2cbfda	0.04217515
166	0xbcb2591f	-0.021771012
167	0xbdf8a197	-0.12140196
168	0x3c9fd8d2	0.019512568
169	0x3d3ac49b	0.045597654
170	0xbc06a186	-0.008217221
171	0x3dc43419	0.09580249
172	0x3dba5065	0.09097365
173	0x3b8aa390	0.004230924
174	0x3d70cb22	0.058787473
175	0x3dc2f082	0.095185295
176	0x3dac7285	0.0842028
177	0xbe422f80	-0.18963432
178	0x3cf50d8f	0.029913692
179	0xbd9b87a5	-0.075942315
180	0x396e7fbf	0.00022745038
181	0xbd2f2928	-0.04276386
182	0x3d8362f5	0.06415359
183	0xbd74cf77	-0.059768166
184	0xbdef254b	-0.11677035
185	0x3cf37b42	0.02972186
186	0xbd853666	-0.06504516
187	0xbb2223e4	-0.002474063
188	0x3d4733ea	0.048633493
189	0xbd459c82	-0.04824496
190	0xbda8d19b	-0.08243104
191	0x3d8241c3	0.06360199
192	0xbda46c4b	-0.08028468
193	0x3ce3dc2f	0.027814953
194	0x3cb93890	0.022609979
195	0xbcaaa972	-0.020832751
196	0x3da151bf	0.0787692
197	0x3c6c5d07	0.014426476
198	0xbe243574	-0.16036016
199	0x3d367693	0.044546675
200	0x3d9281f9	0.071536966
201	0x3c945142	0.018105153
202	0xbd2eaf07	-0.042647388
203	0x3c5d2c6e	0.013499362
204	0x3aa139a4	0.0012300503
205	0x3da623d3	0.08112302
206	0x3d8a6fa1	0.06759573
207	0x3ce89b72	0.028394435
208	0xbc37821d	-0.011200455
209	0xbdf3390f	-0.118761174
210	0xbd9d561b	-0.07682439
211	0xbe3758dc	-0.17904991
212	0xbe0a24b8	-0.1349057
213	0x3da62069	0.081116505
214	0xbd8514e4	-0.06498125
215	0xbdb2ae58	-0.0872466
216	0xbd62c016	-0.05535897
217	0xbe2a59e7	-0.16635858
218	0xbc8cea37	-0.017201526
219	0xbc957808	-0.018245712
220	0x3c16601c	0.009178188
221	0x3ccc3209	0.024926202
222	0x3e2f8798	0.17141569
223	0xbc0fce5a	-0.008777225
224	0xbdd3ea74	-0.10347453
225	0xbe1a4b06	-0.15067682
226	0xbcefc672	-0.02926943
227	0x3e09dcc9	0.13463129
228	0x3e56d75e	0.20980594
229	0x3e0d8433	0.13819961
230	0x3c710648	0.01471097
231	0x3d2c09f0	0.042001665
232	0x3e4c2c7a	0.19938841
233	0x3e17b515	0.14815171
234	0x3db561f3	0.08856573
235	0xbd09a1dc	-0.033601627
236	0x3dee2820	0.11628747
237	0xbe27ccc2	-0.16386703
238	0xbc032fba	-0.008006984
239	0xbe0f343b	-0.13984768
240	0x3d268aad	0.040659595
241	0xbe4ad779	-0.19808759
242	0xbdf82399	-0.12116165
243	0x3da564b2	0.08075847
244	0xbe12bf96	-0.14330897
245	0x3d84152e	0.06449352
246	0x3c2aff4c	0.010436844
247	0x3d9d03c3	0.07666733
248	0xbdc75dbc	-0.09734675
249	0xbde51bdb	-0.11186954
250	0xbd754330	-0.059878528
251	0xbd65fed3	-0.056151222
252	0x3dc54a84	0.09633353
253	0xbdd5298e	-0.104083166
254	0xbdcc32de	-0.0997064
255	0x3dc2f6c6	0.095197245

network_body._body_endoder.seq_layers.2.bias f4 [128]
0	0x00000000	0.0
1	0x00000000	0.0
2	0x00000000	0.0
3	0x00000000	0.0
4	0x00000000	0.0
5	0x00000000	0.0
6	0x00000000	0.0
7	0x00000000	0.0
8	0x00000000	0.0
9	0x00000000	0.0
10	0x00000000	0.0
11	0x00000000	0.0
12	0x00000000	0.0
13	0x00000000	0.0
14	0x00000000	0.0
15	0x00000000	0.0
16	0x00000000	0.0
17	0x00000000	0.0
18	0x00000000	0.0
19	0x00000000	0.0
20	0x00000000	0.0
21	0x00000000	0.0
22	0x00000000	0.0
23	0x00000000	0.0
24	0x00000000	0.0
25	0x00000000	0.0
26	0x00000000	0.0
27	0x00000000	0.0
28	0x00000000	0.0
29	0x00000000	0.0
30	0x00000000	0.0
31	0x00000000	0.0
32	0x00000000	0.0
33	0x00000000	0.0
34	0x00000000	0.0
35	0x00000000	0.0
36	0x00000000	0.0
37	0x00000000	0.0
38	0x00000000	0.0
39	0x00000000	0.0
40	0x00000000	0.0
41	0x00000000	0.0
42	0x00000000	0.0
43	0x00000000	0.0
44	0x00000000	0.0
45	0x00000000	0.0
46	0x00000000	0.0
47	0x00000000	0.0
48	0x00000000	0.0
49	0x00000000	0.0
50	0x00000000	0.0
51	0x00000000	0.0
52	0x00000000	0.0
53	0x00000000	0.0
54	0x00000000	0.0
55	0x00000000	0.0
56	0x00000000	0.0
57	0x00000000	0.0
58	0x00000000	0.0
59	0x00000000	0.0
60	0x00000000	0.0
61	0x00000000	0.0
62	0x00000000	0.0
63	0x00000000	0.0
64	0x00000000	0.0
65	0x00000000	0.0
66	0x00000000	0.0
67	0x00000000	0.0
68	0x00000000	0.0
69	0x00000000	0.0
70	0x00000000	0.0
71	0x00000000	0.0
72	0x00000000	0.0
73	0x00000000	0.0
74	0x00000000	0.0
75	0x00000000	0.0
76	0x00000000	0.0
77	0x00000000	0.0
78	0x00000000	0.0
79	0x00000000	0.0
80	0x00000000	0.0
81	0x00000000	0.0
82	0x00000000	0.0
83	0x00000000	0.0
84	0x00000000	0.0
85	0x00000000	0.0
86	0x00000000	0.0
87	0x00000000	0.0
88	0x00000000	0.0
89	0x00000000	0.0
90	0x00000000	0.0
91	0x00000000	0.0
92	0x00000000	0.0
93	0x00000000	0.0
94	0x00000000	0.0
95	0x00000000	0.0
96	0x00000000	0.0
97	0x00000000	0.0
98	0x00000000	0.0
99	0x00000000	0.0
100	0x00000000	0.0
101	0x00000000	0.0
102	0x00000000	0.0
103	0x00000000	0.0
104	0x00000000	0.0
105	0x00000000	0.0
106	0x00000000	0.0
107	0x00000000	0.0
108	0x00000000	0.0
109	0x00000000	0.0
110	0x00000000	0.0
111	0x00000000	0.0
112	0x00000000	0.0
113	0x00000000	0.0
114	0x00000000	0.0
115	0x00000000	0.0
116	0x00000000	0.0
117	0x00000000	0.0
118	0x00000000	0.0
119	0x00000000	0.0
120	0x00000000	0.0
121	0x00000000	0.0
122	0x00000000	0.0
123	0x00000000	0.0
124	0x00000000	0.0
125	0x00000000	0.0
126	0x00000000	0.0
127	0x00000000	0.0

action_model._discrete_distribution.branches.0.weight f4 [4, 128]
0	0x39923e77	0.0002789383
1	0xbc8b53ca	-0.017007727
2	0x3cb1c1db	0.021698883
3	0x3c5504cf	0.013001635
4	0xba6965a8	-0.00089033926
5	0xbba737e7	-0.0051030996
6	0x3ba266ab	0.0049560866
7	0xbb9b4c16	-0.0047392948
8	0x3a8bd3c5	0.0010667971
9	0xbaf2ae72	-0.0018515124
10	0x3c5aa70a	0.013345489
11	0x3b33d4b4	0.0027440013
12	0xbb9fd6c6	-0.004877898
13	0x3c0f79dd	0.008757082
14	0xba3fbf41	-0.0007314571
15	0xbb7fb5db	-0.0039018306
16	0xbbb32c44	-0.0054679234
17	0x3c131c89	0.008978971
18	0x3b973617	0.0046146023
19	0x3a2e0f47	0.000663985
20	0xba9421e3	-0.0011301603
21	0x3c153673	0.00910722
22	0xbbbaee63	-0.0057046874
23	0xbc0fd725	-0.008779322
24	0x3ab895d2	0.0014082736
25	0xba2f7887	-0.000669368
26	0x3b93c597	0.0045096385
27	0x3c95a603	0.018267637
28	0xbc1ebfe9	-0.00968931
29	0x3bef86b2	0.007309758
30	0x3ba9f3bb	0.0051865256
31	0x3c2f90c3	0.010715666
32	0x3a7a162f	0.0009540049
33	0x3b328960	0.0027242526
34	0xbb1a2ad7	-0.002352407
35	0xbbf07f80	-0.007339418
36	0xbc61f5c3	-0.013791504
37	0x3c281087	0.010257847
38	0xbc41d236	-0.011829903
39	0x3c2f9433	0.010716486
40	0x3a2c461b	0.0006571726
41	0x39a67c1c	0.00031754456
42	0x3aef28a8	0.001824637
43	0xbc50606f	-0.012718304
44	0x3bf3241a	0.007420075
45	0xbc1ac187	-0.009445555
46	0x3c1dad90	0.0096239
47	0xbb3936bc	-0.0028261384
48	0xbbf71b6a	-0.00754111
49	0x3bf39e18	0.0074346177
50	0xbc160c52	-0.009158211
51	0xbbd887bd	-0.006607978
52	0xbba1da94	-0.0049393866
53	0x3b681f47	0.0035419033
54	0x3bc3c92c	0.0059749093
55	0x3b959ccf	0.004565812
56	0xbc43d54f	-0.011952712
57	0x3b386c68	0.0028140787
58	0xbc178118	-0.009247087
59	0x3ae42e2a	0.0017408777
60	0x3b1d7999	0.0024028777
61	0x3c590db2	0.013247894
62	0x3c4cc554	0.012498219
63	0xbb9ed06f	-0.0048466246
64	0x3be62d0b	0.0070244125
65	0x3c04c18f	0.008102789
66	0xba23c8ff	-0.00062479073
67	0x3c467816	0.012113592
68	0xbb439bce	-0.0029847506
69	0xbbfefe6d	-0.0077817948
70	0xbb0fc9fc	-0.002194046
71	0xbbde74fb	-0.0067888475
72	0x3c141d16	0.009040138
73	0x3c537f8b	0.012908827
74	0xbc89ad23	-0.01680619
75	0x3c0a1c6b	0.008429627
76	0xbc2d29c7	-0.0105690425
77	0x3c1be2cb	0.009514521
78	0x3a790462	0.0009499249
79	0xbc3090ae	-0.010776682
80	0x3b821710	0.0039700344
81	0x3b5ea04f	0.0033970063
82	0x3bcbec3f	0.006223231
83	0xbca2c463	-0.019869035
84	0xbc4e85c0	-0.012605131
85	0xbbf20153	-0.0073854118
86	0xbbe2fed5	-0.006927351
87	0xbbe7121f	-0.0070517207
88	0x3bda5a70	0.006663613
89	0xbab1abad	-0.0013555192
90	0xbbb2106b	-0.005434086
91	0xbc21d1a7	-0.009876645
92	0x3c7cf59f	0.01543942
93	0xba37a70f	-0.00070057897
94	0xbb808fcc	-0.003923392
95	0xbc0c6f02	-0.008571388
96	0xbb8139f5	-0.0039436766
97	0xbb3c00df	-0.0028687043
98	0x3ae70a95	0.0017627055
99	0x3b9546c3	0.0045555546
100	0x3b065ccd	0.002050209
101	0x3b1305dd	0.0022433915
102	0xbaf6a93f	-0.001881875
103	0xbc690863	-0.014223191
104	0x3bd4d8bd	0.006495564
105	0xbc99c1d4	-0.018769182
106	0x3c338c87	0.010958797
107	0xbc0bb3f1	-0.008526788
108	0x3c4120b4	0.011787582
109	0x3ba46520	0.005016938
110	0xba69d22a	-0.00089195615
111	0x3c6ffc6b	0.0146475835
112	0xbc1208ab	-0.008913199
113	0x3aa89f8f	0.0012864935
114	0xba6c875f	-0.00090228574
115	0x3b7e97e2	0.0038847853
116	0x3c16db6c	0.009207588
117	0xbb217621	-0.002463706
118	0xbc680fcd	-0.014163923
119	0x3c7b50e2	0.015339108
120	0x3bf6ba7d	0.0075295554
121	0xbc7581a2	-0.01498452
122	0x3be4a6d0	0.0069778934
123	0x3b89c1a4	0.004203992
124	0x3b7eee5d	0.00388994
125	0x3aaf9a52	0.0013397431
126	0x3a9e0f76	0.0012059051
127	0xbb55c50d	-0.0032618672
128	0x3c7eee92	0.015559809
129	0x3b2508d6	0.0025182269
130	0xbc5c538f	-0.013447656
131	0x3b6444a7	0.003483096
132	0x3aa8b675	0.0012871759
133	0xbbee4e70	-0.007272534
134	0x3bf291ba	0.007402626
135	0x3b65280d	0.00349665
136	0x3c043832	0.008070039
137	0x3cbe253b	0.023211112
138	0xbb414d7b	-0.0029495645
139	0xbaae299a	-0.0013287545
140	0xbbe4e503	-0.006985308
141	0x3a92b1db	0.0011191921
142	0xbbba6523	-0.005688326
143	0x3b9eb341	0.004843146
144	0x39f8a80f	0.0004742746
145	0xbb583970	-0.003299322
146	0xb8d6509b	-0.00010219329
147	0x3cc1fc6c	0.023679934
148	0xbc109522	-0.0088246185
149	0x3bdae0d5	0.006679634
150	0x3bfc7f0d	0.0077055753
151	0x3bd8bd17	0.006614338
152	0xba79330f	-0.00095062045
153	0xbbcf407f	-0.006324827
154	0xbc87826c	-0.016541682
155	0xb9a2b297	-0.00031032108
156	0x3bc9b5d9	0.006155711
157	0xbbb2793e	-0.005446582
158	0xbb42be51	-0.0029715488
159	0x3bb7aa16	0.0056049926
160	0xbc3040b0	-0.01075761
161	0xbbf59737	-0.007494833
162	0xbc547843	-0.012968126
163	0xbabd7dbc	-0.0014457027
164	0xbc714b3b	-0.014727409
165	0x3b43d56d	0.002988185
166	0x38ccd8a8	9.7678334e-05
167	0xbccb14df	-0.024790226
168	0xbc242459	-0.010018432
169	0xbac5ebef	-0.0015100221
170	0xbb3a2aa6	-0.0028406768
171	0x3ba11c9a	0.0049167397
172	0x3cd38aba	0.025822986
173	0xbc1f7e27	-0.009734667
174	0x3ab0c650	0.0013486836
175	0xba418511	-0.0007382194
176	0xbc34887f	-0.011018871
177	0xba153725	-0.0005692116
178	0x3c401fa6	0.011726296
179	0x3b64c37f	0.0034906564
180	0xbc1623c3	-0.0091638
181	0x3b3b7fc0	0.002861008
182	0xbc8bf977	-0.017086728
183	0xbca7628f	-0.020432739
184	0xbbea35db	-0.0071475334
185	0x3c11d289	0.008900293
186	0xbc695c13	-0.014243144
187	0x3b937430	0.0044999346
188	0xbcaa4aa7	-0.02078755
189	0x3bfe841f	0.007767215
190	0x3c6a4f8a	0.01430119
191	0xb85904e2	-5.174138e-05
192	0xbc23d913	-0.010000485
193	0x3c056647	0.008142061
194	0x3b9e2bbf	0.0048269923
195	0xbbb10f1c	-0.0054034125
196	0x3b078ef1	0.0020684565
197	0x3c13fd44	0.009032551
198	0x3c1f8ff3	0.00973891
199	0x3b263fd4	0.0025367634
200	0x3b3851fb	0.0028125036
201	0xb9d64cab	-0.00040874383
202	0xb9e90778	-0.00044446788
203	0x3c85d7a5	0.016338179
204	0xbc22a8f0	-0.009927973
205	0xbc374ac7	-0.011187262
206	0xbb8f939f	-0.0043816115
207	0x3b95bbdb	0.0045695133
208	0xbbc7fcba	-0.0061031254
209	0xbbf8cc07	-0.0075926813
210	0x3af4e4d8	0.0018683923
211	0x3c08f72b	0.008359711
212	0xbb4fcd72	-0.0031708148
213	0x3be00bfb	0.0068373657
214	0x3be997b0	0.0071286783
215	0x3bbd4fbf	0.0057773287
216	0xbc1b2ba4	-0.009470854
217	0x3bce4ef8	0.006296035
218	0xbb0786d0	-0.002067972
219	0x3c72c238	0.014816813
220	0xba8926c1	-0.001046382
221	0x3c7b6c20	0.015345603
222	0x3b61b7ba	0.0034441785
223	0xba6dfb5f	-0.000907829
224	0x3c1341cc	0.008987855
225	0x3c021ea3	0.007941875
226	0x3c2e7803	0.01064873
227	0xbb415bbe	-0.0029504145
228	0x3cc8ee47	0.024527682
229	0xbb40c2a7	-0.0029412897
230	0x3c3cdc51	0.011527137
231	0x3b89edf8	0.0042092763
232	0xbc7841b0	-0.01515238
233	0x3ad3177f	0.0016105025
234	0xbc7c9aaf	-0.015417739
235	0x3bbb35e0	0.0057132095
236	0x3b40cd5b	0.0029419276
237	0x3c097e53	0.008391934
238	0x3b8e9763	0.004351543
239	0x3b2eab59	0.0026652424
240	0x3b70e985	0.0036760282
241	0xba1baa24	-0.00059381337
242	0xbc79bea2	-0.015243204
243	0xbbda94ef	-0.0066705863
244	0x3b340623	0.0027469478
245	0xbbaaa0f0	-0.0052071735
246	0xbca6906b	-0.020332536
247	0x3b6c2832	0.00360347
248	0xbbd07b03	-0.0063623204
249	0x3ae092bb	0.0017133573
250	0xbc8440aa	-0.016144115
251	0x3bcee932	0.00631442
252	0x3b78e545	0.0037978452
253	0xbc54fee8	-0.0130002275
254	0xbbb57c2f	-0.0055384855
255	0x3afe6ad0	0.0019410495

action_model._discrete_distribution.branches.0.bias f4 [4]
0	0x00000000	0.0
1	0x00000000	0.0
2	0x00000000	0.0
3	0x00000000	0.0

network_body._body_endoder.seq_layers.0.weight f4 [128, 138]
0	0xbdc0d6a9	-0.09415943
1	0x3c11e56a	0.008904794
2	0x3d1532c8	0.036425382
3	0x3d382019	0.044952486
4	0x3dd74ab8	0.10512298
5	0x3dfdf023	0.12399318
6	0xbdbe298a	-0.09285267
7	0xbcf05f81	-0.029342415
8	0x3e167567	0.14693223
9	0xbd2db8ca	-0.042412557
10	0x3bd33c86	0.006446424
11	0x3e166f6e	0.14690945
12	0x3d6547c7	0.055976655
13	0xbdb410cc	-0.08792266
14	0x3d890b17	0.06691568
15	0xbd1f02d0	-0.03882104
16	0xbe093286	-0.1339818
17	0xbde56d98	-0.11202544
18	0x3d189da3	0.03725971
19	0xbd539024	-0.051651135
20	0xbcffae2b	-0.03121098
21	0xbd0ca6ae	-0.034338646
22	0xbe2cc882	-0.16873363
23	0xbd662db4	-0.05619593
24	0xbc862b9e	-0.01637822
25	0x3a9e1fb6	0.0012063894
26	0xbdb8e649	-0.090282984
27	0x3bf18f56	0.0073718233
28	0xbda128cc	-0.078691095
29	0x3d2e1774	0.042502835
30	0x3deeb4a2	0.11655547
31	0xbdaa2788	-0.08308321
32	0x3e0ebffd	0.13940425
33	0xbd32806b	-0.0435795
34	0xbd348bd5	-0.044078667
35	0x3e2bcce9	0.16777386
36	0xbdc6f7b5	-0.09715215
37	0x3e028f06	0.12749872
38	0x3d36fb72	0.04467339
39	0xbd3332ba	-0.04374955
40	0xbd829bc8	-0.06377369
41	0xbdb376e8	-0.08762914
42	0x3df5cffa	0.12002559
43	0xbd9513ae	-0.07279144
44	0xbc8fbf93	-0.017547404
45	0x3dbce542	0.09223415
46	0xbd3a838a	-0.0455356
47	0xbcef3e0b	-0.02920439
48	0x3d76e3c6	0.060275815
49	0x3d8f3a69	0.06993563
50	0x3d27f4fb	0.041005116
51	0x3d50e27d	0.050997246
52	0x3dedd0d6	0.11612098
53	0x3ce05ebe	0.027388927
54	0xbca34cf1	-0.01993415
55	0xbcffe000	-0.031234741
56	0x3c99f74c	0.018794678
57	0xbd4c2e93	-0.049849104
58	0x3d91e56c	0.07123837
59	0xbe1cdf1e	-0.15319487
60	0x3ca3ffcd	0.020019436
61	0x3d888604	0.066661865
62	0xbd886513	-0.066599034
63	0xbe30a839	-0.17251672
64	0x3d849d1d	0.064752795
65	0xbba4925c	-0.00502233
66	0x3cbb1a97	0.022839827
67	0xbddd6c67	-0.10811692
68	0x3d9976d6	0.07493369
69	0x3e021b84	0.12705809
70	0x3dc51781	0.09623624
71	0xbcf12e38	-0.029440984
72	0xbc77dbd7	-0.0151280975
73	0x3dedc82e	0.11610447
74	0x3da10eea	0.07864173
75	0x3dd21f49	0.102598734
76	0xbd238cb6	-0.039929114
77	0xbd503346	-0.05083015
78	0xbd4aa837	-0.04947683
79	0xbcbff53b	-0.023432365
80	0xbd70ba4f	-0.058771428
81	0xbc817f3a	-0.015807737
82	0x3c09f134	0.008419324
83	0xbdab7a1f	-0.08372902
84	0x3dc2c4a0	0.095101595
85	0xbb5fcf0a	-0.0034150505
86	0x3db9ba14	0.09068695
87	0x3c07aa0b	0.0082802875
88	0xbda5ef32	-0.081022635
89	0x3dd84b4b	0.10561236
90	0x3d5331f8	0.051561326
91	0x3e46fe17	0.19432865
92	0x3dcce3e7	0.100044064
93	0x3d347aa1	0.04406226
94	0xbd2ccc2b	-0.042186897
95	0x3dd72ca3	0.10506561
96	0x3d77555f	0.06038415
97	0x3a2c2186	0.00065662747
98	0x3d5a93b5	0.05336352
99	0xbdeb0c2a	-0.114769295
100	0xbd54398a	-0.051812686
101	0x3dc48fa6	0.09597711
102	0x3a938271	0.0011254085
103	0x3e24b314	0.16083938
104	0xbd8fbcec	-0.07018456
105	0x3d8ae436	0.06781809
106	0x3b63d8e0	0.0034766719
107	0xbdcdd542	-0.10050441
108	0x3e254c08	0.16142285
109	0x3df487cb	0.11939963
110	0x3dd4ac4b	0.10384425
111	0xbd0376e6	-0.032095812
112	0xbd8c3843	-0.068466686
113	0xbc947357	-0.018121405
114	0xbd0a111f	-0.033707734
115	0x3c28c93d	0.010301885
116	0xbe5285e5	-0.20558889
117	0xbd0a06b2	-0.03369779
118	0x3ddd0392	0.107916966
119	0xbc206b3f	-0.009791194
120	0xbcb28ff0	-0.02179715
121	0x3db4b656	0.0882384
122	0xbe77d4c9	-0.24202265
123	0xbdcbe0c5	-0.09954981
124	0x3dbaaf80	0.09115505
125	0xbd825c00	-0.06365204
126	0x3d3cf4b5	0.04613181
127	0xbe5b381d	-0.21408124
128	0xbe2c804c	-0.16845816
129	0xbd6c64df	-0.057713386
130	0xbcd8b3be	-0.026452895
131	0x3b7c193a	0.0038467185
132	0x3c251c05	0.010077481
133	0xbd4b3e7e	-0.049620144
134	0xbd30423f	-0.043031927
135	0xbe51a365	-0.20472486
136	0x3d9fc650	0.07801497
137	0x3cc7ecca	0.024404902
138	0x3e3f3c57	0.18675362
139	0x3cbafcc9	0.022825615
140	0xbce3ff80	-0.027831793
141	0x3d01fca2	0.03173507
142	0x3d9daa96	0.07698552
143	0xbd0a9235	-0.03383084
144	0x3d6877ea	0.056754984
145	0x3e380132	0.17969206
146	0xbe329b04	-0.17441946
147	0xbb79069c	-0.0037998324
148	0xbd1603a1	-0.036624555
149	0xbcd62003	-0.026138311
150	0xbe33423c	-0.17505735
151	0x3be24cd5	0.0069061317
152	0xbd780adb	-0.060557228
153	0xbe07f101	-0.1327553
154	0xbce61839	-0.028087722
155	0x3d9297c0	0.0715785
156	0x3dc1f9db	0.09471484
157	0xbb40c4f7	-0.0029414275
158	0x3c879349	0.016549723
159	0x3cded1fe	0.027199741
160	0xbe51f776	-0.20504555
161	0xbd32f779	-0.04369304
162	0x3c0631c3	0.008190575
163	0x3d18c183	0.037293922
164	0xbd77b58e	-0.06047588
165	0x3de1cbb1	0.11025179
166	0xbdf4dc05	-0.11956028
167	0xbba2f0b9	-0.004972544
168	0x3d80fa8e	0.062977895
169	0x3e200a39	0.156289
170	0xbc4ef638	-0.012631945
171	0xbe3289c9	-0.17435373
172	0xbd0dee98	-0.03465137
173	0xbd03e1a3	-0.032197606
174	0x3dec2ba8	0.11531764
175	0x3d703bb5	0.05865069
176	0x3d8516d0	0.06498492
177	0xbe23145e	-0.15925738
178	0x3d92ef8e	0.07174598
179	0xbce26830	-0.027637571
180	0xbd25147e	-0.040302746
181	0x3c379306	0.011204487
182	0x3e1dd870	0.15414596
183	0xbd5d7921	-0.054070596
184	0x3d0a5fd2	0.033782788
185	0x3d42d67f	0.04756784
186	0x3c3dd615	0.011586686
187	0x3d9f4262	0.077763334
188	0x3ca201bd	0.01977622
189	0x3ddb1922	0.10698153
190	0x3d553a49	0.05205754
191	0x3c77bd71	0.01512085
192	0x3dc078ec	0.09398064
193	0xbd04770d	-0.0323401
194	0x3d4a6fc2	0.049422987
195	0xbe02d261	-0.12775566
196	0x3d791b78	0.060817212
197	0x3ca34738	0.01993142
198	0xbd320bc3	-0.043468248
199	0xbcefab0a	-0.029256362
200	0x3d31cf09	0.043410335
201	0xbe30f724	-0.17281777
202	0x3c3c8ad6	0.01150771
203	0xbc06af7d	-0.008220551
204	0x3db657d7	0.08903473
205	0xbd315ed0	-0.04330331
206	0xbd21c7b7	-0.039497104
207	0xbdf73005	-0.12069706
208	0xbdbd69d7	-0.09248703
209	0x3c684e5a	0.014178837
210	0xbd2a5a18	-0.041589826
211	0xbd4effa1	-0.050536755
212	0xbd5ab0d4	-0.053391293
213	0xbd885d20	-0.06658387
214	0xbdd68581	-0.104746826
215	0x3c9995d4	0.018748201
216	0x3b70a332	0.0036718366
217	0x3d82a769	0.06379587
218	0xbdc94c03	-0.09828951
219	0x3dcc7f9d	0.09985278
220	0x3d9d2734	0.07673493
221	0x3df90159	0.1215846
222	0x3e60ff36	0.21972355
223	0xbd83ee3b	-0.06441923
224	0xbde78f92	-0.11306681
225	0x3cacd7b3	0.021098947
226	0x3df1955a	0.11796065
227	0x3dcf387c	0.101181954
228	0x38e5fd31	0.000109667315
229	0xbd8a29a3	-0.06746223
230	0x3d810f6b	0.06301769
231	0xbdbc2993	-0.09187617
232	0x3e3fcf87	0.18731509
233	0xbd64ec21	-0.055889253
234	0xbb8b59c0	-0.0042526424
235	0x3d6e9315	0.058245737
236	0x3d5c326b	0.05375902
237	0xbe02f660	-0.12789297
238	0x3d75f73c	0.060050234
239	0x3d734881	0.059395317
240	0xbe36ceed	-0.17852373
241	0xbe4a2bd7	-0.19743286
242	0x3d6cbb29	0.057795677
243	0xbcf408d6	-0.02978937
244	0x3e18cd9a	0.14922181
245	0xbcf879c7	-0.030331505
246	0x3db824f0	0.0899142
247	0xbd84f80d	-0.064926244
248	0xbdddb57e	-0.108256325
249	0xbdcb4c97	-0.09926718
250	0xbc80c928	-0.015720919
251	0xbce1685a	-0.027515579
252	0x3d2fdbbd	0.042934168
253	0xbd8ec98d	-0.069720365
254	0x3d1433f3	0.036182355
255	0x3d947324	0.07248524

network_body._body_endoder.seq_layers.0.bias f4 [128]
0	0x00000000	0.0
1	0x00000000	0.0
2	0x00000000	0.0
3	0x00000000	0.0
4	0x00000000	0.0
5	0x00000000	0.0
6	0x00000000	0.0
7	0x00000000	0.0
8	0x00000000	0.0
9	0x00000000	0.0
10	0x00000000	0.0
11	0x00000000	0.0
12	0x00000000	0.0
13	0x00000000	0.0
14	0x00000000	0.0
15	0x00000000	0.0
16	0x00000000	0.0
17	0x00000000	0.0
18	0x00000000	0.0
19	0x00000000	0.0
20	0x00000000	0.0
21	0x00000000	0.0
22	0x00000000	0.0
23	0x00000000	0.0
24	0x00000000	0.0
25	0x00000000	0.0
26	0x00000000	0.0
27	0x00000000	0.0
28	0x00000000	0.0
29	0x00000000	0.0
30	0x00000000	0.0
31	0x00000000	0.0
32	0x00000000	0.0
33	0x00000000	0.0
34	0x00000000	0.0
35	0x00000000	0.0
36	0x00000000	0.0
37	0x00000000	0.0
38	0x00000000	0.0
39	0x00000000	0.0
40	0x00000000	0.0
41	0x00000000	0.0
42	0x00000000	0.0
43	0x00000000	0.0
44	0x00000000	0.0
45	0x00000000	0.0
46	0x00000000	0.0
47	0x00000000	0.0
48	0x00000000	0.0
49	0x00000000	0.0
50	0x00000000	0.0
51	0x00000000	0.0
52	0x00000000	0.0
53	0x00000000	0.0
54	0x00000000	0.0
55	0x00000000	0.0
56	0x00000000	0.0
57	0x00000000	0.0
58	0x00000000	0.0
59	0x00000000	0.0
60	0x00000000	0.0
61	0x00000000	0.0
62	0x00000000	0.0
63	0x00000000	0.0
64	0x00000000	0.0
65	0x00000000	0.0
66	0x00000000	0.0
67	0x00000000	0.0
68	0x00000000	0.0
69	0x00000000	0.0
70	0x00000000	0.0
71	0x00000000	0.0
72	0x00000000	0.0
73	0x00000000	0.0
74	0x00000000	0.0
75	0x00000000	0.0
76	0x00000000	0.0
77	0x00000000	0.0
78	0x00000000	0.0
79	0x00000000	0.0
80	0x00000000	0.0
81	0x00000000	0.0
82	0x00000000	0.0
83	0x00000000	0.0
84	0x00000000	0.0
85	0x00000000	0.0
86	0x00000000	0.0
87	0x00000000	0.0
88	0x00000000	0.0
89	0x00000000	0.0
90	0x00000000	0.0
91	0x00000000	0.0
92	0x00000000	0.0
93	0x00000000	0.0
94	0x00000000	0.0
95	0x00000000	0.0
96	0x00000000	0.0
97	0x00000000	0.0
98	0x00000000	0.0
99	0x00000000	0.0
100	0x00000000	0.0
101	0x00000000	0.0
102	0x00000000	0.0
103	0x00000000	0.0
104	0x00000000	0.0
105	0x00000000	0.0
106	0x00000000	0.0
107	0x00000000	0.0
108	0x00000000	0.0
109	0x00000000	0.0
110	0x00000000	0.0
111	0x00000000	0.0
112	0x00000000	0.0
113	0x00000000	0.0
114	0x00000000	0.0
115	0x00000000	0.0
116	0x00000000	0.0
117	0x00000000	0.0
118	0x00000000	0.0
119	0x00000000	0.0
120	0x00000000	0.0
121	0x00000000	0.0
122	0x00000000	0.0
123	0x00000000	0.0
124	0x00000000	0.0
125	0x00000000	0.0
126	0x00000000	0.0
127	0x00000000	0.0

network_body._body_endoder.seq_layers.2.weight f4 [128, 128]
0	0xbe26051a	-0.16212884
1	0xbd4a50b1	-0.04939336
2	0xbc7bea90	-0.015375748
3	0x3e0825da	0.13295689
4	0xbcc8e746	-0.024524342
5	0xbda2b1ae	-0.07944046
6	0xbd27af2e	-0.04093855
7	0xbdd3aa66	-0.10335235
8	0x3da3eb97	0.080039196
9	0x3d8354d1	0.06412662
10	0xbdb51312	-0.08841528
11	0xbd6be28e	-0.057589106
12	0x3de85e06	0.113460585
13	0xbb2bbf2e	-0.0026206481
14	0x3cec30f6	0.02883194
15	0xbdeb2627	-0.11481886
16	0x3de5be6f	0.11217963
17	0x3d6843bf	0.056705233
18	0xbcc2dea4	-0.023787804
19	0xbc4d71c2	-0.012539329
20	0xbcee3f98	-0.029083058
21	0xbc83780a	-0.01604845
22	0xbbadc301	-0.0053027873
23	0xbcb66a63	-0.022267526
24	0xbdecc71f	-0.11561417
25	0x3e163a04	0.14670569
26	0xbc9cc3b4	-0.019136287
27	0x3dae310b	0.08505448
28	0x3cb34688	0.021884218
29	0x3d29e219	0.04147539
30	0xbbbde790	-0.0057954267
31	0x3cca1057	0.024665995
32	0x3e084834	0.13308793
33	0x3c754f20	0.014972478
34	0x3d5caf42	0.053878076
35	0x3e8317d5	0.2560412
36	0xbd34813c	-0.04406856
37	0xbdd546c2	-0.104138866
38	0x3dbdf7f0	0.09275806
39	0x3dbff48d	0.09372816
40	0xbc090cf0	-0.008364901
41	0xbdda5dc3	-0.10662415
42	0x3e43fcf3	0.19139461
43	0xbdccb5c0	-0.099956036
44	0xbdd4f95e	-0.103991255
45	0x3ca9ffc2	0.020751838
46	0x3e15e779	0.14639081
47	0x3d859f6f	0.0652455
48	0xbcb3acb7	-0.021932943
49	0xbca4a2b1	-0.020097109
50	0xbc2c443e	-0.010514317
51	0x3d83f0e1	0.064424284
52	0xbce6c4ea	-0.028170068
53	0xbdd239b0	-0.10264909
54	0x3d9c5541	0.076334484
55	0xbde4f5e0	-0.111797094
56	0x3b056104	0.0020352015
57	0x3d8b5363	0.06803014
58	0x3b5989b4	0.003319365
59	0xbb1b9535	-0.0023740057
60	0xbdf158c8	-0.11784512
61	0xbe00ee08	-0.12590802
62	0x3d4d3903	0.0501032
63	0xbd0d379b	-0.034476858
64	0x3cabf1f6	0.0209894
65	0xbd4e7022	-0.050399907
66	0xbdb3c3b6	-0.08777563
67	0x3d58fee2	0.05297745
68	0xbe77dce1	-0.24205352
69	0x3d6497a6	0.055808686
70	0xbceff0ec	-0.029289685
71	0xbd5dd8f7	-0.054161992
72	0x3d837a8f	0.064198606
73	0xbd41b14a	-0.047288217
74	0xbc8f5a60	-0.017499149
75	0x3d0d32d8	0.034472317
76	0x3d132fab	0.03593413
77	0x3c40702c	0.011745494
78	0xbdac88cc	-0.084245294
79	0xbc01d6a7	-0.007924712
80	0xbda31e10	-0.07964718
81	0xbd8fcf67	-0.07021981
82	0x3b1dd7c0	0.0024084896
83	0x3dad38ff	0.08458137
84	0xbdcd3369	-0.10019571
85	0xbdcefbb7	-0.101066045
86	0xbd21a0da	-0.03946004
87	0xbe4195df	-0.18904828
88	0x3d44b0de	0.048020236
89	0x3dba4497	0.09095114
90	0x3e308a95	0.17240365
91	0xbd5ab3c6	-0.0533941
92	0x3d45d9bb	0.048303347
93	0xbb5177ad	-0.0031962201
94	0x3d8c95ab	0.068644844
95	0xbe1f811e	-0.15576598
96	0xbba07d7a	-0.0048977705
97	0xbe41e7d8	-0.18936098
98	0x3e027974	0.12741643
99	0xbd742469	-0.059605036
100	0xbce4f7a3	-0.027950114
101	0x3b8f7a9f	0.0043786312
102	0x3cf6c1f7	0.030121787
103	0x3d312c80	0.04325533
104	0x3c26c208	0.010178097
105	0xbc3ff9f7	-0.011717311
106	0xbd71229d	-0.0588709
107	0x3d5f5736	0.05452653
108	0x3e017ef6	0.12646088
109	0x3df2e420	0.11859918
110	0xbcc913e0	-0.02454561
111	0xbe0eba3f	-0.13938235
112	0x3e2b54e8	0.16731608
113	0x3d876d88	0.06612688
114	0x3e3aafe3	0.18231158
115	0x3dc04e4e	0.093899354
116	0x3dc40064	0.09570387
117	0x3d3a1e68	0.045439154
118	0x3e105d55	0.14098103
119	0xbe1fb495	-0.1559623
120	0xbd6331ee	-0.05546754
121	0x3c78c21d	0.015182999
122	0xbdd2960c	-0.102825254
123	0xbcd97fef	-0.026550261
124	0xbc143914	-0.009046812
125	0x3e32bf89	0.17455877
126	0xbda72a9c	-0.08162424
127	0xbdfade45	-0.12249426
128	0x3d290c84	0.0412717
129	0xbd8c8f09	-0.06863219
130	0xbacd5698	-0.0015666066
131	0x3cefb420	0.029260695
132	0x3c2b1421	0.010441811
133	0xbd66ae11	-0.056318346
134	0x3e1e983f	0.15487765
135	0xbd55b5d7	-0.05217537
136	0xbbac4cb1	-0.0052581658
137	0x3d955fc5	0.07293657
138	0x3d684fe4	0.056716815
139	0xbd87bb12	-0.06627478
140	0xbc9ab97a	-0.01888727
141	0x3de885b9	0.113536306
142	0xbd151461	-0.036396388
143	0x3d53c7aa	0.051704086
144	0x3e5ce19b	0.21570437
145	0x3c98da44	0.018658765
146	0xbe702fbb	-0.23455708
147	0xbd8e445a	-0.06946631
148	0xbd1e05a1	-0.038579587
149	0x3d5743ac	0.05255477
150	0x3cb27e6e	0.021788802
151	0xbd6555bc	-0.055989966
152	0x3db14b0c	0.08656892
153	0x3e11d928	0.14242995
154	0xbcd7818f	-0.026306896
155	0x3cc03201	0.023461344
156	0x3c0c1535	0.008549978
157	0xbe10ce51	-0.14141203
158	0xbdeb2f8e	-0.1148368
159	0xbd57cc91	-0.052685324
160	0xbc05b52b	-0.00816087
161	0x3d119038	0.03553793
162	0x3c113290	0.008862153
163	0xbd9a6f51	-0.07540763
164	0xbdca105d	-0.09866402
165	0xbe1002cd	-0.14063568
166	0x3c243c38	0.010024123
167	0x3d7507dd	0.059821952
168	0x3d2732ab	0.040819805
169	0x3d846723	0.06464984
170	0x3c360cd8	0.011111461
171	0xbcebc0cb	-0.028778454
172	0xbd4efb9f	-0.050532933
173	0x3e35be70	0.17748427
174	0xbdb3f4f0	-0.087869525
175	0x3e3c6e9a	0.18401566
176	0xbd8fd778	-0.07023519
177	0x3dce8a16	0.100849316
178	0xbda0924d	-0.07840405
179	0xbd6e35fd	-0.058156956
180	0xbd225e74	-0.03964086
181	0x3e12aa8f	0.14322875
182	0x3c5fdcbd	0.013663468
183	0x3da5247e	0.08063601
184	0x3a02fe3d	0.0004996991
185	0x3da00001	0.07812501
186	0x3d59c037	0.053161826
187	0xbe261d7e	-0.16222188
188	0x3dea0a69	0.11427767
189	0x3d58b5f2	0.05290789
190	0x3c98770c	0.018611453
191	0x3cc70f06	0.024299156
192	0x3e73159c	0.23738712
193	0xbda790b8	-0.081819
194	0x3dffac06	0.12483983
195	0xbd1ff83c	-0.039055094
196	0xbbfa935b	-0.0076469607
197	0xbcb637f0	-0.02224347
198	0x3dfb18f7	0.12260621
199	0x3dda14f1	0.106485255
200	0xbe1e84b1	-0.15480305
201	0x3c02faa6	0.00799433
202	0xbd03bccf	-0.032162484
203	0xbb814786	-0.003945294
204	0xbcdf0077	-0.027221901
205	0x3d1a34c0	0.037647963
206	0xbc795701	-0.015218497
207	0xbe9e527b	-0.30922303
208	0xbd108821	-0.035286073
209	0x3e2260f7	0.15857302
210	0xbc88d715	-0.016704122
211	0xbde6dc82	-0.11272527
212	0xbc737500	-0.014859438
213	0xbc995ba6	-0.01872046
214	0x3bde7443	0.006788762
215	0xbaa9b51f	-0.0012947655
216	0x3d48d391	0.04902989
217	0x3e095bb4	0.13413888
218	0xbdc8b0cf	-0.097993486
219	0xbd5f5327	-0.05452266
220	0x3e2195b4	0.15779763
221	0xba0c2dc5	-0.00053473964
222	0xbdf1621c	-0.11786291
223	0x3e0158ae	0.12631485
224	0xbcc501fa	-0.024048794
225	0xbe543323	-0.20722632
226	0x3d7e8570	0.062138975
227	0xbe0af82a	-0.1357123
228	0xbd252e68	-0.04032746
229	0xbca427ed	-0.02003857
230	0x3ddc2997	0.1075012
231	0xbcf03cc1	-0.029325845
232	0x3d930e3f	0.071804516
233	0x3c4bad90	0.012431517
234	0xbce8a7ba	-0.02840029
235	0xbbbe28f4	-0.005803222
236	0x3db76e20	0.089565516
237	0x3df51cf5	0.11968414
238	0x3d90189f	0.07035946
239	0xbd3300f3	-0.043702077
240	0xbe50005c	-0.20312637
241	0xbc478211	-0.012177006
242	0xbb73e131	-0.0037213082
243	0x3d9d33ab	0.076758705
244	0x3dc404b3	0.09571209
245	0x3e00aff3	0.1256712
246	0xbcf0818c	-0.029358648
247	0x3d542e3b	0.0518019
248	0xbce8ccd9	-0.028417991
249	0x3dd919f4	0.10600653
250	0x3de1dce1	0.110284574
251	0x3d31aa46	0.043375276
252	0xbe1fc065	-0.15600736
253	0xbd77e389	-0.06051973
254	0xbc129f33	-0.008949089
255	0xbd949860	-0.07255626

network_body._body_endoder.seq_layers.2.bias f4 [128]
0	0x00000000	0.0
1	0x00000000	0.0
2	0x00000000	0.0
3	0x00000000	0.0
4	0x00000000	0.0
5	0x00000000	0.0
6	0x00000000	0.0
7	0x00000000	0.0
8	0x00000000	0.0
9	0x00000000	0.0
10	0x00000000	0.0
11	0x00000000	0.0
12	0x00000000	0.0
13	0x00000000	0.0
14	0x00000000	0.0
15	0x00000000	0.0
16	0x00000000	0.0
17	0x00000000	0.0
18	0x00000000	0.0
19	0x00000000	0.0
20	0x00000000	0.0
21	0x00000000	0.0
22	0x00000000	0.0
23	0x00000000	0.0
24	0x00000000	0.0
25	0x00000000	0.0
26	0x00000000	0.0
27	0x00000000	0.0
28	0x00000000	0.0
29	0x00000000	0.0
30	0x00000000	0.0
31	0x00000000	0.0
32	0x00000000	0.0
33	0x00000000	0.0
34	0x00000000	0.0
35	0x00000000	0.0
36	0x00000000	0.0
37	0x00000000	0.0
38	0x00000000	0.0
39	0x00000000	0.0
40	0x00000000	0.0
41	0x00000000	0.0
42	0x00000000	0.0
43	0x00000000	0.0
44	0x00000000	0.0
45	0x00000000	0.0
46	0x00000000	0.0
47	0x00000000	0.0
48	0x00000000	0.0
49	0x00000000	0.0
50	0x00000000	0.0
51	0x00000000	0.0
52	0x00000000	0.0
53	0x00000000	0.0
54	0x00000000	0.0
55	0x00000000	0.0
56	0x00000000	0.0
57	0x00000000	0.0
58	0x00000000	0.0
59	0x00000000	0.0
60	0x00000000	0.0
61	0x00000000	0.0
62	0x00000000	0.0
63	0x00000000	0.0
64	0x00000000	0.0
65	0x00000000	0.0
66	0x00000000	0.0
67	0x00000000	0.0
68	0x00000000	0.0
69	0x00000000	0.0
70	0x00000000	0.0
71	0x00000000	0.0
72	0x00000000	0.0
73	0x00000000	0.0
74	0x00000000	0.0
75	0x00000000	0.0
76	0x00000000	0.0
77	0x00000000	0.0
78	0x00000000	0.0
79	0x00000000	0.0
80	0x00000000	0.0
81	0x00000000	0.0
82	0x00000000	0.0
83	0x00000000	0.0
84	0x00000000	0.0
85	0x00000000	0.0
86	0x00000000	0.0
87	0x00000000	0.0
88	0x00000000	0.0
89	0x00000000	0.0
90	0x00000000	0.0
91	0x00000000	0.0
92	0x00000000	0.0
93	0x00000000	0.0
94	0x00000000	0.0
95	0x00000000	0.0
96	0x00000000	0.0
97	0x00000000	0.0
98	0x00000000	0.0
99	0x00000000	0.0
100	0x00000000	0.0
101	0x00000000	0.0
102	0x00000000	0.0
103	0x00000000	0.0
104	0x00000000	0.0
105	0x00000000	0.0
106	0x00000000	0.0
107	0x00000000	0.0
108	0x00000000	0.0
109	0x00000000	0.0
110	0x00000000	0.0
111	0x00000000	0.0
112	0x00000000	0.0
113	0x00000000	0.0
114	0x00000000	0.0
115	0x00000000	0.0
116	0x00000000	0.0
117	0x00000000	0.0
118	0x00000000	0.0
119	0x00000000	0.0
120	0x00000000	0.0
121	0x00000000	0.0
122	0x00000000	0.0
123	0x00000000	0.0
124	0x00000000	0.0
125	0x00000000	0.0
126	0x00000000	0.0
127	0x00000000	0.0

value_heads.value_heads.extrinsic.weight f4 [1, 128]
0	0xbe4dcae7	-0.20096932
1	0x3e14ac61	0.14518882
2	0xbe250da3	-0.16118483
3	0xbd9355ae	-0.071940765
4	0xbe1f5870	-0.1556108
5	0x3d9715cf	0.073772065
6	0x3d50d2a3	0.05098213
7	0x3e49ff33	0.19726257
8	0xbe408818	-0.18801916
9	0x3e1b5486	0.15168962
10	0x3d659549	0.056050573
11	0xbdcbae59	-0.099453636
12	0xbe13cf94	-0.14434654
13	0xbd2ed22c	-0.042680904
14	0xbe414498	-0.18873823
15	0xbe149f01	-0.1451378
16	0xbcc02c17	-0.023458524
17	0xbe0604af	-0.13087724
18	0xbdfdc53d	-0.12391136
19	0x3e541763	0.20712046
20	0xbe5c548d	-0.21516629
21	0xbdef970a	-0.1169873
22	0x3e058399	0.13038482
23	0x3c26d5c2	0.0101828
24	0xbe599f8f	-0.21252273
25	0x3d5510a6	0.05201783
26	0xbda72a2e	-0.08162342
27	0x3dadb3da	0.084815696
28	0xbe54459a	-0.20729676
29	0x3e5a06ce	0.21291658
30	0x3bf90a30	0.0076000914
31	0xbb5dfba8	-0.0033871923
32	0xbd06ebd6	-0.032939754
33	0x3d2c0fd4	0.042007282
34	0x3e55c264	0.20874935
35	0xbe243969	-0.16037525
36	0xbe420d76	-0.18950447
37	0xbe30a631	-0.17250897
38	0x3d880216	0.06641023
39	0x3d734442	0.059391268
40	0xbd1bc5e2	-0.038030513
41	0x3e3510c4	0.17682177
42	0x3cf1a070	0.029495448
43	0xbe411b19	-0.18857993
44	0xbd83a651	-0.06428207
45	0x3e34bd34	0.176503
46	0xbc7aa02d	-0.015296978
47	0xbe44716b	-0.1918389
48	0xbdaeb246	-0.08530097
49	0xbe2d8fe7	-0.16949426
50	0x3c8bb3d1	0.017053517
51	0x3e3afe1f	0.18261002
52	0xbde01e66	-0.10943298
53	0xbd9df064	-0.077118665
54	0x3d4d5369	0.050128374
55	0x3e53c4bf	0.20680521
56	0x3e2837ff	0.16427611
57	0x3e0e0668	0.13869631
58	0x3db22339	0.086981244
59	0x3c13c47e	0.009019015
60	0xbdada8ed	-0.08479486
61	0x3b8da715	0.0043228962
62	0xbdf378ab	-0.1188825
63	0x3d43701e	0.047714345
64	0x3dbbb4f1	0.09165371
65	0x3d20dcb7	0.03927299
66	0xbd57a470	-0.052647054
67	0x3db9f913	0.0908071
68	0x3e0ed9b7	0.13950239
69	0xbcd3ebbf	-0.025869248
70	0xbd948379	-0.07251639
71	0x3d763e20	0.06011784
72	0x3c02a533	0.007973957
73	0xbda4f008	-0.08053595
74	0x3e2c1677	0.16805445
75	0x3e4c68c9	0.19961847
76	0x3dfd4863	0.12367322
77	0xbe589320	-0.21149874
78	0x3e41a16a	0.18909231
79	0xbdb6fea1	-0.08935285
80	0x3e524309	0.20533384
81	0x3dfc7b62	0.12328221
82	0xbd77603f	-0.06039452
83	0x3d5aa446	0.05337932
84	0xbc4198ce	-0.011816217
85	0x3e1fb667	0.15596925
86	0x3c6a1b4d	0.014288736
87	0x3de35cc3	0.11101677
88	0x3dddef0e	0.10836612
89	0xbe241fa8	-0.16027701
90	0x38ac961b	8.2295584e-05
91	0xbce4641e	-0.02787977
92	0xbdf958b9	-0.12175126
93	0xbe3f57ff	-0.18685912
94	0x3e148ef1	0.14507653
95	0x3c419c94	0.011817116
96	0xbdfec6df	-0.124402754
97	0x3deb8e87	0.11501794
98	0x3c819637	0.015818698
99	0x3de15b8f	0.110037915
100	0x3e3a863f	0.18215273
101	0xbe5b7554	-0.21431476
102	0xbd4ec4d8	-0.050480694
103	0x3e1ff75b	0.15621702
104	0x3ddcadd2	0.10775341
105	0xbd9e0ec8	-0.07717663
106	0x3e1fe8f2	0.15616205
107	0xbdd9295e	-0.10603593
108	0x3d8a220f	0.067447774
109	0x3e0e7426	0.13911495
110	0xbd8769f2	-0.06612004
111	0x3e037513	0.12837629
112	0xbdf7a51f	-0.12092041
113	0x3cc31c4e	0.023817208
114	0xbe2e6d13	-0.17033796
115	0x3dab4cb4	0.08364239
116	0x3e01ff0e	0.12694952
117	0xbd3add5b	-0.045621257
118	0xbbd55be3	-0.006511198
119	0xbd6db6ba	-0.05803559
120	0xbd59ad45	-0.05314376
121	0xbbdd7ba9	-0.006759126
122	0xbe24eb2f	-0.1610534
123	0x3c69022e	0.014221711
124	0xbd9de15b	-0.07708999
125	0x3d1103ce	0.03540402
126	0x3e10acd5	0.1412843
127	0xbdbf90ba	-0.09353776
