Results/test33/SnowBall/SnowBall-2872.pt (torch, 287319 bytes, 14 tensors)

discrete_act_size_vector f4 [1, 2]
3.0 3.0
00000000: 0000 4040 0000 4040

network_body._body_endoder.seq_layers.0.weight f4 [128, 138]
-0.034352276 0.08546592 0.007100392 -0.05802622 -0.149666 0.120452024 0.06918575 -0.064257406
-0.12258947 0.053851556 0.041778695 -0.0531312 -0.03587721 0.077197425 -0.0084619615 0.06672983
-0.07667561 -0.026787002 0.111856684 -0.07494967 0.0011770729 0.07776463 0.008082827 0.15692568
0.01201876 -0.11982374 0.13001238 -0.08256733 -0.040168922 0.09348437 -0.010569486 0.029722594
0.00928434 -0.062186446 -0.078993276 -0.061450083 -0.0567179 -0.051444393 -0.0351406 0.0018576017
0.031967197 0.06457202 0.04962351 0.017665457 -0.029067464 0.046087913 0.05080376 -0.077708855
-0.05349582 0.0059851236 -0.021533126 0.00476216 0.038625687 0.04052247 0.08525843 0.030249532
0.085312 0.0007701828 -0.1659186 -0.02377671 -0.05748944 0.042631935 -0.083809555 -0.20436627
0.039034642 0.044393588 0.0022387563 0.12427845 0.031302184 -0.033766307 -0.021108996 0.17782055
-0.07268555 -0.004685087 0.116564125 -0.02884174 -0.08465862 -0.02577755 -0.10725042 0.0008207686
-0.1452998 0.035456415 0.046811063 -0.062218737 -0.08941896 -0.007990377 0.03466008 -0.055585667
-0.07469936 0.12470336 -0.024319816 -0.04494576 -0.123775735 0.108169734 -0.023257557 0.17529516
0.02317576 0.046607733 -0.0046750423 -0.0077633318 -0.03659919 0.064560555 0.06083026 0.011528306
-0.040203333 -0.048751753 -0.072227925 0.12055789 0.0554149 -0.05956949 -0.038913153 0.11714652
0.0919549 -0.039581016 -0.027131744 0.030567775 -0.015735649 0.07221723 -0.11187123 0.19173533
-0.12510942 -0.06544567 -0.09172179 0.039968178 0.07666049 -0.09303284 -0.13124156 0.011188673
-0.05295225 -0.0007088293 0.04935404 0.11320451 -0.035954613 -0.08241122 0.047365382 -0.051519822
-0.028881658 0.0730287 -0.010228876 -0.027427671 0.06681306 -0.04853637 -0.11031779 0.046357926
0.0044570104 -0.054636132 0.10271366 0.053634632 -0.032010775 0.13669093 0.012041076 0.017525733
0.07107942 -0.035208657 -0.010990589 0.016583884 -0.019922808 0.056829326 0.13689856 -0.12303376
0.050724972 -0.0038406602 -0.04405301 -0.062246542 -0.03003225 0.08415716 -0.042819303 -0.13328329
0.11020436 -0.12708344 -0.105582014 0.023412013 -0.057332017 0.097544044 -0.05686063 -0.053046588
-0.07462722 -0.088478394 -0.19702215 -0.08035757 0.060794786 -0.13020638 0.046365865 0.0664267
0.06352524 0.10389203 -0.055763274 -0.00927994 -0.019203346 0.090058506 -0.017798617 0.022617713
-0.04526482 -0.17352888 0.0072348746 0.014941548 0.090324 0.10648691 0.035679065 0.002890013
-0.05568951 0.008344774 0.06555689 0.21165481 0.06730794 -0.021136438 -0.052513618 -0.20508508
-0.18337232 0.04686749 -0.25182512 -0.0145366015 -0.005705101 0.07359385 -0.021825114 0.015729439
-0.026889196 0.09286846 0.09242332 0.049499832 -0.049386233 0.13797049 0.158217 -0.11440138
-0.025927149 -0.031959407 -0.048119593 0.063520424 -0.07305862 -0.037976496 0.11538105 0.0762655
-0.10195633 -0.019883754 -0.038926776 -0.030826489 0.12037041 0.04324135 -0.12670681 -0.03313852
-0.059922423 0.33066687 -0.11293484 0.11461371 -0.035252634 -0.14462699 0.009038432 0.051204626
0.11212609 0.063892715 -0.055618335 0.14195792 -0.08966823 -0.036708627 -0.06617905 0.04487599
00000000: f9b4 0cbd c208 af3d 68aa e83b e7ac 6dbd
00000010: 0b42 19be 8daf f63d 42b1 8d3d 6399 83bd
00000020: 3010 fbbd 7393 5c3d 2320 2b3d 1aa0 59bd
00000030: fbf3 12bd af19 9e3d 0aa4 0abc a6a9 883d
00000040: 1a08 9dbd 6a70 dbbc 1e15 e53d 367f 99bd
00000050: 0348 9a3a 1043 9f3d d56d 043c 20b1 203e
00000060: 55ea 443c 2666 f5bd f721 053e 0f19 a9bd
00000070: 2b88 24bd bc74 bf3d a32b 2dbc cc7c f33c
00000080: 581d 183c 37b7 7ebd 3ac7 a1bd 15b3 7bbd
00000090: 0751 68bd 5bb7 52bd 97ef 0fbd c57a f33a
000000a0: 09f0 023d 563e 843d 0642 4b3d 26b7 903c
000000b0: e41e eebc aec6 3c3d 9a17 503d d225 9fbd
000000c0: 6f1e 5bbd db1e c43b 3d66 b0bc e50b 9c3b
000000d0: f835 1e3d e4fa 253d f99b ae3d decd f73c
000000e0: 0fb8 ae3d 18e6 493a 91e6 29be 60c7 c2bc
000000f0: 0c7a 6bbd d39e 2e3d 58a4 abbd 6445 51be
00000100: cae2 1f3d 0dd6 353d 19b8 123b b385 fe3d
00000110: b836 003d 8a4e 0abd c6ec acbc 9716 363e
00000120: 29dc 94bd 5c85 99bb 2cb9 ee3d 8345 ecbc
00000130: 8061 adbd 712b d3bc 1ca6 dbbd d928 573a
00000140: 79c9 14be bf3a 113d f5bc 3f3d 13d9 7ebd
00000150: 4a21 b7bd 12ea 02bc baf7 0d3d ccad 63bd
00000160: fafb 98bd 7a64 ff3d 5a3a c7bc 0c19 38bd
00000170: 227e fdbd 1888 dd3d a286 bebc 9380 333e
00000180: 17db bd3c c0e7 3e3d 1931 99bb 8c63 febb
00000190: 08e9 15bd 5338 843d 2729 793d 38e1 3c3c
000001a0: 40ac 24bd ebaf 47bd 3cec 93bd 0ee7 f63d
000001b0: bcfa 623d 23ff 73bd 6663 1fbd 84ea ef3d
000001c0: da52 bc3d b41f 22bd 6443 debc 4569 fa3c
000001d0: 0ce8 80bc a1e6 933d be1c e5bd 4456 443e
000001e0: af1c 00be 6108 86bd a2d8 bbbd acb5 233d
000001f0: 2d00 9d3d 0088 bebd 3064 06be b250 373c
00000200: 75e4 58bd bbd0 39ba 7627 4a3d c4d7 e73d
00000210: 2545 13bd 37c7 a8bd 3402 423d 7306 53bd
00000220: 3a99 ecbc 1290 953d 0497 27bc ffaf e0bc
00000230: 49d5 883d 13ce 46bd 4bee e1bd cfe1 3d3d
00000240: 1d0c 923b 23ca 5fbd 8a5b d23d fdaf 5b3d
00000250: bb1d 03bd b5f8 0b3e ef47 453c 2092 8f3c
00000260: 1692 913d f436 10bd df11 34bc edda 873c
00000270: 2835 a3bc dec5 683d 232f 0c3e 20f9 fbbd
00000280: fdc4 4f3d 96b3 7bbb ee70 34bd 3bf6 7ebd
00000290: 3106 f6bc 975a ac3d 4b63 2fbd 6a7b 08be
000002a0: d3b2 e13d 2922 02be 623b d8bd 8dca bf3c
000002b0: fad4 6abd 2cc5 c73d b1e6 68bd 6147 59bd
000002c0: 28d6 98bd 2934 b5bd 2dc0 49be 8292 a4bd
000002d0: f403 793d d254 05be 22ea 3d3d b90a 883d
000002e0: 8519 823d 58c5 d43d 0868 64bd e40a 18bc
000002f0: 5650 9dbc 9870 b83d 68ce 91bc c848 b93c
00000300: 9b67 39bd 8eb1 31be 8712 ed3b 65cd 743c
00000310: cafb b83d cf15 da3d 3624 123d 5f66 3d3b
00000320: af1a 64bd 85b8 083c b142 863d 0abc 583e
00000330: bfd8 893d 5326 adbc 8518 57bd d301 52be
00000340: f4c5 3bbe 20f8 3f3d 39ef 80be ed2a 6ebc
00000350: dbf1 babb 5fb8 963d 95ca b2bc 06db 803c
00000360: bb46 dcbc d231 be3d 7048 bd3d 56c0 4a3d
00000370: 3849 4abd 2348 0d3e a303 223e 454b eabd
00000380: 2c65 d4bc dee7 02bd 0d19 45bd ff16 823d
00000390: c29f 95bd 3e8d 1bbd e64c ec3d 1631 9c3d
000003a0: 7bce d0bd 41e3 a2bc af71 1fbd d587 fcbc
000003b0: c384 f63d d81d 313d 6ebf 01be 42bc 07bd
000003c0: 3771 75bd 2b4d a93e 624a e7bd 98ba ea3d
000003d0: 1165 10bd 1919 14be ee15 143c f1bb 513d
000003e0: 5da2 e53d 2fda 823d 0dd0 63bd 6b5d 113e
000003f0: faa3 b7bd c95b 16bd e288 87bd e3cf 373d

network_body._body_endoder.seq_layers.0.bias f4 [128]
0.0 0.0 0.0 0.0 0.0 0.0 0.0 0.0
0.0 0.0 0.0 0.0 0.0 0.0 0.0 0.0
0.0 0.0 0.0 0.0 0.0 0.0 0.0 0.0
0.0 0.0 0.0 0.0 0.0 0.0 0.0 0.0
0.0 0.0 0.0 0.0 0.0 0.0 0.0 0.0
0.0 0.0 0.0 0.0 0.0 0.0 0.0 0.0
0.0 0.0 0.0 0.0 0.0 0.0 0.0 0.0
0.0 0.0 0.0 0.0 0.0 0.0 0.0 0.0
0.0 0.0 0.0 0.0 0.0 0.0 0.0 0.0
0.0 0.0 0.0 0.0 0.0 0.0 0.0 0.0
0.0 0.0 0.0 0.0 0.0 0.0 0.0 0.0
0.0 0.0 0.0 0.0 0.0 0.0 0.0 0.0
0.0 0.0 0.0 0.0 0.0 0.0 0.0 0.0
0.0 0.0 0.0 0.0 0.0 0.0 0.0 0.0
0.0 0.0 0.0 0.0 0.0 0.0 0.0 0.0
0.0 0.0 0.0 0.0 0.0 0.0 0.0 0.0
00000000: 0000 0000 0000 0000 0000 0000 0000 0000
00000010: 0000 0000 0000 0000 0000 0000 0000 0000
00000020: 0000 0000 0000 0000 0000 0000 0000 0000
00000030: 0000 0000 0000 0000 0000 0000 0000 0000
00000040: 0000 0000 0000 0000 0000 0000 0000 0000
00000050: 0000 0000 0000 0000 0000 0000 0000 0000
00000060: 0000 0000 0000 0000 0000 0000 0000 0000
00000070: 0000 0000 0000 0000 0000 0000 0000 0000
00000080: 0000 0000 0000 0000 0000 0000 0000 0000
00000090: 0000 0000 0000 0000 0000 0000 0000 0000
000000a0: 0000 0000 0000 0000 0000 0000 0000 0000
000000b0: 0000 0000 0000 0000 0000 0000 0000 0000
000000c0: 0000 0000 0000 0000 0000 0000 0000 0000
000000d0: 0000 0000 0000 0000 0000 0000 0000 0000
000000e0: 0000 0000 0000 0000 0000 0000 0000 0000
000000f0: 0000 0000 0000 0000 0000 0000 0000 0000
00000100: 0000 0000 0000 0000 0000 0000 0000 0000
00000110: 0000 0000 0000 0000 0000 0000 0000 0000
00000120: 0000 0000 0000 0000 0000 0000 0000 0000
00000130: 0000 0000 0000 0000 0000 0000 0000 0000
00000140: 0000 0000 0000 0000 0000 0000 0000 0000
00000150: 0000 0000 0000 0000 0000 0000 0000 0000
00000160: 0000 0000 0000 0000 0000 0000 0000 0000
00000170: 0000 0000 0000 0000 0000 0000 0000 0000
00000180: 0000 0000 0000 0000 0000 0000 0000 0000
00000190: 0000 0000 0000 0000 0000 0000 0000 0000
000001a0: 0000 0000 0000 0000 0000 0000 0000 0000
000001b0: 0000 0000 0000 0000 0000 0000 0000 0000
000001c0: 0000 0000 0000 0000 0000 0000 0000 0000
000001d0: 0000 0000 0000 0000 0000 0000 0000 0000
000001e0: 0000 0000 0000 0000 0000 0000 0000 0000
000001f0: 0000 0000 0000 0000 0000 0000 0000 0000

network_body._body_endoder.seq_layers.2.weight f4 [128, 128]
-0.04597974 -0.1231521 -0.14576572 -0.117804 -0.16071844 0.07505929 -0.09847322 -0.095494464
0.0097034685 0.08027604 0.057790726 -0.06279908 0.023375392 -0.10944088 -0.11990252 0.012501951
-0.11264665 0.02228127 0.12288365 0.074871555 0.13394247 0.01519448 -0.06709824 -0.085605286
-0.015068565 -0.10036197 0.18666032 0.109046884 -0.11977416 0.049432874 -0.035362225 -0.10716305
0.07702492 0.0021998293 0.095984176 0.08750596 0.09774531 0.07850254 0.012992589 -0.088657394
0.02598075 0.0017977648 -0.024606464 -0.15707187 -0.10480158 -0.11186078 0.12575021 -0.073355034
0.011924904 -0.027260944 -0.042798623 -0.0019339948 0.102724835 -0.08630302 -0.1915147 -0.017246606
0.02267429 0.06274911 0.049949717 -0.0043363655 0.08602414 0.0030578983 -0.117590666 0.14865686
0.02403098 -0.098717906 0.014023807 0.20502849 -0.10391199 -0.072895 0.014527948 -0.057650503
-0.15603736 -0.05330738 0.06833465 0.039848726 -0.04568596 0.007224377 0.048961647 -0.223927
-0.02560631 -0.040470522 -0.07510591 -0.03554423 -0.11065109 -0.030624092 -0.010817708 0.03990212
0.16642128 -0.025464252 0.06572027 -0.06626552 0.0135074705 -0.07317296 0.06902913 -0.0071829036
0.059212875 -0.066182055 -0.13525827 -0.074460015 -0.08957149 0.03996855 0.04904853 -0.050095674
-0.049187016 0.02383307 -0.0032334537 0.09878297 -0.018829472 -0.048579056 -0.10058168 0.087319255
-0.06922617 0.03580904 -0.04430025 0.083502665 -0.14073965 -0.073896855 0.12778014 0.04557456
0.0018144108 -0.028833862 0.0056362487 -0.0018785283 0.09292955 -0.11379247 -0.0063754963 -0.004591575
-0.025947612 0.06908185 -0.048751548 -0.04225324 -0.11068045 -0.11136843 -0.055756718 -0.18291156
-0.13319044 -0.04329966 0.04993232 -0.10064683 -0.0040889215 0.065568976 -0.18983096 -0.13223411
-0.012544244 -0.03925253 0.053218134 0.13620442 -0.08852114 -0.18565895 -0.05060724 0.06992458
-0.09793457 -0.038706306 -0.08943875 0.07134492 0.093642205 0.0030065866 0.11075172 0.04820659
-0.03864685 -0.022666845 -0.18707526 0.07957406 0.008677503 0.07894978 -0.017839715 -0.1798858
0.10527543 0.036752973 0.02572019 0.015905498 0.08536994 0.04510928 0.08361124 -0.021545092
-0.13940495 0.01943638 -0.041617777 -0.085490726 0.1075072 0.009920281 0.1277611 0.01612324
0.14882457 -0.03950705 0.03405234 0.053412147 0.06064228 -0.049177617 -0.063410364 0.15997165
-0.06830294 -0.005941081 -0.014829547 0.11180286 0.1307071 0.122906454 0.060831603 0.15552138
-0.0046015102 -0.0073081297 -0.04834094 0.0877681 0.037416875 0.05385275 -0.08878872 -0.043982178
-0.018020675 0.008814887 0.0008595857 -0.09775735 -0.0882432 -0.04476523 0.023699023 -0.0012879135
-0.03752003 0.04429802 -0.1574605 0.021860281 0.13753416 0.09344993 0.18112236 -0.040485702
0.03595806 -0.20679452 -0.08391612 -0.069499865 0.03430224 -0.06685481 -0.07584415 0.041812092
-0.0391156 -0.08017946 0.0047117793 -0.053836536 -0.018354967 -0.18407762 0.05471945 -0.10867001
0.12923363 -0.0055797184 0.062855445 0.13398498 0.09901115 -0.008777418 -0.12145511 -0.08388591
0.0237001 -0.09271881 -0.07420369 -0.18858017 0.024803188 -0.0018568938 -0.09917996 -0.22032847
00000000: 4055 3cbd 2b37 fcbd 9c43 15be 3943 f1bd
00000010: 6093 24be afb8 993d 54ac c9bd 9a92 c3bd
00000020: 4cfb 1e3c c467 a43d f8b5 6c3d ce9c 80bd
00000030: c07d bf3c 8a22 e0bd 748f f5bd fcd4 4c3c
00000040: 49b3 e6bd 3687 b63c 6caa fb3d 4256 993d
00000050: 3728 093e 45f2 783c cd6a 89bd d351 afbd
00000060: 24e2 76bc 948a cdbd e223 3f3e f953 df3d
00000070: 284c f5bd 207a 4a3d fbd7 10bd 4d78 dbbd
00000080: 3ebf 9d3d 032b 103b 5a93 c43d 5336 b33d
00000090: b12e c83d f1c5 a03d dede 543c 0292 b5bd
000000a0: 95d5 d43c faa2 eb3a 7f93 c9bc 73d7 20be
000000b0: 36a2 d6bd 4417 e5bd aac4 003e 2a3b 96bd
000000c0: ac60 433c 5852 dfbc 9c4d 2fbd 197e fdba
000000d0: 6661 d23d a3bf b0bd 6e1c 44be c148 8dbc
000000e0: 6fbf b93c 9b82 803d 1398 4c3d 1218 8ebb
000000f0: 6d2d b03d 0567 483b 60d3 f0bd 8139 183e
00000100: 9edc c43c 9d2c cabd 1cc4 653c fdf2 513e
00000110: cfcf d4bd f949 95bd a106 6e3c ef22 6cbd
00000120: 42c8 1fbe d758 5abd 09f3 8b3d 6b38 233d
00000130: 3421 3bbd 77ba ec3b 028c 483d 1f4d 65be
00000140: 53c4 d1bc 6bc4 25bd 21d1 99bd d496 11bd
00000150: 0a9d e2bd 60df fabc c23c 31bc 6870 233d
00000160: 576a 2a3e 689a d0bc 5998 863d 38b6 87bd
00000170: 704e 5d3c b4db 95bd 255f 8d3d 905e ebbb
00000180: 3389 723d 758a 87bd 2581 0abe 7e7e 98bd
00000190: 4271 b7bd 10b6 233d 1de7 483d 1f31 4dbd
000001a0: 5378 49bd 923d c33c 5ae8 53bb ba4e ca3d
000001b0: 4440 9abc d5fa 46bd c5fd cdbd 70d4 b23d
000001c0: 73c6 8dbd 80ac 123d 2e74 35bd 7203 ab3d
000001d0: 0e1e 10be 3c57 97bd ccd8 023e 64ac 3a3d
000001e0: 86d1 ed3a fe34 ecbc 48b0 b83b f338 f6ba
000001f0: d951 be3d 070c e9bd 8ae9 d0bb ec74 96bb
00000200: 1690 d4bc c97a 8d3d b4af 47bd bc11 2dbd
00000210: 6fac e2bd 2215 e4bd 2861 64bd 2b4d 3bbe
00000220: 1363 08be fc5a 31bd d585 4c3d ed1f cebd
00000230: 5cfc 85bb 0749 863d 0c63 42be 6168 07be
00000240: 5f86 4dbc 43c7 20bd 42fb 593d 2c79 0b3e
00000250: 924a b5bd 611d 3ebe 8a49 4fbd 9e34 8f3d
00000260: eb91 c8bd 818a 1ebd aa2b b7bd 491d 923d
00000270: 7cc7 bf3d 270a 453b ccd1 e23d 4674 453d
00000280: 294c 1ebd d2af b9bc a890 3fbe baf7 a23d
00000290: 162c 0e3c 6cb0 a13d 9824 92bc fc33 38be
000002a0: a59a d73d 498a 163d 26b3 d23c 3f4c 823c
000002b0: 6fd6 ae3d 82c4 383d 5f3c ab3d 557f b0bc
000002c0: 2cc0 0ebe 0b39 9f3c 6777 2abd c315 afbd
000002d0: bc2c dc3d ad88 223c ced3 023e e314 843c
000002e0: 7865 183e 25d2 21bd 777a 0b3d b2c6 5a3d
000002f0: 0a64 783d 786e 49bd 4bdd 81bd 9ccf 233e
00000300: 69e2 8bbd 66ad c2bb a1f7 72bc e6f8 e43d
00000310: 15d8 053e 61b6 fb3d 8f2a 793d ff40 1f3e
00000320: 44c8 96bb 0979 efbb 2601 46bd c3bf b33d
00000330: 7042 193d b494 5c3d dcd6 b5bd a826 34bd
00000340: 18a0 93bc 516c 103c d255 613a 0135 c8bd
00000350: dab8 b4bd bf5b 37bd 7424 c23c 35cf a8ba
00000360: 9aae 19bd d771 353d 533d 21be 5514 b33c
00000370: c1d5 0c3e ad62 bf3d 2478 393e 56d4 25bd
00000380: c248 133d f1c1 53be 37dc abbd f255 8ebd
00000390: 8180 0c3d 2deb 88bd 2d54 9bbd 2843 2b3d
000003a0: ae37 20bd 2135 a4bd 4565 9a3b b383 5cbd
000003b0: 285d 96bc d87e 3cbe 8121 603d 628e debd
000003c0: d255 043e 12d6 b6bb 5bba 803d 5c33 093e
000003d0: 5cc6 ca3d 29cf 0fbc 75bd f8bd 60cc abbd
000003e0: b626 c23c 5ce3 bdbd 1bf8 97bd 291b 41be
000003f0: 0e30 cb3c 0463 f3ba dd1e cbbd c99d 61be

network_body._body_endoder.seq_layers.2.bias f4 [128]
0.0 0.0 0.0 0.0 0.0 0.0 0.0 0.0
0.0 0.0 0.0 0.0 0.0 0.0 0.0 0.0
0.0 0.0 0.0 0.0 0.0 0.0 0.0 0.0
0.0 0.0 0.0 0.0 0.0 0.0 0.0 0.0
0.0 0.0 0.0 0.0 0.0 0.0 0.0 0.0
0.0 0.0 0.0 0.0 0.0 0.0 0.0 0.0
0.0 0.0 0.0 0.0 0.0 0.0 0.0 0.0
0.0 0.0 0.0 0.0 0.0 0.0 0.0 0.0
0.0 0.0 0.0 0.0 0.0 0.0 0.0 0.0
0.0 0.0 0.0 0.0 0.0 0.0 0.0 0.0
0.0 0.0 0.0 0.0 0.0 0.0 0.0 0.0
0.0 0.0 0.0 0.0 0.0 0.0 0.0 0.0
0.0 0.0 0.0 0.0 0.0 0.0 0.0 0.0
0.0 0.0 0.0 0.0 0.0 0.0 0.0 0.0
0.0 0.0 0.0 0.0 0.0 0.0 0.0 0.0
0.0 0.0 0.0 0.0 0.0 0.0 0.0 0.0
00000000: 0000 0000 0000 0000 0000 0000 0000 0000
00000010: 0000 0000 0000 0000 0000 0000 0000 0000
00000020: 0000 0000 0000 0000 0000 0000 0000 0000
00000030: 0000 0000 0000 0000 0000 0000 0000 0000
00000040: 0000 0000 0000 0000 0000 0000 0000 0000
00000050: 0000 0000 0000 0000 0000 0000 0000 0000
00000060: 0000 0000 0000 0000 0000 0000 0000 0000
00000070: 0000 0000 0000 0000 0000 0000 0000 0000
00000080: 0000 0000 0000 0000 0000 0000 0000 0000
00000090: 0000 0000 0000 0000 0000 0000 0000 0000
000000a0: 0000 0000 0000 0000 0000 0000 0000 0000
000000b0: 0000 0000 0000 0000 0000 0000 0000 0000
000000c0: 0000 0000 0000 0000 0000 0000 0000 0000
000000d0: 0000 0000 0000 0000 0000 0000 0000 0000
000000e0: 0000 0000 0000 0000 0000 0000 0000 0000
000000f0: 0000 0000 0000 0000 0000 0000 0000 0000
00000100: 0000 0000 0000 0000 0000 0000 0000 0000
00000110: 0000 0000 0000 0000 0000 0000 0000 0000
00000120: 0000 0000 0000 0000 0000 0000 0000 0000
00000130: 0000 0000 0000 0000 0000 0000 0000 0000
00000140: 0000 0000 0000 0000 0000 0000 0000 0000
00000150: 0000 0000 0000 0000 0000 0000 0000 0000
00000160: 0000 0000 0000 0000 0000 0000 0000 0000
00000170: 0000 0000 0000 0000 0000 0000 0000 0000
00000180: 0000 0000 0000 0000 0000 0000 0000 0000
00000190: 0000 0000 0000 0000 0000 0000 0000 0000
000001a0: 0000 0000 0000 0000 0000 0000 0000 0000
000001b0: 0000 0000 0000 0000 0000 0000 0000 0000
000001c0: 0000 0000 0000 0000 0000 0000 0000 0000
000001d0: 0000 0000 0000 0000 0000 0000 0000 0000
000001e0: 0000 0000 0000 0000 0000 0000 0000 0000
000001f0: 0000 0000 0000 0000 0000 0000 0000 0000

action_model._discrete_distribution.branches.0.weight f4 [3, 128]
-0.001960703 0.00015774638 0.003385555 -0.002699274 -0.0062068035 -0.009453655 -0.008503578 0.008170681
0.008891209 -0.0059665963 0.0027511723 -0.004874281 -0.01898093 0.01018244 0.0016552274 -0.0027320057
-0.0032377907 0.010571109 -0.009235518 0.0041397535 -0.004284905 -0.010199053 0.004396699 -0.006253016
0.0017404379 0.007174921 0.010373532 -0.0021654593 0.0054466305 0.0014739445 -0.0018086102 0.0023318713
-0.018008774 -0.0049929596 -0.0051772725 0.012315249 0.0033534684 -0.013139442 0.0015460915 0.009622871
0.0030945367 0.01683571 -0.008796177 -0.0038977817 0.0007749728 0.0036449858 -0.023218771 -0.014620699
-0.0021513123 -0.00069698645 -0.006832634 0.01624783 -0.009200237 -0.0033679155 0.018332854 -0.002076152
0.0008974353 -0.01190977 -0.0024077957 -0.00080032693 0.010874656 -0.0071176137 0.006931105 -0.0019253757
0.005230509 0.008889199 -0.004716834 0.004866227 0.0029290798 -0.005757671 -0.001830052 -0.01465559
-0.0053356895 -0.012357864 -0.008183583 -0.005878637 -0.016682006 -0.015448495 -0.004294357 0.011581379
0.0046021366 -0.008358667 -0.012284639 -0.0062556537 -0.001895006 -0.0028344623 -0.011220115 -0.0030675724
0.005325521 -0.00011959105 0.006645939 -0.018231926 0.005971605 -0.0004404406 -0.005925681 0.004927983
-0.009185198 -0.010409176 -0.0049904226 -0.011071708 -0.0048177443 0.0069933133 -0.01249386 -0.0011682955
-0.0074474397 -0.019192254 0.0057420027 0.0011417936 0.007868783 -0.00600207 -0.0009012669 0.007865901
0.010337148 0.013785876 0.0011789016 -0.006210247 0.00037193773 0.0021468294 0.0011750432 -0.0054101245
-0.018143767 -0.0031328176 -0.0113311615 -0.0039210753 -0.012162697 -0.007677781 0.012205082 0.005235158
-0.010403931 0.009730984 -0.010696392 0.007926507 0.010602325 -0.01111646 0.009714538 -0.0037191932
-0.001100703 0.011622151 -0.00023094214 0.0031674958 0.019524833 -0.0037102196 -0.006366299 -0.016411666
-0.0052441237 -0.01615365 0.002776527 0.010724829 -0.009472045 0.001656596 0.015357305 0.0063909665
0.0034132965 -0.018241813 0.0076508853 0.00885317 0.008753883 0.008540426 -0.008809756 -0.004654022
0.0041249976 -0.010016109 -2.4243069e-05 -0.0024807386 -0.0025192513 -0.0039460845 0.0037122467 -0.004560995
0.011338866 0.0033200905 0.020584878 0.004812336 0.010703213 -0.0010654681 -0.00026953965 0.0219165
-0.0011749094 0.0067087333 0.0045427918 0.029228345 0.0047224886 -0.0052750013 0.01051833 -0.0140143875
0.00061644666 -0.011377908 0.008381232 -0.0045968103 -0.01143701 -0.015997222 0.009678709 0.013735666
-0.0045223604 -0.0022984457 -0.0022622931 -0.023159148 0.014098929 -0.0017162608 -0.002519584 -0.0024591617
0.008600973 -0.008856606 0.014376289 0.006253512 -0.00033452638 0.018810343 -0.002972286 -0.008915606
-0.0023161382 0.0054893303 0.0053152973 0.010309288 -0.006810891 0.007766171 -0.01257095 -0.0043757726
0.007613824 0.003836438 -0.0013643963 0.01312694 0.01088222 -9.488802e-05 0.0050606686 0.020306965
-0.011717137 -0.005259128 -0.0004522958 0.004720721 -0.002557001 -0.008145729 -0.017463649 -0.0051760976
0.0022444695 0.004913566 -0.00066497753 -0.006174524 -0.0055081956 0.0012183356 -0.006544899 -0.009361662
-0.005955913 -0.00026741604 -0.004261259 0.011608665 0.008735306 -0.00824062 0.00480611 0.0073486986
0.0047280523 2.4947716e-05 -0.009988215 -0.00049263216 0.014000277 0.0047130003 0.009656503 -0.01411055
00000000: 237f 00bb b968 2539 30e0 5d3b 4ee6 30bb
00000010: 7162 cbbb 81e3 1abc 9752 0bbc 52de 053c
00000020: 6fac 113c 7083 c3bb 034d 343b 6fb8 9fbb
00000030: e57d 9bbc 40d4 263c 37f4 d83a 730b 33bb
00000040: 1d31 54bb 7232 2d3c 9250 17bc c5a6 873b
00000050: 6368 8cbb ee19 27bc 2f12 903b 1ae6 ccbb
00000060: 681f e43a 9a1b eb3b bff5 293c 61ea 0dbb
00000070: a679 b23b 5f31 c13a e30e edba 4fd2 183b
00000080: 2387 93bc fb9b a3bb 1ca6 a9bb e6c5 493c
00000090: ddc5 5b3b d046 57bc 39a6 ca3a 3fa9 1d3c
000000a0: b6cd 4a3b 0beb 893c d71d 10bc ed71 7fbb
000000b0: 8b27 4b3a b7e0 6e3b 4b35 bebc a88b 6fbc
000000c0: 08fd 0cbb f8b5 36ba 4ae4 dfbb 2b1a 853c
000000d0: 97bc 16bc 3fb8 5cbb c82e 963c 0d10 08bb
000000e0: dd41 6b3a 3221 43bc 1ccc 1dbb 08cd 51ba
000000f0: 9d2b 323c df3a e9bb 531e e33b e35c fcba
00000100: b164 ab3b 01a4 113c ac8f 9abb df74 9f3b
00000110: cef5 3f3b d8aa bcbb 5bde efba 001e 70bc
00000120: 02d7 aebb a378 4abc 6f14 06bc 95a1 c0bb
00000130: b4a8 88bc af1b 7dbc adb7 8cbb d3bf 3d3c
00000140: 85cd 963b caf2 08bc 8345 49bc 3afc ccbb
00000150: da61 f8ba 63c2 39bb 93d4 37bc 5309 49bb
00000160: b581 ae3b f5cc fab8 2dc6 d93b 1f5b 95bc
00000170: 74ad c33b f0ea e6b9 372c c2bb eb7a a13b
00000180: 837d 16bc 408b 2abc b386 a3bb 1c66 35bc
00000190: 2bde 9dbb 2a28 e53b 0cb3 4cbc 7e21 99ba
000001a0: a709 f4bb 1339 9dbc 6927 bc3b 3ca8 953a
000001b0: 11ec 003c 03ad c4bb ff42 6cba fbdf 003c
000001c0: 245d 293c 28de 613c 6085 9a3a 547f cbbb
000001d0: a300 c339 d2b1 0c3b e803 9a3a 6a47 b1bb
000001e0: 3da2 94bc f54f 4dbb 56a6 39bc 5d7c 80bb
000001f0: 0c46 47bc e595 fbbb d3f7 473c b08b ab3b
00000200: 4075 2abc b56e 1f3c eb3f 2fbc 2ede 013c
00000210: 60b5 2d3c d021 36bc ba29 1f3c b5bd 73bb
00000220: 7745 90ba d66a 3e3c 0f29 72b9 c395 4f3b
00000230: 8bf2 9f3c 2827 73bb 639c d0bb c271 86bc
00000240: e6d6 abbb a954 84bc 65f6 353b 31b7 2f3c
00000250: a330 1bbc 2322 d93a 359d 7b3c 506b d13b
00000260: 9db1 5f3b db6f 95bc 47b4 fa3b e30c 113c
00000270: 726c 0f3c 25ed 0b3c cb56 10bc c480 98bb
00000280: fd2a 873b 9b1a 24bc 985d cbb7 e393 22bb
00000290: 061a 25bb 284e 81bb 2a49 733b 6674 95bb
000002a0: a7c6 393c e095 593b 9ea1 a83c cdb0 9d3b
000002b0: 875c 2f3c 2da7 8bba 0051 8db9 3b8a b33c
000002c0: 6bff 99ba efd4 db3b b3db 943b 4870 ef3c
000002d0: 1bbf 9a3b ebd9 acbb 1355 2c3c 9a9c 65bc
000002e0: 0999 213a 686a 3abc 6f51 093c d7a0 96bb
000002f0: 4c62 3bbc 9b0c 83bc 7393 1e3c 8f0b 613c
00000300: 4f30 94bb 85a1 16bb fb42 14bb 41b8 bdbc
00000310: 32ff 663c 28f4 e0ba 9b1f 25bb e329 21bb
00000320: 18eb 0c3c 4c1b 11bc 878a 6b3c 43ea cc3b
00000330: 5f63 afb9 2618 9a3c afca 42bb c312 12bc
00000340: 5aca 17bb d7df b33b f22b ae3b 4ae8 283c
00000350: e52d dfbb 5d7b fe3b 63f6 4dbc a462 8fbb
00000360: 637d f93b c06c 7b3b 8bd5 b2ba 6012 573c
00000370: 574b 323c 9efe c6b8 f7d3 a53b cb5a a63c
00000380: 3cf9 3fbc c354 acbb 1d22 edb9 47b0 9a3b
00000390: 5c93 27bb aa75 05bc ed0f 8fbc 419c a9bb
000003a0: f317 133b fb01 a13b e351 2eba a953 cabb
000003b0: 187e b4bb 8fb0 9f3a 9876 d6bb a861 19bc
000003c0: d229 c3bb f933 8cb9 08a2 8bbb 4532 3e3c
000003d0: 871e 0f3c aa03 07bc 937c 9d3b 5acd f03b
000003e0: c7ed 9a3b d046 d137 9ca5 23bc fc23 01ba
000003f0: 6b61 653c 836f 9a3b 4f36 1e3c f02f 67bc

action_model._discrete_distribution.branches.0.bias f4 [3]
0.0 0.0 0.0
00000000: 0000 0000 0000 0000 0000 0000

action_model._discrete_distribution.branches.1.weight f4 [3, 128]
0.010492752 0.0015984405 -0.0044263215 0.013469669 -0.015640331 0.008159204 -0.0024151911 0.0031771471
0.008812501 -0.0067148334 0.0019189699 -0.0071921768 0.013062711 -0.017709099 -0.010601972 0.008068074
0.0022174856 0.009918886 0.0007186948 -0.0086481795 -0.020823978 -0.0008894534 0.0060758768 -0.0021448745
-0.008614284 0.0037070853 0.010429769 -0.016236369 0.006433263 0.014589678 -0.0047498154 0.003467162
0.012996553 -0.0003679627 0.0027713787 0.0025759859 -0.0001911786 0.011611276 -0.0032966584 0.0074731535
0.0013212085 0.0017865034 -0.0062368023 -0.00082273595 0.0004691817 -0.0028578148 0.009443984 0.0061496804
-0.007969006 -0.0129023185 -0.011462838 -0.0063840197 0.0018559055 0.009649138 0.005954053 0.00343645
0.0034869064 0.0023145506 0.0045126635 -0.0097799 -0.0014578811 0.0026273222 0.0049527716 0.0057587186
-0.0012758265 -0.007375435 0.0026916643 0.008403606 0.008946041 -0.019923111 0.013422102 -0.013379917
-0.006242715 -0.008831519 0.0047915946 -0.002331225 -0.015596069 0.004606311 0.0074706473 0.00372334
0.009729151 -0.001556948 -0.0009446 0.009596327 -0.005272993 -0.014167376 -0.0010598119 -0.00502125
0.0051156594 0.0049181203 0.008122219 -0.0017312467 0.013850865 -0.005089708 -0.0038063363 -0.013211441
-0.005327782 -0.012073799 0.00892947 -0.0029946514 0.0024688067 0.0035354726 -0.01602448 0.014486794
0.0076197595 0.0032808313 0.004975652 0.0265009 0.0032050957 -0.008697072 0.0056206523 -0.006829337
0.019406497 -0.00027957908 -0.0030668997 0.0073295683 0.0053696674 0.0026685519 0.007336186 0.011687185
-0.020351263 0.00030145852 0.0024284772 0.0046019126 -0.014669383 0.0014752842 -0.002133004 -0.02851873
0.01738261 0.0048810723 -0.012376002 -0.002898624 0.0046117776 -0.006810993 0.008887815 -0.00464859
-0.014355308 -0.0050995513 -0.0014965154 -0.012087419 0.00037450943 -0.0025093714 -0.0059721214 -0.003721969
-0.0003072784 0.007102216 -0.009332906 -0.0019261064 -0.0009568926 0.005314851 0.015925344 -0.0041072103
0.012998715 -0.01807945 0.015604182 0.0057308353 0.00031301854 0.003542753 -0.0027109724 -0.00012651627
0.005124172 0.0072889864 0.014269947 0.004365284 0.006059147 0.0037533303 -0.011090237 -0.016347053
-0.003228727 0.001881481 -0.006360115 -0.005414208 -0.003877593 0.0038724318 0.014885043 0.009009981
0.00488888 -0.0028443595 -0.009067512 -0.0040967567 0.0020963296 0.0022319322 -0.016867494 0.012239197
0.0018940341 0.005905807 0.0021076123 -0.0069630863 -0.0040905154 -0.0067515383 -0.0035157183 -0.0053849155
-0.011543995 0.014085959 -0.0017874234 0.018603882 -0.0126855 -0.0028569384 0.003502888 -0.0053938823
0.0074723214 -0.0036122426 -0.009026881 0.007075871 0.0004799871 0.017478691 0.010418407 0.00045033993
0.008344877 -0.00085447106 -0.007610684 -0.00089102326 0.011273744 -0.015564744 -0.006427364 -0.008429783
0.010564484 -0.0048543997 -0.009085369 -0.007999698 0.0028684651 -0.0016225061 0.0038600133 -0.012050779
-0.0017822804 -0.004347585 0.0053138505 0.007652773 -0.0003242362 0.011376395 0.004653045 -0.008052888
0.009546722 0.0052035553 -0.0021611014 -0.0064395727 -0.0038915582 -0.0011766464 0.01873498 0.0061045825
-0.010215865 -0.011617533 -0.0059382035 -0.0019960005 0.0020488228 -0.009845491 0.0075397724 0.006046378
-0.012369758 -0.009226597 0.008339803 -0.00069776934 -0.014266284 0.008384536 0.0032740615 -0.012907602
00000000: cbe9 2b3c c382 d13a ad0a 91bb e3af 5c3c
00000010: 2720 80bc 2fae 053c 2f48 1ebb af37 503b
00000020: 4f62 103c 1b08 dcbb f285 fb3a 5aac ebbb
00000030: fb04 563c ac12 91bc e5b3 2dbc f42f 043c
00000040: 3c53 113b d382 223c cb66 3c3a 18b1 0dbc
00000050: 0c97 aabc 352a 69ba 2618 c73b 0691 0cbb
00000060: ed22 0dbc 92f2 723b 9fe1 2a3c 2202 85bc
00000070: 1fce d23b 8b09 6f3c 57a4 9bbb 5339 633b
00000080: 7fef 543c 1eeb c0b9 05a0 353b dfd1 283b
00000090: 1d77 48b9 393d 3e3c c00c 58bb 5be1 f43b
000000a0: 672c ad3a 1b29 ea3a 175e ccbb e0ac 57ba
000000b0: 80fc f539 2d4a 3bbb f1ba 1a3c 4283 c93b
000000c0: 6f90 02bc 3f64 53bc a1ce 3bbc 0a31 d1bb
000000d0: db41 f33a 6b17 1e3c 371a c33b 1036 613b
000000e0: 9584 643b b7af 173b f7de 933b e03b 20bc
000000f0: 5f16 bfba 272f 2c3b dc4a a23b a2b3 bc3b
00000100: a239 a7ba a2ad f1bb a266 303b 47af 093c
00000110: 6a92 123c cb35 a3bc 60e8 5b3c 7037 5bbc
00000120: b08f ccbb 13b2 10bc cf02 9d3b 77c7 18bb
00000130: a886 7fbc 8af0 963b 55cc f43b 4803 743b
00000140: 0467 1f3c 8112 ccba 089f 77ba ea39 1d3c
00000150: 12c9 acbb 481e 68bc 63e9 8aba 4c89 a4bb
00000160: 43a1 a73b 2f28 a13b 0e13 053c 00eb e2ba
00000170: bdee 623c 91c7 a6bb ba73 79bb cd74 58bc
00000180: ad94 aebb 2fd1 45bc e94c 123c ea41 44bb
00000190: b4cb 213b 63b3 673b c545 83bc 055a 6d3c
000001a0: 2daf f93b 3703 573b cb0a a33b 6a18 d93c
000001b0: 950c 523b 2a7e 0ebc 732d b83b a2c8 dfbb
000001c0: 60fa 9e3c 7894 92b9 0afe 48bb e02c f03b
000001d0: 09f4 af3b dfe2 2e3b 6364 f03b 9b7b 3f3c
000001e0: b1b7 a6bc 140d 9e39 1627 1f3b a4cb 963b
000001f0: da57 70bc 535e c13a dec9 0bbb 1da0 e9bc
00000200: fa65 8e3c 67f1 9f3b b7c4 4abc d7f6 3dbb
00000210: 651e 973b c02e dfbb 339e 113c 3353 98bb
00000220: 8732 6bbc 231a a7bb b926 c4ba 4f0a 46bc
00000230: ce59 c439 4474 24bb c9b1 c3bb 47ec 73bb
00000240: 351a a1b9 b5b9 e83b 0ce9 18bc 6875 fcba
00000250: fad7 7aba 3428 ae3b de75 823c c795 86bb
00000260: 90f8 543c 5b1b 94bc afa8 7f3c bbc9 bb3b
00000270: a31c a439 882d 683b 92aa 31bb 74a9 04b9
00000280: ace8 a73b 73d8 ee3b 7fcc 693c a80a 8f3b
00000290: cf8b c63b 6ffa 753b d3b3 35bc 41ea 85bc
000002a0: 0d99 53bb 079c f63a 8368 d0bb ab69 b1bb
000002b0: 371f 7ebb a0c8 7d3b 65e0 733c 999e 133c
000002c0: e632 a03b 6f68 3abb e78f 14bc 163e 86bb
000002d0: 9362 093b 9c45 123b b32d 8abc ea86 483c
000002e0: 3d41 f83a 8085 c13b de1f 0a3b 9a2a e4bb
000002f0: bb09 86bb 023c ddbb f767 66bb f273 b0bb
00000300: 0623 3dbc cbc8 663c fa47 eaba 2b67 983c
00000310: d8d6 4fbc 793b 3bbb b590 653b 2abf b0bb
00000320: 60da f43b 60bb 6cbb 7ce5 13bc b5dc e73b
00000330: c7a6 fb39 792f 8f3c f7b1 2a3c 9a1b ec39
00000340: f3b8 083c 95fe 5fba 0b63 f9bb 8f93 69ba
00000350: 82b5 383c 4503 7fbc a39c d2bb 131d 0abc
00000360: a816 2d3c a811 9fbb cdda 14bc 2a11 03bc
00000370: dcfc 3b3b 45aa d4ba 47f8 7c3b a170 45bc
00000380: 689b e9ba 3076 8ebb cf1f ae3b 1dc4 fa3b
00000390: 3ffe a9b9 0f64 3a3c 9278 983b 43f0 03bc
000003a0: db69 1c3c 9682 aa3b 44a1 0dbb 0d03 d3bb
000003b0: 8309 7fbb b439 9aba 1a7a 993c f308 c83b
000003c0: 7260 27bc 7757 3ebc 4395 c2bb 55cf 02bb
000003d0: 8b45 063b fb4e 21bc 3210 f73b b220 c63b
000003e0: 87aa 4abc 272b 17bc aba3 083c 82ea 36ba
000003f0: 22bd 69bc 4b5f 093c a391 563b 687a 53bc

action_model._discrete_distribution.branches.1.bias f4 [3]
0.0 0.0 0.0
00000000: 0000 0000 0000 0000 0000 0000

network_body._body_endoder.seq_layers.0.weight f4 [128, 138]
-0.01693099 0.054560103 0.048209377 0.04753715 -0.22895946 -0.057133045 0.03951767 0.079581566
-0.093678735 0.1897971 -0.04605691 0.11511466 0.07143043 0.08061523 0.08514783 0.038614288
0.21757971 -0.009085584 -0.13801423 0.0034031894 0.12608586 -0.040303946 -0.1432351 -0.042829365
0.07392435 -0.022731815 -0.12065264 -0.036104776 0.054615956 0.09824583 -0.14556423 -0.047054783
0.0090245 0.05044555 0.0879615 -0.19120786 -0.03814371 -0.03783009 -0.14976414 -0.123977415
-0.1808146 -0.08670933 -0.1266897 0.10765554 -0.013095039 -0.034855038 0.013999293 0.07899167
0.1071165 0.101497 0.08597121 0.12788601 -0.070677966 0.032798577 -0.14135672 -0.09169819
0.044468775 0.08341054 -0.106170855 0.05783926 0.01921962 -0.101594 -0.19405302 0.017390486
-0.1699948 0.0337272 0.042555414 -0.0896176 -0.031826824 0.06987785 0.16738002 0.015358056
-0.05505884 -0.08556595 -0.057527617 -0.08600837 -0.09942099 0.049403884 0.037890468 -0.056952227
-0.052919336 0.12715903 0.14354713 0.14229304 0.06786824 -0.11786377 -0.044474393 -0.029932989
0.14632574 0.22458084 0.029604377 0.1664153 0.076979846 -0.040308353 0.044392444 -0.10494048
-0.12970483 -0.017160794 0.14763826 0.032572813 0.04901833 -0.056170568 0.041772813 0.06406013
-0.15002927 0.058408 -0.04055346 -0.043671302 -0.022770716 -0.048322093 0.025861792 -0.031168973
-0.0469208 -0.07210152 -0.21881646 -0.008252895 -0.08052474 -0.17986389 0.13199288 -0.021650922
0.04787496 -0.058672294 0.061101716 -0.050302707 0.0071258186 -0.12406945 -0.13415053 -0.008288281
0.23826629 -0.11007037 0.086215325 -0.11154598 -0.10073468 -0.034202985 0.09360763 -0.010297221
-0.073355466 0.0294581 0.08247149 -0.11422453 -0.025116893 0.0017259422 0.17306708 -0.0009086342
0.13290685 0.09711701 -3.5146437e-05 -0.03536428 -0.04956904 -0.03760936 0.12382283 -0.03318687
-0.105741374 -0.1236072 0.047125224 0.099379905 0.019941712 -0.07664054 0.0039737187 0.029543784
0.041484263 0.09921531 -0.043038104 0.07820894 0.019062681 0.05872813 -0.17661043 0.088339135
0.086692244 -0.017229483 -0.010320591 0.0035644905 0.061867323 0.018776897 -0.04183399 0.031349514
-0.08302038 0.051631156 -0.035598576 -0.14050888 0.016436586 0.032210767 -0.061505042 -0.0102562765
0.14584102 0.08962234 0.044187404 0.06865844 -0.028632235 -0.21569912 0.04652022 0.012540793
0.0010505356 0.020092538 -0.10772139 0.10447744 -0.2393323 -0.14035086 -0.12838888 0.1012344
-0.025863426 -0.015950736 -0.08147529 0.05012592 0.069558606 0.08677624 -0.0004744628 0.061095275
-0.0010912328 -0.00807968 -0.0363839 0.04388569 -0.035187524 0.056620076 -0.10633068 -0.034130406
0.120024346 0.0049698297 -0.03563956 -0.11798133 -0.038593978 -0.011423179 0.09300628 -0.108555056
-0.027837817 0.033581577 0.11749916 -0.14491782 -0.019709028 -0.07081189 0.021384388 -0.11770626
-0.042201173 0.057479836 0.055827904 0.009159399 0.066919565 0.037425783 0.1395877 0.054145187
-0.06715489 0.03195597 -0.0012671927 -0.121215016 -0.13576165 0.060654104 -0.23648883 -0.15544719
0.042983714 -0.06895936 -0.061114833 -0.0047990116 0.07760196 0.07921476 -0.0192474 0.020286547
00000000: dcb2 8abc 6a7a 5f3d 3277 453d 51b6 423d
00000010: 5974 6abe 5704 6abd 48dd 213d a9fb a23d
00000020: a3da bfbd 2c5a 423e 2ca6 3cbd 3cc1 eb3d
00000030: 1e4a 923d 9919 a53d fc61 ae3d 042a 1e3d
00000040: 37cd 5e3e b4db 14bc 9a53 0dbe 0b08 5f3b
00000050: a71c 013e c015 25bd 39ac 12be d86d 2fbd
00000060: a665 973d 1238 babc bb18 f7bd 9ae2 13bd
00000070: fbb4 5f3d 1c35 c93d ca0e 15be 84bc 40bd
00000080: 7fdb 133c fe9f 4e3d 2925 b43d fecb 43be
00000090: 943c 1cbd b9f3 1abd c55b 19be dfe7 fdbd
000000a0: 7627 39be a994 b1bd f2ba 01be 827a dc3d
000000b0: 938c 56bc 28c4 0ebd 4a5d 653c 62c6 a13d
000000c0: e55f db3d a9dd cf3d ac11 b03d 8df4 023e
000000d0: 9cbf 90bd cd57 063d d1bf 10be 43cc bbbd
000000e0: e424 363d 25d3 aa3d 1b70 d9bd dce8 6c3d
000000f0: 7772 9d3c 8410 d0bd d6b5 46be 7e76 8e3c
00000100: 1e13 2ebe 8825 0a3d 964e 2e3d 6f89 b7bd
00000110: d85c 02bd 1e1c 8f3d ab65 2b3e 5ba0 7b3c
00000120: 6185 61bd 333d afbd 14a2 6bbd 2825 b0bd
00000130: 3b9d cbbd ba5b 4a3d 0933 1b3d bd46 69bd
00000140: f2c1 58bd fa35 023e 05fe 123e 44b5 113e
00000150: 81fe 8a3d 8f62 f1bd c82a 36bd 0736 f5bc
00000160: 6ad6 153e 85f8 653e e184 f23c c668 2a3e
00000170: 9ca7 9d3d 5f1a 25bd dad4 353d 09eb d6bd
00000180: 58d1 04be cb94 8cbc 7c2e 173e 126b 053d
00000190: 72c7 483d 1c13 66bd f819 2b3d f531 833d
000001a0: 46a1 19be 3a3d 6f3d 631b 26bd aee0 32bd
000001b0: a789 babc 63ed 45bd 1cdc d33c 1356 ffbc
000001c0: 0630 40bd f6a9 93bd 6c11 60be 2737 07bc
000001d0: 28ea a4bd 3d2e 38be 2429 073e 465d b1bc
000001e0: 8918 443d 5c52 70bd cb45 7a3d 360a 4ebd
000001f0: b37f e93b 2018 febd c25e 09be 92cb 07bc
00000200: 14fc 733e 936c e1bd a991 b03d 3872 e4bd
00000210: fc4d cebd 6e18 0cbd 5bb5 bf3d adb5 28bc
00000220: 643b 96bd 1d52 f13c d0e6 a83d 8dee e9bd
00000230: f1c1 cdbc 0339 e23a 7f38 313e 6931 6eba
00000240: bc18 083e 48e5 c63d 336a 13b8 23da 10bd
00000250: e808 4bbd 460c 1abd d396 fd3d f5ee 07bd
00000260: ef8e d8bd c625 fdbd 6106 413d b187 cb3d
00000270: cd5c a33c b7f5 9cbd f835 823b ce05 f23c
00000280: 67eb 293d 6531 cb3d b948 30bd 022c a03d
00000290: 5729 9c3c e88c 703d 5dd9 34be 26eb b43d
000002a0: b48b b13d d824 8dbc b217 29bc 3a9a 693b
000002b0: 9768 7d3d 02d2 993c 1e5a 2bbd 5968 003d
000002c0: 9706 aabd 317b 533d d0cf 11bd 8fe1 0fbe
000002d0: 05a6 863c 70ef 033d b6ec 7bbd f109 28bc
000002e0: 5957 153e eb8b b73d dafd 343d cc9c 8c3d
000002f0: 268e eabc 3be0 5cbe fc8b 3e3d e677 4d3c
00000300: 20b2 893a 1b99 a43c 089d dcbd 45f8 d53d
00000310: 8713 75be 23b8 0fbe 6078 03be fb53 cf3d
00000320: 89df d3bc 1eab 82bc 84dc a6bd d650 4d3d
00000330: be74 8e3d beb7 b13d 52c1 f8b9 0a3f 7a3d
00000340: b207 8fba a260 04bc 4907 15bd 7bc1 333d
00000350: cb20 10bd 74ea 673d e6c3 d9bd 53cc 0bbd
00000360: 53cf f53d f4d9 a23b cafa 11bd 32a0 f1bd
00000370: b814 1ebd 4928 3bbc 147a be3d 1d52 debd
00000380: 220c e4bc d68c 093d 66a3 f03d 5665 14be
00000390: d474 a1bc d305 91bd 502e af3c fb0f f1bd
000003a0: 23db 2cbd fa6f 6b3d cdab 643d 4e11 163c
000003b0: 200d 893d c74b 193d 14f0 0e3e 58c7 5d3d
000003c0: 8188 89bd 43e4 023d ee17 a6ba 943f f8bd
000003d0: 1a05 0bbe 7070 783d 212a 72be 8c2d 1fbe
000003e0: b10f 303d 913a 8dbd 8c53 7abd 0741 9dbb
000003f0: c7ed 9e3d 593b a23d b9ac 9dbc f92f a63c

network_body._body_endoder.seq_layers.0.bias f4 [128]
0.0 0.0 0.0 0.0 0.0 0.0 0.0 0.0
0.0 0.0 0.0 0.0 0.0 0.0 0.0 0.0
0.0 0.0 0.0 0.0 0.0 0.0 0.0 0.0
0.0 0.0 0.0 0.0 0.0 0.0 0.0 0.0
0.0 0.0 0.0 0.0 0.0 0.0 0.0 0.0
0.0 0.0 0.0 0.0 0.0 0.0 0.0 0.0
0.0 0.0 0.0 0.0 0.0 0.0 0.0 0.0
0.0 0.0 0.0 0.0 0.0 0.0 0.0 0.0
0.0 0.0 0.0 0.0 0.0 0.0 0.0 0.0
0.0 0.0 0.0 0.0 0.0 0.0 0.0 0.0
0.0 0.0 0.0 0.0 0.0 0.0 0.0 0.0
0.0 0.0 0.0 0.0 0.0 0.0 0.0 0.0
0.0 0.0 0.0 0.0 0.0 0.0 0.0 0.0
0.0 0.0 0.0 0.0 0.0 0.0 0.0 0.0
0.0 0.0 0.0 0.0 0.0 0.0 0.0 0.0
0.0 0.0 0.0 0.0 0.0 0.0 0.0 0.0
00000000: 0000 0000 0000 0000 0000 0000 0000 0000
00000010: 0000 0000 0000 0000 0000 0000 0000 0000
00000020: 0000 0000 0000 0000 0000 0000 0000 0000
00000030: 0000 0000 0000 0000 0000 0000 0000 0000
00000040: 0000 0000 0000 0000 0000 0000 0000 0000
00000050: 0000 0000 0000 0000 0000 0000 0000 0000
00000060: 0000 0000 0000 0000 0000 0000 0000 0000
00000070: 0000 0000 0000 0000 0000 0000 0000 0000
00000080: 0000 0000 0000 0000 0000 0000 0000 0000
00000090: 0000 0000 0000 0000 0000 0000 0000 0000
000000a0: 0000 0000 0000 0000 0000 0000 0000 0000
000000b0: 0000 0000 0000 0000 0000 0000 0000 0000
000000c0: 0000 0000 0000 0000 0000 0000 0000 0000
000000d0: 0000 0000 0000 0000 0000 0000 0000 0000
000000e0: 0000 0000 0000 0000 0000 0000 0000 0000
000000f0: 0000 0000 0000 0000 0000 0000 0000 0000
00000100: 0000 0000 0000 0000 0000 0000 0000 0000
00000110: 0000 0000 0000 0000 0000 0000 0000 0000
00000120: 0000 0000 0000 0000 0000 0000 0000 0000
00000130: 0000 0000 0000 0000 0000 0000 0000 0000
00000140: 0000 0000 0000 0000 0000 0000 0000 0000
00000150: 0000 0000 0000 0000 0000 0000 0000 0000
00000160: 0000 0000 0000 0000 0000 0000 0000 0000
00000170: 0000 0000 0000 0000 0000 0000 0000 0000
00000180: 0000 0000 0000 0000 0000 0000 0000 0000
00000190: 0000 0000 0000 0000 0000 0000 0000 0000
000001a0: 0000 0000 0000 0000 0000 0000 0000 0000
000001b0: 0000 0000 0000 0000 0000 0000 0000 0000
000001c0: 0000 0000 0000 0000 0000 0000 0000 0000
000001d0: 0000 0000 0000 0000 0000 0000 0000 0000
000001e0: 0000 0000 0000 0000 0000 0000 0000 0000
000001f0: 0000 0000 0000 0000 0000 0000 0000 0000

network_body._body_endoder.seq_layers.2.weight f4 [128, 128]
-0.079719126 0.15283515 0.02719097 0.023404827 -0.10925949 0.00041870202 -0.11993986 -0.021359501
-0.020583445 -0.074600376 -0.15941602 -0.034858804 0.075157605 0.081330806 0.06276059 -0.04757329
-0.0071254224 -0.07235532 -0.052841727 0.1148821 -0.016995516 0.11117972 0.044516537 -0.034489192
0.026261646 -0.06784148 -0.057666067 -0.05733696 -0.16446714 -0.1617756 0.0631451 -0.030047216
-0.096919805 0.057161015 -0.052935712 -0.018459618 -0.11318867 -0.013837527 0.013775503 -0.0030580729
-0.0023067284 0.04981513 -0.093531355 -0.016772464 0.0457573 0.034871563 -0.032609545 -0.043438498
0.07843255 -0.01771804 0.050848287 -0.01570878 -0.03366143 0.099378906 -0.022378558 0.02535361
-0.06341347 -0.032244172 0.12374895 -0.055363066 -0.057156526 -0.0003170216 0.17237508 0.005649257
-0.019693708 0.011745743 0.0008258635 -0.22733995 -0.051087573 0.10460931 0.07191342 -0.013119536
0.006279967 -0.004048045 -0.052949443 0.04936688 -0.047439884 0.08060438 -0.058668412 -0.08084671
-0.08903146 -0.15895092 0.01899808 -0.16779874 -0.0495687 -0.110453844 0.05722157 0.059855647
0.04344082 0.00012862355 0.16563524 0.017793514 0.010971676 -0.09043945 0.119292974 -0.0320481
0.18625422 -0.052599646 0.030504264 -0.07834751 -0.0744175 0.014651821 -0.02184083 0.025519846
-0.11999213 -0.020565681 -0.0627224 0.038318437 0.015530418 -0.033924304 -0.16781972 0.083495274
-0.021734267 -0.09916301 -0.049567997 0.022830192 0.092353776 -0.035748124 0.039131764 0.03031406
0.024719693 0.122192055 0.07078743 0.12730515 0.036983058 0.0628922 0.013542327 -0.042204995
-0.007830591 0.09294976 -0.020153247 -0.0148541415 -0.048094217 0.07203389 -0.028319152 0.024461357
0.11138184 0.03028882 0.04328643 -0.06634183 -0.04617101 0.05674188 0.025906054 0.021317368
0.038346283 -0.001084874 -0.021372883 -0.084403776 0.022139143 -0.00819451 -0.047022276 0.03162812
0.002021469 0.06121153 -0.0074216044 -0.058624033 0.018417165 0.1634944 0.097904935 -0.0040906
0.25505868 0.04773245 -0.08158896 -0.060174134 0.003484431 0.11987262 0.1164315 -0.05923981
-0.080598146 -0.033583336 0.16159116 -0.013173237 0.122361675 0.114170045 0.004877208 0.06488615
0.019300539 -0.104452565 0.042252563 -0.018090991 -0.04494361 0.027989738 0.03665339 0.028460754
0.08589 0.011270358 -0.04355167 -0.08016663 -0.10184078 0.13142157 0.08856891 0.046701483
-0.09307228 -0.10217927 -0.06356254 -0.014576111 -0.12900357 -0.11536208 -0.0030141242 -0.05224456
0.024628682 -0.028075723 0.09619106 0.008759469 -0.088891104 0.001725528 0.012738175 -0.04741255
-0.010325101 0.027811376 -0.010859195 -0.06556665 -0.16184683 -0.017390441 0.032879565 0.006890203
0.07218301 -0.14451021 0.11804728 -0.14065544 -0.025176505 0.13308583 -0.15675478 0.1475638
0.030738033 0.094683535 0.18887 0.09421896 -0.078743346 0.0024806017 -0.035752863 -0.012493689
0.12350175 0.19345258 0.024276234 -0.13165128 0.09337666 0.029564755 0.073875956 0.08863008
0.042665068 -0.12341078 0.001569216 0.03191436 0.009152336 0.084032424 -0.04386976 0.06375494
0.11254423 -0.1824856 -0.092818156 0.06370878 -0.04019361 -0.008870356 -0.070302986 0.03218627
00000000: c843 a3bd d180 1c3e 99bf de3c 7bbb bf3c
00000010: 71c3 dfbd 3c85 db39 08a3 f5bd 1ffa aebc
00000020: 9d9e a8bc 15c8 98bd f43d 23be 1bc8 0ebd
00000030: 3bec 993d c490 a63d a088 803d 36dc 42bd
00000040: 607c e9bb 072f 94bd 9170 58bd 4e47 eb3d
00000050: 2e3a 8bbc 31b2 e33d f956 363d 8a44 0dbd
00000060: aa22 d73c 79f0 8abd 4133 6cbd 29da 6abd
00000070: 136a 28be 81a8 25be 3852 813d 9425 f6bc
00000080: e47d c6bd ab21 6a3d 1ed3 58bd a038 97bc
00000090: 76cf e7bd cbb6 62bc a6b2 613c f369 48bb
000000a0: 7b2c 17bb f30a 4c3d 5e8d bfbd 6866 89bc
000000b0: 026c 3b3d 7cd5 0e3d 9691 05bd 91ec 31bd
000000c0: 3fa1 a03d 6c25 91bc 4b46 503d b3af 80bc
000000d0: 91e0 09bd 2b87 cb3d 3d53 b7bc 60b2 cf3c
000000e0: ecde 81bd 7712 04bd 1770 fd3d 62c4 62bd
000000f0: f61c 6abd eb35 a6b9 1883 303e 671d b93b
00000100: b354 a1bc 3871 403c c37e 583a cecb 68be
00000110: 3441 51bd 683d d63d 5847 933d 53f3 56bc
00000120: 2ec8 cd3b 76a5 84bb 84e1 58bd ed34 4a3d
00000130: 5350 42bd e913 a53d 4a4e 70bd f692 a5bd
00000140: 2056 b6bd 08c4 22be dda1 9b3c 6fd3 2bbe
00000150: 8d08 4bbd a035 e2bd 2a61 6a3d 322b 753d
00000160: 00ef 313d 1fdf 0639 499c 293e b4c3 913c
00000170: 8bc2 333c 5238 b9bd e04f f43d de44 03bd
00000180: 6db9 3e3e ba72 57bd 14e4 f93c a974 a0bd
00000190: 3468 98bd 310e 703c 8aeb b2bc ff0e d13c
000001a0: 6fbe f5bd 5c79 a8bc 9a74 80bd cbf3 1c3d
000001b0: 4b73 7e3c 36f4 0abd efd8 2bbe 92ff aa3d
000001c0: 100c b2bc fa15 cbbd d007 4bbd 6206 bb3c
000001d0: fa23 bd3d a06c 12bd a148 203d 3155 f83c
000001e0: f480 ca3c d43f fa3d 00f9 903d 485c 023e
000001f0: 8c7b 173d a0cd 803d a3e0 5d3c 25df 2cbd
00000200: e14b 00bc 725c be3d 6c18 a5bc c95e 73bc
00000210: 71fe 44bd 8186 933d 91fd e7bc 2f63 c83c
00000220: 2a1c e43d 4220 f83c 1d4d 313d 3ade 87bd
00000230: d01d 3dbd 2c6a 683d ef38 d43c c3a1 ae3c
00000240: fe10 1d3d 5532 8eba 2f16 afbc e3db acbd
00000250: 265d b53c 4442 06bc 6e9a 40bd 7d8c 013d
00000260: 9f7a 043b f1b8 7a3d ee30 f3bb c11f 70bd
00000270: 98df 963c 136b 273e 6282 c83d 710a 86bb
00000280: 0d97 823e 1a83 433d 1d18 a7bd 2779 76bd
00000290: 0d5b 643b c77f f53d a373 ee3d 71a5 72bd
000002a0: a410 a5bd ae8e 09bd 2778 253e 90d4 57bc
000002b0: c298 fa3d fcd1 e93d fcd0 9f3b 08e3 843d
000002c0: 2a1c 9e3c 3aeb d5bd 0611 2d3d 8f33 94bc
000002d0: ca16 38bd bc4a e53c dd21 163d 8726 e93c
000002e0: 19e7 af3d 4fa7 383c 3c63 32bd 672e a4bd
000002f0: e691 d0bd 6093 063e 9e63 b53d 0e4a 3f3d
00000300: ae9c bebd 5d43 d1bd 142d 82bd a4d0 6ebc
00000310: 8319 04be f442 ecbd 9d88 45bb 64fe 55bd
00000320: 17c2 c93c 0fff e5bc d2ff c43d e083 0f3c
00000330: 8a0c b6bd 1d2b e23a c7b3 503c a933 42bd
00000340: 9d2a 29bc afd4 e33c c4ea 31bc cf47 86bd
00000350: 2dbb 25be 6676 8ebc b9ac 063d 36c7 e13b
00000360: b0d4 933d 7cfa 13be c6c2 f13d fb07 10be
00000370: f53e cebc a747 083e 5384 20be f71a 173e
00000380: 54ce fb3c 71e9 c13d 2367 413e dff5 c03d
00000390: 3144 a1bd 9791 223b 9871 12bd 54b2 4cbc
000003a0: 7cee fc3d 6f18 463e f4de c63c 98cf 06be
000003b0: 433c bf3d c931 f23c 474c 973d b083 b53d
000003c0: 91c1 2e3d cbbe fcbd 27ae cd3a a2b8 023d
000003d0: aef3 153c 3119 ac3d c7b0 33bd f391 823d
000003e0: 977d e63d 81dd 3abe 7217 bebd c079 823d
000003f0: 0ea2 24bd f854 11bc 03fb 8fbd c0d5 033d

network_body._body_endoder.seq_layers.2.bias f4 [128]
0.0 0.0 0.0 0.0 0.0 0.0 0.0 0.0
0.0 0.0 0.0 0.0 0.0 0.0 0.0 0.0
0.0 0.0 0.0 0.0 0.0 0.0 0.0 0.0
0.0 0.0 0.0 0.0 0.0 0.0 0.0 0.0
0.0 0.0 0.0 0.0 0.0 0.0 0.0 0.0
0.0 0.0 0.0 0.0 0.0 0.0 0.0 0.0
0.0 0.0 0.0 0.0 0.0 0.0 0.0 0.0
0.0 0.0 0.0 0.0 0.0 0.0 0.0 0.0
0.0 0.0 0.0 0.0 0.0 0.0 0.0 0.0
0.0 0.0 0.0 0.0 0.0 0.0 0.0 0.0
0.0 0.0 0.0 0.0 0.0 0.0 0.0 0.0
0.0 0.0 0.0 0.0 0.0 0.0 0.0 0.0
0.0 0.0 0.0 0.0 0.0 0.0 0.0 0.0
0.0 0.0 0.0 0.0 0.0 0.0 0.0 0.0
0.0 0.0 0.0 0.0 0.0 0.0 0.0 0.0
0.0 0.0 0.0 0.0 0.0 0.0 0.0 0.0
00000000: 0000 0000 0000 0000 0000 0000 0000 0000
00000010: 0000 0000 0000 0000 0000 0000 0000 0000
00000020: 0000 0000 0000 0000 0000 0000 0000 0000
00000030: 0000 0000 0000 0000 0000 0000 0000 0000
00000040: 0000 0000 0000 0000 0000 0000 0000 0000
00000050: 0000 0000 0000 0000 0000 0000 0000 0000
00000060: 0000 0000 0000 0000 0000 0000 0000 0000
00000070: 0000 0000 0000 0000 0000 0000 0000 0000
00000080: 0000 0000 0000 0000 0000 0000 0000 0000
00000090: 0000 0000 0000 0000 0000 0000 0000 0000
000000a0: 0000 0000 0000 0000 0000 0000 0000 0000
000000b0: 0000 0000 0000 0000 0000 0000 0000 0000
000000c0: 0000 0000 0000 0000 0000 0000 0000 0000
000000d0: 0000 0000 0000 0000 0000 0000 0000 0000
000000e0: 0000 0000 0000 0000 0000 0000 0000 0000
000000f0: 0000 0000 0000 0000 0000 0000 0000 0000
00000100: 0000 0000 0000 0000 0000 0000 0000 0000
00000110: 0000 0000 0000 0000 0000 0000 0000 0000
00000120: 0000 0000 0000 0000 0000 0000 0000 0000
00000130: 0000 0000 0000 0000 0000 0000 0000 0000
00000140: 0000 0000 0000 0000 0000 0000 0000 0000
00000150: 0000 0000 0000 0000 0000 0000 0000 0000
00000160: 0000 0000 0000 0000 0000 0000 0000 0000
00000170: 0000 0000 0000 0000 0000 0000 0000 0000
00000180: 0000 0000 0000 0000 0000 0000 0000 0000
00000190: 0000 0000 0000 0000 0000 0000 0000 0000
000001a0: 0000 0000 0000 0000 0000 0000 0000 0000
000001b0: 0000 0000 0000 0000 0000 0000 0000 0000
000001c0: 0000 0000 0000 0000 0000 0000 0000 0000
000001d0: 0000 0000 0000 0000 0000 0000 0000 0000
000001e0: 0000 0000 0000 0000 0000 0000 0000 0000
000001f0: 0000 0000 0000 0000 0000 0000 0000 0000

value_heads.value_heads.extrinsic.weight f4 [1, 128]
-0.0278169 -0.11407154 0.076343335 0.15103956 0.11665424 -0.027431503 -0.17095825 -0.15051052
-0.104666784 -0.09207775 0.038441114 0.10551456 0.11147967 0.17238185 -0.10171655 -0.100925386
0.19058669 -0.02500224 0.036092542 -0.17674129 -0.09933274 -0.027703494 0.17831883 0.18669927
-0.107467175 0.19156328 -0.016215958 -0.048781127 0.12814191 -0.056002855 0.13124871 0.1569917
-0.17915545 0.1644319 0.0495612 -0.123966776 -0.2031265 -0.035177737 0.19282211 0.21127777
0.16332611 0.19171049 -0.040159564 0.07933616 -0.090780236 0.19550395 0.18877052 -0.14300364
-0.026222136 0.010071222 0.0016960192 0.06695025 -0.18813165 -0.032367386 -0.0302231 -0.17955956
-0.19088943 -0.020948097 0.21002032 0.20819555 -0.12736388 -0.099198475 0.043168087 -0.026295278
0.12512551 -0.16043603 0.1111465 0.042957935 -0.17939803 0.07939179 -0.08188825 0.01431483
-0.13037229 -0.20403965 -0.14535485 -0.00895077 -0.11215879 -0.16002426 0.20519257 -0.021817187
0.013029338 -0.05549269 0.055421874 0.13578054 0.070823975 -0.13754092 -0.19462948 0.113922626
-0.12092214 0.04075498 0.19088545 -0.06370014 0.02666994 0.039012685 0.1501188 0.015620402
0.113298476 0.20670837 0.1581798 0.13999356 0.046584625 0.06996382 -0.0008908928 0.006190911
-0.19434461 -0.09897537 -0.17691125 -0.105369896 0.09443176 0.16480395 -0.13148654 -0.003473794
0.021068081 -0.030479614 0.03832298 0.17953089 0.018612968 0.19461791 -0.05473253 -0.13251747
0.15828131 -0.06402921 -0.19061899 0.16960017 -0.2022063 -0.09720399 0.0008193566 -0.15482582
00000000: 44e0 e3bc 579e e9bd e559 9c3d 1daa 1a3e
00000010: 6be8 ee3d 08b8 e0bc ae0f 2fbe 6e1f 1abe
00000020: 8a5b d6bd 4293 bcbd 6e74 1d3d 0518 d83d
00000030: 744f e43d de84 303e c450 d0bd f8b1 cebd
00000040: 2829 433e 7fd1 ccbc c6d5 133d abfb 34be
00000050: f76e cbbd 70f2 e2bc 3699 363e 182e 3f3e
00000060: c017 dcbd 2a29 443e 54d7 84bc b8ce 47bd
00000070: a237 033e 4063 65bd 1066 063e 6fc2 203e
00000080: 8774 37be d660 283e af00 4b3d 4be2 fdbd
00000090: 6500 50be 8816 10bd 2973 453e 3359 583e
000000a0: f63e 273e c14f 443e 5b7e 24bd ff7a a23d
000000b0: fdea b9bd 3032 483e 0f4d 413e 8c6f 12be
000000c0: cecf d6bc c401 253c f64c de3a 361d 893d
000000d0: 95a5 40be aa93 04bd 6f96 f7bc 76de 37be
000000e0: 8578 43be 589b abbc 910f 573e 3731 553e
000000f0: ad6b 02be 9228 cbbd 05d1 303d 3269 d7bc
00000100: e720 003e 5849 24be c7a0 e33d a9f4 2f3d
00000110: 1eb4 37be 2a98 a23d 07b5 a7bd c088 6a3c
00000120: 5080 05be c5ef 50be e7d7 14be 40a6 12bc
00000130: 82b3 e5bd 66dd 23be 001e 523e f5b9 b2bc
00000140: 0179 553c 4e4c 63bd 0c02 633d 0e0a 0b3e
00000150: 290c 913d 87d7 0cbe f34c 47be 4450 e93d
00000160: 07a6 f7bd b2ee 263d 7a77 433e 3875 82bd
00000170: eb7a da3c c4cb 1f3d beb8 193e b7ec 7f3c
00000180: 0809 e83d 5cab 533e e3f9 213e 795a 0f3e
00000190: 85cf 3e3d 3149 8f3d ce8a 69ba 20dd ca3b
000001a0: 4602 47be 99b3 cabd 3928 35be 2ccc d7bd
000001b0: 7065 c13d 5ec2 283e 68a4 06be 98a8 63bb
000001c0: f896 ac3c 62b0 f9bc 8ff8 1c3d f2d6 373e
000001d0: 397a 983c eb49 473e 382f 60bd a9b2 07be
000001e0: 7f14 223e bf21 83bd a031 43be abab 2d3e
000001f0: 2b0f 4fbe e312 c7bd 17ca 563a a98a 1ebe
