Results/test25/SnowBall/SnowBall-1408.pt (torch, 287319 bytes, 14 tensors)

discrete_act_size_vector f4 [1, 2]
00000000: 0000 4040 0000 4040
3.0 3.0

network_body._body_endoder.seq_layers.0.weight f4 [128, 138]
00000000: 9ba3 ca3d 5ada dd3c e25e 99bd cfd7 d8bc
00000010: ced6 863c 5570 683d 677c 0f3e a416 ab3c
00000020: f7ed 8e3c 849d 923b e508 abbd 574d 1e3d
00000030: c4d6 853c 676c 83bd 26e3 e4bc a144 b2bd
00000040: 695a c7bc 2de2 ac3a 71a0 41be cebf c03d
00000050: 5283 0ebd 1e58 8a3d 652e 85bd abc0 f0bd
00000060: fbb5 54bd d469 8ebc ab41 15be c94a 6e3a
00000070: 5995 00bd 894d b23d 404d 3bbe b5b3 e5bd
00000080: e2f9 cebd f5c9 0c3d 1933 09be 64be 8cbd
00000090: 3442 3e3c eb4c 8d3d e9d6 0fbd 300f 923b
000000a0: 81ff 43bc 66ad 6b3d e0cb 0abd 8266 1dbd
000000b0: 918d 883d 2832 ef3d caad b43c f357 50bd
000000c0: 6b87 b7bc 37d5 9d3d 8040 a83c 2c82 de3d
000000d0: 93aa 763d f562 9a3d 8d2f 2cbc 9359 c9bd
000000e0: 906a 063c ab64 ff3c 587c 3d3d 2f32 d9bd
000000f0: f7a6 8bbd 0a88 2fbd 616f 2a3d 21b4 ecbc
00000100: dccb 67bc 43f9 d63c cfad b13d 8017 0e3d
00000110: 5e9c dabd 714a 7abc ca44 133d efec 8dbd
00000120: 8ed1 06bd 6355 893b b7b5 1b3e 4482 93bd
00000130: 6e28 d33b d8de 643d 3d0a a7bd 718c 1dbc
00000140: 7797 513c 03ae 0fbd 6bdd ddbc 862b 033e
00000150: 08e9 a13d 2f05 6dbd 3413 10be 50dc 703d
00000160: eaaf 29be faad 08ba 3c00 2a3e 9fec c33d
00000170: 9357 99bd c699 99bb ef93 e5bc 7b33 36bc
00000180: 409f d43d f8da c43c d124 b7bd 9adf a03d
00000190: 10a4 193e e60d 343e 4433 9c3d 9d14 6fbc
000001a0: 8203 193d 3553 e13c d5ed 00bd ebbb e43c
000001b0: 74cc 983c 5da9 153e dce4 e63d e767 313c
000001c0: 9c43 68bd 7aec b4bd 6b6c 1bbe 0acb c5bd
000001d0: 8682 4ebc d0b5 1c3e 9bd0 273e 3511 cb3c
000001e0: 6f66 a9bb 9536 c6bc a149 e4bd b22b e03c
000001f0: c308 82ba ec05 c6bd 8984 563d 8eea 983d
00000200: 6279 91bc 00c6 203d 069c ba3d 0932 77bd
00000210: 20b7 e83d 8b21 b13d b5fb 113d 0ab7 24bd
00000220: 3e3b cc3d a80d a73c 137f 8cbd bbf0 c83d
00000230: 8653 1abd a72b 42be 877f 033e 3dd1 f93d
00000240: b12f babc afbd f3ba 55e4 3cbd 6f9e d73d
00000250: 68f8 033d 363c 35bd 1612 a83c e320 d13c
00000260: f7f7 c8bc 9ee0 48bd 767c 3fbe d5f1 ef3b
00000270: 1408 17bd 2182 0c3e e3c5 51bd 37f5 90bb
00000280: b981 c83b c417 0fbd e3c3 adbd ae0c 4ebd
00000290: d302 52bd 2391 6ebd fd05 9b3d 4efb 07bd
000002a0: 4308 313e cbe4 803d 3c1a 82bd c92a 2bbd
000002b0: a632 04be b752 7c3c 6772 363d 360e e6bc
000002c0: cef3 993b 3ade 5a3c 344c 0a3e 7aa2 833d
000002d0: 6a4c debc 7e5f 48bd d35f ae3d 248a 86bc
000002e0: 057a 6a3c 8436 de3d 52e5 b2bd ad14 173e
000002f0: 1cca d1bd 08eb a7bc e72f aebd 7195 0d3d
00000300: c396 f43c c7ee cdbc 9a56 3dbd 5675 5c3c
00000310: 56a4 38bc ca21 943c 6b0d 21be f74a 8abd
00000320: 1726 6bbc d1e7 f43d 34ab 853d 9f49 a5bc
00000330: 67cb 193e 38c0 b7bc 91b1 99bd 900e b3bd
00000340: 14dd 07be a5b0 c33d 4107 3ebd e885 bd3c
00000350: 6c9a 0bbd 3c8d 5a3d 0351 a43d e9ae d0bd
00000360: 9a02 c9bd c593 6fbd 5534 f6bb d376 663d
00000370: 8c6c e73d 3d66 9f3d 9bea 11bd 086b 67bd
00000380: a850 ac3c d46e e73d d001 01bd dcd6 46bd
00000390: 2ca6 e63b a29c 1b3d 024a 50ba 0ca4 063e
000003a0: 95d4 483b aab4 a33c c684 3fbd ec0f bc3d
000003b0: 0ad1 f4bd daa0 9a3d e07d ffba a0b3 febd
000003c0: 97c1 77bd 24a4 9dbd a6ec 283d cc3e 29bd
000003d0: 43d9 d13d e0f6 373d 3b6d cbbd 4229 d9bb
000003e0: daff 08be 5570 bd3d cb3e fd3b dd3c 90bd
000003f0: 08fd 2a3d d48e ab3d c037 f43d ad5d 4cbd
0.098944865 0.027081657 -0.074888006 -0.026470093 0.016459849 0.056747753 0.140123 0.02088482
0.017447455 0.0044743437 -0.08351306 0.038647976 0.01633776 -0.064171605 -0.027940344 -0.08704496
-0.024335103 0.0013189964 -0.1890886 0.09411584 -0.034793206 0.06755088 -0.0650299 -0.117554985
-0.051931363 -0.017384447 -0.14575832 0.00090901233 -0.03139243 0.08706195 -0.18291187 -0.11215917
-0.10106255 0.03437229 -0.13398398 -0.06872252 0.011612464 0.068994366 -0.035117064 0.004457377
-0.011962772 0.057538413 -0.033885837 -0.038427837 0.06667627 0.116794884 0.022055525 -0.050865125
-0.02240344 0.07706683 0.020538568 0.10864672 0.060221266 0.07538406 -0.010509384 -0.09831538
0.008204117 0.031175932 0.04626116 -0.10605275 -0.068189554 -0.042854346 0.041610125 -0.028894486
-0.014147725 0.026241904 0.086757295 0.03469038 -0.10674356 -0.015276537 0.035954274 -0.06929957
-0.03291469 0.004191087 0.15206037 -0.072025806 0.0064440286 0.055876583 -0.0815625 -0.009616003
0.01279246 -0.03507806 -0.02708312 0.12809572 0.07905775 -0.05786627 -0.14069825 0.058803856
-0.16571012 -0.0005213913 0.16601652 0.09566616 -0.074874066 -0.0046875207 -0.028024642 -0.011120672
0.10381937 0.024030194 -0.08942569 0.078551486 0.15003991 0.17583427 0.07626966 -0.014592317
0.03735686 0.027505497 -0.031476814 0.027921638 0.018652178 0.14615388 0.1127412 0.010827995
-0.056705102 -0.08834167 -0.15178077 -0.09657867 -0.012604361 0.15303731 0.1638817 0.024788478
-0.0051696817 -0.024195949 -0.11146856 0.027364586 -0.0009920824 -0.09669098 0.05237249 0.07466613
-0.017758075 0.039251328 0.0911179 -0.06035045 0.11363053 0.08648976 0.035640437 -0.040213622
0.09972237 0.020392254 -0.06860175 0.09811541 -0.03767731 -0.18961965 0.12841617 0.12198112
-0.02272782 -0.0018595959 -0.046116192 0.10528266 0.03221932 -0.044246875 0.020516437 0.025528377
-0.024532301 -0.049042337 -0.18699822 0.00732253 -0.03687294 0.13721515 -0.05121411 -0.004423763
0.00611898 -0.034934774 -0.08484628 -0.05030506 -0.051272225 -0.058243882 0.075695015 -0.033198647
0.17288308 0.06293639 -0.0635266 -0.04178885 -0.12909946 0.01540058 0.044542696 -0.028082948
0.0046982532 0.013358647 0.13505632 0.06427474 -0.027136046 -0.048919193 0.08514371 -0.016423292
0.014311318 0.10850242 -0.08735146 0.14753981 -0.102436274 -0.020497814 -0.085052304 0.034566347
0.029857045 -0.025138272 -0.046225168 0.013455709 -0.0112696495 0.018082518 -0.15727775 -0.0675258
-0.014352343 0.11958278 0.06526795 -0.020176707 0.15018998 -0.022430524 -0.07504571 -0.08743012
-0.13267928 0.09555177 -0.046393637 0.02313514 -0.034082815 0.053357348 0.08023264 -0.101896115
-0.09814949 -0.058490533 -0.0075135627 0.056265663 0.113000005 0.07783172 -0.035624128 -0.056498557
0.021034554 0.11300436 -0.03149587 -0.04854475 0.007038852 0.037991174 -0.00079455983 0.13148516
0.0030644287 0.019983608 -0.046757482 0.09182724 -0.119539335 0.07550211 -0.001949247 -0.124366045
-0.060487356 -0.07697323 0.04124131 -0.041319653 0.102465175 0.044913173 -0.099329434 -0.006627233
-0.1337885 0.09249941 0.007728433 -0.07042859 0.041745216 0.08376852 0.11924696 -0.049894024

network_body._body_endoder.seq_layers.0.bias f4 [128]
00000000: 0000 0000 0000 0000 0000 0000 0000 0000
00000010: 0000 0000 0000 0000 0000 0000 0000 0000
00000020: 0000 0000 0000 0000 0000 0000 0000 0000
00000030: 0000 0000 0000 0000 0000 0000 0000 0000
00000040: 0000 0000 0000 0000 0000 0000 0000 0000
00000050: 0000 0000 0000 0000 0000 0000 0000 0000
00000060: 0000 0000 0000 0000 0000 0000 0000 0000
00000070: 0000 0000 0000 0000 0000 0000 0000 0000
00000080: 0000 0000 0000 0000 0000 0000 0000 0000
00000090: 0000 0000 0000 0000 0000 0000 0000 0000
000000a0: 0000 0000 0000 0000 0000 0000 0000 0000
000000b0: 0000 0000 0000 0000 0000 0000 0000 0000
000000c0: 0000 0000 0000 0000 0000 0000 0000 0000
000000d0: 0000 0000 0000 0000 0000 0000 0000 0000
000000e0: 0000 0000 0000 0000 0000 0000 0000 0000
000000f0: 0000 0000 0000 0000 0000 0000 0000 0000
00000100: 0000 0000 0000 0000 0000 0000 0000 0000
00000110: 0000 0000 0000 0000 0000 0000 0000 0000
00000120: 0000 0000 0000 0000 0000 0000 0000 0000
00000130: 0000 0000 0000 0000 0000 0000 0000 0000
00000140: 0000 0000 0000 0000 0000 0000 0000 0000
00000150: 0000 0000 0000 0000 0000 0000 0000 0000
00000160: 0000 0000 0000 0000 0000 0000 0000 0000
00000170: 0000 0000 0000 0000 0000 0000 0000 0000
00000180: 0000 0000 0000 0000 0000 0000 0000 0000
00000190: 0000 0000 0000 0000 0000 0000 0000 0000
000001a0: 0000 0000 0000 0000 0000 0000 0000 0000
000001b0: 0000 0000 0000 0000 0000 0000 0000 0000
000001c0: 0000 0000 0000 0000 0000 0000 0000 0000
000001d0: 0000 0000 0000 0000 0000 0000 0000 0000
000001e0: 0000 0000 0000 0000 0000 0000 0000 0000
000001f0: 0000 0000 0000 0000 0000 0000 0000 0000
0.0 0.0 0.0 0.0 0.0 0.0 0.0 0.0
0.0 0.0 0.0 0.0 0.0 0.0 0.0 0.0
0.0 0.0 0.0 0.0 0.0 0.0 0.0 0.0
0.0 0.0 0.0 0.0 0.0 0.0 0.0 0.0
0.0 0.0 0.0 0.0 0.0 0.0 0.0 0.0
0.0 0.0 0.0 0.0 0.0 0.0 0.0 0.0
0.0 0.0 0.0 0.0 0.0 0.0 0.0 0.0
0.0 0.0 0.0 0.0 0.0 0.0 0.0 0.0
0.0 0.0 0.0 0.0 0.0 0.0 0.0 0.0
0.0 0.0 0.0 0.0 0.0 0.0 0.0 0.0
0.0 0.0 0.0 0.0 0.0 0.0 0.0 0.0
0.0 0.0 0.0 0.0 0.0 0.0 0.0 0.0
0.0 0.0 0.0 0.0 0.0 0.0 0.0 0.0
0.0 0.0 0.0 0.0 0.0 0.0 0.0 0.0
0.0 0.0 0.0 0.0 0.0 0.0 0.0 0.0
0.0 0.0 0.0 0.0 0.0 0.0 0.0 0.0

network_body._body_endoder.seq_layers.2.weight f4 [128, 128]
00000000: 9195 3b3d 7b7a 9abc 6351 6ebd fe03 aabd
00000010: 441d 303c 3017 a03d 96a5 80bc fd6e 11bd
00000020: 969b 0ebe 62dd da3d 239a 1a3d 4a69 543c
00000030: a79a c63a df7a 62bd a104 5dbd 8cbb 71be
00000040: 09e2 183e 04b3 1bb8 edb3 85bc cb7a ca3c
00000050: 05c0 e83b cf19 a6bd cdb2 18bd 9ff4 803c
00000060: bd26 323e bf6d febd d95b ab3d 08a0 dc3d
00000070: 62f0 093e f384 0a3e 783b 15be cf55 863d
00000080: eb31 21bd 2240 f53d 7aa8 1cbe 758e 34bd
00000090: 8d33 21be d1fd 7ebd fa53 9d3d 8b38 11bd
000000a0: 43b9 acbd 367d 863d 8b81 c8bd 960a 983c
000000b0: 5af3 8fbb a0da 30be 6525 b63c f977 163e
000000c0: 6cde a3bb 1eda 943c ebc3 9ebd eecd 873c
000000d0: 7cff 83bc ff6c 6bbc d3fd 7b3e 9642 a9bc
000000e0: 0f0b 45be ddf8 6fbd e82b b6bd 7c86 233c
000000f0: 28bf f2bd 2cac b03d 6c20 10be 0af3 a23d
00000100: 1f00 093d 073c 35ba 13fa 2dbd 63c6 5f3c
00000110: 8b45 f13d 493f 0dbd 4d6a 9dbc 0986 cd3c
00000120: aa0f 18bc b3f2 193d 386f afbc f673 0fbd
00000130: cfcc cebc f0d0 043e 3ee5 3c3d 40ae 56bd
00000140: 5bd2 9ebb 548a ddbd 0ccb 87bd c840 7f3b
00000150: 309b 253e 304b ab3c 7959 b73d 90f7 a13d
00000160: 231a febd 297f 303c 059f 583d 38ce d6bd
00000170: 6b5d 0b3e 3050 53bb 278b c0bd 4416 863d
00000180: 77dd dabc 00e9 be3d 0964 cb3c 9a64 5bbe
00000190: 0525 0c3e 7391 4a3b 0d72 833d 84f1 d03b
000001a0: 04ae 793d 75f6 87bd a953 273c de7b d8bd
000001b0: 15e7 e6b9 40dd 843d 53fa 7b3d 6f5d 40bd
000001c0: f9d9 043e e5ed a0bd 4213 133e 8ea0 a63d
000001d0: 2ae5 e03c 4e49 d03d 0338 52bd 7406 0a3e
000001e0: d52a 2f3c f481 393e 3e41 9c3d 9df7 dfbc
000001f0: f316 a43d c5dd 053e a15b 683c d78a 193e
00000200: ebfb 933c 0914 06bd 7ab7 c9bd 080d 0b3d
00000210: 6e59 95bd 708e 8a3c 87b9 2e3e 78b2 c4bd
00000220: 0bbf 6d3d db30 76bd fad1 dbbd 199d b8bd
00000230: 8bb1 72bc 1c29 0d3e 3d1a d9bc f292 e23c
00000240: 991e 363d fd00 90bd 270c 80bd 9e23 edba
00000250: f7b3 49bd 09ab 8bbc e8c0 59be af3d f6bd
00000260: a7db 413d bf61 1d3c c4c4 02be 8016 173d
00000270: 12a5 b3bd 1dbc cc3b 4b46 81bc 3d95 92bc
00000280: 78d5 723c 7c9f b93d 863a 603c 452e 1a3b
00000290: a4ad 02be 4c8c a13d 3cbd 8dbd ae07 d13d
000002a0: cb13 963e 0964 bfbd b174 983d ad63 a1bd
000002b0: cde3 ea3c ad7a 263e f552 0c3e 2700 c6bc
000002c0: a0f6 f2bc b68b 993d 19b1 9c3d df07 0b3e
000002d0: ee72 bb3d 3048 273d eade 4d3e f77d 0a3d
000002e0: 1fe6 56bc 080b b7bd f4e1 c7bd 38ee eabc
000002f0: 37d2 4cbd 010d 513d f0ff 443d 58cf eb3a
00000300: bba5 f93d a624 343c 6af3 bf3d 2aa2 ddbd
00000310: f446 4cbd ecd0 8b3d 828a 803c de27 c13c
00000320: b2c0 6a3c adcb 69bc 958c a03d ba5c 9b3c
00000330: efb9 31bd c1d1 aa3c 8123 373e 380c 383e
00000340: f72e 023e 2d67 ce3d 80f3 4ebb 63de 743a
00000350: 94b6 b8bd 4dff a0bd 138f 3bbd 7c39 d6bc
00000360: af74 14be 7af0 74bc bad7 b3bc 618f 903d
00000370: a2aa b73d f119 8dbd 522b 8f3c b4c0 e13c
00000380: d94a dc3d 77f0 ad3d 1e4f 9bbd 76e5 aebc
00000390: 4518 bdbd eb1f 7e3d a441 1c3e 193c 1cbe
000003a0: c652 2b3d 8864 94bd 5a90 b1be 73c5 d23c
000003b0: ffa2 123d a77c 65be abe7 0dbe 0964 e7bc
000003c0: d60d 0b3d 4da0 0bbd eb74 9dbc d5c2 8abc
000003d0: 796c 683b a791 c5bd 30a9 363e 32e5 323d
000003e0: 4a60 8e3d 16c7 b23c 854d 713d 94e4 933b
000003f0: 639c 95bd cc80 9b3d ce8b 8d3d 65b5 0dbd
0.045796935 -0.018857231 -0.058183085 -0.08301543 0.010749165 0.07816923 -0.015703958 -0.035506237
-0.13926539 0.10686757 0.037744652 0.012964556 0.0015152291 -0.05529296 -0.053959493 -0.236067
0.14929976 -3.71216e-05 -0.016321147 0.024716755 0.0071029686 -0.08110391 -0.037279893 0.015741644
0.1739759 -0.12423276 0.08367128 0.10772711 0.13470605 0.13527279 -0.14573467 0.065593354
-0.039354246 0.11975123 -0.15298644 -0.04408117 -0.15742321 -0.062253777 0.07682033 -0.035454314
-0.08433773 0.06566851 -0.09790333 0.018559735 -0.0043930234 -0.17270899 0.022234628 0.14694203
-0.00500088 0.018170413 -0.07752212 0.016577687 -0.016113035 -0.014369248 0.24608545 -0.020661633
-0.192425 -0.058586944 -0.08895093 0.009980794 -0.118528664 0.08626589 -0.14074868 0.07956512
0.03344738 -0.0006913547 -0.042474817 0.013658139 0.117808424 -0.03448418 -0.019215727 0.025088327
-0.009281078 0.03758497 -0.021415338 -0.0350227 -0.025244145 0.12970328 0.04611706 -0.05241227
-0.0048468537 -0.108173996 -0.06630525 0.0038948525 0.1617248 0.020909876 0.089526124 0.07908547
-0.12407329 0.010772505 0.052886028 -0.10488552 0.13609855 -0.003224384 -0.09401541 0.065472156
-0.02671693 0.09321785 0.024827974 -0.21425095 0.13685997 0.0030909448 0.06418238 0.006376447
0.06095697 -0.06638805 0.010212817 -0.10570501 -0.00044041188 0.064875126 0.061518025 -0.046964105
0.12973775 -0.07857875 0.14362815 0.08136092 0.027453024 0.10170232 -0.05132295 0.13479024
0.010691364 0.1811598 0.076296315 -0.02733975 0.0801219 0.1307288 0.014182002 0.1499437
0.01806446 -0.03273395 -0.098494485 0.033947974 -0.07292448 0.016913623 0.1706296 -0.09604353
0.05804352 -0.060105186 -0.10733409 -0.09014339 -0.014812837 0.13785213 -0.02650177 0.02765796
0.044462774 -0.070314385 -0.06252318 -0.001809228 -0.049243893 -0.01704933 -0.21264994 -0.12023484
0.047328617 0.009605824 -0.12770373 0.036886692 -0.08771719 0.006248011 -0.015780589 -0.017893428
0.014821403 0.09063622 0.013685828 0.0023526114 -0.12761551 0.07888088 -0.06920859 0.10206543
0.29311976 -0.09345252 0.07444132 -0.0788034 0.028673077 0.16257735 0.1370352 -0.024169995
-0.029658616 0.07497351 0.07650966 0.13577221 0.091527805 0.040840328 0.20104566 0.033811536
-0.013116389 -0.08937651 -0.09759894 -0.028678045 -0.050005164 0.051037792 0.048095644 0.001799087
0.12189814 0.010995066 0.093725994 -0.10821946 -0.049872354 0.06826958 0.015691046 0.02357858
0.014328169 -0.0142697515 0.07839314 0.018965114 -0.04339021 0.020851972 0.17884637 0.17973411
0.12713228 0.10078273 -0.0031578243 0.00093409995 -0.09019199 -0.07861195 -0.045790743 -0.026150458
-0.14497636 -0.014949912 -0.021953452 0.07058597 0.089680925 -0.068897136 0.017476711 0.027557708
0.107564636 0.08493131 -0.0758345 -0.02134965 -0.09233145 0.062042158 0.15259415 -0.152573
0.041826986 -0.07245737 -0.34680444 0.025728917 0.035799976 -0.22410832 -0.13857906 -0.028245943
0.03394874 -0.03408842 -0.01922079 -0.016938606 0.0035465045 -0.096469216 0.17837977 0.04367561
0.069519594 0.021823447 0.05891182 0.0045133326 -0.07305219 0.075929254 0.06911431 -0.03459682

network_body._body_endoder.seq_layers.2.bias f4 [128]
00000000: 0000 0000 0000 0000 0000 0000 0000 0000
00000010: 0000 0000 0000 0000 0000 0000 0000 0000
00000020: 0000 0000 0000 0000 0000 0000 0000 0000
00000030: 0000 0000 0000 0000 0000 0000 0000 0000
00000040: 0000 0000 0000 0000 0000 0000 0000 0000
00000050: 0000 0000 0000 0000 0000 0000 0000 0000
00000060: 0000 0000 0000 0000 0000 0000 0000 0000
00000070: 0000 0000 0000 0000 0000 0000 0000 0000
00000080: 0000 0000 0000 0000 0000 0000 0000 0000
00000090: 0000 0000 0000 0000 0000 0000 0000 0000
000000a0: 0000 0000 0000 0000 0000 0000 0000 0000
000000b0: 0000 0000 0000 0000 0000 0000 0000 0000
000000c0: 0000 0000 0000 0000 0000 0000 0000 0000
000000d0: 0000 0000 0000 0000 0000 0000 0000 0000
000000e0: 0000 0000 0000 0000 0000 0000 0000 0000
000000f0: 0000 0000 0000 0000 0000 0000 0000 0000
00000100: 0000 0000 0000 0000 0000 0000 0000 0000
00000110: 0000 0000 0000 0000 0000 0000 0000 0000
00000120: 0000 0000 0000 0000 0000 0000 0000 0000
00000130: 0000 0000 0000 0000 0000 0000 0000 0000
00000140: 0000 0000 0000 0000 0000 0000 0000 0000
00000150: 0000 0000 0000 0000 0000 0000 0000 0000
00000160: 0000 0000 0000 0000 0000 0000 0000 0000
00000170: 0000 0000 0000 0000 0000 0000 0000 0000
00000180: 0000 0000 0000 0000 0000 0000 0000 0000
00000190: 0000 0000 0000 0000 0000 0000 0000 0000
000001a0: 0000 0000 0000 0000 0000 0000 0000 0000
000001b0: 0000 0000 0000 0000 0000 0000 0000 0000
000001c0: 0000 0000 0000 0000 0000 0000 0000 0000
000001d0: 0000 0000 0000 0000 0000 0000 0000 0000
000001e0: 0000 0000 0000 0000 0000 0000 0000 0000
000001f0: 0000 0000 0000 0000 0000 0000 0000 0000
0.0 0.0 0.0 0.0 0.0 0.0 0.0 0.0
0.0 0.0 0.0 0.0 0.0 0.0 0.0 0.0
0.0 0.0 0.0 0.0 0.0 0.0 0.0 0.0
0.0 0.0 0.0 0.0 0.0 0.0 0.0 0.0
0.0 0.0 0.0 0.0 0.0 0.0 0.0 0.0
0.0 0.0 0.0 0.0 0.0 0.0 0.0 0.0
0.0 0.0 0.0 0.0 0.0 0.0 0.0 0.0
0.0 0.0 0.0 0.0 0.0 0.0 0.0 0.0
0.0 0.0 0.0 0.0 0.0 0.0 0.0 0.0
0.0 0.0 0.0 0.0 0.0 0.0 0.0 0.0
0.0 0.0 0.0 0.0 0.0 0.0 0.0 0.0
0.0 0.0 0.0 0.0 0.0 0.0 0.0 0.0
0.0 0.0 0.0 0.0 0.0 0.0 0.0 0.0
0.0 0.0 0.0 0.0 0.0 0.0 0.0 0.0
0.0 0.0 0.0 0.0 0.0 0.0 0.0 0.0
0.0 0.0 0.0 0.0 0.0 0.0 0.0 0.0

action_model._discrete_distribution.branches.0.weight f4 [3, 128]
00000000: e5b9 d3bb d88e 97ba 6b94 06bb 61f7 bc39
00000010: 9082 e83b cb3a 65bc 9f49 5bbb 8fcf 273c
00000020: 5296 72bb 7243 873c 3b00 8cbb 67cb 033c
00000030: 2e5c 843c f5e0 e7bb 8f4b 48bb 9512 d93a
00000040: dcc5 c13b 6f6c 1b3c 8a4c 163c 7394 95bc
00000050: 7ba7 633b 6bcb 08bc 0777 733b 220b 053b
00000060: 5bc6 8cbc fe0e 99bb 5814 b8bb 9742 1b3b
00000070: ba42 613b 1473 493c 7c2d abbc 8d64 85bc
00000080: d7dc a53a 2226 7c3c 64fb b83b 8c57 03bb
00000090: f678 05bc e57d 113c 6d48 453c 9fe1 763b
000000a0: 06e6 1abb c1c5 143c 49df 43ba b0f9 f7ba
000000b0: 1b65 caba b8f8 903c 08a4 88bb 2b0a 02ba
000000c0: df66 bd3b e22c 74bb f241 b7bc ec8b 0bbc
000000d0: 1be7 1dbc 9439 193c 54c7 bfbb e90e 91bb
000000e0: a2f6 e03a e313 0bbc 57fc d23b f467 893a
000000f0: 207e 873b 67e2 a7bc ebfc 03bc 984e bf3a
00000100: 95d8 673c ffab fa39 27ed 00bc 23d5 efba
00000110: 8a54 d6bb e59f b1ba 6c62 423a 0a09 b6bc
00000120: 13e8 8dbb ff9e 2abb 4661 9db9 abab 12bc
00000130: 1327 dd3b 2b93 10bb 7c3a 973c 3b26 bcb8
00000140: 9f91 cfbb 6bf3 b7b9 857a 91bb 6b42 cabb
00000150: 505c ec3a 4e44 9d3c df7a aabb 0f25 18b9
00000160: f6ee 2cbb 3493 87bc 07c7 4bbc f7f9 1fbb
00000170: 307e 3b3c f706 843c 8e0d 463c d0bb 02bc
00000180: 22b0 523c af96 8bbb c2b2 6c3c daba 093c
00000190: 832c 8aba e830 e53b c729 47bc 2357 f73a
000001a0: 3e15 03bb 1a98 243c 79f2 443c c64c 1bbc
000001b0: ca94 bfbb 7607 39ba ffe9 0abc a530 873b
000001c0: 5b4a 97b9 c167 9bbc feeb b53b 17a6 1d3b
000001d0: e7bd a3ba 62f6 af3b 0f10 a8bb 67a3 013c
000001e0: 13ee 023a fc4a 38bc 4f45 35bc ed3b 70bb
000001f0: 8d22 cebb 639a 33ba 2643 46bc ae50 193b
00000200: cf3d ec3b 830e 253c cc75 a7bb 6543 a3ba
00000210: ba79 b7bb c093 33bc e713 45ba e77f cb3b
00000220: 18a2 003c ea3b dfba 8ce0 8a3c 0cc3 a4bc
00000230: 1735 00bc 481b 18bc 9f72 c7bb 8e30 b3bc
00000240: 2b5e 013c 7540 abbb 8d95 723b f11e 243c
00000250: 5548 623b bd01 6b3b ac12 913c e25a 403b
00000260: 035f 3ebc c959 213a 334e 9cbc c730 573b
00000270: 3532 93bc 6ad6 a4bc 8dfd c9bb ff4a e6ba
00000280: 4b08 83bc 4633 48bb cf0e 863b dbe9 a3bb
00000290: 9322 7cbb 634b 953b 8d3f d83c 8212 56bb
000002a0: 34a4 063c 400b 5c3a 3318 39bc 6f69 b5ba
000002b0: 8339 23bb 26fa 4a3c 876c 1a3c fb75 283b
000002c0: fd0f 883b 4b97 26ba 3cae 06bc f830 603c
000002d0: 1d41 fbbb 3fa3 6a3b 293a 86bc 0348 44bc
000002e0: 1735 2d3b 3322 d2ba 1f3b 2b3a edd0 76bb
000002f0: a34a 8f3b e3cb d43b 277e 943b c2ba 7d3c
00000300: 1876 00bb f3d5 3cbc 9554 7bbc 052f d3bb
00000310: d523 0dba ffb5 9839 80ac cf3b 7ba4 e239
00000320: 3533 7538 e28d 3a3a bb18 35bc 6b0c 45bc
00000330: e2e9 a93b 0a04 daba 37f4 063c 1baa abbb
00000340: 42cf 853c 2f66 f83b cccf 98bb e284 54bc
00000350: a533 303c 45f9 1b3a b86e 4ebc 77a9 b83b
00000360: bf65 d73b 8b1e 4dbc 309e 6bbb 6c68 30bc
00000370: dd77 6dba 3870 b8bb 57cc 8e3a 5f29 0a3b
00000380: dfe1 a43c 5642 4a3b 7581 95ba 6100 90bc
00000390: 7393 093c 0ff1 2abc c69b 193c 2c0f bf3b
000003a0: 8352 093c 8ced 37bc 7d24 3fbc ca26 5bbc
000003b0: 39b7 1cbb b3e0 8d3b c319 d53b 3a51 3339
000003c0: b379 c63b 5bd7 0a3c aaf1 553b 6c1f a03b
000003d0: bb19 dbba 556e 283c bb93 8bba 87e7 57bc
000003e0: 8bd6 bc3a f716 8bbb 0a30 6c3c 5b2b 143b
000003f0: 1731 193b 796a 4b3b 2bb8 d53a 332d 433b
-0.0064613693 -0.0011562956 -0.0020535241 0.00036042466 0.0070956424 -0.013991068 -0.003346063 0.010242357
-0.0037015867 0.016511653 -0.0042724884 0.0080441 0.016157236 -0.0070763775 -0.0030562615 0.0016561324
0.0059134793 0.009486302 0.009173522 -0.018259263 0.0034737277 -0.00834928 0.0037149803 0.0020300825
-0.017184427 -0.0046709767 -0.0056176595 0.0023690814 0.0034372048 0.012295503 -0.020895712 -0.016283298
0.0012654316 0.015389951 0.0056452025 -0.0020041196 -0.008146515 0.008880113 0.012041193 0.0037671102
-0.002363564 0.009080351 -0.0007471932 -0.0018919017 -0.0015441509 0.017696723 -0.0041699447 -0.00049606216
0.0057800855 -0.0037258198 -0.022370312 -0.008517247 -0.009637619 0.009352107 -0.005852619 -0.0044268263
0.0017163346 -0.008488628 0.0064387727 0.0010483251 0.0041349083 -0.0204937 -0.008055906 0.0014595566
0.014150758 0.00047811863 -0.0078690415 -0.0018297773 -0.0065408396 -0.0013551681 0.00074151787 -0.022221107
-0.004330644 -0.002603471 -0.00030017848 -0.008952062 0.006749043 -0.0022060375 0.018460505 -8.9716596e-05
-0.006334498 -0.0003508584 -0.0044396543 -0.0061724684 0.0018032882 0.01919761 -0.0052026357 -0.00014509655
-0.002638755 -0.016549684 -0.012437589 -0.0024410465 0.01144366 0.016116602 0.012088193 -0.007979348
0.012859376 -0.0042599062 0.014446916 0.008406365 -0.001054183 0.0069943555 -0.012155957 0.0018870573
-0.0020001675 0.010046029 0.012020701 -0.009478753 -0.0058465945 -0.00070583017 -0.008478641 0.004125672
-0.00028856363 -0.018970372 0.005551814 0.0024055296 -0.0012492508 0.0053699473 -0.0051288675 0.007912493
0.0004994582 -0.011248346 -0.011063888 -0.0036656812 -0.00629074 -0.00068513135 -0.01210097 0.0023394036
0.0072095166 0.010074261 -0.005110478 -0.0012455998 -0.0055992277 -0.010960519 -0.00075179193 0.0062103155
0.007851146 -0.0017031406 0.016952775 -0.020112537 -0.007825158 -0.009283848 -0.006086662 -0.021873739
0.007895987 -0.0052261897 0.0037015409 0.010017143 0.0034527977 0.003585919 0.017709099 0.0029351045
-0.011619332 0.00061550416 -0.019080257 0.003283547 -0.017968277 -0.020121772 -0.006164259 -0.0017569958
-0.015995165 -0.003054814 0.004091121 -0.005002243 -0.0038472756 0.004556106 0.02639749 -0.003266484
0.00821786 0.00083940104 -0.011297273 -0.0013840626 -0.0024906106 0.012388742 0.009425289 0.0025705087
0.0041522966 -0.0006354942 -0.008220252 0.01368355 -0.007667674 0.0035802869 -0.016385155 -0.01198006
0.002642935 -0.0016031921 0.0006531942 -0.003766115 0.004372911 0.0064940318 0.00453164 0.015486421
-0.001960164 -0.011525619 -0.01533999 -0.006444814 -0.00053840625 0.00029127297 0.0063377023 0.00043228627
5.8460242e-05 0.0007116479 -0.0110532595 -0.012026886 0.0051853517 -0.0016633284 0.008236936 -0.005238784
0.01633418 0.0075805406 -0.004663443 -0.012971135 0.0107545005 0.0005949925 -0.01259964 0.005635436
0.0065734084 -0.012519489 -0.0035952441 -0.010767084 -0.00090586935 -0.005628612 0.0010894638 0.0021081788
0.020127235 0.0030862293 -0.0011406379 -0.017578306 0.008396971 -0.010433449 0.009375518 0.005830666
0.008381489 -0.011226069 -0.011666414 -0.013375947 -0.002391292 0.0043297647 0.006503315 0.0001710103
0.006056988 0.008474196 0.0032645264 0.0048865583 -0.0016716042 0.010280211 -0.0010648886 -0.013177759
0.00144072 -0.004244681 0.01441575 0.002260885 0.0023375207 0.0031038804 0.0016305497 0.002978158

action_model._discrete_distribution.branches.0.bias f4 [3]
00000000: 0000 0000 0000 0000 0000 0000
0.0 0.0 0.0

action_model._discrete_distribution.branches.1.weight f4 [3, 128]
00000000: 17b3 8e3b e863 e93b e24b ba3a 5259 893b
00000010: 9336 33bb b8ae 28bb bc14 2c3c 0390 38bc
00000020: ef3d 4dbb 6a1b 02bc 536d 743c ab06 863c
00000030: a7cc 0b3a 1b59 2c3a e896 6cbb 8452 87bc
00000040: 2fda bc3b 3c66 063c a54c 17bc e2a2 553b
00000050: 87a9 01bc eb65 963b d7e1 8ab9 79a8 1cbc
00000060: b894 4fbc 63ef 9fbb 3db7 b9bb 6524 0dbc
00000070: 6b56 1cbb 1007 02b9 97ed 483c 4041 e53a
00000080: ac93 3d3c 80d3 6bbc 5876 923b c881 833c
00000090: ac62 3b3b 2294 98bb 6f0c 01bc 87d3 0e3c
000000a0: 729c 24bb 1550 f0bb 43a3 d13b 06ec 883c
000000b0: 48c0 753c 2782 ea3a 17b5 be3b 0481 c03b
000000c0: 080a dbbb 35a4 463c 81ec 2bbb c223 fc3b
000000d0: 48f3 f03b 9312 c73c 6301 9539 a90b 39bc
000000e0: 3ab6 353c 91e6 a9bb 31a3 403c a795 963b
000000f0: c79c 993b 3b9a 97bb 2a2f 03bc 3b8f 023c
00000100: 4b98 9dba 88bc 653b c232 553c 88cd e3ba
00000110: 6f88 34b9 fca3 28bc cf08 4bbb 0a41 0f3c
00000120: 2503 663b d3c8 0abc d2af 95bb d035 52bb
00000130: e3ac bdbb 4cfd b3bb 936c f93b 32ca 983b
00000140: d301 443c 1be2 ae3b 9dca e6ba 57fa 16bc
00000150: af61 0ebc db42 50bb 37d1 fcbb 4232 02bc
00000160: 7fc5 eeba 4f4b 74bc 78fb e6bb 1b70 bf3b
00000170: 00de d03b 0ed4 bdbb 8de7 513c 33c3 e9bb
00000180: bac7 93bb a74b 21bc d429 18bc ad47 d6bb
00000190: ba7c 1b3c 75a9 533b cd4b f3ba f6ff a8bb
000001a0: 5be1 5a3c 3f5c 91bb abea 3dbc 25af 4ebc
000001b0: cf62 823a 3fe6 623c bbc0 e33b b3f3 a4bc
000001c0: 0dd2 68bb 66f0 b2bb 93d4 22bc 23c8 8d3c
000001d0: 4bb1 993c d12a bfba 826e 22bc fd8d 0d3b
000001e0: 9fa0 4fbc 0bcd 893c e199 ab3b d759 bcbb
000001f0: 93ac 79bc 6255 7ebb 9313 df3a de27 893b
00000200: 00c8 3bbb 076e c23b 5f54 0d3b b9df 323c
00000210: 3afb e23a ed31 a13b 60f4 323b 622e 5a3c
00000220: 6025 293c cb60 14bc 8431 073c cbc2 a539
00000230: e5e0 e1bb 8f96 653b 9fdc 0c3c d7a5 2d3b
00000240: 7fb7 c43b 00cd 3e3b b03e 4f3c 9fc6 cdba
00000250: fb49 493c 2d57 58bc e1f1 ca3a 479c 78bc
00000260: 4bcf 1c3b 9be2 2bbb efc8 b23b 28eb f3bb
00000270: 4ff9 003c 87b3 5c3b 9b1a a5ba 4ff6 06bb
00000280: b320 723a 921a bf3b 4c43 82ba d080 2e3c
00000290: af21 1dbc 0356 9cba 2683 8abc 1fbb ec3b
000002a0: 7549 9a3a 1a1a d5bb bbed 163b ef61 313c
000002b0: 8e12 86bc 3bbc edbb 7abe 323c 67b0 c2bb
000002c0: c3a5 9c3a d3c6 123c 0744 dbba 3e3c ab3b
000002d0: 87b9 12bc 7734 5d3b d8ee 12b9 d9f7 023b
000002e0: fbcb 99b9 8ddd b6bb 50dc 81ba fde4 2e3c
000002f0: a71e 0fba 4054 323c 2bcb c6bb 6bfd adbc
00000300: 27bd cdbb 3909 82bc 1f90 28bb e340 33bb
00000310: 6bec a93b a203 ecbb fbac 403a fbfe 2a3c
00000320: 09a2 92bc 0b14 083a bbb3 363b 12ec 0dbb
00000330: b3dc 353c c0af 52ba 1f86 91b8 32b4 a5ba
00000340: f84e 3cbc 7f87 e23b 3849 4739 f58d 6c3a
00000350: 4e13 b6bb b850 e2bb 7f70 ce3c 236d 953c
00000360: 9d44 173b bc8c 0e3c 7cf1 1abc d61b b3bb
00000370: 2f72 d73b 5a68 4dba 032d 7c3b b6b7 413c
00000380: aa41 693c 43dc cfba 4861 a3bb bf04 873b
00000390: eb76 87bb e380 5e3c ed71 a33c 3555 563b
000003a0: 9ab7 9b3b d36f 50bb 6cb1 06bc 7850 a5bb
000003b0: ee04 c2ba b422 a73a af08 ecba f255 0c3b
000003c0: 78cd 663b 2d52 493c 0c12 80bb c5ad 19bc
000003d0: 233a 093c 9981 31bc c77c a63b cbb9 70bb
000003e0: 7738 3fbb 02a0 bf3b bb8d 883b 7aa8 c5bb
000003f0: aa66 bc3a 7b63 5ebc c200 953c ff19 8f3b
0.0043548453 0.0071225055 0.0014213289 0.004191556 -0.0027345761 -0.0025738906 0.01050299 -0.011264804
-0.0031317433 -0.007941106 0.014918643 0.016360601 0.0005332925 0.0006574557 -0.003610069 -0.016518839
0.005763314 0.0082030855 -0.009234582 0.0032598306 -0.007913954 0.0045897863 -0.00026489675 -0.009561651
-0.012669735 -0.004880832 -0.0056675957 -0.008614634 -0.002385522 -0.00012400397 0.012263677 0.001749076
0.011570852 -0.014393687 0.004469674 0.016053095 0.0028592749 -0.0046563307 -0.0078765 0.008717424
-0.0025117663 -0.0073337653 0.006397636 0.016714107 0.014999457 0.0017891572 0.0058199274 0.005874755
-0.0066845454 0.012124111 -0.0026233497 0.0076946924 0.00735322 0.024300849 0.00028420528 -0.011294284
0.0110908095 -0.0051849564 0.011757658 0.0045954767 0.004687879 -0.00462654 -0.00800685 0.007968719
-0.0012023536 0.0035055 0.01301259 -0.0017379979 -0.00017216963 -0.010293003 -0.0030980592 0.008743534
0.003509709 -0.008470732 -0.0045680786 -0.0032075532 -0.005788432 -0.005492842 0.00761182 0.0046627754
0.011963326 0.0053370125 -0.0017607991 -0.009214959 -0.008690282 -0.003177813 -0.00771537 -0.007946553
-0.0018216817 -0.014910533 -0.0070490204 0.0058422214 0.0063741207 -0.005793101 0.012811554 -0.0071338653
-0.0045098932 -0.009844697 -0.009287316 -0.006539306 0.009490186 0.003229705 -0.0018562019 -0.005157466
0.013359393 -0.0044360454 -0.011591594 -0.012615 0.000994766 0.01384884 0.0069504655 -0.020135736
-0.003552559 -0.0054607866 -0.009938377 0.017307347 0.018761298 -0.0014584904 -0.009914042 0.0021599524
-0.012672572 0.016821405 0.0052368497 -0.0057480144 -0.015238899 -0.0038808216 0.0017019383 0.0041856607
-0.0028653145 0.0059335264 0.0021565182 0.010917597 0.0017317303 0.0049192817 0.0027306303 0.013316723
0.010323852 -0.00905628 0.008251552 0.00031616385 -0.0068932646 0.0035032367 0.008597522 0.0026496553
0.0060033198 0.0029113889 0.012649223 -0.0015699452 0.012285705 -0.013204378 0.0015483462 -0.015173978
0.0023927267 -0.0026227597 0.005456082 -0.0074438043 0.00787194 0.0033676343 -0.001259643 -0.0020593589
0.000923644 0.005832025 -0.0009938269 0.0106508285 -0.00959055 -0.0011927489 -0.01690824 0.007224455
0.001177116 -0.0065033557 0.0023029882 0.010826572 -0.01636627 -0.007255105 0.010909671 -0.005941439
0.0011951256 0.008958536 -0.0016728648 0.0052256873 -0.008955366 0.0033753195 -0.00014012621 0.0019984154
-0.0002933441 -0.00558061 -0.0009907577 0.010674712 -0.00054595846 0.010884345 -0.0060667 -0.021239003
-0.006278652 -0.015873538 -0.0025720668 -0.0027351908 0.005185654 -0.0072025815 0.0007349995 0.010436769
-0.01789953 0.0005190975 0.0027878124 -0.0021655601 0.011099982 -0.0008037053 -6.939121e-05 -0.0012642203
-0.011493437 0.006913125 0.00019005395 0.0009023839 -0.0055565005 -0.006906595 0.025200127 0.018240517
0.0023081668 0.008700546 -0.009456988 -0.005465965 0.006574891 -0.0007835679 0.0038478978 0.011823585
0.014236847 -0.001585849 -0.004985962 0.004120439 -0.004134049 0.013580534 0.019951785 0.0032704596
0.0047521116 -0.0031804934 -0.008221012 -0.005044993 -0.0014802495 0.0012751431 -0.0018007959 0.0021413532
0.0035217684 0.012287659 -0.0039084014 -0.009379809 0.008375677 -0.010834121 0.0050807926 -0.0036731835
-0.0029177943 0.005847932 0.004167286 -0.006032047 0.0014373858 -0.013573523 0.018188838 0.0043671126

action_model._discrete_distribution.branches.1.bias f4 [3]
00000000: 0000 0000 0000 0000 0000 0000
0.0 0.0 0.0

network_body._body_endoder.seq_layers.0.weight f4 [128, 138]
00000000: dab6 34bd 2407 bdbd a72e 17bd 71e5 33be
00000010: d409 763d a747 7b3d afe4 893d 285c 60bc
00000020: 7a14 83bd 9857 27bc abe5 e6bb cc4d a5bd
00000030: 4687 8abd 4e2f 85bd 7282 323d 117c b8bb
00000040: e363 f2bd 3d66 a6bd 4ca7 63bc f9f2 683d
00000050: d48d 7fbc fbaf db3d 9d06 bd3c b299 08bd
00000060: 7f4d ee3d ff37 9d3d 69d3 7a38 46ab 10bc
00000070: 9e26 9dbb 9a50 61bd 99e2 3b3e 40a2 2e3c
00000080: 93cf e8bc 68e4 d4bb 9976 ff3c 5bbc 623d
00000090: 01b9 e6bd a697 efbc bc4f 4b3d 5ac9 063e
000000a0: 4f9a 76bd 95c3 f63d 4c18 6b3d e857 2dbd
000000b0: 654c b03d 332f d13d 4667 87bd bcf9 eebc
000000c0: 6a54 413d cfbb a0bd 4cfb 80bd 7941 1b3d
000000d0: 76eb e93c ece8 043d 1312 113c 5559 0bbe
000000e0: 9877 ffbb aebf 12bc 56c8 aabb 5a0d 8c3b
000000f0: 0666 5c3d 2a47 a23c 5452 86bd 278d c23d
00000100: 35da a2bd b946 d6bd 7bdd ab3c a8a6 b7bd
00000110: 6649 23be e376 033e a033 573d 6499 df3b
00000120: f7c5 8a3c f6dd 8dbd ea14 8a3d bf38 d8bc
00000130: 83f6 963d 4a23 7abd 2a14 42bd 4c2c e63c
00000140: ef28 953d 8978 123e df5b 23bc b86a 8ebc
00000150: 943b 5c3d 4071 753d 0a06 f9bd 8415 33bd
00000160: 86a9 1b3d 9d05 cb3c 2b9a 84bd dad8 353e
00000170: a321 f8bc 0458 e23d 8fc7 fd3d f1b5 903d
00000180: f910 13be ea00 7bbc 58e8 8abd 270d 213d
00000190: f3b8 47bb d7e5 10bc 9cdd 98bb af3a 953c
000001a0: 4280 d63c 2372 2bbc 16cc febc d93c 243d
000001b0: 9b9b 3f3d 0346 813c d036 a7bd 7642 afbd
000001c0: 1052 62bc d46e 68bd cf2e 973d 22cb 19be
000001d0: 5fca 9e3d f42d 34be 8a1f 693c 7bd3 a2bd
000001e0: 7a89 ad3d 6640 6ebd 5a90 f43d ce0e 013e
000001f0: 12f2 e0bd 14eb 9fbd 92d8 c1bd 3b46 053d
00000200: 7d90 753d 0ab6 103d 3339 a0bd d144 3a3e
00000210: c807 ba3d 8bd9 943d a598 83bc e32a b03d
00000220: aee7 48bd c1ae eabd 3c2a 033e a9af 95bb
00000230: 7f40 29be 3e72 f03d 103c c1bb 0dd6 abbd
00000240: 7d01 eb3d c99a 153c 6adc f6bd ad22 4b3d
00000250: 853c 81ba cb45 1c3d b045 523b 3211 423d
00000260: 23d9 fc3c 2d34 b03d 13f6 a9bc c190 03bd
00000270: 7ec0 603d 65ba 513c 49ec a8bd cba4 283c
00000280: c62f 20bd 5251 81bd f787 88bd dfd1 aa3d
00000290: d9a8 113c 4773 a03d e252 adbd 6d46 b8bd
000002a0: 5b47 213d 0c0e c0bd 3bf1 2f3d a52b ffbc
000002b0: fd6b 2d3e b0c0 843d a987 f73c a553 2c3b
000002c0: f3b7 f33d b2c8 0a3a a1b2 423d 99b1 06bd
000002d0: 612b 90bd 2fc2 b3bd e1d6 22be 6d9b da3c
000002e0: 2a75 b63c e54d a2bd 62bf 2e3c 7b3f 4abd
000002f0: 7f1e d1bb d2a5 bdbd c988 68bd c0d6 54bd
00000300: a077 f53c ee04 a73c ae60 eb3c 062f 273e
00000310: 11b1 343e 805b 0c3d 2ef4 08bc dd35 7b3d
00000320: 79c5 d83c dc32 47bc 41c9 97bd 64fc ebbc
00000330: 7fe1 fabc 053d b43d 114c 22bc ce3e d13c
00000340: 84be 60bd 044b 723d 87d6 673d 894f 903d
00000350: 0ce4 473d 8a5d dbbd a775 243d 91de b4bb
00000360: b36f a4bd f00d aabd 63c6 24bd d283 8c3d
00000370: 7b8a 4dbd 29b1 093e c4c9 6bbd 9d22 21bc
00000380: 06ec 2cbc 2b03 163e f5f7 c0bd 2f17 873d
00000390: 9ad1 24be f79f 9e3c e45c bfbb 28d5 1cbe
000003a0: d4f9 df3d 936f 853c 954a fabd c3f7 b8bd
000003b0: 0b96 3c3d cbe6 c03d eb9d 3a3d 1b48 8bb8
000003c0: be3d 013d 853a 83bc 7a09 0f3e 19a8 c53d
000003d0: 756f 033d 9a7d 573d 9b4d bdbd e26a ad3c
000003e0: 137f 00bd 2d35 c03c d085 e5bd bb18 32be
000003f0: f523 883c f620 74bd b7a7 133d 36b0 9fbd
-0.044119693 -0.092298776 -0.036909726 -0.17567994 0.060067967 0.06134763 0.06733071 -0.013693847
-0.0640039 -0.010213755 -0.0070464215 -0.08071479 -0.067640826 -0.06503163 0.043581434 -0.0056300242
-0.11835458 -0.08124969 -0.013894867 0.05687234 -0.015597779 0.10726925 0.023074443 -0.0333497
0.11635875 0.07676696 5.9801536e-05 -0.008829897 -0.0047958633 -0.05500851 0.18348159 0.010658801
-0.028419292 -0.0064969547 0.031184481 0.05535541 -0.112657554 -0.029247116 0.049636588 0.13162747
-0.060205754 0.12049023 0.05739622 -0.042320162 0.08608321 0.10214081 -0.06611495 -0.029171817
0.047199644 -0.07848322 -0.06297931 0.037904236 0.02855466 0.032448694 0.008854407 -0.13608296
-0.007796239 -0.008956833 -0.00521187 0.0042740526 0.053808235 0.019809324 -0.065586716 0.09499579
-0.07951776 -0.10462708 0.020979634 -0.08967334 -0.15945968 0.1283832 0.052539468 0.0068237055
0.0169401 -0.06927101 0.0674227 -0.026394246 0.07371237 -0.06106881 -0.04738251 0.028097294
0.07283198 0.14303793 -0.009970634 -0.017384872 0.053767756 0.059922457 -0.12159355 -0.04372169
0.038003467 0.02478295 -0.06474718 0.17758504 -0.030289477 0.11051944 0.123915784 0.070659526
-0.14361943 -0.015320042 -0.06782597 0.039319184 -0.0030475229 -0.008843861 -0.00466509 0.01821646
0.026184205 -0.010464224 -0.031103175 0.04009709 0.046779256 0.015780455 -0.081647515 -0.08557598
-0.013813511 -0.05674632 0.07381975 -0.15018895 0.07753443 -0.17595655 0.014228711 -0.07950493
0.08473487 -0.058166884 0.119415954 0.12603304 -0.10983671 -0.078085095 -0.09465136 0.03253768
0.059952248 0.035329856 -0.0782341 0.18190314 0.090835154 0.072680555 -0.016063998 0.0860193
-0.049049072 -0.11459113 0.1280908 -0.0045680595 -0.1652851 0.1174054 -0.0058970526 -0.08390436
0.11474893 0.009131142 -0.120537594 0.049593616 -0.0009859955 0.038152497 0.0032084994 0.04737968
0.030865258 0.08603702 -0.02074722 -0.03212047 0.054871075 0.012800788 -0.08248193 0.010293196
-0.03910806 -0.06314339 -0.06666558 0.08340811 0.008890354 0.078344874 -0.08463074 -0.08997808
0.03937469 -0.09377679 0.042954665 -0.031148741 0.16935726 0.06482065 0.030216055 0.0026294973
0.1190032 0.0005294188 0.047533635 -0.032884214 -0.07039524 -0.08777272 -0.15902282 0.02668544
0.022272665 -0.079250135 0.010665746 -0.049376946 -0.0063818092 -0.09260143 -0.056771073 -0.051962614
0.029964268 0.020388093 0.028732624 0.16326532 0.1764567 0.03426695 -0.008358998 0.061330665
0.02646135 -0.012158122 -0.07411433 -0.028806873 -0.030625103 0.08800701 -0.009905831 0.025542643
-0.05486919 0.05915357 0.056601074 0.0704642 0.048801467 -0.107112005 0.040151265 -0.005519696
-0.080291174 -0.083034396 -0.04022826 0.0686108 -0.050180893 0.13446487 -0.057565466 -0.009834913
-0.010554319 0.14649646 -0.09422294 0.06596219 -0.16095582 0.019363387 -0.005839931 -0.15315688
0.10936323 0.016288554 -0.12221257 -0.09031632 0.04604153 0.0941902 0.04556076 -6.641467e-05
0.031553023 -0.016019115 0.13968459 0.09651203 0.032088716 0.052610017 -0.09243318 0.02116913
-0.031371187 0.023462856 -0.11207163 -0.17392246 0.016618708 -0.059601746 0.036048617 -0.077972814

network_body._body_endoder.seq_layers.0.bias f4 [128]
00000000: 0000 0000 0000 0000 0000 0000 0000 0000
00000010: 0000 0000 0000 0000 0000 0000 0000 0000
00000020: 0000 0000 0000 0000 0000 0000 0000 0000
00000030: 0000 0000 0000 0000 0000 0000 0000 0000
00000040: 0000 0000 0000 0000 0000 0000 0000 0000
00000050: 0000 0000 0000 0000 0000 0000 0000 0000
00000060: 0000 0000 0000 0000 0000 0000 0000 0000
00000070: 0000 0000 0000 0000 0000 0000 0000 0000
00000080: 0000 0000 0000 0000 0000 0000 0000 0000
00000090: 0000 0000 0000 0000 0000 0000 0000 0000
000000a0: 0000 0000 0000 0000 0000 0000 0000 0000
000000b0: 0000 0000 0000 0000 0000 0000 0000 0000
000000c0: 0000 0000 0000 0000 0000 0000 0000 0000
000000d0: 0000 0000 0000 0000 0000 0000 0000 0000
000000e0: 0000 0000 0000 0000 0000 0000 0000 0000
000000f0: 0000 0000 0000 0000 0000 0000 0000 0000
00000100: 0000 0000 0000 0000 0000 0000 0000 0000
00000110: 0000 0000 0000 0000 0000 0000 0000 0000
00000120: 0000 0000 0000 0000 0000 0000 0000 0000
00000130: 0000 0000 0000 0000 0000 0000 0000 0000
00000140: 0000 0000 0000 0000 0000 0000 0000 0000
00000150: 0000 0000 0000 0000 0000 0000 0000 0000
00000160: 0000 0000 0000 0000 0000 0000 0000 0000
00000170: 0000 0000 0000 0000 0000 0000 0000 0000
00000180: 0000 0000 0000 0000 0000 0000 0000 0000
00000190: 0000 0000 0000 0000 0000 0000 0000 0000
000001a0: 0000 0000 0000 0000 0000 0000 0000 0000
000001b0: 0000 0000 0000 0000 0000 0000 0000 0000
000001c0: 0000 0000 0000 0000 0000 0000 0000 0000
000001d0: 0000 0000 0000 0000 0000 0000 0000 0000
000001e0: 0000 0000 0000 0000 0000 0000 0000 0000
000001f0: 0000 0000 0000 0000 0000 0000 0000 0000
0.0 0.0 0.0 0.0 0.0 0.0 0.0 0.0
0.0 0.0 0.0 0.0 0.0 0.0 0.0 0.0
0.0 0.0 0.0 0.0 0.0 0.0 0.0 0.0
0.0 0.0 0.0 0.0 0.0 0.0 0.0 0.0
0.0 0.0 0.0 0.0 0.0 0.0 0.0 0.0
0.0 0.0 0.0 0.0 0.0 0.0 0.0 0.0
0.0 0.0 0.0 0.0 0.0 0.0 0.0 0.0
0.0 0.0 0.0 0.0 0.0 0.0 0.0 0.0
0.0 0.0 0.0 0.0 0.0 0.0 0.0 0.0
0.0 0.0 0.0 0.0 0.0 0.0 0.0 0.0
0.0 0.0 0.0 0.0 0.0 0.0 0.0 0.0
0.0 0.0 0.0 0.0 0.0 0.0 0.0 0.0
0.0 0.0 0.0 0.0 0.0 0.0 0.0 0.0
0.0 0.0 0.0 0.0 0.0 0.0 0.0 0.0
0.0 0.0 0.0 0.0 0.0 0.0 0.0 0.0
0.0 0.0 0.0 0.0 0.0 0.0 0.0 0.0

network_body._body_endoder.seq_layers.2.weight f4 [128, 128]
00000000: dc73 a23d fa18 86bc b16c d0bc e306 42bd
00000010: eb5a 06be c209 bdbd b8ed d5bd c285 ea3b
00000020: 65a7 363d 8aa3 f53d b880 87bd 8978 24be
00000030: 5a3a 543d f77d e0bc c7e7 fabd d0c4 b1bd
00000040: d7d4 f73d 0cf3 9f3d 1264 bf3d 8814 d03c
00000050: 83de ed3d e589 813d 75ba 593d e97b 76bd
00000060: dadb 083b 5f14 e8bd 4afa e8bc 5860 c63d
00000070: cf49 583c 5618 d53c 4425 b4bb dc88 3abd
00000080: 24bd 82bc d722 0e3d b316 b83d de65 843c
00000090: 0abf 953d fbb3 92bd c32a 21bd dff1 1a3c
000000a0: 226e 073e a1f3 08bd 4684 4b3c f527 5d3e
000000b0: 3cdc 6abd 9c8b a73c ba8e 9f3d d1d7 1d3e
000000c0: 1e4a 313d 5e1f c63d 4828 833d 90d0 593d
000000d0: 6ad2 0cbe af02 a7bc 62ff e33d ba7e 3cbd
000000e0: 950f aabd c1df 6cbc 0818 343d aa41 4ebd
000000f0: 81b3 583d d4bb ef3c 45e3 4b3c 9254 313d
00000100: e9c9 a1bd d22a 86bd 9758 f03d 3523 e0bd
00000110: 9f34 95bd d29f c23d 2de2 373e 5047 4ebd
00000120: 861e fcbc dfd3 40bd cd16 6abb 538f b03d
00000130: 1881 9c3b d94d 28bd dcb3 05bd 3d62 b3bd
00000140: d3f4 a6bd ece1 cd3d 506a 033d ef76 f7bd
00000150: 9050 07bd 5928 843d 3d1c a03d c32b fe3c
00000160: 4b1a c0bd 972e b2bd e65f 473d 3012 d43d
00000170: 21ea adbd cdb7 9ebd 0c05 b23c 024f 59bd
00000180: 0962 053d 62f1 1bbd 484b 213d 594e 073e
00000190: 6124 61bc 3c85 8b3c db18 843c 78d9 dc3c
000001a0: e802 48be 54bb dabb 9ca0 86bd b727 2a3e
000001b0: 7276 2b3d 2405 353e 0201 413d e366 073e
000001c0: aaf7 abbd 07a3 f6bd 1c8b 6fbe 2ad4 dcb9
000001d0: bebe cbbd fde7 eabd 0d76 23bd 5171 febd
000001e0: 1555 f93c 285b 9abd d69e edbd 8ec8 24be
000001f0: 9a90 ecbb de60 ba3d 8141 9c3d 7051 8b3d
00000200: 849d ff3d 1607 c83d dccf 153c e85b 49bd
00000210: 5347 f93c 9989 d9bc 8bc7 183d bc32 c93d
00000220: 19ec 56bd 1d29 0e3d 080e d9bc e8da e03d
00000230: eb48 183d cafc f2bd 15db f03c 2562 14bc
00000240: 237f a33c 6e56 b13c 4048 04bd 3777 abbd
00000250: 5bfd febc e3db 0b3e 25c3 afbd c628 453e
00000260: e9d4 5e3b 74e4 32be 68bf 91bd bc8d d53c
00000270: 627b b43d 967e 103e 0a4c a03d 66a0 acbd
00000280: 0ac5 06bd 4761 dc3a 1549 843d 09f0 a03d
00000290: 527a 073d 9b2b a7bd 9d38 00bd 7e31 f4bd
000002a0: b1ae fcbd 0a33 e3bc 49ca d7bc 059f 94bd
000002b0: 11ce e1bc 013e f9bd 9578 423e 0aa8 113c
000002c0: fe98 80bd 7d5f b93d ce4e 74bd 0ef2 07be
000002d0: 9710 89bc 2057 2fbe bf54 ca3d 9fea 353e
000002e0: 5c70 77bd 9f19 193d 7f3a f8bd edc4 643e
000002f0: d95e b8bd 6ca8 ec3b 74e9 9fba 63d2 b73c
00000300: 616b 45bd a593 8a3d af21 a73d b54e a1bd
00000310: 000b d0bd 1356 373d 7776 523d c38e 9d3d
00000320: 1da3 c2bd 2cf2 f13d 51e0 2dbe 96a6 adbd
00000330: 8f21 ee3c a3bf 0cbe 7ad5 873d 716d 2bbc
00000340: 2855 85bd 0078 3cbe 17e2 bfbd 5225 c23c
00000350: 3181 f4bc 9dcf 5a3d 5cb7 9f3d 3814 833c
00000360: 01bb 373e 5149 d5bb 7658 4fbd fbad 563d
00000370: 9b43 dc3b 27a3 043e b731 9abd 8c13 ffbc
00000380: 9324 e73c a9b2 4fbd 030a 32bd e42c bb3c
00000390: d8e4 e63d 5dde 1d3d 93df cabd 79b2 893d
000003a0: b029 06bd 71b0 76bd dab4 8dbd 3dcc 01be
000003b0: 693b 2dbd 752c 9abd affe 6d3d 0aed c9bd
000003c0: 24a2 a43d 6726 e63d dffa 57bd 65f8 4b3d
000003d0: 687e 76bd 7759 923d 95b7 62be 7e6d af3d
000003e0: 27d1 293d e3c9 afbd a6f2 aa3d 28d8 87bb
000003f0: b3f5 58bc aaaf 6c3d 6d31 6ebd c01c 273c
0.07932255 -0.016369332 -0.025442453 -0.04736985 -0.1312062 -0.09230377 -0.10445732 0.0071570585
0.044593234 0.11994083 -0.06616348 -0.16061606 0.05181346 -0.027403815 -0.12251239 -0.08680117
0.12101143 0.078100294 0.09345259 0.025400415 0.11614706 0.063251294 0.053156335 -0.060176764
0.0020882995 -0.113320105 -0.02843966 0.09686345 0.013201191 0.02601258 -0.0054976065 -0.045540676
-0.01595933 0.034701195 0.089887045 0.016161855 0.073118284 -0.07163235 -0.03934742 0.009457081
0.13225606 -0.033435468 0.012421673 0.21597274 -0.057338938 0.020452313 0.07790895 0.15414359
0.043283574 0.096739516 0.064041674 0.053177416 -0.13752142 -0.020387022 0.11132695 -0.046019293
-0.08303753 -0.014457644 0.04396823 -0.05035559 0.052905563 0.029264368 0.012444322 0.043293543
-0.078998394 -0.06551136 0.11735647 -0.10944215 -0.07285427 0.095031396 0.17957373 -0.050360978
-0.030776273 -0.047077056 -0.0035719157 0.08621087 0.0047761314 -0.041089866 -0.03264223 -0.08758972
-0.08152165 0.10052857 0.03208381 -0.12083232 -0.033035815 0.06453008 0.07817886 0.031026727
-0.09380015 -0.087002926 0.04867544 0.103550315 -0.08491922 -0.07749901 0.021730922 -0.053053863
0.032564197 -0.038071997 0.039378434 0.13213481 -0.013741584 0.017031305 0.016125133 0.026959166
-0.19532359 -0.0066751633 -0.065736026 0.16616713 0.041861005 0.17677742 0.0471201 0.13222842
-0.083968475 -0.12042814 -0.2339291 -0.00042119744 -0.099484906 -0.114700295 -0.039907504 -0.12423957
0.030436078 -0.07536918 -0.11602561 -0.1609213 -0.0072193863 0.09100507 0.076296814 0.06802642
0.124812156 0.097669765 0.009143796 -0.049159914 0.030429518 -0.02655487 0.037299674 0.0982413
-0.052471254 0.034707177 -0.026495948 0.10979253 0.037178915 -0.11864622 0.029401341 -0.009056603
0.019958084 0.021647658 -0.032295465 -0.08372348 -0.031126669 0.13658099 -0.08582143 0.19253835
0.0034001416 -0.1746996 -0.07116586 0.02606856 0.08812596 0.14110789 0.07827003 -0.08429031
-0.032902755 0.0016813659 0.06459252 0.07858283 0.033075638 -0.08162614 -0.03130399 -0.119235024
-0.12338007 -0.027734298 -0.026341574 -0.07256893 -0.02756408 -0.121700294 0.18991311 0.008890161
-0.06279181 0.09051416 -0.059645467 -0.1327593 -0.016731543 -0.1712308 0.09879445 0.17765282
-0.06040989 0.03737795 -0.12120532 0.22340746 -0.09002466 0.007222226 -0.0012200312 0.022439187
-0.048198108 0.06766442 0.081607215 -0.0787634 -0.10158348 0.04475982 0.051382508 0.07693245
-0.09503768 0.11813769 -0.16980101 -0.08479039 0.029068736 -0.13744979 0.06632514 -0.010463105
-0.06510383 -0.18405151 -0.09369295 0.023699436 -0.02984676 0.05342065 0.07798645 0.016000852
0.1794243 -0.006508984 -0.050621472 0.052412014 0.0067219264 0.12952863 -0.075290136 -0.03113725
0.028215682 -0.050707493 -0.04346658 0.022848554 0.11274117 0.03854214 -0.09905925 0.06723494
-0.0327546 -0.06022686 -0.0691926 -0.12675567 -0.042292986 -0.07528011 0.058104213 -0.09859665
0.08038738 0.112377934 -0.052729484 0.049797434 -0.060179144 0.0714597 -0.22140343 0.08565806
0.04145923 -0.08583429 0.08347063 -0.004145641 -0.013242173 0.057784714 -0.058152605 0.010199726

network_body._body_endoder.seq_layers.2.bias f4 [128]
00000000: 0000 0000 0000 0000 0000 0000 0000 0000
00000010: 0000 0000 0000 0000 0000 0000 0000 0000
00000020: 0000 0000 0000 0000 0000 0000 0000 0000
00000030: 0000 0000 0000 0000 0000 0000 0000 0000
00000040: 0000 0000 0000 0000 0000 0000 0000 0000
00000050: 0000 0000 0000 0000 0000 0000 0000 0000
00000060: 0000 0000 0000 0000 0000 0000 0000 0000
00000070: 0000 0000 0000 0000 0000 0000 0000 0000
00000080: 0000 0000 0000 0000 0000 0000 0000 0000
00000090: 0000 0000 0000 0000 0000 0000 0000 0000
000000a0: 0000 0000 0000 0000 0000 0000 0000 0000
000000b0: 0000 0000 0000 0000 0000 0000 0000 0000
000000c0: 0000 0000 0000 0000 0000 0000 0000 0000
000000d0: 0000 0000 0000 0000 0000 0000 0000 0000
000000e0: 0000 0000 0000 0000 0000 0000 0000 0000
000000f0: 0000 0000 0000 0000 0000 0000 0000 0000
00000100: 0000 0000 0000 0000 0000 0000 0000 0000
00000110: 0000 0000 0000 0000 0000 0000 0000 0000
00000120: 0000 0000 0000 0000 0000 0000 0000 0000
00000130: 0000 0000 0000 0000 0000 0000 0000 0000
00000140: 0000 0000 0000 0000 0000 0000 0000 0000
00000150: 0000 0000 0000 0000 0000 0000 0000 0000
00000160: 0000 0000 0000 0000 0000 0000 0000 0000
00000170: 0000 0000 0000 0000 0000 0000 0000 0000
00000180: 0000 0000 0000 0000 0000 0000 0000 0000
00000190: 0000 0000 0000 0000 0000 0000 0000 0000
000001a0: 0000 0000 0000 0000 0000 0000 0000 0000
000001b0: 0000 0000 0000 0000 0000 0000 0000 0000
000001c0: 0000 0000 0000 0000 0000 0000 0000 0000
000001d0: 0000 0000 0000 0000 0000 0000 0000 0000
000001e0: 0000 0000 0000 0000 0000 0000 0000 0000
000001f0: 0000 0000 0000 0000 0000 0000 0000 0000
0.0 0.0 0.0 0.0 0.0 0.0 0.0 0.0
0.0 0.0 0.0 0.0 0.0 0.0 0.0 0.0
0.0 0.0 0.0 0.0 0.0 0.0 0.0 0.0
0.0 0.0 0.0 0.0 0.0 0.0 0.0 0.0
0.0 0.0 0.0 0.0 0.0 0.0 0.0 0.0
0.0 0.0 0.0 0.0 0.0 0.0 0.0 0.0
0.0 0.0 0.0 0.0 0.0 0.0 0.0 0.0
0.0 0.0 0.0 0.0 0.0 0.0 0.0 0.0
0.0 0.0 0.0 0.0 0.0 0.0 0.0 0.0
0.0 0.0 0.0 0.0 0.0 0.0 0.0 0.0
0.0 0.0 0.0 0.0 0.0 0.0 0.0 0.0
0.0 0.0 0.0 0.0 0.0 0.0 0.0 0.0
0.0 0.0 0.0 0.0 0.0 0.0 0.0 0.0
0.0 0.0 0.0 0.0 0.0 0.0 0.0 0.0
0.0 0.0 0.0 0.0 0.0 0.0 0.0 0.0
0.0 0.0 0.0 0.0 0.0 0.0 0.0 0.0

value_heads.value_heads.extrinsic.weight f4 [1, 128]
00000000: 27ea 87bd ca0c c83d 02e6 a3bd 58ff 45be
00000010: e364 193e ef8c 433e cebb c5bd 7fd7 7fbd
00000020: cbf0 b23d 58d0 8a3c 4b00 07be 7ba8 0e3e
00000030: 7f48 31bd 8328 a3bc 854c 4b3e 69e2 18be
00000040: 18d9 45be c1c4 453d 30c0 d23b 5fbf ff3c
00000050: bcd0 ddbd f439 593e e5a8 4a3e 2b85 503e
00000060: 5cdc 5bbe 9678 8f3d 2d27 2dbe 8bec 24be
00000070: b2a3 bf3d e844 01be 2d84 c9bd 6808 3b3e
00000080: 1cc7 f9ba 3d1b bbbc fde1 193e af2e 5c3e
00000090: 9244 173e f896 0ebe 4118 483e e3b7 21be
000000a0: f4fb 0dbe 7b38 5d3b aeb0 79ba e684 463e
000000b0: e19f b73d adb0 fbbd 5849 dbbd 69cc d3bd
000000c0: fd08 85bc 1c8d 533e 4fac 1d3e cceb 7a3d
000000d0: ba8d d93d 9ca3 1fbe 48f2 ab3d 1e1e 50be
000000e0: 2a86 083d f7e1 0c3e b635 89bd 1d73 bbbd
000000f0: 0ec5 333e d47c 0cbe 27aa e73d 2035 cf3d
00000100: d1ec 21be 36c6 4abd 92e3 243e cb66 273c
00000110: 519d 22be 9ba9 e9bd 510d 483d e654 f43d
00000120: 1911 2ebe d5e6 dd3d 86e7 593e 8bc5 4cbe
00000130: 0de7 8fbd 88cf 8cbd 2618 c63d 6d5f 9fbd
00000140: e449 cbbd 1799 7fbc 0d5e 83bc dab2 563d
00000150: 3eff 0fbd b5e0 1d3e d25c 0fbe 0b48 fbbd
00000160: f358 e3bd 0e7d 40be 2667 383e 96cf 4abe
00000170: 4ec7 11bd 7ac0 33bd b9dd b9bc 4d95 3c3d
00000180: 7e33 f0bd 556d c2bd cc32 67bd 8dc0 aa3d
00000190: fdab d93d 5be4 f23d e11d 25be 1305 5cbd
000001a0: d2b1 523d 49f1 b6bc f081 dbbd e4b6 c13d
000001b0: d8eb db3d b971 533e 8b45 29be 5ed4 993d
000001c0: d2fe c83d 1455 f33d 9347 47be dde6 5b3e
000001d0: bf75 293d f2c9 273d 9f14 39be c657 a03d
000001e0: fdd3 843d f7fa a53d 5ad6 483e f97e cd3d
000001f0: bc04 0ebe 5b07 423e 602b 28be 0cd4 1e3e
-0.06636458 0.09768064 -0.08002855 -0.19335687 0.14979891 0.1909673 -0.096549615 -0.062461372
0.08737334 0.01694505 -0.13183706 0.13931458 -0.04328203 -0.019916778 0.19853409 -0.14930119
-0.19321096 0.048283342 0.006431602 0.031219183 -0.108308285 0.21213514 0.1979099 0.203633
-0.21470779 0.07005422 -0.16909476 -0.16105859 0.09357394 -0.12623942 -0.09839664 0.18264925
-0.0019056532 -0.022840137 0.15027614 0.21502183 0.14772251 -0.13924778 0.19540502 -0.15792803
-0.13865644 0.0033755589 -0.00095249235 0.19386634 0.08966041 -0.122895576 -0.107073486 -0.103417225
-0.016239638 0.20659298 0.15397762 0.06126003 0.10622735 -0.15589756 0.08395821 -0.20323989
0.033331074 0.13758074 -0.06699698 -0.091528155 0.17555639 -0.13719493 0.11311751 0.10117555
-0.15812995 -0.049505435 0.16102436 0.010217379 -0.15880324 -0.11409303 0.048840825 0.119302556
-0.1699871 0.10835043 0.21279725 -0.19997232 -0.07026491 -0.06875521 0.09672575 -0.07781873
-0.09926203 -0.015600464 -0.016036058 0.05241666 -0.035155527 0.1541775 -0.14000252 -0.122696005
-0.1110095 -0.18797705 0.18008098 -0.1980575 -0.035590462 -0.04388473 -0.022688733 0.04604082
-0.11728571 -0.0949351 -0.056444928 0.083375074 0.10628507 0.118599616 -0.16124679 -0.053715777
0.051439114 -0.02233185 -0.10718143 0.09458712 0.10738343 0.2064885 -0.16530435 0.07511209
0.09814228 0.11881462 -0.19460897 0.21474786 0.041372057 0.040964074 -0.18074273 0.078292415
0.06485746 0.08104508 0.19613019 0.10033984 -0.13868994 0.18948118 -0.16422796 0.15510577
