Results/test27/SnowBall/SnowBall-502.pt (torch, 287319 bytes, 14 tensors)

discrete_act_size_vector f4 [1, 2]
00000000: 0000 4040 0000 4040
3.0 3.0

network_body._body_endoder.seq_layers.0.weight f4 [128, 138]
00000000: 2c85 a4bd 7c2e b63d 1816 28bd 0e75 45bd
00000010: 811d e03c a2a7 a73d c0c5 68be 740c 7cbd
00000020: 0ad7 243e f358 24bd 20f4 32be 647f 8dbe
00000030: 62d8 cc3b 2499 983d 7dd0 4bbd 4bc3 803c
00000040: 0f70 003e 27ed 2ebe 1e4b 0c3e 8869 b63d
00000050: a949 883d 4201 f6bc 3dc5 c63d 0057 06bc
00000060: fb51 88bd d974 2a3d cd4c 243c 362e 95bd
00000070: 77b5 90bd 8559 7dbe 0c1e aabd 183f ca3c
00000080: edf9 6dbd 59e5 393e 70a7 933b 1ab5 133d
00000090: d88d c43c 16c5 6a3a 4afd 043e 44bd b13c
000000a0: edf3 6c3d 1a12 d9bd 7abc f33d 881c cabb
000000b0: 2dfb 3cbe 6c13 043d d831 a13d e962 a73d
000000c0: 04a8 3abe 762c 94bd 0461 853d d427 f13b
000000d0: 6952 e33d 8926 65bc 39f9 c43c cfbb 863d
000000e0: c9cb b6bd b10b d53d 434e 853d c0ae 813d
000000f0: a223 463d 3eeb c73c 0cf9 313d 6610 a93c
00000100: cb23 b0bd ac71 2bbc 4b34 10bd c409 7d3c
00000110: 2c89 b5bc 43e4 103e 3a9a c03c 4c8a 15bc
00000120: b8e2 8b3d 94f7 27be 101a 4a3b 93e2 ed3c
00000130: 642d 1d3d 3f62 893d 8aaa 3dbd b943 b73c
00000140: 093d 683d a324 12be a473 88bd 6522 c3bd
00000150: 6a47 423d 356f f03d 7367 dabd efc7 8b3d
00000160: d3e4 e5bd d0e2 c83d 5193 323e d4d9 f5bd
00000170: 0e80 43bd 0a10 e8bc 68b9 1dbe bf9c 953d
00000180: 8077 4c3b 91ef 01be a5b4 2bbc 8ff1 2abd
00000190: 27fc 2e3c ded6 fe3d 53ec 9abd 1399 813c
000001a0: 85ad b3bc fdc0 a0bd 1526 1e3d 072b c7bc
000001b0: 8a54 42bd 3e70 0a3e a589 15be 7ba2 833e
000001c0: d4b2 a63d 7e0f e1bd 773a 5f3d 76af 95bd
000001d0: 6ef4 7f3d 09f0 493d 6d21 9b3d 1471 263e
000001e0: 8ad8 d5bc c9f2 6cbd d2b7 74bd b70e ce3d
000001f0: 46d4 b63d 0a60 0abe b1d7 023e dd79 3ebd
00000200: 0395 80bd 5760 4d3d ec53 b63c 0d4b b6bd
00000210: ee0f 133e a7d4 4bbd 2814 09be 9254 b23c
00000220: 526a 19be 6718 59bc a676 4cbc 347d 163d
00000230: 3150 e4bd 9b59 003d 9e54 cfbc 074d 3bbd
00000240: 33de dc3d 55e4 69bd 2851 c33c a1a5 19bd
00000250: fd82 9bbc f883 74bd f845 863d bd03 04bd
00000260: 5f90 f7bd b41c 23be 35d4 e63d 8107 163e
00000270: 88ad 02be 7370 0d3e f489 0b3e 7b3f aabd
00000280: 4562 7cbc 7348 0f3e 9fa1 88bd ed15 2e3d
00000290: 85c1 0dbe 9ea9 42bc 290a 8fbd fee3 c93c
000002a0: 1629 353d a20a 5f3e e5b7 8fbd 4c3b 45be
000002b0: 1fd2 ae3d 3ae4 b03d 45b0 383d 3e68 3dbd
000002c0: e9c1 3b3d cf90 f3bd 0fa1 46be 5751 813e
000002d0: 280d e8bd 3ca0 7ebd 27dd 8b3c a829 ba3d
000002e0: d21f 8f3c 4ea3 a23c 3785 f43c a83e 403c
000002f0: 25e9 023d a880 a4bd 8bf8 123d 8e40 0abe
00000300: e57b ae3c a9a2 37bd ecb6 d13c 02ee 1d3e
00000310: eb6b 603c 4826 f83d fcf8 32bc 244f 84bc
00000320: 2556 573c 9807 bf3d 0254 9abd b49d 0abe
00000330: aa62 6a3d e585 32bd 9845 f4bc d615 bcbd
00000340: 8e97 7ebd c18d 2d3d 3ed8 d9bc 17be a1bd
00000350: 9182 a4bc dc20 183d bc04 603e 602f 20bc
00000360: b45a 943c 22c8 0a3e 2236 233d eef6 fabd
00000370: f5b2 14bd 6f44 da3d 4fb5 d73b 6e49 113e
00000380: e9a5 54be 50bf 3d3d 885a 18be 5a87 edbd
00000390: 5474 36be 6595 ddbc f8ed e53d fc6a 213e
000003a0: 6662 56bc 1254 01be 323d 94bd db00 31bc
000003b0: da02 3e3c d49e 253d 4d62 2c3c 2138 d5bc
000003c0: 9a6e 123d aa16 53be ddb3 bb3c 808e e73b
000003d0: c7b3 14bc cf92 1fbd 0d5d 5f3d 96fb ec3d
000003e0: ce03 35be dd49 07be 8f8c d1bd e3a8 e5bd
000003f0: 3a86 83bc ecc3 853b 219b fe3d c6d6 d13d
-0.08033213 0.08895585 -0.041036695 -0.048207335 0.027357819 0.0818627 -0.22731686 -0.061535314
0.16097656 -0.04012389 -0.17475939 -0.27636254 0.006251381 0.07451084 -0.049759377 0.015718123
0.12542747 -0.17082654 0.1370053 0.08906847 0.066546746 -0.030029897 0.09705589 -0.008199453
-0.066562615 0.04161534 0.010028076 -0.07284205 -0.07065862 -0.2474118 -0.08306512 0.024688289
-0.058099676 0.18153895 0.004506044 0.036061384 0.023993418 0.00089557597 0.12987247 0.021696694
0.057849813 -0.10599156 0.119011834 -0.006167952 -0.18455191 0.032245085 0.07870835 0.081731625
-0.18228155 -0.07235043 0.06512645 0.007359484 0.11099703 -0.013986238 0.02404462 0.065787904
-0.08925588 0.104026206 0.06509068 0.06332159 0.048373826 0.024404164 0.0434504 0.020637702
-0.08600577 -0.010464113 -0.03520612 0.015444223 -0.022160135 0.14149575 0.023511041 -0.009127211
0.068303525 -0.16403037 0.0030838288 0.029038703 0.038373366 0.06708192 -0.046305217 0.02237116
0.056698833 -0.14271788 -0.06662682 -0.095280446 0.047431387 0.11739961 -0.106642626 0.06825244
-0.112252854 0.09808886 0.17439009 -0.12004438 -0.047729544 -0.02832796 -0.15402758 0.073052876
0.0031199157 -0.12689044 -0.010480081 -0.041734274 0.010680235 0.124433264 -0.075646065 0.015820062
-0.021933326 -0.078493096 0.038610537 -0.02431251 -0.047443904 0.1351938 -0.14603288 0.257099
0.081395775 -0.10989283 0.054499116 -0.07308857 0.062488966 0.04930118 0.07574735 0.16254073
-0.02610423 -0.057848725 -0.059745617 0.100614004 0.08927207 -0.13513198 0.12777592 -0.046502937
-0.06278422 0.050140705 0.022256814 -0.089010336 0.14361545 -0.049763348 -0.13386595 0.021768842
-0.14981964 -0.013250447 -0.01247946 0.036740497 -0.11148108 0.031335454 -0.025308903 -0.045727756
0.10784569 -0.05710252 0.02384241 -0.03751147 -0.018983359 -0.059696168 0.06556314 -0.032230128
-0.120880835 -0.15928918 0.11270944 0.146513 -0.1276151 0.13812427 0.13626844 -0.08312889
-0.015404289 0.13992481 -0.06671452 0.04250138 -0.13843353 -0.01188126 -0.0698436 0.024644848
0.044228636 0.217814 -0.07017497 -0.19260901 0.08536171 0.08637281 0.04508998 -0.04624199
0.045839224 -0.118928544 -0.19397376 0.2525737 -0.11330634 -0.06216453 0.017073227 0.090899765
0.017471228 0.01985326 0.029848678 0.011733688 0.031960625 -0.08032352 0.03588156 -0.13501188
0.021299312 -0.04483286 0.02559992 0.15422824 0.013697605 0.121166766 -0.01092362 -0.016151018
0.013143097 0.0932762 -0.075355545 -0.13536721 0.057223 -0.043584723 -0.029818341 -0.091838524
-0.062156253 0.042371515 -0.02659237 -0.07897585 -0.02008179 0.037140712 0.21876806 -0.00977692
0.018109657 0.13552907 0.039846547 -0.12254129 -0.03630348 0.10657584 0.006582893 0.14188167
-0.20766415 0.046325028 -0.14878285 -0.11598082 -0.17817813 -0.027048776 0.112270296 0.15763468
-0.013084983 -0.12629727 -0.072382346 -0.010803427 0.01159736 0.040434673 0.010521484 -0.02602774
0.03575001 -0.20614114 0.022912914 0.007066548 -0.009076065 -0.038958367 0.0545321 0.11571424
-0.17677233 -0.1321177 -0.102318875 -0.11213853 -0.016055215 0.0040821936 0.12431932 0.10246043

network_body._body_endoder.seq_layers.0.bias f4 [128]
00000000: 0000 0000 0000 0000 0000 0000 0000 0000
00000010: 0000 0000 0000 0000 0000 0000 0000 0000
00000020: 0000 0000 0000 0000 0000 0000 0000 0000
00000030: 0000 0000 0000 0000 0000 0000 0000 0000
00000040: 0000 0000 0000 0000 0000 0000 0000 0000
00000050: 0000 0000 0000 0000 0000 0000 0000 0000
00000060: 0000 0000 0000 0000 0000 0000 0000 0000
00000070: 0000 0000 0000 0000 0000 0000 0000 0000
00000080: 0000 0000 0000 0000 0000 0000 0000 0000
00000090: 0000 0000 0000 0000 0000 0000 0000 0000
000000a0: 0000 0000 0000 0000 0000 0000 0000 0000
000000b0: 0000 0000 0000 0000 0000 0000 0000 0000
000000c0: 0000 0000 0000 0000 0000 0000 0000 0000
000000d0: 0000 0000 0000 0000 0000 0000 0000 0000
000000e0: 0000 0000 0000 0000 0000 0000 0000 0000
000000f0: 0000 0000 0000 0000 0000 0000 0000 0000
00000100: 0000 0000 0000 0000 0000 0000 0000 0000
00000110: 0000 0000 0000 0000 0000 0000 0000 0000
00000120: 0000 0000 0000 0000 0000 0000 0000 0000
00000130: 0000 0000 0000 0000 0000 0000 0000 0000
00000140: 0000 0000 0000 0000 0000 0000 0000 0000
00000150: 0000 0000 0000 0000 0000 0000 0000 0000
00000160: 0000 0000 0000 0000 0000 0000 0000 0000
00000170: 0000 0000 0000 0000 0000 0000 0000 0000
00000180: 0000 0000 0000 0000 0000 0000 0000 0000
00000190: 0000 0000 0000 0000 0000 0000 0000 0000
000001a0: 0000 0000 0000 0000 0000 0000 0000 0000
000001b0: 0000 0000 0000 0000 0000 0000 0000 0000
000001c0: 0000 0000 0000 0000 0000 0000 0000 0000
000001d0: 0000 0000 0000 0000 0000 0000 0000 0000
000001e0: 0000 0000 0000 0000 0000 0000 0000 0000
000001f0: 0000 0000 0000 0000 0000 0000 0000 0000
0.0 0.0 0.0 0.0 0.0 0.0 0.0 0.0
0.0 0.0 0.0 0.0 0.0 0.0 0.0 0.0
0.0 0.0 0.0 0.0 0.0 0.0 0.0 0.0
0.0 0.0 0.0 0.0 0.0 0.0 0.0 0.0
0.0 0.0 0.0 0.0 0.0 0.0 0.0 0.0
0.0 0.0 0.0 0.0 0.0 0.0 0.0 0.0
0.0 0.0 0.0 0.0 0.0 0.0 0.0 0.0
0.0 0.0 0.0 0.0 0.0 0.0 0.0 0.0
0.0 0.0 0.0 0.0 0.0 0.0 0.0 0.0
0.0 0.0 0.0 0.0 0.0 0.0 0.0 0.0
0.0 0.0 0.0 0.0 0.0 0.0 0.0 0.0
0.0 0.0 0.0 0.0 0.0 0.0 0.0 0.0
0.0 0.0 0.0 0.0 0.0 0.0 0.0 0.0
0.0 0.0 0.0 0.0 0.0 0.0 0.0 0.0
0.0 0.0 0.0 0.0 0.0 0.0 0.0 0.0
0.0 0.0 0.0 0.0 0.0 0.0 0.0 0.0

network_body._body_endoder.seq_layers.2.weight f4 [128, 128]
00000000: cd83 633d 55f4 a43c 4dce 28bb ca59 b53d
00000010: 6bbc 4d3d 91b5 383d 54a1 ea3d cd13 cebd
00000020: bb4c a0bd c228 5fbd eb48 113e b9dd 8abd
00000030: d7fc c8bd 0a9c 29bb 3ded 68bb e86f 1cbd
00000040: d065 26be e269 a6bd bef8 61bc e401 22bd
00000050: 5157 5dbd e8f4 e2bd e407 d6bd 4705 4bbd
00000060: 5baf 9bbd f392 eabd ce51 00be 94e1 fb3b
00000070: c5d6 88bd 9279 fdbd 9650 813d 73d0 d43b
00000080: 4c6f cb3d 2e14 793d ae8a ca3c 0225 f1bc
00000090: dd25 733d 9502 3bbe 0ad9 093e 3f7b 6fbd
000000a0: 317e 63bc 15e9 d8bd a3d1 9cbc 80bc cfbd
000000b0: 9bc6 1dbe 98b3 153d 3e54 8d3c 079e c73b
000000c0: d972 043d 6a2f b4bd 9580 353d 3885 bfbd
000000d0: 6186 09bd 1850 bd3c a5cd 45bc 04e3 a4bc
000000e0: 04a2 c8bd 535d e93d 16ae 8d3d f554 393e
000000f0: f2c8 9b3d 84dd 54bc 3fd9 40bb a6aa 87bd
00000100: 74a0 063e a205 0fbe ce82 d03c 3ef3 97bd
00000110: 6f14 703d 1adb 30be 6257 1d3d 693f 00bd
00000120: d80e f0bd 4840 0dbe bbef 123d 9de7 963d
00000130: 5132 b7bc d22a 75bd f542 c1bd 6192 e53b
00000140: c006 cc3b fca5 1f3d 79c1 94bc aa0d ecba
00000150: 356c eabc 9bd8 49be c337 453e a9ae 4ebd
00000160: 22ac cfbc 830d 81bc e0e2 4abd 2d09 a13d
00000170: 6de4 703d 41bd a23d 5f84 12bd 396c 003c
00000180: 108b 08be 98c6 acbd 8b09 12bd 45d3 893c
00000190: bf59 8fbd a329 37be f354 39bd d4ec 9c3d
000001a0: 45e3 adbd 04fe e0bc 9429 8ebd d115 48bd
000001b0: 8e14 2abe 50f1 8a3d 0ee6 1bbe f73e 5c3d
000001c0: a639 f7bd ecbb 02be 4c0b d0bd 0c91 d73b
000001d0: 6a6a 00be 4dd7 053d 081e acbd 58d8 453d
000001e0: 64f5 793e fca1 763b ee4e aebb 9b58 ea3d
000001f0: b1a1 41bd 99cd 96bd a323 78bd 17b4 f13d
00000200: 9a5a fa3d 0062 1fbd 1ee6 2dbe 90de 063e
00000210: c952 bf3c dd41 ee3c 9bbf 233d edc2 86bb
00000220: ac3c 563d f070 243e 5722 413d 0eb1 623e
00000230: 75cd 09bd 3257 77bd 58a1 603d 3648 6cbd
00000240: 3e73 8f3d 68f5 85be fe98 9bbc 9ed5 97bd
00000250: 03fe 21bc fb4b 76be b2db f0bd 3c56 95bd
00000260: 26da 31bd 6a39 093d 0160 12bd ca93 0fbc
00000270: 6553 94bd cdba bf3d 08d9 253d a97b 763d
00000280: e928 7d3e edac cb3d a76e 613d b654 13bc
00000290: 5c7f 673d f54f 043e 419f 5ebe 5758 3bbd
000002a0: 0912 0cbe 554b 323c 5acf bebc ad3c 3a3d
000002b0: 1356 1bbd 3e25 c0bc fb44 00be c750 0cbd
000002c0: ced4 1d3d 5e79 f63d af7c 023e e6e0 723d
000002d0: 26b1 f33c c707 233e ed1a 3a3d 409f 273e
000002e0: e8b9 89bd f6eb bc3d aca8 923d 4071 8fbd
000002f0: 2c2c 70bc ed1f 85bd 13e6 b03c fcc8 883d
00000300: a055 083d 10d3 2e3e e133 70bd 2624 0cbe
00000310: ee25 59bd 46d0 8a3b 48ca 41be 84d0 f73c
00000320: 64dd a93d 5ed9 af3d 7f2d 05be 85fb 89bd
00000330: deaf 123d e5ae 853c 8ef6 7d3d 7f7a 8fbd
00000340: aaa1 2f3d 2c2d bdbc 61eb 963d 7217 143e
00000350: 8289 5c3d efb4 87bc 4337 083c 3d1a 833d
00000360: a61e 72bd efad 7b3e e32f 3cbd 3191 05bd
00000370: df7a 29be 7e6b 28bc d2f1 ba3c b1ad 02bd
00000380: e1db 07be f424 2dbd 8c21 51bc 0949 853c
00000390: ecd9 35be 9cda 6ebd 6706 e13d b41f 4a3d
000003a0: 8ddd aabd 1ce4 b63c 0fa1 b5bd e736 d4bd
000003b0: 4ed1 89bd 2066 59bd 7662 c03d ca5d 103d
000003c0: fb90 24be 1d3f dfbd f18c 2b3e a57a 3a3d
000003d0: 914c 303e da62 e03c faba a73d df8b 31be
000003e0: efca efbd 2c19 d2bc e6c2 a6bd 220f abbd
000003f0: d680 febc 6891 333e dcea 89bd 15b1 843e
0.055545617 0.020136038 -0.002575773 0.088550165 0.050228518 0.04509503 0.11456552 -0.100623704
-0.07827135 -0.05448223 0.14187972 -0.067805715 -0.098138504 -0.002588036 -0.0035541796 -0.03819266
-0.16249776 -0.08125664 -0.013792215 -0.039552584 -0.05403835 -0.110818684 -0.10450724 -0.04956558
-0.07601806 -0.114538096 -0.12531206 0.007686803 -0.06681589 -0.12376703 0.06314199 0.0064945756
0.099333376 0.06081026 0.02472433 -0.029436592 0.05936228 -0.18262704 0.134617 -0.058467146
-0.013885067 -0.10591332 -0.019142931 -0.101433754 -0.15407793 0.036548227 0.017252084 0.0060918364
0.03233609 -0.08798106 0.04431208 -0.09351581 -0.03357542 0.02310948 -0.012072955 -0.02012778
-0.09796527 0.11394753 0.0691797 0.18098815 0.07606687 -0.012992267 -0.0029426364 -0.066243455
0.13147146 -0.13966992 0.025452998 -0.07419442 0.058613237 -0.1727108 0.038413413 -0.031310473
-0.11721581 -0.13794053 0.035873156 0.073683955 -0.02236286 -0.05985529 -0.09436599 0.007005975
0.0062263906 0.038976654 -0.018158661 -0.0018009443 -0.02861605 -0.19711535 0.19259553 -0.050459538
-0.025350634 -0.015753513 -0.04953277 0.07863078 0.058811594 0.079462536 -0.03577077 0.007838302
-0.13334298 -0.08436316 -0.035653632 0.016824374 -0.069995396 -0.17886977 -0.04524703 0.07662359
-0.08490614 -0.027464874 -0.06941524 -0.04884893 -0.16609403 0.06784308 -0.15224478 0.053770985
-0.120715424 -0.12766999 -0.10158405 0.00657857 -0.12540594 0.03267603 -0.084041655 0.048302025
0.24410015 0.0037633171 -0.0053194677 0.114426814 -0.04727334 -0.073634334 -0.06058086 0.118019275
0.12224312 -0.03891182 -0.16982314 0.13170838 0.023354905 0.02908414 0.03997765 -0.0041125924
0.052303955 0.16058707 0.04715189 0.22137854 -0.033643205 -0.06038589 0.05484137 -0.057686053
0.070044026 -0.26163793 -0.01899385 -0.07413791 -0.009887221 -0.24052422 -0.117606536 -0.072918385
-0.043420933 0.03350202 -0.035736088 -0.008763263 -0.07242469 0.09361801 0.04049018 0.060176525
0.24722637 0.09945092 0.055037167 -0.008992365 0.056517944 0.12921126 -0.21740438 -0.045738544
-0.13678755 0.010882218 -0.023292232 0.04546802 -0.037923884 -0.023455258 -0.12526314 -0.034256723
0.038533024 0.12034868 0.12742876 0.05929651 0.029747557 0.15920936 0.045435835 0.16369343
-0.06724912 0.092246935 0.07161078 -0.070040226 -0.014658969 -0.0650023 0.021594083 0.0667896
0.033284783 0.17072701 -0.058643226 -0.13685665 -0.05301469 0.004236254 -0.1892482 0.030250795
0.0829418 0.085863814 -0.13005637 -0.06737427 0.03581225 0.016318748 0.06200271 -0.07005786
0.042878784 -0.023092829 0.07369114 0.14462069 0.053842075 -0.016565768 0.008313957 0.06401489
-0.05911126 0.24578069 -0.045944106 -0.03260917 -0.16550778 -0.010279534 0.022820387 -0.031903926
-0.13267471 -0.04227157 -0.012764346 0.016270177 -0.17758912 -0.05831395 0.10987549 0.04934664
-0.08343039 0.022325568 -0.0886861 -0.10362034 -0.06729375 -0.05307591 0.0939378 0.035245694
-0.1607093 -0.1090071 0.16752984 0.04552712 0.17216708 0.027390886 0.0818996 -0.17338513
-0.117086284 -0.025646769 -0.08142643 -0.08352496 -0.031067293 0.17535937 -0.06734249 0.25916353

network_body._body_endoder.seq_layers.2.bias f4 [128]
00000000: 0000 0000 0000 0000 0000 0000 0000 0000
00000010: 0000 0000 0000 0000 0000 0000 0000 0000
00000020: 0000 0000 0000 0000 0000 0000 0000 0000
00000030: 0000 0000 0000 0000 0000 0000 0000 0000
00000040: 0000 0000 0000 0000 0000 0000 0000 0000
00000050: 0000 0000 0000 0000 0000 0000 0000 0000
00000060: 0000 0000 0000 0000 0000 0000 0000 0000
00000070: 0000 0000 0000 0000 0000 0000 0000 0000
00000080: 0000 0000 0000 0000 0000 0000 0000 0000
00000090: 0000 0000 0000 0000 0000 0000 0000 0000
000000a0: 0000 0000 0000 0000 0000 0000 0000 0000
000000b0: 0000 0000 0000 0000 0000 0000 0000 0000
000000c0: 0000 0000 0000 0000 0000 0000 0000 0000
000000d0: 0000 0000 0000 0000 0000 0000 0000 0000
000000e0: 0000 0000 0000 0000 0000 0000 0000 0000
000000f0: 0000 0000 0000 0000 0000 0000 0000 0000
00000100: 0000 0000 0000 0000 0000 0000 0000 0000
00000110: 0000 0000 0000 0000 0000 0000 0000 0000
00000120: 0000 0000 0000 0000 0000 0000 0000 0000
00000130: 0000 0000 0000 0000 0000 0000 0000 0000
00000140: 0000 0000 0000 0000 0000 0000 0000 0000
00000150: 0000 0000 0000 0000 0000 0000 0000 0000
00000160: 0000 0000 0000 0000 0000 0000 0000 0000
00000170: 0000 0000 0000 0000 0000 0000 0000 0000
00000180: 0000 0000 0000 0000 0000 0000 0000 0000
00000190: 0000 0000 0000 0000 0000 0000 0000 0000
000001a0: 0000 0000 0000 0000 0000 0000 0000 0000
000001b0: 0000 0000 0000 0000 0000 0000 0000 0000
000001c0: 0000 0000 0000 0000 0000 0000 0000 0000
000001d0: 0000 0000 0000 0000 0000 0000 0000 0000
000001e0: 0000 0000 0000 0000 0000 0000 0000 0000
000001f0: 0000 0000 0000 0000 0000 0000 0000 0000
0.0 0.0 0.0 0.0 0.0 0.0 0.0 0.0
0.0 0.0 0.0 0.0 0.0 0.0 0.0 0.0
0.0 0.0 0.0 0.0 0.0 0.0 0.0 0.0
0.0 0.0 0.0 0.0 0.0 0.0 0.0 0.0
0.0 0.0 0.0 0.0 0.0 0.0 0.0 0.0
0.0 0.0 0.0 0.0 0.0 0.0 0.0 0.0
0.0 0.0 0.0 0.0 0.0 0.0 0.0 0.0
0.0 0.0 0.0 0.0 0.0 0.0 0.0 0.0
0.0 0.0 0.0 0.0 0.0 0.0 0.0 0.0
0.0 0.0 0.0 0.0 0.0 0.0 0.0 0.0
0.0 0.0 0.0 0.0 0.0 0.0 0.0 0.0
0.0 0.0 0.0 0.0 0.0 0.0 0.0 0.0
0.0 0.0 0.0 0.0 0.0 0.0 0.0 0.0
0.0 0.0 0.0 0.0 0.0 0.0 0.0 0.0
0.0 0.0 0.0 0.0 0.0 0.0 0.0 0.0
0.0 0.0 0.0 0.0 0.0 0.0 0.0 0.0

action_model._discrete_distribution.branches.0.weight f4 [3, 128]
00000000: cd7d e03b 3d92 e6bb fe9a 32bc a4ed a5ba
00000010: 3328 b9ba 25d9 343b b38c 413b 72e2 fcb9
00000020: b27b d13b 8b71 1abc c896 063c ad9c 4e3c
00000030: e466 81ba 5aa4 56bc 9673 01bc 053f a6ba
00000040: 1dbe 5abb dfd9 dbbb e8d3 f93b c09f 1d3c
00000050: b7b2 4bbb a741 2e3b 83db 36bb 4332 443b
00000060: 5ae8 c0bb 248c 9fba 4c3f c23b 7e64 273b
00000070: 8a58 693a 59a9 0fbc c039 19bc d86f 68bb
00000080: defb 2f3a c51a 1aba 4bcd 0a3a f8ff ad3b
00000090: ed5e f83b 31b7 283c cf70 1a3c 8574 703c
000000a0: 838c 043c 83b7 9d3c 0858 7abb ebab 203c
000000b0: ac30 ca39 cc9b 293c 47f3 a0ba 9774 d4bc
000000c0: f8fc 4db8 98d7 4ebc c3fc bebb 0365 a03b
000000d0: 239d 86bb 7896 e73b 7440 a93b 7080 ea3a
000000e0: e9f9 ad3b e843 eaba bd4d 66bb fe3d 07bc
000000f0: fd8d 6bbc f501 5dbb 27bd e2bb e0d3 4bbb
00000100: 11f8 10ba 108b dbbb 6fde 8b3b 1f4b 9e3c
00000110: 3adc b73b 8d83 8abc 26d5 32bc 2406 abbc
00000120: d670 b13a dbe9 d83a 551a f83b 6f43 80bb
00000130: b5ec 4f3a ed2d 08bc f5c7 19bc 5e6f c3bb
00000140: ec94 c2bb b1c5 acbb af39 7d3b 9063 92bc
00000150: 536a 0f3c 2150 be3b f383 f1bb 7d85 463c
00000160: 47cc 023c 894a 0dbc c767 90bb 6be2 733c
00000170: 5831 0d3c c3d0 7a3b 7abe e239 4714 583b
00000180: d760 543c 029c b23b 47c2 2ebb e1f2 9a3b
00000190: 97db 26bb eba5 b23a ff3f ac3b cd88 da3a
000001a0: 939f bdbb 9673 0d3b b807 f43b ace4 353c
000001b0: 4fbe b9bc 2396 923b 57cf 153b 0dec a4b9
000001c0: f459 1439 ecce 40bc 9b1e b73a d391 95bb
000001d0: d048 d6bb c407 883b a69f bb3c 733e aeba
000001e0: e408 2b3c 079e f63a 23fd acbb 2f13 493c
000001f0: dec2 243c ad78 ffb9 44b6 b6bb f82d f4ba
00000200: ee12 16bc 94c1 05bc a20d cfbb 703b f5ba
00000210: 7863 ea3b 6fdb 693c 8aab e9bb 8546 763b
00000220: fd84 fd3a d273 fe3a 7fa8 603c 9077 36bb
00000230: 0d10 563b 9da2 2e3b 42a5 d0bb b255 b73b
00000240: c365 343b 52e9 993c 7d2e 9639 b560 71bc
00000250: cf0a 14ba f58a 34bb 5fad 823c 78bb ae3b
00000260: 605f 4d3c a749 503c 67c0 80bb 557f 363b
00000270: 5763 b8bc baab 29bc fc79 09bc a7d8 1eba
00000280: 431a bc3b c730 b83b 8ee8 05bc 78ec bcbb
00000290: d763 923c 3048 70bb 3248 603b d37f 083c
000002a0: 072c babb 6954 08bc 156a c73b 25c0 b73b
000002b0: 9182 0a3c 235b 2fbb feca 81bc aba9 c63a
000002c0: 1787 923a 74cb 3fbb 9d60 433c 7825 4abc
000002d0: 4de7 95ba d9a4 00bc 11ef 3dbc d7bc 483b
000002e0: bcfe 30bc 32ca 9dbc f31e 87bb 5aef 10bc
000002f0: fff1 23bb dfa1 4d3c 88df d23b 828d 443b
00000300: c882 3dbc 93b4 8938 e72d 0b3c 4934 31b9
00000310: 6104 a73a 0f57 433a a7f0 cdbb 6a4c 653b
00000320: 6a1d 4f3a ca0b febb 0b34 9e3c 52ec 29bb
00000330: 15ad c0bb 28e7 2dbc 237e 7cbb 0a92 fc3b
00000340: 779f 94bb 0a20 43bc 6ff6 103b 7b65 35bc
00000350: cff1 d23a 80a2 53bc 04cc 933b bb91 2e3c
00000360: e1b1 9db9 176a 10bb 7844 e23c 738e 263c
00000370: 37d3 6eb9 88bc da39 c98c 45bc 8f61 373c
00000380: d32f 9cbb 1bd5 9eba bf3b 6c3b 66a4 34bc
00000390: f7ee 3abc e250 ccbb 426f 4f3a 6324 1c3a
000003a0: fa4e 773c 996e 8bb7 cb1f 39bc 3a48 79bc
000003b0: 8232 373b 6b64 313b b8c1 e73b 8d56 88bb
000003c0: a335 e23b e355 153c 5a35 3a3b 7709 03bc
000003d0: 9660 ae3b 1fb3 69bc 6f2e 93bb 52fe 473a
000003e0: 6d58 b8bb afd9 4b3a 20d7 173b 5fa1 5e3b
000003f0: ad5f 713c fe2c 1a3c 38af 33bc 7d98 443c
0.006850934 -0.007036476 -0.010901211 -0.0012659323 -0.001412636 0.0027595249 0.0029533326 -0.000482339
0.0063929195 -0.009426485 0.00821466 0.012610597 -0.0009872583 -0.013100708 -0.007901093 -0.0012683576
-0.0033377477 -0.006709322 0.007624138 0.009620607 -0.0031081864 0.0026589425 -0.0027901835 0.0029937185
-0.0058870735 -0.0012172502 0.0059279557 0.0025542076 0.0008901438 -0.008768403 -0.009352148 -0.0035467055
0.00067132514 -0.0005878623 0.0005294873 0.005310055 0.0075796754 0.0102975825 0.00942631 0.014676218
0.008090141 0.019252544 -0.0038199443 0.009806613 0.00038564706 0.010352086 -0.0012279534 -0.0259345
-4.9111404e-05 -0.012624644 -0.0058284714 0.004894854 -0.0041080876 0.007067498 0.005165154 0.001789106
0.0053093326 -0.0017873021 -0.003514155 -0.008254526 -0.014377114 -0.003372309 -0.0069195214 -0.003110163
-0.0005530129 -0.006699927 0.0042684595 0.01932293 0.00561097 -0.016908431 -0.010915076 -0.020876952
0.0013537656 0.0016549187 0.0075714984 -0.0039142887 0.00079316954 -0.008311731 -0.009386052 -0.0059642037
-0.005938163 -0.00527259 0.0038639118 -0.01786974 0.008753377 0.005807892 -0.007370466 0.012116787
0.007983274 -0.008623728 -0.0044069025 0.014885525 0.0086177215 0.0038271404 0.00043247995 0.003297107
0.012962542 0.0054507265 -0.0026666091 0.0047286605 -0.0025460476 0.001362977 0.0052566524 0.001667285
-0.005786845 0.0021583787 0.007447209 0.011101883 -0.022673754 0.004473464 0.002285918 -0.0003145639
0.0001414789 -0.011768084 0.0013970913 -0.0045645027 -0.0065394416 0.0041513164 0.022903275 -0.0013293758
0.010439131 0.0018815406 -0.0052791997 0.01227264 0.010056226 -0.000487273 -0.005575927 -0.0018629422
-0.009159787 -0.008163828 -0.006318764 -0.001870973 0.007152971 0.014273508 -0.0071310448 0.0037578654
0.0019342002 0.0019413179 0.013712048 -0.002784226 0.0032663376 0.0026647218 -0.0063673565 0.0055949325
0.0027526475 0.018788014 0.00028644866 -0.014732529 -0.00056473626 -0.0027548645 0.01595181 0.0053324066
0.012534946 0.012712873 -0.003929186 0.0027846892 -0.022508306 -0.010355884 -0.0083909 -0.00060595054
0.0057404353 0.005621049 -0.008173121 -0.005765494 0.017869873 -0.003666412 0.003422272 0.008331257
-0.005681518 -0.008320906 0.006085644 0.005607622 0.008453981 -0.0026757203 -0.015843865 0.0015156766
0.0011179176 -0.0029265555 0.01192489 -0.012338035 -0.0011436731 -0.007851803 -0.011592642 0.0030630135
-0.010802921 -0.019261453 -0.0041235625 -0.008846128 -0.0025016067 0.0125508 0.0064353384 0.0029991572
-0.011566825 6.566304e-05 0.008494831 -0.00016899513 0.0012742394 0.00074516324 -0.0062847915 0.0034988173
0.00079008064 -0.00775287 0.019311925 -0.0025928211 -0.005880008 -0.010614194 -0.0038527332 0.007707839
-0.0045356113 -0.011909494 0.0022119542 -0.011071558 0.0016093793 -0.012917161 0.0045104045 0.010654862
-0.00030077904 -0.002203589 0.02762054 0.0101657985 -0.00022776132 0.00041720667 -0.012057492 0.011192693
-0.0047664433 -0.0012117954 0.0036046354 -0.011025524 -0.011409513 -0.006235228 0.0007913002 0.000595635
0.015094513 -1.6621592e-05 -0.011299084 -0.015214974 0.002795369 0.002706791 0.0070726536 -0.0041607083
0.0069033667 0.009114715 0.0028413148 -0.007997862 0.0053215725 -0.014263897 -0.0044916193 0.0007629144
-0.0056257755 0.0007776273 0.0023168996 0.0033970696 0.014732284 0.009410141 -0.010967068 0.011999247

action_model._discrete_distribution.branches.0.bias f4 [3]
00000000: 0000 0000 0000 0000 0000 0000
0.0 0.0 0.0

action_model._discrete_distribution.branches.1.weight f4 [3, 128]
00000000: bbd3 043c 32f7 18ba d0d0 5abb 6d4d 22bc
00000010: 82b6 48bc 47cc 35bc 06f6 86bb f784 133c
00000020: 7b52 4f3b 3736 30bc 62aa b43b 30e0 903b
00000030: d382 dabb a62d c2b9 9175 4b3a 0885 103b
00000040: 6212 57bc 9953 9a3c f3ac 36bc 6f36 393b
00000050: c03c 983c 1425 02bb 4285 f73b d258 b8ba
00000060: 7761 763c c8ac 8dbb da76 313b b5a1 cdb9
00000070: 78c3 3d39 53d3 eabb 96a3 2b3c 41b4 84bb
00000080: c227 4f3c ec5e 873c 10cf 293c 1bf2 babb
00000090: 0d5c d33b bdc9 113b 3308 cc3b a5b6 c63b
000000a0: badf e53b f05d 973c 0751 6c3c ed67 f83b
000000b0: af1d 8a3c 91bc 9bbb 8712 2b3c ff1c 50bb
000000c0: 8255 ec3b afa0 b0bb bcf3 c93b 8d50 b63b
000000d0: 67c7 ddbb ef4f 8e39 72fb 0f3c 3146 343b
000000e0: 43a0 353b 8dd5 44bb 8d97 6dbc 13f9 a93a
000000f0: 73dd 5f3b 8ae6 83bb 947e c43c 8ceb 9abc
00000100: c0e9 a5bb 671e c6ba 4e11 94bb 7dbe 0c3b
00000110: d7d5 dabb 1ac2 b73b c584 4938 8ff5 7cbb
00000120: bd82 583b 034f 37bc 3851 643b c758 2abb
00000130: 6fdb b53b d0b5 6a3b 6b83 38bc 1a0b fd3a
00000140: 6be4 b23b 7de4 5dba 6223 b93c e875 d43a
00000150: aeb2 a3bb 83b0 133c 2d96 7dbb 17d2 acbb
00000160: 1670 91bb beec 333b 7ac4 ca3b 4fcb 08ba
00000170: b7e9 513b a8fe 94bb 6094 7abb 42a3 053c
00000180: c01f d73b 5783 dd3a ff5c 203c e6e7 8f3b
00000190: f82a aabb 13e8 f8ba 2123 433c 5093 a03b
000001a0: 83c7 e33b bfda f1bb 27c0 013c f5c2 32bc
000001b0: 9654 14bc d0d9 573a f173 a63b ff27 30bb
000001c0: 0f69 13bb c94b 86bc 2f64 c33b 42f1 9a3b
000001d0: 4da6 c6bb 356d fa3b 9bb6 713c b68a c4bb
000001e0: 1aa3 073b a1b8 01bc 4b0f e4bb c866 9d3a
000001f0: 96ec b13b 92ad d7bb c299 6dbb f52d 5e3b
00000200: 0cd5 163c 2264 493c 3c74 87bc bb9c 81ba
00000210: 12ca 85bc 6553 59bb 9115 163c b6c1 b6bc
00000220: c5ec 3b3c 571c c83b e348 8ab8 86c1 2e3b
00000230: 3b81 a739 2784 343b f512 7a3b 54b3 48ba
00000240: 93ba d0bb db8a 0a3b f296 583c 92b0 d13b
00000250: 80e6 6ebb 9572 63bc 536c 093b 25c0 a4bc
00000260: 1b5e 583c 9cdc b53b 1aa0 553c 0809 c3bb
00000270: 00e6 003c 8097 a13b 9b39 763c b4d1 18ba
00000280: 5a24 f6bb 69a0 0d3c 1b46 2239 3f39 cebb
00000290: c631 33bb a02a 733b ae08 1c3b 929e 573c
000002a0: d70a d6ba bf16 b1bb ac7a be3a 9aac 64bb
000002b0: 17dd 01bb 18dd d2bb 2048 f9bb 42ec 773b
000002c0: b5bc 9e3b ad4d b43b 143b 8fbc 94be 00bc
000002d0: 0875 19bc 7e69 073b 78ea b338 17fb fd3b
000002e0: c7d4 faba cf39 b9bb 7833 fabb 6898 0dbc
000002f0: 5732 14bc 29d9 c1bb 6d47 51bb 4967 233c
00000300: 7c0e 00bc 8792 383c e782 acbb 39c1 28bb
00000310: 0b87 d23a 9f7a b53b 353a 423c 1cb9 c03b
00000320: bb5f 2d3b 0b67 973c 975f 063c 3d90 f13a
00000330: f5bb ac3b b79a 6ebc d32e 04bc 2f37 48bc
00000340: 5bfd 85bc cd36 2cbb 35f9 3a3c 66f3 26bb
00000350: b7a7 d8bb e469 3139 eab7 28bb 8d1d c1bb
00000360: 3a0a 723c e365 4dbc 600a 36bb 4d81 9f3b
00000370: f85e d43b 6f3a 03ba 9dc5 d43b 2acd e7ba
00000380: 867e 4cbb c28e 95bb cf66 3f3b 2b1a 9d3c
00000390: 274f 38bb 76ea 3bbc fa66 7cbc c533 f2bb
000003a0: 113d 89bc 1a0d 5cbb 6a36 eb3b d8fd 5ebc
000003b0: 78b6 c0bb ed86 4f3b 2c1e 2b3b 9424 11bb
000003c0: 6271 243c 46d1 aabc 22e4 d6bb 8249 5e3b
000003d0: 3b98 9dbb 0b45 463b bf74 6bbb b9bb a73b
000003e0: adef 973c 9aac 7cbc 0815 8f3b 196f c2bb
000003f0: aa9c c63b b72f 8dbc 4e9c 973c fd19 3f3b
0.008107121 -0.0005835175 -0.0033388622 -0.009906155 -0.0122505445 -0.011096067 -0.0041186837 0.009003869
0.0031634856 -0.010755113 0.0055134753 0.0044212565 -0.0066684275 -0.00037036574 0.0007761354 0.002205195
-0.013126941 0.01883869 -0.011149633 0.0028261205 0.018583655 -0.0019858526 0.0075537274 -0.0014064556
0.015037886 -0.0043235756 0.0027078898 -0.00039221128 0.00018097262 -0.007166305 0.010476014 -0.0040498083
0.012643756 0.016524754 0.010364309 -0.0057051308 0.0064501823 0.002224549 0.0062265634 0.0060642534
0.0070151957 0.01847741 0.014423615 0.0075807483 0.016859857 -0.0047527035 0.010441429 -0.0031755564
0.0072123418 -0.0053902487 0.0061630886 0.0055638016 -0.0067681554 0.00027143906 0.008787977 0.0027507658
0.0027713932 -0.0030034513 -0.014501465 0.0012967907 0.0034159094 -0.004025285 0.023986138 -0.018911146
-0.0050632656 -0.0015115262 -0.0045186644 0.0021475845 -0.0066783237 0.0056078555 4.8045786e-05 -0.0038598513
0.003303691 -0.011188271 0.003483845 -0.0025992857 0.00554984 0.0035813935 -0.011261801 0.0019305677
0.0054593585 -0.00084645284 0.02259988 0.0016209455 -0.0049956655 0.009014252 -0.0038694248 -0.005274068
-0.0044384105 0.0027454342 0.0061879726 -0.00052182836 0.0032030174 -0.004546959 -0.003823541 0.0081565995
0.006565064 0.0016900104 0.009787797 0.004391658 -0.0051931106 -0.0018990062 0.011910231 0.0049003735
0.006951274 -0.007380813 0.007919348 -0.010910739 -0.00905337 0.0008234056 0.0050797393 -0.0026879308
-0.002249304 -0.016393559 0.0059628705 0.004728467 -0.006062305 0.007642413 0.014753009 -0.005997981
0.0020696581 -0.007917554 -0.006959831 0.0012008781 0.0054298146 -0.0065819705 -0.0036254977 0.0033901904
0.009206068 0.01229194 -0.016534917 -0.0009888628 -0.016331706 -0.003316128 0.009160415 -0.022309165
0.0114700245 0.006106894 -6.593929e-05 0.0026665642 0.00031949006 0.002754459 0.0038158272 -0.00076561165
-0.0063698976 0.0021139893 0.013219582 0.0063992226 -0.0036453307 -0.013882299 0.0020969107 -0.020111153
0.01320603 0.0055499803 0.0130386595 -0.0059520043 0.007867336 0.0049313903 0.015028383 -0.0005829588
-0.0075116577 0.008644202 0.0001547564 -0.0062934454 -0.00273429 0.0037104264 0.0023808884 0.013160365
-0.0016330135 -0.005404323 0.0014532409 -0.0034892918 -0.0019815618 -0.006435048 -0.007607475 0.003783003
0.004844273 0.0055024237 -0.017484225 -0.007857937 -0.009366281 0.0020662243 8.579058e-05 0.0077508795
-0.0019136899 -0.0056526433 -0.00763553 -0.0086422935 -0.009045205 -0.00591578 -0.0031933442 0.009973356
-0.007815953 0.011265404 -0.005264628 -0.0025749935 0.0016061974 0.005538299 0.011854698 0.0058814418
0.0026454765 0.018481752 0.008201501 0.0018429827 0.0052714297 -0.014563254 -0.008067804 -0.012220188
-0.01635616 -0.002627778 0.011411955 -0.0025474667 -0.00661179 0.00016919483 -0.0025744387 -0.0058934153
0.014772946 -0.012536499 -0.002777718 0.004867709 0.0064810477 -0.00050059607 0.006493284 -0.0017685045
-0.0031203344 -0.004564137 0.0029205566 0.019177517 -0.002812335 -0.011469474 -0.015405411 -0.0073914253
-0.016752752 -0.0033577145 0.0071781175 -0.013610326 -0.005881127 0.0031666115 0.0026110513 -0.0022147046
0.010036798 -0.020851742 -0.0065579573 0.0033918326 -0.004809407 0.0030253555 -0.003592774 0.005118814
0.018546904 -0.015422011 0.004366521 -0.005933654 0.0060611563 -0.017234666 0.01850715 0.0029159777

action_model._discrete_distribution.branches.1.bias f4 [3]
00000000: 0000 0000 0000 0000 0000 0000
0.0 0.0 0.0

network_body._body_endoder.seq_layers.0.weight f4 [128, 138]
00000000: 8a2f 8f3d d256 963d f43f 9fbd 08cd 8f3a
00000010: 15df 9abd 3d88 aebd ee81 ffbd ea6e 933d
00000020: 999a dfbc 2191 66be 9d16 6b3b 16c6 7a3b
00000030: 1f9f 30be 46de f8ba 93d3 903d 9e52 323d
00000040: 9655 9bbc e89d 753d 7dee babd b099 2f3d
00000050: 76fa 563a 7ed5 43bc 2eec a9bd 2be6 063e
00000060: b3c1 8bbb 3a8b 19bd a691 0c3c d8bf 86bc
00000070: 5432 26be bf18 99bc 2094 e4bc c428 a1bd
00000080: 61ab 38be 0826 b43d 6f3c 8bbd 4544 5ebe
00000090: 065e 663e d712 2a3d 0798 9abd cb87 593c
000000a0: c37d eb3d 61b6 0c3d 4174 613d c7b2 9a3c
000000b0: a77a ecbb 6231 fc3d 29fb 0cbd 6b23 383e
000000c0: 3822 cbbb 8425 0abd f563 0a3d 5a2f 5a3d
000000d0: 85c2 3c3d e15a f63d af9c d43d b252 f7bd
000000e0: 1130 4dba ff33 c6bc a13f 023e c752 1d3d
000000f0: 6b15 4d3d 6741 7a3b 0bff 58bd 0210 94bc
00000100: 6713 a0bd cd8d ea3b 4c02 fc3d ef42 6dbd
00000110: e358 b53d c765 563d ec1c e9bc 9944 6ebd
00000120: 7a19 84bd 2082 3d3e 50a8 11be b060 0d3d
00000130: 6b17 80bd aa24 d0bd bc60 00bd 9b94 5b3e
00000140: b7ae 843d ab14 3abd 7f56 9f3c 3fa8 503d
00000150: b617 6b3e 1d61 3d3d 9c2c 983d 320a fe3c
00000160: fdfe cdbd cadd af3d bc83 ec3d 6903 bf3a
00000170: ad4b f53c a9a6 383e 7e6c f83d 14e1 3c3d
00000180: 25d7 923d 9753 633c 6128 8d3d b83b 25be
00000190: e3ed 34bd 9858 efbc 8bfd b7bc b813 d4bd
000001a0: 03b3 46bc 313e 813c 163a 98bd f4ba 48bc
000001b0: 28f1 943d f510 d1bb 3df4 d2bd 25f6 f03d
000001c0: 94c5 2c3e 87fa c63c 287b bd3c 94a1 b03c
000001d0: fe2d 043e 0919 17bd b78e 53bd 3519 8a3c
000001e0: e108 a8bd 504c 183e 18f8 98bd b6f0 8abd
000001f0: 5d55 d83c 9601 cb3d 9dbc 5b3d bdbb 1d3e
00000200: ea45 dd3b 6148 643d ce3d c6bd 6d1e 02be
00000210: db2b 4d3d 9641 1c3d 8482 613e 2a95 d53c
00000220: 546a 0e3e 3a44 cbbc 3c7c 2f3c 1595 133d
00000230: 6d73 a53d ca7a b23d bc1c 653e d796 7d3a
00000240: 88c8 f9bd 2cd5 a53d 139c fabb 684c 823d
00000250: d76b 033e 1260 24be 120d 7cbd b571 debc
00000260: ef52 823c 9501 e4bd 83a5 f93c b9c8 e03d
00000270: a97e 01be 618b 0bbd a014 94bd a7bc 113e
00000280: ef43 c63b 5601 6fbd 1d8a bf3c bc63 f2bd
00000290: 9cf4 68bd 792f 993d ae20 023d 8d4b a03d
000002a0: 8822 2cb9 eb01 a6bd fd6b bf3d fe59 843d
000002b0: 1c63 3c3d a593 71be 12fe 8f3c 5b91 13be
000002c0: 1adf 073e cd42 86bd a885 9b3d feae 0abe
000002d0: a706 a2bd 27b8 4a3e d0f9 c73c f4b8 4d3e
000002e0: a0ed 3dbd ed38 e83d 7dfa 26be 3bfc bc3d
000002f0: 8cc6 ebbd b21f d7bc 0aea 8a3c e4f8 c33d
00000300: 474f 373e 1c9b dfbd 6879 f93d b8eb 11be
00000310: 9393 803d 9fad 523d 511d 4abc 4361 873d
00000320: 54cf 41bd 9026 a2bd cd33 863d f618 a7bc
00000330: bafa 38be ce30 933c e291 6bbd 3449 f83d
00000340: 5b1b 14bd 3b01 96bd 0c6d 50bd 1934 453d
00000350: faf9 94bd 764a b33d 631e a63d 2da5 2abd
00000360: a37a 97bc ae0b bb3d 152a 0cbc c912 6abd
00000370: 9673 fe3b 3dd9 093b e762 353e 71e5 e13d
00000380: d64e c2bd d207 93bd 4f01 f2bc 77db 363e
00000390: d533 253e d5d9 77bd b4e6 773b 7742 abbd
000003a0: ac43 c8bb ec46 8abc 2968 f33d c980 9cbd
000003b0: 146d e3bc 9b36 31be 04d7 d2bd 1c5c 4fb8
000003c0: 0025 d03c 7bc7 a6bd cebe 403d 79cc efbd
000003d0: 26f1 e73d 6c73 cdbd f9e9 103d 9cd3 0e3e
000003e0: 3394 29bc a8ea 3e3d 7b65 db3c fcde d83c
000003f0: add9 61bc 5baa fdbb 9669 e2bd 3129 e5bd
0.06991489 0.073407784 -0.0777587 0.0010971138 -0.07562081 -0.08522079 -0.12475954 0.071988896
-0.027295398 -0.225163 0.0035871633 0.003826504 -0.172482 -0.0018987141 0.070716046 0.04353582
-0.018961709 0.059965044 -0.09127519 0.042871177 0.0008200774 -0.011952756 -0.08297001 0.1317374
-0.004265034 -0.037486292 0.008579647 -0.0164489 -0.16230136 -0.018688558 -0.027902663 -0.078691036
-0.18034126 0.087963164 -0.06798636 -0.2170573 0.22496805 0.041521873 -0.07548528 0.0132770045
0.114985965 0.034353618 0.05504251 0.018884076 -0.0072167697 0.123141065 -0.034419212 0.17982261
-0.0061991476 -0.033727184 0.033786733 0.053267814 0.046083946 0.120290525 0.103814475 -0.1207632
-0.0007827292 -0.024194716 0.12719585 0.03840902 0.050069254 0.0038185955 -0.052977603 -0.01807404
-0.07816201 0.0071580173 0.123051256 -0.05792516 0.088548444 0.052343156 -0.028456174 -0.05817089
-0.06450172 0.1850667 -0.14224362 0.034516037 -0.062544666 -0.10163243 -0.031342253 0.21443407
0.06478637 -0.045429867 0.019450424 0.050941702 0.22958264 0.046235193 0.074303836 0.03101072
-0.10058401 0.08587225 0.11548564 0.001457316 0.029943312 0.18032326 0.12130068 0.04611309
0.07169942 0.01387491 0.06892467 -0.16136062 -0.04417218 -0.02921705 -0.022459766 -0.103553236
-0.012127641 0.015776725 -0.07432954 -0.012251604 0.072725594 -0.0063801953 -0.10300491 0.11765698
0.16872245 0.024289383 0.023130015 0.021561421 0.1290817 -0.03688911 -0.051649775 0.016857723
-0.082048185 0.14872861 -0.07469195 -0.06784193 0.026407892 0.09912412 0.053646673 0.15403648
0.006752719 0.05573309 -0.09679757 -0.12706919 0.050090652 0.038148485 0.22022444 0.026072104
0.13907748 -0.024812806 0.010710772 0.036030848 0.08078656 0.087148264 0.22374243 0.0009673661
-0.121964514 0.080973 -0.007648 0.063622296 0.12834106 -0.16052273 -0.061535902 -0.02715383
0.015908686 -0.11133114 0.03047443 0.10975785 -0.12645973 -0.03406847 -0.072304964 0.14232121
0.006050579 -0.058350883 0.023381287 -0.11835429 -0.056873903 0.07479758 0.031769447 0.0782691
-0.00016416062 -0.081058346 0.09346769 0.06462477 0.045992956 -0.23591478 0.017577205 -0.14410917
0.132687 -0.0655571 0.07593852 -0.13543317 -0.07911425 0.19796811 0.024411112 0.20090085
-0.046369195 0.11338983 -0.16306491 0.09227797 -0.11512479 -0.02626023 0.016957302 0.095689565
0.17901336 -0.10918257 0.121813595 -0.14250076 0.062781475 0.05143511 -0.012336091 0.06610348
-0.047316864 -0.079175115 0.06552849 -0.020397644 -0.18064395 0.017967608 -0.05751217 0.121233374
-0.0361589 -0.073244534 -0.050885245 0.048145387 -0.07274242 0.08754437 0.081112646 -0.04166143
-0.018491095 0.09133087 -0.008554955 -0.05714682 0.0077652438 0.0021034025 0.1771351 0.110300906
-0.09487693 -0.07179226 -0.02954164 0.17857157 0.16133054 -0.060510475 0.0037826719 -0.083622865
-0.0061115827 -0.016879521 0.11885101 -0.07641751 -0.027761973 -0.17305987 -0.10294917 -4.943843e-05
0.025408268 -0.08143517 0.047056966 -0.11708922 0.11325292 -0.100317806 0.035379384 0.1394791
-0.010350275 0.046610504 0.026781788 0.026473515 -0.013784808 -0.007741255 -0.11055295 -0.11189497

network_body._body_endoder.seq_layers.0.bias f4 [128]
00000000: 0000 0000 0000 0000 0000 0000 0000 0000
00000010: 0000 0000 0000 0000 0000 0000 0000 0000
00000020: 0000 0000 0000 0000 0000 0000 0000 0000
00000030: 0000 0000 0000 0000 0000 0000 0000 0000
00000040: 0000 0000 0000 0000 0000 0000 0000 0000
00000050: 0000 0000 0000 0000 0000 0000 0000 0000
00000060: 0000 0000 0000 0000 0000 0000 0000 0000
00000070: 0000 0000 0000 0000 0000 0000 0000 0000
00000080: 0000 0000 0000 0000 0000 0000 0000 0000
00000090: 0000 0000 0000 0000 0000 0000 0000 0000
000000a0: 0000 0000 0000 0000 0000 0000 0000 0000
000000b0: 0000 0000 0000 0000 0000 0000 0000 0000
000000c0: 0000 0000 0000 0000 0000 0000 0000 0000
000000d0: 0000 0000 0000 0000 0000 0000 0000 0000
000000e0: 0000 0000 0000 0000 0000 0000 0000 0000
000000f0: 0000 0000 0000 0000 0000 0000 0000 0000
00000100: 0000 0000 0000 0000 0000 0000 0000 0000
00000110: 0000 0000 0000 0000 0000 0000 0000 0000
00000120: 0000 0000 0000 0000 0000 0000 0000 0000
00000130: 0000 0000 0000 0000 0000 0000 0000 0000
00000140: 0000 0000 0000 0000 0000 0000 0000 0000
00000150: 0000 0000 0000 0000 0000 0000 0000 0000
00000160: 0000 0000 0000 0000 0000 0000 0000 0000
00000170: 0000 0000 0000 0000 0000 0000 0000 0000
00000180: 0000 0000 0000 0000 0000 0000 0000 0000
00000190: 0000 0000 0000 0000 0000 0000 0000 0000
000001a0: 0000 0000 0000 0000 0000 0000 0000 0000
000001b0: 0000 0000 0000 0000 0000 0000 0000 0000
000001c0: 0000 0000 0000 0000 0000 0000 0000 0000
000001d0: 0000 0000 0000 0000 0000 0000 0000 0000
000001e0: 0000 0000 0000 0000 0000 0000 0000 0000
000001f0: 0000 0000 0000 0000 0000 0000 0000 0000
0.0 0.0 0.0 0.0 0.0 0.0 0.0 0.0
0.0 0.0 0.0 0.0 0.0 0.0 0.0 0.0
0.0 0.0 0.0 0.0 0.0 0.0 0.0 0.0
0.0 0.0 0.0 0.0 0.0 0.0 0.0 0.0
0.0 0.0 0.0 0.0 0.0 0.0 0.0 0.0
0.0 0.0 0.0 0.0 0.0 0.0 0.0 0.0
0.0 0.0 0.0 0.0 0.0 0.0 0.0 0.0
0.0 0.0 0.0 0.0 0.0 0.0 0.0 0.0
0.0 0.0 0.0 0.0 0.0 0.0 0.0 0.0
0.0 0.0 0.0 0.0 0.0 0.0 0.0 0.0
0.0 0.0 0.0 0.0 0.0 0.0 0.0 0.0
0.0 0.0 0.0 0.0 0.0 0.0 0.0 0.0
0.0 0.0 0.0 0.0 0.0 0.0 0.0 0.0
0.0 0.0 0.0 0.0 0.0 0.0 0.0 0.0
0.0 0.0 0.0 0.0 0.0 0.0 0.0 0.0
0.0 0.0 0.0 0.0 0.0 0.0 0.0 0.0

network_body._body_endoder.seq_layers.2.weight f4 [128, 128]
00000000: 058f bcbd 9c0c fb3d 8c96 91bd 8331 ffbd
00000010: f1f1 9ebc 0f26 d73d c122 e3bb af14 813d
00000020: e3c5 0ebe c126 853e 44ff 1ebd 80f8 6b3d
00000030: e293 4abc 7372 543d 98d6 87bd 30b3 e5b9
00000040: 3b15 e23c 6c61 74bd 4e72 81bd 9243 88bd
00000050: b997 0ebe 5f75 09be 670f 503b 3b46 b3bc
00000060: a443 82bb efef 533d 753e 933d dbcd 383e
00000070: a6c3 313c 9511 c43d b332 18be 3c2a 8dbd
00000080: 55bf e03c 2b40 943a bc5e 443e 5f93 e7bd
00000090: a0ff ca3c 1538 983d 12e5 183e 0ee3 8a3b
000000a0: 238a 1b3c 09a5 47bb db88 6cbd c7bb ec3b
000000b0: 9940 9b3d 3bd9 193d f258 dfbd 0138 8bbd
000000c0: 486f 4b3d cb0a 133e e0ee cdbd 1f3d 813c
000000d0: 78b5 563c e599 edbc 5abb c3bc 797d 28bd
000000e0: c327 e6bc 09fd e43c 8622 663d b2a9 023d
000000f0: 2a91 5b3d b9c1 483e 6eb1 823d 4a38 e93c
00000100: b234 623d 7093 e73c 23ea a73d fabd a7bb
00000110: cbea 1d3e 40f6 bb3d 1509 f5bc 3cc4 d23d
00000120: fa55 bcbd 8504 3b3e 716b 8e3d 3e75 ccbd
00000130: 73f8 333d 7436 bc3d ca56 02bd 7827 333d
00000140: 31b5 e53d 8907 b43b ec21 a93c 3787 803d
00000150: c0bc feba d15d 59ba d247 56be 730d b5bd
00000160: 9d48 24bd 7dd8 6a3d c231 0abc 3252 1fbc
00000170: a8a4 583d edb2 98bc 5c3a 763d c873 ea3c
00000180: dab4 f03d 5310 efbc b66c 443d e784 0f3d
00000190: 6f57 77bd 62f0 083e 6d51 6b3e 17dc 01bd
000001a0: 8b6a 4f3b ec10 84bd d2ef 393d 1e5e 963d
000001b0: a9e1 90bc e372 d53b 8cec a93d d9d1 3ebd
000001c0: 2e1d 063c e7d7 333e b56b 7b3b 6942 da3d
000001d0: 3b50 e83d eb8a 863b e817 0b3d 8a73 8abb
000001e0: 2f46 b33d 5bc3 0a3b 3729 ebbd 1fac 3a3c
000001f0: 382d 1f3c d2f3 2abd 81cd 2c3d 45ad e6bd
00000200: 7c9f 2f3d e85f d8bd 02cb 853c 8842 fbbd
00000210: 8333 16be 5519 55bd 796c 45bd 4993 f9bd
00000220: a70b 42bc 6d8f a6bc bf5b 2ebd 4f72 5f3d
00000230: a346 97bd 7b36 f1bd d79a bebc d79c 20bb
00000240: e5d6 aebd 13b6 4bbd 6285 5bbd 5f86 f53d
00000250: d2ba 963c 6f85 e73d 4264 96bd 9941 763d
00000260: faa1 1b3d 3381 d63d bc25 1dbe 7c44 6f3d
00000270: ffaf 993d ef7d 06bd 0642 013e 0c09 6d3e
00000280: 840a 67bd 311e 96bc c9fa 933d 8167 f33c
00000290: e524 99bd ff3d c13c d9ca 4dbc 9573 c3bc
000002a0: 704d 99bd 9e95 85ba e51e 893d 2cc7 93bd
000002b0: 8635 b53d 0e11 febc 5b7f d9bd d5f8 313e
000002c0: 297b 08be 50dd 423d b23d d3ba d7d3 b53d
000002d0: 3fa8 e0bd 7354 b53c 6fb9 a8bd 6406 393d
000002e0: 1df9 5f3d 5a27 6c3e 34ae 9e3d 2740 87bd
000002f0: 6421 063e afdd 653d bde3 5bbd 0c3b fe3c
00000300: e5c1 363e 7cfc 98bd 7987 cebc 6806 41bd
00000310: db64 11bd b08a 203d 96c2 dbbd c218 573d
00000320: 546b d7bd 55cb 793d 413a f63d 2316 153d
00000330: 65e7 5e3c d341 0a3d 2207 0ebd 660d 24ba
00000340: e7be e1bc eb34 503d 298b 373e 926a f53c
00000350: 10ab af3d 1bfd 2f3d 7384 733d 5d8a b2bd
00000360: 8cc7 2bbd 5dcc eabd 5bc3 2a3b 6946 c8bc
00000370: cef7 433c df4a b63d a4ce 443d a524 babd
00000380: e6a1 a3bd 0bcf c0bc 2528 a3bc bb05 9cbd
00000390: d033 023e 3c52 df3d d68f 97bc 8893 503d
000003a0: 1287 0f3b 152b a1bc 3ad8 aabc 9615 32bd
000003b0: 5dc8 9cbc a80f bb3c fc4f 8d3d 22de 423d
000003c0: 81d3 17be 8049 dfbc 45d0 2f3e 13f5 96bd
000003d0: 1615 cebd c03b 4ebe 64f6 a8bd 346a b83c
000003e0: 36c1 50bd 14c0 f5bb ba38 1c3e 66be 303e
000003f0: 1c57 cfbb 73b9 bbbd 9a0c 19be 84b7 61bd
-0.09206966 0.122582644 -0.07108793 -0.124606155 -0.019402476 0.10505306 -0.006931633 0.06302773
-0.13942675 0.2600613 -0.03881766 0.057610035 -0.01236436 0.05186696 -0.066327274 -0.0004381179
0.027598014 -0.05966322 -0.0632063 -0.06653513 -0.13925065 -0.1342368 0.0031747462 -0.021884074
-0.0039753485 0.05174249 0.07189647 0.18047278 0.010849869 0.09573666 -0.1486309 -0.06892821
0.027434984 0.0011310627 0.19176763 -0.11307406 0.024780095 0.07432572 0.14931133 0.004238493
0.009493384 -0.003046336 -0.057747703 0.0072245332 0.075806804 0.037560683 -0.10905637 -0.06797791
0.049666673 0.14359586 -0.100553274 0.015776215 0.013104789 -0.029004047 -0.023893047 -0.041135285
-0.028095132 0.027952688 0.056185268 0.031900115 0.053605236 0.1960515 0.06381498 0.028469224
0.055226035 0.028268546 0.08198955 -0.0051190825 0.15421598 0.09177828 -0.029911557 0.10291335
-0.09196086 0.18263443 0.069540866 -0.099833 0.04393811 0.091900736 -0.03182105 0.043738812
0.112162 0.0054940623 0.020646058 0.0627579 -0.0019434914 -0.0008291873 -0.20925835 -0.08840456
-0.040108312 0.057335366 -0.008434715 -0.009724187 0.052891403 -0.018640006 0.06011425 0.028619662
0.11753245 -0.029182589 0.047955237 0.035038855 -0.060386118 0.13372949 0.2298028 -0.031704035
0.0031649198 -0.0644854 0.045394726 0.0734217 -0.017685728 0.0065139397 0.08297071 -0.046586845
0.008185668 0.17562829 0.003836376 0.10657198 0.11343428 0.004105916 0.033958346 -0.004225199
0.08753621 0.002117357 -0.114824705 0.011393576 0.009715371 -0.04173643 0.04218817 -0.11263517
0.042876706 -0.10565168 0.016332153 -0.12268549 -0.14668088 -0.05202611 -0.04819915 -0.121862955
-0.011843598 -0.020332063 -0.042567965 0.054552373 -0.0738652 -0.117779694 -0.023267193 -0.0024507546
-0.08537082 -0.049734186 -0.053594 0.1198852 0.01839963 0.11304747 -0.073433414 0.060121153
0.03799627 0.104738615 -0.15346426 0.05841492 0.07504272 -0.032834943 0.12622842 0.23147982
-0.056406513 -0.018324943 0.07225568 0.02971244 -0.0747774 0.023589132 -0.01256057 -0.023858825
-0.07485473 -0.0010191684 0.06695346 -0.072157234 0.088480994 -0.031013992 -0.10619994 0.17380078
-0.13328232 0.04757434 -0.0016116409 0.08878296 -0.109695904 0.022134995 -0.08238494 0.04517211
0.054680932 0.23061886 0.0774807 -0.06604033 0.13098675 0.056119617 -0.053683985 0.031034015
0.17847402 -0.074700326 -0.025211083 -0.04712525 -0.035496574 0.039194763 -0.10730474 0.052513845
-0.10518518 0.06098493 0.1202283 0.036398064 0.013604973 0.03375418 -0.03467477 -0.00062581
-0.02755685 0.050831717 0.17924179 0.029958043 0.085775495 0.04296599 0.059452485 -0.08717797
-0.04193835 -0.114647605 0.0026056382 -0.024447637 0.011960937 0.08900999 0.04804863 -0.09089021
-0.07989864 -0.023536226 -0.019916603 -0.076182805 0.12715077 0.10904357 -0.018501204 0.050921947
0.0021900577 -0.019673863 -0.020855058 -0.043477617 -0.01913851 0.022834614 0.069000214 0.047575124
-0.14826776 -0.027256727 0.17169292 -0.07370963 -0.100626156 -0.2013998 -0.0825012 0.02251158
-0.05096551 -0.007499704 0.15256014 0.17260131 -0.006327523 -0.09166231 -0.14946213 -0.055106655

network_body._body_endoder.seq_layers.2.bias f4 [128]
00000000: 0000 0000 0000 0000 0000 0000 0000 0000
00000010: 0000 0000 0000 0000 0000 0000 0000 0000
00000020: 0000 0000 0000 0000 0000 0000 0000 0000
00000030: 0000 0000 0000 0000 0000 0000 0000 0000
00000040: 0000 0000 0000 0000 0000 0000 0000 0000
00000050: 0000 0000 0000 0000 0000 0000 0000 0000
00000060: 0000 0000 0000 0000 0000 0000 0000 0000
00000070: 0000 0000 0000 0000 0000 0000 0000 0000
00000080: 0000 0000 0000 0000 0000 0000 0000 0000
00000090: 0000 0000 0000 0000 0000 0000 0000 0000
000000a0: 0000 0000 0000 0000 0000 0000 0000 0000
000000b0: 0000 0000 0000 0000 0000 0000 0000 0000
000000c0: 0000 0000 0000 0000 0000 0000 0000 0000
000000d0: 0000 0000 0000 0000 0000 0000 0000 0000
000000e0: 0000 0000 0000 0000 0000 0000 0000 0000
000000f0: 0000 0000 0000 0000 0000 0000 0000 0000
00000100: 0000 0000 0000 0000 0000 0000 0000 0000
00000110: 0000 0000 0000 0000 0000 0000 0000 0000
00000120: 0000 0000 0000 0000 0000 0000 0000 0000
00000130: 0000 0000 0000 0000 0000 0000 0000 0000
00000140: 0000 0000 0000 0000 0000 0000 0000 0000
00000150: 0000 0000 0000 0000 0000 0000 0000 0000
00000160: 0000 0000 0000 0000 0000 0000 0000 0000
00000170: 0000 0000 0000 0000 0000 0000 0000 0000
00000180: 0000 0000 0000 0000 0000 0000 0000 0000
00000190: 0000 0000 0000 0000 0000 0000 0000 0000
000001a0: 0000 0000 0000 0000 0000 0000 0000 0000
000001b0: 0000 0000 0000 0000 0000 0000 0000 0000
000001c0: 0000 0000 0000 0000 0000 0000 0000 0000
000001d0: 0000 0000 0000 0000 0000 0000 0000 0000
000001e0: 0000 0000 0000 0000 0000 0000 0000 0000
000001f0: 0000 0000 0000 0000 0000 0000 0000 0000
0.0 0.0 0.0 0.0 0.0 0.0 0.0 0.0
0.0 0.0 0.0 0.0 0.0 0.0 0.0 0.0
0.0 0.0 0.0 0.0 0.0 0.0 0.0 0.0
0.0 0.0 0.0 0.0 0.0 0.0 0.0 0.0
0.0 0.0 0.0 0.0 0.0 0.0 0.0 0.0
0.0 0.0 0.0 0.0 0.0 0.0 0.0 0.0
0.0 0.0 0.0 0.0 0.0 0.0 0.0 0.0
0.0 0.0 0.0 0.0 0.0 0.0 0.0 0.0
0.0 0.0 0.0 0.0 0.0 0.0 0.0 0.0
0.0 0.0 0.0 0.0 0.0 0.0 0.0 0.0
0.0 0.0 0.0 0.0 0.0 0.0 0.0 0.0
0.0 0.0 0.0 0.0 0.0 0.0 0.0 0.0
0.0 0.0 0.0 0.0 0.0 0.0 0.0 0.0
0.0 0.0 0.0 0.0 0.0 0.0 0.0 0.0
0.0 0.0 0.0 0.0 0.0 0.0 0.0 0.0
0.0 0.0 0.0 0.0 0.0 0.0 0.0 0.0

value_heads.value_heads.extrinsic.weight f4 [1, 128]
00000000: 4cf2 81bd 0ae4 73bd ab27 09be b4d9 48be
00000010: 6362 3a3c 5014 1a3e 4f5d 58be 4150 873d
00000020: 493d 003d a62b 193e f121 80bd 5401 313d
00000030: 64fb 50be 8fc6 d8bd 34a3 79bc 0666 0f3d
00000040: 30a6 da3d 3429 503d f99b ef3d 4e4d 24be
00000050: a5dd 1f3e 5b66 693d 3145 093e 0e9d 533d
00000060: 3308 3bbe 689d 52be 73e7 4abe 3865 cc3d
00000070: b0f7 74bd 1a94 1b3e ac50 393e 1a30 8b3c
00000080: c0bf 3ebd df56 443e a8cb 043e 02c6 aebd
00000090: 7209 61bc c38f e7bd b423 10be 23f6 103d
000000a0: 6d1e c2bd e28a 7f3d 0cc9 1fbe c04e 673c
000000b0: e66e c1bd d406 93bd 8bac cbbd d891 db3d
000000c0: 60fd 493d b180 543d 059f f6bd c4ed 26be
000000d0: b5d0 cebc daa4 783d 2312 103e 5821 be3c
000000e0: ee29 203d 54e0 3f3e 4992 f2bd acd8 88bd
000000f0: bbd5 d7bb 93e3 fcbd c844 153e 6f4e 5c3e
00000100: eb57 10be e00b 15be 01dd 2abe bee6 d93d
00000110: 060d a73c 3445 f9bd bb9a 093d a817 3cbe
00000120: 91e5 023e a2f9 a53d 90e7 2c3e 112b babd
00000130: 39a7 583d cc49 e63c 8e8b 0a3e 7c57 673b
00000140: d71b a5bd e0f2 043e 7620 5b3e b657 acbd
00000150: b2df 233e 9bd3 4f3e c891 4fbd 65a7 503d
00000160: 172f d4bd 0ad5 25be 9a8c 00be 71e1 08be
00000170: 6d84 26be d775 f2bc 84f2 b8bc 4a50 003e
00000180: a315 2f3e 4d64 f5bc 29fb 6abd 8856 3e3e
00000190: 6428 2b3e b3e6 4c3e 55f7 fd3d 9eff 50bd
000001a0: 84c5 36be c979 aabc cd7f 0f3e a6f7 40bc
000001b0: 54b5 46be b691 1cbc db78 29be e7ae 473e
000001c0: 4759 7abc 62fe 34bd 34bf 94bc fe33 f4bd
000001d0: 3a0d 52bd b56e 5abe 65f8 e53d 7aa9 02be
000001e0: 3a04 2b3e 1c51 a9bc 08af 50be cdbc 14be
000001f0: f2fd 973d 9966 493d 5945 e93d 2c9a 0d3e
-0.063450426 -0.059543647 -0.13394038 -0.19614297 0.011375996 0.15046811 -0.21129344 0.06607104
0.031308446 0.14958057 -0.06256474 0.043214157 -0.20408398 -0.10584747 -0.015236665 0.035009407
0.10676229 0.050820544 0.11699671 -0.16045114 0.15611894 0.05698238 0.134053 0.05166345
-0.18264847 -0.20567858 -0.19814853 0.099802434 -0.059806526 0.15193215 0.1809718 0.01699071
-0.046569586 0.19173764 0.12968314 -0.08533861 -0.013735162 -0.11306717 -0.1407612 0.035390984
-0.094784595 0.06238831 -0.15604037 0.014117897 -0.0944498 -0.07179037 -0.09945019 0.10721177
0.049313903 0.051880542 -0.12042049 -0.16301638 -0.025246004 0.06070409 0.14069419 0.023209259
0.039102487 0.18737918 -0.11844308 -0.06681952 -0.006586758 -0.12348094 0.14577019 0.21514295
-0.14096038 -0.14555311 -0.16685869 0.10639714 0.020391952 -0.121714026 0.033594828 -0.18368399
0.12782885 0.08104254 0.16885209 -0.090902455 0.05289385 0.028111361 0.13529798 0.0035299947
-0.08061951 0.12983274 0.21399102 -0.08415167 0.16003302 0.20295565 -0.050676137 0.05094089
-0.10360544 -0.16194549 -0.12553635 -0.13367249 -0.16261454 -0.029597206 -0.022576578 0.12530628
0.17098098 -0.029955054 -0.05736843 0.18587697 0.16714627 0.2000988 0.124006905 -0.051025026
-0.17848784 -0.020810025 0.14013596 -0.011777794 -0.19405109 -0.009556225 -0.16550009 0.19500314
-0.015280074 -0.04418791 -0.018157579 -0.11923979 -0.051282145 -0.21331294 0.11229018 -0.12759963
0.16700831 -0.020668559 -0.20379269 -0.14525147 0.07421483 0.04917011 0.1139018 0.13828343
