Results/test30/SnowBall.onnx (onnx, 143334 bytes, 9 tensors)

action_model._discrete_distribution.branches.0.bias f4 [3]
0.0 0.0 0.0
00000000: 0000 0000 0000 0000 0000 0000

action_model._discrete_distribution.branches.0.weight f4 [3, 128]
0.0100617 -0.0020092092 -0.001509881 0.010548606 0.008460291 0.0037559946 -0.00044170298 -0.009219739
-0.002394118 -0.0117244255 -0.013886809 0.008836724 0.009716049 -0.0008298928 -0.004641524 0.02159318
-0.008213871 0.0016711233 -0.011545155 -0.012962982 0.020077866 0.00012572357 0.0061357613 0.009282899
0.005264082 0.009690147 -0.009273074 -0.0021027538 0.005607395 0.006672818 -0.018547075 0.0088535985
-0.016599491 -0.013050285 -0.0073634684 0.0031864077 -0.014776667 -0.0007638112 0.011641396 -0.007183609
-0.012197033 6.606396e-05 0.0003503053 -0.0077454555 -0.0014855037 0.00316607 -0.005477024 0.0060139433
0.0015937098 -0.0040027346 -0.0041229813 -0.014667766 0.008632618 0.0055512446 0.008869785 -0.0065613897
0.0024828117 -0.003246576 -0.0015120882 0.008612584 -0.010416094 -0.014862955 0.0066657676 -0.008538804
0.0012069966 0.006195204 -0.017611342 -0.0030292352 0.014487855 -0.01216587 -0.0019474215 -0.002196122
0.0075520165 -0.0071550333 -0.0051222453 0.012576388 -0.00045304178 0.0033638407 -0.0072457395 0.00021323228
0.0044581997 0.0011377151 0.008141283 -0.0042556715 0.006675068 0.004396375 -0.005975229 0.0049969996
0.012880241 -0.0072263307 -0.015763463 -0.0028420512 0.0052259597 -0.008784763 -0.006733404 0.0028079904
-0.0055256938 -0.0034680513 -0.0001849714 0.0033053413 0.005150263 0.0013008624 -0.0030073214 0.009572134
0.014930546 0.015784202 -0.0041880347 0.0053804326 0.022522176 0.007717259 -0.009277432 0.003544255
0.01446749 0.0011681572 -0.004863756 -0.006448988 -0.0030451515 0.0021224697 -0.013932039 0.017400077
0.0044890624 0.00284812 -0.002602047 -0.011624529 -0.0042497166 -0.0061928625 0.0009830121 -0.0119527
0.0034893148 -0.012073001 -0.018456034 -0.0018750972 0.0006658332 0.012331416 0.0006697273 0.017737702
-0.0023861756 -0.0028700605 -0.013320376 0.014023611 0.011999521 -0.014370161 -0.008619324 0.004147339
0.006634378 -0.0017179812 -0.008486063 -0.004747208 0.0022471598 0.010165992 -0.006785442 0.0073000058
0.010022091 0.018495549 -0.0030606894 0.004011761 -0.0025340924 0.015721336 0.009924288 -0.006018277
-0.0020509928 -0.011629369 0.0073454045 -0.013770627 -0.0035393236 0.0018769512 0.012602826 0.0070973383
-0.0058169044 0.012186271 -0.010875063 0.0022944892 -0.012522215 -0.0059528835 0.012269824 -0.003256316
-0.00730398 0.012358218 -0.0065687085 0.0034108532 -0.0014625781 -0.0022964373 0.0031811402 -0.00806022
0.0007673842 0.0016809105 -0.010567514 -0.004637547 -0.00041054888 0.0057510035 0.010205785 0.0071568745
0.0047920723 0.0040024 -0.0025222243 -0.0009039583 0.001944992 0.006416529 0.0016327167 -0.010468574
0.013640507 0.010059137 -0.008832074 -0.006661191 0.0014440748 0.007927549 0.014285408 -0.004058616
-0.012674928 -0.0035214517 0.008717173 -0.013838941 -0.0027892613 0.0059414073 -0.0002775885 0.00071644835
0.0007277189 0.010041936 0.010253294 0.00015057994 0.017269824 0.003008166 0.0149205895 -0.008963336
-0.0045061973 -0.003992354 0.005399157 -0.018989176 0.0051224944 -0.006851894 -0.0017628247 -0.006619134
0.00011824853 0.0028978256 0.007007134 0.008665989 0.00415461 -0.00037103484 0.005311636 -0.0053406674
-0.014610327 -0.0013322182 -0.003145594 0.004783421 -0.010689069 -0.0019427605 -0.013734574 0.0023812496
0.004139512 -0.0031812943 -0.008292707 0.00058578944 0.007990005 0.014660894 0.0021325143 0.011779085
00000000: d4d9 243c f0ac 03bb 33e7 c5ba 0fd4 2c3c
00000010: 089d 0a3c 2227 763b 5f94 e7b9 630e 17bc
00000020: a3e6 1cbb ce17 40bc 8085 63bc e8c7 103c
00000030: 1030 1f3c 2a8d 59ba ed17 98bb 2ee4 b03c
00000040: 7993 06bc 9809 db3a e427 3dbc b062 54bc
00000050: 567a a43c aad4 0339 7f0e c93b 4d17 183c
00000060: 527e ac3b 6cc3 1e3c 17ee 17bc 5bce 09bb
00000070: 3dbe b73b a8a7 da3b 09f0 97bc af0e 113c
00000080: a8fb 87bc ddd0 55bc 4049 f1bb 0dd3 503b
00000090: d519 72bc 803a 48ba 8ebb 3e3c 7b64 ebbb
000000a0: 10d6 47bc d28b 8a38 2ea9 b739 97cd fdbb
000000b0: 3cb5 c2ba d77d 4f3b 9b78 b3bb 9d10 c53b
000000c0: 07e4 d03a 5f29 83bb 131a 87bb 1251 70bc
000000d0: d36f 0d3c 37e7 b53b 9352 113c ed00 d7bb
000000e0: abb6 223b 82c4 54bb 4331 c6ba cc1b 0d3c
000000f0: 44a8 2abc c083 73bc 836c da3b 57e6 0bbc
00000100: 1634 9e3a 2301 cb3b a945 90bc 2286 46bb
00000110: 785e 6d3c 5b53 47bc 9f40 ffba d0ec 0fbb
00000120: e876 f73b c574 eabb 82d8 a7bb 320d 4e3c
00000130: 3d86 edb9 e273 5c3b ab6d edbb 1b97 5f39
00000140: 1716 923b 621f 953a 0463 053c 2973 8bbb
00000150: 87ba da3b 770f 903b dbcb c3bb dfbd a33b
00000160: a507 533c dbca ecbb 6122 81bc b541 3abb
00000170: 873e ab3b f7ed 0fbc e3a3 dcbb 4306 383b
00000180: e110 b5bb 3f48 63bb e2f4 41b9 6d9e 583b
00000190: 8ac3 a83b b381 aa3a 7b16 45bb 71d4 1c3c
000001a0: 409f 743c df4d 813c c83b 89bb 574e b03b
000001b0: 6d80 b83c 10e1 fc3b 5f00 18bc bb46 683b
000001c0: 0d09 6d3c da1c 993a 2460 9fbb 0852 d3bb
000001d0: 2a91 47bb 2219 0b3b 3543 64bc 9b8a 8e3c
000001e0: fc18 933b 86a7 3a3b 1b87 2abb cf74 3ebc
000001f0: 3541 8bbb 7fed cabb 6ad8 803a 42d5 43bc
00000200: fdac 643b d6cd 45bc 1c31 97bc d2c5 f5ba
00000210: 4f8b 2e3a b509 4a3c a390 2f3a a84e 913c
00000220: 6261 1cbb a017 3cbb b53d 5abc 4ac3 653c
00000230: a499 443c d370 6bbc 1138 0dbc 67e6 873b
00000240: 3265 d93b e22d e1ba 2109 0bbc 788e 9bbb
00000250: 1645 133b 438f 263c 6a58 debb e334 ef3b
00000260: b233 243c fa83 973c d995 48bb 1775 833b
00000270: 0413 26bb 08ca 803c 7b99 223c f734 c5bb
00000280: f369 06bb 1c89 3ebc b8b1 f03b 329e 61bc
00000290: fff3 67bb 0804 f63a 157c 4e3c ca90 e83b
000002a0: bb9b bebb eda8 473c 522d 32bc 245f 163b
000002b0: fa29 4dbc 6810 c3bb 5f07 493c eb67 55bb
000002c0: 3a56 efbb 207a 4a3c 523e d7bb 9f88 5f3b
000002d0: fab3 bfba d37f 16bb ad7a 503b 030f 04bc
000002e0: 482a 493a ff51 dc3a 5e23 2dbc 90f6 97bb
000002f0: f03e d7b9 ea72 bc3b 2a36 273c 3784 ea3b
00000300: d106 9d3b 9126 833b e74b 25bb 9df7 6cba
00000310: 1aef fe3a bf41 d23b e200 d63a 6284 2bbc
00000320: 6f7c 5f3c 14cf 243c 67b4 10bc 1f46 dabb
00000330: 1c47 bd3a 8de2 013c 580d 6a3c 23fe 84bb
00000340: 80aa 4fbc 28c8 66bb 79d2 0e3c babc 62bc
00000350: 0acc 36bb 23b0 c23b 4c89 91b9 09d0 3b3a
00000360: 64c4 3e3a ef86 243c 6ffd 273c ffe4 1d39
00000370: 7279 8d3c a724 453b 7d75 743c f5da 12bc
00000380: b9a8 93bb 4bd2 82bb 69eb b03b 308f 9bbc
00000390: 99da a73b da85 e0bb 950e e7ba 52e5 d8bb
000003a0: 32fc f738 72e9 3d3b 1a9c e53b cbfb 0d3c
000003b0: 6523 883b 7487 c2b9 3b0d ae3b c400 afbb
000003c0: 2760 6fbc d39d aeba 4f26 4ebb 3ebe 9c3b
000003d0: 3421 2fbc 3aa4 feba fb06 61bc bd0e 1c3b
000003e0: bea4 873b 437d 50bb 22de 07bc aa8f 193a
000003f0: 83e8 023c 3f34 703c a7c1 0b3b 10fd 403c

action_model._discrete_distribution.branches.1.bias f4 [3]
0.0 0.0 0.0
00000000: 0000 0000 0000 0000 0000 0000

action_model._discrete_distribution.branches.1.weight f4 [3, 128]
0.008081519 -0.0004468849 0.009054789 -0.001718034 -0.0061834827 -0.018451637 -0.012917057 0.01889215
0.009044541 -0.007096535 -0.0060059093 0.014354835 0.019648867 -9.298211e-05 0.00054809416 0.0015275822
5.6327855e-05 -0.0014256497 -0.019509625 0.0024732344 0.009514905 -0.009666341 0.0018704986 -0.010866991
-0.004358363 0.013343987 -0.001132931 -0.001451124 0.016586052 0.004801841 0.0011367466 0.0071062595
-0.011032465 0.007392054 -0.0035108626 0.007318006 -0.0016497944 0.0060028643 0.0029985663 -0.007918064
-0.012396932 -0.0059666918 0.01071379 0.0012129352 0.0066083334 0.0029803289 0.00083720445 -0.009269892
0.007377182 -0.00871211 0.004685304 -0.0006697557 -0.0032792122 -0.0021679334 0.0020151509 0.009969709
-0.002143709 0.016458293 0.014625202 -0.00019978262 -0.0010760514 -0.003885892 -0.008527308 0.010653641
0.0073276856 0.004368411 0.0018003744 0.003861076 0.0030321865 -0.0058181896 -0.0014810296 0.0039873533
-0.0135413995 0.0015425028 0.012449583 0.004429281 -0.011268373 -0.010146632 0.0013835479 -0.0010405874
-0.0059244502 -0.002234185 -0.008716915 0.0010647195 0.0107825175 0.010121641 0.008455082 -0.0048171347
-0.008176091 0.0019618543 -0.011822503 0.004092863 -0.008980894 -0.015158488 -0.012798059 -0.008609946
-0.007523015 -0.015400477 -0.0059264726 0.011763204 0.020056909 0.0013726004 0.008736945 0.0048364927
0.006684611 -0.00048338817 0.0031517216 0.011384002 -0.0149169965 0.0064631947 -0.008204629 0.0051668785
0.0006872855 -0.0019126792 0.009720629 -0.0019642785 -0.005609179 -0.0018464442 -0.020671131 0.006554983
0.016367475 0.0056517236 -0.007995769 -0.01480486 0.008367141 -0.009919613 -0.0044657397 0.013861537
-0.011952568 -0.00068335555 -0.007612725 0.00530117 0.0072535686 0.01634166 0.009029522 0.0032044237
0.0033771351 0.010480219 0.02155256 0.0010766628 0.00061110186 0.011813615 0.005353562 0.0076602562
-0.003147646 -0.0039666705 0.006559075 -0.0045215557 0.00949619 -0.0023822563 -0.0011256145 0.012738796
0.005121583 -0.002366093 1.8628654e-05 -0.0040984564 0.0065021873 0.0049208733 -0.009315213 -0.008111037
-0.009980235 0.0007938463 0.01052353 0.005599155 -0.0013447735 -0.0012034413 0.010953711 0.026485262
-0.0062549743 -0.012735808 0.00070314104 0.0011161426 0.013656521 0.0060351216 0.004163661 -0.010210285
0.011940929 -0.0021451153 -0.0032929373 -0.0129135465 -0.007403636 -0.0033399404 -0.0052874037 0.0014100461
-0.0024652341 0.0023995365 0.0129942745 0.0017667275 -0.0058631194 -0.009651165 0.010556655 0.0019053798
-0.0151606025 -0.015532388 -0.0022489738 0.010429225 -0.00571105 0.0013019359 0.00057451805 -0.0037976073
-0.0002852926 -0.010670721 -0.0029726287 -0.01457152 0.014932321 -0.01223311 -0.0019529917 0.0058367676
0.00023101391 -0.01265536 -0.010694015 1.1757064e-06 0.0010411277 0.014799644 0.012476183 -0.010146753
-0.00450433 -0.011151518 0.0048189866 -0.002753278 -0.019968895 0.009081225 -0.012060921 -0.008198306
-0.004933081 0.009412906 0.002234319 0.019401906 0.002262631 0.015645126 0.02044532 0.0068640644
0.004031136 -0.011955328 0.013813692 0.010320681 -0.012190642 -0.0038153436 0.0043018726 0.007964028
-0.0068290145 -0.016663788 -0.014135768 0.0027363296 0.008797328 -0.012129769 0.017513053 -0.0061480924
0.0099674165 0.009944146 -0.0049035014 -0.0014975807 0.004633985 0.0005966522 -0.004728152 -0.0030405333
00000000: 5968 043c e04b eab9 8a5a 143c a82f e1ba
00000010: d09e cabb e327 97bc 10a2 53bc b6c3 9a3c
00000020: 8e2f 143c 0d8a e8bb 38cd c4bb 8b30 6b3c
00000030: a9f6 a03c 64ff c2b8 faad 0f3a 2739 c83a
00000040: 9341 6c38 dedc baba a6d2 9fbc fd15 223b
00000050: 67e4 1b3c 935f 1ebc 852b f53a 770b 32bc
00000060: 99d0 8ebb bda0 5a3c db7e 94ba a433 beba
00000070: 79df 873c c358 9d3b e3fe 943a a0db e83b
00000080: 83c1 34bc 0b39 f23b 8016 66bb e2cb ef3b
00000090: ea3d d8ba adb3 c43b 9883 443b c4ba 01bc
000000a0: 801c 4bbc 3d84 c3bb e488 2f3c 5afb 9e3a
000000b0: b88a d83b 9f51 433b d777 5b3a bfe0 17bc
000000c0: 4abc f13b 3dbd 0ebc 2e87 993b 8b92 2fba
000000d0: 0de8 56bb e313 0ebb 9f10 043b fe57 233c
000000e0: 787d 0cbb 8bd3 863c 8b9e 6f3c bd7c 51b9
000000f0: 4b0a 8dba 73aa 7ebb 1fb6 0bbc 9c8c 2e3c
00000100: 151d f03b e324 8f3b 8afa eb3a 1b0a 7d3b
00000110: a6b7 463b 83a6 bebb 1b1f c2ba 58a8 823b
00000120: bfdc 5dbc ce2d ca3a 56f9 4b3c 8123 913b
00000130: fb9e 38bc 0f3e 26bc 2a58 b53a 5264 88ba
00000140: e421 c2bb 686b 12bb 64d1 0ebc 0f8e 8b3a
00000150: 28a9 303c 3dd5 253c 2f87 0a3c 0ed9 9dbb
00000160: 03f5 05bc 7492 003b 2cb3 41bc 6c1d 863b
00000170: 9a24 13bc 4f5b 78bc f3ae 51bc bb10 0dbc
00000180: a083 f6bb 4852 7cbc db32 c2bb 74ba 403c
00000190: 634e a43c d4e8 b33a 6725 0f3c 717b 9e3b
000001a0: 950a db3b 436f fdb9 1d8d 4e3b f783 3a3c
000001b0: 6b66 74bc 35c9 d33b b56c 06bc eb4e a93b
000001c0: f32a 343a ddb2 faba 4643 1f3c 20bb 00bb
000001d0: 34cd b7bb 6304 f2ba 8156 a9bc 2fcb d63b
000001e0: 1515 863c 1832 b93b b000 03bc 1590 72bc
000001f0: 5516 093c df85 22bc 5755 92bb 801b 633c
00000200: b4d4 43bc 3723 33ba 2a74 f9bb 70b5 ad3b
00000210: 58af ed3b f2de 853c 8ff0 133c 4f01 523b
00000220: ed52 5d3b 39b5 2b3c ff8e b03c cf1e 8d3a
00000230: 5a32 203a e58d 413c ef6c af3b e302 fb3b
00000240: bd48 4ebb d8fa 81bb 82ed d63b 8f29 94bb
00000250: e895 1b3c a11f 1cbb 5b89 93ba 62b6 503c
00000260: f4d2 a73b 7410 1bbb bb44 9c37 584c 86bb
00000270: 4d10 d53b 473f a13b d69e 18bc 28e4 04bc
00000280: 2484 23bc 201a 503a e26a 2c3c 1e79 b73b
00000290: 1c43 b0ba cabc 9dba 3277 333c 9ff7 d83c
000002a0: 87f6 ccbb daa9 50bc ff52 383a 884b 923a
000002b0: 9abf 5f3c 45c2 c53b 526f 883b 0a49 27bc
000002c0: e3a3 433c 1095 0cbb 52ce 57bb 5793 53bc
000002d0: 339a f2bb e7e2 5abb f541 adbb 4cd1 b83a
000002e0: c48f 21bb 8b41 1d3b f0e5 543c 8a91 e73a
000002f0: 691f c0bb ec1f 1ebc d2f5 2c3c f0bd f93a
00000300: 2d64 78bc 8f7b 7ebc 8563 13bb 57df 2a3c
00000310: c223 bbbb b8a5 aa3a 419b 163a 47e1 78bb
00000320: 5393 95b9 3fd4 2ebc 6fd0 42bb 62bd 6ebc
00000330: b2a6 743c 626d 48bc 87fb ffba 5b42 bf3b
00000340: 533c 7239 6d58 4fbc f335 2fbc f7cc 9d35
00000350: 7376 883a 357a 723c e768 4c3c 913e 26bc
00000360: 0f99 93bb dbb4 36bc 97e8 9d3b 5770 34bb
00000370: cf95 a3bc 6bc9 143c 2b9b 45bc 3052 06bc
00000380: afa5 a1bb 9738 1a3c a76d 123b bff0 9e3c
00000390: a648 143b 352a 803c f27c a73c f2eb e03b
000003a0: 9f17 843b 48e0 43bc d352 623c 1318 293c
000003b0: 42bb 47bc d80a 7abb b9f6 8c3b 8e7b 023c
000003c0: edc5 dfbb 7f82 88bc b599 67bc fe53 333b
000003d0: ab22 103c f0bb 46bc 8977 8f3c f075 c9bb
000003e0: 604e 233c c5ec 223c 8dad a0bb 784a c4ba
000003f0: afd8 973b a768 1c3a 9dee 9abb af43 47bb

discrete_action_output_shape f4 [1, 2]
3.0 3.0
00000000: 0000 4040 0000 4040

network_body._body_endoder.seq_layers.0.bias f4 [128]
0.0 0.0 0.0 0.0 0.0 0.0 0.0 0.0
0.0 0.0 0.0 0.0 0.0 0.0 0.0 0.0
0.0 0.0 0.0 0.0 0.0 0.0 0.0 0.0
0.0 0.0 0.0 0.0 0.0 0.0 0.0 0.0
0.0 0.0 0.0 0.0 0.0 0.0 0.0 0.0
0.0 0.0 0.0 0.0 0.0 0.0 0.0 0.0
0.0 0.0 0.0 0.0 0.0 0.0 0.0 0.0
0.0 0.0 0.0 0.0 0.0 0.0 0.0 0.0
0.0 0.0 0.0 0.0 0.0 0.0 0.0 0.0
0.0 0.0 0.0 0.0 0.0 0.0 0.0 0.0
0.0 0.0 0.0 0.0 0.0 0.0 0.0 0.0
0.0 0.0 0.0 0.0 0.0 0.0 0.0 0.0
0.0 0.0 0.0 0.0 0.0 0.0 0.0 0.0
0.0 0.0 0.0 0.0 0.0 0.0 0.0 0.0
0.0 0.0 0.0 0.0 0.0 0.0 0.0 0.0
0.0 0.0 0.0 0.0 0.0 0.0 0.0 0.0
00000000: 0000 0000 0000 0000 0000 0000 0000 0000
00000010: 0000 0000 0000 0000 0000 0000 0000 0000
00000020: 0000 0000 0000 0000 0000 0000 0000 0000
00000030: 0000 0000 0000 0000 0000 0000 0000 0000
00000040: 0000 0000 0000 0000 0000 0000 0000 0000
00000050: 0000 0000 0000 0000 0000 0000 0000 0000
00000060: 0000 0000 0000 0000 0000 0000 0000 0000
00000070: 0000 0000 0000 0000 0000 0000 0000 0000
00000080: 0000 0000 0000 0000 0000 0000 0000 0000
00000090: 0000 0000 0000 0000 0000 0000 0000 0000
000000a0: 0000 0000 0000 0000 0000 0000 0000 0000
000000b0: 0000 0000 0000 0000 0000 0000 0000 0000
000000c0: 0000 0000 0000 0000 0000 0000 0000 0000
000000d0: 0000 0000 0000 0000 0000 0000 0000 0000
000000e0: 0000 0000 0000 0000 0000 0000 0000 0000
000000f0: 0000 0000 0000 0000 0000 0000 0000 0000
00000100: 0000 0000 0000 0000 0000 0000 0000 0000
00000110: 0000 0000 0000 0000 0000 0000 0000 0000
00000120: 0000 0000 0000 0000 0000 0000 0000 0000
00000130: 0000 0000 0000 0000 0000 0000 0000 0000
00000140: 0000 0000 0000 0000 0000 0000 0000 0000
00000150: 0000 0000 0000 0000 0000 0000 0000 0000
00000160: 0000 0000 0000 0000 0000 0000 0000 0000
00000170: 0000 0000 0000 0000 0000 0000 0000 0000
00000180: 0000 0000 0000 0000 0000 0000 0000 0000
00000190: 0000 0000 0000 0000 0000 0000 0000 0000
000001a0: 0000 0000 0000 0000 0000 0000 0000 0000
000001b0: 0000 0000 0000 0000 0000 0000 0000 0000
000001c0: 0000 0000 0000 0000 0000 0000 0000 0000
000001d0: 0000 0000 0000 0000 0000 0000 0000 0000
000001e0: 0000 0000 0000 0000 0000 0000 0000 0000
000001f0: 0000 0000 0000 0000 0000 0000 0000 0000

network_body._body_endoder.seq_layers.0.weight f4 [128, 138]
0.021200646 0.019369071 -0.0115640685 -0.013023355 -0.09988314 0.122994825 0.035730574 -0.057507176
-0.070493475 0.09514476 -0.103954345 0.14900064 0.08607612 -0.048634913 0.08485092 0.22518553
0.06738073 -0.044697054 0.056486856 -0.12236025 0.15637426 0.085826606 0.03971633 -0.082610555
-0.04925347 -0.08078871 -0.06209702 -0.06925028 0.0119590135 0.20600624 0.08567863 0.10144014
-0.13697374 -0.100905 0.116780534 -0.0017297165 0.06855895 0.04200699 0.14561224 0.06127763
0.19871031 0.080242775 0.08229159 -0.15315966 0.06137993 -0.031174202 -0.043868486 0.012274404
-0.13992202 -0.014176291 0.028107911 -0.032348428 0.01874872 0.013737501 -0.06766574 -0.08563856
-0.03672311 -0.05314499 -0.06318919 0.0991333 0.0207583 -0.08483954 -0.11144119 0.014811945
-0.010264626 -0.06911792 -0.17572625 -0.16425955 -0.07411973 0.076479554 0.099055216 0.017841179
0.09291613 0.12556961 0.007467624 -0.032941252 -0.061868005 0.031210782 0.00016802753 0.06828936
-0.06777387 0.032842707 -0.033454847 0.074713804 0.048172615 0.01563504 -0.012853052 0.03757646
-0.039402742 -0.10356127 -0.07038795 -0.05329866 -0.024125313 -0.048240975 -0.13979088 -0.036372352
0.05927387 0.033186045 0.075561814 0.060373984 -0.05958334 -0.008148334 0.13522132 0.047140133
0.08798231 0.0990203 -0.07526807 -0.018814398 -0.028307954 0.04765787 -0.17525844 0.13081843
-0.010932979 0.059141334 -0.0931725 0.06261211 0.078210175 -0.026030451 0.07894917 0.023820167
0.0218539 0.056354452 -0.012410533 -0.0054330737 -0.11558549 0.0103398645 -0.13268627 -0.09408425
-0.041225452 0.011088093 0.10875632 0.042934265 0.051986273 -0.0049607432 -0.10890634 0.16271125
-0.0028608711 0.14165288 -0.09353663 0.065097585 -0.07051429 0.039590187 0.014287187 -0.038748413
0.016540462 0.0013779863 -0.04849066 0.018343214 -0.03797323 -0.045573965 -0.00045611899 0.083780296
0.03222502 0.032705765 -0.036731552 0.12819038 0.05850357 -0.04023433 -0.119239725 0.1654247
-0.10227558 0.003962766 -0.05085818 -0.04627174 0.07758351 -0.05170458 0.107963756 -0.04792916
-0.049710404 0.08630567 -0.03529016 0.060894366 -0.07449174 -0.091028295 0.033196915 0.019853583
0.037752114 0.020362033 -0.120318696 -0.0002631689 -0.124733604 -0.04101094 -0.16519965 -0.081505924
-0.0821858 0.13016766 -0.031063713 0.10987485 0.042206917 0.2374716 -0.10279689 0.07223228
0.110369526 -0.054653127 0.08541693 -0.01957474 -0.14136323 0.11162434 0.11779101 -0.0017078774
-0.016886802 0.06758983 -0.044393975 -0.047698036 0.19773297 0.12052711 -0.08545461 -0.040257454
-0.019534936 0.021583153 0.111726955 0.07326819 0.09011919 -0.03937607 -0.081881344 -0.054833144
0.024614966 0.038882557 -0.05750091 0.07891557 0.022951232 -0.014410918 0.09292796 0.18315922
-0.042707823 -0.04208474 0.023030706 -0.06610271 -0.122560136 -0.15398349 -0.12741573 0.074627146
-0.15832458 0.11954076 0.02641662 0.036566548 0.09733614 -0.09224694 0.020902442 -0.009643675
-0.13802877 0.009495232 -0.148873 0.09227859 0.026323583 0.062309828 0.21966727 0.012660411
-0.08182181 -0.1868333 0.10997643 -0.08146428 -0.103068575 0.049419932 0.0114947455 0.06857947
00000000: faac ad3c e3ab 9e3c 3877 3dbc e95f 55bc
00000010: 888f ccbd b6e4 fb3d 395a 123d a58c 6bbd
00000020: e25e 90bd 42db c23d 04e6 d4bd a093 183e
00000030: ad48 b03d 6735 47bd 52c6 ad3d 0997 663e
00000040: e8fe 893d 4214 37bd c35e 673d 0398 fabd
00000050: 9320 203e dcc5 af3d 97ad 223d b92f a9bd
00000060: 02be 49bd 8d74 a5bd 7259 7ebd 17d3 8dbd
00000070: bdef 433c 4df3 523e 4778 af3d d9bf cf3d
00000080: d842 0cbe 48a7 cebd a22a ef3d a8b7 e2ba
00000090: a368 8c3d 860f 2c3d 601b 153e 41fe 7a3d
000000a0: b77a 4b3e 5356 a43d 7e88 a83d e3d5 1cbe
000000b0: 8569 7b3d 0a61 ffbc 71af 33bd 951a 493c
000000c0: b847 0fbe ad43 68bc 9042 e63c c97f 04bd
000000d0: ea96 993c 4113 613c 5694 8abd 4563 afbd
000000e0: f96a 16bd 90ae 59bd 5669 81bd 6606 cb3d
000000f0: 4f0d aa3c 5ac0 adbd 473b e4bd cdad 723c
00000100: f62c 28bc b28d 8dbd 95f1 33be a833 28be
00000110: 16cc 97bd 50a1 9c3d 76dd ca3d aa27 923c
00000120: d04a be3d 5295 003e f8b2 f43b 68ed 06bd
00000130: 4e69 7dbd c1ad ff3c 8c30 3039 4bdb 8b3d
00000140: 07cd 8abd 1386 063d f307 09bd 8d03 993d
00000150: a650 453d 0e15 803c 9b95 52bc c6e9 193d
00000160: c564 21bd ee17 d4bd 8f27 90bd b24f 5abd
00000170: 73a2 c5bc 5498 45bd 5725 0fbe 2dfb 14bd
00000180: 28c9 723d 17ee 073d 27c0 9a3d b64a 773d
00000190: a90d 74bd 9780 05bc 7577 0a3e 0316 413d
000001a0: 1230 b43d 28cb ca3d 2526 9abd a720 9abc
000001b0: 15e6 e7bc e634 433d f376 33be 44f5 053e
000001c0: 3d20 33bc 2f3e 723d 39d1 bebd c73a 803d
000001d0: a82c a03d d03d d5bc 1ab0 a13d 8322 c33c
000001e0: f306 b33c edd3 663d 8c55 4bbc ed07 b2bb
000001f0: 16b8 ecbd 8968 293c e9de 07be 3eaf c0bd
00000200: 05dc 28bd d5aa 353c a2bb de3d d7db 2f3d
00000210: 8fef 543d bb8d a2bb 4a0a dfbd c79d 263e
00000220: 747d 3bbb 740d 113e 2290 bfbd e251 853d
00000230: cc69 90bd 5229 223d ce14 6a3c a8b6 1ebd
00000240: dd7f 873c 8c9d b43a 249e 46bd 8244 963c
00000250: d189 1bbd c4ab 3abd 4123 efb9 0195 ab3d
00000260: 62fe 033d 7bf6 053d d373 16bd 5744 033e
00000270: 70a1 6f3d c1cc 24bd f533 f4bd 1865 293e
00000280: dc75 d1bd 17da 813b ab50 50bd 7087 3dbd
00000290: 1ae4 9e3d 2fc8 53bd 1a1c dd3d 5e51 44bd
000002a0: 239d 4bbd 07c1 b03d 6a8c 10bd 5f6c 793d
000002b0: 208f 98bd 0b6d babd 7df9 073d fba3 a23c
000002c0: f6a1 1a3d 47ce a63c a669 f6bd eff9 89b9
000002d0: 5574 ffbd 16fb 27bd 192a 29be 94ec a6bd
000002e0: 0751 a8bd ac4a 053e 5479 febc 1106 e13d
000002f0: 29e1 2c3d c12b 733e 2d87 d2bd 85ee 933d
00000300: 6b09 e23d f5db 5fbd 12ef ae3d 355b a0bc
00000310: 86c1 10be 4d9b e43d 6a3c f13d dbda dfba
00000320: 3156 8abc 896c 8a3d 75d6 35bd 045f 43bd
00000330: 837a 4a3e ebd6 f63d d402 afbd 00e5 24bd
00000340: bb07 a0bc 27cf b03c 1ad1 e43d a20d 963d
00000350: 6990 b83d cd48 21bd 68b1 a7bd b898 60bd
00000360: 53a5 c93c 5143 1f3d 1386 6bbd 7d9e a13d
00000370: 3904 bc3c c51b 6cbc 0451 be3d 178e 3b3e
00000380: 66ee 2ebd 0c61 2cbd e4aa bc3c dc60 87bd
00000390: cf00 fbbd d9ad 1dbe 4579 02be 1ed6 983d
000003a0: d71f 22be c9d1 f43d ab67 d83c cec6 153d
000003b0: 2c58 c73d f7eb bcbd 993b ab3c 8100 1ebc
000003c0: 6a57 0dbe e491 1b3c 2a72 18be 8ffc bc3d
000003d0: 8ea4 d73c 9738 7f3d 75f0 603e 9d6d 4f3c
000003e0: 3192 a7bd 3b51 3fbe 533b e13d bfd6 a6bd
000003f0: 9e15 d3bd 8e6c 4a3d 7554 3c3c 6573 8c3d

network_body._body_endoder.seq_layers.2.bias f4 [128]
0.0 0.0 0.0 0.0 0.0 0.0 0.0 0.0
0.0 0.0 0.0 0.0 0.0 0.0 0.0 0.0
0.0 0.0 0.0 0.0 0.0 0.0 0.0 0.0
0.0 0.0 0.0 0.0 0.0 0.0 0.0 0.0
0.0 0.0 0.0 0.0 0.0 0.0 0.0 0.0
0.0 0.0 0.0 0.0 0.0 0.0 0.0 0.0
0.0 0.0 0.0 0.0 0.0 0.0 0.0 0.0
0.0 0.0 0.0 0.0 0.0 0.0 0.0 0.0
0.0 0.0 0.0 0.0 0.0 0.0 0.0 0.0
0.0 0.0 0.0 0.0 0.0 0.0 0.0 0.0
0.0 0.0 0.0 0.0 0.0 0.0 0.0 0.0
0.0 0.0 0.0 0.0 0.0 0.0 0.0 0.0
0.0 0.0 0.0 0.0 0.0 0.0 0.0 0.0
0.0 0.0 0.0 0.0 0.0 0.0 0.0 0.0
0.0 0.0 0.0 0.0 0.0 0.0 0.0 0.0
0.0 0.0 0.0 0.0 0.0 0.0 0.0 0.0
00000000: 0000 0000 0000 0000 0000 0000 0000 0000
00000010: 0000 0000 0000 0000 0000 0000 0000 0000
00000020: 0000 0000 0000 0000 0000 0000 0000 0000
00000030: 0000 0000 0000 0000 0000 0000 0000 0000
00000040: 0000 0000 0000 0000 0000 0000 0000 0000
00000050: 0000 0000 0000 0000 0000 0000 0000 0000
00000060: 0000 0000 0000 0000 0000 0000 0000 0000
00000070: 0000 0000 0000 0000 0000 0000 0000 0000
00000080: 0000 0000 0000 0000 0000 0000 0000 0000
00000090: 0000 0000 0000 0000 0000 0000 0000 0000
000000a0: 0000 0000 0000 0000 0000 0000 0000 0000
000000b0: 0000 0000 0000 0000 0000 0000 0000 0000
000000c0: 0000 0000 0000 0000 0000 0000 0000 0000
000000d0: 0000 0000 0000 0000 0000 0000 0000 0000
000000e0: 0000 0000 0000 0000 0000 0000 0000 0000
000000f0: 0000 0000 0000 0000 0000 0000 0000 0000
00000100: 0000 0000 0000 0000 0000 0000 0000 0000
00000110: 0000 0000 0000 0000 0000 0000 0000 0000
00000120: 0000 0000 0000 0000 0000 0000 0000 0000
00000130: 0000 0000 0000 0000 0000 0000 0000 0000
00000140: 0000 0000 0000 0000 0000 0000 0000 0000
00000150: 0000 0000 0000 0000 0000 0000 0000 0000
00000160: 0000 0000 0000 0000 0000 0000 0000 0000
00000170: 0000 0000 0000 0000 0000 0000 0000 0000
00000180: 0000 0000 0000 0000 0000 0000 0000 0000
00000190: 0000 0000 0000 0000 0000 0000 0000 0000
000001a0: 0000 0000 0000 0000 0000 0000 0000 0000
000001b0: 0000 0000 0000 0000 0000 0000 0000 0000
000001c0: 0000 0000 0000 0000 0000 0000 0000 0000
000001d0: 0000 0000 0000 0000 0000 0000 0000 0000
000001e0: 0000 0000 0000 0000 0000 0000 0000 0000
000001f0: 0000 0000 0000 0000 0000 0000 0000 0000

network_body._body_endoder.seq_layers.2.weight f4 [128, 128]
-0.024207465 0.121271454 0.15767764 -0.062127315 -0.029111587 0.05740722 0.0030837893 -0.20856075
0.04459216 -0.013414405 -0.04610677 -0.0028904153 -0.036472034 0.093363605 -0.0545644 -0.0832523
0.02644657 -0.096878365 -0.13546947 0.1032347 0.043765783 0.0025376503 -0.06898183 0.009011243
-0.0014491471 0.030539788 0.006755691 0.101818696 0.07045971 -0.10959359 -0.12157035 -0.024376862
0.130623 -0.045814753 -0.02849188 -0.020837596 -0.052570455 0.04331493 -0.037641164 -0.05379041
-0.07584709 -0.15692407 -0.069117464 -0.025817325 0.018369125 -0.007097109 0.00048062069 0.055790193
0.007253704 0.054972567 0.048810482 0.004961166 0.010520894 -0.09887473 -0.07806387 0.006658812
0.009991117 -0.13038538 -0.19433604 0.1605923 0.073872305 -0.052612584 -0.03135649 0.18238169
-0.05181524 0.11004409 0.0030873853 0.051452782 0.08148126 0.032765117 -0.115223445 0.069674455
-0.10351423 0.062901765 0.04482848 -0.047061 0.008995528 0.02228425 -0.09612265 -0.0899855
0.047527853 -0.0030383768 0.11504543 0.118022 -0.019955758 0.069118656 0.10545456 -0.0075811064
-0.0033217864 0.003791345 0.03284517 0.1455745 -0.035287473 -0.009651472 0.063272454 -0.09735711
0.08645688 -0.11765006 -0.12780254 -0.015138627 -0.042943437 -0.12327509 0.018384775 0.076854944
0.09122862 -0.02785718 -0.095577836 0.09200136 -0.062379267 -0.08429409 0.038008098 -0.13243742
0.04729978 0.0076585724 0.02573043 -0.07001915 0.16456169 -0.06990889 0.03547301 -0.048865072
-0.030595148 0.038244594 0.05323361 -0.16096777 -0.029033085 0.03745809 0.022182347 0.073412366
0.07135829 0.009404514 0.07241001 0.054888055 -0.17558321 -0.030027172 0.07376152 -0.027409632
-0.04743495 0.004745025 0.019821055 -0.050633874 0.055713464 0.016273288 0.046785645 -0.18867184
-0.17008844 -0.030916972 0.02619877 -0.041000005 0.015166929 0.037700944 -0.05790557 -0.04621735
-0.013217241 0.05299924 -0.069318466 0.009232446 -0.06485382 -0.05619594 -0.017916543 0.028586078
-0.011647752 -0.09695152 -0.17803097 -0.086233884 0.0022501482 0.03944963 0.056835055 -0.006305818
-0.0005846636 -0.13910672 0.112636216 -0.05589043 0.19816983 0.03133443 0.053580824 0.16694863
-0.05690639 0.1239273 -0.2360206 -0.06428551 -0.053574566 -0.06723874 -0.060376756 -0.009951722
0.14549404 0.041841436 0.051736806 0.115148045 0.16951951 -0.008728108 -0.09797489 0.023774004
0.06146554 -0.022485064 0.021286389 -0.1345178 0.035725128 -0.10392458 0.060519747 0.03480433
0.056658372 0.123738855 -0.0898341 0.12943096 -0.17308334 0.015024047 -0.24091431 0.04172401
-0.16516638 0.022519749 -0.094277665 0.02956353 0.01054247 0.13175276 -0.07900208 0.00048052374
0.12087813 0.05537113 0.12153558 0.016479598 -0.097163476 0.13588005 -0.09932364 -0.025512528
-0.016751826 0.14532626 -0.023874622 0.07697214 0.10097185 -0.07933575 0.013427729 -0.055785082
0.008773896 -0.017928839 -0.23478676 -0.06298452 -0.089379564 0.029795537 0.010694916 -0.012187566
0.006030199 -0.07586258 0.10804008 -0.099857874 0.010570552 0.083910085 0.026876697 0.038034223
0.04831016 0.123340294 0.10384331 0.091893256 -0.086527 -0.13892764 0.0479726 -0.09622459
00000000: bc4e c6bc 2b5d f83d 3f76 213e 3679 7ebd
00000010: 6c7b eebc d523 6b3d 6619 4a3b f390 55be
00000020: 45a6 363d 18c8 5bbc 74da 3cbd 1f6d 3dbb
00000030: b363 15bd 6b35 bf3d ec7e 5fbd 2f80 aabd
00000040: 7aa6 d83c 2a68 c6bd 82b8 0abe b76c d33d
00000050: c043 333d b54e 263b 5846 8dbd e4a3 133c
00000060: 4ff1 bdba 942e fa3c d85e dd3b 5286 d03d
00000070: 2e4d 903d 9b72 e0bd e0f9 f8bd fcb1 c7bc
00000080: 09c2 053e 40a8 3bbd ce67 e9bc 9bb3 aabc
00000090: 1e54 57bd ff6a 313d 9f2d 1abd 5553 5cbd
000000a0: b855 9bbd b4b0 20be 758d 8dbd db7e d3bc
000000b0: d97a 963c de8e e8bb d1fb fb39 4284 643d
000000c0: 7bb0 ed3b ea2a 613d 80ed 473d 4791 a23b
000000d0: d45f 2c3c d67e cabd f3df 9fbd 2a32 da3b
000000e0: c8b1 233c bf83 05be 0700 47be 4f72 243e
000000f0: 5d4a 973d 4b80 57bd aa6f 00bd 44c2 3a3e
00000100: 383c 54bd cc5e e13d bb55 4a3b 27c0 523d
00000110: a6df a63d b734 063d 45fa ebbd 7bb1 8e3d
00000120: 45ff d3bd a4d2 803d 119e 373d 09c3 40bd
00000130: fb61 133c 768d b63c f4db c4bd 514a b8bd
00000140: 91ac 423d 811f 47bb f09c eb3d 85b5 f13d
00000150: 427a a3bc 158e 8d3d 8ff8 d73d ee6a f8bb
00000160: 54b2 59bb 3778 783b a888 063d 7b11 153e
00000170: 9989 10bd 3521 1ebc fd94 813d 2a63 c7bd
00000180: 4e10 b13d 84f2 f0bd abde 02be 0108 78bc
00000190: 75e5 2fbd a677 fcbd ab9b 963c 2066 9d3d
000001a0: 12d6 ba3d be34 e4bc 50be c3bd 366b bc3d
000001b0: 6781 7fbd 61a2 acbd 61ae 1b3d ad9d 07be
000001c0: 6abd 413d c3f4 fa3b 9fc8 d23c 3366 8fbd
000001d0: dc82 283e 642c 8fbd 264c 113d be26 48bd
000001e0: ada2 fabc 5da6 1c3d 7c0b 5a3d bcd4 24be
000001f0: cbd6 edbc a76d 193d c1b7 b53c 3959 963d
00000200: 4c24 923d 6415 1a3c b34b 943d 4cd2 603d
00000210: 16cc 33be 8bfb f5bc 4810 973d 2a8a e0bc
00000220: 264b 42bd 287c 9b3b c45f a23c 7765 4fbd
00000230: cd33 643d 8f4f 853c 4ea2 3f3d 3133 41be
00000240: aa2b 2ebe 9745 fdbc ce9e d63c 9fef 27bd
00000250: b67e 783c 4e6c 1a3d 642e 6dbd 674e 3dbd
00000260: 208d 58bc bb15 593d d7f6 8dbd af43 173c
00000270: 14d2 84bd b72d 66bd b7c5 92bc 5a2d ea3c
00000280: 36d6 3ebc 858e c6bd c04d 36be 649b b0bd
00000290: 3977 133b ef95 213d e0cb 683d 09a1 cebb
000002a0: 1c44 19ba fe71 0ebe d1ad e63d 5ded 64bd
000002b0: 08ed 4a3e 8858 003d 9177 5b3d 95f4 2a3e
000002c0: ad16 69bd 99cd fd3d 62af 71be 1fa8 83bd
000002d0: 0171 5bbd 77b4 89bd 9e4d 77bd 8c0c 23bc
000002e0: 64fc 143e ed61 2b3d f9e9 533d bdd2 eb3d
000002f0: 8696 2d3e 5700 0fbc 0fa7 c8bd b3c1 c23c
00000300: 4ac3 7b3d 9932 b8bc cb60 ae3c 09bf 09be
00000310: 8354 123d 69d6 d4bd 8ee3 773d fc8e 0e3d
00000320: 9c12 683d cc6a fd3d f1fa b7bd 8d89 043e
00000330: c23c 31be 6c27 763c 3eb2 76be cce6 2a3d
00000340: 6021 29be 567b b83c a614 c1bd 372f f23c
00000350: 53ba 2c3c 32ea 063e d8cb a1bd ceee fb39
00000360: f48e f73d d7cc 623d a5e7 f83d 3900 873c
00000370: a5fd c6bd 2424 0b3e 316a cbbd a6ff d0bc
00000380: 203b 89bc 68d0 143e b694 c3bc 92a3 9d3d
00000390: 54ca ce3d c87a a2bd faff 5b3c e67e 64bd
000003a0: 63c0 0f3c 80df 92bc f16b 70be 07fe 80bd
000003b0: a20c b7bd c515 f43c bb39 2f3c 5bae 47bc
000003c0: fa98 c53b d75d 9bbd 1e44 dd3d 4982 ccbd
000003d0: 1c30 2d3c 0dd9 ab3d 852c dc3c c6c9 1b3d
000003e0: e0e0 453d d699 fc3d cdab d43d 8832 bc3d
000003f0: 1135 b1bd 0c43 0ebe eb7e 443d 6611 c5bd
