Results/test3/SnowBall/checkpoint.pt (torch, 287319 bytes, 14 tensors)

discrete_act_size_vector f4 [1, 2]
0	0x40400000	3.0
1	0x40400000	3.0

network_body._body_endoder.seq_layers.0.weight f4 [128, 138]
0	0x3e184ca8	0.14872992
1	0xbdcd5c2b	-0.10027345
2	0x3ce9fbba	0.028562415
3	0xbcb9d522	-0.022684637
4	0x3bf6e081	0.007534087
5	0xbc6eae0e	-0.014567865
6	0x3d9c09b7	0.076190405
7	0xbcf6277b	-0.030048123
8	0xbcc7affa	-0.024375904
9	0xbcf35024	-0.0297013
10	0xbe012416	-0.12611422
11	0x3db2f9e1	0.08739067
12	0x3d84763c	0.06467864
13	0x3d4e946d	0.05043452
14	0xbd7ebc3b	-0.06219123
15	0x3ddb8896	0.10719411
16	0x3d0ded12	0.034649916
17	0xbd8afffa	-0.06787105
18	0xbdbb4616	-0.09144227
19	0xbd788834	-0.06067677
20	0x3d15cedd	0.036574233
21	0xbb602057	-0.0034198964
22	0xbd437e25	-0.047727723
23	0xbe3cfb97	-0.18455349
24	0x3d0e92f0	0.0348081
25	0xbc92eaaf	-0.017934171
26	0xbc894b8e	-0.01675966
27	0x3d1c0229	0.038087998
28	0xbe057446	-0.13032636
29	0xbe536db1	-0.20647313
30	0x3cb3e12a	0.021957953
31	0x3deeb1f9	0.11655039
32	0x3cebb413	0.02877239
33	0xbe03fd57	-0.1288961
34	0x3dfe1717	0.12406748
35	0x3d8014bc	0.06253955
36	0xbb57d0bf	-0.003293082
37	0xbe1ee830	-0.1551826
38	0x3d8d735f	0.06906771
39	0xbbe39983	-0.0069457903
40	0x3d4bb9d0	0.04973775
41	0xbcb1a3f0	-0.021684617
42	0x3d033d69	0.032040987
43	0xbda5645c	-0.08075783
44	0xbd34e743	-0.04416586
45	0x3e0bcbaa	0.1365191
46	0xbe23d177	-0.15997873
47	0x3d18fc83	0.03735019
48	0x3d6bce8e	0.057570033
49	0xbce71c66	-0.028211784
50	0xbd030d11	-0.031994883
51	0x3c3938f5	0.0113050835
52	0x3dc2b684	0.09507468
53	0x3dc4ef96	0.0961601
54	0x3c1a4fea	0.009418467
55	0x3de16acc	0.11006698
56	0x3de6de76	0.112729
57	0xbd4beb09	-0.049784694
58	0x3c9b0cb4	0.018926956
59	0x3d8391c3	0.06424286
60	0xbd89a1a0	-0.06720281
61	0xbd3f9fe7	-0.046783354
62	0x3dadd73e	0.0848832
63	0xbd27fc07	-0.041011836
64	0x3dc08a1e	0.09401344
65	0x3d9a7917	0.07542627
66	0xbdacaea3	-0.08431747
67	0xbe074f4b	-0.13213842
68	0x3dfb7930	0.12278974
69	0x3d263c1a	0.04058466
70	0x3b81d5e4	0.0039622653
71	0xbe1ea8dd	-0.15494104
72	0x3dcaae76	0.09896557
73	0xbda9031d	-0.08252547
74	0x3dbdbcf0	0.092645526
75	0x3d6021d3	0.054719757
76	0x3d8b2d3b	0.067957364
77	0x3da1b5ee	0.078960285
78	0x3c6220f6	0.013801804
79	0x3d2594c8	0.040425092
80	0xbd566688	-0.052343875
81	0x3b886094	0.0041619036
82	0xbda7a527	-0.08185797
83	0x3e0171b6	0.12641034
84	0xbdb19c3b	-0.08672377
85	0xbd2ba089	-0.041901145
86	0xbd67ef4c	-0.056624696
87	0x3cb3d327	0.021951271
88	0xbd841f20	-0.06451249
89	0xbd8d4874	-0.06898585
90	0xbd553441	-0.052051786
91	0x3d80f8f0	0.06297481
92	0x3e35fbcf	0.17771839
93	0xbcf4fea8	-0.029906586
94	0x3d4506e6	0.048102282
95	0x3dd9569f	0.10612225
96	0x3df2a64b	0.11848124
97	0x3d24580a	0.040123023
98	0xbd007d0c	-0.031369254
99	0x3caa92f3	0.020822024
100	0xbd3ba8e4	-0.045815364
101	0x3e2e232b	0.17005603
102	0x3c6463fe	0.013939856
103	0x3c4ca6be	0.012490926
104	0x3dabc50c	0.08387193
105	0x3d56be44	0.052427545
106	0x3e11a54e	0.14223215
107	0xbdb59dd4	-0.08867994
108	0xbdc19629	-0.09452469
109	0x3d2f7a5d	0.042841304
110	0xbd2194d6	-0.03944858
111	0x3c825334	0.015908815
112	0x3cb8341d	0.022485787
113	0x3e1705ea	0.1474835
114	0xbd381b08	-0.044947654
115	0x3e25d9b7	0.16196333
116	0x3d8815ee	0.06644808
117	0x3c9f61d1	0.019455822
118	0xbd30e9ea	-0.043191828
119	0xbccf565f	-0.02530974
120	0x3ce48d99	0.02789955
121	0xbd701f6b	-0.058623713
122	0xbe3dd3ad	-0.18537779
123	0xbd3fcbea	-0.046825327
124	0xbdebec4a	-0.11519678
125	0xbc1d1176	-0.009586683
126	0xbcb06c62	-0.021536056
127	0xbe3c5093	-0.18390112
128	0xbbf528e9	-0.0074816835
129	0xbe039673	-0.1285036
130	0x3d620519	0.055180643
131	0x3ae2efde	0.0017313918
132	0x3d05ea56	0.032694183
133	0x3a17528d	0.0005772494
134	0xbdf39991	-0.11894525
135	0x3da0fb64	0.07860449
136	0x3cbc20c1	0.022964837
137	0x3c9e7b70	0.019345969
138	0x3df097a8	0.11747676
139	0x3d7c5dd5	0.061612923
140	0xbc703c49	-0.014662811
141	0x3e12a0f1	0.14319207
142	0xbe11735b	-0.14204161
143	0x3a235a79	0.0006231438
144	0x3e094dee	0.13408634
145	0xbd6a911c	-0.057267293
146	0xbe075f01	-0.13219835
147	0x3c2b05a8	0.01043836
148	0xbd04b523	-0.032399308
149	0x3d088ec0	0.033339262
150	0xbba25f83	-0.0049552335
151	0xbc0776a7	-0.008268035
152	0xbd65fda2	-0.056150086
153	0x3c2482ee	0.010040982
154	0xbc8277c6	-0.015926253
155	0x3cf4da07	0.02988912
156	0xbcd72a30	-0.026265234
157	0xbd2151d3	-0.039384674
158	0x3d261ade	0.040552966
159	0x3d89ffbe	0.06738232
160	0xbde138cc	-0.10997161
161	0x3d8f1dbb	0.069880925
162	0xbd3ab234	-0.045580104
163	0x3dda12c7	0.10648113
164	0x3cb5b1f3	0.02217958
165	0x3de89b3d	0.11357734
166	0xbdc28437	-0.09497874
167	0x3d32331c	0.043505773
168	0x3db9dec7	0.090756945
169	0xbdee9c49	-0.11650903
170	0x3d77c6af	0.060492214
171	0x3d43e614	0.04782684
172	0x3cb51def	0.022109
173	0x3dca416d	0.0987576
174	0xbd820005	-0.0634766
175	0xbcf72979	-0.030171143
176	0xbd8c82ae	-0.06860863
177	0xbce0c97a	-0.027439822
178	0xbd8e06b9	-0.06934876
179	0xbda97c21	-0.08275629
180	0xbe118b8d	-0.1421339
181	0xb9867081	-0.00025642294
182	0xbd88991d	-0.06669829
183	0x3c2b32a7	0.010449088
184	0x3d5fc5a5	0.054631848
185	0x3da585d1	0.08082164
186	0x3c8f54e3	0.017496532
187	0xbdf0ab33	-0.11751404
188	0x3d8abf6f	0.06774794
189	0xbc3676a5	-0.0111366855
190	0xbcae754d	-0.021296168
191	0x3e00b467	0.12568818
192	0xbd4b29b5	-0.04960032
193	0x3da6f32a	0.081518486
194	0x3c8026c9	0.015643494
195	0x3cf3906a	0.029731948
196	0x3e14989d	0.14511342
197	0x3c911ed7	0.0177149
198	0x3cbab6f7	0.022792323
199	0xbe1d3e13	-0.1535571
200	0xbbaf5fb6	-0.005351986
201	0x3d94f678	0.07273573
202	0xbdecb2ed	-0.11557565
203	0x3d864104	0.065553695
204	0xbdc682de	-0.0969293
205	0x3db80471	0.08985222
206	0x3dc7d2e0	0.09757018
207	0xbe18f7a8	-0.14938223
208	0xbdcac0f3	-0.099000834
209	0xbcdf12dd	-0.027230674
210	0x3d14edd4	0.036359623
211	0xbc69e891	-0.01427664
212	0xbdd1c978	-0.10243505
213	0xbcd0e4b1	-0.025499674
214	0x3e043069	0.12909092
215	0x3d391518	0.045186132
216	0xbd520ec0	-0.051283598
217	0x3ceea3fc	0.029130928
218	0x3d396e83	0.045271408
219	0xbdc3c230	-0.09558523
220	0xbcfe06c8	-0.031009093
221	0x3d251e3a	0.04031203
222	0x3cd65d6e	0.026167598
223	0xbc3b220f	-0.011421694
224	0x3bcd4a85	0.006264987
225	0xbdac8cfb	-0.084253274
226	0xbd66cd1e	-0.05634796
227	0xbd0670a3	-0.032822262
228	0xbb5bd5e5	-0.003354424
229	0x3da26aed	0.07930551
230	0xbe11823e	-0.1420984
231	0x3ceb49c5	0.0287217
232	0xbb6b6a01	-0.0035921338
233	0x3d4b6b60	0.049662948
234	0xbe01ee72	-0.12688616
235	0x3df85d02	0.12127115
236	0xbe04b1fc	-0.1295852
237	0xbd235996	-0.039880358
238	0x3d830adb	0.06398555
239	0xbd9cbf83	-0.076537155
240	0x3d9741ae	0.07385574
241	0x3d23ad90	0.039960444
242	0xbc4df8ef	-0.012571557
243	0xbd57307a	-0.052536465
244	0x3d1ab998	0.037774652
245	0x3dd95af8	0.10613054
246	0x3da1cda4	0.07900551
247	0x3cb12e27	0.021628452
248	0x3d3ce232	0.046114154
249	0xbb5325ec	-0.0032218648
250	0x3d3a58bb	0.045494776
251	0xbdbb7d6e	-0.09154783
252	0xbd8789a7	-0.06618052
253	0x3def887d	0.11695955
254	0xbcf95b76	-0.03043912
255	0xbd0bf6c0	-0.034170866

network_body._body_endoder.seq_layers.0.bias f4 [128]
0	0x00000000	0.0
1	0x00000000	0.0
2	0x00000000	0.0
3	0x00000000	0.0
4	0x00000000	0.0
5	0x00000000	0.0
6	0x00000000	0.0
7	0x00000000	0.0
8	0x00000000	0.0
9	0x00000000	0.0
10	0x00000000	0.0
11	0x00000000	0.0
12	0x00000000	0.0
13	0x00000000	0.0
14	0x00000000	0.0
15	0x00000000	0.0
16	0x00000000	0.0
17	0x00000000	0.0
18	0x00000000	0.0
19	0x00000000	0.0
20	0x00000000	0.0
21	0x00000000	0.0
22	0x00000000	0.0
23	0x00000000	0.0
24	0x00000000	0.0
25	0x00000000	0.0
26	0x00000000	0.0
27	0x00000000	0.0
28	0x00000000	0.0
29	0x00000000	0.0
30	0x00000000	0.0
31	0x00000000	0.0
32	0x00000000	0.0
33	0x00000000	0.0
34	0x00000000	0.0
35	0x00000000	0.0
36	0x00000000	0.0
37	0x00000000	0.0
38	0x00000000	0.0
39	0x00000000	0.0
40	0x00000000	0.0
41	0x00000000	0.0
42	0x00000000	0.0
43	0x00000000	0.0
44	0x00000000	0.0
45	0x00000000	0.0
46	0x00000000	0.0
47	0x00000000	0.0
48	0x00000000	0.0
49	0x00000000	0.0
50	0x00000000	0.0
51	0x00000000	0.0
52	0x00000000	0.0
53	0x00000000	0.0
54	0x00000000	0.0
55	0x00000000	0.0
56	0x00000000	0.0
57	0x00000000	0.0
58	0x00000000	0.0
59	0x00000000	0.0
60	0x00000000	0.0
61	0x00000000	0.0
62	0x00000000	0.0
63	0x00000000	0.0
64	0x00000000	0.0
65	0x00000000	0.0
66	0x00000000	0.0
67	0x00000000	0.0
68	0x00000000	0.0
69	0x00000000	0.0
70	0x00000000	0.0
71	0x00000000	0.0
72	0x00000000	0.0
73	0x00000000	0.0
74	0x00000000	0.0
75	0x00000000	0.0
76	0x00000000	0.0
77	0x00000000	0.0
78	0x00000000	0.0
79	0x00000000	0.0
80	0x00000000	0.0
81	0x00000000	0.0
82	0x00000000	0.0
83	0x00000000	0.0
84	0x00000000	0.0
85	0x00000000	0.0
86	0x00000000	0.0
87	0x00000000	0.0
88	0x00000000	0.0
89	0x00000000	0.0
90	0x00000000	0.0
91	0x00000000	0.0
92	0x00000000	0.0
93	0x00000000	0.0
94	0x00000000	0.0
95	0x00000000	0.0
96	0x00000000	0.0
97	0x00000000	0.0
98	0x00000000	0.0
99	0x00000000	0.0
100	0x00000000	0.0
101	0x00000000	0.0
102	0x00000000	0.0
103	0x00000000	0.0
104	0x00000000	0.0
105	0x00000000	0.0
106	0x00000000	0.0
107	0x00000000	0.0
108	0x00000000	0.0
109	0x00000000	0.0
110	0x00000000	0.0
111	0x00000000	0.0
112	0x00000000	0.0
113	0x00000000	0.0
114	0x00000000	0.0
115	0x00000000	0.0
116	0x00000000	0.0
117	0x00000000	0.0
118	0x00000000	0.0
119	0x00000000	0.0
120	0x00000000	0.0
121	0x00000000	0.0
122	0x00000000	0.0
123	0x00000000	0.0
124	0x00000000	0.0
125	0x00000000	0.0
126	0x00000000	0.0
127	0x00000000	0.0

network_body._body_endoder.seq_layers.2.weight f4 [128, 128]
0	0xbd91c69b	-0.07117959
1	0x3c9cc93e	0.019138929
2	0x3e51829f	0.20459984
3	0xbd5df969	-0.054192934
4	0x3d4962fa	0.049166657
5	0xbe642909	-0.22281279
6	0x3d0b8d01	0.03407002
7	0x3cfdc4d9	0.030977653
8	0xbb3bee12	-0.0028675837
9	0xbca5d9c4	-0.02024544
10	0x3c7f0473	0.015565026
11	0x3ddf53f2	0.10904683
12	0xbc5d8d6c	-0.013522487
13	0x3c979bda	0.018506933
14	0xbd5d54cf	-0.054035958
15	0x3cf591ff	0.029976843
16	0x3e02bf05	0.1276818
17	0x3d56a295	0.052401144
18	0x3bdc9d9d	0.006732656
19	0xbc42d4bb	-0.011891539
20	0xbd18139f	-0.037128087
21	0xbce9729b	-0.028497031
22	0x3dbf0a6f	0.09328162
23	0x3c60ea5e	0.0137277525
24	0x3d3e01dd	0.046388496
25	0xbcfc4aec	-0.030797444
26	0xbcfa0e39	-0.03052436
27	0x3d20de0c	0.03927426
28	0xbb9b768f	-0.004744358
29	0x3cdf9cd8	0.027296469
30	0x3dab8ef2	0.08376874
31	0xbe1c1427	-0.15242063
32	0xbe2fbaef	-0.17161153
33	0xbd0c8c01	-0.034313206
34	0xbc3fea88	-0.011713631
35	0x3e28aded	0.16472597
36	0x3d6d95ec	0.058004305
37	0x3dc145a3	0.0943711
38	0x3d251902	0.040307052
39	0xbdead8d3	-0.11467137
40	0x3c04d7eb	0.0081081195
41	0x3b13be7c	0.0022543957
42	0x3cad73db	0.021173408
43	0x3bd71e3b	0.006564883
44	0xbc5b02fb	-0.01336741
45	0xba7cdc7d	-0.00096458924
46	0xbb3b8294	-0.0028611766
47	0xbb8e5615	-0.004343758
48	0x3b85c00e	0.0040817326
49	0xbd777627	-0.060415413
50	0xbb24a474	-0.0025122436
51	0xbda765d7	-0.08173721
52	0x3d20a242	0.03921724
53	0x3dbbd085	0.09170631
54	0x3dcd382f	0.10020482
55	0x3d311a74	0.04323812
56	0xbd0dba82	-0.034601696
57	0x3d85f320	0.06540513
58	0xbcac7f6a	-0.02105685
59	0xbe1f83e1	-0.15577652
60	0xbe27cc61	-0.16386558
61	0xbd272c70	-0.040813863
62	0x3c56cf23	0.013110909
63	0xbd205fe7	-0.03915396
64	0x3d0e1c28	0.03469482
65	0x3e210783	0.15725522
66	0x3c5cfdfc	0.013488289
67	0x3dc10a27	0.094257645
68	0xbd94e2e6	-0.0726984
69	0xbd07989f	-0.033104535
70	0x3dc92fb2	0.0982355
71	0xbd3c7900	-0.046013832
72	0xbe2788ad	-0.16360731
73	0xbe0a0230	-0.13477397
74	0x3a887026	0.0010409399
75	0x3db5a5c6	0.088695094
76	0xbcb40120	-0.021973193
77	0xbe28c2db	-0.16480581
78	0x3e091e87	0.13390552
79	0xbd24694b	-0.040139478
80	0x3c4fd66d	0.0126854
81	0x3e36203d	0.17785735
82	0xbd93c9dc	-0.07216236
83	0xbe292190	-0.1651671
84	0xbe1cbeed	-0.15307207
85	0xbdb17512	-0.086649075
86	0xbd296972	-0.041360326
87	0xbc868162	-0.016419116
88	0xbc3c0391	-0.01147546
89	0xbe0359cb	-0.12827222
90	0x3e5c3d18	0.2150768
91	0xbcc22be5	-0.023702571
92	0xbe876288	-0.2644236
93	0xbc80b5f3	-0.01571176
94	0xbe1481c9	-0.14502634
95	0x3cc58dda	0.024115492
96	0xbdd01697	-0.10160559
97	0x3d3193bd	0.043353785
98	0xbde5e02a	-0.112243965
99	0x3d9daf9b	0.0769951
100	0xbdfabefd	-0.122434594
101	0x3e0451c9	0.12921824
102	0xbe3ac65e	-0.18239734
103	0x3c81ea6b	0.01585885
104	0x3d5723c9	0.05252436
105	0xbda6086b	-0.08107074
106	0x3df4b13f	0.119478695
107	0x3e02dc4f	0.12779354
108	0xbe0a55d6	-0.13509306
109	0x3d58f681	0.05296946
110	0x3ca8f75a	0.020625759
111	0xbd988ca7	-0.07448702
112	0x3d8d98df	0.069139235
113	0xbbba2dea	-0.005681743
114	0x3d8c48d3	0.068498276
115	0x3d4511e0	0.04811275
116	0x3e03b9fe	0.12863919
117	0x3d555ab0	0.05208844
118	0x3e3721bb	0.17883961
119	0xbda303e6	-0.07959728
120	0x3ddca450	0.107735276
121	0x3d74b8c7	0.05974653
122	0x3d022b77	0.031779733
123	0xbdbdaab1	-0.092610724
124	0x3e2ce15d	0.16882844
125	0xbdd89ca3	-0.10576751
126	0xbd5256ce	-0.051352315
127	0x3b0a5a7f	0.0021111069
128	0xbdcb7a97	-0.099354915
129	0x3da7d87c	0.08195588
130	0xbd00cfb7	-0.031448092
131	0xbda600cc	-0.08105621
132	0x3e151d48	0.14561951
133	0xbe175696	-0.14779124
134	0x3e249f7a	0.1607646
135	0x3d5a325d	0.053270686
136	0xbd552633	-0.052038383
137	0x3c3c87a8	0.011506952
138	0x3d678261	0.056520823
139	0x3db48a14	0.08815399
140	0xbd39a253	-0.04532082
141	0xbc1a04ff	-0.009400605
142	0xbd6f4008	-0.058410674
143	0xbd4a5aaa	-0.04940287
144	0xbdad729f	-0.08469128
145	0x3bde0d2a	0.0067764716
146	0xbdfbe938	-0.12300342
147	0x3d5a1a16	0.053247534
148	0xbd5337f1	-0.05156702
149	0x3e248d33	0.16069488
150	0xbcc9f65e	-0.02465361
151	0x3d6fdc5f	0.05855977
152	0x3c6f0534	0.014588643
153	0xbd4ff29e	-0.050768487
154	0xbd834875	-0.064103045
155	0x3c88ff3a	0.016723264
156	0xbd18092d	-0.037118126
157	0xbc147bcc	-0.009062719
158	0x3cf597f2	0.02997968
159	0xbc9abe61	-0.018889608
160	0x3db9ee76	0.09078686
161	0x3d71e197	0.05905303
162	0xbdf68b70	-0.12038314
163	0xbc09223e	-0.00836998
164	0x3b871894	0.004122803
165	0xbde35ef5	-0.11102096
166	0x3d20dfa3	0.039275777
167	0x3d81e91d	0.06343291
168	0x3e3074f2	0.17232111
169	0xbd5a9f10	-0.05337435
170	0x3dbcdcb4	0.09221783
171	0x3bdf1223	0.006807582
172	0xbb79f90f	-0.0038142835
173	0xbc2bbacd	-0.0104815485
174	0x3d1586eb	0.03650562
175	0xbdba475a	-0.090956405
176	0xbd6fdf9f	-0.05856287
177	0xbd231551	-0.03981525
178	0x3d107dfd	0.0352764
179	0x3cb79993	0.022412097
180	0x3ce7150d	0.02820828
181	0x3d9817ad	0.07426391
182	0xbc89f851	-0.01684204
183	0x3ca9b8d8	0.020718023
184	0x3e036844	0.12832743
185	0x3db01776	0.08598225
186	0x3c8b9c75	0.017042378
187	0x3caceb04	0.021108158
188	0xbd825a8a	-0.06364925
189	0x3c8ba092	0.01704434
190	0x3d62ccdb	0.055371147
191	0xbdaa7085	-0.08322243
192	0xbb02e71d	-0.001997418
193	0xbdd3fc21	-0.10350824
194	0x3e18bcbf	0.14915751
195	0xbdb08014	-0.08618179
196	0xbdf46ab4	-0.119344145
197	0xbdbdeba1	-0.09273458
198	0xbe1800e9	-0.14844097
199	0x3d396b10	0.04526812
200	0xbd6217bd	-0.05519842
201	0x3e3e268e	0.18569395
202	0xbb771fec	-0.0037708236
203	0xbd531ab1	-0.051539127
204	0xbd69d5dd	-0.05708872
205	0xbdf6a411	-0.12043012
206	0x3e06a6a6	0.13149509
207	0xbdfa2067	-0.122132115
208	0x3e1706f2	0.14748743
209	0x3d963185	0.07333664
210	0xbdcc080e	-0.09962474
211	0x3df984b9	0.12183518
212	0xbda238f9	-0.07921023
213	0xbe2331ff	-0.15937041
214	0xbd76f922	-0.060296185
215	0x3c41ff1e	0.01184061
216	0xbdcc8cfb	-0.099878274
217	0xbdba899e	-0.0910828
218	0x3cc079fd	0.023495669
219	0x3db5bfb7	0.08874457
220	0xbdef725b	-0.116917334
221	0x3d708876	0.05872389
222	0x3c3c5850	0.011495665
223	0x3c802b61	0.015645685
224	0xbdda2082	-0.106507316
225	0xbd240271	-0.04004139
226	0xbd4d18f8	-0.05007264
227	0xbbb35b26	-0.005473512
228	0x3deda67a	0.116040185
229	0x3e360c3b	0.17778103
230	0x3ddd42df	0.1080377
231	0x3e1c2e22	0.15251973
232	0x3da1d075	0.07901088
233	0xbdbb76bf	-0.091535084
234	0x3e84aa72	0.2591129
235	0xbdc2ac05	-0.09505466
236	0x3dbae962	0.091265455
237	0x3e042131	0.12903287
238	0xbda595c2	-0.08085205
239	0x3dca41bd	0.0987582
240	0xbc70b202	-0.014690878
241	0xbcdd9ea7	-0.02705319
242	0x3cc82f19	0.02443652
243	0x3c9a6347	0.018846167
244	0xbd812003	-0.06304934
245	0x3db3719a	0.08761902
246	0xbe20e2f1	-0.15711571
247	0x3dabb52b	0.083841644
248	0xbd4987e5	-0.049201865
249	0x3dcc66a4	0.09980515
250	0x3d4686f6	0.048468553
251	0x3a57c3d7	0.00082307815
252	0xbdc7a360	-0.09747958
253	0xbc9b62b5	-0.018967966
254	0x3dc92fc0	0.09823561
255	0x3e079aec	0.13242692

network_body._body_endoder.seq_layers.2.bias f4 [128]
0	0x00000000	0.0
1	0x00000000	0.0
2	0x00000000	0.0
3	0x00000000	0.0
4	0x00000000	0.0
5	0x00000000	0.0
6	0x00000000	0.0
7	0x00000000	0.0
8	0x00000000	0.0
9	0x00000000	0.0
10	0x00000000	0.0
11	0x00000000	0.0
12	0x00000000	0.0
13	0x00000000	0.0
14	0x00000000	0.0
15	0x00000000	0.0
16	0x00000000	0.0
17	0x00000000	0.0
18	0x00000000	0.0
19	0x00000000	0.0
20	0x00000000	0.0
21	0x00000000	0.0
22	0x00000000	0.0
23	0x00000000	0.0
24	0x00000000	0.0
25	0x00000000	0.0
26	0x00000000	0.0
27	0x00000000	0.0
28	0x00000000	0.0
29	0x00000000	0.0
30	0x00000000	0.0
31	0x00000000	0.0
32	0x00000000	0.0
33	0x00000000	0.0
34	0x00000000	0.0
35	0x00000000	0.0
36	0x00000000	0.0
37	0x00000000	0.0
38	0x00000000	0.0
39	0x00000000	0.0
40	0x00000000	0.0
41	0x00000000	0.0
42	0x00000000	0.0
43	0x00000000	0.0
44	0x00000000	0.0
45	0x00000000	0.0
46	0x00000000	0.0
47	0x00000000	0.0
48	0x00000000	0.0
49	0x00000000	0.0
50	0x00000000	0.0
51	0x00000000	0.0
52	0x00000000	0.0
53	0x00000000	0.0
54	0x00000000	0.0
55	0x00000000	0.0
56	0x00000000	0.0
57	0x00000000	0.0
58	0x00000000	0.0
59	0x00000000	0.0
60	0x00000000	0.0
61	0x00000000	0.0
62	0x00000000	0.0
63	0x00000000	0.0
64	0x00000000	0.0
65	0x00000000	0.0
66	0x00000000	0.0
67	0x00000000	0.0
68	0x00000000	0.0
69	0x00000000	0.0
70	0x00000000	0.0
71	0x00000000	0.0
72	0x00000000	0.0
73	0x00000000	0.0
74	0x00000000	0.0
75	0x00000000	0.0
76	0x00000000	0.0
77	0x00000000	0.0
78	0x00000000	0.0
79	0x00000000	0.0
80	0x00000000	0.0
81	0x00000000	0.0
82	0x00000000	0.0
83	0x00000000	0.0
84	0x00000000	0.0
85	0x00000000	0.0
86	0x00000000	0.0
87	0x00000000	0.0
88	0x00000000	0.0
89	0x00000000	0.0
90	0x00000000	0.0
91	0x00000000	0.0
92	0x00000000	0.0
93	0x00000000	0.0
94	0x00000000	0.0
95	0x00000000	0.0
96	0x00000000	0.0
97	0x00000000	0.0
98	0x00000000	0.0
99	0x00000000	0.0
100	0x00000000	0.0
101	0x00000000	0.0
102	0x00000000	0.0
103	0x00000000	0.0
104	0x00000000	0.0
105	0x00000000	0.0
106	0x00000000	0.0
107	0x00000000	0.0
108	0x00000000	0.0
109	0x00000000	0.0
110	0x00000000	0.0
111	0x00000000	0.0
112	0x00000000	0.0
113	0x00000000	0.0
114	0x00000000	0.0
115	0x00000000	0.0
116	0x00000000	0.0
117	0x00000000	0.0
118	0x00000000	0.0
119	0x00000000	0.0
120	0x00000000	0.0
121	0x00000000	0.0
122	0x00000000	0.0
123	0x00000000	0.0
124	0x00000000	0.0
125	0x00000000	0.0
126	0x00000000	0.0
127	0x00000000	0.0

action_model._discrete_distribution.branches.0.weight f4 [3, 128]
0	0x3c2f4454	0.010697443
1	0x3c57fb2b	0.013182442
2	0xba529618	-0.000803323
3	0x3c56fefb	0.0131223155
4	0xbc9c7d23	-0.019102639
5	0xbb5ae35a	-0.0033399672
6	0xbc203667	-0.0097785955
7	0x3b179187	0.0023127513
8	0x3b7f4680	0.0038951933
9	0x3b557e0f	0.0032576357
10	0x3c21a3e9	0.009865739
11	0xbbd50a9a	-0.006501508
12	0x3b3ca502	0.0028784876
13	0xbc19d83b	-0.009389932
14	0xbbc41763	-0.005984233
15	0x39f3246f	0.00046375717
16	0x3b75cf7a	0.00375077
17	0x3bc98ac3	0.006150575
18	0xbb9cc429	-0.0047841263
19	0x3c0109d5	0.007875879
20	0xbb50be1f	-0.0031851602
21	0xbc0e7ba6	-0.008696472
22	0x3c1b40b3	0.009475875
23	0xbc16327d	-0.009167311
24	0x3c200fab	0.009769361
25	0xbc1061a3	-0.008812341
26	0xbbfcd3f8	-0.0077156983
27	0xbc28aa9b	-0.010294582
28	0xbb53d88a	-0.0032325112
29	0x38c97f87	9.608181e-05
30	0xbbb23483	-0.005438389
31	0x37debdeb	2.65529e-05
32	0x3baff89b	0.0053702123
33	0x3cb5151f	0.022104798
34	0xbc0ac853	-0.008470613
35	0x3acfa94b	0.00158433
36	0xbc7ac29f	-0.01530519
37	0xbc27ea8e	-0.010248793
38	0x3c296aac	0.010340374
39	0xbb8273ea	-0.003981103
40	0xbbb5cf5a	-0.0055484
41	0xbb2198d2	-0.0024657738
42	0x3badf33a	0.005308536
43	0xbb09f873	-0.0021052628
44	0xbbfd2a9a	-0.007726026
45	0x3c684e45	0.014178817
46	0xbba5e8d3	-0.005063155
47	0xbc34ac8f	-0.011027469
48	0xbbd59fe3	-0.006519304
49	0x3b1d0a70	0.002396252
50	0xb8e42b93	-0.000108800035
51	0xba02251f	-0.0004964638
52	0xbbc3b990	-0.0059730485
53	0xba38e42f	-0.0007053045
54	0x3c41ffdb	0.011840786
55	0xbafc1c7d	-0.0019234564
56	0x3cb21e38	0.021742925
57	0x3ba616dc	0.005068643
58	0xba9beb3f	-0.001189567
59	0x3c417dc1	0.011809767
60	0x3c871f17	0.016494317
61	0x3b9d0203	0.0047914996
62	0x3c29d230	0.010365054
63	0xbc3036e5	-0.010755275
64	0xbb249648	-0.0025113989
65	0x3aa164f3	0.001231341
66	0x3c2fc384	0.010727767
67	0x3bf27295	0.007398913
68	0x3be245b5	0.0069052824
69	0x3bd881d5	0.006607274
70	0xbaa3b6c0	-0.0012490377
71	0x3bb8a4d2	0.0056348825
72	0x3bedead2	0.007260659
73	0x3b60e245	0.0034314555
74	0x3b9c6e09	0.0047738594
75	0x3c86452f	0.016390411
76	0x3bbe3071	0.0058041145
77	0xbbed0f25	-0.0072344714
78	0x3c230c2a	0.009951631
79	0x3bba5cff	0.0056873555
80	0x3bdbdb8a	0.0067095207
81	0x3aef5d88	0.0018262127
82	0x3bf4628d	0.007458037
83	0xbc52603a	-0.012840325
84	0xbb856c87	-0.0040717754
85	0x3be8b457	0.0071015763
86	0xbb875abc	-0.0041306894
87	0xb917c807	-0.00014474998
88	0xbc3468e2	-0.011011334
89	0x3c98eed4	0.01866857
90	0xbbd00392	-0.006348082
91	0xbc63ea3d	-0.013910827
92	0x3b9b74e9	0.0047441614
93	0xbba3ea27	-0.0050022784
94	0x3ae195bf	0.0017210766
95	0xba95eeb3	-0.0011438936
96	0xbba244bc	-0.0049520414
97	0x3b86da2b	0.004115363
98	0x3abec117	0.0014553395
99	0xbbb2abb5	-0.005452598
100	0xbc3809fe	-0.011232851
101	0x3ad11058	0.0015950305
102	0x3c205c3b	0.009787614
103	0x3b39a5f2	0.002832767
104	0xbc3ac82a	-0.011400262
105	0x3b871dad	0.0041234107
106	0x3bb882e1	0.0056308364
107	0x3c1c7f56	0.009551844
108	0xbc45a96f	-0.012064322
109	0xbc17fee0	-0.0092770755
110	0xbb2ce06b	-0.002637888
111	0xbbc247e7	-0.0059289816
112	0x3cb15291	0.021645816
113	0x3b7f99db	0.0039001617
114	0x3b7e023d	0.0038758658
115	0xbb2fa80b	-0.0026803042
116	0xbb466fe0	-0.0030279085
117	0xbacf487b	-0.0015814448
118	0xbb9da783	-0.0048112287
119	0xba9cc657	-0.0011960965
120	0xbc37a069	-0.011207678
121	0xbaa189fc	-0.0012324448
122	0xbbf34b93	-0.0074247806
123	0x3c601dd2	0.013678985
124	0x3c00dc82	0.007865073
125	0x3bcea8e7	0.006306756
126	0xb9ae341e	-0.00033226697
127	0xb9f6456b	-0.00046972497
128	0x3bbe35ae	0.005804739
129	0xbbf7ea52	-0.007565775
130	0xbb4fe0d0	-0.0031719692
131	0xbc271f57	-0.010200343
132	0x3c777d8a	0.015105614
133	0x3ba2c7ba	0.004967657
134	0xbba6363f	-0.0050723846
135	0x3b570fb8	0.0032815766
136	0x3c332464	0.010933969
137	0x3a9227aa	0.0011150737
138	0xbbe6106b	-0.007021
139	0xbb611877	-0.0034346858
140	0xbc002d8b	-0.007823358
141	0x3a06ba16	0.00051394233
142	0xbc17f60f	-0.0092749735
143	0x397f4c75	0.00024347178
144	0xbc96d5fb	-0.01841258
145	0x3c4b5b92	0.012411969
146	0x3be97a93	0.0071252077
147	0xbc451b1f	-0.012030392
148	0x398ff4df	0.0002745753
149	0xbba39d89	-0.004993145
150	0xbb39d1e8	-0.0028353874
151	0x3b984923	0.0046473905
152	0x3c033437	0.008008054
153	0x3d008f9c	0.031386957
154	0xbbb22f8b	-0.0054377965
155	0x3b4db750	0.003138978
156	0x3b7d2902	0.003862918
157	0x3989b852	0.00026268006
158	0x3c63cdb5	0.013904025
159	0xbc7803bd	-0.01513761
160	0x3c44fbca	0.012022922
161	0xbc599f1b	-0.013282563
162	0xba95c88f	-0.0011427569
163	0xbc1bf469	-0.009518721
164	0x3c26bda9	0.010177054
165	0xbbbc5a1f	-0.005748048
166	0x3c66861f	0.014070063
167	0x3c65083d	0.013979015
168	0xbc4694ac	-0.012120407
169	0xbbe64a88	-0.007027928
170	0x3ba4534c	0.0050148126
171	0xbc98d33b	-0.01865541
172	0xbbd050cb	-0.0063572875
173	0x3b7e5883	0.0038810081
174	0x3b77fcdb	0.0037839923
175	0x3baf0755	0.00534145
176	0xbcbcdd86	-0.02305485
177	0x3c10eed3	0.008846003
178	0x3cb7a4ce	0.022417452
179	0xbaf223ca	-0.0018473801
180	0xbabafbcf	-0.0014265719
181	0x3c54820d	0.01297046
182	0xbb88b88e	-0.0041723913
183	0x3b8549b8	0.004067626
184	0xbb26ad5c	-0.002543292
185	0x3c113154	0.008861858
186	0xbb4ccb4a	-0.00312491
187	0x3bdd31ef	0.0067503373
188	0xbb825eb9	-0.003978577
189	0x3c44f377	0.012020937
190	0x3b1a3cfa	0.002353488
191	0x3bdd5988	0.0067550577
192	0xba497266	-0.0007684588
193	0xba8a7ea8	-0.0010566311
194	0xbbbbcd07	-0.0057312283
195	0x3b8677ed	0.0041036517
196	0xbb39ba2b	-0.0028339725
197	0x3affb3ca	0.0019508537
198	0x3bc99801	0.0061521535
199	0xbc58e4a2	-0.013238104
200	0x3c939f35	0.018020252
201	0x3b167b55	0.0022961695
202	0x3bca8174	0.006179983
203	0xbc9cb4e3	-0.019129222
204	0xbb84d21b	-0.004053367
205	0x3c5c18df	0.013433664
206	0x3c4d40bb	0.01252764
207	0x3a6db95a	0.0009068452
208	0x3b88320d	0.004156357
209	0x3b85adf8	0.0040795766
210	0x3b1be234	0.002378595
211	0xbc25c1c0	-0.010116994
212	0xbc52ab1f	-0.012858181
213	0x3bd68abf	0.0065473015
214	0xbb567c1d	-0.0032727786
215	0x3b2b58df	0.00261455
216	0x3c90ec4f	0.017690806
217	0x3b7aba4a	0.003825801
218	0xbaa9d9e7	-0.0012958617
219	0x3ad09d43	0.0015916008
220	0x3c184c90	0.009295598
221	0xba876aa7	-0.0010331467
222	0x3aded263	0.0016999956
223	0x3c031c2c	0.008002322
224	0xb9c39b16	-0.00037308846
225	0xbb1b3d87	-0.0023687796
226	0x3c878d59	0.016546892
227	0x3b43daa0	0.002988495
228	0x3bc5ed9d	0.0060402886
229	0x3bd5c9a0	0.0065242797
230	0xbb4d2c10	-0.003130678
231	0xba8dde53	-0.0010823704
232	0x3bebb043	0.007192643
233	0xbbabdbfd	-0.0052447305
234	0x3c0bd1e5	0.0085339295
235	0xbc089247	-0.0083356565
236	0xbc00924f	-0.007847383
237	0x3a66dd25	0.0008806757
238	0xbc5fa1ab	-0.0136493845
239	0xbb624e35	-0.0034531478
240	0xbc509a42	-0.01273209
241	0xbbe3e302	-0.0069545517
242	0xbc6a2c3a	-0.014292771
243	0xbc2dc0af	-0.010605021
244	0x3b008dc3	0.0019615747
245	0xbc365215	-0.011127968
246	0xbc8e6558	-0.017382309
247	0xbc85a193	-0.016312396
248	0x3c50f4b7	0.012753657
249	0xbc2b90c7	-0.010471529
250	0x3b55f970	0.0032649897
251	0x3c36cefb	0.011157746
252	0x3c0fe893	0.008783477
253	0x3956a862	0.00020471358
254	0x3b570838	0.0032811295
255	0xbb9cc9d7	-0.0047848034

action_model._discrete_distribution.branches.0.bias f4 [3]
0	0x00000000	0.0
1	0x00000000	0.0
2	0x00000000	0.0

action_model._discrete_distribution.branches.1.weight f4 [3, 128]
0	0x3c085e5f	0.008323281
1	0x3bb1b5b3	0.0054232716
2	0xbc30a9a3	-0.010782632
3	0xba6178ed	-0.0008601088
4	0x3bad9f0e	0.005298502
5	0xbab0a5c7	-0.001347714
6	0x3c02b61d	0.0079779895
7	0x3bc0ccb0	0.0058837757
8	0x3b6abc77	0.00358179
9	0xbad86508	-0.0016509602
10	0x3ca0f282	0.019646887
11	0xbb982559	-0.004643124
12	0xbbbbf99e	-0.005736544
13	0xbbe67d17	-0.007033955
14	0x3c43f72b	0.011960785
15	0x3c9950ee	0.018715348
16	0x3b41369f	0.002948202
17	0xbb98c641	-0.0046623056
18	0xbba69f31	-0.005084895
19	0xbafc8587	-0.0019265868
20	0xbbb4f0bf	-0.0055218632
21	0xb9d40ac3	-0.0004044381
22	0xbbdaa083	-0.0066719665
23	0x3c19b94b	0.009382556
24	0xbc27cc07	-0.010241515
25	0x3c3eb4c9	0.011639782
26	0x3b55943d	0.0032589578
27	0x3c080deb	0.0083041
28	0xbb1f33dd	-0.0024292388
29	0x3b020463	0.001983904
30	0x3b68faf0	0.003554996
31	0xbae9a112	-0.0017824492
32	0x3ab1be2c	0.0013560704
33	0xb9f31cfb	-0.00046370164
34	0x3bd993ca	0.0066399323
35	0xbbe28bef	-0.006913654
36	0xbbee903d	-0.007280378
37	0xbc456902	-0.012048962
38	0xba930c88	-0.0011218945
39	0xbbc07f27	-0.0058745327
40	0xba82330b	-0.0009933425
41	0x3c9beca6	0.019033741
42	0x3b5de5af	0.0033858826
43	0x3bb352b3	0.005472505
44	0xbb907996	-0.0044090254
45	0xbb0d6357	-0.0021574104
46	0xbb931f42	-0.00448981
47	0xbc481b4e	-0.012213541
48	0x3baedf94	0.005336711
49	0x3b8daf3b	0.0043238676
50	0x3b314c09	0.0027053377
51	0x3c551947	0.013006515
52	0xbb979dc7	-0.004626963
53	0x3ba9f573	0.0051867305
54	0xbb2d89e9	-0.0026479906
55	0xbc1feecd	-0.009761524
56	0xbcb1ab65	-0.021688173
57	0x3c65695a	0.014002169
58	0xbb36fad5	-0.0027920504
59	0xb9f74453	-0.00047162417
60	0xbc080f1b	-0.008304383
61	0xbc624d97	-0.013812444
62	0xbc83b19d	-0.016075904
63	0xbc64c375	-0.013962616
64	0x3c94287d	0.018085713
65	0xbbd423c8	-0.006473992
66	0x3ba47043	0.0050182655
67	0x3c660adf	0.014040678
68	0xbc1c347e	-0.0095339995
69	0xb960795f	-0.00021407519
70	0x3ba3f2c7	0.0050033065
71	0x3caf8610	0.02142623
72	0xbc560b9f	-0.013064294
73	0xbc366143	-0.011131587
74	0x3c2bdc36	0.010489514
75	0xbc1e03e7	-0.009644485
76	0xbb3b4853	-0.0028577044
77	0x3b4ff3b5	0.0031730954
78	0x3bf17b7a	0.007369456
79	0x3c79bb42	0.0152424
80	0xbc04208e	-0.008064402
81	0x3c800e1f	0.015631733
82	0x3c3d3f57	0.011550746
83	0x3bad63ae	0.0052914238
84	0xbb8ad910	-0.0042373016
85	0x3c8c849b	0.017153075
86	0x3c7d37ed	0.015455228
87	0x3cad2104	0.021133907
88	0x3bcf5d20	0.00632824
89	0xbbf8fcc0	-0.0075984895
90	0x3badaa5d	0.00529985
91	0xbabb2a80	-0.0014279634
92	0x3b3c699c	0.0028749472
93	0xbac9e6f8	-0.0015403917
94	0x3c377482	0.011197211
95	0xbad9bb28	-0.0016611563
96	0x3be7e8d3	0.0070773154
97	0xbaa01b26	-0.0012215122
98	0xbc890c46	-0.016729485
99	0x3af1ade7	0.0018438668
100	0x3c20e89c	0.009821083
101	0xbc4bdf45	-0.012443368
102	0xbcab7c56	-0.020933311
103	0xb9bce964	-0.00036032044
104	0x3b0d39d0	0.0021549352
105	0xbba2e92e	-0.004971645
106	0x3b7197ed	0.0036864236
107	0xbb7c2f7d	-0.0038480454
108	0x3b02e287	0.0019971447
109	0xbb8069d4	-0.0039188657
110	0x3c2b2ca6	0.010447657
111	0xbcab6307	-0.020921243
112	0xbbb4c38f	-0.0055164765
113	0xbc410900	-0.011781931
114	0xbb3db40b	-0.0028946425
115	0x3b7f0843	0.0038914836
116	0x3c456536	0.012048056
117	0x3b12defd	0.0022410743
118	0xbb6adc3a	-0.0035836832
119	0x39b427c3	0.000343619
120	0x3c4cdfe8	0.012504555
121	0x3badb55f	0.005301162
122	0x3ba4fe57	0.0050352025
123	0x3c1b7197	0.009487531
124	0x3b01549a	0.0019734264
125	0xbce35c28	-0.027753904
126	0x3b954d9d	0.0045563714
127	0xbae5ec8d	-0.0017541811
128	0xbc84d1d5	-0.016213337
129	0x3c02e862	0.007989975
130	0xbaf9bd93	-0.001905369
131	0xbbe97a93	-0.0071252077
132	0xb983e11f	-0.00025153995
133	0xbc6a88b7	-0.014314822
134	0xbbe1f19b	-0.0068952567
135	0xbb377d78	-0.002799837
136	0xbb7570a2	-0.0037451168
137	0x3c35c5be	0.011094509
138	0x381250fd	3.488454e-05
139	0xbb6c968a	-0.003610047
140	0xb9ec1ef5	-0.00045036493
141	0xbb7f8657	-0.0038989985
142	0xbb963af9	-0.004584667
143	0x3b681b28	0.0035416577
144	0x3a2859ab	0.0006422053
145	0x3c199c4e	0.009375645
146	0xbbc56f23	-0.0060252114
147	0x3ba1a0dc	0.004932506
148	0x3be9b0f8	0.007131692
149	0xbc2256e0	-0.009908408
150	0x3c2d7815	0.010587712
151	0xbc3ddacc	-0.01158781
152	0xba52f6a3	-0.0008047616
153	0xbc08e905	-0.008356337
154	0x3b075943	0.002065257
155	0xbc274d67	-0.010211325
156	0x3b780fca	0.0037851208
157	0xbbe4efc2	-0.006986589
158	0x3aa1cfe9	0.0012345287
159	0x3b868643	0.0041053607
160	0xbb0e80a7	-0.0021744163
161	0xbc132b18	-0.008982442
162	0x3c24c8e0	0.010057658
163	0xbb5d2b13	-0.0033747598
164	0x3bc7b5ac	0.006094655
165	0x3cb52943	0.022114402
166	0xbc23c95c	-0.009996738
167	0x3a5840a0	0.0008249376
168	0xbb5a18a2	-0.0033278842
169	0xbb237bb6	-0.0024945564
170	0xbbbfd1e9	-0.0058538807
171	0x3b3002dd	0.0026857175
172	0xbb2fa2bb	-0.0026799876
173	0x3b907b15	0.004409204
174	0x3ba829e6	0.005131948
175	0xbb9a2baf	-0.0047049145
176	0x3bd4234a	0.0064739333
177	0x3b8ded56	0.004331271
178	0xba9e93f9	-0.0012098543
179	0xbc13cc01	-0.009020806
180	0x39ae81f7	0.00033284698
181	0x3c05d27a	0.008167857
182	0x3c449e40	0.01200062
183	0xbc06f81e	-0.008237867
184	0x3bfcdc7a	0.0077167125
185	0xb8a43fd5	-7.832019e-05
186	0xbb2297b3	-0.0024809658
187	0x3b9e7e07	0.004836801
188	0xbbf89b6a	-0.007586886
189	0xbc78f70b	-0.015195618
190	0xbb4d03af	-0.0031282713
191	0xbb2cf50f	-0.0026391183
192	0x3b3e4c07	0.0029037015
193	0xbc2f382b	-0.010694544
194	0x39d7c227	0.0004115265
195	0x3be10abb	0.0068677342
196	0x39f3d7d7	0.00046509385
197	0xbc2a6643	-0.010400358
198	0x39b3e0b2	0.00034308952
199	0xbc4335b0	-0.011914656
200	0xbc7a4932	-0.01527624
201	0xb9b4be8c	-0.00034474244
202	0xbc1daa21	-0.009623081
203	0x3c21868b	0.009858738
204	0xbb98ea38	-0.004666593
205	0x3c893f54	0.01675383
206	0x3c31ed49	0.010859796
207	0xbae99fc3	-0.0017824102
208	0x3acbe534	0.0015555979
209	0x3b2a59c9	0.0025993458
210	0x390f829b	0.00013686197
211	0x3bc4264f	0.005986012
212	0xbc15757b	-0.009122248
213	0xbc2e05e9	-0.010621526
214	0x3c6e6978	0.014551513
215	0xbc0aa795	-0.008462806
216	0xbaa29917	-0.0012405243
217	0xbbf61d83	-0.0075108423
218	0xbba5cdbf	-0.0050599272
219	0xbaaaa323	-0.0013018589
220	0xbb1d45c3	-0.002399788
221	0xbc310187	-0.010803587
222	0x3c4e1743	0.012578788
223	0xb9bb25e3	-0.00035695647
224	0xbbe47655	-0.006972114
225	0x3b70d892	0.003675018
226	0x3ab312a6	0.0013662174
227	0x39796205	0.00023783006
228	0x3a0fdf5c	0.00054883
229	0x3c08477b	0.0083178235
230	0x3c21231b	0.00983503
231	0x3b8b8957	0.0042583155
232	0x3bf9323a	0.0076048644
233	0xbc73efd7	-0.014888725
234	0x3c3c0410	0.011475578
235	0xbc3321c9	-0.010933348
236	0x3c588703	0.013215783
237	0x3aeaa8a8	0.0017903047
238	0x3bbd2d5b	0.005773229
239	0xbbb214c5	-0.005434605
240	0x3b899d27	0.004199642
241	0x3c0e4acb	0.008684824
242	0x3c9377ad	0.018001402
243	0x3b2ec1bf	0.0026665775
244	0xbbd3b49d	-0.0064607398
245	0x3c17e661	0.009271235
246	0x3b6a9f9b	0.0035800699
247	0x3c7befb0	0.01537697
248	0xbb9af807	-0.004729274
249	0x3bf7f948	0.0075675584
250	0xbc5ab3c3	-0.013348523
251	0x3bbce243	0.005764277
252	0x3bb59fb8	0.0055427216
253	0xbc2b3137	-0.010448745
254	0xbc7abd2f	-0.015303894
255	0xbb79166d	-0.0038007752

action_model._discrete_distribution.branches.1.bias f4 [3]
0	0x00000000	0.0
1	0x00000000	0.0
2	0x00000000	0.0

network_body._body_endoder.seq_layers.0.weight f4 [128, 138]
0	0x3da1b39e	0.078955874
1	0x3cce2d3a	0.02516805
2	0x3db93995	0.09044186
3	0xbd06b1b3	-0.03288431
4	0xbd5cb59b	-0.05388413
5	0xbae63946	-0.0017564676
6	0xb94809e1	-0.00019077167
7	0xbd173e69	-0.036924753
8	0x3d7402d9	0.05957303
9	0x3d5a7059	0.0533298
10	0x3dace68f	0.08442413
11	0x3d9a577f	0.0753622
12	0xbdd0c282	-0.101933494
13	0x3cee0b08	0.029057994
14	0x3d93d791	0.072188504
15	0x3bc7aa55	0.006093303
16	0x3da6df24	0.081480294
17	0x3d350c0c	0.044200942
18	0x3b4d7563	0.0031350486
19	0xbd3d619b	-0.046235662
20	0xbe451dfd	-0.19249721
21	0xbe895fa4	-0.2683078
22	0xbc84a142	-0.016190175
23	0x3df436cc	0.11924514
24	0x3be30fe2	0.0069293836
25	0x3d7e1894	0.06203516
26	0xbddd82ff	-0.10816001
27	0xba07d751	-0.0005181926
28	0xbe00a19e	-0.12561652
29	0x3dead7c2	0.11466934
30	0xbd1a5b78	-0.037684888
31	0xbd665c07	-0.056240108
32	0x3d255ce2	0.040371783
33	0xbe10cc75	-0.14140494
34	0x3e66e538	0.22548378
35	0x3d1e1137	0.038590636
36	0xbc8f2c2b	-0.017477116
37	0xbdb3ebab	-0.087851845
38	0xbcd3c2e9	-0.025849776
39	0xbe14ed83	-0.14543729
40	0x3d723735	0.05913468
41	0x3d0e8ab0	0.03480023
42	0x3c1be1d2	0.009514289
43	0xbdd75b12	-0.10515417
44	0x3db675b2	0.08909167
45	0x3c654bca	0.01399512
46	0xbd5dcc54	-0.05414994
47	0x3c271f21	0.010200293
48	0xbc9935f8	-0.018702492
49	0xbcfe2542	-0.031023625
50	0x3d90e3e4	0.07074717
51	0xbb3400d8	-0.0027466323
52	0x3cf17336	0.029473882
53	0x3c9da9a1	0.019245924
54	0xbe01e716	-0.12685809
55	0x3ade05db	0.0016939001
56	0xbd420e06	-0.047376655
57	0xbd76b59a	-0.060231782
58	0x3cb56068	0.022140697
59	0x3da1f334	0.079077154
60	0xbbb2cce2	-0.005456553
61	0xbc3c24d9	-0.011483395
62	0x3da37c72	0.079827204
63	0x3d26e64d	0.040746976
64	0x3d6b7149	0.057481084
65	0x3d6aab26	0.057292126
66	0x3ddeb9df	0.10875296
67	0xbd4bce82	-0.049757488
68	0xbc800dd0	-0.015631586
69	0xbdb37bfa	-0.08763881
70	0x3dcdf372	0.10056199
71	0xbc530225	-0.012878929
72	0xbe3aba4e	-0.18235132
73	0x3d60f86d	0.054924417
74	0x3d228a9d	0.039682973
75	0x3c835645	0.016032347
76	0xbc9b34d8	-0.018946096
77	0x3cd427dc	0.025897913
78	0x3d52d3b1	0.051471416
79	0xbdde204d	-0.10846005
80	0xbd304b09	-0.04304031
81	0x3dfb0b68	0.12258035
82	0x3d13c4bb	0.03607629
83	0x3dfef216	0.12448518
84	0x3e615c63	0.22007899
85	0x3d551d00	0.05202961
86	0xbe36d59a	-0.1785492
87	0xbc6ccda1	-0.014453323
88	0xbdc5dc04	-0.09661105
89	0x3db5fba1	0.08885885
90	0x3d9a6ba3	0.07540061
91	0xbcb16184	-0.021652944
92	0xbc19e9a6	-0.009394085
93	0x3d3df694	0.046377733
94	0x3cf74dfd	0.030188555
95	0xbcbb16d2	-0.02283803
96	0xbd51c28d	-0.05121093
97	0xbdc46928	-0.095903695
98	0x3e3335e0	0.1750102
99	0xbd7d55fb	-0.061849575
100	0x3d386e05	0.045026798
101	0xbdf84b61	-0.121237524
102	0x3d25ea0f	0.04050642
103	0xbe00e79b	-0.1258835
104	0xbe6d0095	-0.23144753
105	0x3cf89ca5	0.030348131
106	0xbde5a58e	-0.11213218
107	0xbe13f648	-0.14449418
108	0xbd1c5924	-0.03817095
109	0x3e494bde	0.19657847
110	0x3d41a684	0.047277942
111	0x3d6a9652	0.057272263
112	0x3e132677	0.14370142
113	0xbcdf9b8a	-0.027295846
114	0xbe501c83	-0.20323376
115	0xbd2f5982	-0.04280997
116	0x3e051b86	0.1299878
117	0xbde022d6	-0.109441444
118	0x3dc93e00	0.09826279
119	0x3e114850	0.14187741
120	0xbc066be1	-0.008204431
121	0x3d8086cf	0.06275713
122	0x3d9598b1	0.07304514
123	0xbd8b35c0	-0.067973614
124	0x3e27d510	0.1638987
125	0xbd7d0ef1	-0.061781827
126	0x3da2de48	0.07952553
127	0xbe28894b	-0.16458623
128	0xbcb4492b	-0.022007545
129	0xbd0081db	-0.03137384
130	0xbca3b6e0	-0.019984663
131	0x3dd7c4c7	0.10535579
132	0xbcddb1ea	-0.027062375
133	0xbda83ddf	-0.08214926
134	0x3cf1e418	0.029527709
135	0xbdab4d1f	-0.08364319
136	0xbba9fe26	-0.0051877676
137	0x3d94b60f	0.072612874
138	0xbdadd192	-0.08487238
139	0xbc2d9d06	-0.010596519
140	0xbd716a37	-0.058939185
141	0xbcabbfcf	-0.020965485
142	0x3e1f127b	0.15534393
143	0x3cbdee92	0.023185048
144	0xbdc5d89c	-0.096604556
145	0xbd941d0b	-0.07232102
146	0x3cde0fdd	0.027107174
147	0x3dbf0d20	0.09328675
148	0x3c3c65db	0.011498894
149	0xbd3c742d	-0.04600923
150	0x3d94f7c0	0.07273817
151	0x3cbe84de	0.023256715
152	0xbc9476e6	-0.018123101
153	0x3d944e6b	0.072415195
154	0xbc0c3f91	-0.008560077
155	0x3d970c48	0.07375389
156	0xbdffbce7	-0.12487202
157	0xbd6c4529	-0.057683144
158	0xbb37320b	-0.0027953412
159	0x3df73319	0.12070293
160	0x3d97c094	0.07409778
161	0xbe29a647	-0.16567336
162	0xbc8bcbcf	-0.017064957
163	0xbd9615a0	-0.073283434
164	0xbc9c5f76	-0.019088488
165	0xbd850273	-0.06494608
166	0xbcaf7e04	-0.021422394
167	0x3d863dc0	0.06554747
168	0xbdbe4aa3	-0.092915796
169	0xbdd62ea2	-0.10458113
170	0x3d027e10	0.031858504
171	0xbd8ba7a2	-0.06819083
172	0x3d205a26	0.039148472
173	0xbcfbaceb	-0.030722102
174	0xbdcf819e	-0.101321444
175	0x3d30d0a3	0.04316772
176	0xbe36edcf	-0.17864154
177	0x3dd4f347	0.10397964
178	0xbc8a8a36	-0.016911607
179	0xbda46fa8	-0.08029109
180	0x3d411bbd	0.047145594
181	0x3cd2bdaf	0.025725214
182	0x3e087eef	0.13329671
183	0xbe132913	-0.14371137
184	0x3d584ea5	0.052809376
185	0xbe05d953	-0.13071184
186	0xbc3f6040	-0.011680663
187	0xbd520c42	-0.05128122
188	0xbd671c3d	-0.056423414
189	0x3c1e8503	0.009675267
190	0xbd8000ed	-0.062501766
191	0x3e5c6d33	0.21526031
192	0x3cce06d0	0.025149733
193	0x3dd28588	0.10279375
194	0xbd1397d5	-0.03603347
195	0xbd53b5b8	-0.051686972
196	0x3d52d8dc	0.051476344
197	0x3dac715c	0.08420059
198	0xbd739011	-0.059463564
199	0x3d19a92b	0.037514847
200	0x3d057c0d	0.032589007
201	0x3d3e2ca1	0.04642928
202	0xbe0d341f	-0.13789414
203	0x3db34cd3	0.087548874
204	0x3d79c6b3	0.06098051
205	0x3e39b1bb	0.18134205
206	0xbd81c48f	-0.06336319
207	0x3e2979b9	0.1655034
208	0x3d77f039	0.06053183
209	0xbc8aa6eb	-0.016925296
210	0xbc878d8b	-0.016546985
211	0xbd8139ff	-0.0630989
212	0xbd8ba89c	-0.06819269
213	0x3c869f94	0.016433515
214	0x3dd1f2df	0.10251402
215	0xbce57244	-0.028008588
216	0xbd74da96	-0.059778772
217	0xbdbad20d	-0.09122095
218	0xbd7982fe	-0.06091594
219	0xbcdcc634	-0.02694998
220	0xbd1f23ed	-0.03885262
221	0x3e0ec9ac	0.13944119
222	0x3e2cad3e	0.16862962
223	0xba4e08ab	-0.0007859568
224	0xbb931220	-0.0044882447
225	0xbd2de902	-0.04245854
226	0x3d98a12e	0.074526176
227	0xbcfc0f45	-0.030769
228	0xbc6c33b3	-0.014416623
229	0x3d577922	0.052605756
230	0x3d49a6b1	0.049231235
231	0x3d647ffd	0.05578612
232	0xbcc104a8	-0.02356179
233	0xbb727341	-0.0036994966
234	0xbcf99d98	-0.030470654
235	0x3d8cc69f	0.068738215
236	0x3c93dd0e	0.018049743
237	0x3ddfa7e1	0.10920692
238	0x3d79218a	0.060823
239	0xbc9be6e2	-0.019030992
240	0x3e29ba16	0.16574892
241	0xbd78803a	-0.06066916
242	0x3d53584c	0.05159788
243	0xbdeb850e	-0.114999875
244	0xbd55273b	-0.052039366
245	0xbdae8760	-0.085219145
246	0xbdbb8668	-0.09156495
247	0xbc78bfac	-0.015182417
248	0x3e019e13	0.12657957
249	0x3c588c2f	0.013217016
250	0xbdd87aad	-0.105702735
251	0x3dbfb96e	0.0936154
252	0xbdb37f02	-0.08764459
253	0xbe131283	-0.1436253
254	0xbd79ccb9	-0.060986254
255	0xbbb61538	-0.0055567287

network_body._body_endoder.seq_layers.0.bias f4 [128]
0	0x00000000	0.0
1	0x00000000	0.0
2	0x00000000	0.0
3	0x00000000	0.0
4	0x00000000	0.0
5	0x00000000	0.0
6	0x00000000	0.0
7	0x00000000	0.0
8	0x00000000	0.0
9	0x00000000	0.0
10	0x00000000	0.0
11	0x00000000	0.0
12	0x00000000	0.0
13	0x00000000	0.0
14	0x00000000	0.0
15	0x00000000	0.0
16	0x00000000	0.0
17	0x00000000	0.0
18	0x00000000	0.0
19	0x00000000	0.0
20	0x00000000	0.0
21	0x00000000	0.0
22	0x00000000	0.0
23	0x00000000	0.0
24	0x00000000	0.0
25	0x00000000	0.0
26	0x00000000	0.0
27	0x00000000	0.0
28	0x00000000	0.0
29	0x00000000	0.0
30	0x00000000	0.0
31	0x00000000	0.0
32	0x00000000	0.0
33	0x00000000	0.0
34	0x00000000	0.0
35	0x00000000	0.0
36	0x00000000	0.0
37	0x00000000	0.0
38	0x00000000	0.0
39	0x00000000	0.0
40	0x00000000	0.0
41	0x00000000	0.0
42	0x00000000	0.0
43	0x00000000	0.0
44	0x00000000	0.0
45	0x00000000	0.0
46	0x00000000	0.0
47	0x00000000	0.0
48	0x00000000	0.0
49	0x00000000	0.0
50	0x00000000	0.0
51	0x00000000	0.0
52	0x00000000	0.0
53	0x00000000	0.0
54	0x00000000	0.0
55	0x00000000	0.0
56	0x00000000	0.0
57	0x00000000	0.0
58	0x00000000	0.0
59	0x00000000	0.0
60	0x00000000	0.0
61	0x00000000	0.0
62	0x00000000	0.0
63	0x00000000	0.0
64	0x00000000	0.0
65	0x00000000	0.0
66	0x00000000	0.0
67	0x00000000	0.0
68	0x00000000	0.0
69	0x00000000	0.0
70	0x00000000	0.0
71	0x00000000	0.0
72	0x00000000	0.0
73	0x00000000	0.0
74	0x00000000	0.0
75	0x00000000	0.0
76	0x00000000	0.0
77	0x00000000	0.0
78	0x00000000	0.0
79	0x00000000	0.0
80	0x00000000	0.0
81	0x00000000	0.0
82	0x00000000	0.0
83	0x00000000	0.0
84	0x00000000	0.0
85	0x00000000	0.0
86	0x00000000	0.0
87	0x00000000	0.0
88	0x00000000	0.0
89	0x00000000	0.0
90	0x00000000	0.0
91	0x00000000	0.0
92	0x00000000	0.0
93	0x00000000	0.0
94	0x00000000	0.0
95	0x00000000	0.0
96	0x00000000	0.0
97	0x00000000	0.0
98	0x00000000	0.0
99	0x00000000	0.0
100	0x00000000	0.0
101	0x00000000	0.0
102	0x00000000	0.0
103	0x00000000	0.0
104	0x00000000	0.0
105	0x00000000	0.0
106	0x00000000	0.0
107	0x00000000	0.0
108	0x00000000	0.0
109	0x00000000	0.0
110	0x00000000	0.0
111	0x00000000	0.0
112	0x00000000	0.0
113	0x00000000	0.0
114	0x00000000	0.0
115	0x00000000	0.0
116	0x00000000	0.0
117	0x00000000	0.0
118	0x00000000	0.0
119	0x00000000	0.0
120	0x00000000	0.0
121	0x00000000	0.0
122	0x00000000	0.0
123	0x00000000	0.0
124	0x00000000	0.0
125	0x00000000	0.0
126	0x00000000	0.0
127	0x00000000	0.0

network_body._body_endoder.seq_layers.2.weight f4 [128, 128]
0	0xbdd8929b	-0.10574838
1	0xbe0250c1	-0.12726118
2	0xbdb9b73f	-0.090681545
3	0xbddb099b	-0.106951915
4	0x3da1bba6	0.07897119
5	0x3d7854e0	0.060627818
6	0xbe01cdb1	-0.12676121
7	0xbd91a769	-0.07112009
8	0x3bf12c08	0.0073599853
9	0x3ba99922	0.0051757256
10	0xbcc34f8e	-0.023841646
11	0x3ca3ed61	0.020010652
12	0xbdbcf084	-0.09225562
13	0xbe08e44b	-0.13368337
14	0xbdcf4de5	-0.10122279
15	0xbd22c8ec	-0.039742395
16	0xbad28090	-0.0016060043
17	0x3d8d3858	0.06895512
18	0x3defcdde	0.11709188
19	0xbc80e8a8	-0.01573594
20	0x3d587e0d	0.052854586
21	0x3d468057	0.04846224
22	0x3d9c5860	0.07634044
23	0x3dacbfa4	0.0843499
24	0x3d281daa	0.041043915
25	0x3dd627e6	0.10456829
26	0x3db716b6	0.08939879
27	0xbdcaf52e	-0.099100456
28	0xbe332289	-0.17493643
29	0xbc6acc27	-0.0143309
30	0xbd9f2ea1	-0.07772566
31	0xbbd4e55c	-0.0064970683
32	0xbe031e91	-0.12804629
33	0xbd2ea80e	-0.04264074
34	0x3da30fe7	0.079620175
35	0xbd9c3e5f	-0.07629084
36	0xbc804989	-0.015660064
37	0xbe2b6dc6	-0.16741094
38	0x3de03cb1	0.10949076
39	0x3df4457b	0.11927315
40	0x3d164045	0.036682386
41	0x3d72b1e0	0.059251666
42	0xbdb681a5	-0.089114465
43	0xbc39714b	-0.011318515
44	0x3d283469	0.041065607
45	0xbcd334e8	-0.025782064
46	0xbcc0e985	-0.02354885
47	0xbdbfe263	-0.09369352
48	0xbd29f493	-0.04149301
49	0xbe45be22	-0.19310811
50	0x3d74bb55	0.059748966
51	0xbda77f13	-0.08178534
52	0xbc94ea55	-0.018178144
53	0x3c88ab07	0.016683115
54	0x3d578b36	0.052622996
55	0xbdca69c4	-0.098834544
56	0xbd975512	-0.07389273
57	0xbdcec7f6	-0.10096733
58	0x3d23c732	0.03998489
59	0x3cf976e4	0.0304522
60	0xbd9f50bc	-0.07779071
61	0x3d04b9f9	0.03240392
62	0x3e2e9ce7	0.17052041
63	0xbbd7bd3a	-0.006583837
64	0x3dd41960	0.103564024
65	0xbcaeefdb	-0.021354606
66	0xba32b691	-0.00068173656
67	0x3d555f1c	0.052092656
68	0x3e336651	0.175195
69	0xbd68cefc	-0.05683802
70	0x3c88d556	0.016703289
71	0xbdd6f116	-0.10495202
72	0xbda667c8	-0.081252635
73	0x3d805c0d	0.06267557
74	0xbd70b349	-0.05876473
75	0xbda1029b	-0.07861825
76	0x3de31868	0.110886395
77	0xbb5c7064	-0.0033636326
78	0xbd3e678e	-0.046485476
79	0x3d394a59	0.04523692
80	0xbbbf3bf6	-0.0058360053
81	0x3e1f7739	0.15572824
82	0x3d3220aa	0.043488182
83	0xbd7d0d6a	-0.06178037
84	0xbbbcbfcc	-0.0057601687
85	0x3d516800	0.051124573
86	0x3c9ae910	0.018909961
87	0x3e32db1e	0.17466399
88	0xbdbe3cf6	-0.09288971
89	0x3d7226d6	0.059119068
90	0x3e15bffc	0.14624017
91	0x3dc3fdfe	0.095699295
92	0xbe1f4137	-0.15552221
93	0xbda2aa6d	-0.079426624
94	0xbe00d184	-0.12579924
95	0x3e00952a	0.12556902
96	0xbd0810c4	-0.033219114
97	0x3db7095f	0.08937334
98	0xbda7f6ff	-0.08201408
99	0xbd5ece3a	-0.05439589
100	0x3da408ca	0.08009489
101	0x3d9be76c	0.076124996
102	0xbd4e8e68	-0.050428778
103	0xbe48aae0	-0.19596434
104	0xbdbd6cad	-0.09249244
105	0xbd854595	-0.06507412
106	0xbd8a59ba	-0.06755395
107	0x3d3abc76	0.045589887
108	0xbd873bee	-0.066032276
109	0x3e202fa2	0.1564317
110	0xbc78a511	-0.015176074
111	0xbc4c1d54	-0.012458164
112	0x3de4898a	0.11159046
113	0xbda51526	-0.08060674
114	0xbd5f92be	-0.054583304
115	0x3dca3cd9	0.09874887
116	0xbd7a43a7	-0.061099675
117	0x3da113d7	0.07865112
118	0x3db81cb0	0.08989847
119	0x3e40bb2e	0.18821403
120	0x3e07af3d	0.13250442
121	0xbdaaccca	-0.08339842
122	0x3d46b9c2	0.048516996
123	0x3db10f36	0.086454794
124	0xbdd0a714	-0.101881176
125	0xbd0871da	-0.033311702
126	0xbcdb7af1	-0.026792021
127	0xbc0ef2ae	-0.0087248515
128	0xbda5ed84	-0.08101943
129	0xbd0f7e93	-0.03503282
130	0xbe518fa5	-0.20464952
131	0xbde4d285	-0.11172966
132	0xbd5d9a6a	-0.05410234
133	0xbe0434bf	-0.12910746
134	0xbdab4b88	-0.08364016
135	0xbc173855	-0.009229739
136	0xbd1c36ef	-0.038138326
137	0x3d103428	0.03520599
138	0xbdd87a74	-0.10570231
139	0x3d36e92e	0.04465597
140	0x3d2b4cd7	0.041821327
141	0x3d43e8aa	0.047829308
142	0x3cbdf4cf	0.023188023
143	0xbd2008dd	-0.039070953
144	0xbdef3a89	-0.116810866
145	0xbdf54f2b	-0.11977991
146	0xbe00c87e	-0.12576482
147	0x3da976f0	0.08274639
148	0x3d4496c7	0.047995355
149	0x3d39a6b2	0.04532499
150	0xbd2654a6	-0.04060807
151	0xbd7c5729	-0.06160656
152	0xbe4ad3a4	-0.19807297
153	0xbe87cf1b	-0.26525196
154	0xbd9cb669	-0.076519795
155	0xbcf6eae3	-0.0301413
156	0xbd9f380e	-0.077743635
157	0xbde6d43c	-0.11270949
158	0x3d3dedb9	0.046369288
159	0xbbeefc16	-0.0072932346
160	0xbdc38d89	-0.0954848
161	0x3cae2cc6	0.021261584
162	0x3db011a9	0.085971184
163	0xbd00b48e	-0.03142219
164	0xbe86a0af	-0.26294467
165	0xbdbcc3a0	-0.09217
166	0x3c4d9382	0.012547376
167	0x3d29019f	0.04126131
168	0xbd296369	-0.04135457
169	0x3cd3ec2c	0.025869451
170	0xbd5ea4af	-0.054356273
171	0xbd0afe0b	-0.03393368
172	0xbde9f645	-0.11423925
173	0x3d053fd2	0.032531567
174	0x3ddd0f3f	0.107939236
175	0x3dc61099	0.096711345
176	0x3cdc298f	0.026875285
177	0x3d6cb466	0.05778923
178	0xbc53894b	-0.012911151
179	0x3e2ebaf6	0.17063507
180	0x3e27ca95	0.16385873
181	0xbe13dd64	-0.14439923
182	0xbc64dc2d	-0.01396851
183	0xbdfd4035	-0.12365762
184	0x3e06d322	0.13166478
185	0x3e053910	0.13010049
186	0x3db3bc13	0.08776107
187	0xbe129a03	-0.14316563
188	0x3d471a39	0.048608992
189	0x3e151e36	0.14562306
190	0xbddc385a	-0.10752936
191	0xbd7cc41f	-0.061710473
192	0xbc8e130f	-0.017343072
193	0xbe57894c	-0.21048468
194	0xb9d01f76	-0.00039696292
195	0xbdf3effe	-0.11911009
196	0xbd9fd399	-0.07804031
197	0xbd675d50	-0.056485474
198	0xbe0ac103	-0.1355019
199	0xbc06d8f2	-0.008230435
200	0xbd7ffde0	-0.062497973
201	0xbe1e7c8b	-0.15477197
202	0xbd8eae51	-0.06966842
203	0x3bbd2f91	0.0057734926
204	0xbc6d1d06	-0.014472252
205	0xbdd7b307	-0.10532194
206	0x3cb6afd1	0.022300633
207	0x3dcc5e09	0.09978873
208	0x3d122e21	0.035688523
209	0xbdfdb377	-0.12387746
210	0xbdccd423	-0.10001399
211	0x3cc1e730	0.02366981
212	0x3cfa785d	0.030574972
213	0x3e337f1b	0.17528956
214	0xbd747a16	-0.059686743
215	0x3db69a47	0.08916145
216	0xbdada8a9	-0.08479435
217	0xbdb7fabb	-0.0898337
218	0x3d44afc6	0.048019193
219	0x3cfcece6	0.03087468
220	0x3cccab8d	0.024984146
221	0x3d7c1d5c	0.061551437
222	0x3defa74f	0.117018335
223	0xbd068215	-0.0328389
224	0x3c1e4ebf	0.009662329
225	0x3cf77c72	0.030210707
226	0xbc3c6a7e	-0.011499999
227	0x3cf224c1	0.029558541
228	0x3d461438	0.048359126
229	0xbd85d95c	-0.06535599
230	0x3d892ed0	0.06698382
231	0xbd6fdf7d	-0.058562744
232	0x3c4b6699	0.012414598
233	0xbb2aeb3f	-0.002608016
234	0xbd9b2c34	-0.075767905
235	0xbcdc32c6	-0.02687968
236	0xbde234bc	-0.110452145
237	0xbe288142	-0.16455558
238	0xbdcc28cb	-0.09968718
239	0x3c947f8c	0.018127225
240	0x3d4568be	0.048195593
241	0x3d708a56	0.058725677
242	0xbd0225ee	-0.031774454
243	0xbce5bd60	-0.028044403
244	0xbd24e811	-0.04026038
245	0x3dee293b	0.11628958
246	0xbdce6f99	-0.10079879
247	0xbdbd02a6	-0.09229021
248	0x3d951e5a	0.0728118
249	0x3b3ae64f	0.0028518622
250	0xbdff1cf0	-0.12456691
251	0x3d48801d	0.048950303
252	0xbd9dafee	-0.076995715
253	0x3d055145	0.032548208
254	0xbda4f67d	-0.080548264
255	0x3d833bee	0.06407915
