Results/test5/SnowBall/SnowBall-1517.onnx (onnx, 143334 bytes, 9 tensors)

action_model._discrete_distribution.branches.0.bias f4 [3]
0.0 0.0 0.0
00000000: 0000 0000 0000 0000 0000 0000

action_model._discrete_distribution.branches.0.weight f4 [3, 128]
-0.0054414026 -0.011458516 0.0019194292 0.009509904 -0.0015149262 0.00911761 -0.008900417 -0.0032171642
-0.0007200394 0.0025723332 0.00067968585 -0.014365031 -0.0010703191 -0.0082166 0.0004601959 0.0055077444
-0.0040425765 0.006903883 0.00043737428 -0.016354902 -0.005548178 -0.00044870374 0.003794606 0.003426651
0.0035929952 0.012105185 0.0034949023 0.00094494736 0.008002359 0.006041386 0.0066962163 -0.009821208
-0.013421944 0.00033695952 -0.01059767 0.0055928626 -0.0040507056 0.0047222283 0.010731572 0.0050445437
-0.010421972 0.0023322473 0.014778552 -0.0068836208 -0.00527456 0.0041018934 -0.0018055749 0.002142958
0.0112424325 0.010096154 -0.0121532185 0.001643556 0.0117010735 -0.0016021753 -0.0040967306 -0.00376274
-0.00561548 0.010501786 0.005803986 -0.005133412 -0.0076318844 -0.009379285 -0.005847071 0.0027956504
5.719314e-07 0.0038581886 -0.005572351 -0.014465346 -0.0020921058 0.0037460104 0.008398331 0.006959083
0.0062927525 -0.0034299511 0.0013777891 0.0051629953 0.00921904 0.0075353864 -0.0066532516 -0.0049339496
-0.011654345 0.00313256 0.0016935775 -0.007813915 -0.01309429 -0.009261107 -0.012250165 -0.005076076
0.0009501478 -0.0025650295 -0.006639031 0.004641175 -0.005915087 0.013018153 0.004271181 0.0041412837
-0.0035212126 -0.0038265907 -0.004665819 0.018226938 0.011426945 -0.012417114 -0.0047529894 -0.0027025675
0.0032254092 0.008944565 -0.004267402 -0.008527084 0.014133072 -0.009082693 -0.0031514578 0.015059694
0.02029196 0.0056150747 -0.0027808477 0.0048116934 -0.010094161 0.002446539 0.00019603586 -0.003943516
0.00404062 0.0066225077 0.005692232 -0.0123382835 0.004682885 0.0021770305 0.005224878 0.0037148483
0.014367844 0.0018682586 -0.0068675377 -0.014611835 0.009577047 0.0028526476 0.006835623 -0.01082944
0.018822646 -0.0043633874 -0.0004909125 -0.0057539134 0.009988573 0.009666102 -0.0010827434 -0.0069719735
-0.0055547697 -0.0042654886 0.0012349752 0.004251784 0.0010929966 0.0069214026 0.0069178813 0.006766911
0.00049209443 -0.009564132 0.00863205 0.008896059 0.002221961 -0.0018242862 0.016044773 0.0030766276
-0.0049924552 -0.0056050858 -0.011010024 -0.0057407334 -0.012420668 -0.007797941 -0.0011250044 -0.01109669
0.016295897 0.004481437 -0.005861221 -0.0017556542 -0.005753883 -0.00031094442 -0.00041186713 -0.00582619
0.000286221 -0.0025645685 -0.0049584354 -0.006497378 -0.014582544 0.00846068 0.004156943 -0.0007095157
-0.0074086073 0.004329734 0.015510239 0.00037605583 -0.0070783473 0.003044111 0.0073691085 -0.0044814246
-0.005972397 -0.0012267357 -0.00032738695 -0.007540982 -0.0027593614 -0.0016570129 -0.010488394 0.01800077
-0.0006640374 0.0072122323 0.0021643748 0.0017364006 -0.0032236557 0.010505664 0.006492643 -0.009877526
0.023824142 0.0075484584 0.0011737163 -0.0018768739 -0.0104290685 0.017094458 0.009646683 -0.014825291
-0.016341971 0.0058534164 0.016875526 0.005243877 -0.013898897 -0.00992447 0.006072344 0.002541427
0.007890498 0.008844039 0.010360023 -0.0009008272 -0.000109871726 0.0067714 0.0059230425 0.007193487
0.0015734803 -0.001142862 0.008005823 -0.00445711 0.0052847187 -0.007912757 0.007930671 -0.006636745
0.0058725905 -0.0032884527 0.010355797 -0.008548062 -0.0019821476 -0.0036072691 0.008507889 0.01018753
0.0027291514 0.014492114 -0.0063551464 -0.023955278 0.014886978 0.0062236176 -0.01964208 0.012092242
00000000: cb4d b2bb 80bc 3bbc 5b95 fb3a 6ecf 1b3c
00000010: 7d90 c6ba 0762 153c 0ed3 11bc 0fd7 52bb
00000020: 07c1 3cba 9794 283b f22c 323a 4f5b 6bbc
00000030: f349 8cba eb9e 06bc 7346 f139 4f7a b43b
00000040: 9777 84bb f839 e23b 624f e539 b7fa 85bc
00000050: 7ecd b5bb ff3f ebb9 edae 783b aa91 603b
00000060: 7578 6b3b d354 463c bb0a 653b 58b6 773a
00000070: 541c 033c d2f6 c53b ef6b db3b 22e9 20bc
00000080: b7e7 5bbc f1a9 b039 daa1 2dbc 5544 b73b
00000090: c8bb 84bb ecbc 9a3b 7ad3 2f3c b34c a53b
000000a0: ebc0 2abc 9ed8 183b bd21 723c ff8f e1bb
000000b0: 37d6 acbb 2d69 863b 0aa9 ecba df70 0c3b
000000c0: 2e32 383c 576a 253c 4b1e 47bc 976c d73a
000000d0: dcb5 3f3c 1500 d2ba de3d 86bb 4d98 76bb
000000e0: 0f02 b8bb af0f 2c3c 5d2f be3b 2e36 a8bb
000000f0: e314 fabb 93ab 19bc c998 bfbb 3b37 373b
00000100: d486 1935 aad9 7c3b 4598 b6bb 0f00 6dbc
00000110: b61b 09bb a07f 753b 2799 093c 0509 e43b
00000120: 6f33 ce3b 08c9 60bb ee96 b43a 582e a93b
00000130: 750b 173c 67eb f63b 8503 dabb f8ac a1bb
00000140: def1 3ebc a34b 4d3b 08fb dd3a ef05 00bc
00000150: 6f89 56bc e6bb 17bc ebb4 48bc 3655 a6bb
00000160: 5713 793a 0e1a 28bb 3b8c d9bb ff14 983b
00000170: 59d3 c1bb 174a 553c 43f5 8b3b 9bb3 873b
00000180: 25c4 66bb 8ac7 7abb bae3 98bb a950 953c
00000190: 1538 3b3c 2771 4bbc f7be 9bbb 8f1d 31bb
000001a0: 6361 533b 3a8c 123c 90d5 8bbb 2fb5 0bbc
000001b0: 678e 673c 93cf 14bc b088 4ebb efbc 763c
000001c0: 533b a63c a9fe b73b e23e 36bb 69ab 9d3b
000001d0: fb61 25bc 1d56 203b fa8e 4d39 9c38 81bb
000001e0: 2d67 843b 9f01 d93b e785 ba3b 8326 4abc
000001f0: e372 993b 83ac 0e3b 7435 ab3b d074 733b
00000200: 1b67 6b3c 5be0 f43a 1509 e1bb 7a66 6fbc
00000210: 0ce9 1c3c 7cf3 3a3b 5dfd df3b f76d 31bc
00000220: f331 9a3c bffa 8ebb 95b0 00ba 538b bcbb
00000230: 1da7 233c 925e 1e3c d7ea 8dba 2775 e4bb
00000240: c904 b6bb 83c5 8bbb e4de a13a 8d52 8b3b
00000250: e142 8f3a efcc e23b 65af e23b f7bc dd3b
00000260: e6ff 003a e1b2 1cbc 716d 0d3c c7c0 113c
00000270: 529e 113b e31c efba 5470 833c 3fa1 493b
00000280: c097 a3bb deaa b7bb 6363 34bc c31c bcbb
00000290: 0f80 4bbc df85 ffbb e274 93ba e4ce 35bc
000002a0: f97e 853c 05d9 923b 7c0f c0bb fb1d e6ba
000002b0: 128b bcbb 4106 a3b9 dfef d7b9 a0e9 bebb
000002c0: ef0f 9639 5212 28bb 5f7a a2bb f5e7 d4bb
000002d0: 9feb 6ebc aa9e 0a3c f736 883b cbfe 39ba
000002e0: e7c3 f2bb 71e0 8d3b a81e 7e3c 5c29 c539
000002f0: 7bf1 e7bb b57f 473b 9078 f13b ead8 92bb
00000300: 19b4 c3bb 6bca a0ba 22a5 abb9 581a f7bb
00000310: 67d6 34bb 2030 d9ba 83d7 2bbc 5a76 933c
00000320: cc12 2eba 9754 ec3b 2fd8 0d3b f097 e33a
00000330: f843 53bb f31f 2c3c 3dc0 d43b 59d5 21bc
00000340: d92a c33c 0f59 f73b 62d7 993a 7001 f6ba
00000350: afde 2abc ad09 8c3c 1f0d 1e3c c7e5 72bc
00000360: 99df 85bc 04ce bf3b 8b3e 8a3c d4d4 ab3b
00000370: 33b8 63bc 3f9a 22bc 83fa c63b 128e 263b
00000380: 2647 013c 97e6 103c 16bd 293c 7d25 6cba
00000390: ef6a e6b8 9fe2 dd3b 1516 c23b 58b7 eb3b
000003a0: 3d3d ce3a 16cc 95ba db2a 033c f30c 92bb
000003b0: 6f2b ad3b 82a4 01bc a5ef 013c 0d79 d9bb
000003c0: dc6e c03b 1583 57bb 5cab 293c 2c0d 0cbc
000003d0: ebe6 01bb ef67 6cbb ac64 0b3c 99e9 263c
000003e0: 90db 323b 5570 6d3c d53e d0bb dc3d c4bc
000003f0: 83e8 733c 7def cb3b 6de8 a0bc 8a1e 463c

action_model._discrete_distribution.branches.1.bias f4 [3]
0.0 0.0 0.0
00000000: 0000 0000 0000 0000 0000 0000

action_model._discrete_distribution.branches.1.weight f4 [3, 128]
-0.0032709732 -0.008725512 -0.0061893277 0.0030410406 -0.0025950063 0.0054917005 0.007587646 -0.005163362
0.004351203 -0.0053797746 -0.0040662345 -0.0014858956 -0.0032328423 -0.0023062653 -0.00488676 0.0022384692
0.0056532896 -0.0001859224 -0.005560905 0.0069805863 -0.006109156 -0.018803306 0.012839778 0.0054271803
0.0067787855 0.015506938 0.007711056 -0.00092079566 -0.0041186516 0.009696294 0.00489206 0.008673644
0.008465647 -0.007024608 0.012349506 -0.0056399954 -0.0038553376 0.0038532775 -0.0010628062 0.0057239113
0.0053354017 -0.0029049502 -0.0049874554 0.0055613387 1.705317e-05 0.005754785 -0.023950687 -0.017641604
-0.009526937 -0.0028035406 -0.0021165349 -0.000442553 -0.008613945 -0.0011084155 -0.007200227 -0.0073374496
0.0119065195 -0.0025936812 0.0049339 0.003758287 0.008308558 -0.009448949 -0.006713281 0.008668692
0.002154214 -0.01012588 -0.011015366 0.004370995 -0.0017236533 0.007962233 -0.0032189505 0.010736688
0.0036592118 0.0021374326 0.0030818938 0.0007091043 -0.010852901 0.0054532695 -0.011249758 0.0022373302
0.0021715171 0.005192946 0.006497377 -0.0049946355 -0.005719869 0.011096721 -0.01404827 -0.009283922
0.015057315 -0.005126338 -0.016103895 0.004900738 0.0049805907 -0.0049801297 -0.010301762 0.014974556
-0.018173113 -0.0013762804 0.006172566 -0.0042758486 0.009717982 0.0029409963 -8.835592e-05 0.0038442982
-0.0045239986 0.001030193 -0.0076113543 -0.012813511 0.0012375179 -0.0036443814 -0.0038293635 -0.009322375
0.01132389 -0.0036001806 -0.012847222 -0.01715988 0.015280067 -0.0071993084 0.00080869364 -0.010484522
0.020235961 -0.0069864304 0.007360959 0.0032238204 0.011785626 -0.0011903577 0.0016156279 -0.019010391
-0.00054271 -0.0017770466 0.0029117933 -0.019209255 0.004175221 -0.0023741024 -0.00021983341 -0.006759621
0.007115712 -0.013514447 0.00073216803 -0.006842884 -0.007921937 0.0066403854 0.00542408 0.0014794014
-0.0073240288 0.006039159 0.011011804 0.0023344473 -0.0054810224 0.009219709 -0.0068223313 -0.017617304
-0.008953243 -0.0051065274 -0.01585502 -0.0050337315 0.0074752606 0.0034604296 0.00619292 -0.0018396256
-0.0028260965 0.009134637 -0.011916502 -0.0020448135 -0.004325787 0.009105762 -4.99675e-05 -0.003924742
0.005925525 0.010718523 -0.008215317 0.00091266906 0.0029303518 0.0049181236 0.0022288407 0.01157538
0.0047963555 -0.017830703 -0.017226873 0.0052776695 0.005894022 -0.0015573372 -0.0017634415 0.00033136542
-0.0044792457 -0.003496987 0.0039298898 0.006018348 0.0004928158 0.0051660254 0.000361445 0.008573447
0.008278891 -0.0033325744 0.0002818858 0.00034801578 0.009653701 0.005931452 0.005745735 -0.0030479536
0.009287975 -0.0016634619 0.010890028 -0.0021162077 -0.0064127664 -0.010468619 0.005138099 0.004658044
-0.011833065 0.000121488025 -0.009718932 0.00668915 0.0015548662 -0.0014713164 0.0016548475 -0.0007324288
-0.011819816 0.011967151 0.009640669 0.020077042 -0.0010000112 -0.003815207 0.011621632 0.010437614
-0.009141396 0.004630841 0.005505397 0.0072022043 0.012846527 0.0059525305 0.009135889 0.008012476
0.010035935 0.005427696 -0.0007612289 -0.00930183 -0.004605386 -0.003964321 -0.0055100666 -0.0033596156
0.011250223 0.015746549 0.018302336 -0.0041004075 0.0061017233 -0.006752053 -0.010334442 -0.012166828
-0.0043766242 -0.0066033686 0.0023664467 -0.008016556 0.00017423076 0.003951406 0.0023958446 0.0024222338
00000000: d35d 56bb 73f5 0ebc d8cf cabb 324c 473b
00000010: fb10 2abb b9f3 b33b caa1 f83b 6b31 a9bb
00000020: 8994 8e3b d248 b0bb 0c3e 85bb 62c2 c2ba
00000030: 18de 53bb b624 17bb 1d21 a0bb 48b3 123b
00000040: 3b3f b93b 2af4 42b9 4138 b6bb 67bd e43b
00000050: 512f c8bb 6409 9abc ef5d 523c 7dd6 b13b
00000060: 9320 de3b d010 7e3c 07ad fc3b 8d61 71ba
00000070: c1f5 86bb 34dd 1e3c 934d a03b e61b 0e3c
00000080: 7fb3 0a3c af2e e6bb 9555 4a3c b6cf b8bb
00000090: d5a9 7cbb 4587 7c3b dc4d 8bba a68f bb3b
000000a0: 98d4 ae3b fa60 3ebb cf6d a3bb e43b b63b
000000b0: 670d 8f37 a392 bc3b 3b34 c4bc 2085 90bc
000000c0: df16 1cbc 9bbb 37bb 90b5 0abb 7506 e8b9
000000d0: 8121 0dbc 4148 91ba e2ef ebbb fd6e f0bb
000000e0: 9013 433c c0fa 29bb 8eac a13b 984d 763b
000000f0: 9e20 083c c4cf 1abc 15fb dbbb 2107 0e3c
00000100: b72d 0d3b 05e7 25bc cb79 34bc 903a 8f3b
00000110: 35ec e1ba 0774 023c 07f5 52bb efe8 2f3c
00000120: 63cf 6f3b 2b14 0c3b 99f9 493b 2fe3 393a
00000130: 5ed0 31bc 57b1 b23b e850 38bc 2ca0 123b
00000140: 0350 0e3b 9729 aa3b f3e7 d43b 0aaa a3bb
00000150: bd6d bbbb 05cf 353c b72a 66bc 971b 18bc
00000160: f5b2 763c d7fa a7bb 51ec 83bc 5f96 a03b
00000170: 3934 a33b 5b30 a3bb b9c8 28bc d757 753c
00000180: c8df 94bc 4f64 b4ba 3d43 ca3b 6b1c 8cbb
00000190: 2c38 1f3c bbbd 403b b94b b9b8 9ff0 7b3b
000001a0: 0d3e 94bb 8a07 873a ab68 f9bb c3ef 51bc
000001b0: 3634 a23a 93d6 6ebb 0ff6 7abb e0bc 18bc
000001c0: d687 393c 02f1 6bbb 287d 52bc e092 8cbc
000001d0: 3f59 7a3c 2de8 ebbb 83fe 533a 46c7 2bbc
000001e0: e3c5 a53c 6dee e4bb 3334 f13b bb46 533b
000001f0: 8018 413c c705 9cba 7ac3 d33a aebb 9bbc
00000200: a744 0eba caeb e8ba c9d3 3e3b ba5c 9dbc
00000210: 4bd0 883b d496 1bbb 1583 66b9 d07f ddbb
00000220: eb2a e93b b36b 5dbc f7ee 3f3a 453a e0bb
00000230: 03cb 01bc 9797 d93b 7bbc b13b 79e8 c13a
00000240: 68fe efbb 23e4 c53b db6a 343c 87fd 183b
00000250: 269a b3bb 430e 173c dd8d dfbb 2a52 90bc
00000260: 9fb0 12bc a854 a7bb 63e2 81bc 00f2 a4bb
00000270: 08f3 f43b 60c8 623b faed ca3b 981f f1ba
00000280: 0836 39bb 72a9 153c 6f3d 43bc 4702 06bb
00000290: 55bf 8dbb 5530 153c 3294 51b8 1f9b 80bb
000002a0: e82a c23b be9c 2f3c 8999 06bc 2f40 6f3a
000002b0: 250b 403b 3628 a13b be11 123b aaa6 3d3c
000002c0: bf2a 9d3b b211 92bc 5f1f 8dbc 4df0 ac3b
000002d0: a422 c13b 911f ccba 4723 e7ba 1dbb ad39
000002e0: a3c6 92bb b52d 65bb 4ec6 803b 9035 c53b
000002f0: 4f30 013a c347 a93b 5480 bd39 a577 0c3c
00000300: 30a4 073c 5267 5abb 12ca 9339 e375 b639
00000310: 8f2a 1e3c a05c c23b b846 bc3b 2dc0 47bb
00000320: 972c 183c 8508 daba 176c 323c 13b0 0abb
00000330: 2f22 d2bb 9284 2bbc 805d a83b 81a2 983b
00000340: 79df 41bc 63c7 fe38 283c 1fbc a830 db3b
00000350: a7cc cb3a 30d9 c0ba 78e7 d83a 7700 40ba
00000360: e7a7 41bc df11 443c e6f3 1d3c 9c78 a43c
00000370: cf12 83ba 8d08 7abb a868 3e3c 8702 2b3c
00000380: cbc5 15bc 4fbe 973b 9e66 b43b 7800 ec3b
00000390: 3d7a 523c 720d c33b b2ae 153c c346 033c
000003a0: c36d 243c d0da b13b 358d 47ba b466 18bc
000003b0: c7e8 96bb 23e7 81bb ca8d b4bb ff2c 5cbb
000003c0: db52 383c e8fe 803c c8ee 953c b65c 86bb
000003d0: f7f0 c73b 5340 ddbb cb51 29bc 6057 47bc
000003e0: c969 8fbb 1261 d8bb 6316 1b3b df57 03bc
000003f0: b7b1 3639 cc7a 813b 9a03 1d3b 57be 1e3b

discrete_action_output_shape f4 [1, 2]
3.0 3.0
00000000: 0000 4040 0000 4040

network_body._body_endoder.seq_layers.0.bias f4 [128]
0.0 0.0 0.0 0.0 0.0 0.0 0.0 0.0
0.0 0.0 0.0 0.0 0.0 0.0 0.0 0.0
0.0 0.0 0.0 0.0 0.0 0.0 0.0 0.0
0.0 0.0 0.0 0.0 0.0 0.0 0.0 0.0
0.0 0.0 0.0 0.0 0.0 0.0 0.0 0.0
0.0 0.0 0.0 0.0 0.0 0.0 0.0 0.0
0.0 0.0 0.0 0.0 0.0 0.0 0.0 0.0
0.0 0.0 0.0 0.0 0.0 0.0 0.0 0.0
0.0 0.0 0.0 0.0 0.0 0.0 0.0 0.0
0.0 0.0 0.0 0.0 0.0 0.0 0.0 0.0
0.0 0.0 0.0 0.0 0.0 0.0 0.0 0.0
0.0 0.0 0.0 0.0 0.0 0.0 0.0 0.0
0.0 0.0 0.0 0.0 0.0 0.0 0.0 0.0
0.0 0.0 0.0 0.0 0.0 0.0 0.0 0.0
0.0 0.0 0.0 0.0 0.0 0.0 0.0 0.0
0.0 0.0 0.0 0.0 0.0 0.0 0.0 0.0
00000000: 0000 0000 0000 0000 0000 0000 0000 0000
00000010: 0000 0000 0000 0000 0000 0000 0000 0000
00000020: 0000 0000 0000 0000 0000 0000 0000 0000
00000030: 0000 0000 0000 0000 0000 0000 0000 0000
00000040: 0000 0000 0000 0000 0000 0000 0000 0000
00000050: 0000 0000 0000 0000 0000 0000 0000 0000
00000060: 0000 0000 0000 0000 0000 0000 0000 0000
00000070: 0000 0000 0000 0000 0000 0000 0000 0000
00000080: 0000 0000 0000 0000 0000 0000 0000 0000
00000090: 0000 0000 0000 0000 0000 0000 0000 0000
000000a0: 0000 0000 0000 0000 0000 0000 0000 0000
000000b0: 0000 0000 0000 0000 0000 0000 0000 0000
000000c0: 0000 0000 0000 0000 0000 0000 0000 0000
000000d0: 0000 0000 0000 0000 0000 0000 0000 0000
000000e0: 0000 0000 0000 0000 0000 0000 0000 0000
000000f0: 0000 0000 0000 0000 0000 0000 0000 0000
00000100: 0000 0000 0000 0000 0000 0000 0000 0000
00000110: 0000 0000 0000 0000 0000 0000 0000 0000
00000120: 0000 0000 0000 0000 0000 0000 0000 0000
00000130: 0000 0000 0000 0000 0000 0000 0000 0000
00000140: 0000 0000 0000 0000 0000 0000 0000 0000
00000150: 0000 0000 0000 0000 0000 0000 0000 0000
00000160: 0000 0000 0000 0000 0000 0000 0000 0000
00000170: 0000 0000 0000 0000 0000 0000 0000 0000
00000180: 0000 0000 0000 0000 0000 0000 0000 0000
00000190: 0000 0000 0000 0000 0000 0000 0000 0000
000001a0: 0000 0000 0000 0000 0000 0000 0000 0000
000001b0: 0000 0000 0000 0000 0000 0000 0000 0000
000001c0: 0000 0000 0000 0000 0000 0000 0000 0000
000001d0: 0000 0000 0000 0000 0000 0000 0000 0000
000001e0: 0000 0000 0000 0000 0000 0000 0000 0000
000001f0: 0000 0000 0000 0000 0000 0000 0000 0000

network_body._body_endoder.seq_layers.0.weight f4 [128, 138]
0.0755413 0.14279878 -0.0005685915 -0.002776321 0.1490659 -0.0013599508 0.07816857 0.016570412
-0.014684237 0.1319219 -0.020226289 -0.088462204 0.09380645 0.0073354873 -0.06811582 0.019792974
-0.06505093 0.034658402 -0.0450592 -0.07905028 0.092901796 0.13810393 -0.11546172 0.016218478
0.074470684 -0.07393895 -0.061265785 -0.07016289 0.061904155 -0.06631114 0.11711268 0.005540528
0.0065601934 0.027205024 -0.0073006996 0.13584031 0.08743215 0.1786919 0.07107127 0.006797139
0.15239015 0.091807686 0.09923564 0.039818738 -0.0046510384 0.017127044 -0.020942925 0.064557575
-0.023206713 0.00496804 0.012890466 -0.0011487146 0.08912031 -0.06580891 0.0028001557 -0.04307914
-0.009316672 0.085522085 0.07165549 -0.08332242 0.06629123 -0.06423017 -0.015951296 0.043879785
0.023927696 0.056878768 0.0062213973 0.04630194 0.01696498 0.011183272 0.030087223 -0.09262063
0.01608326 0.09462823 -0.06294778 0.15137829 0.0071148835 0.0072052483 0.11052108 -0.15046027
-0.055751555 -0.100620374 0.12266336 0.11346474 0.05188093 0.09563711 0.019098869 0.02581563
-0.05884986 -0.06945615 0.014127096 0.06741809 -0.024898842 0.0788372 0.0256274 0.035515156
-0.011691324 -0.02143792 -0.08812228 -0.011842145 0.07413849 0.10536586 -0.028027482 -0.03632289
0.1550612 -0.023411369 0.05626014 -0.07188117 0.14874378 -0.012744134 -0.039280433 -0.06900836
0.04940488 0.13432486 0.12751131 -0.0808475 -0.035640717 0.13252977 -0.12559333 -0.015302472
-0.1209585 -0.107026234 -0.0532993 0.1090594 0.0108569395 -0.07329787 -0.131078 -0.025300346
0.018721411 -0.06640947 0.0042029107 -0.07004768 0.053815644 -0.15032573 0.09834391 0.1342295
-0.04126663 0.12663417 0.038180336 -0.06134628 -0.00088474265 0.021141317 -0.10205114 0.07331281
0.08720053 -0.034445707 -0.09123236 0.077795066 -0.032861255 0.009942872 0.024273911 0.123461805
-0.029491106 -0.17357914 -0.045819536 0.10836698 0.08676218 0.109981075 0.054301582 -0.05498313
-0.026926985 -0.04343362 0.014323273 -0.07282025 0.041260906 -0.023408374 -0.039964896 0.009052608
0.12916295 0.030154923 -0.13610753 0.0149976015 0.03612531 -0.006907105 0.05967392 0.0511842
-0.027086427 0.10399957 -0.011897442 -0.051658425 -0.19545536 -0.013158118 0.005132763 -0.0994893
0.04792239 0.032424502 -0.117018916 0.106254146 0.06465857 -0.03920852 -0.003933926 0.10678304
0.16037592 0.0032409932 0.045068737 -0.011460615 -0.15928583 0.02321313 -0.0209275 -0.07255323
0.074880704 -0.18403737 -0.011804613 0.08145128 0.12037363 -0.0792708 -0.14040434 -0.054488447
-0.0020056157 -0.011059109 0.13203973 0.06936299 0.04537649 -0.07997869 -0.18739162 0.029374328
-0.13211422 0.19201961 0.08764206 -0.06877522 -0.0012359723 -0.007971784 0.012506308 0.01377706
-0.02702553 -0.06310462 0.0002190424 0.06793326 0.12904112 -0.15100363 0.0063286787 0.18908513
-0.060559258 0.18355463 0.023745034 0.14650853 0.1629764 -0.25042075 -0.05038925 0.07567617
-0.018641751 0.003479723 0.026156629 0.044960912 0.022521956 -0.03883695 0.08143731 0.0120393215
-0.033715677 0.021516703 -0.0068546813 0.16462387 -0.14626612 -0.11934624 -0.017138112 0.026136033
00000000: 66b5 9a3d d839 123e 880d 15ba f0f2 35bb
00000010: bba4 183e 6040 b2ba d816 a03d acbe 873c
00000020: 2796 70bc 8916 073e 9ab1 a5bc ac2b b5bd
00000030: 991d c03d 875e f03b 4f80 8bbd e024 a23c
00000040: 6c39 85bd f8f5 0d3d ff8f 38bd 1de5 a1bd
00000050: 4c43 be3d 1e6b 0d3e 3277 ecbd 9ddc 843c
00000060: 1684 983d 4e6d 97bd d5f1 7abd 90b1 8fbd
00000070: 368f 7d3d 23ce 87bd c6d8 ef3d 518d b53b
00000080: e4f6 d63b 12dd de3c b53a efbb b919 0b3e
00000090: a10f b33d 02fb 363e d08d 913d 89ba de3b
000000a0: 2a0c 1c3e ab05 bc3d 0e3c cb3d f918 233d
000000b0: bd67 98bb 044e 8c3c 7f90 abbc c336 843d
000000c0: 011c bebc f1ca a23b 8832 533c 7790 96ba
000000d0: b684 b63d d2c6 86bd d182 373b c173 30bd
000000e0: f4a4 18bc 3426 af3d 1dc0 923d f2a4 aabd
000000f0: b2c3 873d 1b8b 83bd 4bac 82bc 4abb 333d
00000100: 0404 c43c b6f9 683d dddc cb3b 1aa7 3d3d
00000110: 24fa 8a3c 0b3a 373c 7b79 f63c e3af bdbd
00000120: 0ac1 833c 72cc c13d c4ea 80bd e902 1b3e
00000130: f823 e93b 011a ec3b e058 e23d 4212 1abe
00000140: be5b 64bd 0e12 cebd ed36 fb3d 3460 e83d
00000150: 1981 543d 64dd c33d 3b75 9c3c 4d7b d33c
00000160: 8d0c 71bd 073f 8ebd 5675 673c 7f12 8a3d
00000170: a8f8 cbbc 6675 a13d 8ef0 d13c 5778 113d
00000180: f88c 3fbc 949e afbc 7479 b4bd 8e05 42bc
00000190: ecd5 973d 0eca d73d e499 e5bc 50c7 14bd
000001a0: 5dc8 1e3e 33c9 bfbc 0871 663d 6f36 93bd
000001b0: 4a50 183e c6cc 50bc 85e4 20bd 4154 8dbd
000001c0: c55c 4a3d 758c 093e 5392 023e 6093 a5bd
000001d0: 00fc 11bd e2b5 073e 8a9b 00be 38b7 7abc
000001e0: 17b9 f7bd 9230 dbbd 5e50 5abd 895a df3d
000001f0: 4ee1 313c 321d 96bd 5039 06be ac42 cfbc
00000200: a55d 993c b001 88bd 92b8 893b 2875 8fbd
00000210: cb6d 5c3d fdee 19be 8868 c93d 7573 093e
00000220: 3307 29bd 63ac 013e fc62 1c3d 3d46 7bbd
00000230: 13ee 67ba 8e30 ad3c 3000 d1bd 0725 963d
00000240: 3196 b23d f116 0dbd 08d8 babd 0553 9f3d
00000250: 8699 06bd 6ee7 223c 15da c63c 8bd9 fc3d
00000260: 5597 f1bc bbbe 31be 44ad 3bbd 82ef dd3d
00000270: 5fb0 b13d c23d e13d 566b 5e3d fe35 61bd
00000280: fb95 dcbc 74e7 31bd 29ac 6a3c c922 95bd
00000290: 3201 293d ebc2 bfbc 3bb2 23bd 6451 143c
000002a0: 4b43 043e 7507 f73c c65f 0bbe 80b8 753c
000002b0: 22f8 133d ff54 e2bb a46c 743d 86a6 513d
000002c0: 5be4 ddbc bafd d43d 7ded 42bc c997 53bd
000002d0: 7325 48be 2695 57bc bd30 a83b 0cc1 cbbd
000002e0: 454a 443d 8ecf 043d 9da7 efbd c69b d93d
000002f0: b66b 843d 1d99 20bd 2ae8 80bb 11b1 da3d
00000300: 9639 243e d866 543b ff99 383d 4ec5 3bbc
00000310: d31b 23be 7629 be3c 2670 abbc ca96 94bd
00000320: 0e5b 993d 4b74 3cbe 2368 41bc eecf a63d
00000330: 7386 f63d bb58 a2bd 28c6 0fbe 472f 5fbd
00000340: a670 03bb 4431 35bc 6c35 073e 2f0e 8e3d
00000350: b3dc 393d decb a3bd 97e3 3fbe 6ea2 f03c
00000360: f348 07be caa0 443e ae7d b33d 06da 8cbd
00000370: 5900 a2ba 169c 02bc 42e7 4c3c 2eb9 613c
00000380: a564 ddbc ff3c 81bd bfae 6539 9820 8b3d
00000390: 5b23 043e b2a0 1abe ce60 cf3b 889f 413e
000003a0: fc0c 78bd bff5 3b3e f284 c23c 5506 163e
000003b0: 49e3 263e 2637 80be f564 4ebd 1cfc 9a3d
000003c0: 96b6 98bc 100c 643b 6d46 d63c ef28 383d
000003d0: f77f b83c 7e13 1fbd 9bc8 a63d 9340 453c
000003e0: 7319 0abd cc43 b03c 3c9d e0bb 2993 283e
000003f0: c9c6 15be cd6b f4bd 3a65 8cbc 3c1b d63c

network_body._body_endoder.seq_layers.2.bias f4 [128]
0.0 0.0 0.0 0.0 0.0 0.0 0.0 0.0
0.0 0.0 0.0 0.0 0.0 0.0 0.0 0.0
0.0 0.0 0.0 0.0 0.0 0.0 0.0 0.0
0.0 0.0 0.0 0.0 0.0 0.0 0.0 0.0
0.0 0.0 0.0 0.0 0.0 0.0 0.0 0.0
0.0 0.0 0.0 0.0 0.0 0.0 0.0 0.0
0.0 0.0 0.0 0.0 0.0 0.0 0.0 0.0
0.0 0.0 0.0 0.0 0.0 0.0 0.0 0.0
0.0 0.0 0.0 0.0 0.0 0.0 0.0 0.0
0.0 0.0 0.0 0.0 0.0 0.0 0.0 0.0
0.0 0.0 0.0 0.0 0.0 0.0 0.0 0.0
0.0 0.0 0.0 0.0 0.0 0.0 0.0 0.0
0.0 0.0 0.0 0.0 0.0 0.0 0.0 0.0
0.0 0.0 0.0 0.0 0.0 0.0 0.0 0.0
0.0 0.0 0.0 0.0 0.0 0.0 0.0 0.0
0.0 0.0 0.0 0.0 0.0 0.0 0.0 0.0
00000000: 0000 0000 0000 0000 0000 0000 0000 0000
00000010: 0000 0000 0000 0000 0000 0000 0000 0000
00000020: 0000 0000 0000 0000 0000 0000 0000 0000
00000030: 0000 0000 0000 0000 0000 0000 0000 0000
00000040: 0000 0000 0000 0000 0000 0000 0000 0000
00000050: 0000 0000 0000 0000 0000 0000 0000 0000
00000060: 0000 0000 0000 0000 0000 0000 0000 0000
00000070: 0000 0000 0000 0000 0000 0000 0000 0000
00000080: 0000 0000 0000 0000 0000 0000 0000 0000
00000090: 0000 0000 0000 0000 0000 0000 0000 0000
000000a0: 0000 0000 0000 0000 0000 0000 0000 0000
000000b0: 0000 0000 0000 0000 0000 0000 0000 0000
000000c0: 0000 0000 0000 0000 0000 0000 0000 0000
000000d0: 0000 0000 0000 0000 0000 0000 0000 0000
000000e0: 0000 0000 0000 0000 0000 0000 0000 0000
000000f0: 0000 0000 0000 0000 0000 0000 0000 0000
00000100: 0000 0000 0000 0000 0000 0000 0000 0000
00000110: 0000 0000 0000 0000 0000 0000 0000 0000
00000120: 0000 0000 0000 0000 0000 0000 0000 0000
00000130: 0000 0000 0000 0000 0000 0000 0000 0000
00000140: 0000 0000 0000 0000 0000 0000 0000 0000
00000150: 0000 0000 0000 0000 0000 0000 0000 0000
00000160: 0000 0000 0000 0000 0000 0000 0000 0000
00000170: 0000 0000 0000 0000 0000 0000 0000 0000
00000180: 0000 0000 0000 0000 0000 0000 0000 0000
00000190: 0000 0000 0000 0000 0000 0000 0000 0000
000001a0: 0000 0000 0000 0000 0000 0000 0000 0000
000001b0: 0000 0000 0000 0000 0000 0000 0000 0000
000001c0: 0000 0000 0000 0000 0000 0000 0000 0000
000001d0: 0000 0000 0000 0000 0000 0000 0000 0000
000001e0: 0000 0000 0000 0000 0000 0000 0000 0000
000001f0: 0000 0000 0000 0000 0000 0000 0000 0000

network_body._body_endoder.seq_layers.2.weight f4 [128, 128]
0.018273842 -0.1605064 0.23069648 0.045029804 0.030875951 0.08681096 0.00757021 0.1867529
-0.0847697 0.046993244 -0.0067891967 0.039716482 0.110079065 -0.050353155 0.042395573 0.022328718
-0.04786487 0.10894087 -0.119807996 -0.091954865 0.047175035 0.021442689 -0.111259125 0.041701905
-0.08694175 0.10090487 0.002100169 0.013420962 0.050227325 0.0065068444 0.037046395 0.028804604
-0.08240693 -0.04773808 0.0029367523 0.0021588386 0.105228886 -0.011196156 -0.022712002 -0.037501276
0.13183561 0.09748532 0.02403998 -0.018070342 0.09110931 -0.012990545 -0.044727296 -0.045029435
-0.07900473 -0.076955535 -0.10954659 0.053935636 0.04644214 0.014957925 0.12194199 0.12610717
-0.12637135 -0.10564569 0.064243436 -0.09992944 -0.12880345 -0.05123006 0.03224644 0.05432661
0.09733626 0.061884634 -0.17228206 -0.005015577 0.016532205 -0.050408352 -0.052800838 -0.01781802
-0.00402963 0.033163518 -0.04398021 -0.058969695 -0.09295055 0.09869753 0.031927686 -0.1182995
0.032616753 -0.016320335 -0.03571955 0.06337012 -0.040506855 0.05093441 -0.013979091 -0.050024163
0.08037421 0.018954296 -0.013174243 -0.038865495 -0.08747816 0.07047438 -0.076438196 0.037946958
0.12392828 -0.18276228 -0.1482946 -0.06784778 -0.009009173 -0.103967294 -0.12445608 0.003997978
-0.012449328 -0.059374247 0.06092428 -0.041147966 0.10477863 0.06812756 0.05136689 0.010597429
0.0037895432 -0.1784153 -0.029946268 -0.21462971 -0.04214389 -0.0063398066 0.025630567 -0.021536915
-0.14615902 0.19923376 0.0035982067 0.011793116 -0.039467093 -0.11394236 -0.006436744 0.015338939
-0.040985983 -0.15996236 0.008829493 -0.0043603876 -0.07207184 0.050716862 0.027354637 0.015163864
-0.043711264 -0.07790717 -0.11158144 -0.10371663 -0.17128259 -0.14818968 0.06988534 0.12137364
0.09142734 0.020572362 -0.020001315 0.10699323 -0.023152398 -0.032826677 -0.04164766 -0.066682555
0.02578483 0.024875715 -0.010592477 0.011623306 -0.04026344 0.12633862 0.0953362 0.05704864
0.07549588 0.099554956 0.055892177 -0.03693876 0.11301312 0.08389444 0.008077199 -0.06427885
-0.1349229 -0.048050404 0.051003356 -0.06262234 0.11242431 0.089256965 0.010605497 0.009631442
0.05271281 -0.12442056 -0.025282705 0.06716474 0.043523017 0.08120046 0.026041523 0.1055744
-0.15393619 0.20757729 0.039137196 -0.037023805 -0.0042648963 -0.05485058 0.059979964 -0.04790893
-0.17508496 0.1047088 -0.103394106 -0.05049098 0.053770836 -0.09313645 -0.058028053 0.007078777
-0.1092196 0.050911218 -0.030607253 0.098190635 0.034695473 0.11006085 -0.0027314727 -0.035027064
0.032506697 -0.09147574 0.15664436 -0.07297065 -0.046406336 0.07822681 -0.12298317 -0.11425451
-0.09885442 0.018422816 -0.080236755 0.2039313 -0.0172238 0.10507694 0.048583645 -0.08255491
-0.09248214 -0.10148904 -0.05469836 0.14106597 -0.12693055 0.12804475 -0.09719791 0.00750844
-0.09116807 0.054948814 -0.0991084 0.06602256 0.045898523 -0.021684088 0.034500755 -0.100943446
-0.1522939 -0.09914508 0.02484726 -0.26562575 0.0019906305 0.014526714 0.052083474 0.026974818
0.039739646 0.07917125 -0.03125566 0.055145126 0.047292344 0.19349104 0.079543255 -0.13158578
00000000: 06b3 953c ca5b 24be b33b 6c3e 2c71 383d
00000010: 90ef fc3c f2c9 b13d 860f f83b 273c 3f3e
00000020: bd9b adbd fd7b 403d e977 debb c0ad 223d
00000030: 2271 e13d 1c3f 4ebd fba6 2d3d b7ea b63c
00000040: f40d 44bd 641c df3d e55d f5bd d552 bcbd
00000050: 9c3a 413d 94a8 af3c d3db e3bd 9ecf 2a3d
00000060: 840e b2bd 36a7 ce3d fda2 093b 98e3 5b3c
00000070: 2bbb 4d3d 5e37 d53b f6bd 173d a2f7 eb3c
00000080: f7c4 a8bd 0189 43bd 8776 403b 4d7b 0d3b
00000090: 3e82 d73d 1570 37bc 850e babc f09a 19bd
000000a0: eaff 063e 62a6 c73d 7eef c43c 4108 94bc
000000b0: 8597 ba3d 4bd6 54bc f833 37bd c970 38bd
000000c0: 3bcd a1bd dd9a 9dbd f659 e0bd 9deb 5c3d
000000d0: 1d3a 3e3d 1612 753c b9bc f93d 3d22 013e
000000e0: 7e67 01be c45c d8bd 1092 833d cea7 ccbd
000000f0: 0de5 03be 9dd6 51bd d814 043d 9485 5e3d
00000100: 3c58 c73d be7a 7d3d b56a 30be b659 a4bb
00000110: 8c6e 873c fd78 4ebd b145 58bd 19f7 91bc
00000120: fd0a 84bb 78d6 073d 9824 34bd 358a 71bd
00000130: dc5c bebd ee21 ca3d 9bc6 023d 0247 f2bd
00000140: 2599 053d 39b2 85bc aa4e 12bd 32c8 813d
00000150: 84ea 25bd 9aa0 503d 8f08 65bc 23e6 4cbd
00000160: 3c9b a43d 0a46 9b3c c8d8 57bc 6d31 1fbd
00000170: c027 b3bd df54 903d a18b 9cbd 456e 1b3d
00000180: 1cce fd3d 0926 3bbe 8ada 17be c7f3 8abd
00000190: 369b 13bc ceec d4bd d4e2 febd 7801 833b
000001a0: 44f8 4bbc 6932 73bd bd8b 793d c58a 28bd
000001b0: 2e96 d63d 7686 8b3d 1766 523d d7a0 2d3c
000001c0: fc59 783b 80b2 36be e051 f5bc e4c7 5bbe
000001d0: 129f 2cbd 27be cfbb 32f7 d13c 2f6e b0bc
000001e0: b6aa 15be ef03 4c3e e4cf 6b3b ea37 413c
000001f0: 3fa8 21bd 9d5a e9bd 52eb d2bb 2c50 7b3c
00000200: ebe0 27bd 2ccd 23be 94a9 103c 95e1 8ebb
00000210: 679a 93bd 7cbc 4f3d d516 e03c db71 783c
00000220: 950a 33bd cb8d 9fbd cf84 e4bd 6269 d4bd
00000230: b464 2fbe 09bf 17be 0c20 8f3d be92 f83d
00000240: 423e bb3d 5f87 a83c ccd9 a3bc 441f db3d
00000250: 19aa bdbc 4475 06bd bd96 2abd dd90 88bd
00000260: b53a d33c 28c8 cb3c 128c 2dbc ae6f 3e3c
00000270: 47eb 24bd e95e 013e a03f c33d d6ab 693d
00000280: 959d 9a3d 78e3 cb3d 32ef 643d 194d 17bd
00000290: 6c73 e73d d9d0 ab3d 3a56 043c a1a4 83bd
000002a0: 3b29 0abe 80d0 44bd e5e8 503d 2440 80bd
000002b0: b73e e63d 5bcc b63d aec2 2d3c 32cd 1d3c
000002c0: 63e9 573d 35d0 febd ad1d cfbc ab8d 893d
000002d0: 3145 323d 6d4c a63d 0855 d53c 6437 d83d
000002e0: 73a1 1dbe 248f 543e 534e 203d 46a6 17bd
000002f0: 8bc0 8bbb 00ab 60bd 8dad 753d 273c 44bd
00000300: 7949 33be 9171 d63d 4ac0 d3bd a1cf 4ebd
00000310: cf3e 5c3d 53be bebd d3ae 6dbd 16f5 e73b
00000320: 87ae dfbd 4888 503d 10bc fabc 2c18 c93d
00000330: d71c 0e3d 9567 e13d 8202 33bb 8a78 0fbd
00000340: be25 053d a257 bbbd 6167 203e a371 95bd
00000350: 9214 3ebd 6135 a03d 9ade fbbd 45fe e9bd
00000360: 3074 cabd 72eb 963c 2b53 a4bd 5ed3 503e
00000370: ed18 8dbc 9432 d73d a5ff 463d 8c12 a9bd
00000380: 4767 bdbd 7cd9 cfbd 630b 60bd 9973 103e
00000390: 15fa 01be 2a1e 033e b30f c7bd 5c09 f63b
000003a0: 53b6 babd 0212 613d 58f9 cabd d636 873d
000003b0: 1700 3c3d d4a2 b1bc aa50 0d3d 70bb cebd
000003c0: eff2 1bbe 930c cbbd 7b8c cb3c 1900 88be
000003d0: 3d75 023b 7401 6e3c 7b55 553d 4bfa dc3c
000003e0: 0ac6 223d 8924 a23d ef05 00bd dbdf 613d
000003f0: 9eb5 413d 8422 463e 93e7 a23d 6cbe 06be
