Results/test15/SnowBall/checkpoint.pt (torch, 285511 bytes, 11 tensors)

network_body._body_endoder.seq_layers.0.weight f4 [128, 138]
-0.09212581 0.04291906 0.122886315 0.018740244 -0.06487003 -0.09620124 0.04215628 0.017863981
0.11380802 -0.050490785 -0.16308735 -0.029872578 0.022863578 -0.023161242 -0.06419367 0.077334866
0.1623523 0.25247183 -0.035366964 -0.030763684 0.021030195 -0.08999614 -0.03860374 0.13491319
-0.003023233 -0.09784294 0.17787582 0.17673992 -0.08767366 -0.08683583 0.05037083 0.12835947
0.028593833 -0.014111924 0.041210573 0.012612831 0.026983697 -0.07159379 -0.059956305 -0.102557704
0.04714126 -0.09125437 0.11077946 -0.09271715 0.126133 -0.14272252 0.046933006 -0.18810847
-0.16594583 0.055541802 0.11586241 -0.04460306 0.12514372 0.098240286 0.020410495 0.099197
0.15563355 0.090172924 -0.037046608 0.027131272 -0.10328381 -0.012209719 0.04614578 -0.19623682
0.02557783 0.051456023 -0.030896846 0.10695992 -0.07753213 -0.14602263 0.08106506 0.1978492
-0.023021823 0.101817496 0.042522963 -0.04813173 0.17448467 -0.029572006 0.0019436586 0.04776206
0.18911391 -0.018783998 -0.05901065 -0.01965317 -0.0492799 0.061516713 -0.038549833 0.10912008
0.22816144 -0.006940663 0.053789224 0.050443757 0.002660479 0.016348481 -0.13919352 -0.059032653
0.10651253 -0.039439112 -0.02890605 0.039709028 0.046592128 -0.01245822 -0.107476145 -0.053833235
0.16607031 -0.0746936 5.506939e-05 0.15401694 -0.09477389 0.09565642 0.048878834 -0.10284534
-0.046338156 0.005003488 0.034527823 -0.020933019 -0.08347761 -0.052272774 -0.04234333 0.07028216
-0.048333332 0.09357766 0.065979175 0.03809735 -0.041822955 0.01749463 0.14967087 -0.12901115
0.061802693 -0.049649876 0.015734646 0.07207153 0.05186514 -0.07752804 0.06240568 -0.07333327
0.2202287 0.046737436 0.010262567 0.1269711 -0.06939633 0.039820448 -0.049091075 -0.005254034
0.03057041 -0.07691659 0.025788499 0.001179711 0.1098023 0.06752952 0.024650732 0.0050193197
0.02197636 -0.056592427 -0.0720282 0.063143454 -0.06513198 -0.15039434 0.024134507 -0.11278803
0.0059414427 -0.014005755 -0.11440264 0.024637157 -0.052115347 -0.024399437 -0.0017882815 0.09323571
0.07767739 -0.058207147 -0.072077595 0.04409662 0.0114499405 -0.07434099 -0.054900546 -0.09608632
-0.0025350007 -0.01919127 -0.03866465 0.12453897 -0.03979767 0.12410673 -0.23686442 0.006144687
0.05037733 0.029305186 -0.03224148 0.034095857 -0.042133763 -0.059893813 -0.0054662814 0.000111227775
0.13075477 0.019090889 0.11019567 0.12784389 0.15549369 0.1376964 -0.01905791 0.063517444
0.1167162 -0.037077624 0.1178469 0.017755559 0.026700024 -0.12455277 0.013775691 0.043693896
0.071440786 -0.019417446 -0.096911445 0.04851537 0.075333595 -0.09111829 -0.030907718 0.077304296
0.037660964 0.013275943 0.08165056 0.10832405 -0.13356832 -0.017246278 0.00193143 0.08223859
0.07903221 0.032723017 -0.051674 -0.06404578 -0.039155815 -0.10360692 0.07658937 -0.03537502
-0.024213886 -0.03395735 0.09067608 -0.05989065 -0.07756048 -0.024441736 0.098129526 -0.08038026
0.025060099 0.08977218 0.016755298 0.049351595 0.09646157 0.018828355 0.047961272 0.060665026
0.16750047 -0.045098852 -0.05679756 0.06165411 0.05689205 -0.08536826 0.08005012 -0.0026227026
00000000: 75ac bcbd e5cb 2f3d d2ab fb3d 2485 993c
00000010: 94da 84bd 2805 c5bd 10ac 2c3d 7c57 923c
00000020: 2e14 e93d 6dcf 4ebd 5f00 27be 56b7 f4bc
00000030: 664c bb3c a5bc bdbc f977 83bd be61 9e3d
00000040: ae3f 263e fd43 813e f3dc 10bd 1f04 fcbc
00000050: 8447 ac3c e54f b8bd f51e 1ebd af26 0a3e
00000060: 6f21 46bb e161 c8bd 1425 363e 4ffb 343e
00000070: 3f8e b3bd fcd6 b1bd a551 4e3d aa70 033e
00000080: 9d3d ea3c b335 67bc 6bcc 283d 0ca6 4e3c
00000090: ea0c dd3c c49f 92bd be94 75bd c609 d2bd
000000a0: 3217 413d 92e3 babd 57e0 e23d 7de2 bdbd
000000b0: 0229 013e da25 12be d33c 403d 829f 40be
000000c0: b4ed 29be cd7f 633d 4549 ed3d b3b1 36bd
000000d0: ad25 003e 3432 c93d e933 a73c cc27 cb3d
000000e0: 675e 1f3e 95ac b83d 2fbe 17bd 6742 de3c
000000f0: 7686 d3bd 460b 48bc 5b03 3d3d 4ef2 48be
00000100: 9988 d13c 8dc3 523d 621b fdbc cd0d db3d
00000110: 2ac9 9ebd f586 15be 7005 a63d fb98 4a3e
00000120: 4398 bcbc b185 d03d 8f2c 2e3d c725 45bd
00000130: 1cac 323e fe40 f2bc 5cc2 fe3a 26a2 433d
00000140: 14a7 413e e6e0 99bc 27b5 71bd afff a0bc
00000150: b8d9 49bd f3f8 7b3d 6ee6 1dbd 597a df3d
00000160: 27a3 693e 806e e3bb 1752 5c3d 1d9e 4e3d
00000170: 6e5b 2e3b 40ed 853c bf88 0ebe 39cc 71bd
00000180: 3e23 da3d e88a 21bd 61cc ecbc efa5 223d
00000190: 63d7 3e3d 901d 4cbc 741c dcbd 3d80 5cbd
000001a0: 560e 2a3e f5f8 98bd 4ffa 6638 9eb6 1d3e
000001b0: d018 c2bd 83e7 c33d 2c35 483d 94a0 d2bd
000001c0: 14cd 3dbd 4df4 a33b 0c6d 0d3d b97b abbc
000001d0: 4ff6 aabd fa1b 56bd 3370 2dbd 18f0 8f3d
000001e0: 2cf9 45bd a5a5 bf3d 1720 873d f80b 1c3d
000001f0: 8c4e 2bbd e650 8f3c 5243 193e 801b 04be
00000200: d224 7d3d ab5d 4bbd f2e5 803c 3d9a 933d
00000210: 8b70 543d 05c7 9ebd 199d 7f3d c12f 96bd
00000220: a283 613e c16f 3f3d 5324 283c b604 023e
00000230: aa1f 8ebd c41a 233d b913 49bd 082a acbb
00000240: cc6e fa3c 7286 9dbd 6742 d33c 88a0 9a3a
00000250: 07e0 e03d eb4c 8a3d 55f0 c93c 1b79 a43b
00000260: c407 b43c 76cd 67bd 8583 93bd 5b51 813d
00000270: ea63 85bd f900 1abe bbb5 c53c 69fd e6bd
00000280: 6fb0 c23b 6578 65bc ee4b eabd ddd3 c93c
00000290: e776 55bd 54e1 c7bc c564 eaba 5df2 be3d
000002a0: 5315 9f3d 9e6a 6ebd 6b9d 93bd a89e 343d
000002b0: 8898 3b3c 1740 98bd 65df 60bd e8c8 c4bd
000002c0: 4122 26bb 0337 9dbc d35e 1ebd 4a0e ff3d
000002d0: e202 23bd ab2b fe3d 968c 72be 5f59 c93b
000002e0: 7658 4e3d 6e11 f03c a40f 04bd 19a8 0b3d
000002f0: 7494 2cbd 3753 75bd 7e1e b3bb f542 e938
00000300: 94e4 053e 7f64 9c3c 44ae e13d 82e9 023e
00000310: bd39 1f3e 4900 0d3e 561f 9cbc 6f15 823d
00000320: e708 ef3d b5de 17bd b759 f13d 1b74 913c
00000330: 02ba da3c 8615 ffbd 70b3 613c 5ff8 323d
00000340: 8c4f 923d 5611 9fbc 8279 c6bd 0db8 463d
00000350: 8048 9a3d 3a9c babd 2f32 fdbc b751 9e3d
00000360: 6242 1a3d 5783 593c 6938 a73d 00d9 dd3d
00000370: 22c6 08be 1148 8dbc 0928 fd3a b56c a83d
00000380: a4db a13d 9208 063d 1ea8 53bd 6f2a 83bd
00000390: d961 20bd dd2f d4bd e3da 9c3d 66e5 10bd
000003a0: 335c c6bc dd16 0bbd 61b4 b93d e64f 75bd
000003b0: 07d8 9ebd 093a c8bc 22f8 c83d 689e a4bd
000003c0: d64a cd3c 7ada b73d 6842 893c e624 4a3d
000003d0: a58d c53d ec3d 9a3c 0a73 443d e47b 783d
000003e0: 3e85 2b3e 93b9 38bd 8fa4 68bd 0589 7c3d
000003f0: a307 693d 8ed5 aebd 51f1 a33d a6e1 2bbb

network_body._body_endoder.seq_layers.0.bias f4 [128]
0.0 0.0 0.0 0.0 0.0 0.0 0.0 0.0
0.0 0.0 0.0 0.0 0.0 0.0 0.0 0.0
0.0 0.0 0.0 0.0 0.0 0.0 0.0 0.0
0.0 0.0 0.0 0.0 0.0 0.0 0.0 0.0
0.0 0.0 0.0 0.0 0.0 0.0 0.0 0.0
0.0 0.0 0.0 0.0 0.0 0.0 0.0 0.0
0.0 0.0 0.0 0.0 0.0 0.0 0.0 0.0
0.0 0.0 0.0 0.0 0.0 0.0 0.0 0.0
0.0 0.0 0.0 0.0 0.0 0.0 0.0 0.0
0.0 0.0 0.0 0.0 0.0 0.0 0.0 0.0
0.0 0.0 0.0 0.0 0.0 0.0 0.0 0.0
0.0 0.0 0.0 0.0 0.0 0.0 0.0 0.0
0.0 0.0 0.0 0.0 0.0 0.0 0.0 0.0
0.0 0.0 0.0 0.0 0.0 0.0 0.0 0.0
0.0 0.0 0.0 0.0 0.0 0.0 0.0 0.0
0.0 0.0 0.0 0.0 0.0 0.0 0.0 0.0
00000000: 0000 0000 0000 0000 0000 0000 0000 0000
00000010: 0000 0000 0000 0000 0000 0000 0000 0000
00000020: 0000 0000 0000 0000 0000 0000 0000 0000
00000030: 0000 0000 0000 0000 0000 0000 0000 0000
00000040: 0000 0000 0000 0000 0000 0000 0000 0000
00000050: 0000 0000 0000 0000 0000 0000 0000 0000
00000060: 0000 0000 0000 0000 0000 0000 0000 0000
00000070: 0000 0000 0000 0000 0000 0000 0000 0000
00000080: 0000 0000 0000 0000 0000 0000 0000 0000
00000090: 0000 0000 0000 0000 0000 0000 0000 0000
000000a0: 0000 0000 0000 0000 0000 0000 0000 0000
000000b0: 0000 0000 0000 0000 0000 0000 0000 0000
000000c0: 0000 0000 0000 0000 0000 0000 0000 0000
000000d0: 0000 0000 0000 0000 0000 0000 0000 0000
000000e0: 0000 0000 0000 0000 0000 0000 0000 0000
000000f0: 0000 0000 0000 0000 0000 0000 0000 0000
00000100: 0000 0000 0000 0000 0000 0000 0000 0000
00000110: 0000 0000 0000 0000 0000 0000 0000 0000
00000120: 0000 0000 0000 0000 0000 0000 0000 0000
00000130: 0000 0000 0000 0000 0000 0000 0000 0000
00000140: 0000 0000 0000 0000 0000 0000 0000 0000
00000150: 0000 0000 0000 0000 0000 0000 0000 0000
00000160: 0000 0000 0000 0000 0000 0000 0000 0000
00000170: 0000 0000 0000 0000 0000 0000 0000 0000
00000180: 0000 0000 0000 0000 0000 0000 0000 0000
00000190: 0000 0000 0000 0000 0000 0000 0000 0000
000001a0: 0000 0000 0000 0000 0000 0000 0000 0000
000001b0: 0000 0000 0000 0000 0000 0000 0000 0000
000001c0: 0000 0000 0000 0000 0000 0000 0000 0000
000001d0: 0000 0000 0000 0000 0000 0000 0000 0000
000001e0: 0000 0000 0000 0000 0000 0000 0000 0000
000001f0: 0000 0000 0000 0000 0000 0000 0000 0000

network_body._body_endoder.seq_layers.2.weight f4 [128, 128]
-0.051464092 0.022826346 0.1349277 0.05129912 0.066352084 -0.084168896 -0.003476056 0.06713651
-0.03343007 -0.025882151 0.07437617 -0.030394685 0.04607033 -0.081482515 0.10695766 0.008031351
0.1331707 0.02686469 0.04109931 0.20334828 0.08136745 0.0546307 -0.1563044 0.04042635
-0.045928974 0.14212704 -0.07887744 -0.072418116 -0.04359938 0.055835027 -0.009375191 -0.01009173
-0.068674766 0.041278634 0.022757517 -0.03822708 -0.041185644 0.028021904 -0.009584549 0.008586372
0.036584742 0.020887934 0.030924374 0.10137781 -0.0893385 -0.041971155 0.091868035 -0.1338741
0.065789655 -0.012066516 -0.061681654 0.0039507397 0.069876954 -0.23460633 -0.060540408 0.12438087
-0.08020624 0.09451427 0.013468897 -0.039881323 0.039928447 -0.046438992 -0.007210302 -0.069016814
-0.011857849 0.106307566 -0.055537086 0.012031294 0.014168964 -0.10326933 -0.0068775583 0.06496368
0.2014357 -0.007251587 0.022588637 0.020574434 -0.044656176 0.018690646 0.11052836 0.13125472
-0.012702892 0.054341223 -0.12714137 0.07555961 0.090378866 -0.059908625 -0.12597017 -0.07434309
-0.0118595185 0.059461236 0.094492875 -0.095512785 0.07302743 0.09768017 0.038119648 -0.0067557287
0.026941556 -0.09765872 -0.010201932 -0.052182097 -0.20336065 0.04731333 -0.054719627 0.007977066
0.07135478 0.043032542 -0.14461698 -0.01162148 0.0016773033 -0.04258571 -0.2737631 0.10898929
-0.016153986 0.07406752 0.08468977 -0.18504936 0.13539025 -0.01824131 -0.03154214 -0.1476618
-0.13612725 -0.035412636 -0.15600286 -0.1154326 0.14600036 0.04516884 -0.06591956 0.10545223
-0.07437234 0.0026019912 0.14094074 -0.00020689075 -0.032111365 0.027043877 -0.046046626 0.09008917
0.03654885 0.122923926 -0.02270837 0.057351053 0.011921598 0.14078403 0.09164587 -0.0004332992
0.021776648 -0.15188086 -0.055326406 0.07141939 -0.06739843 0.021325808 -0.11549876 -0.020797025
-0.021145849 0.054241702 0.059287176 0.10359566 -0.01806763 0.03255528 -0.04256243 0.06548899
0.058778875 0.15716699 -0.08644004 0.06887549 0.06542182 0.05484197 -0.21878779 0.020873412
0.11545157 -0.22545226 0.175213 0.15397185 -0.0070950477 0.07314598 0.07376267 0.09684128
0.014341162 -0.047247987 0.19580716 0.096347295 0.0693412 -0.051289175 0.17579266 -0.051228385
0.07891458 -0.1842281 -0.071420334 0.12805736 0.0731038 -0.014807033 0.07924443 0.061065797
0.04810966 0.05988063 0.07950698 0.08381171 -0.11273791 -0.14516707 0.03611524 0.031353176
0.037312504 0.021194525 0.0061840364 -0.14596976 0.017855132 0.009772537 -0.040108804 -0.09506416
0.06457166 0.18831484 -0.022656891 -0.080911666 -0.025929281 -0.023863995 -0.07571732 -0.01706724
0.07503154 0.11018278 0.04131145 0.055205658 0.12675202 -0.047953278 0.051555574 0.07367417
0.20503257 -0.1081693 -0.053833704 0.0671286 0.053702164 -0.028829787 0.17213556 0.0034142884
0.067090645 0.008856426 -0.015083231 0.03070694 0.062307876 0.1804046 -0.16523035 -0.00049441453
0.10587618 -0.0063585704 0.14762448 0.08126163 -0.10462088 -0.024724646 0.04424205 -0.027181156
-0.11494854 0.057743073 -0.013941561 -0.026953012 0.107944675 -0.053602602 -0.049234025 0.07442114
00000000: 03cc 52bd 51fe ba3c 7d2a 0a3e 071f 523d
00000010: 9ae3 873d be60 acbd 8bce 63bb de7e 893d
00000020: f8ed 08bd ce06 d4bc 8952 983d 46fe f8bc
00000030: 3eb4 3c3d 4ee0 a6bd 9e0c db3d ed95 033c
00000040: e65d 083e 5713 dc3c c057 283d 883a 503e
00000050: faa3 a63d 71c4 5f3d 430e 20be 1a96 253d
00000060: 0520 3cbd c089 113e 7f8a a1bd f34f 94bd
00000070: 4395 32bd 45b3 643d 679a 19bc c957 25bc
00000080: 5ba5 8cbd c913 293d f96d ba3c 0094 1cbd
00000090: 47b2 28bd 318e e53c 8308 1dbc dbad 0c3c
000000a0: e2d9 153d 2c1d ab3c 1d55 fd3c 2b9f cf3d
000000b0: 1af7 b6bd f2e9 2bbd 4f25 bc3d 4b16 09be
000000c0: babc 863d a3b2 45bc e7a5 7cbd 3575 813b
000000d0: a61b 8f3d a43c 70be 38f9 77bd 66bb fe3d
000000e0: 2b43 a4bd b390 c13d a6ac 5c3c 995a 23bd
000000f0: 038c 233d d036 3ebd 6644 ecbb b058 8dbd
00000100: 6c47 42bc c8b7 d93d db7a 63bd e81e 453c
00000110: f124 683c df7e d3bd 245d e1bb ae0b 853d
00000120: 2945 4e3e b99e edbb ce0b b93c b78b a83c
00000130: 65e9 36bd 201d 993c b15c e23d a367 063e
00000140: ca1f 50bc e794 5e3d 5931 02be ffbe 9a3d
00000150: 8e18 b93d bf62 75bd 53fe 00be 3141 98bd
00000160: 6d4e 42bc a08d 733d 7b85 c13d 359c c3bd
00000170: 688f 953d 8a0c c83d 5923 1c3d 295f ddbb
00000180: 8ab4 dc3c 4c01 c8bd 0126 27bc e5bc 55bd
00000190: c63d 50be 9fcb 413d b021 60bd 3db2 023c
000001a0: 7422 923d e442 303d 7916 14be 0568 3ebc
000001b0: f6d8 db3a 5a6e 2ebd ad2a 8cbe c735 df3d
000001c0: 5d55 84bc b6b0 973d d571 ad3d 947d 3dbe
000001d0: bea3 0a3e cd6e 95bc 5532 01bd a834 17be
000001e0: f164 0bbe d70c 11bd 37bf 1fbe ed67 ecbd
000001f0: 1e81 153e f602 393d d600 87bd 57f7 d73d
00000200: 8750 98bd 2b86 2a3b c552 103e d0f0 58b9
00000210: 3587 03bd 1f8b dd3c 639b 3cbd ac80 b83d
00000220: 3fb4 153d 8abf fb3d e706 babc f0e8 6a3d
00000230: ce52 433c b029 103e d4b0 bb3d 6f2c e3b9
00000240: f164 b23c a886 1bbe f19d 62bd 5444 923d
00000250: 3008 8abd 76b3 ae3c 9d8a ecbd 865e aabc
00000260: 0f3a adbc 8c2c 5e3d 1cd7 723d f629 d43d
00000270: 9102 94bc af58 053d f155 2ebd 171f 863d
00000280: 1ec2 703d 62f0 203e 7a07 b1bd 980e 8d3d
00000290: e0fb 853d f9a1 603d e809 60be b8fe aa3c
000002a0: df71 ec3d f5dc 66be 096b 333e ccaa 1d3e
000002b0: 937d e8bb 8fcd 953d e210 973d b954 c63d
000002c0: 31f7 6a3c 1b87 41bd ac81 483e bb51 c53d
000002d0: c202 8e3d 9914 52bd fe02 343e dbd4 51bd
000002e0: f89d a13d 4ba6 3cbe d344 92bd 7821 033e
000002f0: 72b7 953d 3399 72bc e74a a23d 2120 7a3d
00000300: a30e 453d 6445 753d 8ed4 a23d 79a5 ab3d
00000310: 22e3 e6bd ada6 14be 93ed 133d 306c 003d
00000320: ffd4 183d 24a0 ad3c 75a3 ca3b 1979 15be
00000330: ed44 923c fe1c 203c 2149 24bd 00b1 c2bd
00000340: 253e 843d 9bd5 403e f29a b9bc 04b5 a5bd
00000350: a569 d4bc 6d7e c3bc af11 9bbd 99d0 8bbc
00000360: 23aa 993d 82a7 e13d 3236 293d 541f 623d
00000370: 48cb 013e a86a 44bd f02b 533d 7ce2 963d
00000380: 0ff4 513e de87 ddbd bb80 5cbd b87a 893d
00000390: cdf6 5b3d 722c ecbc 4e44 303e 41c2 5f3b
000003a0: d266 893d 8b1a 113c a81f 77bc 1f8d fb3c
000003b0: 8b36 7f3d fcbb 383e 2532 29be 999b 01ba
000003c0: 9cd5 d83d 8e5b d0bb df2a 173e 7f6c a63d
000003d0: 7943 d6bd 578b cabc 2737 353d 04ab debc
000003e0: 246a ebbd 0084 6c3d 256b 64bc 90cc dcbc
000003f0: 1912 dd3d 678e 5bbd 9ea9 49bd 1c6a 983d

network_body._body_endoder.seq_layers.2.bias f4 [128]
0.0 0.0 0.0 0.0 0.0 0.0 0.0 0.0
0.0 0.0 0.0 0.0 0.0 0.0 0.0 0.0
0.0 0.0 0.0 0.0 0.0 0.0 0.0 0.0
0.0 0.0 0.0 0.0 0.0 0.0 0.0 0.0
0.0 0.0 0.0 0.0 0.0 0.0 0.0 0.0
0.0 0.0 0.0 0.0 0.0 0.0 0.0 0.0
0.0 0.0 0.0 0.0 0.0 0.0 0.0 0.0
0.0 0.0 0.0 0.0 0.0 0.0 0.0 0.0
0.0 0.0 0.0 0.0 0.0 0.0 0.0 0.0
0.0 0.0 0.0 0.0 0.0 0.0 0.0 0.0
0.0 0.0 0.0 0.0 0.0 0.0 0.0 0.0
0.0 0.0 0.0 0.0 0.0 0.0 0.0 0.0
0.0 0.0 0.0 0.0 0.0 0.0 0.0 0.0
0.0 0.0 0.0 0.0 0.0 0.0 0.0 0.0
0.0 0.0 0.0 0.0 0.0 0.0 0.0 0.0
0.0 0.0 0.0 0.0 0.0 0.0 0.0 0.0
00000000: 0000 0000 0000 0000 0000 0000 0000 0000
00000010: 0000 0000 0000 0000 0000 0000 0000 0000
00000020: 0000 0000 0000 0000 0000 0000 0000 0000
00000030: 0000 0000 0000 0000 0000 0000 0000 0000
00000040: 0000 0000 0000 0000 0000 0000 0000 0000
00000050: 0000 0000 0000 0000 0000 0000 0000 0000
00000060: 0000 0000 0000 0000 0000 0000 0000 0000
00000070: 0000 0000 0000 0000 0000 0000 0000 0000
00000080: 0000 0000 0000 0000 0000 0000 0000 0000
00000090: 0000 0000 0000 0000 0000 0000 0000 0000
000000a0: 0000 0000 0000 0000 0000 0000 0000 0000
000000b0: 0000 0000 0000 0000 0000 0000 0000 0000
000000c0: 0000 0000 0000 0000 0000 0000 0000 0000
000000d0: 0000 0000 0000 0000 0000 0000 0000 0000
000000e0: 0000 0000 0000 0000 0000 0000 0000 0000
000000f0: 0000 0000 0000 0000 0000 0000 0000 0000
00000100: 0000 0000 0000 0000 0000 0000 0000 0000
00000110: 0000 0000 0000 0000 0000 0000 0000 0000
00000120: 0000 0000 0000 0000 0000 0000 0000 0000
00000130: 0000 0000 0000 0000 0000 0000 0000 0000
00000140: 0000 0000 0000 0000 0000 0000 0000 0000
00000150: 0000 0000 0000 0000 0000 0000 0000 0000
00000160: 0000 0000 0000 0000 0000 0000 0000 0000
00000170: 0000 0000 0000 0000 0000 0000 0000 0000
00000180: 0000 0000 0000 0000 0000 0000 0000 0000
00000190: 0000 0000 0000 0000 0000 0000 0000 0000
000001a0: 0000 0000 0000 0000 0000 0000 0000 0000
000001b0: 0000 0000 0000 0000 0000 0000 0000 0000
000001c0: 0000 0000 0000 0000 0000 0000 0000 0000
000001d0: 0000 0000 0000 0000 0000 0000 0000 0000
000001e0: 0000 0000 0000 0000 0000 0000 0000 0000
000001f0: 0000 0000 0000 0000 0000 0000 0000 0000

action_model._discrete_distribution.branches.0.weight f4 [4, 128]
-0.015033643 -0.002098261 0.0038783457 -0.003676338 0.0074535944 -0.00679937 0.005411489 -0.003929145
0.0155948475 -0.00221371 0.0067758127 0.008646722 0.0021600334 -0.0051176664 -0.0013814336 -0.0030502703
-0.013626176 -0.013743686 -0.0032196026 -0.0047781426 -0.006729523 0.010072217 0.022504399 -0.003731088
0.011875533 -0.009338336 0.0007923984 0.006837645 -0.014065738 0.0048161717 0.007282453 -0.004994728
0.005671256 0.007746719 0.006265286 -0.012237846 -0.010960011 -0.005543256 -0.018244734 -0.008287942
0.005221055 -0.0009775691 0.0035537444 -0.0042696274 0.011115375 0.009831486 -0.0015128237 0.0015795183
0.016922778 -0.026328314 0.0072889016 -0.0019253147 0.006987599 0.0010181863 0.020615276 0.0053075436
0.003648306 -0.020919504 -0.0033111938 0.0063180435 -0.019196473 -0.0050651985 -0.003341399 -0.0077073085
0.025226934 0.017487582 0.002074748 -0.0056545334 -0.00802293 -0.007175156 -0.014011793 0.0017090606
0.005433694 0.008877633 -0.019981166 -0.0084276805 0.009414679 -0.012571327 -0.007018437 0.012998285
0.009347297 -0.0022062936 0.0072500915 0.0076138093 0.0018180388 0.0020640863 -0.014762607 0.010262493
-0.013399637 0.014390095 0.002172509 -0.0011652788 0.010281014 -0.0003398911 -0.004037011 -0.0051277457
-0.0060673803 -0.0040655285 0.0084296875 -0.020783015 -0.004413508 0.0056299176 -0.0114079295 0.0043994184
0.011118888 -0.0068836114 0.006763514 -0.0062113297 0.012029821 0.012039132 0.0038541653 0.0056648725
0.017396918 -0.0016420888 0.014065406 -0.018476745 0.010251972 0.00443499 -0.0061372905 0.008762188
0.0042063342 0.0031041536 -0.028584588 -0.012795403 0.0043803677 -0.0043338346 0.017197061 -0.0040177624
0.019815722 0.016505245 0.0023123294 0.0009702801 0.0034874242 0.023166975 -0.0036474222 0.0014315473
-0.0025774145 0.014142896 -0.0017117575 -0.0070686773 -0.008426531 0.010523069 -0.0038013116 -0.0060732365
-0.005790328 0.013943304 -0.006791623 0.0070702718 -0.008916855 0.0040031383 -0.010626041 -0.01117959
-0.011630068 0.00339787 -0.008595436 -0.006926123 -0.0041437517 -0.008263874 -0.0003767961 0.0024573107
-0.00052142015 0.0037842894 0.01865433 -0.003017594 0.013200553 0.003375613 0.0069965646 0.010106559
0.0048148683 0.018776063 0.002040704 0.0058726626 0.0029409637 -0.018698633 -0.00017767637 0.012076794
-0.008110958 -0.014044923 -0.0015845426 0.0017082883 -0.010406181 -0.007030768 0.0027039654 0.0012717255
-0.009565374 0.003097574 -0.0051198658 0.0032098982 0.0071934485 0.0075768316 -0.0020952984 0.00019131953
-0.0076690414 -0.0052977107 0.0043680877 0.012862484 0.012464631 0.007936715 0.023605725 0.009554486
-0.008663288 0.011298008 -0.0056270254 0.01757032 0.0011121846 -0.0045368047 0.009293504 -0.008216781
0.008943733 0.0029287292 0.010309004 0.006471167 0.004867415 0.00088951056 -0.0024857458 0.01010822
-0.008236251 0.0059942445 -0.012341605 0.005518108 -0.0035158158 -0.004610162 0.00684338 -0.012219411
-0.010793296 0.015837697 -0.006209064 -0.023076333 0.00038217523 -0.0056347637 -0.0031603973 -0.0028423117
-0.0006608669 -0.009805632 -0.011035561 0.0041579516 0.0040294216 -0.0029214337 -0.0007676696 -0.015452317
-0.00042203782 0.004831846 -0.0015707167 0.0057972614 0.01344896 -0.008237058 0.016020058 0.0068205306
-0.006118297 0.0018391906 0.008214986 -0.007801823 0.0030811373 0.008895138 -0.004495294 -0.00044101477
00000000: ab4f 76bc fa82 09bb d82b 7e3b b7ee 70bb
00000010: 483d f43b 40cd debb dc52 b13b 0fc0 80bb
00000020: 8881 7f3c e413 11bb a307 de3b fbaa 0d3c
00000030: 598f 0d3b 19b2 a7bb 3811 b5ba 0be7 47bb
00000040: 5340 5fbc 322d 61bc f8ff 52bb f791 9cbb
00000050: 5583 dcbb f105 253c 255b b83c 4585 74bb
00000060: 9891 423c d2ff 18bc f5b8 4f3a 530e e03b
00000070: fb73 66bc fad0 9d3b a5a1 ee3b d1aa a3bb
00000080: f2d5 b93b 30d8 fd3b 074d cd3b 3f81 48bc
00000090: 9e91 33bc 34a4 b5bb fb75 95bc 26ca 07bc
000000a0: 6215 ab3b c721 80ba f0e5 683b 3be8 8bbb
000000b0: 431d 363c 3e14 213c f149 c6ba d707 cf3a
000000c0: a3a1 8a3c 7aae d7bc bdd7 ee3b d75a fcba
000000d0: 3bf8 e43b aa74 853a 5ee1 a83c e7ea ad3b
000000e0: 6b18 6f3b 615f abbc 9d00 59bb 9707 cf3b
000000f0: ec41 9dbc f7f9 a5bb 5ffb 5abb 978d fcbb
00000100: b7a8 ce3c 1e42 8f3c 7ff8 073b aa49 b9bb
00000110: 9b72 03bc 921d ebbb b891 65bc 8f02 e03a
00000120: 210d b23b 7e73 113c 8baf a3bc 4114 0abc
00000130: 0740 1a3c f8f7 4dbc ebfa e5bb c2f6 543c
00000140: 6825 193c 7797 10bb 2d92 ed3b 437d f93b
00000150: 424b ee3a 9f45 073b ddde 71bc 0424 283c
00000160: 278a 5bbc 6fc4 6b3c a760 0e3b 45bc 98ba
00000170: b371 283c 6933 b2b9 e748 84bb a606 a8bb
00000180: e0d0 c6bb 2038 85bb ac1c 0a3c 2441 aabc
00000190: 309f 90bb 2c7b b83b 53e8 3abc ff28 903b
000001a0: ff2b 363c eb8f e1bb 78a0 dd3b 6988 cbbb
000001b0: ba18 453c c83f 453c 2a96 7c3b 65a0 b93b
000001c0: fb83 8e3c 5b3b d7ba 9772 663c 8b5c 97bc
000001d0: e3f7 273c 6553 913b 531b c9bb 488f 0f3c
000001e0: 4ad5 893b 0e6f 4b3b 3a2a eabc cfa3 51bc
000001f0: 3089 8f3b d702 8ebb dae0 8c3c 6fa7 83bb
00000200: 9554 a23c 0236 873c 738a 173b 655a 7e3a
00000210: 458d 643b abc8 bd3c 9709 6fbb c2a2 bb3a
00000220: d7e9 28bb 9bb7 673c 0d5d e0ba 5da0 e7bb
00000230: 6f0f 0abc f368 2c3c 6d1f 79bb 0002 c7bb
00000240: cbbc bdbb 7572 643c 438c debb bdad e73b
00000250: 0018 12bc c22c 833b d918 2ebc 992a 37bc
00000260: 0a8c 3ebc cdae 5e3b dfd3 0cbc 88f4 e2bb
00000270: 4fc8 87bb 3365 07bc b78c c5b9 d50a 213b
00000280: eaaf 08ba d701 783b f7d0 983c d4c2 45bb
00000290: 2247 583c 6339 5d3b 7043 e53b fb95 253c
000002a0: 0bc6 9d3b 42d0 993c 55bd 053b 776f c03b
000002b0: 2fbd 403b e02d 99bc a34e 3ab9 bfdd 453c
000002c0: d3e3 04bc ad1c 66bc 6db0 cfba a5e8 df3a
000002d0: b07e 2abc 5b62 e6bb 0335 313b 07b0 a63a
000002e0: 16b8 1cbc ab00 4b3b 8cc4 a7bb 285d 523b
000002f0: 05b7 eb3b 1247 f83b 4651 09bb f29c 4839
00000300: 954c fbbb 6b98 adbb 2d22 8f3b 2bbd 523c
00000310: 7438 4c3c ff08 023c cb60 c13c 6b8a 1c3c
00000320: 77f0 0dbc 481b 393c e962 b8bb a2ef 8f3c
00000330: b9c6 913a 7aa9 94bb c843 183c ad9f 06bc
00000340: bc88 123c ecef 3f3b 19e7 283c 150c d43b
00000350: d67e 9f3b 0b2e 693a e5e7 22bb f39c 253c
00000360: 57f1 06bc 5e6b c43b 7134 4abc 3fd1 b43b
00000370: 9a69 66bb d810 97bb 6f3e e03b ed33 48bc
00000380: 5dd6 30bc 0fbe 813c 6775 cbbb 940a bdbc
00000390: b15e c839 d3a3 b8bb ab1e 4fbb 1446 3abb
000003a0: 073e 2dba cda7 20bc 7fce 34bc 6d3f 883b
000003b0: 3d09 843b 8675 3fbb 6f3d 49ba b72b 7dbc
000003c0: f544 ddb9 7654 9e3b 82e0 cdba f4f6 bd3b
000003d0: 0759 5c3c baf4 06bc 7f3c 833c c27e df3b
000003e0: ff7b c8bb ff10 f13a 2698 063c 6fa6 ffbb
000003f0: e8ec 493b eabc 113c 424d 93bb 0038 e7b9

action_model._discrete_distribution.branches.0.bias f4 [4]
0.0 0.0 0.0 0.0
00000000: 0000 0000 0000 0000 0000 0000 0000 0000

network_body._body_endoder.seq_layers.0.weight f4 [128, 138]
0.039331175 0.037958723 -0.081224926 0.044081412 0.048577648 0.1384245 0.06969959 0.045921627
-0.13043666 0.11904552 0.12861317 -0.0589954 -0.06435494 0.090142235 0.024270253 -0.033518758
-0.017622469 -0.027340548 -0.062049724 0.00090600376 0.06413734 0.11797542 -0.03159052 0.04117981
0.10876472 -0.076225415 0.0479657 0.14610747 0.06887291 -0.06518553 0.08857889 0.0109061925
0.0033316093 0.048173264 -0.044706956 -0.011009114 0.16445562 -0.1519981 -0.06724457 -0.08959147
-0.06305622 -0.16836806 0.12636338 -0.09694076 0.063065484 -0.034754578 0.077334516 -0.08938474
0.01545903 -0.07272391 -0.054897845 0.08756996 -0.037178878 0.06869232 0.016290683 -0.09430497
-0.0040671444 -0.05242718 0.06145248 0.011357135 0.08021641 -0.05637095 0.14496526 -0.1135768
0.008576319 -0.070387594 0.013768147 -0.13440634 -0.09206521 -0.038494635 -0.03523878 -0.0133699225
-0.025485467 -0.017707342 0.056510445 0.14612359 -0.05150125 0.049790572 0.120095894 -0.037569698
-0.06266719 -0.074159786 0.010549591 -0.090342596 -0.030547278 -0.012757598 0.06816197 0.02570385
-0.026381396 -0.020643145 -0.08894663 0.024724906 -0.059015322 0.0065676295 0.06899261 -0.025956875
-0.11357755 0.053188983 -0.043256287 0.17614783 -0.018022232 0.07552717 0.25050777 -0.002083534
-0.12834215 0.10778528 -0.029372057 -0.047899753 0.085780665 0.086742856 -0.06553749 0.042056717
0.054875527 0.029272614 0.01912893 -0.19890718 -0.062626034 -3.4604723e-06 0.11091628 -0.12520158
0.021112662 0.035461795 -0.14154384 -0.18705289 -0.047857624 0.004355789 -0.0068987487 -0.21371529
0.060723405 0.03654369 0.00772329 -0.01593072 0.07044425 0.21090126 -0.034845397 -0.0478091
0.026512487 0.07279481 0.015329404 0.017417578 -0.024983425 0.058794007 -0.12438124 0.09777177
0.081604086 -0.11139882 -0.01439438 -0.009768882 0.13857257 0.028218776 0.023298413 0.030701973
0.124217905 -0.037338898 -0.094921395 0.13082667 0.13273473 0.01618221 -0.0071744 -0.01445176
0.024841487 -0.15525356 0.1090198 -0.043261983 0.037790902 0.19292957 0.07772664 0.049076807
0.12390919 -0.05652497 0.03879365 -0.23288792 -0.027525045 -0.060480006 -0.12538886 0.04035155
-0.06550235 0.15442696 0.18964219 -0.06503754 -0.15415932 -0.045982193 -0.028386477 -0.046567503
0.0032853198 -0.18244965 -0.06702304 -0.01462195 0.027701072 -0.12460486 0.13107412 -0.10252613
-0.026831102 0.009068424 0.04201917 0.12541379 0.001147263 0.087244876 0.11930042 -0.06310666
-0.052419417 0.030719556 0.018868867 0.078248195 -0.09240468 -0.100956164 0.10773328 0.0048242765
-0.04403013 0.03121521 -0.023268148 -0.019165546 0.052855395 0.069732785 -0.10998918 0.088436976
0.2803043 -0.058851756 0.029143278 -0.006293223 0.0563696 -0.012086694 -0.024494307 -0.017576093
-0.06673463 0.0026756194 0.05694166 0.0120899305 0.059511203 0.103183985 -0.15330699 0.180148
0.12578171 -0.16697545 0.06413599 0.09409798 0.015961114 0.01994629 -0.067549855 0.075480625
0.22223087 -0.047064032 0.051560964 -0.02789262 -0.14412946 0.022690801 -0.011281736 -0.11155897
-0.12003413 -0.028527265 0.1109417 0.006950826 0.16700056 0.089542165 0.119942784 -0.073857464
00000000: ba19 213d 9b7a 1b3d 4159 a6bd b68e 343d
00000010: 5bf9 463d 27bf 0d3e a9be 8e3d 5118 3c3d
00000020: 3091 05be 23ce f33d 2cb3 033e 29a5 71bd
00000030: 86cc 83bd 7e9c b83d 69d2 c63c f74a 09bd
00000040: ff5c 90bc 49f9 dfbc da27 7ebd e280 6d3a
00000050: 705a 833d 199d f13d 1065 01bd 29ac 283d
00000060: 0ac0 de3d 121c 9cbd af77 443d 329d 153e
00000070: 3e0d 8d3d fe7f 85bd d968 b53d e3af 323c
00000080: 2157 5a3b 5451 453d a41e 37bd 925f 34bc
00000090: 0e67 283e 64a5 1bbe 85b7 89bd bc7b b7bd
000000a0: 9f23 81bd ad68 2cbe 6765 013e e188 c6bd
000000b0: 7a28 813d d15a 0ebd 8f61 9e3d 590f b7bd
000000c0: df47 7d3c 46f0 94bd 90dc 60bd e157 b33d
000000d0: e148 18bd 8fae 8c3d 0a74 853c f722 c1bd
000000e0: ae45 85bb e2bd 56bd 98b5 7b3d 4713 3a3c
000000f0: 8048 a43d 3ae5 66bd c671 143e f49a e8bd
00000100: b083 0c3c 5f27 90bd cb93 613c d1a1 09be
00000110: af8c bcbd 8dac 1dbd 8a56 10bd 850d 5bbc
00000120: e6c6 d0bc fd0e 91bc 7f77 673d 6ca1 153e
00000130: faf2 52bd 33f1 4b3d d6f4 f53d afe2 19bd
00000140: a857 80bd 16e1 97bd 31d8 2c3c 8a05 b9bd
00000150: 493e fabc 3f05 51bc 8198 8b3d e190 d23c
00000160: cc1d d8bc d01b a9bc a729 b6bd e38b ca3c
00000170: 0dba 71bd 4535 d73b ff4b 8d3d 83a3 d4bc
00000180: 599b e8bd b1dc 593d 812d 31bd 1960 343e
00000190: 5ca3 93bc fdad 9a3d 8e42 803e e68b 08bb
000001a0: 206c 03be 87be dc3d ab9d f0bc 8832 44bd
000001b0: c6ad af3d 3da6 b13d 8538 86bd aa43 2c3d
000001c0: 29c5 603d 1fcd ef3c 46b4 9c3c 53ae 4bbe
000001d0: 1442 80bd 763a 68b6 1328 e33d d834 00be
000001e0: 76f4 ac3c 6340 113d def0 10be cb8a 3fbe
000001f0: 5b06 44bd 02bb 8e3b e60e e2bb 2ed8 5abe
00000200: 1bb9 783d d6ae 153d a713 fd3b 2481 82bc
00000210: 1345 903d 80f6 573e 0cba 0ebd 7ad3 43bd
00000220: b730 d93c 7215 953d 2e28 7b3c 4faf 8e3c
00000230: 0aaa ccbc fcd1 703d 97bb febd 913c c83d
00000240: 0b20 a73d 1125 e4bd 68d6 6bbc a90d 20bc
00000250: f8e5 0d3e 102b e73c 50dc be3c b482 fb3c
00000260: f565 fe3d acf0 18bd 2666 c2bd 6df7 053e
00000270: 9deb 073e 8e90 843c 3b17 ebbb 13c7 6cbc
00000280: 6080 cb3c cafa 1ebe c645 df3d 7a33 31bd
00000290: a2ca 1a3d 548f 453e 252f 9f3d c304 493d
000002a0: 1ac4 fd3d ba86 67bd 17e6 1e3d 2c7a 6ebe
000002b0: 347c e1bc e2b9 77bd f065 00be ab47 253d
000002c0: 1926 86bd 1a22 1e3e 9031 423e 6732 85bd
000002d0: f1db 1dbe d357 3cbd c28a e8bc 91bd 3ebd
000002e0: 854e 573b 15d4 3abe 6043 89bd e790 6fbc
000002f0: 5ced e23c d530 ffbd 4b38 063e 38f9 d1bd
00000300: e6cc dbbc ba93 143c 4b1c 2c3d 796c 003e
00000310: c25f 963a 71ad b23d c753 f43d 113e 81bd
00000320: beb5 56bd 94a7 fb3c e292 9a3c 9740 a03d
00000330: aa3e bdbd 1bc2 cebd 44a3 dc3d f714 9e3b
00000340: f058 34bd 0ab7 ff3c d89c bebc 1001 9dbc
00000350: e67e 583d 10d0 8e3d 0242 e1bd 721e b53d
00000360: 0c84 8f3e 8a0e 71bd e2bd ee3c 6137 cebb
00000370: cfe3 663d 4507 46bc 49a8 c8bc bdfb 8fbc
00000380: 2aac 88bd 7259 2f3b a83b 693d d814 463c
00000390: 05c2 733d 2052 d33d 82fc 1cbe b878 383e
000003a0: eccc 003e 9dfb 2abe bb59 833d 71b6 c03d
000003b0: e2c0 823c 6766 a33c 9457 8abd 9695 9a3d
000003c0: 7d90 633e 37c6 40bd 9731 533d 107f e4bc
000003d0: ac96 13be 0fe2 b93c 08d7 38bc 0779 e4bd
000003e0: 74d4 f5bd 03b2 e9bc 6735 e33d c1c3 e33b
000003f0: 3202 2b3e e261 b73d 90a4 f53d 9542 97bd

network_body._body_endoder.seq_layers.0.bias f4 [128]
0.0 0.0 0.0 0.0 0.0 0.0 0.0 0.0
0.0 0.0 0.0 0.0 0.0 0.0 0.0 0.0
0.0 0.0 0.0 0.0 0.0 0.0 0.0 0.0
0.0 0.0 0.0 0.0 0.0 0.0 0.0 0.0
0.0 0.0 0.0 0.0 0.0 0.0 0.0 0.0
0.0 0.0 0.0 0.0 0.0 0.0 0.0 0.0
0.0 0.0 0.0 0.0 0.0 0.0 0.0 0.0
0.0 0.0 0.0 0.0 0.0 0.0 0.0 0.0
0.0 0.0 0.0 0.0 0.0 0.0 0.0 0.0
0.0 0.0 0.0 0.0 0.0 0.0 0.0 0.0
0.0 0.0 0.0 0.0 0.0 0.0 0.0 0.0
0.0 0.0 0.0 0.0 0.0 0.0 0.0 0.0
0.0 0.0 0.0 0.0 0.0 0.0 0.0 0.0
0.0 0.0 0.0 0.0 0.0 0.0 0.0 0.0
0.0 0.0 0.0 0.0 0.0 0.0 0.0 0.0
0.0 0.0 0.0 0.0 0.0 0.0 0.0 0.0
00000000: 0000 0000 0000 0000 0000 0000 0000 0000
00000010: 0000 0000 0000 0000 0000 0000 0000 0000
00000020: 0000 0000 0000 0000 0000 0000 0000 0000
00000030: 0000 0000 0000 0000 0000 0000 0000 0000
00000040: 0000 0000 0000 0000 0000 0000 0000 0000
00000050: 0000 0000 0000 0000 0000 0000 0000 0000
00000060: 0000 0000 0000 0000 0000 0000 0000 0000
00000070: 0000 0000 0000 0000 0000 0000 0000 0000
00000080: 0000 0000 0000 0000 0000 0000 0000 0000
00000090: 0000 0000 0000 0000 0000 0000 0000 0000
000000a0: 0000 0000 0000 0000 0000 0000 0000 0000
000000b0: 0000 0000 0000 0000 0000 0000 0000 0000
000000c0: 0000 0000 0000 0000 0000 0000 0000 0000
000000d0: 0000 0000 0000 0000 0000 0000 0000 0000
000000e0: 0000 0000 0000 0000 0000 0000 0000 0000
000000f0: 0000 0000 0000 0000 0000 0000 0000 0000
00000100: 0000 0000 0000 0000 0000 0000 0000 0000
00000110: 0000 0000 0000 0000 0000 0000 0000 0000
00000120: 0000 0000 0000 0000 0000 0000 0000 0000
00000130: 0000 0000 0000 0000 0000 0000 0000 0000
00000140: 0000 0000 0000 0000 0000 0000 0000 0000
00000150: 0000 0000 0000 0000 0000 0000 0000 0000
00000160: 0000 0000 0000 0000 0000 0000 0000 0000
00000170: 0000 0000 0000 0000 0000 0000 0000 0000
00000180: 0000 0000 0000 0000 0000 0000 0000 0000
00000190: 0000 0000 0000 0000 0000 0000 0000 0000
000001a0: 0000 0000 0000 0000 0000 0000 0000 0000
000001b0: 0000 0000 0000 0000 0000 0000 0000 0000
000001c0: 0000 0000 0000 0000 0000 0000 0000 0000
000001d0: 0000 0000 0000 0000 0000 0000 0000 0000
000001e0: 0000 0000 0000 0000 0000 0000 0000 0000
000001f0: 0000 0000 0000 0000 0000 0000 0000 0000

network_body._body_endoder.seq_layers.2.weight f4 [128, 128]
-0.041796546 -0.03928684 0.0416044 0.03854374 0.12828603 -0.14511454 -0.10221876 0.008623245
0.00041564283 0.053539563 -0.0075243306 0.08157935 -0.12223235 -0.09040862 0.101792075 0.16852342
-0.04034742 -0.0080197705 -0.03753967 -0.020973496 0.011420643 0.11188401 0.072855935 0.07824722
-0.05625601 -0.019998986 0.05659269 0.05484932 0.042928558 -0.10042527 0.094383396 0.020281918
0.050225504 -0.092177324 0.06993499 -0.11690372 -0.0004675149 0.15084195 -0.020066975 0.022479877
-0.09923874 -0.0052841646 0.08780738 -0.04389995 -0.14152922 -0.08383422 0.03049979 0.0063977945
-0.06420429 -0.029813735 -0.049825575 -0.07781735 -0.036416616 0.10764112 0.024106737 -0.018766798
0.04908865 0.009146343 0.065442935 0.056083545 0.09550711 0.037216656 -0.089121416 0.068548895
-0.1214848 -0.0943917 0.031432208 -0.013227737 0.059056953 0.03249996 -0.14856586 0.05576889
-0.04049564 0.020548759 -0.06717529 0.0030323968 0.14434433 -0.028278833 0.025201192 0.017035905
-0.01694086 0.02671217 -0.048276275 -0.012268856 0.06438607 0.038469512 0.09567058 0.009970024
0.03622407 -0.0023664737 0.05394319 0.0048147338 -0.068005204 -0.1530552 0.19235943 0.16625458
0.25483695 -0.003437389 -0.17180838 0.011546477 0.10994208 0.038793605 -0.03762072 0.062723875
0.023121634 -0.093727484 -0.056949586 -0.0019923793 -0.06464876 -0.0176742 0.017419163 -0.05815587
-0.029989453 0.076833695 0.042813025 -0.00910825 -0.06546271 -0.0014589505 0.07173315 -0.11457132
0.053814165 -0.045884546 0.04835403 -0.09000721 0.10180614 0.03409399 0.07296093 -0.038481344
0.0014891411 0.0864956 -0.03914683 0.12033985 0.025529442 -0.03840473 -0.0060835253 -0.15442564
-0.30413166 0.043865457 0.026821738 -0.020953925 0.10621798 0.030773938 0.077634074 -0.027729765
-0.13981067 -0.00026649373 -0.017933672 -0.015181725 0.02298146 -0.1777727 0.068482414 -0.05307971
0.19934024 -0.06523944 0.026260199 0.05335489 0.0036342135 0.0869972 0.009626417 0.03878976
-0.096264236 0.008002081 -0.013068469 -0.006107565 -0.010667426 -0.15972868 -0.030203419 -0.08618388
-0.21039906 -0.030267464 -0.055869263 0.06933284 0.12642658 -0.03107305 -0.04133239 0.080497675
0.12586062 0.00079144695 0.07769381 -0.09754316 0.07291678 -0.049369864 -0.079364404 -0.005360274
0.032397993 0.042840734 -0.03845493 -0.11476967 -0.06902341 0.055760417 0.042614833 0.0032764438
0.017122986 -0.07833487 0.09292529 0.0299025 -0.030674987 0.08847056 0.049155317 0.006936059
-0.07222714 0.029923037 -0.06418664 -0.0033496816 -0.15169029 0.072357334 0.081933774 -0.12652661
-0.023750018 0.0448854 -0.03771366 -0.099847086 0.036048435 -0.14041932 0.09201915 -0.08616771
-0.08511543 0.004683943 0.11114561 0.1172048 0.008113696 -0.17005765 0.07286159 -0.13709512
0.07732367 0.024875475 -0.15573283 -0.0687469 0.16300803 -0.062530324 0.01142972 0.19924194
0.05423722 0.086818896 0.017716223 0.06572559 0.20554289 0.20968607 0.1406762 0.026404057
0.14546894 -0.08382811 0.078563824 0.017199239 0.076581314 0.019986123 -0.014029178 0.10638717
-0.08528928 -0.12827154 -0.069732204 -0.024916576 -0.13711636 -0.06791554 0.028048785 -0.004132036
00000000: db32 2bbd 3deb 20bd 6069 2a3d 0ae0 1d3d
00000010: 6a5d 033e e898 14be 1258 d1bd 8348 0d3c
00000020: a3ea d939 4d4c 5b3d a98e f6bb 1313 a73d
00000030: f454 fabd 2828 b9bd 5d78 d03d 6791 2c3e
00000040: 5643 25bd 5b65 03bc 32c3 19bd 9cd0 abbc
00000050: a61d 3b3c 7223 e53d 7e35 953d 1440 a03d
00000060: b46c 66bd ead4 a3bc bdcd 673d aea9 603d
00000070: dbd5 2f3d c4ab cdbd 154c c13d 4426 a63c
00000080: 42b9 4d3d 77c7 bcbd 133a 8f3d 386b efbd
00000090: ca1c f5b9 5076 1a3e 7f63 a4bc b827 b83c
000000a0: ae3d cbbd c926 adbb 5bd4 b33d 6fd0 33bd
000000b0: 09ed 10be 47b1 abbd b2da f93c 97a4 d13b
000000c0: 8a7d 83bd ef3b f4bc e715 4cbd b45e 9fbd
000000d0: 9729 15bd f372 dc3d 7e7b c53c d4bc 99bc
000000e0: 2e11 493d 8bda 153c f206 863d dcb7 653d
000000f0: 3b99 c33d 7e70 183d 4a85 b6bd 5d63 8c3d
00000100: 06cd f8bd 7050 c1bd 0fbf 003d 26b9 58bc
00000110: b4e5 713d ae1e 053d a621 18be eb6d 643d
00000120: c2de 25bd df55 a83c 3393 89bd 2dbb 463b
00000130: 00cf 133e 03a9 e7bc bb72 ce3c e28e 8b3c
00000140: 8fc7 8abc 7bd3 da3c 58bd 45bd 5003 49bc
00000150: d8dc 833d 3592 1d3d f0ee c33d 5059 233c
00000160: b15f 143d d716 1bbb 89f3 5c3d eac4 9d3b
00000170: 5046 8bbd 81ba 1cbe dff9 443e a43e 2a3e
00000180: fd79 823e d145 61bb 89ee 2fbe 6f2d 3d3c
00000190: 5029 e13d 0be6 1e3d 2f18 1abd 6075 803d
000001a0: 9569 bd3c 32f4 bfbd f843 69bd 9492 02bb
000001b0: 9266 84bd 7cc9 90bc a2b2 8e3c d934 6ebd
000001c0: 71ac f5bc fc5a 9d3d b65c 2f3d c53a 15bc
000001d0: 5011 86bd 413a bfba d4e8 923d 5ea4 eabd
000001e0: 3e6c 5c3d 6ff1 3bbd e00e 463d b355 b8bd
000001f0: bd7f d03d 24a6 0b3d 8a6c 953d 9d9e 1dbd
00000200: 492f c33a 9b24 b13d 6d58 20bd bd74 f63d
00000210: 1f23 d13c 474e 1dbd 4f58 c7bb c121 1ebe
00000220: 25b7 9bbe 44ac 333d 43b9 db3c 91a7 abbc
00000230: d088 d93d a019 fc3c 9dfe 9e3d 8829 e3bc
00000240: 872a 0fbe 2fb8 8bb9 a3e9 92bc c5bc 78bc
00000250: 9d43 bc3c 0c0a 36be 8240 8c3d 1c6a 59bd
00000260: d91f 4c3e 419c 85bd a11f d73c a88a 5a3d
00000270: fc2b 6e3b 972b b23d 1fb8 1d3c 03e2 1e3d
00000280: 2f26 c5bd 291b 033c 221d 56bc f821 c8bb
00000290: 6dc6 2ebc ea8f 23be 296d f7bc 2d81 b0bd
000002a0: da72 57be 79f3 f7bc 2bd7 64bd 60fe 8d3d
000002b0: f875 013e e98c febc 274c 29bd f7db a43d
000002c0: 9be1 003e 1b79 4f3a ef1d 9f3d b5c4 c7bd
000002d0: 6555 953d 0e38 4abd ce89 a2bd 3da5 afbb
000002e0: c2b3 043d c479 2f3d eb82 1dbd 5c0c ebbd
000002f0: 255c 8dbd 0965 643d e48c 2e3d 9bb9 563b
00000300: 8145 8c3c 086e a0bd 9d4f be3d 16f6 f43c
00000310: 1c4a fbbc 0e30 b53d 1657 493d e147 e33b
00000320: d3eb 93bd 2821 f53c 4974 83bd 5586 5bbb
00000330: b354 1bbe 1530 943d e5cc a73d 3190 01be
00000340: 668f c2bc c1d9 373d a479 1abd a17c ccbd
00000350: 86a7 133d 15ca 0fbe 8974 bc3d b278 b0bd
00000360: 0051 aebd c37b 993b 4fa0 e33d 1209 f03d
00000370: 4fef 043c 9823 2ebe 7538 953d aa62 0cbe
00000380: df5b 9e3d a7c7 cb3c 6d78 1fbe 2dcb 8cbd
00000390: 94eb 263e e60f 80bd b843 3b3c 1406 4c3e
000003a0: d927 5e3d 1bce b13d 9d21 913c 239b 863d
000003b0: d679 523e f2b7 563e 6c0d 103e 524d d83c
000003c0: cff5 143e 12ae abbd 12e6 a03d 6be5 8c3c
000003d0: aad6 9c3d f0b9 a33c a3da 65bc 84e1 d93d
000003e0: 25ac aebd 9d59 03be c2cf 8ebd d91d ccbc
000003f0: 3b68 0cbe 4d17 8bbd 91c6 e53c 0866 87bb

network_body._body_endoder.seq_layers.2.bias f4 [128]
0.0 0.0 0.0 0.0 0.0 0.0 0.0 0.0
0.0 0.0 0.0 0.0 0.0 0.0 0.0 0.0
0.0 0.0 0.0 0.0 0.0 0.0 0.0 0.0
0.0 0.0 0.0 0.0 0.0 0.0 0.0 0.0
0.0 0.0 0.0 0.0 0.0 0.0 0.0 0.0
0.0 0.0 0.0 0.0 0.0 0.0 0.0 0.0
0.0 0.0 0.0 0.0 0.0 0.0 0.0 0.0
0.0 0.0 0.0 0.0 0.0 0.0 0.0 0.0
0.0 0.0 0.0 0.0 0.0 0.0 0.0 0.0
0.0 0.0 0.0 0.0 0.0 0.0 0.0 0.0
0.0 0.0 0.0 0.0 0.0 0.0 0.0 0.0
0.0 0.0 0.0 0.0 0.0 0.0 0.0 0.0
0.0 0.0 0.0 0.0 0.0 0.0 0.0 0.0
0.0 0.0 0.0 0.0 0.0 0.0 0.0 0.0
0.0 0.0 0.0 0.0 0.0 0.0 0.0 0.0
0.0 0.0 0.0 0.0 0.0 0.0 0.0 0.0
00000000: 0000 0000 0000 0000 0000 0000 0000 0000
00000010: 0000 0000 0000 0000 0000 0000 0000 0000
00000020: 0000 0000 0000 0000 0000 0000 0000 0000
00000030: 0000 0000 0000 0000 0000 0000 0000 0000
00000040: 0000 0000 0000 0000 0000 0000 0000 0000
00000050: 0000 0000 0000 0000 0000 0000 0000 0000
00000060: 0000 0000 0000 0000 0000 0000 0000 0000
00000070: 0000 0000 0000 0000 0000 0000 0000 0000
00000080: 0000 0000 0000 0000 0000 0000 0000 0000
00000090: 0000 0000 0000 0000 0000 0000 0000 0000
000000a0: 0000 0000 0000 0000 0000 0000 0000 0000
000000b0: 0000 0000 0000 0000 0000 0000 0000 0000
000000c0: 0000 0000 0000 0000 0000 0000 0000 0000
000000d0: 0000 0000 0000 0000 0000 0000 0000 0000
000000e0: 0000 0000 0000 0000 0000 0000 0000 0000
000000f0: 0000 0000 0000 0000 0000 0000 0000 0000
00000100: 0000 0000 0000 0000 0000 0000 0000 0000
00000110: 0000 0000 0000 0000 0000 0000 0000 0000
00000120: 0000 0000 0000 0000 0000 0000 0000 0000
00000130: 0000 0000 0000 0000 0000 0000 0000 0000
00000140: 0000 0000 0000 0000 0000 0000 0000 0000
00000150: 0000 0000 0000 0000 0000 0000 0000 0000
00000160: 0000 0000 0000 0000 0000 0000 0000 0000
00000170: 0000 0000 0000 0000 0000 0000 0000 0000
00000180: 0000 0000 0000 0000 0000 0000 0000 0000
00000190: 0000 0000 0000 0000 0000 0000 0000 0000
000001a0: 0000 0000 0000 0000 0000 0000 0000 0000
000001b0: 0000 0000 0000 0000 0000 0000 0000 0000
000001c0: 0000 0000 0000 0000 0000 0000 0000 0000
000001d0: 0000 0000 0000 0000 0000 0000 0000 0000
000001e0: 0000 0000 0000 0000 0000 0000 0000 0000
000001f0: 0000 0000 0000 0000 0000 0000 0000 0000

value_heads.value_heads.extrinsic.weight f4 [1, 128]
-0.074073166 0.10226966 -0.20871486 0.115191326 0.08730063 0.040749375 -0.050988905 0.16879603
0.20387332 -0.15951572 -0.21072371 -0.1058338 -0.07757309 0.115738526 -0.007341777 -0.13747181
0.20930213 -0.11635769 0.12484806 -0.08276701 0.09693312 0.18353672 0.19449715 -0.016109265
-0.05449342 0.038085632 -0.15628964 0.1767251 0.008767886 -0.039868202 0.040570464 0.0041840146
0.15554065 -0.17593949 -0.19927073 -0.18457444 0.1583257 0.18951586 0.04490686 0.12429667
0.11264245 -0.0919751 0.07191012 0.009120567 -0.12388617 -0.051140986 0.0150100365 -0.1496684
0.111327626 0.011573726 0.12144299 0.16420792 0.077448554 -0.010950673 -0.10663534 0.080053344
-0.0884577 0.10698087 0.13778536 -0.107466236 0.17541979 0.06298854 0.037972383 0.047240622
0.06931088 0.20679384 -0.17497635 0.17098054 0.15787472 -0.04739114 -0.14957802 -0.021429582
-0.08103737 0.06909757 0.1210077 0.16043933 0.025670465 0.19233263 -0.15371579 -0.21417132
0.05042349 -0.13158387 -0.098975316 0.16984107 -0.10898774 -0.16971299 0.088678725 -0.1753754
0.12915348 0.21335983 0.18201956 -0.203325 -0.189847 -0.19599938 0.07054987 0.07365956
-0.13735165 0.046769783 0.03240086 0.07861334 0.08470041 0.13162753 -0.13036245 0.14325102
0.12295498 -0.013995379 0.19319373 0.032859746 -0.086513124 0.04898297 -0.14337584 0.005386389
-0.18321426 -0.13236879 0.11505417 -0.009763699 -0.14033806 -0.0465851 0.033616345 0.036087424
0.06397527 -0.064722225 0.029013913 -0.032323293 -0.12414117 -0.052531786 0.033723477 -0.08294516
00000000: acb3 97bd c172 d13d 59b9 55be 6ee9 eb3d
00000010: acca b23d d1e8 263d bed9 50bd ded8 2c3e
00000020: 2bc4 503e 1758 23be f5c7 57be 64bf d8bd
00000030: a4de 9ebd 5208 ed3d 4a93 f0bb 69c5 0cbe
00000040: 4c53 563e f14c eebd 57b0 ff3d c081 a9bd
00000050: df84 c63d 0df1 3b3e 432a 473e 94f7 83bc
00000060: 7e34 5fbd aeff 1b3d 640a 20be 6df7 343e
00000070: 2ea7 0f3c d74c 23bd 372d 263d 0f1a 893b
00000080: 0c46 1f3e 7b29 34be a00d 4cbe 1501 3dbe
00000090: 2220 223e 7210 423e 41f0 373d 418f fe3d
000000a0: 16b1 e63d 715d bcbd 9d45 933d 6e6e 153c
000000b0: 08b8 fdbd 3679 51bd a8ec 753c ac42 19be
000000c0: bdff e33d ba9f 3d3c 1ab7 f83d 1f26 283e
000000d0: 599d 9e3d 746a 33bc a163 dabd 02f3 a33d
000000e0: 5029 b5bd c918 db3d 9b17 0d3e 4217 dcbd
000000f0: 3fa1 333e 2300 813d ee88 1b3d 627f 413d
00000100: ddf2 8d3d c4c1 533e 002d 33be 8615 2f3e
00000110: e9a9 213e 361d 42bd fb2a 19be 178d afbc
00000120: ecf6 a5bd 0783 8d3d e3d2 f73d 354a 243e
00000130: de4a d23c d8f2 443e ac67 1dbe ba4f 5bbe
00000140: dd88 4e3d ecbd 06be 92b3 cabd d1ea 2d3e
00000150: f734 dfbd 3ec9 2dbe 319d b53d 9c95 33be
00000160: cf40 043e 007b 5a3e 5663 3a3e 6e34 50be
00000170: 4167 42be 10b4 48be 737c 903d d3da 963d
00000180: e9a5 0cbe ac91 3f3d c4b6 043d 0800 a13d
00000190: 6977 ad3d 5ec9 063e bc7d 05be 65b0 123e
000001a0: d2cf fb3d e04c 65bc 94d4 453e f197 063d
000001b0: cb2d b1bd 5ea2 483d 1ed1 12be 4e80 b03b
000001c0: 859c 3bbe af8b 07be 85a1 eb3d ecf7 1fbc
000001d0: c8b4 0fbe 05d0 3ebd 4bb1 093d 68d0 133d
000001e0: 7705 833d 168d 84bd 96ae ed3c 6e65 04bd
000001f0: ba3d febd 922b 57bd a121 0a3d 27df a9bd
