Results/test2/SnowBall/checkpoint.pt (torch, 287319 bytes, 14 tensors)

discrete_act_size_vector f4 [1, 2]
00000000: 0000 4040 0000 4040
3.0 3.0

network_body._body_endoder.seq_layers.0.weight f4 [128, 138]
00000000: 6cb3 2fbd 26fc f6bc fbbc e1bd 5f06 1dbb
00000010: 5e8d 87bd feca 03be 0754 143b 128c 8c3d
00000020: 7d67 f4bd cd53 9cbd 9fd8 9fbd 8b86 d7bd
00000030: 0f2a 9bbd 022f 773b aba4 9c3c 8188 02be
00000040: adef 783d 4881 d0bd cda1 20bc f6fa 723d
00000050: 3e22 b3bc 82b3 72bd ac4d 3f3d 24cd f23c
00000060: 55d4 78bd 8aa0 263b ea08 31bd 13be 1d3d
00000070: a5f6 8dbd ae5a ee3c 805d aa3d ee69 ab3d
00000080: 00a0 23be 0fcd 953d 4250 43bc e840 60bd
00000090: 1288 0d3e eda9 9dbd 086b 8b3c 1262 0b3d
000000a0: c893 0c3d b7fb 25bd 3bba 88bc 5977 033c
000000b0: e74f bf3c 3a4f b63c 3031 973d 7d0c b1bd
000000c0: 3655 463d 6c1d 1ebc fec5 113e b697 cfbc
000000d0: a562 893d 7bf5 613d 4271 8c3d b540 adbc
000000e0: dbe6 c33b ebc2 a3bd b094 fbbd 3109 093d
000000f0: ba56 25bd 2e08 33bd 9ad7 5f3b 62ad 39bd
00000100: 92bf f6bd a8fc 983d 2c66 c0b9 8dc4 fb3d
00000110: f033 653e 73af f1bd 1d3a 613d fbda 953d
00000120: 6a69 e0bc aea3 b7bd 1121 2a3d 1ec2 003c
00000130: f953 dcbb f59d ff3d b1b7 e5bd 1aa1 dbbd
00000140: ca78 ad3c 2206 7bbd e6b9 203e f863 c9bd
00000150: 339f b2bd 362a f03c f717 c53d b3f0 ae3d
00000160: f48c 9cbd a8a1 f6bc 4a25 813d 1e08 1e3d
00000170: a80d e03d 0b61 5a3e e665 5f3d 7356 903d
00000180: f129 bc3c 26d1 043d fb1f 2a3e d50f d33b
00000190: 026d 943b 93a5 01be 15ee 8a3d 0336 053e
000001a0: 5dba 0c3c c63f 60bd a5cb 573c 3f35 843c
000001b0: 6267 143e 9263 6dbc 7180 853d 07d9 3a3d
000001c0: 8207 423d 86df 0dbd 8f1f 4e3d aa01 2e3c
000001d0: f904 73bd 5d78 3dbe 8f03 8bbd 9847 e83d
000001e0: c90f 7c3d 4246 05be f229 dd3d 7af5 4f3d
000001f0: 3672 97bc 8a4a f2ba 42cd f03c 4a35 9b3d
00000200: 6fcc 003e 14c9 d33d 25c4 48be 232a 00bd
00000210: 4935 0b3d 8b0a de3d 4c87 34be 4456 cabd
00000220: 295d 2a3e 97d2 bebc 295b fbbd f34f e3bd
00000230: 3829 3c3d 0b8f 40bd 31f7 023e 964c 09be
00000240: e860 c73d f70b 273c 7d75 693d 4be2 05be
00000250: 3756 163d 2c41 133c 377a 8dbc dae6 ac3d
00000260: 2688 5abd b355 a23c 3b5c e43d ba6b 18bc
00000270: b8cd 96bc b222 cf3c 0b66 b2bc 16e7 bc3d
00000280: 9d77 993d 4355 69bd 7781 8a3e 6edf 243d
00000290: 6279 66bd 9380 6f3d ec5a afbd a78d 9fbc
000002a0: 17d9 853d 5164 f5bd 2bfa cb3c 3ae8 08be
000002b0: f355 f53c b164 45bc 7cd8 a7bd ab4c 943c
000002c0: 21bc b63d 3190 b93d 4c22 d8bd 85dd f1bc
000002d0: 0acd c53b 438f fc3d a4d0 e9bb d8ca b9bd
000002e0: bc28 483d 053d d3bd 1bb6 8c3d abe0 e0bb
000002f0: f085 aa3d 18c6 323e 71f6 b9bb 3a39 173e
00000300: b3b2 0d3c 29ed 18bd f0d5 d03d df3b 95bb
00000310: 8cdb ce3d 1fc5 e43c 59b5 143e 743e 813d
00000320: f048 11be 68ad cbbd 22dd b43d 48c2 1abe
00000330: f419 d2bd 7393 6d3d aa2b 0ebd 696f 8fbc
00000340: 9935 cbbc d530 093e 666d 0b3e a098 e4bd
00000350: 1c4e f73d 903c 5a3d 12e7 04be a5d3 b53d
00000360: dbb9 b63d d490 123c 9a1f ff3d 781d 563d
00000370: ea25 243e 4957 10ba 64bd febc 186a 013e
00000380: b5c6 61bc dcd7 66bd 6264 4e3d b6e9 9a3d
00000390: 7a24 de3d 00a5 6ebd 386a 253c e61e 99bd
000003a0: 98de 253d 129a eb3d 7860 e3bd e907 19bd
000003b0: 7d66 4e3e 1290 2abb a193 0c3d 975a 033c
000003c0: 0093 79bc 24dc 48bd b0af bf3d 82b9 f73c
000003d0: 3061 bfbd e71f a5bc 7eed 8d3d dac2 c23b
000003e0: e099 dabb db2f 043c 8691 95bc ebf9 91bd
000003f0: a8a6 d23c 7918 c3bd 7c08 fabb 5d06 cbbc
-0.04289572 -0.03014953 -0.11022373 -0.0023960096 -0.066187605 -0.12870404 0.0022633092 0.06862654
-0.11933801 -0.07633171 -0.07804989 -0.10523709 -0.075763814 0.0037717228 0.019121489 -0.12747385
0.060775448 -0.101809084 -0.009804201 0.059321366 -0.021866914 -0.059253223 0.046704933 0.029638834
-0.06074937 0.0025425279 -0.04322139 0.038511347 -0.06931809 0.029095974 0.08318615 0.08369814
-0.15979004 0.073145024 -0.01192099 -0.0547494 0.13821438 -0.076984264 0.01701881 0.034029074
0.034320623 -0.040523257 -0.016690364 0.00802406 0.02335353 0.022254575 0.07382429 -0.0864496
0.048421107 -0.009650569 0.14235684 -0.025340896 0.06708268 0.05516575 0.0685754 -0.021149019
0.005978448 -0.07996162 -0.12284219 0.03345603 -0.040365912 -0.043708973 0.0034155608 -0.045331366
-0.12048258 0.07470065 -0.00036697218 0.122933485 0.22383094 -0.118010424 0.05498706 0.07317158
-0.027394015 -0.08966766 0.04153544 0.007858781 -0.0067238775 0.124813 -0.11216677 -0.10724087
0.02117576 -0.061285146 0.15695915 -0.09833521 -0.08721771 0.029317003 0.096237116 0.085420035
-0.07644072 -0.03010638 0.063059404 0.03858196 0.10940105 0.21326081 0.054540537 0.07047739
0.022969218 0.032426022 0.16613762 0.0064410963 0.0045295963 -0.12660818 0.06783692 0.13008885
0.008589354 -0.05474832 0.013171111 0.016138671 0.14492562 -0.014489071 0.06518639 0.04561713
0.04737044 -0.034636997 0.050323065 0.010620514 -0.059330914 -0.18502946 -0.06787788 0.113417804
0.06153849 -0.13015082 0.10799016 0.050771214 -0.018487077 -0.0018485349 0.02939475 0.075785235
0.12577985 0.10341087 -0.19606073 -0.031290185 0.033986364 0.10841855 -0.17629737 -0.09879735
0.166371 -0.023293776 -0.12273247 -0.110992335 0.045937747 -0.047011416 0.12789609 -0.13408121
0.0973528 0.010195724 0.05699681 -0.13074605 0.036703315 0.008987706 -0.01727019 0.08442469
-0.053352498 0.019816255 0.11150404 -0.009303028 -0.018408641 0.025285099 -0.021777174 0.09223764
0.074935175 -0.056966078 0.270519 0.04025214 -0.056268103 0.058472227 -0.08562264 -0.019476725
0.06535547 -0.119820245 0.024899563 -0.13369837 0.02994821 -0.0120479325 -0.08195588 0.018102964
0.089226015 0.090607055 -0.105534166 -0.029524574 0.0060364055 0.123320125 -0.0071354676 -0.090718925
0.048866972 -0.10314373 0.06870671 -0.00686272 0.08326328 0.1745838 -0.00567513 0.14767924
0.008648562 -0.03733555 0.10197055 -0.0045542563 0.10100469 0.027926026 0.14522304 0.0631074
-0.1418798 -0.09945184 0.0883124 -0.15113175 -0.102588564 0.058001947 -0.03470961 -0.01750918
-0.02480583 0.13397534 0.13615951 -0.111619234 0.12075445 0.053280413 -0.12978771 0.088782586
0.08922168 0.0089456625 0.124571994 0.052274197 0.16030088 -0.00055061706 -0.031096168 0.12638128
-0.013780286 -0.056358203 0.0503887 0.07564108 0.10846801 -0.058262825 0.010096125 -0.074765965
0.040495485 0.11503996 -0.11102384 -0.03736106 0.20156284 -0.0026025814 0.034320477 0.008017204
-0.015232801 -0.049038067 0.093596816 0.030239824 -0.09344709 -0.020156814 0.06930064 0.0059436383
-0.0066711754 0.00806805 -0.018257868 -0.07127746 0.025714234 -0.09526152 -0.007630406 -0.024783308

network_body._body_endoder.seq_layers.0.bias f4 [128]
00000000: 0000 0000 0000 0000 0000 0000 0000 0000
00000010: 0000 0000 0000 0000 0000 0000 0000 0000
00000020: 0000 0000 0000 0000 0000 0000 0000 0000
00000030: 0000 0000 0000 0000 0000 0000 0000 0000
00000040: 0000 0000 0000 0000 0000 0000 0000 0000
00000050: 0000 0000 0000 0000 0000 0000 0000 0000
00000060: 0000 0000 0000 0000 0000 0000 0000 0000
00000070: 0000 0000 0000 0000 0000 0000 0000 0000
00000080: 0000 0000 0000 0000 0000 0000 0000 0000
00000090: 0000 0000 0000 0000 0000 0000 0000 0000
000000a0: 0000 0000 0000 0000 0000 0000 0000 0000
000000b0: 0000 0000 0000 0000 0000 0000 0000 0000
000000c0: 0000 0000 0000 0000 0000 0000 0000 0000
000000d0: 0000 0000 0000 0000 0000 0000 0000 0000
000000e0: 0000 0000 0000 0000 0000 0000 0000 0000
000000f0: 0000 0000 0000 0000 0000 0000 0000 0000
00000100: 0000 0000 0000 0000 0000 0000 0000 0000
00000110: 0000 0000 0000 0000 0000 0000 0000 0000
00000120: 0000 0000 0000 0000 0000 0000 0000 0000
00000130: 0000 0000 0000 0000 0000 0000 0000 0000
00000140: 0000 0000 0000 0000 0000 0000 0000 0000
00000150: 0000 0000 0000 0000 0000 0000 0000 0000
00000160: 0000 0000 0000 0000 0000 0000 0000 0000
00000170: 0000 0000 0000 0000 0000 0000 0000 0000
00000180: 0000 0000 0000 0000 0000 0000 0000 0000
00000190: 0000 0000 0000 0000 0000 0000 0000 0000
000001a0: 0000 0000 0000 0000 0000 0000 0000 0000
000001b0: 0000 0000 0000 0000 0000 0000 0000 0000
000001c0: 0000 0000 0000 0000 0000 0000 0000 0000
000001d0: 0000 0000 0000 0000 0000 0000 0000 0000
000001e0: 0000 0000 0000 0000 0000 0000 0000 0000
000001f0: 0000 0000 0000 0000 0000 0000 0000 0000
0.0 0.0 0.0 0.0 0.0 0.0 0.0 0.0
0.0 0.0 0.0 0.0 0.0 0.0 0.0 0.0
0.0 0.0 0.0 0.0 0.0 0.0 0.0 0.0
0.0 0.0 0.0 0.0 0.0 0.0 0.0 0.0
0.0 0.0 0.0 0.0 0.0 0.0 0.0 0.0
0.0 0.0 0.0 0.0 0.0 0.0 0.0 0.0
0.0 0.0 0.0 0.0 0.0 0.0 0.0 0.0
0.0 0.0 0.0 0.0 0.0 0.0 0.0 0.0
0.0 0.0 0.0 0.0 0.0 0.0 0.0 0.0
0.0 0.0 0.0 0.0 0.0 0.0 0.0 0.0
0.0 0.0 0.0 0.0 0.0 0.0 0.0 0.0
0.0 0.0 0.0 0.0 0.0 0.0 0.0 0.0
0.0 0.0 0.0 0.0 0.0 0.0 0.0 0.0
0.0 0.0 0.0 0.0 0.0 0.0 0.0 0.0
0.0 0.0 0.0 0.0 0.0 0.0 0.0 0.0
0.0 0.0 0.0 0.0 0.0 0.0 0.0 0.0

network_body._body_endoder.seq_layers.2.weight f4 [128, 128]
00000000: ad72 2a3e 1087 bbbd da61 cebd 010f 9e3c
00000010: 1628 38bd 51dc e5bd c403 983d 5bbe e1bd
00000020: 78db 003d 8a83 0a3e 727c e33d c33c e5bd
00000030: a855 583c 8c94 a63d 1826 2cbd 9b2c 313d
00000040: 4be6 853c 726d dc3d d610 21bc df54 223c
00000050: d02f 7abc dccc f13d 8b10 9e3d daff 973b
00000060: 0860 6e3c a2cf d2bd 0126 0dbe c75f 323e
00000070: 4809 0b3d ec6d 6f3d 3a62 123c 04c9 15bd
00000080: 56c7 22ba 172a 483e 5854 cabd fe21 a33d
00000090: 438e a23d fd3d a6bd 58e8 c6bd cb7a 0cbd
000000a0: 228b 8d3e 7b21 883d 9259 11be 07fb 013e
000000b0: 5941 953d 63c3 2bbc 0d74 1abc 55af 6f3d
000000c0: 9eb4 bebc 7473 73bd 052c 8e3d 18fa 9a3d
000000d0: ac17 053d 6e39 e0bc fdaf cb3d 10f1 9b3d
000000e0: a288 003b 2031 863b e639 dd3d f227 75bd
000000f0: 8549 bdbc 0de0 1bbd f464 12be 5893 20ba
00000100: dfaa 623d 40a8 d7bb f8bd 81bd 438a 4b3d
00000110: 4ade a23c 53bb 8b3d e6b4 2a3e 5ef8 793d
00000120: b788 483d 6ef1 06be 91f9 403d 88b1 d43c
00000130: 0880 e9bd c2a0 763d 3eb5 adbd a794 81bd
00000140: cc02 1cbd 869f 0e3e 0ba3 813b f828 8b3d
00000150: 6c95 a23d 36cb e53d 6109 ca3d d559 593d
00000160: 22eb 56ba d7c4 883d 6bd8 10be cdf2 eb3c
00000170: b0a3 163e 8ec0 083d aac9 7cbc 45cf 80bd
00000180: b996 7dbd f59a 2a3e b919 e33b ae3e e1bc
00000190: 4f00 463c 8f01 e23d d83c d73d 32ca 18bd
000001a0: 0a94 38be d493 413d 601f d7bd 3775 e4bb
000001b0: 1e06 853d 17be 083d e1dc 123e ddb6 efbc
000001c0: ca1f 94bd b1d0 323c 2359 2bbd 80f0 f33d
000001d0: 0367 66bd 8f31 c9bc 6988 b6bb cd03 3b3c
000001e0: 5f64 21be 6c37 c0bd ee72 9ab8 90b0 eab8
000001f0: f37a 9abd c862 b23d 2628 ef3c a764 45bd
00000200: 8593 903d 9522 0cbe f2cf b0bd 167b b1bc
00000210: 2b7d 2fbe 6498 353b db82 a7bd 28e0 e93d
00000220: 3e63 1dbe 3336 f1bd 0391 45bd 4ca4 39bd
00000230: 8863 4dbc bbf8 a2bd 54a5 ab3c 9154 293d
00000240: b3dd 04be bbc6 cfbb 9de1 52be 5523 063e
00000250: 0a51 a2bd 884b 82bd f55f 6fbd 28f5 943d
00000260: 27fa 55bb 35f5 df3c 6b6c 053e 55ff 263d
00000270: 7f0c 643d 0a8a 133d 1ac1 0cbe 151d 1dbd
00000280: 04ad 87bc ae56 593c 5487 663e 218f 8a3d
00000290: 2d7d 743e 9f4d c3bd 972d 013e 0d7c 95bd
000002a0: 1da4 f4bd 9109 2abd e5ba 84bd a230 febd
000002b0: 7e3b 2d3d 2f68 0f3c ba2d 203d 7871 dfbd
000002c0: 5a78 c93c da44 9bbd 7ecc dcbd 6985 6e3d
000002d0: c6eb 2e3e 8c2e dcbd 4c60 94bc 2cd7 8cbd
000002e0: 273d 57bc d277 6a3d 40b6 2dbe b599 84be
000002f0: d360 cc3b 6417 153e d083 bebd 0fef 7ebb
00000300: 3197 823c 0e95 d8bd a110 84bd 65a1 68bd
00000310: 2f67 cfbd 28cb 2e3d c4e1 c83d ec33 ef3c
00000320: 4419 53bd 08bd 95bc 36e5 aebd 042a 0abe
00000330: 372c 9a3d faaa f1bd 6208 7fbd 547a a13c
00000340: a4ec dabd 96cf ef3d f19d a8bc fcbf 853c
00000350: bfbd 5fbd db96 823c 07aa 08bb e222 173e
00000360: 0b67 82bd 9bc9 8b3d 7717 543c eb39 31bc
00000370: 094b 18bd 777b 703a bf91 18bc 46bc 3dbd
00000380: 56d9 943d 08b0 14be 8aee b9bd 853c 01bd
00000390: bf15 113d 6549 f33d 02ab 35bc 4b10 863d
000003a0: 62e6 41bd c382 f83d 34c6 f13c 31f0 fcbd
000003b0: e959 8d3c c000 19be 62fd 073e 22cd bdbd
000003c0: d835 f23c f321 bfbd 6a83 0d3e 96ec a1bd
000003d0: a657 dd3c c4cf e63b 1492 b3bd 7f1c 683d
000003e0: ab15 38bb 9e65 97bb e205 4bbb 8f63 b63d
000003f0: 40d5 93bd dea5 96bd f0ae c73d a813 a3bd
0.16645308 -0.091566205 -0.100772575 0.019294264 -0.044960104 -0.11223663 0.07422593 -0.110226355
0.0314593 0.1352674 0.111077204 -0.1119323 0.013204016 0.08133802 -0.042028517 0.04325543
0.016345164 0.107630625 -0.009830674 0.00990793 -0.015270188 0.11806652 0.07717999 0.004638654
0.014549263 -0.10293509 -0.13784029 0.17419349 0.0339444 0.05845444 0.008934552 -0.036568657
-0.0006209513 0.19547306 -0.098793685 0.07965468 0.079372905 -0.08117292 -0.09712285 -0.034296792
0.27645212 0.06647011 -0.14194325 0.12693416 0.07287855 -0.010483596 -0.009427083 0.05851682
-0.023279484 -0.059436277 0.0694199 0.07567233 0.03249328 -0.027371135 0.099456765 0.076143384
0.001961269 0.0040952116 0.10802059 -0.059852548 -0.023106346 -0.03805547 -0.14296323 -0.00061254716
0.055338737 -0.0065813363 -0.06335062 0.049692404 0.019881386 0.06822839 0.1667057 0.061027877
0.048958506 -0.13178036 0.047113005 0.02596356 -0.11401373 0.060211904 -0.08481835 -0.06327181
-0.038088605 0.13928041 0.003956204 0.067949235 0.07938656 0.112204 0.0986507 0.053064186
-0.00081984897 0.06678169 -0.14145057 0.0288023 0.1471088 0.03338676 -0.01542894 -0.062895335
-0.06191132 0.16660674 0.0069305566 -0.027495708 0.0120850345 0.110354535 0.10509652 -0.037302203
-0.18025222 0.04726012 -0.10504031 -0.006971981 0.064953074 0.03338441 0.14342071 -0.029262
-0.07232626 0.010914014 -0.041833054 0.11911106 -0.056250583 -0.024559764 -0.0055704606 0.01141448
-0.15760945 -0.09385571 -7.3646996e-05 -0.00011190877 -0.07542982 0.08710247 0.029193949 -0.048191693
0.07059387 -0.13685067 -0.086334124 -0.021665137 -0.17137592 0.002770924 -0.081792556 0.114197075
-0.15369889 -0.11777916 -0.048233997 -0.0453227 -0.012535937 -0.07957598 0.020952858 0.041340414
-0.12975197 -0.006340829 -0.20593877 0.13099416 -0.07925613 -0.06362063 -0.05844112 0.07273322
-0.0032650323 0.027338604 0.1302964 0.040770847 0.05567598 0.036020316 -0.13745537 -0.038357813
-0.016561992 0.013265295 0.22512561 0.06765581 0.23875876 -0.095362894 0.12615047 -0.072990514
-0.119453646 -0.04151303 -0.0648096 -0.1241162 0.042293064 0.008752867 0.03910611 -0.10910314
0.02459352 -0.07581492 -0.10781191 0.0582327 0.17082128 -0.107510656 -0.018112324 -0.06876978
-0.013137138 0.057243176 -0.16964054 -0.2589852 0.0062371283 0.14559704 -0.09302485 -0.0038899814
0.015941234 -0.10575305 -0.06448484 -0.056794543 -0.101271026 0.042674214 0.098086864 0.029199563
-0.051537767 -0.018278614 -0.08539812 -0.1349259 0.075279646 -0.11800189 -0.062263854 0.01971165
-0.10689667 0.11709516 -0.020583125 0.016326897 -0.054624315 0.015941074 -0.0020853297 0.147594
-0.0636731 0.068255626 0.012945048 -0.010817031 -0.037180934 0.0009173671 -0.009312092 -0.04632213
0.07268016 -0.14520276 -0.09078701 -0.031551857 0.03542113 0.11879233 -0.011088135 0.065460764
-0.04733885 0.12134316 0.029513456 -0.123505004 0.017254787 -0.14941692 0.13280252 -0.092676416
0.02956669 -0.09332647 0.13819662 -0.07906453 0.027019333 0.0070438106 -0.087680966 0.0566678
-0.0028089087 -0.004620268 -0.0030978848 0.08905708 -0.072184086 -0.073558554 0.097501636 -0.079627335

network_body._body_endoder.seq_layers.2.bias f4 [128]
00000000: 0000 0000 0000 0000 0000 0000 0000 0000
00000010: 0000 0000 0000 0000 0000 0000 0000 0000
00000020: 0000 0000 0000 0000 0000 0000 0000 0000
00000030: 0000 0000 0000 0000 0000 0000 0000 0000
00000040: 0000 0000 0000 0000 0000 0000 0000 0000
00000050: 0000 0000 0000 0000 0000 0000 0000 0000
00000060: 0000 0000 0000 0000 0000 0000 0000 0000
00000070: 0000 0000 0000 0000 0000 0000 0000 0000
00000080: 0000 0000 0000 0000 0000 0000 0000 0000
00000090: 0000 0000 0000 0000 0000 0000 0000 0000
000000a0: 0000 0000 0000 0000 0000 0000 0000 0000
000000b0: 0000 0000 0000 0000 0000 0000 0000 0000
000000c0: 0000 0000 0000 0000 0000 0000 0000 0000
000000d0: 0000 0000 0000 0000 0000 0000 0000 0000
000000e0: 0000 0000 0000 0000 0000 0000 0000 0000
000000f0: 0000 0000 0000 0000 0000 0000 0000 0000
00000100: 0000 0000 0000 0000 0000 0000 0000 0000
00000110: 0000 0000 0000 0000 0000 0000 0000 0000
00000120: 0000 0000 0000 0000 0000 0000 0000 0000
00000130: 0000 0000 0000 0000 0000 0000 0000 0000
00000140: 0000 0000 0000 0000 0000 0000 0000 0000
00000150: 0000 0000 0000 0000 0000 0000 0000 0000
00000160: 0000 0000 0000 0000 0000 0000 0000 0000
00000170: 0000 0000 0000 0000 0000 0000 0000 0000
00000180: 0000 0000 0000 0000 0000 0000 0000 0000
00000190: 0000 0000 0000 0000 0000 0000 0000 0000
000001a0: 0000 0000 0000 0000 0000 0000 0000 0000
000001b0: 0000 0000 0000 0000 0000 0000 0000 0000
000001c0: 0000 0000 0000 0000 0000 0000 0000 0000
000001d0: 0000 0000 0000 0000 0000 0000 0000 0000
000001e0: 0000 0000 0000 0000 0000 0000 0000 0000
000001f0: 0000 0000 0000 0000 0000 0000 0000 0000
0.0 0.0 0.0 0.0 0.0 0.0 0.0 0.0
0.0 0.0 0.0 0.0 0.0 0.0 0.0 0.0
0.0 0.0 0.0 0.0 0.0 0.0 0.0 0.0
0.0 0.0 0.0 0.0 0.0 0.0 0.0 0.0
0.0 0.0 0.0 0.0 0.0 0.0 0.0 0.0
0.0 0.0 0.0 0.0 0.0 0.0 0.0 0.0
0.0 0.0 0.0 0.0 0.0 0.0 0.0 0.0
0.0 0.0 0.0 0.0 0.0 0.0 0.0 0.0
0.0 0.0 0.0 0.0 0.0 0.0 0.0 0.0
0.0 0.0 0.0 0.0 0.0 0.0 0.0 0.0
0.0 0.0 0.0 0.0 0.0 0.0 0.0 0.0
0.0 0.0 0.0 0.0 0.0 0.0 0.0 0.0
0.0 0.0 0.0 0.0 0.0 0.0 0.0 0.0
0.0 0.0 0.0 0.0 0.0 0.0 0.0 0.0
0.0 0.0 0.0 0.0 0.0 0.0 0.0 0.0
0.0 0.0 0.0 0.0 0.0 0.0 0.0 0.0

action_model._discrete_distribution.branches.0.weight f4 [3, 128]
00000000: e505 f2bb 8f89 e9bb e412 01bc 2f30 c7bb
00000010: 3722 a83b 39cb 263c d6ed c5bb 392d 113b
00000020: bd1a 19bc 8132 b7ba 8bba c43c 920e 8f3c
00000030: 753b ef3b ffb6 b839 a88a 75bb b695 2cbb
00000040: 698f 893b f7f9 bdba f393 eabb 37b5 cd3a
00000050: d574 e23b 927a 6fba a887 00bc c2c0 9739
00000060: 1b97 b33b 5f04 4dbb fb16 d63b 2f8b 093c
00000070: b0d9 dc3b 9c67 03bc 3e9d adba 637f 483c
00000080: 1525 de3b 775b 33bb 54dc 27bc ba3a f2bb
00000090: 8dfa ed3a 8024 78bc 2255 d6bb 095c 993b
000000a0: 57a7 5c3a 73f7 833b cb51 023b 11d5 2a3c
000000b0: 01fd 353b 53de 183c ff5f 983a 10a3 8a3b
000000c0: 2d83 79bb cb21 8abc c2c7 103a 30ed dfbb
000000d0: 9b54 b3bb ada2 a9bb 3028 8c3c 133a 33bb
000000e0: aa55 283b 4a19 c9ba b225 8a3c 8bf4 59bc
000000f0: ed90 5e3c 6b59 02bc f12b 1cbc c4b0 89ba
00000100: 0b6d a4bb f059 3cbb 3cba a83a 11f7 86bc
00000110: 4b77 c1ba 931c 913b 7ffe 54bb 85ce f2b9
00000120: 733b 72bb 6bb2 88bb 7ad4 df3b e282 f9ba
00000130: 176a 733b 03cf 863b cf64 9fbc 1dac cf3a
00000140: b978 cc3b fd17 68bc e2a4 19bc dd56 e63a
00000150: cced 243c 75e1 61bc b3e1 80bc a328 47bc
00000160: 1e77 203c d8e4 cf3a b0b3 82bc c8b6 4bbc
00000170: c23c 5ebc 575a 25ba 6318 75bb 93b1 64bc
00000180: 370a 49ba d191 313b 6a7e d9bb 878b 423c
00000190: ae9b 81bb 3e97 823a 0dee 6f3c 3113 393c
000001a0: 0ab8 0aba 1495 323a da79 fe3a f881 a23b
000001b0: cd04 a8bb 8fd3 1b3c 275c 2e3b 0534 903b
000001c0: 0dd1 d7bb 7ff2 21bb 942e a1bb df06 263b
000001d0: 2130 b53a c40f 103c ae0f 1b3b 373e 29bc
000001e0: d355 2a3c dfaa 54bb 35dc fb3a e8fd 7a3c
000001f0: e57b e23a ac45 233b 22da 0d3b 80b2 7dbb
00000200: 4733 1ebc 5d17 663c 9334 87bb 7702 04bb
00000210: 8bfa 4ebc 93de 8abb bb77 82bc 31d1 003b
00000220: c925 923b 9d1c 8abc 7524 383b 188c 9b3b
00000230: d397 2abb 5398 47bc caa9 4bbc 28f3 493b
00000240: 0879 c23b f0a0 3bbb ad6f 223c 03cd 923b
00000250: aad1 593c 539b 853b 04bc 043c b0dc 53bc
00000260: f256 893c 1a21 7ebb 9a73 2ebb bd64 6d3a
00000270: b609 1f3c 2dc9 953c 5758 13bc 5f33 5bb9
00000280: 57d5 6cbc 9d02 7abb 254d d83a 4740 303c
00000290: e075 51ba bff8 a4bb 8f93 fabb efbf 15bc
000002a0: 1a99 a03b 285e 22bc 7049 4d3b b3ea 7eb8
000002b0: 1b94 1b3c 9965 17b3 118f 3ebb c86e d4b9
000002c0: 8ac4 ed39 2aae f0bb 8bcd 193c bfdf 0e3c
000002d0: 7be7 313b 6b09 87bb 7ff6 4a3c 3b20 b6bb
000002e0: e771 94ba 3371 be3b f280 62bb 1c8f 0a3c
000002f0: 755f b73b a8fe 823a 1991 37bb 8bb6 873b
00000300: 2160 81bc 8519 02bc ad83 473c 07bd 953b
00000310: fb68 56bb 6e79 0a3a 0a14 5639 cb5e 843c
00000320: c77b 3dbc bad9 debb 6a9a 693b f3d8 50bc
00000330: accd 23bb 1a23 563a b78c 0abb 8313 a0b9
00000340: 5677 b3bb 7c38 99bb 4bf8 47bb 58d1 c83b
00000350: 8ee6 3dbb d34f dfbb 443b 193c cdb8 64bb
00000360: 2953 41bc ca83 773a bf49 44bc 4a79 703b
00000370: a72e 6ebb 7753 b93b 9433 073a 871e 48bb
00000380: 6fad a0bc 9f62 fd3a 73ac 49bb ddf5 33ba
00000390: 00a4 d73b d020 593c 6d3a 53bb 5207 90bc
000003a0: a5a5 b4bb 3072 323c 23a5 3e3c 0bb1 05bb
000003b0: 61d8 06bc c321 6fbc d707 c83b 91c5 003c
000003c0: 5bec af3b 8b54 0bbc 4f71 08bc 66de a63c
000003d0: aa36 87ba 0fdf 6736 4526 c7bb 1ed2 47bc
000003e0: 48a8 9dba 1034 5cbc 33e0 4fbb 5972 44bb
000003f0: 4509 bdbc 2505 24bc 4bbf e83b 4d5b 833a
-0.0073859566 -0.007126994 -0.007878039 -0.006078742 0.005131032 0.010180288 -0.006040315 0.00221522
-0.009344754 -0.0013976843 0.024014732 0.017463002 0.007300789 0.00035231558 -0.0037466679 -0.0026334352
0.004198004 -0.0014494051 -0.00715875 0.0015694265 0.0069109 -0.0009135391 -0.007844843 0.0002894458
0.0054806597 -0.0031283123 0.006533501 0.008395 0.0067398176 -0.008020308 -0.0013245714 0.012237403
0.006779323 -0.002736775 -0.010245401 -0.0073922547 0.0018156335 -0.015145421 -0.0065409103 0.004680161
0.00084172696 0.004027301 0.0019885178 0.010426776 0.002776921 0.00933035 0.0011625289 0.0042308643
-0.0038072572 -0.016861817 0.00055229303 -0.006833695 -0.0054727322 -0.005176863 0.017109007 -0.0027347847
0.0025685825 -0.001534262 0.016863678 -0.0133029325 0.013584358 -0.007955889 -0.009531961 -0.0010504951
-0.0050178817 -0.002874013 0.0012872885 -0.016475232 -0.0014760284 0.004428455 -0.0032500324 -0.00046311706
-0.0036961704 -0.0041716597 0.006830749 -0.0019036199 0.0037142092 0.004114033 -0.019457249 0.001584414
0.006239977 -0.0141658755 -0.00937769 0.0017573495 0.010066461 -0.013786663 -0.015732622 -0.012155685
0.009794025 0.0015861047 -0.015954822 -0.012433715 -0.0135642905 -0.0006307712 -0.0037398569 -0.013958353
-0.00076690636 0.002709497 -0.006637384 0.011874086 -0.003955326 0.0009963287 0.014644158 0.0112960795
-0.0005291706 0.00068123755 0.0019414977 0.004959341 -0.0051275254 0.009510889 0.002660522 0.0044007325
-0.0065862 -0.002471119 -0.0049188826 0.0025333685 0.0013823548 0.008792821 0.002366047 -0.010329775
0.010396439 -0.003245048 0.0019215407 0.015319325 0.0017279355 0.0024913354 0.002164491 -0.003871113
-0.00965578 0.014043656 -0.0041261404 -0.002014307 -0.012632976 -0.0042379587 -0.015926233 0.0019655938
0.0044600707 -0.016859347 0.0028097902 0.004746925 -0.0026030436 -0.012182313 -0.012430618 0.0030815098
0.005934838 -0.0028629862 0.009914321 0.0044800057 0.013294617 0.004077354 0.008101467 -0.012931034
0.016765092 -0.0038777054 -0.0026619197 0.00090558437 0.009706905 0.018284405 -0.00899323 -0.00020904605
-0.014455161 -0.003814853 0.0016502483 0.010757512 -0.0007990282 -0.0050345357 -0.007646985 -0.009139999
0.0049010636 -0.009910144 0.003132429 -6.07769e-05 0.00949576 -3.524983e-08 -0.0029076973 -0.0004051833
0.00045350596 -0.0073449807 0.009387384 0.008720337 0.002714603 -0.0041209958 0.012387871 -0.0055580414
-0.001132545 0.0058118342 -0.003456172 0.0084569715 0.005596096 0.0009994106 -0.002801007 0.004141634
-0.015792908 -0.007940655 0.01217739 0.004569653 -0.0032716382 0.00052823767 0.00020416096 0.016158482
-0.011565155 -0.0068008574 0.0035645016 -0.012747037 -0.0024994416 0.00081686827 -0.0021141001 -0.00030532115
-0.0054768724 -0.004675923 -0.0030512984 0.0061284713 -0.0028976533 -0.0068149357 0.009352509 -0.003490019
-0.011799612 0.00094419403 -0.011980473 0.0036693388 -0.0036343725 0.0056557017 0.0005157527 -0.0030535774
-0.01961395 0.001933176 -0.0030772954 -0.00068649446 0.0065808296 0.013252452 -0.003223087 -0.017581616
-0.0055129104 0.010891482 0.011636051 -0.0020399715 -0.0082303 -0.014595452 0.00610445 0.0078596035
0.005368752 -0.008504043 -0.008327796 0.02036972 -0.0010315974 3.455152e-06 -0.00607756 -0.012196092
-0.0012028301 -0.013440147 -0.0031719327 -0.0029975383 -0.02307571 -0.010010992 0.007102882 0.0010021717

action_model._discrete_distribution.branches.0.bias f4 [3]
00000000: 0000 0000 0000 0000 0000 0000
0.0 0.0 0.0

action_model._discrete_distribution.branches.1.weight f4 [3, 128]
00000000: fa99 cebb 3f57 5dbb f7e1 79bb 9ab4 003c
00000010: f5af 31bb 9098 83bc fa48 eb3b 1d81 c73b
00000020: 4799 c73b f1e5 8e3b f294 14bc c704 47bc
00000030: f347 60ba 6340 56bb 574c af3b 2ab6 063a
00000040: d454 013b cad0 3a3c 78c0 f7bb 00fd 7fbb
00000050: edd8 f4ba 3b47 83bc abad 01bc daa5 a5bc
00000060: a321 d5bb f5ed f5bb 4a3b 423c 4c6d 403b
00000070: d2bc cebb b30d 063c 1692 203b 0ff7 09bc
00000080: 63a1 063b bf99 d73b 03b5 5ebb 9259 db3a
00000090: 02fa d7bb 3139 95bc 48ac d13a d761 b43b
000000a0: a77d 433b 7a48 603c ffe6 673c 1670 06bc
000000b0: e1bc b43c 6e0a 0a3c 44bd 2c3c 9fef cd3b
000000c0: 31fa 9c3a 33ec f93b 0154 22bc c5f8 013c
000000d0: a69c 23bc 19dc 04bc bda6 21bb 968d 253b
000000e0: b27a 07bc b397 853b c8b3 2f3c c0aa 7ebc
000000f0: a693 37bc 02d3 b3bb 8adc 333a c3a0 0abc
00000100: 42a8 533b b748 4bbc 4115 b33b 9190 92bb
00000110: 0be1 10bc 8be8 11bc fc30 abb9 e8b8 64bb
00000120: 9528 09bb 2f0a 08bb 7f96 58bc 8a2d 59bc
00000130: 59b9 173b 5a1d 5abc 3e95 173c f5a6 653a
00000140: d084 903b 3c2b 243b 76c7 47bb f772 02bb
00000150: 4348 043c 1dca ecba 88ac c93b e50b fa3a
00000160: b6a5 8abb c392 0f3c 4583 89ba 32e2 603a
00000170: 2f86 5b3c ffd2 373c 6593 75b9 b356 fabb
00000180: 637b 063c 0b19 453c a816 45bc 1995 cabb
00000190: e85f 1b3c 5a16 003b 0bb3 433b 929a ef3a
000001a0: 707c 5e3c 9fdd 70bc 89e0 b83b bec2 ac3b
000001b0: b4c9 a4bb 90e7 63bb d572 e83a c103 b338
000001c0: 35f1 91bc e776 2cbc bb6d 19bc cffe 72bb
000001d0: 2b48 873c efd8 373c 070d f53b 87a1 4c3b
000001e0: 595b 393c 5cb4 913c d0c9 63bb 75bb 1d3c
000001f0: 6ac9 eaba 0284 c7bb de35 923b ec81 b83b
00000200: 56dc 1b3c bca9 9c3b b2af 5cbb 6b7e 293c
00000210: 4508 d93a 17ea 5b3b 8075 37bc 9035 913b
00000220: fea8 383b 6315 abbc 8043 98bb 7145 80bc
00000230: 420a 95bc b7b5 15bc 293f 24bc 1c9e 9dbc
00000240: defd 2fbb d719 2b3b 957f 8a3b 1244 bebb
00000250: 73b2 113c 8735 823b aae6 993c 280c 0d3c
00000260: 888f d2bb f753 213c bb64 5b3b c919 2fbc
00000270: bf07 773c ebfc 54bb 731f 48bc c6ec 943b
00000280: 5b78 4b3b 3f0b 353b 3208 c43b ceee a6b9
00000290: 01d3 c33b 9504 a5b9 0f54 bc3b b282 da3b
000002a0: 9dd4 72bb b2ff e53b 15cc fbbc 9bad 8dbc
000002b0: 906d 80bb cb6e 6d3c 4f92 0a3c f284 91bc
000002c0: 6326 26bc 878d 22bb 3977 8a3a f3df 673b
000002d0: 8b06 743b e047 913c d6a9 82bc 4027 66bb
000002e0: 6342 d6b9 55c9 993c e53c bf3b c757 2cba
000002f0: 76ef 433c c084 db3a 88b6 ed3a 7d65 7e3b
00000300: 8bde bebb ac3a 2f3c 8130 823c 47cc 033c
00000310: 9ed9 9f3b df6b 51bb ff3d 7dbb 4bfc af3b
00000320: 65ef efbb 6ffa a53b afa1 d839 bb26 e83b
00000330: 8abe 4bbc ec58 8b3a 0de0 87bb a8e6 383c
00000340: e813 ad3a d9c4 803a 7a59 febc 9221 0f3c
00000350: 4fa8 7a3b eed5 c13b e016 3bbc cf6a f9bb
00000360: 574d 3f3b 259e 873c 97aa 34ba b450 a6bb
00000370: 48f1 f33b afdf 69bc 35a1 64bb 7692 cbbb
00000380: 975c 803b 86cc 033b 92bf a33b 27ef 753b
00000390: 5fbb 9dbc 3973 2a3c 4106 cb3c 98ea bdbb
000003a0: 374d 1abb d81b c239 3786 cbba 25b4 25bb
000003b0: c708 1a3c 512a 463b 248c c93a f487 a1bb
000003c0: e331 113c ddc4 61bb 931a 03bc 337a 803a
000003d0: 0bcc cc3b 18b1 9d3c 11a4 0f3c 4cfa ca3c
000003e0: 26b3 c1bb 60cd ab3b 6690 babb b065 c43a
000003f0: af4b 843c ad7c 173c db39 b9ba d27d a03c
-0.0063049765 -0.0033773927 -0.003812907 0.007855559 -0.0027112935 -0.016063958 0.0071803303 0.0060883895
0.00609127 0.0043609072 -0.009068714 -0.012147135 -0.0008555643 -0.0032692186 0.0053496766 0.0005138839
0.00197344 0.011402318 -0.007560786 -0.0039060712 -0.0018680372 -0.016025176 -0.007914941 -0.020220686
-0.006504254 -0.0075051733 0.011854956 0.002936202 -0.00630913 0.008181977 0.0024501137 -0.00842072
0.0020542971 0.0065796073 -0.0033982403 0.0016735068 -0.0065910826 -0.018215748 0.0015996778 0.0055048275
0.0029829533 0.013689155 0.014154195 -0.008205434 0.02206272 0.008425338 0.010543171 0.0062846686
0.0011976418 0.007627034 -0.009907723 0.007932846 -0.009986078 -0.008109116 -0.0024666034 0.0025261394
-0.008268999 0.004076922 0.0107240155 -0.01554364 -0.011204636 -0.0054878006 0.0006861171 -0.00846118
0.0032296334 -0.012407473 0.00546518 -0.0044728 -0.008842717 -0.00890554 -0.00032652158 -0.0034900252
-0.002092873 -0.0020758023 -0.013219475 -0.013255486 0.0023151247 -0.013312662 0.009251891 0.0008760535
0.0044103637 0.0025050184 -0.0030483878 -0.001990495 0.008073869 -0.0018065606 0.0061546005 0.0019077031
-0.00423118 0.008763018 -0.0010491392 0.00085786276 0.013398691 0.011219739 -0.0002341993 -0.00763973
0.008208129 0.0120298965 -0.012029327 -0.0061823246 0.009483315 0.0019544573 0.0029861357 0.0018280318
0.013579473 -0.014701276 0.005642001 0.0052722385 -0.0050289277 -0.0034775473 0.0017734418 8.536084e-05
-0.017815212 -0.010526395 -0.009364541 -0.0037078147 0.016513905 0.011221155 0.0074783596 0.0031224207
0.011313283 0.017786197 -0.003475774 0.009627213 -0.0017912809 -0.0060887346 0.004461988 0.0056307223
0.009512981 0.004780976 -0.0033674059 0.010345082 0.0016558251 0.0033556276 -0.011197448 0.004431434
0.00281769 -0.020884221 -0.0046467185 -0.015658112 -0.018193368 -0.0091375625 -0.010024824 -0.019240431
-0.0026854197 0.002610793 0.0042266347 -0.0058064545 0.008892643 0.003973666 0.018786747 0.008608855
-0.0064258017 0.009846679 0.0033476788 -0.0106873 0.01507753 -0.0032499384 -0.012214529 0.004544827
0.003104708 0.0027625111 0.0059824223 -0.0003183991 0.0059760814 -0.00031474666 0.0057473253 0.006668412
-0.0037052997 0.0070190066 -0.030736962 -0.017294696 -0.003919311 0.014491747 0.008457734 -0.017763589
-0.010140988 -0.0024803595 0.0010564096 0.0035381287 0.0037235345 0.017734468 -0.015950125 -0.003511861
-0.00040866723 0.01877276 0.0058361166 -0.0006574359 0.011958947 0.0016747937 0.0018136064 0.0038817816
-0.005824869 0.010695141 0.01589227 0.008044309 0.004878237 -0.0031955165 -0.003864169 0.005370652
-0.007322239 0.0050652544 0.00041319194 0.007084695 -0.012435565 0.0010631359 -0.004146582 0.0112854615
0.0013204785 0.000982429 -0.031048525 0.008736031 0.0038247292 0.005915395 -0.011419028 -0.0076116095
0.0029190385 0.016554901 -0.0006891875 -0.0050755385 0.0074445345 -0.014274522 -0.0034886126 -0.006212528
0.0039172876 0.002011092 0.004997202 0.003752658 -0.019254385 0.010403448 0.024783256 -0.005795788
-0.0023544559 0.0003702331 -0.001552767 -0.0025284376 0.009401507 0.0030237625 0.0015376848 -0.004929537
0.008861992 -0.0034449615 -0.008001941 0.0009802043 0.0062499098 0.019249484 0.008767144 0.024777554
-0.0059112487 0.0052429885 -0.005693483 0.0014983919 0.01614937 0.009246034 -0.0014131622 0.019591246

action_model._discrete_distribution.branches.1.bias f4 [3]
00000000: 0000 0000 0000 0000 0000 0000
0.0 0.0 0.0

network_body._body_endoder.seq_layers.0.weight f4 [128, 138]
00000000: 51cf 21bd 5793 9cbd f0b1 633d b16f ff3d
00000010: d975 503d 3154 793e 8c16 b7bd 227e 2b3d
00000020: 68dd c3bc 6326 89bd 2ed5 213d 3d0b c9bd
00000030: d64b ddbc 2927 89bc 8dd9 eb3d 0f06 b6bd
00000040: 1d67 22be 01c8 a33a 67da c63d b352 183e
00000050: 201d a13c 107b 03be d78b 9f3d 6050 6fbd
00000060: 1faa aa3d f02c 273d 755a 84bc edf4 38bd
00000070: 5d85 bdbc 93ab edbd adbc abbc d73b bebd
00000080: 7c35 383d 15c9 9d3d bcd2 363e 005d ee3d
00000090: 0181 ff3c 4b1a 16bd 19fc 073d ecb5 773d
000000a0: a850 dcbc a743 e03c 57ae 61bc 2ee4 c63d
000000b0: 7929 b53d 11e2 363b 3204 6d3d b4aa 8abd
000000c0: 1b9a 6e3c d867 e33d a6c9 c93d ca91 783d
000000d0: fb06 723d 1b8a b6bc a5e9 703c cee6 a13d
000000e0: c745 543d 55a0 c33c 1997 82bd 6600 4a3d
000000f0: b3e9 1cbe 9374 853d 493f 88bd d641 f93c
00000100: 91c7 5f3d 0570 1f3c b859 823e 86bb ccbb
00000110: 3cbe 24bd 9b8f 873a c123 a7bd ac97 843d
00000120: c785 853b 0e79 193e d706 203e efcd 5fbc
00000130: 30b2 9fbd ed90 94bd 150f 673d 20ec 5abd
00000140: 8788 a3bd b16f bdbd cf5e 843d d40a 953c
00000150: bab5 c4bc 723a ad3d 3179 f23d 995a f63d
00000160: 5694 91bd 0ae5 623e 6343 ea3d 2465 033e
00000170: dfdb 953d 5126 babd 0723 ba3c 8ee7 0e3c
00000180: affc 6f3c 8009 3dbd 2e8f 12bc 86d0 8e3d
00000190: aab1 29bd 3fe4 bebb 55b7 14bc cd0a b3bd
000001a0: 17d3 8b3d 8b7a 74bd 571b 02be 7416 acbc
000001b0: 4921 1f3e 1ff4 b1bd 9725 92bb e48d c63d
000001c0: 1330 003a a1f8 e23d 7576 313d aaa4 9cbc
000001d0: 1cb3 e63d d0e8 efbd 65d0 88bd 89c2 003e
000001e0: 4568 c1bd dbaa f6bc 58f0 b93d 2449 22bd
000001f0: 1386 3fbd 02ae 13be 1bfe f73d ad7e b23d
00000200: 4427 6d3d 8256 39bd 246d 1f3b 46c3 283d
00000210: a174 83bd 5aaa 5bbd f744 8a3d 838e 9abd
00000220: dc20 c83c b86a 273d c901 7fbb 396c a8bd
00000230: 9094 d1bd ffec 5d3d 0d33 c43d f1c2 383d
00000240: 123f 4bbc 980b 24be 435d 21bd bc68 cebd
00000250: cbb4 33bc 95d9 aebd 0a09 d6bc d91b 363d
00000260: b437 7abc 3aa6 75bd 15fa b93d 157b bf3d
00000270: 8019 4b3c c488 db3d c7be 493e a38c ff3c
00000280: 3b5e 403e c41f c43a 3b8a 84ba 7514 9abd
00000290: 5fb0 2cbd e776 bebd 899b 35bd 5741 9abd
000002a0: a40a bf3c 45a6 a4bd 4771 873d 44d8 10bd
000002b0: 6d6e 813d ef79 473d 7559 593c ef2e 773c
000002c0: ac96 8b3d e8d9 f73d ab6d dfbd 11bc 173d
000002d0: bb12 f8bd 8e8c 173c 93f7 0c3d d5a6 9bbd
000002e0: dd9f ccbc 7d65 f33d 1e8e a53d b988 a2bc
000002f0: 0adc ee3c 9aeb 153e 28e1 1a3d 725f a2bd
00000300: df35 173e 3509 083d 12e7 0a3e e261 c53b
00000310: fb05 cbbd c4bc 9f3b ae6f b9bc 56f6 2dbd
00000320: dc17 91bd afdf f2bd 0213 3abb 8a3e a93d
00000330: 469e 73bd d6e5 eebc 6ef2 893c 1dad e03c
00000340: 1494 853d 3424 b2bd f46d 03bd 2ac1 b83d
00000350: f05f 5abe 36e1 f0bd 1b09 6bbc c4ad 743d
00000360: 6a00 67bc 17f9 59bd 24b4 73bd d443 023d
00000370: 884b 9abd 64ca 9f3d 0f34 c23d 7a57 8a3d
00000380: a910 e53d 8abf 45bd e8f1 783d a83a 03bd
00000390: f10f ff3c 0500 3bbd 2bfd e13c cf5c fcbd
000003a0: ab40 443c cffb 213d bd87 853d 81e9 d23b
000003b0: ea73 c23d 3001 103e c4ec 963d c43f 11bd
000003c0: 311d 73be 7446 9f3d 40ac fcbd 7990 59bd
000003d0: ad13 243e d873 17be b53c 9d3d 6635 cf3d
000003e0: 1065 14bd 2907 013e c089 f13d e87b 9cbc
000003f0: b6c8 483c 6aba 07be 207b aabc aa5c 4d3c
-0.039504353 -0.0764529 0.055589616 0.12472475 0.05089364 0.24348523 -0.08939847 0.041868336
-0.023909286 -0.06696775 0.039509945 -0.09816597 -0.0270137 -0.016742306 0.11516104 -0.08887874
-0.15859647 0.0012495519 0.09709626 0.14875297 0.019667208 -0.12839913 0.07790344 -0.05842626
0.08333229 0.04081434 -0.016156415 -0.045155454 -0.023134882 -0.11604991 -0.020963991 -0.09288757
0.04497288 0.07704369 0.17853826 0.11638832 0.031189444 -0.03664617 0.033199403 0.06047623
-0.026893929 0.02737601 -0.013774476 0.097114906 0.08845801 0.0027905742 0.05786533 -0.0677084
0.014563109 0.11103791 0.098529145 0.06068591 0.05908869 -0.02228265 0.014704143 0.079053506
0.051824357 0.023880163 -0.06376476 0.049316786 -0.15323524 0.065163754 -0.06652696 0.0304269
0.05463368 0.009731297 0.25459075 -0.0062479405 -0.040220484 0.001034248 -0.081611164 0.064742416
0.0040747854 0.14987585 0.15627609 -0.013659938 -0.077976584 -0.07254205 0.056410868 -0.053447843
-0.07985025 -0.09249819 0.06463396 0.01819364 -0.024012435 0.08458413 0.11839522 0.12028999
-0.07108371 0.22157684 0.11438634 0.12831551 0.07317328 -0.090893395 0.02272178 0.008722199
0.014647647 -0.046151638 -0.0089452695 0.069733664 -0.0414292 -0.005825549 -0.009076913 -0.087422945
0.068273716 -0.05968718 -0.12705742 -0.0210068 0.15540041 -0.086891405 -0.0044600475 0.09695032
0.0004889976 0.110825785 0.04332586 -0.019121487 0.11264631 -0.11714327 -0.06680373 0.1257421
-0.09443716 -0.030110767 0.09079045 -0.039620534 -0.046758723 -0.14421847 0.12109014 0.08715568
0.057898775 -0.045248516 0.0024326527 0.041201852 -0.064187296 -0.053629257 0.06751435 -0.07546713
0.024429731 0.04087326 -0.0038910976 -0.08223767 -0.10233414 0.054181095 0.0958005 0.045107786
-0.012405174 -0.16020048 -0.039395582 -0.1007857 -0.010968397 -0.08537594 -0.026127357 0.04446015
-0.01527207 -0.05997298 0.090809025 0.09349648 0.012396216 0.10719445 0.19701682 0.03119499
0.18785946 0.001496308 -0.0010111997 -0.07523433 -0.042160388 -0.093000226 -0.044337783 -0.07531994
0.023320504 -0.08039526 0.06613403 -0.035362497 0.0631989 0.04870027 0.013265957 0.015086873
0.06815848 0.12102109 -0.109095894 0.03704459 -0.121129476 0.009249819 0.034415793 -0.0760018
-0.024978573 0.11884592 0.08083747 -0.019840585 0.029157657 0.14640656 0.037812382 -0.07928361
0.14766644 0.033211906 0.13564709 0.0060236314 -0.0991325 0.0048747975 -0.02263626 -0.042471252
-0.07084629 -0.118590705 -0.0028392677 0.082638815 -0.059477113 -0.029162329 0.016839232 0.027426297
0.06522384 -0.086983114 -0.03208728 0.09021218 -0.2132566 -0.117617056 -0.014345433 0.05973603
-0.01409922 -0.053216066 -0.059497967 0.031802967 -0.07533938 0.07802275 0.09482586 0.06754966
0.11184818 -0.04827837 0.060777575 -0.03203836 0.031135531 -0.045654316 0.02758654 -0.12322389
0.011978309 0.039546784 0.06520031 0.0064365272 0.09494765 0.14062953 0.07369378 -0.035461202
-0.23741604 0.0777711 -0.123375416 -0.053116295 0.1602313 -0.14790285 0.076775946 0.10117607
-0.036229193 0.12600388 0.11793852 -0.019102052 0.0122548845 -0.13254705 -0.020810664 0.0125343

network_body._body_endoder.seq_layers.0.bias f4 [128]
00000000: 0000 0000 0000 0000 0000 0000 0000 0000
00000010: 0000 0000 0000 0000 0000 0000 0000 0000
00000020: 0000 0000 0000 0000 0000 0000 0000 0000
00000030: 0000 0000 0000 0000 0000 0000 0000 0000
00000040: 0000 0000 0000 0000 0000 0000 0000 0000
00000050: 0000 0000 0000 0000 0000 0000 0000 0000
00000060: 0000 0000 0000 0000 0000 0000 0000 0000
00000070: 0000 0000 0000 0000 0000 0000 0000 0000
00000080: 0000 0000 0000 0000 0000 0000 0000 0000
00000090: 0000 0000 0000 0000 0000 0000 0000 0000
000000a0: 0000 0000 0000 0000 0000 0000 0000 0000
000000b0: 0000 0000 0000 0000 0000 0000 0000 0000
000000c0: 0000 0000 0000 0000 0000 0000 0000 0000
000000d0: 0000 0000 0000 0000 0000 0000 0000 0000
000000e0: 0000 0000 0000 0000 0000 0000 0000 0000
000000f0: 0000 0000 0000 0000 0000 0000 0000 0000
00000100: 0000 0000 0000 0000 0000 0000 0000 0000
00000110: 0000 0000 0000 0000 0000 0000 0000 0000
00000120: 0000 0000 0000 0000 0000 0000 0000 0000
00000130: 0000 0000 0000 0000 0000 0000 0000 0000
00000140: 0000 0000 0000 0000 0000 0000 0000 0000
00000150: 0000 0000 0000 0000 0000 0000 0000 0000
00000160: 0000 0000 0000 0000 0000 0000 0000 0000
00000170: 0000 0000 0000 0000 0000 0000 0000 0000
00000180: 0000 0000 0000 0000 0000 0000 0000 0000
00000190: 0000 0000 0000 0000 0000 0000 0000 0000
000001a0: 0000 0000 0000 0000 0000 0000 0000 0000
000001b0: 0000 0000 0000 0000 0000 0000 0000 0000
000001c0: 0000 0000 0000 0000 0000 0000 0000 0000
000001d0: 0000 0000 0000 0000 0000 0000 0000 0000
000001e0: 0000 0000 0000 0000 0000 0000 0000 0000
000001f0: 0000 0000 0000 0000 0000 0000 0000 0000
0.0 0.0 0.0 0.0 0.0 0.0 0.0 0.0
0.0 0.0 0.0 0.0 0.0 0.0 0.0 0.0
0.0 0.0 0.0 0.0 0.0 0.0 0.0 0.0
0.0 0.0 0.0 0.0 0.0 0.0 0.0 0.0
0.0 0.0 0.0 0.0 0.0 0.0 0.0 0.0
0.0 0.0 0.0 0.0 0.0 0.0 0.0 0.0
0.0 0.0 0.0 0.0 0.0 0.0 0.0 0.0
0.0 0.0 0.0 0.0 0.0 0.0 0.0 0.0
0.0 0.0 0.0 0.0 0.0 0.0 0.0 0.0
0.0 0.0 0.0 0.0 0.0 0.0 0.0 0.0
0.0 0.0 0.0 0.0 0.0 0.0 0.0 0.0
0.0 0.0 0.0 0.0 0.0 0.0 0.0 0.0
0.0 0.0 0.0 0.0 0.0 0.0 0.0 0.0
0.0 0.0 0.0 0.0 0.0 0.0 0.0 0.0
0.0 0.0 0.0 0.0 0.0 0.0 0.0 0.0
0.0 0.0 0.0 0.0 0.0 0.0 0.0 0.0

network_body._body_endoder.seq_layers.2.weight f4 [128, 128]
00000000: d20e e13b 690b 913d 7a33 2abd e4fa dbbc
00000010: 0583 b83c 392c 1cbd 0c2e 8cbd 2977 d43d
00000020: 77c9 093d 4c65 adbd 4df3 1abe a55d f83d
00000030: 1516 7bbd 6e7c bc3c ed83 e1bd fe3b fc3d
00000040: 9735 1abd a7bf 61bd 58ef 9c3d 1523 14be
00000050: cad8 0c3e 4b03 30bc 6e50 873c 715e acbd
00000060: 8fec e8bd c290 a5bd b502 93bd 8e80 01be
00000070: c891 033d d930 543d 2e02 93bc d2e2 3b3c
00000080: 05e4 9dbb 3254 443d b36c b7bd 4504 d6bd
00000090: 6430 eb3c 1958 dabc 3e32 0e3e ce53 053e
000000a0: f1eb 1bbd 4aee ddbd f51a d4ba f6ab 07bc
000000b0: 9dd8 fcbd ab06 4c3c 7d37 30bd b9d9 223d
000000c0: c722 8f3d 0d02 2bbc 13dd bf3d 5128 b23b
000000d0: 45fa 833c dd5e 943c a226 fd3c e7ab dcba
000000e0: 67b2 cf3d e6ff 35bb 1b88 0e3c 3cd5 85bd
000000f0: 4eac a93d c2a6 3abe db8b ee3d cf4f 733d
00000100: a10c da3d 6254 1c3c f031 0d3e a382 4abd
00000110: 8c5c 05be 20b8 05bd a85b 5b3d 9315 37be
00000120: 3770 243e 2bbe 483e ff58 37be e68d d63d
00000130: 9f23 aa3d ee5e f2bc fdba 2bbc 29dc f4bd
00000140: a3af 213d c74f 8ebb 7ce7 55bd 18b9 253d
00000150: 70fb 8c3e 14d8 a43d d2e2 0b3e cdea 933c
00000160: 638b 6c3d b466 0f3e d64f f5bb 205c 27be
00000170: d4a3 32bd b09f 05bc e22e 023e d17d 08be
00000180: cb78 c43c 7dfd 293d 0a9b 1f3d e4a9 87bc
00000190: d621 0a3e b6aa 873d dafb eebc d1a6 4f3d
000001a0: 013b a33c ccde db3d 16a4 05be c6bb 9d3a
000001b0: c48b d6bd 6ea5 82bd be37 78bb d4ab 0d3e
000001c0: 1687 e13d 450d f03d e62f a2bd d1c5 d5bd
000001d0: aba7 86bc c3ed 29bd 8573 0b3e 266a 293d
000001e0: c2b3 ddbd 243a bd3d 3fae 1fbd a9c2 d53d
000001f0: 8f7d e63c e27f 50be 29a5 2b3e 3bd5 17be
00000200: 7a33 febc 143e bfbd 223d 0a3d ed9e 8bbd
00000210: 398e 213c 5737 5abd 960b 41bd e843 32bc
00000220: 2311 9b3d 415b c5bd 0ad3 a53c 8b2d 283d
00000230: 6ec3 8d3c b4c5 f6ba 6411 f0bc 1aa6 52be
00000240: 80ed d13d 1cb6 dfbd 24ff 31be d519 153e
00000250: 3c61 ad3d b49e ad3d 999a b7bc 2f24 90bc
00000260: 5c67 9e3c 6d25 23bd 796e 0b3d a102 0c3e
00000270: 4030 b93d b9fa 81bb a688 98bd c18a 5d3b
00000280: f769 eabc f299 773d c85b 9a3d 3133 13bd
00000290: b716 6fbd aea1 8abd 0108 eabd 79de 2e3e
000002a0: e57b 553e 5601 08be 8597 93bd 8911 41bd
000002b0: 7342 543c 745b 0dbd b4e8 443e cccb f3bc
000002c0: f309 0d3d 5514 ee3d 4443 1cbd eae2 92bd
000002d0: 1ba1 f9bc 49ee 83bd 7a08 b93c 27fc afbd
000002e0: 6bd0 9fbd 642a 063e 7283 36bd 283a 4ebd
000002f0: 2760 883e 9928 6cbe c059 70be 6137 f4bd
00000300: 30fe 13bc 1a14 98bc a536 c83c 6435 6dbd
00000310: 9197 3cbd 2ba9 d23d 14a3 cbbd 1caa d1bb
00000320: d583 f43c fe41 16bb b887 5abd 3684 4c3d
00000330: 3e6e 153d 43e1 61bd bb95 153e f8d4 3f3e
00000340: d659 01bb 81df a0bc 352e 8bbd 1ec5 89bd
00000350: 9c84 90bd 8d64 3fbb 327e 723e d7c1 8a3d
00000360: 175b e43c 9d03 4a3c ea0c 1f3d b077 393e
00000370: 8033 0fbe bc2e 473c c207 6cbd 512a 68bd
00000380: 8f6c fbbd d610 953d aad3 793d 8d44 32be
00000390: 666d a23c f839 783c e750 39be 9717 513d
000003a0: 7e74 f5bd 4b36 1c3d e24d a838 29fe 89bc
000003b0: 9430 7cbe 0692 61bd 64a3 abbd b2b0 8dbd
000003c0: c403 57be 0741 aebd cb59 433d dbda 4dbd
000003d0: 8c44 06bd fd4e 243e c4fc a43c 642d 47bb
000003e0: f813 6ebd 0f13 59bd a792 363d d392 ce3d
000003f0: 6331 613d edb6 a7bb d041 3d3e 09e8 893d
0.006868222 0.070822544 -0.041552998 -0.026853032 0.022523412 -0.03812811 -0.0684472 0.103742905
0.033639397 -0.084665865 -0.15131874 0.12127236 -0.061300356 0.023008551 -0.11011491 0.1231613
-0.037648764 -0.055114415 0.07662839 -0.14466508 0.13754573 -0.010742973 0.016517844 -0.08416451
-0.11373245 -0.08084251 -0.07178251 -0.12646696 0.03212145 0.051804397 -0.017945375 0.011467652
-0.004818442 0.047931857 -0.089562796 -0.10450033 0.028709598 -0.026653336 0.13886353 0.1302025
-0.038066808 -0.10836466 -0.001618235 -0.008280745 -0.12346003 0.012452762 -0.043021668 0.039758418
0.06989055 -0.010437501 0.093683384 0.005436935 0.016110549 0.01811164 0.03090221 -0.0016835899
0.101414494 -0.0027770936 0.008699442 -0.06534812 0.08284818 -0.18227676 0.11647769 0.059402283
0.1064694 0.009541603 0.13788581 -0.04944099 -0.13023585 -0.0326463 0.053554207 -0.17879324
0.16058432 0.19603793 -0.17905043 0.10476284 0.083075754 -0.029586282 -0.010481593 -0.11956055
0.03947414 -0.0043430063 -0.052222714 0.040459722 0.27535582 0.08049026 0.13660744 0.018056298
0.057750117 0.14004022 -0.007486324 -0.16343737 -0.04361327 -0.008155748 0.12713197 -0.13329245
0.02398338 0.04150151 0.038966216 -0.016560502 0.1348947 0.066243574 -0.029172827 0.050696198
0.019925596 0.107358545 -0.13050875 0.001203411 -0.10475877 -0.063792095 -0.0037875022 0.13835078
0.11012094 0.11721281 -0.07919292 -0.10438121 -0.016437372 -0.041486513 0.13618286 0.041360997
-0.10825302 0.09239605 -0.038984533 0.10437519 0.028136043 -0.20361283 0.16762222 -0.14827435
-0.031030405 -0.09338012 0.033749707 -0.06817422 0.009860569 -0.053275432 -0.04713019 -0.010880448
0.07571628 -0.09636546 0.020242233 0.04105906 0.017305102 -0.0018827231 -0.029305167 -0.20571175
0.10250378 -0.109234065 -0.17382485 0.14560635 0.084658116 0.08477536 -0.022412585 -0.017595379
0.019336395 -0.039830614 0.0340409 0.13672878 0.09042406 -0.003966656 -0.074479386 0.0033804628
-0.028614981 0.060449548 0.07537037 -0.03593749 -0.058371272 -0.06769119 -0.11427308 0.17077054
0.20848043 -0.1328176 -0.072066344 -0.047135863 0.012955296 -0.034511045 0.19229394 -0.029760264
0.034433316 0.11624972 -0.038150087 -0.07172187 -0.030472329 -0.06441934 0.02258705 -0.08593016
-0.078034244 0.13102108 -0.04455895 -0.05034843 0.26635858 -0.23062362 -0.23471737 -0.11924625
-0.009032771 -0.018564273 0.024440119 -0.057912245 -0.046042982 0.102861725 -0.09943214 -0.0063984524
0.029848019 -0.0022927518 -0.053352088 0.049930774 0.03648209 -0.055146467 0.14607899 0.18733585
-0.0019737384 -0.019637825 -0.06795923 -0.0672705 -0.07056543 -0.002920422 0.23680952 0.06775253
0.027875466 0.012329963 0.038830675 0.18112063 -0.1398449 0.012157138 -0.057624586 -0.05668098
-0.12276565 0.07278602 0.060992874 -0.17408963 0.019827556 0.01515054 -0.18097268 0.051047888
-0.1198511 0.038137715 8.025371e-05 -0.016844826 -0.24627906 -0.0550709 -0.08380774 -0.069184676
-0.2099753 -0.08508497 0.047693055 -0.050257545 -0.032780215 0.16045757 0.02014006 -0.0030392045
-0.058124512 -0.05299669 0.044573452 0.10086598 0.05497874 -0.005118242 0.18482137 0.0673371

network_body._body_endoder.seq_layers.2.bias f4 [128]
00000000: 0000 0000 0000 0000 0000 0000 0000 0000
00000010: 0000 0000 0000 0000 0000 0000 0000 0000
00000020: 0000 0000 0000 0000 0000 0000 0000 0000
00000030: 0000 0000 0000 0000 0000 0000 0000 0000
00000040: 0000 0000 0000 0000 0000 0000 0000 0000
00000050: 0000 0000 0000 0000 0000 0000 0000 0000
00000060: 0000 0000 0000 0000 0000 0000 0000 0000
00000070: 0000 0000 0000 0000 0000 0000 0000 0000
00000080: 0000 0000 0000 0000 0000 0000 0000 0000
00000090: 0000 0000 0000 0000 0000 0000 0000 0000
000000a0: 0000 0000 0000 0000 0000 0000 0000 0000
000000b0: 0000 0000 0000 0000 0000 0000 0000 0000
000000c0: 0000 0000 0000 0000 0000 0000 0000 0000
000000d0: 0000 0000 0000 0000 0000 0000 0000 0000
000000e0: 0000 0000 0000 0000 0000 0000 0000 0000
000000f0: 0000 0000 0000 0000 0000 0000 0000 0000
00000100: 0000 0000 0000 0000 0000 0000 0000 0000
00000110: 0000 0000 0000 0000 0000 0000 0000 0000
00000120: 0000 0000 0000 0000 0000 0000 0000 0000
00000130: 0000 0000 0000 0000 0000 0000 0000 0000
00000140: 0000 0000 0000 0000 0000 0000 0000 0000
00000150: 0000 0000 0000 0000 0000 0000 0000 0000
00000160: 0000 0000 0000 0000 0000 0000 0000 0000
00000170: 0000 0000 0000 0000 0000 0000 0000 0000
00000180: 0000 0000 0000 0000 0000 0000 0000 0000
00000190: 0000 0000 0000 0000 0000 0000 0000 0000
000001a0: 0000 0000 0000 0000 0000 0000 0000 0000
000001b0: 0000 0000 0000 0000 0000 0000 0000 0000
000001c0: 0000 0000 0000 0000 0000 0000 0000 0000
000001d0: 0000 0000 0000 0000 0000 0000 0000 0000
000001e0: 0000 0000 0000 0000 0000 0000 0000 0000
000001f0: 0000 0000 0000 0000 0000 0000 0000 0000
0.0 0.0 0.0 0.0 0.0 0.0 0.0 0.0
0.0 0.0 0.0 0.0 0.0 0.0 0.0 0.0
0.0 0.0 0.0 0.0 0.0 0.0 0.0 0.0
0.0 0.0 0.0 0.0 0.0 0.0 0.0 0.0
0.0 0.0 0.0 0.0 0.0 0.0 0.0 0.0
0.0 0.0 0.0 0.0 0.0 0.0 0.0 0.0
0.0 0.0 0.0 0.0 0.0 0.0 0.0 0.0
0.0 0.0 0.0 0.0 0.0 0.0 0.0 0.0
0.0 0.0 0.0 0.0 0.0 0.0 0.0 0.0
0.0 0.0 0.0 0.0 0.0 0.0 0.0 0.0
0.0 0.0 0.0 0.0 0.0 0.0 0.0 0.0
0.0 0.0 0.0 0.0 0.0 0.0 0.0 0.0
0.0 0.0 0.0 0.0 0.0 0.0 0.0 0.0
0.0 0.0 0.0 0.0 0.0 0.0 0.0 0.0
0.0 0.0 0.0 0.0 0.0 0.0 0.0 0.0
0.0 0.0 0.0 0.0 0.0 0.0 0.0 0.0

value_heads.value_heads.extrinsic.weight f4 [1, 128]
00000000: efea a3bd d136 923d a979 dbbd 62f8 fabb
00000010: c10c 4d3d 5640 18be a35f e83d e411 af3b
00000020: 40e7 2b3e 6edf f83d 4e16 45be dfed f73d
00000030: abfe 13bc 8893 3abd 540e 78bd 8cf3 49be
00000040: 5137 9a3d de35 11be d4e3 2cbd 0004 61bd
00000050: e5ce 11bd 6fff debd 7a09 943d b576 b0bc
00000060: 2370 75bd a72d 6b3d a387 21be d079 473e
00000070: 37dc 273e 107f 053e dca1 42bd 2014 cdbd
00000080: 656d 4ebe c648 9a3c ebbd c0bd 22d9 0a3c
00000090: a831 7e3d 8f44 0cbe 8506 acbd 9c69 583e
000000a0: 8f4b 3e3d 9cf1 33be 4111 5d3d ea5b 4dbe
000000b0: b69e 2b3e 855e 5cbe d862 243e 6fe6 98bd
000000c0: 1309 753d 3e10 bebd d680 02be b3d0 233e
000000d0: 3080 5abe 917e 923c 7325 bcbd 30c1 253e
000000e0: cc03 55be 566a 83bd 2e6e 45be 6388 8b3d
000000f0: f543 a33d 20d5 e9bd 1e86 3dbe 526a 633d
00000100: 5c11 16be 14c8 cebd a360 df3c 5029 953b
00000110: 1cfb f9bd 0aa0 0abe f5a1 4fbd 2580 95bc
00000120: d1f5 093e 8b86 ffbd 40ee 5f3d df95 d63d
00000130: a8eb 843c 3dcc ed3d 1ef9 383d e516 48be
00000140: cf17 edbc b892 13be 477a 013e 3795 5db9
00000150: a189 3dbe d610 ebbb bc9e 293e 8a10 083e
00000160: 4edd 67bc 41bc 24bd f9cc 4b3d a26b cd3d
00000170: 0355 f4bd 3610 85bd a469 4c3e cde0 5e3c
00000180: 2447 2dbe fcbb 45be 549a 513e d425 fa3d
00000190: 94b0 78bc e13a aa3d 1a9c 2a3e 7d8a 11bd
000001a0: 7268 48be d57a 0ebe 7b8d e23c d731 1cbe
000001b0: 0767 88bd 01f8 afbd a247 f23d 5198 0c3c
000001c0: 23f5 a93d 0971 503e 6c02 35be 4743 343d
000001d0: d804 3fbd d803 ed3d 0600 c3bc e251 53bd
000001e0: f4ec f23d d4fb bfbd c431 843d b063 d33d
000001f0: 868c cc3d c0f0 e33d ccb1 4c3e d79d 923c
-0.080037944 0.07139362 -0.10716564 -0.007659004 0.05006099 -0.14868292 0.11346366 0.005342709
0.16787434 0.12151991 -0.1924679 0.12105917 -0.009032886 -0.045550853 -0.06056054 -0.19721812
0.07530082 -0.14180705 -0.04220946 -0.054935455 -0.0355977 -0.10888564 0.0722837 -0.021540979
-0.059921395 0.057416584 -0.15774398 0.19480062 0.16392599 0.13036752 -0.047517642 -0.10013604
-0.20158918 0.01883353 -0.09411224 0.00847462 0.062059075 -0.13698028 -0.08399681 0.21134037
0.046458777 -0.17572635 0.053971533 -0.20054594 0.16759762 -0.21520431 0.16053331 -0.07465827
0.059823107 -0.09280442 -0.1274446 0.15997581 -0.21337962 0.017882617 -0.0918683 0.16186976
-0.2080223 -0.06416766 -0.19280311 0.06813123 0.07971946 -0.114176035 -0.18508193 0.055521317
-0.1465506 -0.100967556 0.02726776 0.004552044 -0.122060984 -0.13537613 -0.050691564 -0.01824958
0.13472678 -0.12476834 0.054670572 0.104778044 0.01622565 0.11611221 0.04515945 -0.19539984
-0.028942017 -0.14411438 0.12644301 -0.00021131789 -0.18509533 -0.007173638 0.16564459 0.13287559
-0.014151884 -0.040218595 0.049756024 0.10030295 -0.11930277 -0.064972326 0.19962174 0.013603401
-0.16921669 -0.19309992 0.20469028 0.122142464 -0.015178818 0.083120115 0.1666111 -0.035532463
-0.19571093 -0.13914044 0.027655354 -0.15253387 -0.06660276 -0.08592225 0.11830069 0.008581237
0.08298709 0.2035562 -0.17676705 0.044009473 -0.04663548 0.11572999 -0.023803722 -0.05159176
0.118616015 -0.09374204 0.064548045 0.10321748 0.0998774 0.11129904 0.19989699 0.01789753
