Results/test31/SnowBall.onnx (onnx, 143334 bytes, 9 tensors)

action_model._discrete_distribution.branches.0.bias f4 [3]
000000 00 00 00 00 00 00 00 00 00 00 00 00
       0.0 0.0 0.0

action_model._discrete_distribution.branches.0.weight f4 [3, 128]
000000 e1 64 9b 39 4d 3b ad bb a0 d7 32 3a 57 3e 7f 3a
       0.00029639064 -0.00528661 0.0006822292 0.00097367674
000010 38 8c 4b 3a b3 8e 22 bb ab b5 a3 3b 5a f6 41 bc
       0.00077647297 -0.0024804294 0.0049960217 -0.01183852
000020 92 53 a2 bb d3 3b b5 3b 87 ae e9 3b 84 67 01 bc
       -0.00495381 0.0055308132 0.007131401 -0.007898215
000030 95 22 eb bb 9f ba f8 bb 50 ce 63 bc 57 a8 4b 3b
       -0.0071757534 -0.0075906063 -0.013904169 0.003107568
000040 1b f6 49 3b 5b 8b a7 3c f4 e4 28 3c db 0b b3 bb
       0.0030816856 0.020452192 0.010308493 -0.0054640598
000050 a0 13 76 3c 1d d6 5b ba 0e c4 8c 3b 8a 7b 2e bc
       0.015019327 -0.00083860924 0.0042958325 -0.010649571
000060 e7 da 09 b9 58 7e f1 bb 62 4f 2a 3b 50 73 86 b9
       -0.00013146886 -0.0073697977 0.0025987257 -0.00025644386
000070 1b b8 03 3c 5b 98 82 bb 6f de 49 3c 72 23 db ba
       0.0080395 -0.0039854473 0.012321099 -0.0016718938
000080 ab a0 3d ba 3f 9b c7 b8 07 d5 d7 39 72 5d 52 bb
       -0.0007233719 -9.517976e-05 0.00041166713 -0.0032099155
000090 bc ec 3c bc d7 95 58 ba f7 f3 25 bb 5a 7f f0 3a
       -0.011531051 -0.0008262074 -0.0025322416 0.0018348501
0000a0 fb 42 ed bb 82 0b f8 3b 0d f4 13 b8 fb f9 3c bc
       -0.0072406507 0.007569731 -3.527482e-05 -0.011534209
0000b0 12 54 b6 bc b4 24 31 bc 2d bc 5a 3c fd fe 5d bc
       -0.022256885 -0.010811973 0.013350529 -0.0135495635
0000c0 2b 2f 1c 3b 1a 7a 0a 3c 60 81 c4 bb 35 96 62 ba
       0.0023831825 0.008451963 -0.005996868 -0.00086435984
0000d0 12 ba 04 bc 56 fa 3e bc 86 42 1a 3b 33 f0 2f bb
       -0.008101003 -0.011656364 0.0023538186 -0.002684605
0000e0 e3 b1 1b 3b 25 8e c9 3b 27 34 02 bc 37 a7 dd 3a
       0.0023757152 0.006150978 -0.007947004 0.0016910796
0000f0 37 8a ac 3c b8 39 4d 3c db bb ae bb 14 ad 9d 3b
       0.021062 0.012525968 -0.0053324527 0.0048118923
000100 03 e2 08 3c c1 ab 9d 3a 00 ed bf 39 7a 1f 63 bc
       0.008354667 0.0012029336 0.00036606938 -0.013862485
000110 79 2d 99 bb 4d 1d 7d 3b 73 c1 62 3c 82 91 98 3b
       -0.00467461 0.00386222 0.013840067 0.0046560178
000120 9c 7a 23 3b ea c5 32 3b 35 a9 9f bb 6d a0 b6 bb
       0.0024944907 0.002727861 -0.004872466 -0.0055733235
000130 1b f8 fa 3b 64 a3 13 bc 7f 4c 99 bb 64 d3 aa 3b
       0.007658971 -0.009011123 -0.0046783085 0.005213188
000140 6c ff a7 39 7f ab 29 ba 2a 87 e6 3a c0 b6 76 3b
       0.00032043026 -0.0006472393 0.001758789 0.0037645549
000150 74 88 25 3c 5b f1 85 3b 9f 94 ea ba 4a 9c 56 3b
       0.010103334 0.0040876097 -0.0017897076 0.0032746964
000160 c1 c3 39 bb 98 48 a8 bb 2f e8 2f 3c b7 d8 7a 3c
       -0.0028345438 -0.005135607 0.010736509 0.015310458
000170 e9 da 8e 3c 3d 57 05 3c eb 27 ca 3a 6f 63 0b 3b
       0.017438369 0.008138475 0.0015423273 0.0021268984
000180 31 ea 09 ba 0e 86 31 3c d6 05 33 bc cd 3d f4 3b
       -0.00052610325 0.010835184 -0.010926684 0.0074536563
000190 65 56 74 3b 15 4b e6 3b 99 fb 94 3b 10 a7 ee 3b
       0.003728294 0.0070279934 0.0045465943 0.007283099
0001a0 78 52 11 3b ff 0e 8d bc 6a 2e 2f 3b 82 1b 86 bb
       0.00221744 -0.017219065 0.0026730546 -0.0040926347
0001b0 76 46 00 ba 3b d0 ea 3b a6 fb a3 3b 5a ea c1 3b
       -0.0004893312 0.0071659363 0.005004364 0.0059178295
0001c0 37 90 60 bc 25 22 68 bb 7b c1 2c 3c c0 98 b8 3b
       -0.0137062585 -0.0035420742 0.010544176 0.0056334436
0001d0 b7 15 25 3c 37 4f cd ba 5e 25 a9 bb bf e6 3d 3a
       0.010075978 -0.0015663867 -0.005161925 0.00072441617
0001e0 22 e4 8e 3b 52 76 eb 3b 9f ac eb 3a 21 3a b9 3b
       0.0043606916 0.0071857357 0.0017980522 0.0056526815
0001f0 f5 19 eb 3c df c5 c2 ba a5 9b 8a bb 41 61 4c 3c
       0.0286989 -0.0014859996 -0.00422998 0.012474359
000200 70 18 b3 3c 02 2b d1 ba d3 14 8b 3a ef 7e ec 38
       0.021862239 -0.0015958252 0.0010611064 0.00011277
000210 33 2e 7a bc 57 f6 03 3c b2 8e 71 bc ca 0c 9b 3b
       -0.015269804 0.008054337 -0.014743494 0.004731749
000220 ec 79 97 3b 88 85 22 bc aa ac 49 bb 7b c4 33 bc
       0.0046226885 -0.009919532 -0.0030773082 -0.010972138
000230 77 92 f2 3b 38 47 58 3b b2 d1 13 bc 07 10 59 3c
       0.007402714 0.0033001434 -0.009022163 0.01324845
000240 6a 2f 3e bc f1 85 22 3c cb 88 74 ba a7 1d 03 3c
       -0.011607984 0.009919629 -0.0009328245 0.008002675
000250 63 27 65 bc 25 65 7e bc 28 6c 50 bb 80 6f 0b 3b
       -0.013986441 -0.015527044 -0.0031802747 0.0021276176
000260 33 ad b5 ba 1f e0 8d bb ca b7 fc 3b 73 1e b4 3b
       -0.0013860821 -0.004329696 0.007712339 0.005496794
000270 19 75 18 bb 0b f5 71 bc e7 4e 68 ba 77 24 93 3c
       -0.0023263155 -0.014767895 -0.0008861855 0.017961724
000280 2d 8e 3e bb 48 4c a7 3b 0a ba 73 3b 95 95 1c bb
       -0.0029076443 0.005105529 0.0037189745 -0.0023892869
000290 ab b1 61 bb 1f 9b a1 bb 5a d7 0a 3b aa d5 13 3b
       -0.0034438174 -0.004931822 0.0021185488 0.0022557774
0002a0 5a 3f a6 bb d3 7a e1 3b f5 c5 87 3a b2 a1 64 bc
       -0.00507347 0.006881097 0.0010358678 -0.013954567
0002b0 7d 7c 34 bb f6 05 47 bb 8d 9d c7 ba 42 b0 0a ba
       -0.002754002 -0.0030368543 -0.0015229449 -0.00052905467
0002c0 c2 c6 04 bc b5 0b a9 bb 05 79 5e bc b1 89 97 3b
       -0.008104028 -0.0051588663 -0.013578658 0.0046245684
0002d0 bb 5d ea 3b 97 69 ac 3a 5a 6f c8 bb 87 55 5b 3a
       0.007152287 0.0013154027 -0.0061167898 0.00083669316
0002e0 3b 91 29 3b 75 02 c6 3b a7 b0 02 3b d3 40 26 bc
       0.0025873918 0.0060427734 0.0019941719 -0.010147291
0002f0 50 1b c2 3b e3 6c 4d 3a 94 75 81 bb 13 07 4e bc
       0.005923666 0.0007836355 -0.003950784 -0.012574929
000300 7b 31 4b 3c d3 e4 0a 3c ed 70 d2 3b 06 dd 2b 3c
       0.012401934 0.0084774075 0.006422153 0.010489708
000310 f0 6f bd 3b 62 b8 62 bc 6f e5 89 bb 72 f1 9e bb
       0.0057811663 -0.013837906 -0.004208259 -0.00485056
000320 4a d4 94 bb a0 ea 2c 3b 79 f4 1b bb 3b 79 41 3c
       -0.0045419084 0.0026384965 -0.002379684 0.011808689
000330 de 0d bc 3a 63 7e 83 bb b3 1c 5f 3a 29 b8 3c 3c
       0.0014347394 -0.004012869 0.00085110514 0.011518517
000340 3b b7 36 bc a3 03 39 3b dc 27 05 3c f3 92 cc bb
       -0.011152084 0.0028230927 0.008127179 -0.0062431036
000350 89 02 cb 3b 5a 35 1d bb 54 44 00 3c eb 89 7a bc
       0.0061953706 -0.00239881 0.007828791 -0.015291671
000360 54 d4 91 3c b1 b9 2b 3c 53 2c 1d bc e8 49 33 3b
       0.017801441 0.010481284 -0.009593087 0.0027357284
000370 9f 33 4f bc 30 af 5f bc bb 77 08 bc ef b2 c3 3b
       -0.012646585 -0.013652608 -0.008329327 0.0059722583
000380 ff c9 5d ba 17 e8 0a 3c 30 24 80 bc c6 42 20 ba
       -0.0008460581 0.008478186 -0.015642256 -0.00061134656
000390 cb b7 f6 3b fd db e9 3b 6b 12 7b 3c ec 51 41 3c
       0.007529234 0.0071368203 0.015324215 0.011799317
0003a0 42 12 61 bb a6 d9 0d 3a cf 58 ce ba bc 09 13 3c
       -0.0034343158 0.0005411155 -0.001574302 0.008974489
0003b0 63 5f fe ba 88 a6 35 ba 37 89 31 bc 43 e2 84 bc
       -0.001940709 -0.0006929417 -0.010835937 -0.016221171
0003c0 7f d2 0b 3c e8 aa 36 bb 1b 98 8d bb ff 0b 77 bb
       0.008534073 -0.0027872864 -0.004321111 -0.003769636
0003d0 96 11 a1 bb d5 82 e6 bb 90 28 e5 bb 93 2e 2d bb
       -0.0049154265 -0.0070346394 -0.006993361 -0.0026425465
0003e0 9a 45 9f 3b 1f 6d a6 3b 59 85 45 3c 01 a9 15 3c
       0.004860592 0.005078926 0.012055718 0.009134532
0003f0 21 2b 30 3b 19 e4 4b 3c dc 2e 93 3c fb 57 42 3b
       0.0026881176 0.012444519 0.01796668 0.0029654491

action_model._discrete_distribution.branches.1.bias f4 [3]
000000 00 00 00 00 00 00 00 00 00 00 00 00
       0.0 0.0 0.0

action_model._discrete_distribution.branches.1.weight f4 [3, 128]
000000 e3 49 04 3c a6 fe 95 ba 02 8c 68 3b f8 4b f2 bb
       0.008074257 -0.0011443689 0.0035483842 -0.00739431
000010 9b da 55 3a 67 f6 83 bc e2 20 62 bb 25 47 a6 3c
       0.000815788 -0.016108705 -0.0034504463 0.020297596
000020 c3 e8 7b bc 2c d0 81 3c f0 74 f2 3b 8b 1d 53 3b
       -0.015375319 0.015846334 0.007399194 0.0032213654
000030 67 0a 39 bc 31 be 2e 3c 6b 77 5a bb bd 8a 8d bb
       -0.011293984 0.010665462 -0.0033335339 -0.0043195174
000040 1f 2f 63 3c 38 f7 e5 3b 81 e3 bd bb 70 af b9 3b
       0.013866215 0.007017996 -0.005794943 0.0056666657
000050 f1 89 21 ba 08 e7 f9 ba 57 e2 d9 bb 1b 6a 2e 3c
       -0.00061622175 -0.0019066045 -0.0066492963 0.010645415
000060 e8 db 8b bb 97 7f 88 3a ef 7d 46 3c cb 6a 6a 3b
       -0.004268158 0.0010414001 0.012114986 0.003576922
000070 e7 89 24 bc 4a 5b 80 bb bb aa c4 3a 37 1b a1 ba
       -0.010042644 -0.0039171325 0.0015004495 -0.0012291436
000080 3e 9c 43 3b 1c 6c b6 3b 12 f8 98 bc c7 49 12 3a
       0.0029847766 0.005567087 -0.018672977 0.00055804517
000090 2b 68 53 3c 3a cf f1 b9 96 51 47 3c b7 ba 3b 3c
       0.012903254 -0.00046121498 0.012165448 0.0114580905
0000a0 73 4d ec 3a 48 d1 cf 3b a5 0d 85 3c 10 44 78 3c
       0.0018028453 0.006342087 0.016241858 0.015152946
0000b0 6d 0b a5 bc 48 83 cd 3b f7 59 09 3c db fc ac b8
       -0.02014705 0.0062717535 0.008383266 -8.248697e-05
0000c0 34 05 ac ba 32 6d c2 3b 61 e4 0b bc d8 4c 64 3c
       -0.0013124109 0.0059334273 -0.0085383365 0.013934337
0000d0 27 8d 32 bc b0 b4 4d 3b 45 16 a0 ba c4 2c 34 bb
       -0.010897911 0.0031388216 -0.0012213668 -0.0027492503
0000e0 ac 21 84 3b 57 53 1e 3c 7f a0 ad 3b 4a 4f 07 3c
       0.0040323343 0.009663424 0.0052986736 0.00825865
0000f0 a8 02 ba 3a 65 66 86 39 cf 7d 27 3c e8 08 2f 3c
       0.0014191465 0.00025634762 0.010222866 0.010683276
000100 68 b1 75 3c 7a 17 7e 3b 2f fb d2 ba 3f d0 ab bc
       0.01499591 0.0038771317 -0.0016096587 -0.020973323
000110 3d c7 b3 bb 17 f6 87 bb 23 5d 0e 3c 58 fb c7 bc
       -0.0054863975 -0.0041492092 0.008689198 -0.024411842
000120 80 50 77 3b 0d b2 67 3c 99 92 94 39 42 a6 c2 b9
       0.003773719 0.014141572 0.00028337984 -0.00037126435
000130 7d cd 3d 3b cc 3d 9f 3b cf 91 f5 bb 4b 87 c3 bb
       0.0028961592 0.0048596617 -0.0074941884 -0.005967056
000140 eb a8 99 bb 89 3d 90 3c 3a 54 9b bb ba 79 d1 3b
       -0.004689326 0.017607467 -0.004740265 0.0063926848
000150 1a 26 57 bc 88 23 45 bc 77 1b c2 3a 1d dd 71 3a
       -0.013131643 -0.012032397 0.001480921 0.0009226369
000160 4f 5c 55 3b 2b 6a 4d 3c 27 d0 8a bc f5 19 6d bb
       0.003255624 0.012537519 -0.016944958 -0.0036178802
000170 58 48 5e bc 18 80 5c 3b d2 8e e4 bb ea 34 3b bc
       -0.013567053 0.0033645686 -0.0069750333 -0.01142619
000180 4a 6c b5 ba 57 e0 9c 3b 42 1d 5f 3c bd f1 19 3c
       -0.0013841477 0.0047874856 0.013617815 0.009396014
000190 aa e6 58 ba 1d 4b 16 3b d5 f1 4c bb 44 2c 9f 3a
       -0.0008274118 0.0022932955 -0.0031272073 0.001214393
0001a0 5d eb 47 ba c7 93 cc bc 41 4d bd bb 2b 5f 12 3c
       -0.00076263194 -0.02497281 -0.0057770316 0.008933823
0001b0 31 fd 81 bb 07 0a 23 bc 80 97 0d bc d6 a6 17 3c
       -0.0039669503 -0.009951121 -0.008642077 0.009256085
0001c0 4b e2 c2 3b 10 56 53 bb 37 93 02 3c 18 4e a0 bb
       0.0059473864 -0.0032247342 0.007969669 -0.004892122
0001d0 7f e0 9f 3b e0 9c 11 bb 88 48 5b 3b 64 52 80 bc
       0.004879057 -0.002221875 0.003345998 -0.015664287
0001e0 e3 57 d0 3b 87 bc 26 bb 32 10 d3 3a ef 11 0e 3c
       0.006358133 -0.002544196 0.0016102849 0.008671268
0001f0 78 8f 29 bc 29 85 17 3c ef ac e2 3b 4f 82 9a 3a
       -0.010349147 0.009248056 0.006917588 0.0011788103
000200 3a 9f 22 bb 06 3f 3d bb 9b 1e 8a 39 81 e8 89 bb
       -0.0024814145 -0.0028876676 0.00026344214 -0.004208625
000210 f5 04 83 3b b7 84 e3 bb 9e d4 0c bc 7c 0e 4c bb
       0.0039983937 -0.006943311 -0.008595614 -0.0031136563
000220 3b 7e db 3b 79 66 87 bb 10 7b 39 3c 76 bc 1c 3b
       0.0066983975 -0.0041320887 0.011320844 0.0023916042
000230 a8 ab e7 bb 9a 44 de bb 40 d0 0d 3c 9e a9 48 bc
       -0.0070700236 -0.0067830803 0.008655608 -0.012247471
000240 ca 80 55 3a e4 38 36 bc 78 71 a4 bb 03 e1 f4 3b
       0.0008144496 -0.011121962 -0.0050184093 0.0074731125
000250 07 63 d3 3c b1 d3 c0 bb 97 7b 10 bb 2a 2e 52 3b
       0.025804056 -0.0058846106 -0.0022046322 0.0032070973
000260 cb fb b3 bb 12 38 01 bb b5 57 20 3c 6e ac a4 bb
       -0.0054926625 -0.0019717258 0.009786536 -0.005025438
000270 ef 82 6a bc cb 99 31 bb 37 d8 4b 3b 5b 99 da 3c
       -0.014313444 -0.0027099724 0.0031104216 0.026684454
000280 a6 cc 9c bb 9d d7 4c 3c 5d 43 d2 bb 23 a9 bd 3b
       -0.004785138 0.012502578 -0.0064167217 0.005787985
000290 87 5f ef 3a dd 97 cd b8 b3 92 ef bb 67 f7 3a bc
       0.0018262722 -9.8034485e-05 -0.007311189 -0.011411524
0002a0 84 45 06 3b d1 a5 bf b9 53 05 2e bb af 2e 8f 3a
       0.0020488212 -0.00036553902 -0.0026553466 0.0010923947
0002b0 c7 9f a3 bb 07 3f 23 3c 4c 06 45 bc f6 7c 8c bb
       -0.004993412 0.009963757 -0.012025427 -0.0042873574
0002c0 38 8e 66 bb d8 b5 6e ba f8 9e a2 bb 18 84 04 bc
       -0.0035179984 -0.00091060763 -0.004962798 -0.008088134
0002d0 b3 ad 87 bb bf 3c 36 3b 83 27 1a bb 57 7a c4 bb
       -0.0041405796 0.0027807204 -0.0023522086 -0.0059960294
0002e0 90 bd 44 3c 8b e2 26 3a 97 30 c9 ba 00 18 7e 3c
       0.012008086 0.0006366155 -0.0015349564 0.015508652
0002f0 cc 24 88 3c 8b a0 1e bc 1a ae 92 38 47 14 4b 3c
       0.016619109 -0.009681831 6.9942515e-05 0.012394971
000300 e1 74 86 3c b7 b7 2e 3b f5 eb de bb cb 60 01 3c
       0.016413154 0.0026659796 -0.0068030306 0.007896612
000310 9b 2b 58 3a e8 5d cc bc 9f 7e 8a 3c 33 04 93 3a
       0.0008246244 -0.024947122 0.01690608 0.0011216461
000320 dd c7 5d 3b 7d c3 ea ba d3 a5 2b 3b 12 d9 3b bb
       0.0033841052 -0.0017911043 0.0026191368 -0.002866332
000330 ea d9 60 bb 1e 45 98 3c 55 a0 35 3c ff 7c 09 3c
       -0.0034309574 0.018587645 0.011085589 0.008391618
000340 3d 92 89 bb 45 c9 23 3c 8f b0 8c bc 72 90 54 bb
       -0.004198341 0.009996717 -0.017174033 -0.003243473
000350 f7 5f b7 3b 95 66 8c 3c 3a 86 bf 3b c9 da 92 3c
       0.0055961567 0.017138759 0.0058448585 0.01792659
000360 5f 95 06 3c e7 5a da 36 5d 77 6e bc 08 5b 1a ba
       0.008214324 6.5074887e-06 -0.014554826 -0.00058881985
000370 62 28 bd ba 43 a7 7d 3b 22 dd 1c bc 20 c8 83 3b
       -0.0014431591 0.0038704432 -0.009574207 0.0040216595
000380 e8 61 97 3c 40 28 ee bb 72 86 7b 3b c4 02 bb 38
       0.018479303 -0.007267982 0.0038379696 8.91737e-05
000390 36 6e 3e bb b7 de e4 bc 12 b6 61 bc d4 1a 99 bb
       -0.002905739 -0.02793823 -0.013776319 -0.0046723876
0003a0 c8 34 7b 3b e3 f0 10 3b 66 3d 3c bb 4f bf 33 bb
       0.003833102 0.0022116236 -0.002872312 -0.0027427261
0003b0 f2 37 98 bc ef 0f 9b bb cf 42 4e bc a0 9f 1b 3c
       -0.018581364 -0.004732124 -0.012589171 0.009498507
0003c0 e5 c9 7a bb bb ae a9 3b 0b 48 0d bc 39 33 2a 3c
       -0.0038267311 0.0051783 -0.008623133 0.010388189
0003d0 8d 6d 0d ba 8c bb 15 3c e3 d6 bb bb 04 44 c3 bb
       -0.00053950475 0.009138953 -0.0057324036 -0.005959036
0003e0 73 64 2b bb 26 7a 2f bc 5c 49 86 bb e2 97 7c 3c
       -0.0026152402 -0.010710275 -0.0040981006 0.015417071
0003f0 68 48 4e 3c 77 f2 e8 ba a2 7d 7b 3c 6b 02 b2 3b
       0.012590505 -0.0017772455 0.015349777 0.005432417

discrete_action_output_shape f4 [1, 2]
000000 00 00 40 40 00 00 40 40
       3.0 3.0

network_body._body_endoder.seq_layers.0.bias f4 [128]
000000 00 00 00 00 00 00 00 00 00 00 00 00 00 00 00 00
       0.0 0.0 0.0 0.0
000010 00 00 00 00 00 00 00 00 00 00 00 00 00 00 00 00
       0.0 0.0 0.0 0.0
000020 00 00 00 00 00 00 00 00 00 00 00 00 00 00 00 00
       0.0 0.0 0.0 0.0
000030 00 00 00 00 00 00 00 00 00 00 00 00 00 00 00 00
       0.0 0.0 0.0 0.0
000040 00 00 00 00 00 00 00 00 00 00 00 00 00 00 00 00
       0.0 0.0 0.0 0.0
000050 00 00 00 00 00 00 00 00 00 00 00 00 00 00 00 00
       0.0 0.0 0.0 0.0
000060 00 00 00 00 00 00 00 00 00 00 00 00 00 00 00 00
       0.0 0.0 0.0 0.0
000070 00 00 00 00 00 00 00 00 00 00 00 00 00 00 00 00
       0.0 0.0 0.0 0.0
000080 00 00 00 00 00 00 00 00 00 00 00 00 00 00 00 00
       0.0 0.0 0.0 0.0
000090 00 00 00 00 00 00 00 00 00 00 00 00 00 00 00 00
       0.0 0.0 0.0 0.0
0000a0 00 00 00 00 00 00 00 00 00 00 00 00 00 00 00 00
       0.0 0.0 0.0 0.0
0000b0 00 00 00 00 00 00 00 00 00 00 00 00 00 00 00 00
       0.0 0.0 0.0 0.0
0000c0 00 00 00 00 00 00 00 00 00 00 00 00 00 00 00 00
       0.0 0.0 0.0 0.0
0000d0 00 00 00 00 00 00 00 00 00 00 00 00 00 00 00 00
       0.0 0.0 0.0 0.0
0000e0 00 00 00 00 00 00 00 00 00 00 00 00 00 00 00 00
       0.0 0.0 0.0 0.0
0000f0 00 00 00 00 00 00 00 00 00 00 00 00 00 00 00 00
       0.0 0.0 0.0 0.0
000100 00 00 00 00 00 00 00 00 00 00 00 00 00 00 00 00
       0.0 0.0 0.0 0.0
000110 00 00 00 00 00 00 00 00 00 00 00 00 00 00 00 00
       0.0 0.0 0.0 0.0
000120 00 00 00 00 00 00 00 00 00 00 00 00 00 00 00 00
       0.0 0.0 0.0 0.0
000130 00 00 00 00 00 00 00 00 00 00 00 00 00 00 00 00
       0.0 0.0 0.0 0.0
000140 00 00 00 00 00 00 00 00 00 00 00 00 00 00 00 00
       0.0 0.0 0.0 0.0
000150 00 00 00 00 00 00 00 00 00 00 00 00 00 00 00 00
       0.0 0.0 0.0 0.0
000160 00 00 00 00 00 00 00 00 00 00 00 00 00 00 00 00
       0.0 0.0 0.0 0.0
000170 00 00 00 00 00 00 00 00 00 00 00 00 00 00 00 00
       0.0 0.0 0.0 0.0
000180 00 00 00 00 00 00 00 00 00 00 00 00 00 00 00 00
       0.0 0.0 0.0 0.0
000190 00 00 00 00 00 00 00 00 00 00 00 00 00 00 00 00
       0.0 0.0 0.0 0.0
0001a0 00 00 00 00 00 00 00 00 00 00 00 00 00 00 00 00
       0.0 0.0 0.0 0.0
0001b0 00 00 00 00 00 00 00 00 00 00 00 00 00 00 00 00
       0.0 0.0 0.0 0.0
0001c0 00 00 00 00 00 00 00 00 00 00 00 00 00 00 00 00
       0.0 0.0 0.0 0.0
0001d0 00 00 00 00 00 00 00 00 00 00 00 00 00 00 00 00
       0.0 0.0 0.0 0.0
0001e0 00 00 00 00 00 00 00 00 00 00 00 00 00 00 00 00
       0.0 0.0 0.0 0.0
0001f0 00 00 00 00 00 00 00 00 00 00 00 00 00 00 00 00
       0.0 0.0 0.0 0.0

network_body._body_endoder.seq_layers.0.weight f4 [128, 138]
000000 66 ca 0a 3e 8d 9f 25 be 42 cd 99 bd 9b f1 08 be
       0.13553771 -0.16174145 -0.07509853 -0.13373415
000010 b8 df a1 3d fd 9b a3 3c 2f 8c ed 3d b5 eb 99 3b
       0.07903999 0.019971842 0.115990035 0.004697288
000020 9c 25 27 3d 6f 4f bf 3d 66 7b ce 3d 13 39 9f bc
       0.04080735 0.09341323 0.1008213 -0.019436395
000030 f6 12 0b 3d 6b 0e a5 bd 2c 0b e0 bd 3e 7c 81 3c
       0.03395363 -0.08059391 -0.10939631 0.015806314
000040 dc 61 9d 3d ec 72 b1 bc e1 55 bb 3d 22 7d ae bd
       0.07684681 -0.021661244 0.091472395 -0.08519961
000050 3e 46 1d 3d 07 ab 02 bb 2e 7d 9d bb a7 f6 a4 bd
       0.038397066 -0.0019938366 -0.0048061823 -0.08054858
000060 2e 3c 1f 3e 74 b7 02 be 37 01 1a be fa 37 99 3c
       0.155503 -0.12765294 -0.15039526 0.01870345
000070 d0 a1 78 3d 5d 88 13 be 89 3b 77 bc 4c 39 32 3d
       0.06070119 -0.14407487 -0.015089878 0.043511674
000080 c5 b4 b0 3c 1e 4d 92 bd d6 a6 c2 38 a1 fb 9d 3c
       0.021570573 -0.07143615 9.2817165e-05 0.019285025
000090 d3 30 7a 3d f5 76 99 bd e6 52 8a 3d 55 64 c0 bc
       0.06108172 -0.074933924 0.06754093 -0.023485342
0000a0 25 82 a9 3d ff 68 55 bb 11 8f b4 bd d0 30 61 3e
       0.08276776 -0.0032563803 -0.0881635 0.21991277
0000b0 9a 67 97 3d 04 72 38 bc 68 ee 94 3d 1d 57 af 3d
       0.07392807 -0.011257652 0.07272035 0.085615374
0000c0 7b 73 58 bd 6a f9 a8 3d 43 81 15 3e 9d c5 10 3d
       -0.052844506 0.08250697 0.1460009 0.03534471
0000d0 39 c3 eb bd f0 37 4a bd c8 ef 1d 3d d4 2a 84 bc
       -0.11511845 -0.049369752 0.03855875 -0.016133703
0000e0 b8 d9 18 3d 87 32 08 bd 7e 32 eb 3d 07 c5 f1 bd
       0.037317008 -0.03325131 0.1148424 -0.11805158
0000f0 67 34 19 3d 7c 6b 48 3d 58 66 c4 3b ef 4b b3 3a
       0.03740349 0.04893063 0.0059936456 0.0013679246
000100 2e f5 81 3c af d2 f1 3b 6c be a0 bd 10 3b 1d 3c
       0.015863981 0.007379852 -0.0784882 0.009596601
000110 3f a1 be 3c 98 a7 a1 bd 8b 95 03 3d d0 67 e5 bc
       0.023270248 -0.07893294 0.032125037 -0.028003603
000120 41 ab 05 bd 28 bf 0b 3d 04 8f c2 bd 61 13 87 3c
       -0.032634024 0.034117848 -0.09499934 0.016488733
000130 e7 3c 88 bc 0f 54 04 bd 5f 39 29 3d 4b 87 fa bb
       -0.016630603 -0.032306727 0.04131448 -0.0076455227
000140 1f f9 cb 3c 56 d4 ad 3d f6 52 3c 3d 0b f5 1b be
       0.024899064 0.084877655 0.045977555 -0.15230195
000150 63 9c a2 bc f3 ea 19 bc 66 35 d8 bd 40 a6 2b 3e
       -0.019849962 -0.009394395 -0.1055706 0.16762638
000160 40 5d 43 bd 62 35 0b bd a2 f9 c5 bc b8 eb 5b be
       -0.047696352 -0.033986457 -0.024166886 -0.21476638
000170 7a bf 35 3d fc 79 15 bd 41 86 93 bc 34 f1 f2 3b
       0.04437206 -0.036493286 -0.018008353 0.0074140076
000180 c3 37 0b 3c 74 72 8f bc 27 f0 2c 3d d1 03 74 bc
       0.008497181 -0.01751063 0.042221215 -0.014893488
000190 f3 1c e3 3d 57 4e 13 be 64 c2 37 3d 1e 94 f2 bd
       0.11089506 -0.14385353 0.04486312 -0.11844657
0001a0 10 e2 0c 3d da 2d 8a bc e6 9f b3 3d ea d8 cc 3d
       0.034395278 -0.016867567 0.087707326 0.100023106
0001b0 09 b6 ae bc 3f 8a 70 3d 02 1b 8d bb 83 ed 92 bc
       -0.021327036 0.05872559 -0.004306198 -0.01793552
0001c0 cb 9f 02 bd 0f 48 b4 3c 89 73 45 bd b6 28 dc bd
       -0.03189067 0.022007016 -0.048205886 -0.107499525
0001d0 7c 90 0e bc bd 09 bb bd f2 f6 6e bd 08 63 eb bb
       -0.00870144 -0.09132717 -0.058340974 -0.0071834363
0001e0 0b d8 89 be 9b ac 4d 3d 79 05 6b bd 19 39 9c bd
       -0.2692264 0.050213438 -0.057378266 -0.07628078
0001f0 91 85 f5 3d 0e 5e f8 3d 7a cc be 3b 26 6c a9 bd
       0.119883664 0.121273145 0.0058227153 -0.08272581
000200 42 ac a6 bd ba 15 8a 3c f7 8d 3e 3d 9a fa 44 3d
       -0.08138324 0.016856063 0.046522107 0.048090555
000210 d0 e1 a6 bd ce e6 c7 bd 28 df ba bc 02 a3 aa bd
       -0.08148539 -0.097608194 -0.022811487 -0.083318725
000220 c6 8d 90 bc 21 bd 6c 3d 5f c1 a5 bd 69 b0 e0 3d
       -0.017645728 0.057797555 -0.08093523 0.109711476
000230 ff a4 be bd 32 16 4c bc 65 90 38 3b 76 d4 e9 3b
       -0.09308814 -0.012456464 0.0028162238 0.007135923
000240 c7 03 a7 3d 22 da bb bd a8 3f 68 bd f6 23 04 be
       0.08155017 -0.09172465 -0.056701332 -0.12904343
000250 30 f0 41 bd f2 c8 b8 bd 89 9f f8 bd 98 a5 c7 bd
       -0.0473482 -0.09022702 -0.12139804 -0.097483814
000260 b8 7f 91 3d 23 57 80 3d c2 88 4e 3c a6 4f 51 bd
       0.071044385 0.0626662 0.012605848 -0.05110135
000270 9c 09 1c be 30 c2 86 bc f2 15 c4 bd ff 85 2f bd
       -0.1523804 -0.016450018 -0.09574498 -0.042852398
000280 ab 8a 1a bc 0a 0a 52 be 71 ed 8d 3d 10 1e b3 bd
       -0.009432475 -0.20511642 0.06930054 -0.08745968
000290 67 e8 70 3d a3 4e 96 bd 02 e9 d9 bc e4 61 d2 3c
       0.058815386 -0.073392175 -0.026600365 0.025681444
0002a0 03 3b cc 3d 77 89 69 bd f4 da 0b 3d 56 b1 d1 bc
       0.09972193 -0.057015862 0.034144357 -0.025597256
0002b0 1d b1 ad 3b 7e f0 9c 3d 0c 0d d2 3c 28 7f 28 3d
       0.0053006546 0.07663058 0.025640987 0.04113689
0002c0 cc 11 96 bc 38 66 06 bd ba 3a d0 bd 9d 06 9b bd
       -0.018319033 -0.032812327 -0.10167451 -0.07569621
0002d0 2c 56 1a bd 76 6d 5c bc ce 44 63 bd 25 80 93 3d
       -0.037679836 -0.013453832 -0.05548554 0.07202176
0002e0 62 42 62 bd 81 78 2a 3d 94 4e 8c bd 5e 08 d9 3d
       -0.05523909 0.041618828 -0.06850925 0.10597299
0002f0 c0 80 3e 3d 50 b8 90 bd 2b 5e 89 bd 12 fe 6b bd
       0.046509504 -0.07066405 -0.06707414 -0.057615347
000300 be eb 1a bd 83 1b b3 3d d1 d9 0a bc 63 49 fc bb
       -0.037822478 0.08745482 -0.008474783 -0.007699178
000310 05 db 80 bd 89 2c 81 3d d2 70 85 bb ca ea 4f 3d
       -0.06291775 0.063073225 -0.004072287 0.05076102
000320 b3 f8 f9 3d d1 04 d3 bd ec 63 b8 3d f1 59 ec ba
       0.12205639 -0.10303653 0.090034336 -0.0018032176
000330 8d 20 05 3d e1 43 c0 bb 47 71 f7 3c 6f 7e d5 3d
       0.032501746 -0.005867467 0.030205382 0.10424506
000340 d0 d3 02 3d 23 b5 ae bc 8f ee a8 3d ad 5f 18 bd
       0.03194028 -0.021326607 0.082486264 -0.03720062
000350 21 0c 89 bb 93 1e 12 bb e5 44 cf 3d b7 ff 20 be
       -0.004182354 -0.0022296056 0.101205625 -0.15722547
000360 f7 1b 6e bc 95 66 89 bd 46 fa ec bc c7 00 2d 3d
       -0.0145330345 -0.06709019 -0.028927933 0.04223707
000370 56 c8 9b 3d ed 60 c8 3d 50 7b cb bd aa 27 82 bd
       0.076065704 0.09784112 -0.09935629 -0.063552216
000380 a4 c8 8f 3d e3 5f 1d 3e 8b cb 1a be c0 b9 49 be
       0.07020691 0.15368609 -0.15116708 -0.19699764
000390 b5 9d 75 be 7b cc c4 bd 33 b6 a0 bd 47 52 2e 3c
       -0.23985942 -0.09609314 -0.07847252 0.010639734
0003a0 e7 57 a2 bc 4c 16 a6 3d 25 92 b5 bd 2d f8 92 bc
       -0.019817306 0.081097215 -0.088657655 -0.017940605
0003b0 9b 83 6c 3e c1 84 02 3e 5a e6 a3 bc dd 81 ad bd
       0.23097079 0.12745954 -0.020007301 -0.08472035
0003c0 d7 3f e3 3b c7 c2 7c 3d 66 96 64 bd 4b fb 04 bd
       0.0069351005 0.06170919 -0.055807494 -0.032466214
0003d0 45 17 16 bc ae 84 8c 3c c2 c2 08 3d 4a 01 20 3d
       -0.009160821 0.01715311 0.03338886 0.03906373
0003e0 64 f4 1e bd 3a 41 05 be e7 dc 08 3e 9c b5 95 3c
       -0.038807288 -0.13013163 0.13365518 0.018275075
0003f0 1f 66 01 3e 9d a6 97 bc 87 57 9d bd a8 13 4b 3d
       0.12636612 -0.018512065 -0.0768271 0.049579293

network_body._body_endoder.seq_layers.2.bias f4 [128]
000000 00 00 00 00 00 00 00 00 00 00 00 00 00 00 00 00
       0.0 0.0 0.0 0.0
000010 00 00 00 00 00 00 00 00 00 00 00 00 00 00 00 00
       0.0 0.0 0.0 0.0
000020 00 00 00 00 00 00 00 00 00 00 00 00 00 00 00 00
       0.0 0.0 0.0 0.0
000030 00 00 00 00 00 00 00 00 00 00 00 00 00 00 00 00
       0.0 0.0 0.0 0.0
000040 00 00 00 00 00 00 00 00 00 00 00 00 00 00 00 00
       0.0 0.0 0.0 0.0
000050 00 00 00 00 00 00 00 00 00 00 00 00 00 00 00 00
       0.0 0.0 0.0 0.0
000060 00 00 00 00 00 00 00 00 00 00 00 00 00 00 00 00
       0.0 0.0 0.0 0.0
000070 00 00 00 00 00 00 00 00 00 00 00 00 00 00 00 00
       0.0 0.0 0.0 0.0
000080 00 00 00 00 00 00 00 00 00 00 00 00 00 00 00 00
       0.0 0.0 0.0 0.0
000090 00 00 00 00 00 00 00 00 00 00 00 00 00 00 00 00
       0.0 0.0 0.0 0.0
0000a0 00 00 00 00 00 00 00 00 00 00 00 00 00 00 00 00
       0.0 0.0 0.0 0.0
0000b0 00 00 00 00 00 00 00 00 00 00 00 00 00 00 00 00
       0.0 0.0 0.0 0.0
0000c0 00 00 00 00 00 00 00 00 00 00 00 00 00 00 00 00
       0.0 0.0 0.0 0.0
0000d0 00 00 00 00 00 00 00 00 00 00 00 00 00 00 00 00
       0.0 0.0 0.0 0.0
0000e0 00 00 00 00 00 00 00 00 00 00 00 00 00 00 00 00
       0.0 0.0 0.0 0.0
0000f0 00 00 00 00 00 00 00 00 00 00 00 00 00 00 00 00
       0.0 0.0 0.0 0.0
000100 00 00 00 00 00 00 00 00 00 00 00 00 00 00 00 00
       0.0 0.0 0.0 0.0
000110 00 00 00 00 00 00 00 00 00 00 00 00 00 00 00 00
       0.0 0.0 0.0 0.0
000120 00 00 00 00 00 00 00 00 00 00 00 00 00 00 00 00
       0.0 0.0 0.0 0.0
000130 00 00 00 00 00 00 00 00 00 00 00 00 00 00 00 00
       0.0 0.0 0.0 0.0
000140 00 00 00 00 00 00 00 00 00 00 00 00 00 00 00 00
       0.0 0.0 0.0 0.0
000150 00 00 00 00 00 00 00 00 00 00 00 00 00 00 00 00
       0.0 0.0 0.0 0.0
000160 00 00 00 00 00 00 00 00 00 00 00 00 00 00 00 00
       0.0 0.0 0.0 0.0
000170 00 00 00 00 00 00 00 00 00 00 00 00 00 00 00 00
       0.0 0.0 0.0 0.0
000180 00 00 00 00 00 00 00 00 00 00 00 00 00 00 00 00
       0.0 0.0 0.0 0.0
000190 00 00 00 00 00 00 00 00 00 00 00 00 00 00 00 00
       0.0 0.0 0.0 0.0
0001a0 00 00 00 00 00 00 00 00 00 00 00 00 00 00 00 00
       0.0 0.0 0.0 0.0
0001b0 00 00 00 00 00 00 00 00 00 00 00 00 00 00 00 00
       0.0 0.0 0.0 0.0
0001c0 00 00 00 00 00 00 00 00 00 00 00 00 00 00 00 00
       0.0 0.0 0.0 0.0
0001d0 00 00 00 00 00 00 00 00 00 00 00 00 00 00 00 00
       0.0 0.0 0.0 0.0
0001e0 00 00 00 00 00 00 00 00 00 00 00 00 00 00 00 00
       0.0 0.0 0.0 0.0
0001f0 00 00 00 00 00 00 00 00 00 00 00 00 00 00 00 00
       0.0 0.0 0.0 0.0

network_body._body_endoder.seq_layers.2.weight f4 [128, 128]
000000 2b 02 a8 3c ba f2 de bc 1d 1b 6f bd b6 3d 0e bd
       0.020508846 -0.02721535 -0.058375467 -0.03472682
000010 9a b6 fd bd 59 c6 ee bc 95 c1 e2 3d da bf 0c 3e
       -0.12388344 -0.029147314 0.11072079 0.1374506
000020 7a e2 d7 3d db e3 91 bd 5c 6c 1c 3c 64 4b 81 3d
       0.10541244 -0.07123538 0.009547319 0.06313208
000030 38 fa 9c bb 30 fc 89 bc 14 10 77 bd a0 50 01 3e
       -0.0047905706 -0.016843885 -0.060318068 0.12628412
000040 d8 f7 95 3d 65 ac 81 3d 42 8d 87 3d f5 85 43 bd
       0.07322663 0.0633171 0.0661874 -0.047735173
000050 41 a4 3e bd 13 32 3a 3d 75 30 55 3d 03 a1 b6 3d
       -0.046543363 0.04545791 0.052048165 0.08917429
000060 9b 83 ae bd eb 86 a1 3d df 23 2e 3d dc 4c 94 3d
       -0.085211955 0.07887062 0.042514678 0.07241222
000070 5f c6 1d bd 75 82 df bd c8 cb 85 bd 66 31 14 be
       -0.03851926 -0.109135546 -0.06533009 -0.14471969
000080 48 cd 24 3e 3b cf 05 be 7d 5e ac bd d3 dd db bc
       0.16093934 -0.13067333 -0.0841646 -0.026839172
000090 0a 4e d5 3b 11 bc 6c bc 49 e9 f0 3c e1 8e 45 be
       0.006509547 -0.014449135 0.029408114 -0.19292785
0000a0 1d 76 17 be 5d 09 08 3e bb 47 58 bd 24 5e 68 3d
       -0.1479115 0.13284822 -0.052802783 0.056730404
0000b0 33 e4 57 3c 27 7c 85 3d 5f e1 53 bc 1b 85 cb bc
       0.0131769655 0.06517821 -0.012932151 -0.024843743
0000c0 e8 4c e3 bd 67 91 8d 3c 83 5a 23 be 4f bc a1 bd
       -0.11098653 0.017281247 -0.15952496 -0.07897245
0000d0 79 d9 c1 3d 64 c9 14 bd 75 78 a5 3d fa 87 da bd
       0.09465308 -0.036324874 0.08079616 -0.10670467
0000e0 40 40 77 3d bb b1 c7 3d 31 4a 66 3d 37 77 80 bb
       0.060364008 0.09750696 0.0562231 -0.0039204615
0000f0 b4 52 31 bd db eb a2 bc 49 85 f9 bc 02 7c 8e bd
       -0.043291762 -0.019887855 -0.030459063 -0.06957246
000100 18 8e d7 3d ef 3d 3c 3d ad 7b f3 3d db 80 43 bd
       0.10525149 0.045957502 0.11888824 -0.047730308
000110 03 e1 fb 3d 5c f9 87 3d 51 8a 21 3e 2d 90 72 3d
       0.12298777 0.066393584 0.1577542 0.059219528
000120 ce 6e 12 bd a9 19 08 3e 97 da a2 3c 71 e9 32 3e
       -0.035750203 0.13291039 0.019879622 0.17471863
000130 9e 23 57 bb 36 e4 1a be 0c 5d 80 3d 0d 54 99 3d
       -0.0032827626 -0.15126118 0.06267747 0.074867345
000140 c9 df e6 3c 71 ae 19 bd 51 f2 f2 3d 27 ea 66 39
       0.028182881 -0.037519876 0.118626244 0.00022021738
000150 8b 35 d8 bc e7 d2 f6 3c 94 16 cf bc 7a 9a 9e bc
       -0.026392719 0.030129863 -0.02527932 -0.01936077
000160 67 2f 03 be 9e c4 3e bd bd af 0e 3e f8 81 90 3d
       -0.12811051 -0.046574228 0.13934226 0.070560396
000170 2e 94 23 bc d9 bb 39 bd db 48 3a bd 2e b7 38 be
       -0.009984059 -0.04534516 -0.045479637 -0.18038628
000180 7c 8c c4 3d f7 b4 38 bd 25 5d 95 bd d2 32 a0 3d
       0.09597108 -0.045094457 -0.072931565 0.07822193
000190 a3 fc 03 bd 4c bc 75 3d 51 45 aa 3d eb d0 38 3d
       -0.032223355 0.059994027 0.08314002 0.045121115
0001a0 56 cc 4b 3c 58 54 3b be 4e 77 01 be df a4 a1 bc
       0.012438854 -0.18293893 -0.12643167 -0.019731937
0001b0 84 7f e9 3d da f5 36 3d c9 e7 46 bd 00 e9 9d bc
       0.11401275 0.044668056 -0.04856089 -0.019276142
0001c0 ee ec 8e bd cf 39 bd 3d e6 16 3e bd 8a 53 6a bd
       -0.069787845 0.09239542 -0.046408556 -0.057208575
0001d0 ae da ba bc 37 94 48 3c 75 ee 8b bd 7e 4f 54 bd
       -0.022809353 0.012242368 -0.068325914 -0.051833622
0001e0 e3 1a 01 3e 73 60 be 3d 9f 5b 3d 3b 6c 20 39 bd
       0.12607913 0.0929574 0.0028893722 -0.045196936
0001f0 8a fc c6 3d 6a fe 9e 3d 5f dd 0e 3e 48 13 d0 3d
       0.09716137 0.077633694 0.13951634 0.101599276
000200 9f ea c5 3d d4 05 ae 3c b1 95 52 be b7 47 8b bd
       0.09663891 0.021243013 -0.20564915 -0.06800788
000210 f3 39 b6 bc e7 f1 4e 3c d6 7a 03 3e ec ec ed bd
       -0.02224443 0.012630916 0.12839827 -0.11617455
000220 f1 90 ab 3d 6e 8c bc bd 39 91 5e bc b9 d9 cc bc
       0.08377255 -0.09206472 -0.0135844285 -0.025006162
000230 f5 d7 6b 3d 72 b2 7b 3d 19 1d b1 3c 62 4f 1b 3d
       0.057579 0.061449476 0.02162032 0.037917502
000240 0a a0 15 be 09 7d 1c 3d d1 90 6d bd 86 02 00 3d
       -0.14611831 0.03820518 -0.057999436 0.031252407
000250 2a 87 1a 3d 7b 85 ab 3d 76 57 e4 3c 80 d6 d2 bc
       0.03772656 0.08375069 0.027873736 -0.025737047
000260 8e 98 7e 3e 5c d0 be bd 80 f1 54 be 43 82 eb bc
       0.24862882 -0.09317085 -0.2079525 -0.028748637
000270 11 98 22 3e a1 89 44 bd 7e 4b 8b bb c5 6c 31 3d
       0.15878321 -0.047982816 -0.0042509427 0.04331662
000280 76 3c 29 be 3f b8 ce 3c 24 56 b2 bc 9d 86 98 bd
       -0.1652697 0.02523434 -0.02176959 -0.074475504
000290 32 57 cb 3d aa 73 43 3e 6c 85 91 bd d1 27 00 3d
       0.099287406 0.19087091 -0.07105526 0.031287972
0002a0 a4 dc 66 3d b5 7b fb bd 68 fa 22 bd 5e b5 92 3d
       0.056362763 -0.122794546 -0.039789587 0.07163499
0002b0 75 aa a1 3d 5a c3 a7 3d a4 ad 02 be b7 33 f6 3d
       0.0789384 0.08191557 -0.12761551 0.120215826
0002c0 bb bb b2 3d 97 e1 22 3d 37 e4 57 bd 6f 80 3b bd
       0.08727213 0.03976592 -0.052707877 -0.04577678
0002d0 26 72 8a bd 72 82 76 3d a4 3b a8 3d 4f f7 e6 3b
       -0.06760053 0.060182996 0.082145005 0.0070485245
0002e0 92 1f 57 bd 3b cf 2c 3c 4f 25 ab 3d 34 e0 76 bc
       -0.052520342 0.0105474545 0.083567254 -0.015068103
0002f0 e9 18 69 3b 08 cc 18 3e a1 98 c0 3d d3 9f d2 3d
       0.0035567826 0.14921582 0.09404112 0.1028439
000300 27 91 83 3d 7a a5 8d 3d 25 8c 87 bd a9 60 0e 3c
       0.0642417 0.06916328 -0.06618527 0.008690038
000310 6b 04 ec bc 39 e8 5b 3e 03 5d 94 3b fc a3 1a 3b
       -0.0288107 0.21475305 0.0045276894 0.0023596277
000320 9c f7 2c bd 1f 46 ad bd b2 c9 06 3e a5 66 30 bd
       -0.042228326 -0.0846064 0.13162878 -0.04306664
000330 0f ea 11 bd e5 fe 58 3a 94 9a fe bd 0c 09 d4 3c
       -0.035623606 0.00082777283 -0.12431827 0.02588322
000340 e7 ec 0e 3e 3b 0a 9c 3c de cb c7 bd d8 82 7e bc
       0.13957559 0.019047847 -0.097556815 -0.015534125
000350 8d 3d 0c 3d 8b 63 e0 3d 94 76 32 3e b5 d0 3c 3e
       0.034238387 0.10956486 0.17428046 0.1843899
000360 e6 52 b5 3d da b5 1f 3e 07 47 4f be 7c 76 dd bd
       0.08853702 0.15596715 -0.20241939 -0.10813615
000370 50 ba 03 bc 3a b6 5d 3b 22 b5 16 3e 9b 6f 5f 3e
       -0.008040026 0.003383054 0.14717534 0.21819918
000380 05 19 49 3b 4e 6c 10 bd f8 08 f0 bc 8d cf 8d bc
       0.0030685079 -0.035259537 -0.029301152 -0.017310882
000390 92 0b 92 3c fa 4b bd 3d 98 b7 80 bc fe db d8 bd
       0.017827783 0.09243007 -0.015712544 -0.10588835
0003a0 9c 18 a4 bd 39 66 50 3d 4c 3f b9 3c 0b 4e fc bd
       -0.08012506 0.050878737 0.02261319 -0.12319573
0003b0 e3 28 97 bd 7d 28 e0 bd 71 73 23 3e 99 b9 87 bc
       -0.073808454 -0.109452225 0.15962006 -0.016567992
0003c0 61 d1 02 3d a4 7d 88 3d 1a 24 ce bd bd e9 7b 3d
       0.03193796 0.06664589 -0.100654796 0.061502207
0003d0 b1 9d ba 3d 34 46 ba bc 69 7d 21 3d e1 53 17 bd
       0.091121085 -0.022738554 0.03942624 -0.036945228
0003e0 a4 b5 04 bc fe f0 7f bd 17 ce cc 3a 06 40 01 3d
       -0.008099947 -0.062485687 0.0015625384 0.031555198
0003f0 26 0d f1 3c 26 6b e4 bd 15 bc ec bd 03 b0 96 bd
       0.029425215 -0.111532494 -0.11559311 -0.0735779
