Results/test23/SnowBall/SnowBall-576.pt (torch, 287319 bytes, 14 tensors)

discrete_act_size_vector f4 [1, 2]
00000000: 0000 4040 0000 4040
3.0 3.0

network_body._body_endoder.seq_layers.0.weight f4 [128, 138]
00000000: 9f40 df3d cbf7 12bb 36dc fe3a 6cdc 55bd
00000010: 908c b13d a4ea b5bd e05a e03d 42e5 c2bd
00000020: 568b 373d b9ad 603d b0c9 2abc 9416 023e
00000030: 024b 9939 c606 a3bd 9b56 e43a d972 6fba
00000040: 4d29 0bbe c38d 153e d5a8 12bd 2272 a33d
00000050: 622b c8bb 1d59 a53d b328 3b3c 552a 37be
00000060: 1215 3ebc be91 19bd d67c 963b 46bf 263c
00000070: 294a 03be ec30 cebd 8987 b6bd 24f8 41bd
00000080: 136c c73d dcb4 863d d09a 34bb 619b e0bc
00000090: 380c 64bd c821 8f3d db5f 58bc 1920 30be
000000a0: 7239 12bc 7917 6f3d 31d7 4dbd 6725 af3d
000000b0: 658f 913c 34b6 193e 0a97 343e 2cf0 64bd
000000c0: a07a 493d 322a d63d 5487 73bd 75f7 ac3d
000000d0: 45e9 563c abf0 583d 709c 2b3e 08a6 35be
000000e0: f6ee 9abd e6af 04bc 00f0 70bd 10db f8bc
000000f0: ad4c 563e fbd8 133d a7f2 663d 8c81 35bd
00000100: 6a98 803d 0012 f4bd 9097 33bc 91b8 aabd
00000110: 03c9 a0bd d96f 2abc 30b8 3b3b 5695 82bd
00000120: 1ff2 34bc 0b78 1c3d 4865 1f3c 5c7c be3c
00000130: 0eb5 a43d a36e dcbc 51eb 723c 874a 1c3d
00000140: db63 b83d 8016 943d ed22 45bd 32f8 253d
00000150: ab6a d4bd 072b be3b 837c b7bd 7573 d23d
00000160: 22ae 043d eee2 54bc d5ea 1dbd 3c22 5e3d
00000170: 458f 393d e8a8 95bd 7efe c33d b2f2 0dbe
00000180: b5a0 b73c 7e58 0bbd 0287 76bd b083 3a3d
00000190: 5ca7 f9bd c779 ae3d 0758 0abd a7a5 1e3e
000001a0: 74eb 3c3c 7e2c fc3c ae57 f0bd 3776 43bd
000001b0: a9a6 f93c 5703 32bd a912 983d 4562 603d
000001c0: 00f9 e6bd 28cf 3dbd 3f7b d1bd 93f4 dfbd
000001d0: 49a9 3b3d 8c12 10be 3710 4b3d 73ac f6bd
000001e0: b497 583c ad8c 113d 3d78 c33d 2ee0 a33d
000001f0: 5d8c 8b3d 5794 74bd 01b0 7ebc d154 19be
00000200: 1458 843c be9a 9dba c5cf 10bc 6601 053d
00000210: 628a 79bd 376e e93d 076a 4e3d 0b2c 6cbd
00000220: 1e96 adbb d6bc bdbd edd2 543c 7b8b a23d
00000230: 313e 003e e150 073e 5bd3 cb3d a82b 2bbd
00000240: 0842 43bc 750b ae3d fb2e 5d3d 3fdc 68bc
00000250: 7545 15be 2467 05be f175 27bc 019d 97bd
00000260: 1fab 3f3c ae21 093d 90c2 cc3d 7d26 e53d
00000270: 488c b7bc 00a9 6b3b d37f 803d 84bc 5e3c
00000280: b20e 17be e348 833d 8974 1ebd 30b0 e6bc
00000290: 1150 d3bd c951 553c 3256 983d 543a 2dbe
000002a0: 139c a83c eeac 133e 349c 93bc 47a5 86bc
000002b0: d53b c03d f9f1 cf3c 99ba 473c 37c4 eebc
000002c0: f701 f83c 54e8 c53c fc81 c2bd 81d8 3d3d
000002d0: eb64 99bd e002 19bd 822f 233e 2dde 343d
000002e0: ae77 863d 094c 343c 2eb8 5cbb b36c 043e
000002f0: 46b4 2dbd 5eed 88bd ea9b de3d 609f 313b
00000300: 23f8 bd3d 915b 16bd 55be 0fbe b2d9 d2bd
00000310: f38c adbd a069 0bbd 72be 013e cc2d e5bd
00000320: b38b 92bd 376b d2bc 94e4 d2bb 80dd 0ebc
00000330: 44b1 f43d 1905 3f3d 920e 45bd 255e 7abd
00000340: 6fbc 393d 4b83 abbc 5cbf 693d fb37 9c3d
00000350: 5de9 613a 4b9f eebd 7c1d 313e e4b4 4c3b
00000360: 8ecc 97bd bb67 003c be90 453d 574b 7ebc
00000370: 54e3 77bd 5e39 9ebd 2d3b 783b 8a48 993c
00000380: 4ad4 a5bb 8f8f 4d3d 00a9 a03d a162 72bc
00000390: c284 5ebd fe13 b83d 5907 3e38 93d4 febd
000003a0: fbbf d43d 4f1f 76bd dc51 0a3d fbbd 3e3e
000003b0: 26ae 1c3c d0c8 b53d 7948 fe3d 8231 94bd
000003c0: f6c6 f5bd d031 80bb 6496 d53c 2d19 923d
000003d0: 5811 dcbd e37e 10bd 2d5e 5dbe 97dd 07bd
000003e0: c5f0 2cbd 8cca 853d 0f50 2f3e 3119 4dbc
000003f0: c90c ef3d 971e 89bd 7ca4 9e3d c585 e63c
0.10900997 -0.0022425528 0.001944429 -0.052212164 0.08669388 -0.08882645 0.10954833 -0.09516384
0.044810615 0.054853175 -0.010424063 0.12703925 0.0002923832 -0.07960276 0.001742083 -0.000913424
-0.13589974 0.14604859 -0.035805542 0.079807535 -0.0061086873 0.08073638 0.011423278 -0.17887242
-0.011601703 -0.037492506 0.0045925183 0.010177439 -0.12821259 -0.10067925 -0.0891257 -0.047355786
0.097374104 0.06577465 -0.0027558096 -0.02741784 -0.055675715 0.06988865 -0.0132064475 -0.17199744
-0.008924829 0.058371995 -0.05025405 0.08552056 0.017768571 0.15010911 0.17635742 -0.05589311
0.04918921 0.10457267 -0.05945523 0.08445636 0.013117139 0.052963894 0.16758895 -0.17739117
-0.075651094 -0.008098578 -0.05882263 -0.030377895 0.20927687 0.0360956 0.056383755 -0.044313
0.06279071 -0.11917496 -0.010961428 -0.083359845 -0.0785084 -0.010402643 0.002864372 -0.0637614
-0.011044054 0.03820042 0.009728737 0.023252659 0.08042346 -0.026908224 0.014826612 0.038157012
0.09003421 0.07230854 -0.04812901 0.0405199 -0.10371908 0.005803469 -0.089592956 0.10275928
0.03239263 -0.012993557 -0.03855403 0.054231867 0.045302648 -0.07307607 0.09570025 -0.13862112
0.022415498 -0.03401994 -0.060187347 0.045535743 -0.121901244 0.08519321 -0.033775356 0.15492879
0.011530746 0.030782934 -0.117354736 -0.04772016 0.030474978 -0.043460216 0.07425434 0.054781217
-0.11277962 -0.046340138 -0.102285855 -0.10935321 0.04581574 -0.14069575 0.04957601 -0.12044611
0.013219763 0.03553455 0.09544418 0.08001743 0.068138815 -0.05971178 -0.015544892 -0.14973761
0.01615528 -0.0012024266 -0.008838599 0.032472037 -0.060922988 0.11397975 0.050394084 -0.05765919
-0.0052974364 -0.09264533 0.012989742 0.0793676 0.12523724 0.13214447 0.09952422 -0.04178968
-0.011917599 0.08498279 0.053999882 -0.014212667 -0.14577277 -0.13027626 -0.0102209905 -0.07402993
0.011698513 0.033479385 0.09998047 0.11188982 -0.022405759 0.0035958886 0.062743805 0.01359475
-0.147517 0.064103864 -0.038685355 -0.028160185 -0.10318006 0.013019987 0.074383155 -0.16916782
0.020582234 0.14421436 -0.01801882 -0.016436232 0.09386412 0.025383936 0.012190484 -0.029146297
0.030274374 0.024158634 -0.09497449 0.046349052 -0.07489952 -0.037356257 0.15936092 0.044157196
0.06565796 0.011004456 -0.0033679116 0.1293209 -0.04240825 -0.06685899 0.10869582 0.0027103052
0.09275844 -0.03670842 -0.1403745 -0.10295428 -0.084741496 -0.03403628 0.12670305 -0.11190376
-0.07155552 -0.02568589 -0.00643594 -0.008719802 0.11947873 0.04663572 -0.0481096 -0.06112494
0.04534572 -0.020936629 0.05706726 0.07627865 0.00086178427 -0.116514765 0.17296404 0.003123575
-0.074120626 0.007837231 0.04823374 -0.015520892 -0.06051953 -0.07725786 0.0037877068 0.018711347
-0.005060707 0.050185736 0.07844734 -0.014794023 -0.054325826 0.08988188 4.5306373e-05 -0.12442889
0.1038818 -0.060088452 0.033769473 0.1862716 0.009563005 0.088761926 0.12416167 -0.07236005
-0.120008394 -0.003912188 0.026072688 0.07133708 -0.107454956 -0.03527726 -0.21617956 -0.03317031
-0.042221803 0.065327734 0.17120384 -0.012518213 0.116723605 -0.06695288 0.07746217 0.028139958

network_body._body_endoder.seq_layers.0.bias f4 [128]
00000000: 0000 0000 0000 0000 0000 0000 0000 0000
00000010: 0000 0000 0000 0000 0000 0000 0000 0000
00000020: 0000 0000 0000 0000 0000 0000 0000 0000
00000030: 0000 0000 0000 0000 0000 0000 0000 0000
00000040: 0000 0000 0000 0000 0000 0000 0000 0000
00000050: 0000 0000 0000 0000 0000 0000 0000 0000
00000060: 0000 0000 0000 0000 0000 0000 0000 0000
00000070: 0000 0000 0000 0000 0000 0000 0000 0000
00000080: 0000 0000 0000 0000 0000 0000 0000 0000
00000090: 0000 0000 0000 0000 0000 0000 0000 0000
000000a0: 0000 0000 0000 0000 0000 0000 0000 0000
000000b0: 0000 0000 0000 0000 0000 0000 0000 0000
000000c0: 0000 0000 0000 0000 0000 0000 0000 0000
000000d0: 0000 0000 0000 0000 0000 0000 0000 0000
000000e0: 0000 0000 0000 0000 0000 0000 0000 0000
000000f0: 0000 0000 0000 0000 0000 0000 0000 0000
00000100: 0000 0000 0000 0000 0000 0000 0000 0000
00000110: 0000 0000 0000 0000 0000 0000 0000 0000
00000120: 0000 0000 0000 0000 0000 0000 0000 0000
00000130: 0000 0000 0000 0000 0000 0000 0000 0000
00000140: 0000 0000 0000 0000 0000 0000 0000 0000
00000150: 0000 0000 0000 0000 0000 0000 0000 0000
00000160: 0000 0000 0000 0000 0000 0000 0000 0000
00000170: 0000 0000 0000 0000 0000 0000 0000 0000
00000180: 0000 0000 0000 0000 0000 0000 0000 0000
00000190: 0000 0000 0000 0000 0000 0000 0000 0000
000001a0: 0000 0000 0000 0000 0000 0000 0000 0000
000001b0: 0000 0000 0000 0000 0000 0000 0000 0000
000001c0: 0000 0000 0000 0000 0000 0000 0000 0000
000001d0: 0000 0000 0000 0000 0000 0000 0000 0000
000001e0: 0000 0000 0000 0000 0000 0000 0000 0000
000001f0: 0000 0000 0000 0000 0000 0000 0000 0000
0.0 0.0 0.0 0.0 0.0 0.0 0.0 0.0
0.0 0.0 0.0 0.0 0.0 0.0 0.0 0.0
0.0 0.0 0.0 0.0 0.0 0.0 0.0 0.0
0.0 0.0 0.0 0.0 0.0 0.0 0.0 0.0
0.0 0.0 0.0 0.0 0.0 0.0 0.0 0.0
0.0 0.0 0.0 0.0 0.0 0.0 0.0 0.0
0.0 0.0 0.0 0.0 0.0 0.0 0.0 0.0
0.0 0.0 0.0 0.0 0.0 0.0 0.0 0.0
0.0 0.0 0.0 0.0 0.0 0.0 0.0 0.0
0.0 0.0 0.0 0.0 0.0 0.0 0.0 0.0
0.0 0.0 0.0 0.0 0.0 0.0 0.0 0.0
0.0 0.0 0.0 0.0 0.0 0.0 0.0 0.0
0.0 0.0 0.0 0.0 0.0 0.0 0.0 0.0
0.0 0.0 0.0 0.0 0.0 0.0 0.0 0.0
0.0 0.0 0.0 0.0 0.0 0.0 0.0 0.0
0.0 0.0 0.0 0.0 0.0 0.0 0.0 0.0

network_body._body_endoder.seq_layers.2.weight f4 [128, 128]
00000000: f41f 90bc 1002 9ebc d835 57bd 46c7 143e
00000010: 813d 40bd 4a64 7ebd cde4 21bd 81ba 8bbd
00000020: db71 473d 87a0 1ebe 812d 5b3d b063 84bd
00000030: b41f e1bd 49a9 06be 1c2b 21bc 983c c63c
00000040: 8d13 5b3d 92a9 da3d c03c 8dbd 11b7 55bc
00000050: ba14 303d afc6 d0bd 749f cfbd ed98 0abe
00000060: caff adbd 6cbd 523e 1dca d23d c7bc 38bd
00000070: 226d 923d 20bb 653e 82a6 76bb 85de fb3d
00000080: a198 b3bc c54d 093e 178c 473d 6c21 7bbe
00000090: 7582 853d 090c 803b ee21 dd3d 5f82 883c
000000a0: fa1c 513e 97fb 98bd 99bf c73c 455a d1bc
000000b0: 43da 043e 3b1a 903b ddf7 29bd 3300 b0bc
000000c0: d78d 22be 889f 3bbd 109f 593d 207d 3c3e
000000d0: 9ada 153e bb6e 12be dacc dc3d 02ee 163d
000000e0: f8a1 d8bb d25b 0f3c c919 ca3d 37c4 a23d
000000f0: 93a6 a93d e693 5bbd bc59 8fbd 0fe6 9cbc
00000100: 80b2 6e3d b08d 03bd b883 22bc c36c 223c
00000110: 2f18 16be 45fd a3bd 18e0 5f3d 6a70 e5bc
00000120: c106 203d f23e ad3d 65d9 9fbc b027 36bd
00000130: 57b0 2b3b f749 dabc 8d96 1b3d c2e0 fd3d
00000140: f6bd efbd aa94 2bbd 63a0 6f3c e24a 993d
00000150: a87f 6a3d 49fa 9cbd b266 dabd f6a7 5ebd
00000160: 307f 89bd 6bc5 15bd b213 ffbd 2529 27bd
00000170: 96d7 eb3d 5da4 1b3e b212 543d df8d a9bd
00000180: 3215 cd3c 4df0 cebd 198e c33c e1ec 553e
00000190: eaf1 c7bd 86c0 09bd 3dcb 963d db3c 113d
000001a0: 1861 b53c f333 9bbd 4a3c e9bd 974d cfbd
000001b0: ac0a 2f3d 1b59 35be 28df a4bd d9f6 323d
000001c0: b96e 9b3d 80d8 8fbd 4b74 32be 9324 7dbd
000001d0: 7775 cfbc b712 903d 6665 8a3d 6a55 debc
000001e0: 5feb 45bb 493b 453d 34ff 34bd d2f6 b5bd
000001f0: 468c 263e 477b 103e 6d37 603d 935a c03b
00000200: 5d05 633e 6759 313e c2f5 8f3d 4718 ec3b
00000210: e26a 0fbd 50e8 b03d 53de 083e 2c9f 2a3e
00000220: 9c18 c73b 4d5a e3bd 518c 4ebc 8588 9f3d
00000230: 735c a93d fab9 59bc 988e 1e3d 86ad b2bc
00000240: 66bd 033d 949e d63d 9c59 af3d be57 b1bd
00000250: dcbd f5bd 41ac c3bd 8502 a8bd c125 743d
00000260: 8be0 953b ed94 19bc 8f6a 283d 0209 b5bb
00000270: c1ae b5bd 4de7 c93c 797d 203e 6b89 0f3e
00000280: 46e5 60bd 97b6 423e 23ba 9cbc da34 143d
00000290: 14fe fa3c 3f87 93bd 332d 0bbd 686c 813d
000002a0: 10d1 6abd a747 893d cd09 3abd b809 943c
000002b0: c214 d4bc b5f3 82bc 195e 973d e977 d03d
000002c0: 8914 19bd 648d ec3d 2b3b 0a3d 4479 7ebc
000002d0: a43d e03b 9baa 36bb 5e6e 84bc 52c4 013e
000002e0: 634b 653c 9b5b 52bd 3b54 1f3d c7f8 063e
000002f0: 2e91 d63c 40da 8cbd 569a 44bd 12cd 98bd
00000300: 6469 91be 58f2 c33d 4b15 e6bc a195 063c
00000310: 9c34 bf3c 6a84 80bd e7c9 f3bc 3904 19bd
00000320: ad81 06bc e36e 8dbc b723 11be db26 e6bd
00000330: 7a50 953d 322c 9e3b 4562 b63d 32e4 9ebd
00000340: 76f2 b8bd 89ec 96bd 6c71 fabb 417d 6bbd
00000350: d1ff 19b9 af5a 843d 572a fcbb 04ee 3c3d
00000360: 9f05 413d 909d 0a3e e904 ca3c 54de 2bbe
00000370: 3b4b 65bd 138b 1f3d 10ae 7f3d e56a 61be
00000380: 4a07 42bc 9038 763c 3f7b 39bd 4d39 8e3c
00000390: 584e ef3d 9650 063e 5b29 e43c 5c46 053d
000003a0: fb63 d83d d444 e03c bf90 ac3c e8a5 dfbd
000003b0: 16ff d7bb b2f8 463d 363f 8f3d 3c5e 2b3d
000003c0: 4a8c 813d fe86 acbd 0b33 ed3d 000f 2e3e
000003d0: bc4d 25be 6bf5 1fbe 4e8e d83d 0481 0c3e
000003e0: d55f 133d 83ae 833d a17d 033e 37af a33c
000003f0: b047 903d 8694 09be 83a6 8abd de19 2a3d
-0.017593361 -0.019288093 -0.052541584 0.14529142 -0.046933655 -0.06210736 -0.039524842 -0.06822682
0.048692565 -0.15490924 0.053510193 -0.064643264 -0.10992375 -0.13150515 -0.009836938 0.024198815
0.053485442 0.10676874 -0.06896353 -0.013044135 0.042988516 -0.10194146 -0.10137835 -0.13534899
-0.084960535 0.20580071 0.10292456 -0.045101907 0.07149722 0.22434664 -0.0037635867 0.122983016
-0.021923365 0.13408573 0.048717584 -0.24524468 0.06519023 0.0039076847 0.10797487 0.016663728
0.2042121 -0.07469862 0.024383353 -0.02555574 0.12973885 0.004397658 -0.041496146 -0.02148447
-0.1587442 -0.045806438 0.05313021 0.18407106 0.14634171 -0.14300053 0.1078126 0.036848076
-0.006611105 0.008749919 0.098681994 0.07947581 0.08283725 -0.053607844 -0.06999537 -0.01915267
0.0582757 -0.032117546 -0.0099190995 0.009913626 -0.14657663 -0.08007292 0.05465707 -0.028007705
0.03906894 0.084592715 -0.019512841 -0.044471443 0.0026197636 -0.026646597 0.037985373 0.12396385
-0.11706154 -0.041889824 0.0146256415 0.07484986 0.05725065 -0.076649256 -0.10664119 -0.0543594
-0.06713712 -0.036565226 -0.124549285 -0.040810723 0.11515729 0.15199418 0.05177564 -0.08279013
0.02503452 -0.101044275 0.023871468 0.20891143 -0.09762938 -0.03363087 0.073629834 0.035458427
0.022141024 -0.07578268 -0.11388452 -0.10122221 0.042734787 -0.17709772 -0.08050376 0.043692444
0.07589478 -0.07023716 -0.17427175 -0.061802458 -0.025324566 0.070348196 0.067576215 -0.027140338
-0.0030200107 0.04815224 -0.044188693 -0.08884968 0.16264448 0.14109527 0.05474036 0.0058701723
0.22170015 0.1731926 0.070292965 0.0072050425 -0.03501404 0.0863806 0.1336606 0.16662282
0.0060759317 -0.11101208 -0.012606696 0.07789711 0.082695864 -0.013288969 0.038710207 -0.021811258
0.032163046 0.10479465 0.085620135 -0.086593136 -0.119991034 -0.09554339 -0.082036056 0.059606317
0.0045738867 -0.009373886 0.041117247 -0.0055247555 -0.08871222 0.024646426 0.15672864 0.14017265
-0.054906152 0.19014965 -0.019131726 0.036183216 0.030638732 -0.072035305 -0.033978652 0.06319505
-0.057328284 0.0670312 -0.045419503 0.01807104 -0.025888804 -0.01598535 0.073909946 0.10179121
-0.0373731 0.115504056 0.033747833 -0.015531842 0.0068432856 -0.0027872685 -0.016165908 0.12672547
0.013995024 -0.051356893 0.038898688 0.13180839 0.026192274 -0.068775654 -0.04799875 -0.07460989
-0.2840072 0.09567708 -0.028086325 0.008214385 0.023340516 -0.06275256 -0.02975936 -0.037357543
-0.008209628 -0.017264789 -0.1417378 -0.1123788 0.0729074 0.004827046 0.08905462 -0.077583686
-0.09030621 -0.07369334 -0.0076429155 -0.0574925 -0.00014686516 0.06462609 -0.007695477 0.046125427
0.0471245 0.13536668 0.024660544 -0.1678403 -0.05597995 0.03895099 0.06242186 -0.22013433
-0.011842558 0.015028134 -0.045283552 0.017361308 0.11684865 0.13116679 0.027851751 0.032537803
0.10565945 0.02737657 0.021065114 -0.10920316 -0.006591688 0.048577018 0.069944784 0.041837916
0.06325586 -0.08424185 0.11582001 0.1699791 -0.16142935 -0.15620963 0.105740175 0.1372109
0.035980064 0.0642977 0.12840892 0.01998101 0.07044923 -0.13435563 -0.06770041 0.041528575

network_body._body_endoder.seq_layers.2.bias f4 [128]
00000000: 0000 0000 0000 0000 0000 0000 0000 0000
00000010: 0000 0000 0000 0000 0000 0000 0000 0000
00000020: 0000 0000 0000 0000 0000 0000 0000 0000
00000030: 0000 0000 0000 0000 0000 0000 0000 0000
00000040: 0000 0000 0000 0000 0000 0000 0000 0000
00000050: 0000 0000 0000 0000 0000 0000 0000 0000
00000060: 0000 0000 0000 0000 0000 0000 0000 0000
00000070: 0000 0000 0000 0000 0000 0000 0000 0000
00000080: 0000 0000 0000 0000 0000 0000 0000 0000
00000090: 0000 0000 0000 0000 0000 0000 0000 0000
000000a0: 0000 0000 0000 0000 0000 0000 0000 0000
000000b0: 0000 0000 0000 0000 0000 0000 0000 0000
000000c0: 0000 0000 0000 0000 0000 0000 0000 0000
000000d0: 0000 0000 0000 0000 0000 0000 0000 0000
000000e0: 0000 0000 0000 0000 0000 0000 0000 0000
000000f0: 0000 0000 0000 0000 0000 0000 0000 0000
00000100: 0000 0000 0000 0000 0000 0000 0000 0000
00000110: 0000 0000 0000 0000 0000 0000 0000 0000
00000120: 0000 0000 0000 0000 0000 0000 0000 0000
00000130: 0000 0000 0000 0000 0000 0000 0000 0000
00000140: 0000 0000 0000 0000 0000 0000 0000 0000
00000150: 0000 0000 0000 0000 0000 0000 0000 0000
00000160: 0000 0000 0000 0000 0000 0000 0000 0000
00000170: 0000 0000 0000 0000 0000 0000 0000 0000
00000180: 0000 0000 0000 0000 0000 0000 0000 0000
00000190: 0000 0000 0000 0000 0000 0000 0000 0000
000001a0: 0000 0000 0000 0000 0000 0000 0000 0000
000001b0: 0000 0000 0000 0000 0000 0000 0000 0000
000001c0: 0000 0000 0000 0000 0000 0000 0000 0000
000001d0: 0000 0000 0000 0000 0000 0000 0000 0000
000001e0: 0000 0000 0000 0000 0000 0000 0000 0000
000001f0: 0000 0000 0000 0000 0000 0000 0000 0000
0.0 0.0 0.0 0.0 0.0 0.0 0.0 0.0
0.0 0.0 0.0 0.0 0.0 0.0 0.0 0.0
0.0 0.0 0.0 0.0 0.0 0.0 0.0 0.0
0.0 0.0 0.0 0.0 0.0 0.0 0.0 0.0
0.0 0.0 0.0 0.0 0.0 0.0 0.0 0.0
0.0 0.0 0.0 0.0 0.0 0.0 0.0 0.0
0.0 0.0 0.0 0.0 0.0 0.0 0.0 0.0
0.0 0.0 0.0 0.0 0.0 0.0 0.0 0.0
0.0 0.0 0.0 0.0 0.0 0.0 0.0 0.0
0.0 0.0 0.0 0.0 0.0 0.0 0.0 0.0
0.0 0.0 0.0 0.0 0.0 0.0 0.0 0.0
0.0 0.0 0.0 0.0 0.0 0.0 0.0 0.0
0.0 0.0 0.0 0.0 0.0 0.0 0.0 0.0
0.0 0.0 0.0 0.0 0.0 0.0 0.0 0.0
0.0 0.0 0.0 0.0 0.0 0.0 0.0 0.0
0.0 0.0 0.0 0.0 0.0 0.0 0.0 0.0

action_model._discrete_distribution.branches.0.weight f4 [3, 128]
00000000: 2a0d b33b 6f54 243c 4fda 393c 3ba9 bfb9
00000010: b07e 6aba 84da 3dbc 4790 8abc fc17 303c
00000020: d70c 07bc b59b c439 791d 3dbc 0a6c 5cbb
00000030: 1604 193c f756 aaba afda 57bb c952 8a3b
00000040: 90f8 9cba 272e 83bb 5eae a2bb 8ff5 dd3b
00000050: 62f9 743c c27f 953b 6cc5 323c 183c 25bc
00000060: 1309 85bb 8bcc 66bb c3f5 013c ad66 53bc
00000070: eaeb e23b b576 7d3b ec28 40bb 5a28 223b
00000080: 37f8 c8b7 9e5c 82bc 723f 583c 5b85 b4bb
00000090: 5ad2 6e3c 01fd 0dbb 441a 2d3c b5ea 55bc
000000a0: b330 fbbb 9351 623a af2d 1aba 8ff6 aabb
000000b0: 0950 07bb 9d97 c4ba 1e9b 113c 78ba 5c3b
000000c0: 3908 8a3c 50f2 3abc afac 4ebb d0f5 35bb
000000d0: f32a a63b 152a 35bb b5ba b9bb f385 db39
000000e0: 1d18 24bc e16b 1a3c 43fa 793c eac9 e83b
000000f0: 3742 6b3b f0cf 523b 5bb6 f43b c7c0 d1ba
00000100: 3568 a23c 4485 80bb 37b1 ef3b 4ab6 4d3a
00000110: 6227 fd3b df02 0ab7 933b 51ba 9f4e 08ba
00000120: 4c2c 48bc 11a2 983b 3130 41bc a2d3 ee3b
00000130: 7621 0b3c d292 493c 6892 f93b 06df 93ba
00000140: dd15 5b3c a50c b1bb 37bf f13a 1bd3 3f3c
00000150: e758 a6bb 910c 42bb b91e c53b e9eb a9bc
00000160: 23b0 25b8 0f24 93bb a384 26bc 035f b93b
00000170: cfa8 833b ff06 f838 ff02 81bb ab4f f63b
00000180: 7321 b5bb 48ec 573a c846 cd3b fdfd 6d3b
00000190: d3a5 073b 12ec ef3b 8772 613b 850e 523b
000001a0: 731d 98bb db3f 063b 85b6 e63a f2da 993c
000001b0: 1d6b 09bb 1b05 d7bb 6d64 973c 7389 8bbb
000001c0: a8e0 4538 d24f ba3a 3213 23bc ea9a 323c
000001d0: 0624 14bb 634f ebba f5f8 053b 226d c1b9
000001e0: 58a3 8fbb 13dc adba 3913 1db8 075c 52bc
000001f0: 9d41 f4ba dfce c63a c9d7 04bc f786 92bb
00000200: faa0 da37 47e0 e83b a11f 833b 3d18 62bc
00000210: da6b 063c 13f8 c93b c29e 10bc 8865 d2bb
00000220: 8563 973b 47e4 ed3b 0862 9a39 31bc 1f3b
00000230: 565b 82bb ff72 15ba f9c7 17bb a63d 3b3b
00000240: e6dc b33b 0f2e 553b 3bfe 3e3c 3ce9 1cbb
00000250: 2ba7 803a adaf 503a 571e f13a d573 593b
00000260: 8574 45bc b35c 403c c7dc 893c bc1f 283b
00000270: 8763 f2bb d156 a538 ba16 6bbb 9d34 b73c
00000280: ad41 09bc 6fcd 1c3c de16 1e3c fbdb 1cbc
00000290: 6c28 c13b 9550 5c3a 2637 2cbc c0ba fe3b
000002a0: 3f2c 013c f348 923b fa89 663b d0bb 523c
000002b0: 7597 00bc ca69 d33b 85ce 853b 2df6 d73b
000002c0: 632b 9cbc f630 1e3c 23bc 09bc 4270 633c
000002d0: 0aab 5f3c 410b 38bb e721 953c 5528 0ebc
000002e0: 92a4 f43b 8a0b 4f3c ff77 e5bb 6b66 beb9
000002f0: 2db8 72bc 96ff 8cbb f8c6 2cbb 60f3 03bb
00000300: bb46 cf3a f87a 31ba b04a dbbb 05ca 653c
00000310: ad79 7c3c e883 353b 5bb5 98bb c82e b7b9
00000320: bf65 02bb c202 963c 83c0 873c f365 e43b
00000330: f87a 08bc 559b fe3b 3bc4 343c f843 ed3a
00000340: d27f eb3b 1098 043c 28fc 943b 0ff3 7ebc
00000350: 7708 1f3b 00d0 0dbc d031 d13b af9e 70bc
00000360: f4fc 05bc 18a4 e73b e5c5 d93a e93e 3fbb
00000370: da57 bdbb dd7a d13a 3aa5 733c daf4 baba
00000380: c0b6 973c 5a14 1c3c 6719 48bb 55f9 00bc
00000390: a28b d8bb 5b7e 9d3b dbaf 6d3b 3b2b 573c
000003a0: f2ec de3b 2ba4 ab3a b124 c23b 0564 cbbb
000003b0: 5343 babb c35b d9bb e024 8e3a c546 343a
000003c0: 9138 8b3c 71cc c8bb 6f7f 8b3a d258 933b
000003d0: e136 2ebc 883a 10bb 601d 79bc 11ad 053c
000003e0: 76f4 95bc 0ab5 1f3c 4b85 77ba e571 77bc
000003f0: 9c37 313c ffe6 1bbb 160f 22bc a8e1 143c
0.0054642158 0.010029896 0.011343553 -0.00036556445 -0.00089452695 -0.011587743 -0.0169145 0.010747906
-0.008242807 0.00037500044 -0.011542671 -0.0033633732 0.009339353 -0.0012995888 -0.0032936742 0.0042212945
-0.0011975933 -0.0040033045 -0.004964634 0.0067736576 0.014952036 0.004562349 0.010911327 -0.010085128
-0.0040599196 -0.0035217132 0.007932129 -0.012902898 0.006925096 0.0038675491 -0.0029321266 0.002474329
-2.3957442e-05 -0.015913304 0.01319872 -0.0055090613 0.014576519 -0.0021665695 0.010565344 -0.013056447
-0.0076657175 0.00086333713 -0.0005881441 -0.0052173804 -0.002064707 -0.0014998798 0.0088870805 0.003368048
0.016849624 -0.011410311 -0.0031536033 -0.0027764924 0.005071038 -0.002764349 -0.005668009 0.00041870735
-0.010015515 0.009425134 0.015257421 0.007104148 0.0035897621 0.0032167397 0.0074680275 -0.0016002887
0.01982508 -0.0039221365 0.007314827 0.00078472926 0.007725642 -8.2261095e-06 -0.00079815945 -0.0005199704
-0.012217592 0.0046579917 -0.011791275 0.007288412 0.008491864 0.012303071 0.00761633 -0.0011281676
0.013371912 -0.0054031187 0.0018443827 0.011708046 -0.005076516 -0.002960954 0.0060156253 -0.020742374
-3.9503106e-05 -0.0044903825 -0.010163459 0.005657078 0.0040179263 0.00011826865 -0.0039371247 0.0075168214
-0.005527669 0.0008236808 0.0062645413 0.003631472 0.0020698204 0.007321843 0.003440054 0.0032052111
-0.0046421825 0.0020484838 0.0017602002 0.01878116 -0.0020968386 -0.006561888 0.018480504 -0.0042583286
4.7177688e-05 0.0014214462 -0.009953307 0.010901192 -0.002260448 -0.0017952736 0.002044258 -0.0003689314
-0.0043834858 -0.001326444 -3.744962e-05 -0.012839324 -0.0018635277 0.0015167854 -0.008108088 -0.0044716555
2.6062586e-05 0.007106814 0.004001573 -0.013799724 0.008204425 0.006163606 -0.008826913 -0.006420795
0.004620018 0.007259879 0.00029446208 0.0024373645 -0.0039781732 -0.00057010347 -0.0023159964 0.002857068
0.0054889796 0.0032528674 0.011657293 -0.002394273 0.0009815445 0.0007960748 0.0018395883 0.0033180614
-0.012051706 0.011740851 0.016828908 0.002565368 -0.0073971185 7.883984e-05 -0.00358717 0.022363955
-0.008377475 0.009570464 0.009649007 -0.009573932 0.0058947112 0.00084043416 -0.010511195 0.007773727
0.007884084 0.0044642626 0.0035177455 0.012862161 -0.00784861 0.00645182 0.004083457 0.0065906257
-0.019063657 0.009655228 -0.008406672 0.013881745 0.013651619 -0.002808288 0.018204642 -0.008676608
0.0074659074 0.0126370285 -0.00700283 -0.0003631593 -0.014814419 -0.004302929 -0.0026363712 -0.0020134076
0.0015813926 -0.0006770338 -0.006692253 0.014025216 0.015409869 0.002769703 -0.004660291 -0.00034939335
-0.0019897071 0.018311862 0.016571289 0.006970161 -0.008330099 0.007769982 0.011033113 0.0018101921
0.007186868 0.008092895 0.004546661 -0.015560879 0.002426652 -0.008655548 0.006384112 -0.014686271
-0.0081779845 0.007069122 0.0016614763 -0.0029181784 -0.005778295 0.0015982051 0.014870936 -0.0014263645
0.01851976 0.009526337 -0.003053272 -0.007871945 -0.0066084424 0.0048063225 0.0036268148 0.013132866
0.0068031484 0.001309519 0.005924784 -0.0062069916 -0.005684295 -0.0066332533 0.001084473 0.00068770006
0.016994746 -0.006127887 0.0010642837 0.004496672 -0.010633201 -0.0022007544 -0.015204757 0.008158938
-0.018305045 0.009747753 -0.00094421644 -0.015102838 0.010816481 -0.0023788807 -0.009891292 0.009087004

action_model._discrete_distribution.branches.0.bias f4 [3]
00000000: 0000 0000 0000 0000 0000 0000
0.0 0.0 0.0

action_model._discrete_distribution.branches.1.weight f4 [3, 128]
00000000: c7eb ab3a 0fcd d33b ab4e bd3b 8347 273c
00000010: 230e 0f3c 53df 8ebc 4b27 083c 4002 1bbc
00000020: d63e 84bb 8f73 6fba 333d 063b 5d5f 1d3b
00000030: 2aa2 95bc 09fa 173b b1f6 2b3c bb39 e0bb
00000040: 296f 2b3c 005a c7bb 8a38 ec3b da11 f3bb
00000050: 174c 993b b913 2dbc 1d9b 43bc 130c 793b
00000060: 531d 353b e1bf 2bbb acc8 9bbb 1700 3a3c
00000070: 0365 d8bb 0622 94bb 2783 2bbb 9368 01bc
00000080: 9711 98bc 3dd9 99bc b0f7 eabb 76f9 143b
00000090: 7767 b5bb 15e9 5e3b 8e6d 303c 2a8f 693a
000000a0: b7da c53a d746 d03b a32a bfbc a981 8cbc
000000b0: 0b40 26bc 5260 6abb b5de 5bbb af03 be3b
000000c0: 0361 e039 32c4 dbba e033 f8bb d863 343a
000000d0: 6c3e 1e3c 8736 e1bb ecf7 0cbc 9c1b 223c
000000e0: 57f3 c33b 3b95 9e3b 1740 abbc 6059 183c
000000f0: bf28 fc3a 5f86 d83b 3a14 09bc ab01 583b
00000100: b0b2 433c 9273 393b d98d afbc 8ebd 893a
00000110: 132f dbbc aa11 163a 22a9 2e3b c56b 923a
00000120: ac2a 113c cbac 703b 7ddf d1bb e5b3 ae3b
00000130: bf38 44bb 13db 2ebc 8c5e 1c3b 3e00 283a
00000140: 0f92 c1bb 67ec b43b 4717 21bc 2344 82bc
00000150: 55e0 04bc 822e d9ba 2685 ab3c 253d 0ebc
00000160: 79b3 88bb 0868 1b3c 25e7 ccbb 52e2 2d3c
00000170: 0b72 42bc 530b 9a3a 2bb4 34ba 822e fc3b
00000180: 2a5b 2dba f323 32bc cdbf ad3a 7ad9 7fbc
00000190: 933d 8337 3ab9 36bb ac1f 06bc 95a5 fbbb
000001a0: b330 ac3b 9a12 2239 9d20 973b d396 923c
000001b0: 5b4f 72bc 4e75 a83c 649b 9c3b 7310 c8bb
000001c0: 8acf f7ba 3abf 863c 85ef ce3b b8ad b33a
000001d0: d918 293c 49ae 9a3c cf01 5bbb 937a b33b
000001e0: 936e bcbb 7a5c c43b b8c9 4abb 7349 ed3a
000001f0: 43f4 e93b ccb4 2abb 339a 26bb 25eb a93b
00000200: bd70 0ebc 930e 2cbc bba7 f83b e386 793b
00000210: 0d13 2dbb 6dc2 6abc 6c36 2d3b 14ae 82b9
00000220: a90f 1d3c 3760 3fbc 0b17 133c a5b3 07bb
00000230: b6ba 03bc ca83 543c 4acc 65bb 439c a83c
00000240: ebfd 0e3c eb66 a7bb 34b3 afba 4ff9 a8bc
00000250: ebd0 13bc 2fe8 6dbb fb07 56bb f57c 26bc
00000260: 1753 8c3b b57b abbb 2f8b 3abc ad27 423c
00000270: 775a c3bb 3e89 3a3c e7b2 71bb aebc 15bc
00000280: 035a b1ba a943 a63a a40f c93b 8b10 f1bb
00000290: 6f2c 633c d9f7 0abc 3353 293b 5d46 233c
000002a0: 33e8 2f3c abde 23ba 7d15 f23b 1f5f 1bbb
000002b0: efba 533b 8b05 33bc 7fee f4ba 1717 763b
000002c0: 2888 13bc b07f dd3b 5895 9c3b 3daf 6dba
000002d0: dbaa 29bc 91a9 473c 8944 a3bc d366 e4bb
000002e0: 12b8 183b daca 1a3c dbc8 6a3b 681e 893b
000002f0: 6fac 82bc 9bc7 10bb dbb7 7c3b d1d6 a83b
00000300: aaa0 893b bf0e 76bb b9c6 2dbc faed 7ab9
00000310: 52e2 cd39 008b 8d3c 34c2 443a 20a7 df3b
00000320: 13f2 193c 570e 3339 2010 6d3c cd7b 85bb
00000330: 4f6f ea3b a922 16bc 67ad a6ba 67b5 be3b
00000340: 1ffe bc3b 73b3 2fbb 1ce9 88bb 007b 593b
00000350: 7f09 bc3b e0db b53b 1f05 2dbc df0c 353c
00000360: e3a1 1fbc 02ca 173a 2297 813c 632e c33a
00000370: 6083 59bc 4393 b13b 9fda 1a3b 1710 c73b
00000380: 1d55 623b 0dac 593c e310 37bb b031 73bb
00000390: fb6d a53b 43e9 983b 5812 4cbc c078 613c
000003a0: ab07 fb3b 74e0 193c 87fc 5abc d129 213b
000003b0: fb09 0cbc 2f8e 153c 7ba7 63ba 0353 e73a
000003c0: 92f0 363c e002 b1b9 309f f2ba bf6c 2f3c
000003d0: 8549 7a3b 8f1d 703c 233f c73c 538f 033a
000003e0: c716 a8bc 57f3 5b3c 76c6 2e3c c0a5 e73a
000003f0: 3fb6 88bb 48f6 d13b d21d 703c d32b a13b
0.0013116532 0.006463654 0.0057772 0.010209921 0.008731398 -0.017440474 0.008310149 -0.009460986
-0.004035811 -0.0009134346 0.0020483255 0.002401314 -0.018265802 0.0023189804 0.0104958275 -0.0068428195
0.010463514 -0.006083727 0.0072088884 -0.0074178996 0.00467826 -0.010563784 -0.011938837 0.0038001582
0.0027635887 -0.0026206898 -0.0047541466 0.0113525605 -0.0066038384 -0.0045206575 -0.0026170702 -0.007898468
-0.018563075 -0.018780345 -0.00717064 0.0022731698 -0.0055360156 0.003401344 0.010768307 0.0008909578
0.0015095089 0.006356101 -0.02333576 -0.01715167 -0.010147105 -0.0035762978 -0.0033549492 0.005798779
0.0004279689 -0.0016766845 -0.0075745434 0.0006881333 0.009658437 -0.0068729552 -0.008604031 0.009894278
0.005979936 0.004839567 -0.020904584 0.009298652 0.0019238218 0.006607815 -0.008366639 0.0032959979
0.011944458 0.0028297645 -0.021429943 0.0010508762 -0.026755845 0.0005724678 0.0026651104 0.0011171034
0.008860271 0.0036724086 -0.0064048157 0.0053315037 -0.002994105 -0.010672349 0.0023860065 0.00064087275
-0.005907304 0.0055213454 -0.00983221 -0.01590163 -0.008110126 -0.0016569647 0.020937514 -0.00868157
-0.0041717854 0.009485252 -0.0062531405 0.010613041 -0.01186801 0.0011752642 -0.0006893302 0.007695974
-0.0006613011 -0.010872829 0.0013256014 -0.015615815 1.564509e-05 -0.00278814 -0.008186262 -0.007679651
0.005254829 0.00015456454 0.004612042 0.017894184 -0.014789428 0.020563748 0.004779266 -0.0061054765
-0.0018906456 0.016448606 0.006315174 0.0013708388 0.010320866 0.018881934 -0.0033417826 0.0054772585
-0.005750486 0.0059924694 -0.0030942988 0.0018103555 0.007139714 -0.0026047705 -0.00254215 0.005185502
-0.008693871 -0.010501522 0.0075883544 0.0038074784 -0.002640906 -0.014328581 0.0026430143 -0.0002492523
0.009586253 -0.011680654 0.008977662 -0.0020706442 -0.008040121 0.012970874 -0.0035064393 0.020582324
0.008727531 -0.0051087043 -0.0013404847 -0.020626692 -0.009021978 -0.0036301722 -0.0032658565 -0.010161628
0.004282366 -0.005233253 -0.011385723 0.01185028 -0.005961712 0.01138526 -0.0036880316 -0.009139223
-0.0013530854 0.0012684959 0.0061358977 -0.0073567084 0.013865574 -0.008481943 0.0025836944 0.009965506
0.010736513 -0.00062511367 0.0073878155 -0.002370782 0.0032307466 -0.0109266145 -0.00186868 0.0037550384
-0.00900463 0.0067596063 0.0047785453 -0.0009066945 -0.0103556765 0.012186424 -0.019930141 -0.0069702654
0.0023303074 0.009447778 0.0035825286 0.004184533 -0.015951363 -0.002209163 0.0038561735 0.0051525612
0.004200061 -0.003754541 -0.010606461 -0.00023930511 0.0003926927 0.017278194 0.0007505745 0.006825343
0.009396094 0.00017076112 0.0144691765 -0.004073596 0.0071543823 -0.009163537 -0.0012716473 0.0058199647
0.0057675983 -0.002680984 -0.0041781794 0.0033184886 0.0057384367 0.005549893 -0.010560303 0.011050432
-0.009743187 0.00057902944 0.015819136 0.0014891144 -0.013275951 0.0054191663 0.0023628843 0.006074916
0.0034535595 0.013285649 -0.002793365 -0.0037108473 0.005048511 0.004666479 -0.012455545 0.013761699
0.007660826 0.009391893 -0.013365871 0.0024591575 -0.008547301 0.0091281375 -0.00086843193 0.0017648641
0.011165755 -0.00033762213 -0.0018510576 0.010707079 0.0038190794 0.014655485 0.024322098 0.00050186104
-0.020518674 0.013424716 0.010667434 0.0017673299 -0.004172116 0.006407533 0.014655547 0.0049185543

action_model._discrete_distribution.branches.1.bias f4 [3]
00000000: 0000 0000 0000 0000 0000 0000
0.0 0.0 0.0

network_body._body_endoder.seq_layers.0.weight f4 [128, 138]
00000000: ead2 01be 649c 71bd 1e6a 43bd 7205 ffbd
00000010: ddf7 433d d8d8 14bd ad9d ee3d 597c e7bb
00000020: 6bc5 e33c 33c7 55bd d143 c33c 2431 3bbd
00000030: fa28 7cbd b362 6cbd 9b98 1f3e a453 0c3d
00000040: 91a5 44bd 6f32 b33c a195 903c 4ffc c6bd
00000050: ab22 5c3d b1c1 1ebc a8a1 a6bd 25bc 513d
00000060: 6e25 1a3d 391c 173d 5c1c 9cbd 67dc 843c
00000070: ede4 9c3d 9489 a4bd ff14 97bc cbc1 4ebe
00000080: a233 a8bb 1fb4 0abd fadd 7f3d 0c0d d2bd
00000090: f091 793d ebd7 81bd 0f17 f33d d398 58bd
000000a0: e5d3 82bd f721 48be 9d83 533d 3c4c ad3d
000000b0: 63e6 073d 07e6 f03c aca4 273d 1073 b5bd
000000c0: fa45 09be 32aa 5fbe b812 dabd e44b 23bd
000000d0: 78d9 2cbe acba be3c c7be 4c3e 3b16 81bd
000000e0: 9b9a 613c 03ce 09bd 5ee7 073c 1a0c d13d
000000f0: a271 d4bd d171 803e 0cc1 c5bc 1d19 903d
00000100: ac11 2f3c e38d 5a3e 2892 f639 efbf 30bd
00000110: a9fc 26bc 8a37 1cbd 9ac2 a4bd 5430 213d
00000120: d7e0 333d bf64 13bc 71f0 f53d dc15 fdbd
00000130: 7031 d1bd 99fd 003e ca42 b23c 5a4f 073c
00000140: 4a05 b4bc 2576 903d 8594 57bd 1ed4 693b
00000150: 55c4 f03d 84d2 9fbd bc81 323d bbaa c03d
00000160: 72b1 c23d 49a6 8b3d 46f3 a53c ca21 69bd
00000170: cae9 1f3c 9893 5dbd 6832 9a39 66cc 483d
00000180: dcdd 643d e8e8 333e 739e 4d3d 1556 f23d
00000190: c809 0eba 4425 01be bdb6 e93d 2107 1c3d
000001a0: 4e18 1c3d 56d5 21bd 1aeb 093c b731 f5bd
000001b0: e070 603c 6c94 413e 7d83 083d f83e c6bd
000001c0: 4112 3abd 62c8 a9bc 4b4c 12be ce3e a3bc
000001d0: fc61 b73c dde3 e3bd d718 9abd 9db8 8e3d
000001e0: 1036 b5bc 910f ddbd e164 8ebd 719e eebc
000001f0: 2f49 9bba bad9 753d bf91 383c 44eb 833a
00000200: d61a 53bd e186 753d df14 d4bd 5a76 b5bd
00000210: 59a5 b6bd 1848 ecbd 4cf4 0bbd 541b 8fbc
00000220: 6c4a 153e c947 08bd 9b73 6abb bbc0 383d
00000230: 2710 05be 3be2 2dbd 088b 663d 4f67 20be
00000240: 15a9 20bd 32ca 08bc 94ad babb 84df a9bc
00000250: 7a14 d73d 7a19 cb3d c8ad f5bc 9148 333e
00000260: f18e a8bd 9b5d d23c 37fe ffbd 66c5 593c
00000270: fa4b 32be 2f16 61bc 329f 343c 6d3b 35bc
00000280: d3c9 e4bd 82e9 88bd 58e0 8b3d e8dc 10bd
00000290: 456e 5f3d 202a 88bc 6a91 f1bc 99d7 10bd
000002a0: 031a 9abd 70f6 0c3e 63b7 a13d f5bc 213e
000002b0: 82f9 8bbd ac11 1f3e 7fdc 783d 42e7 b33c
000002c0: 55a1 e9bd 2b6c aa39 a540 d6bd 21a9 8e3d
000002d0: dc60 893d 0a58 7c3d ae1c 5bbe 492d ff3b
000002e0: 4ee2 fa3d 2f0d cb3d c892 903d ab73 a83d
000002f0: d262 0dbd b592 713d 188a 02be 9f27 2f3e
00000300: da5c 7b3c b6a5 603b 562b 90bd 426a 5d3d
00000310: 3c7e a4bd 8951 b6bb 1e82 07be 8d12 c53c
00000320: 6cad 203d 701f 0c3e 9c11 9a3b 86d3 32be
00000330: 23c6 293d 688a a3bc 9f57 af3d cb32 993c
00000340: 373a 4c3d 3067 20bd ff9e f4bd ab69 963d
00000350: b25a 28bc 7041 23bd 8023 6dbc 0d13 7f3d
00000360: 013a 6dbb 5a49 4abd bb8a 053c c21c 1c3e
00000370: 54b6 db3d a58e fb3b a734 273e d295 1ebd
00000380: 311e 9f3c 64bd ff3c 41d0 95bd df58 a2bc
00000390: e0b7 ffbd 995c 253e bf96 a3bd 1398 bbbd
000003a0: 4f7d 583c 9442 853d 4e1d a03d 6239 6c3c
000003b0: 160c 2f3d 9555 d33d 0e1f 8a3c 0aa4 013d
000003c0: 2dda 36bb 071b 673d 41ab d2bc 5dc1 b6bc
000003d0: ddbd c73c 5318 a73d ce0e cabd 318e 47bd
000003e0: 3a0b 10be c492 f1bb 2bbb fdbd 6201 043d
000003f0: 63cc 5abb b2e2 89bc 5f2e 10be 4056 18be
-0.12678114 -0.058987036 -0.047708623 -0.124522105 0.047843803 -0.03633961 0.11651168 -0.007064384
0.027804097 -0.052191924 0.023836048 -0.04570116 -0.061562516 -0.057711314 0.15585558 0.034259453
-0.04800946 0.021874635 0.017649474 -0.09716093 0.053744 -0.009689734 -0.08136302 0.05120482
0.037633352 0.03689215 -0.076225966 0.016218377 0.07660852 -0.080340534 -0.018442629 -0.20191114
-0.0051331082 -0.033863183 0.062467553 -0.10256395 0.060930192 -0.06340011 0.118696325 -0.05288012
-0.06388072 -0.19544207 0.051639188 0.08461806 0.0331787 0.02940656 0.040928528 -0.08859837
-0.134056 -0.21842268 -0.106481016 -0.039867297 -0.16879833 0.023282371 0.19994651 -0.06303068
0.013769771 -0.033643734 0.008294908 0.10207386 -0.10373236 0.25086835 -0.024139903 0.0703604
0.010685366 0.21343188 0.0004702967 -0.043151792 -0.010192075 -0.038138904 -0.0804493 0.03935273
0.043915596 -0.008996188 0.12008751 -0.12357685 -0.102145076 0.1259674 0.021760363 0.008258665
-0.021975178 0.07053784 -0.052631874 0.003567941 0.11756197 -0.078038245 0.043580756 0.09407564
0.09506501 0.06818826 0.020257603 -0.05691699 0.0097603295 -0.054095834 0.00029410725 0.049023055
0.055875644 0.17569315 0.050199937 0.11832825 -0.00054183276 -0.12611872 0.11411808 0.038092736
0.038109116 -0.039510094 0.008417869 -0.11972373 0.0136987865 0.18904275 0.033328522 -0.09679979
-0.045427565 -0.020725433 -0.14286916 -0.019927409 0.02238559 -0.11127446 -0.07524269 0.06968806
-0.022120506 -0.10793985 -0.06952835 -0.029128285 -0.0011847372 0.060022093 0.011265217 0.0010064621
-0.051539265 0.059943084 -0.10355543 -0.088604644 -0.08918256 -0.11537188 -0.034168527 -0.017469086
0.14579171 -0.033271585 -0.0035774473 0.045105677 -0.12994443 -0.04245208 0.056284934 -0.15664409
-0.03922375 -0.008348988 -0.0056969617 -0.020736463 0.105019525 0.09916969 -0.029990092 0.1750815
-0.08230389 0.0256794 -0.124996595 0.013291692 -0.17411795 -0.013738199 0.011024283 -0.0110615315
-0.111713074 -0.06685163 0.068298995 -0.035366923 0.05454852 -0.01662165 -0.029488284 -0.03536186
-0.075244926 0.13765883 0.07896306 0.15794738 -0.06834699 0.15534085 0.060757156 0.021960858
-0.11407725 0.00032505518 -0.10461549 0.069658525 0.067079276 0.061607398 -0.21397659 0.007787381
0.122501954 0.09914624 0.07059246 0.08225187 -0.03451807 0.0589778 -0.12747991 0.17104958
0.015341962 0.003427846 -0.07039516 0.054056413 -0.0803189 -0.005563919 -0.1323323 0.024056697
0.039227888 0.13683867 0.004701806 -0.17463502 0.041448724 -0.019963458 0.08561634 0.018700978
0.049860206 -0.039160907 -0.119443886 0.07344373 -0.01027553 -0.039857328 -0.014473796 0.062274028
-0.0036197903 -0.04938636 0.008150752 0.15245345 0.10728136 0.0076769167 0.16328679 -0.0387171
0.019423576 0.031218238 -0.07315112 -0.019817768 -0.12486243 0.16148604 -0.07987737 -0.09159865
0.01321347 0.065068394 0.078180894 0.014417978 0.042736135 0.10319058 0.016860511 0.03165058
-0.002790104 0.05642226 -0.025716426 -0.022309 0.024382526 0.08158936 -0.09866105 -0.04871959
-0.14066783 -0.007372232 -0.12389215 0.03222788 -0.0033385984 -0.01683173 -0.14080189 -0.14876652

network_body._body_endoder.seq_layers.0.bias f4 [128]
00000000: 0000 0000 0000 0000 0000 0000 0000 0000
00000010: 0000 0000 0000 0000 0000 0000 0000 0000
00000020: 0000 0000 0000 0000 0000 0000 0000 0000
00000030: 0000 0000 0000 0000 0000 0000 0000 0000
00000040: 0000 0000 0000 0000 0000 0000 0000 0000
00000050: 0000 0000 0000 0000 0000 0000 0000 0000
00000060: 0000 0000 0000 0000 0000 0000 0000 0000
00000070: 0000 0000 0000 0000 0000 0000 0000 0000
00000080: 0000 0000 0000 0000 0000 0000 0000 0000
00000090: 0000 0000 0000 0000 0000 0000 0000 0000
000000a0: 0000 0000 0000 0000 0000 0000 0000 0000
000000b0: 0000 0000 0000 0000 0000 0000 0000 0000
000000c0: 0000 0000 0000 0000 0000 0000 0000 0000
000000d0: 0000 0000 0000 0000 0000 0000 0000 0000
000000e0: 0000 0000 0000 0000 0000 0000 0000 0000
000000f0: 0000 0000 0000 0000 0000 0000 0000 0000
00000100: 0000 0000 0000 0000 0000 0000 0000 0000
00000110: 0000 0000 0000 0000 0000 0000 0000 0000
00000120: 0000 0000 0000 0000 0000 0000 0000 0000
00000130: 0000 0000 0000 0000 0000 0000 0000 0000
00000140: 0000 0000 0000 0000 0000 0000 0000 0000
00000150: 0000 0000 0000 0000 0000 0000 0000 0000
00000160: 0000 0000 0000 0000 0000 0000 0000 0000
00000170: 0000 0000 0000 0000 0000 0000 0000 0000
00000180: 0000 0000 0000 0000 0000 0000 0000 0000
00000190: 0000 0000 0000 0000 0000 0000 0000 0000
000001a0: 0000 0000 0000 0000 0000 0000 0000 0000
000001b0: 0000 0000 0000 0000 0000 0000 0000 0000
000001c0: 0000 0000 0000 0000 0000 0000 0000 0000
000001d0: 0000 0000 0000 0000 0000 0000 0000 0000
000001e0: 0000 0000 0000 0000 0000 0000 0000 0000
000001f0: 0000 0000 0000 0000 0000 0000 0000 0000
0.0 0.0 0.0 0.0 0.0 0.0 0.0 0.0
0.0 0.0 0.0 0.0 0.0 0.0 0.0 0.0
0.0 0.0 0.0 0.0 0.0 0.0 0.0 0.0
0.0 0.0 0.0 0.0 0.0 0.0 0.0 0.0
0.0 0.0 0.0 0.0 0.0 0.0 0.0 0.0
0.0 0.0 0.0 0.0 0.0 0.0 0.0 0.0
0.0 0.0 0.0 0.0 0.0 0.0 0.0 0.0
0.0 0.0 0.0 0.0 0.0 0.0 0.0 0.0
0.0 0.0 0.0 0.0 0.0 0.0 0.0 0.0
0.0 0.0 0.0 0.0 0.0 0.0 0.0 0.0
0.0 0.0 0.0 0.0 0.0 0.0 0.0 0.0
0.0 0.0 0.0 0.0 0.0 0.0 0.0 0.0
0.0 0.0 0.0 0.0 0.0 0.0 0.0 0.0
0.0 0.0 0.0 0.0 0.0 0.0 0.0 0.0
0.0 0.0 0.0 0.0 0.0 0.0 0.0 0.0
0.0 0.0 0.0 0.0 0.0 0.0 0.0 0.0

network_body._body_endoder.seq_layers.2.weight f4 [128, 128]
00000000: 1d09 db3d f811 403b bc1e 8dbc a054 25bc
00000010: f5bd 713e 3619 5f3d b230 b5bc 7808 ddbc
00000020: a13f 03be f390 43bd dca6 ab3c a21d b03d
00000030: 32d6 6e3b fb90 e5bd c875 1b3d 056a eb3c
00000040: d819 a1bd 3948 47bd 5252 683d eb5a f5bd
00000050: 45b9 ce3c 33e0 b83d fa74 cb3d abb5 f6bc
00000060: 5f00 cd3d 8445 a03d d393 273e c931 61bd
00000070: 504d f83c be12 fb3d 1d94 bbbd 3ed1 f6bd
00000080: 2f76 edbd 4717 273d 1399 883d 3e3a 80bd
00000090: e9ad 06bb ddc6 543e abe5 a23d 970a ed3c
000000a0: 8d1b 723a 2c46 e23c db50 ecb9 54b5 acbd
000000b0: 8bfb 30bd c024 c7bc 5a24 37bd d728 a53d
000000c0: 0a7c c73d 80f1 97bd 14f0 2abe d4fd 5abe
000000d0: 0936 323e 4d85 adbb b133 35be 740a 413e
000000e0: b28c ef3d 27cb b03d 156c f13d 1e13 5b3e
000000f0: 5a48 f13b 004e 3bbc 2862 353d a388 46bd
00000100: 23d9 4e3c e2dc cdba d756 993d 862b aebd
00000110: e4d9 c53c 5e9a c33d 050f 373d 07bf 0ebe
00000120: 94eb 2f3e b56c b53c 260c c93d fe27 393c
00000130: 4e10 bbbd 4d9c e73d 9608 29bd 1902 83bd
00000140: 3272 293d ae61 29bc 33fe 923b 5d1d 17be
00000150: 8412 17be e784 a7bd d4aa b43d 9983 423d
00000160: 7a99 273b ee74 9f3d 2e23 5d3d 1682 4fba
00000170: ac71 373c 9ffa 98bd 5300 17bd 65de c1bd
00000180: 45c8 833d 8165 c03c 930a b5bd f0a0 c1bd
00000190: 0407 ca3c 05f0 4c3d 7867 06bd f28f 6ebb
000001a0: ee1f 723d 3306 cabd 7344 5f3d 823a a9bc
000001b0: ec7b 05bd 37e6 77bd b02c 073d a737 3bbe
000001c0: 885f e03d 6ac9 05be 15c5 e73d 7d8c 00bc
000001d0: 2cc7 513d 5163 313c 5155 c33d df23 25be
000001e0: 1627 bd3c 6716 c3bd c171 b33d b69d 83bd
000001f0: 6651 0bbe 716e 1dbb 9f1d abbd d2a6 06bb
00000200: 2711 c5bd 2f7f 433e fd7e 0abe 19df a93c
00000210: 444e 04bc daaa 80bc f3c5 abbd 5f78 5cbc
00000220: 5a0c 583d aa20 e13d bca9 7e3d 75f8 b13d
00000230: 75c7 3d3c 6027 ffbd ad2e 03bc caca 92bd
00000240: 54ef 4d3d 8dda 143e 1905 c53d 7bfc 083d
00000250: 7aba 953d e05e d4bc cd48 0ebd f081 00be
00000260: 5c48 2fbe 12f4 c23d ac1b 01bd e1c0 623d
00000270: fa9c acbd 0c1c f1bc 9931 fdbd 7288 0e3e
00000280: 6ae9 af3d 25f4 303e a637 fdbd 534f 5fbe
00000290: 83f2 ff3c a058 ed3d efa6 b23d 7933 52bd
000002a0: d90d a4bc 02e2 37bd a499 4f3d cdf1 9dbd
000002b0: ec2f 213d 9147 e13d ffef 5fbd 3b4c e7bd
000002c0: 0690 f0bb 1b0c f5bd 0d99 ce3d b0f9 8fbe
000002d0: f1b8 f1bd 50f1 18be 0800 2a3d c288 42be
000002e0: 920e c73c 32da e7bb 0742 b0bc 38f8 c63d
000002f0: ccf6 dabd b56c 50bb 6ba7 08be 9786 d4bc
00000300: fe0f 5fbc 49ee 153d cc21 573e 314e 28be
00000310: 62eb f73c 27dd 4b3e 7c03 99bd 7597 b73d
00000320: 2ca8 d73d 0637 583d 8b82 73bc 494f dd3d
00000330: 2f54 6dbc 8dc3 56bd 55c4 a5bd 9c43 6a3c
00000340: 1740 27be f054 8ebc f00d 9b3d d868 893d
00000350: 8c91 0dbd a4e7 1dbd 5428 643a 5f86 143e
00000360: 6d66 07be 4ee1 dbbc 2ab4 283d e335 a63d
00000370: 9997 dbbd a3ef b23d d810 963d bdde c9bc
00000380: f787 2d3d 9c75 5d3d 350b 343d 22f0 03bd
00000390: 5387 503d 11f8 b83d a89f e23c 4162 33be
000003a0: e6f6 a53c 51f6 93bd ddae d93d 62d5 a13c
000003b0: b096 6cbd 7d47 353d e4a6 2dbe 0785 12be
000003c0: 806c 1cbe 27b6 c7bd 3919 453e 6fa1 483a
000003d0: af36 af3c 66b0 223e e49c a93d 2df3 31be
000003e0: 8370 9a3d 3803 a2bd 00c6 123e bffc 1e3e
000003f0: 20e5 bb3d 4785 703c 7c1b 603d a529 c5bc
0.106950976 0.0029307585 -0.01722657 -0.010090977 0.23607619 0.054467402 -0.022117946 -0.026981577
-0.12817241 -0.047745656 0.020953588 0.08599402 0.0036443588 -0.112092935 0.03795412 0.028737077
-0.078662574 -0.04865286 0.05671913 -0.11980232 0.025234828 0.090271376 0.09934421 -0.030115923
0.100098364 0.07825759 0.16364984 -0.05497912 0.030310303 0.12259434 -0.0915911 -0.120516285
-0.11594807 0.040793683 0.066698216 -0.06261109 -0.0020550436 0.20778985 0.07953962 0.028935714
0.0009235673 0.027621351 -0.0004507367 -0.08433023 -0.04320864 -0.024309516 -0.044712402 0.0806443
0.097404554 -0.07419109 -0.16693145 -0.2138589 0.17403425 -0.0052954317 -0.176955 0.18851644
0.116967574 0.08632498 0.11788193 0.21394011 0.0073633613 -0.011432171 0.044283062 -0.04847015
0.012625012 -0.0015706087 0.074872665 -0.08504395 0.02415175 0.095509276 0.044692058 -0.13940059
0.1717971 0.022146562 0.0981677 0.011301039 -0.09133969 0.11309109 -0.041267954 -0.063968845
0.04136867 -0.01033823 0.0044858693 -0.14757295 -0.14753157 -0.08179646 0.088216454 0.047488783
0.0025573657 0.077859744 0.053988628 -0.00079158077 0.011196535 -0.07469677 -0.036865544 -0.094662465
0.06434683 0.0234859 -0.088399075 -0.094545245 0.024661548 0.050033588 -0.03281352 -0.0036401716
0.05911248 -0.09864464 0.054508638 -0.020657782 -0.032588884 -0.060522284 0.0330016 -0.18282948
0.10955721 -0.13065115 0.11316887 -0.007845995 0.051215336 0.0108269015 0.09537757 -0.16126965
0.023089927 -0.09525757 0.08761931 -0.06426565 -0.1360527 -0.0024022127 -0.08355259 -0.002054621
-0.09622412 0.19091485 -0.13525005 0.020736264 -0.008075301 -0.015706468 -0.08387365 -0.013456433
0.052746154 0.10992558 0.06217359 0.086899675 0.011583199 -0.12458682 -0.008006734 -0.07167585
0.05027707 0.14536496 0.09620113 0.03344391 0.07310958 -0.025924146 -0.034737397 -0.12549567
-0.17117447 0.09519209 -0.03152053 0.055359725 -0.084283784 -0.02943232 -0.123629756 0.13919237
0.08589442 0.17280634 -0.1236413 -0.21807604 0.031243568 0.115891695 0.08723246 -0.05131862
-0.020026134 -0.044893272 0.050683632 -0.077121355 0.039352342 0.10999978 -0.054672237 -0.11293837
-0.0073413877 -0.119651996 0.10087786 -0.28120184 -0.11802853 -0.14935803 0.041503936 -0.18997481
0.02429894 -0.0070755715 -0.02151586 0.09715313 -0.10691604 -0.0031803076 -0.13345115 -0.025943084
-0.013614653 0.0366042 0.21008986 -0.16436078 0.030263606 0.19908582 -0.07471368 0.08964435
0.10530123 0.05278685 -0.014862667 0.10806138 -0.014485403 -0.052432586 -0.08094088 0.014298346
-0.16333042 -0.017374486 0.07571018 0.067094505 -0.034562632 -0.038550988 0.0008703519 0.14504384
-0.13222666 -0.026840832 0.041187443 0.08115747 -0.10722274 0.08737113 0.073274314 -0.024642343
0.042365994 0.05406724 0.043956 -0.03221143 0.050910305 0.0903169 0.02766402 -0.1751795
0.020259332 -0.072247155 0.10629056 0.01975507 -0.057760894 0.04425763 -0.16958195 -0.14308558
-0.15275764 -0.0975154 0.19247903 0.000765345 0.02138838 0.15887603 0.08281878 -0.1737792
0.07540991 -0.0791077 0.14333344 0.15526102 0.091745615 0.014680213 0.05471371 -0.02406771

network_body._body_endoder.seq_layers.2.bias f4 [128]
00000000: 0000 0000 0000 0000 0000 0000 0000 0000
00000010: 0000 0000 0000 0000 0000 0000 0000 0000
00000020: 0000 0000 0000 0000 0000 0000 0000 0000
00000030: 0000 0000 0000 0000 0000 0000 0000 0000
00000040: 0000 0000 0000 0000 0000 0000 0000 0000
00000050: 0000 0000 0000 0000 0000 0000 0000 0000
00000060: 0000 0000 0000 0000 0000 0000 0000 0000
00000070: 0000 0000 0000 0000 0000 0000 0000 0000
00000080: 0000 0000 0000 0000 0000 0000 0000 0000
00000090: 0000 0000 0000 0000 0000 0000 0000 0000
000000a0: 0000 0000 0000 0000 0000 0000 0000 0000
000000b0: 0000 0000 0000 0000 0000 0000 0000 0000
000000c0: 0000 0000 0000 0000 0000 0000 0000 0000
000000d0: 0000 0000 0000 0000 0000 0000 0000 0000
000000e0: 0000 0000 0000 0000 0000 0000 0000 0000
000000f0: 0000 0000 0000 0000 0000 0000 0000 0000
00000100: 0000 0000 0000 0000 0000 0000 0000 0000
00000110: 0000 0000 0000 0000 0000 0000 0000 0000
00000120: 0000 0000 0000 0000 0000 0000 0000 0000
00000130: 0000 0000 0000 0000 0000 0000 0000 0000
00000140: 0000 0000 0000 0000 0000 0000 0000 0000
00000150: 0000 0000 0000 0000 0000 0000 0000 0000
00000160: 0000 0000 0000 0000 0000 0000 0000 0000
00000170: 0000 0000 0000 0000 0000 0000 0000 0000
00000180: 0000 0000 0000 0000 0000 0000 0000 0000
00000190: 0000 0000 0000 0000 0000 0000 0000 0000
000001a0: 0000 0000 0000 0000 0000 0000 0000 0000
000001b0: 0000 0000 0000 0000 0000 0000 0000 0000
000001c0: 0000 0000 0000 0000 0000 0000 0000 0000
000001d0: 0000 0000 0000 0000 0000 0000 0000 0000
000001e0: 0000 0000 0000 0000 0000 0000 0000 0000
000001f0: 0000 0000 0000 0000 0000 0000 0000 0000
0.0 0.0 0.0 0.0 0.0 0.0 0.0 0.0
0.0 0.0 0.0 0.0 0.0 0.0 0.0 0.0
0.0 0.0 0.0 0.0 0.0 0.0 0.0 0.0
0.0 0.0 0.0 0.0 0.0 0.0 0.0 0.0
0.0 0.0 0.0 0.0 0.0 0.0 0.0 0.0
0.0 0.0 0.0 0.0 0.0 0.0 0.0 0.0
0.0 0.0 0.0 0.0 0.0 0.0 0.0 0.0
0.0 0.0 0.0 0.0 0.0 0.0 0.0 0.0
0.0 0.0 0.0 0.0 0.0 0.0 0.0 0.0
0.0 0.0 0.0 0.0 0.0 0.0 0.0 0.0
0.0 0.0 0.0 0.0 0.0 0.0 0.0 0.0
0.0 0.0 0.0 0.0 0.0 0.0 0.0 0.0
0.0 0.0 0.0 0.0 0.0 0.0 0.0 0.0
0.0 0.0 0.0 0.0 0.0 0.0 0.0 0.0
0.0 0.0 0.0 0.0 0.0 0.0 0.0 0.0
0.0 0.0 0.0 0.0 0.0 0.0 0.0 0.0

value_heads.value_heads.extrinsic.weight f4 [1, 128]
00000000: 2c8c 1cbd 7a9d 3d3e 02ee cebd c8b7 593e
00000010: 769f 9cbc 1da5 3bbe 8cfa f93d 0482 50be
00000020: f0fe ffbc 18a0 fd3d 6970 29be 6d99 08be
00000030: 1533 883c 4943 25be 5059 9a3d 8ea9 2e3e
00000040: 9651 9d3d 9cda 7d3c 752f 1c3e 2326 ccbd
00000050: b469 593e 80c3 82bb b626 1e3e 017d a8bd
00000060: e664 edbd 5ca6 2cbe 639c af3d 7f38 f7bd
00000070: 79ef f2bb fdfa b6bd be9b 093e 1da6 cebb
00000080: ec61 00bc 1021 a03c 2476 3bbe daf9 863d
00000090: 6be4 3dbe 239e 1b3e 528e e3bd 9e5a 3c3e
000000a0: d8e7 23be 0cd6 3fbe edfa 3c3e dd89 febc
000000b0: c747 603b 0e6a 0cbd 4884 293e f891 df3d
000000c0: 047a 093e 3dce 233e 721a 44be eb65 53be
000000d0: 5bce 213e f7f0 1ebe f63c e43d 6d32 2dbd
000000e0: 8b5a 4f3e a479 3abe 7043 3ebe d012 983c
000000f0: 19b2 38be f398 32be 1ce5 2cbd 59e1 d2bc
00000100: 2b83 a43a 0ad6 cc3d a004 8dbd 98fc 11be
00000110: 0a6b 06be 9fe0 253e ae70 1b3e 41b1 d6bd
00000120: 9501 05be 61fc 2f3e 4819 03be 9026 35bb
00000130: a491 1cbe dbb3 c0bd b5e7 19be 60ad 163e
00000140: ad70 183e 4cdd de3c 6b97 ec3d 483c 973c
00000150: 23c9 a2bc ecb5 d63c 13ce 023e 0817 74bd
00000160: 1026 f2bd d1da 57be 8578 95bd 244e 32be
00000170: d81f 3abe 5888 513e 2c17 13be 917d c33d
00000180: 710f 3bbd ad40 f03d 7e60 bfbd 3e77 933d
00000190: 46e2 ecbd 5da0 343e ff28 003e 1afd 29bd
000001a0: 0efa 04be 4cd6 48be f6d6 d3bd 0081 033e
000001b0: 4330 19be e61d 013d fd5e c53d 06cf a83d
000001c0: b87d 253e 7b98 95bd 0c23 14bd bd83 a2bd
000001d0: 2e86 0c3e 823c 443e c2e1 1dbd b2f9 853d
000001e0: e022 b9bc 3cb6 293e dc4c e83d fcf8 adbb
000001f0: 0870 c5bd eb86 efbd 7c3f 303e 4036 a03d
-0.038219616 0.18517104 -0.1010399 0.21261513 -0.019119006 -0.18324704 0.12205991 -0.20362097
-0.031249493 0.12384051 -0.16546787 -0.13339777 0.01662592 -0.16138949 0.07536566 0.17056867
0.07681577 0.015494015 0.15252478 -0.099682115 0.21231729 -0.0039905906 0.15444455 -0.082269676
-0.115915105 -0.16860336 0.0857475 -0.12071323 -0.0074138013 -0.08934591 0.13438317 -0.0063064233
-0.007835846 0.019547015 -0.18306786 0.06590624 -0.18544166 0.15197043 -0.1111113 0.18393943
-0.1600641 -0.18733996 0.18455096 -0.031071598 0.003422247 -0.03428083 0.16554368 0.10916513
0.13425452 0.15996642 -0.19150713 -0.20644347 0.15801375 -0.15521608 0.1114444 -0.042284418
0.20249383 -0.18210465 -0.18580413 0.018563658 -0.18036689 -0.17441158 -0.042210683 -0.02574222
0.0012551298 0.10001762 -0.06885648 -0.14256513 -0.1312677 0.16198967 0.15179703 -0.10483027
-0.12988885 0.17186119 -0.12802613 -0.0027641393 -0.15289932 -0.09409305 -0.15029795 0.14714575
0.14886732 0.027205132 0.11552318 0.018461362 -0.0198713 0.026209794 0.12773924 -0.059592277
-0.11823666 -0.21079566 -0.07298378 -0.17412621 -0.1817621 0.20462167 -0.14364308 0.09545434
-0.045669023 0.11731086 -0.09344576 0.07200478 -0.11566596 0.17639299 0.12515639 -0.041501142
-0.12986013 -0.19612998 -0.10343735 0.12842178 -0.14959817 0.031522654 0.09637258 0.082426116
0.16161239 -0.07304474 -0.036166236 -0.07935283 0.1372306 0.19163707 -0.038545378 0.06541766
-0.022599638 0.16573423 0.11342785 -0.0053092223 -0.09640509 -0.116956554 0.17211717 0.07822847
