Results/test40/SnowBall.onnx (onnx, 143334 bytes, 9 tensors)

action_model._discrete_distribution.branches.0.bias f4 [3]
000000 00 00 00 00 00 00 00 00 00 00 00 00
       0.0 0.0 0.0

action_model._discrete_distribution.branches.0.weight f4 [3, 128]
000000 98 a0 b4 3b f2 88 6b bc 8b fb 89 3c 71 a7 88 3b
       0.0055123083 -0.014375912 0.016843578 0.004170351
000010 38 2f 8c bb dd 10 3d 3c 53 6d 29 3b d9 c5 0a 3b
       -0.00427809 0.011539665 0.0025852516 0.0021175055
000020 4f 83 28 bc 00 1e ad 3b 7d 3a 25 bc e8 29 d7 bb
       -0.010285213 0.0052831173 -0.0100847455 -0.006566275
000030 13 ae 94 bb 9b 3a 5f bc c7 4b 61 bb f5 f6 52 3c
       -0.004537353 -0.0136248125 -0.0034377442 0.012876262
000040 eb e7 98 bc 19 f2 97 3b da 22 45 bb 6a d4 fa 3b
       -0.018665275 0.0046370146 -0.0030080588 0.0076547163
000050 34 70 b5 3b a2 74 c8 bb 4b 66 89 bb 33 ce af bb
       0.0055370573 -0.0061174193 -0.0041931025 -0.005365157
000060 d2 ab 48 3c fc 50 ac bb fe d8 9e bb 2b a9 75 bb
       0.012247996 -0.0052586775 -0.004847645 -0.0037484865
000070 6f 42 f4 bb ca 45 85 3c 5d ff 6d bc 13 94 8e bb
       -0.0074542086 0.01626863 -0.014526215 -0.004351148
000080 72 7e 0c bc ea cb 52 ba bf f4 51 3c a5 e5 54 3b
       -0.008575069 -0.000804125 0.0128147 0.0032485512
000090 9b 02 cb 3b 1d ca e8 bb ed f8 a8 3b 72 4f e3 3b
       0.006195379 -0.007104172 0.0051566274 0.006936961
0000a0 6f 38 e6 ba 8b 44 9c b9 8f cb b2 3b 87 51 10 3c
       -0.0017564426 -0.00029805707 0.005456395 0.0088085
0000b0 5d 96 83 bb 20 56 a0 bc a9 06 0b 3c 70 af 03 3c
       -0.0040157274 -0.019572318 0.008485475 0.008037433
0000c0 41 eb 21 3c 08 ed 40 3c 15 c1 3f 3c 23 71 1d bb
       0.009882749 0.011775263 0.011703749 -0.0024023734
0000d0 33 1b 0c bc e8 83 9f ba 48 be fc ba 23 a1 5f bc
       -0.008551407 -0.0012170048 -0.0019282782 -0.013649258
0000e0 63 b1 8b bb 5a 3e 5c bb 35 05 6c bc 36 75 43 3b
       -0.0042630895 -0.00336065 -0.014405538 0.0029824502
0000f0 df 79 69 3b 3b b9 b3 3b 28 d2 61 3b 23 58 e5 3b
       0.003562562 0.0054847277 0.0034457538 0.006999032
000100 9b 95 2a 3c 3f 56 21 3a 0d eb fd bb b7 2c 85 bc
       0.010411645 0.0006154514 -0.0077489675 -0.016256673
000110 af 16 c0 3b 2a 56 17 3c 2d 84 00 3b 39 d6 0c 3c
       0.005862079 0.009236852 0.0019610033 0.008595997
000120 d4 c1 0a 3a 79 4b ad 3b 2f 17 6d 3b 29 a9 10 bc
       0.0005293165 0.005288538 0.0036177149 -0.008829393
000130 78 05 78 bc 32 a6 07 bb 33 22 c0 bb 04 c4 29 3b
       -0.015138023 -0.0020698425 -0.005863452 0.0025904188
000140 af f0 45 3c a3 a9 ce 3a c8 d5 05 bc 3f 18 d2 3b
       0.012081309 0.0015767108 -0.008168645 0.0064115818
000150 d9 2b bb 3b 7c e6 2c 3b 94 69 3d bc 6e 24 a6 3b
       0.005712014 0.0026382497 -0.011560816 0.0050702607
000160 5f 65 71 3c 9e 28 33 bc 6f c4 b7 3b 52 09 5a bb
       0.014733641 -0.010934977 0.0056081335 -0.0033269715
000170 d8 27 59 ba 7f 66 fa bb 9f 4b 1e bc 2d 04 4c bc
       -0.000828383 -0.007641613 -0.009661584 -0.012452167
000180 80 eb 51 bb 2a 7c 83 bb 74 c2 aa bb 46 af bb 3b
       -0.0032031238 -0.0040126042 -0.005211169 0.0057276813
000190 ab 1d ea 3a 57 87 05 bc ea 5f 0a bb 2a d0 f3 ba
       0.0017861625 -0.008149943 -0.0021114298 -0.0018601466
0001a0 ff 6c 10 3c 88 52 30 bc e2 ee 63 3c 93 77 c3 b8
       0.008815049 -0.0107618645 0.013911935 -9.320597e-05
0001b0 4b 6a ed bb e5 ee 4e bc ed 92 01 3c 78 a6 0d 3b
       -0.007245337 -0.012630199 0.007908565 0.0021614116
0001c0 48 34 81 3c e5 a3 33 bb 3f 34 b3 bb bf 1c 3a bc
       0.015772 -0.0027410921 -0.0054688747 -0.011359393
0001d0 bf b7 2a 3c 1f 40 47 3c fd 5c 30 3c ab c5 0e bc
       0.010419785 0.012161284 0.010764358 -0.00871412
0001e0 1b ef ea 3b b5 53 de b9 af 8f 1e bb 60 65 ac bc
       0.007169617 -0.00042405506 -0.0024194529 -0.021044433
0001f0 63 b8 9e 3c 8f d0 17 bc 42 33 fd bb c1 8e 3f 3b
       0.019375032 -0.009266033 -0.0077270577 0.0029229375
000200 e0 aa 5f bc 73 15 00 bc 35 ac 83 3b 30 e1 ca 3b
       -0.01365158 -0.007817614 0.0040183314 0.006191395
000210 1b 40 e7 3b c3 ee 41 3a d2 4d ae bb e3 23 b9 3b
       0.0070572025 0.0007397944 -0.0053193355 0.00565003
000220 e8 ec c1 3b f2 c2 86 bb 38 f2 0c 3b 32 00 dc ba
       0.005918134 -0.0041125948 0.0021506678 -0.0016784726
000230 ab 89 67 bb c0 94 4e bc 5a 3d c1 3b 54 c6 4c bb
       -0.003532986 -0.012608707 0.0058972063 -0.0031246142
000240 c1 97 91 3b ab 80 98 bc b7 15 94 3a d3 d2 f2 3c
       0.0044431393 -0.018616041 0.0011297975 0.029641544
000250 05 e3 9e bb 17 a1 46 3b 2f 1d bf 3b 90 8e 25 bb
       -0.00484884 0.003030842 0.0058323364 -0.0025261976
000260 0c fc bf bb 4e b0 bc bb 8a e0 51 3b bd 24 ff ba
       -0.0058589038 -0.005758322 0.0032024705 -0.0019465905
000270 62 f2 07 3c 9b 88 d0 3b 27 3d 4c bb f7 f7 b8 3a
       0.008297535 0.006363941 -0.003116438 0.0014111985
000280 3a af e3 3b f7 49 be 3b a8 30 fe 3b 19 e0 3e bc
       0.006948379 0.005807157 0.007757265 -0.011650109
000290 4d 68 c3 bc c5 e4 36 bc 3f aa 26 3c fb 1c 3f bb
       -0.023853445 -0.011162941 0.010172426 -0.002916156
0002a0 28 d0 e4 3b e5 c6 c3 3a 6b 0a 1b ba e2 13 a8 ba
       0.006982822 0.0014936595 -0.0005914333 -0.0012823308
0002b0 2c 56 a9 3b 07 14 c6 3b 2b 3f 0c bc c1 44 9b 3b
       0.005167743 0.006044868 -0.008559982 0.0047384207
0002c0 24 36 31 bc f3 0a 0f bb 67 f8 ff ba 53 35 50 3c
       -0.010816131 -0.0021826595 -0.0019528986 0.012708026
0002d0 c7 49 ac 3b 12 59 fd bb 58 3a 97 bb f8 6b 6b 3c
       0.0052578184 -0.0077315653 -0.0046151094 0.0143690035
0002e0 0f a6 84 3c e5 2e f6 3a 39 96 10 3c be 89 88 3b
       0.016192464 0.0018782286 0.008824878 0.004166811
0002f0 ab 8d 6d bc 8d e7 df ba 7b 7e 05 bb 80 df 7d 3b
       -0.014499108 -0.0017082557 -0.0020369578 0.0038737953
000300 bf 7f 64 bc 3f b7 97 bc f9 bc 1c 3c c4 db 94 3c
       -0.013946473 -0.018519996 0.009566539 0.018171199
000310 72 65 ae bc 6b ad 49 b9 d6 19 bf bb 25 1b d8 3b
       -0.021288607 -0.00019233457 -0.0058319373 0.0065950328
000320 83 c5 e4 3b 9f f0 6b 3c 9d 00 18 3c e7 ee 44 3c
       0.006981553 0.01440063 0.00927749 0.012019849
000330 07 c6 94 3b df ce e5 bb 72 6d d9 3a 02 02 20 bb
       0.0045402083 -0.0070131863 0.0016588403 -0.002441526
000340 60 e7 d3 bb cf 13 79 3b 72 0e 0a bb e5 5d 6c bb
       -0.006466791 0.0038006192 -0.002106574 -0.0036066708
000350 3b 9a 2b bc 33 13 bc 3b 80 81 55 bc b4 44 40 3b
       -0.010473783 0.0057395934 -0.0130313635 0.0029337825
000360 95 8c 19 3c 28 c3 da 3b e8 c7 f8 bb 53 ec 97 bb
       0.009371896 0.0066760965 -0.00759219 -0.0046363263
000370 77 a7 06 3b ca b5 5b b6 d8 20 73 bc 23 a2 32 3c
       0.0020546594 -3.2739358e-06 -0.0148393735 0.010902914
000380 30 9d 0e 3c b2 3f be bb 9f 67 91 bb 43 22 0b 3c
       0.008704469 -0.005805933 -0.0044374014 0.008492055
000390 1b 2c 11 ba e8 d4 2f 3c 2f 33 61 bc 35 48 0d bc
       -0.0005537883 0.010731913 -0.013745113 -0.0086231725
0003a0 49 a7 82 3b ff c2 02 bb d8 21 52 3c a1 94 44 bc
       0.003987227 -0.0019952653 0.012825452 -0.0119983265
0003b0 2f 3b 19 3c 65 54 77 3c ef 3b 8c ba ff ba 62 bb
       0.009352489 0.015095805 -0.0010699014 -0.0034596322
0003c0 1f 80 57 3c 6a 10 1b 39 8b be 87 3b 63 4e 00 bb
       0.013153105 0.00014788067 0.0041425875 -0.0019577972
0003d0 07 25 93 bc 1f 8e 28 bc 38 21 33 3c 55 14 8c 3b
       -0.017961992 -0.010287791 0.010933213 0.0042748847
0003e0 25 6a 13 bc d9 08 1f 3b c7 b2 92 bb c0 6f 40 bb
       -0.008997475 0.0024266748 -0.0044768783 -0.0029363483
0003f0 1d e3 0a bc 43 dc 99 38 83 dc dd b8 6d 4a 55 bc
       -0.008477 7.3366355e-05 -0.00010579175 -0.013018233

action_model._discrete_distribution.branches.1.bias f4 [3]
000000 00 00 00 00 00 00 00 00 00 00 00 00
       0.0 0.0 0.0

action_model._discrete_distribution.branches.1.weight f4 [3, 128]
000000 1e 17 84 bc 45 b0 89 3b df 21 03 bb 1f 60 17 3c
       -0.016124304 0.004201921 -0.0020009202 0.009239226
000010 a0 03 4e 3b cf 04 7d bb bc db 1a bb de 47 8d 3c
       0.0031435266 -0.0038607602 -0.0023629507 0.017246183
000020 b9 4d b3 bb 67 6e 38 bc 14 e8 42 bb bb 1a f6 bb
       -0.0054719117 -0.011256791 -0.002974038 -0.0075105107
000030 af e1 0e bc 25 3d 75 3c 9a e7 4a bc 57 83 8b bc
       -0.008720799 0.014968191 -0.01238432 -0.017030401
000040 53 27 9e 3b 6f 55 89 3c f7 a6 c2 3b 2c ab 15 3c
       0.004826465 0.01676437 0.005940314 0.009135049
000050 56 0e 23 3b a7 b7 19 3c f0 56 d0 bb f1 5c c9 bb
       0.002488037 0.009382165 -0.00635802 -0.0061451127
000060 25 f8 de bb 6b 0a 4f bb 18 e4 bd 3b 77 17 87 3c
       -0.0068044835 -0.0031591903 0.005795013 0.016490681
000070 90 6a eb 3a f8 a1 64 3c ad 34 96 3c a7 51 42 bb
       0.0017960835 0.013954632 0.018335665 -0.002965072
000080 19 a8 10 3c 39 e4 91 3c 13 d4 70 3c 2f 00 85 3b
       0.00882914 0.01780902 0.014699 0.00405886
000090 ab da ba bb dc 59 14 bc b4 bd 3a bc 02 f0 00 bc
       -0.005702337 -0.009054627 -0.011397768 -0.007869722
0000a0 ef 8b 54 bb a8 be 4a 3c 18 48 7c 3b be 54 a6 3b
       -0.003243204 0.012374558 0.003849512 0.00507602
0000b0 89 da 45 38 a7 9f 52 3c d3 20 c2 3b 47 b9 a0 bc
       4.7171987e-05 0.012855447 0.005924323 -0.019619597
0000c0 a7 ea 3b 3c 63 66 4f 3c b6 e1 24 bc ba ea 22 bc
       0.01146952 0.012658688 -0.010063579 -0.0099436585
0000d0 db 8e ca 3b d3 f5 b8 3c 3e 0c 07 3c bb c4 08 3b
       0.0061815805 0.022578156 0.008242665 0.0020869214
0000e0 70 3d 51 bb 3e 93 04 bc 4a e9 61 bc c7 7c 38 bb
       -0.0031927489 -0.008091746 -0.013788531 -0.0028150545
0000f0 fd 89 e0 ba 8b 08 87 3c eb fa 61 3b ac 4c 80 3c
       -0.0017130967 0.016483566 0.0034481834 0.01566156
000100 3f 7f d6 ba 1f f9 41 bc 9f b8 16 bc 7f ce 83 3c
       -0.0016364827 -0.01183918 -0.009199291 0.016089676
000110 43 c7 f8 ba 85 60 7b bb 7a 0a d3 3b a5 c9 a1 3b
       -0.0018980283 -0.003835709 0.006440458 0.004937368
000120 18 36 e7 3b 98 a5 b2 3a 53 37 62 bc ec 9f 80 bc
       0.007056009 0.0013629673 -0.013807136 -0.015701257
000130 d8 df 5f bc e3 79 0f 3c 6a 9b 78 3a 6b f4 42 3c
       -0.013664208 0.008757087 0.0009483608 0.011899094
000140 0b c9 b1 3b 2a 5b bc 3c 14 f1 92 bb f8 cd db bb
       0.0054255775 0.02299269 -0.004484305 -0.006707903
000150 5a 5b 73 bc 14 aa 47 bc 05 3d 58 3b 38 2b 79 bb
       -0.014853323 -0.012186546 0.0032995355 -0.0038020145
000160 e2 c6 68 39 07 30 26 3c 99 74 46 bc 13 96 90 ba
       0.00022199334 0.010143287 -0.01211276 -0.0011031054
000170 70 f5 7c 3b 37 7f 62 bb 05 ff 7e 3c e2 78 a4 39
       0.003859844 -0.003456069 0.015563731 0.00031370582
000180 7d 9d a8 bb 77 4d 98 3c 4b 34 4e bc a2 cc 4e 3b
       -0.005145727 0.018591626 -0.01258571 0.0031555076
000190 e9 a4 4a bc 88 52 cc 3b 65 fb d7 bb af 1d 88 bb
       -0.012368419 0.0062354244 -0.006591248 -0.004153929
0001a0 05 87 15 3c e3 ab 95 bc 54 0f 99 bb 4b 3a a0 3b
       0.009126429 -0.018270439 -0.0046710167 0.0048897616
0001b0 03 6f 28 3c c6 7b 8c bc ab e4 3b bc 96 2a b1 bb
       0.0102803735 -0.017148864 -0.011468093 -0.005406688
0001c0 5f fd 95 3b 15 6b d4 bb eb 9b 1c 3c a5 ef 7f bb
       0.0045773233 -0.0064824917 0.009558658 -0.0039052751
0001d0 aa d4 59 bc 79 13 48 3c 72 76 96 bc b2 a9 24 bc
       -0.013295332 0.012211674 -0.018367026 -0.010050224
0001e0 48 d0 e4 bb 33 4a 55 bc ea f2 9c bb fd bf a7 3b
       -0.006982837 -0.013018179 -0.0047897 0.0051193223
0001f0 94 12 8a 3b 58 93 fc 38 4b 16 1b 3b 50 d6 28 bc
       0.0042136405 0.00012043741 0.002366441 -0.010305002
000200 e1 75 b4 3b e7 94 4d bc 06 92 88 b9 72 a6 43 3c
       0.0055072163 -0.012547708 -0.00026048737 0.011941539
000210 2f 26 e4 3b 74 32 05 bc 97 bb 3f 3b af cb a5 3b
       0.0069625597 -0.008129705 0.00292561 0.0050596814
000220 ff 40 1d 3c 15 04 1c 3c 83 99 52 bb 7d 9b 12 bc
       0.009598016 0.009522458 -0.0032134957 -0.008948204
000230 9c c7 bb 3b dc 35 16 bc 80 10 4c b8 27 76 80 bc
       0.0057305824 -0.0091681145 -4.8652757e-05 -0.01568134
000240 a3 70 d7 bb 17 73 57 3c 4b 61 8b 3c 23 c6 c6 3a
       -0.0065747066 0.013149998 0.017014166 0.001516525
000250 b5 28 31 3c df 48 a9 38 6f 7e 4a b9 3b 17 63 bc
       0.010812928 8.072121e-05 -0.00019311321 -0.013860519
000260 78 52 a1 3a 8a 6a 16 b9 79 cc c6 39 d7 33 47 bc
       0.0012307903 -0.00014344804 0.00037917847 -0.012158356
000270 17 e3 49 3c ed 9c e3 3b dc 43 0b bc 1a e4 03 3b
       0.012322209 0.0069461972 -0.008500066 0.0020124973
000280 bb b4 0e 3b e5 38 cf bb 9a 65 23 bc 0b 21 56 bb
       0.0021775204 -0.006323921 -0.009972954 -0.0032673504
000290 de 07 11 3c a3 22 5e bb c3 a4 12 3b e5 52 7e 3b
       0.008851973 -0.0033895157 0.0022376038 0.0038806733
0002a0 fe 6e 0c bc ad 76 cf 3a e0 5e df 3a 0f f6 4a 3b
       -0.0085713845 0.0015828215 0.0017041825 0.0030969416
0002b0 1d 0e e5 3b e0 62 a0 bb c6 be 01 3b c8 3a a6 3b
       0.006990208 -0.0048945993 0.0019797548 0.0050729252
0002c0 28 32 77 bc 50 6e 76 3c 6f 7e eb 3a 4f 19 23 bc
       -0.015087642 0.015040949 0.0017966757 -0.0099547645
0002d0 95 98 62 bb 65 61 e6 3b d8 5d 85 bc ed 06 44 b9
       -0.003457581 0.0070306533 -0.0162801 -0.00018694597
0002e0 d8 e3 f8 3b b0 bb 36 bb 5b 67 1f bc 99 d2 16 bc
       0.0075955205 -0.0027882867 -0.009729232 -0.009205484
0002f0 10 3f 91 3c aa cc b9 3b 3e a3 06 bb 10 7d cf 39
       0.017730266 0.00567015 -0.0020544077 0.00039575296
000300 9b 1f 35 bc f8 64 1d 3c 93 14 c6 3b 4d 23 9c bb
       -0.011054899 0.009606592 0.006044933 -0.0047649504
000310 b3 72 fc 3b ca f2 e8 3b 6e b2 cb 3b b8 12 21 bc
       0.007704103 0.007109021 0.006216339 -0.009831123
000320 87 af b0 bb 00 04 9f 3b 92 60 1b 3c 83 7e a2 3b
       -0.0053920182 0.0048527718 0.009483473 0.004958929
000330 5f 26 6c 3c d3 69 96 bb 07 2e 74 bb 13 22 86 bb
       0.014413445 -0.004590252 -0.003725888 -0.0040934174
000340 33 de 74 3b 79 13 25 3c 93 f6 5a 3b b8 15 9d bc
       0.0037363886 0.010075443 0.003341113 -0.019175395
000350 25 c2 db bb 67 ce 77 3c 3a fd a3 3b 44 ad 47 3b
       -0.0067064934 0.015124894 0.005004552 0.0030468265
000360 4e 59 0e 3c 7c 45 89 bc 5a 0d 2c ba 82 96 78 bc
       0.008688284 -0.016756766 -0.0006563269 -0.015172603
000370 5b f7 07 bb ec c8 84 3b a7 64 2a 3c 66 04 31 3b
       -0.00207468 0.004052272 0.010399974 0.0027010678
000380 77 0f 0b 3c 71 65 00 bc 93 cc 2b bc ad be 35 bb
       0.008487574 -0.0078366855 -0.010485786 -0.002773206
000390 e3 58 94 bb b0 0f 0d 3c 41 d0 b7 3b 61 06 2f bb
       -0.0045271977 0.008609697 0.0056095426 -0.0026706683
0003a0 49 5c 45 3c 73 74 68 3b 17 28 32 3b 3e 8d 0a 3b
       0.012045928 0.00354698 0.002718454 0.0021141316
0003b0 4f b0 8c bb 27 a3 b7 38 09 f8 12 3b ab a1 0f 3b
       -0.0042934786 8.7565095e-05 0.0022425673 0.002191643
0003c0 67 e4 80 3c 18 e0 71 ba 83 1d 3e bc 5b 0c 41 bb
       0.01573391 -0.0009226813 -0.011603716 -0.0029456827
0003d0 f7 18 49 3c 45 23 ee bc d7 20 0a bc cb 79 f2 38
       0.0122740185 -0.029069552 -0.008430681 0.00011562145
0003e0 04 7d 37 ba d1 28 0d 3c e1 df 89 3b ac 49 1a 3c
       -0.0006999525 0.008615688 0.0042075966 0.009416979
0003f0 f7 02 1a 3c 6f 6c 14 3c 9d b1 c4 3b d8 4b 2e 3c
       0.009400121 0.009059056 0.0060026185 0.0106382

discrete_action_output_shape f4 [1, 2]
000000 00 00 40 40 00 00 40 40
       3.0 3.0

network_body._body_endoder.seq_layers.0.bias f4 [128]
000000 00 00 00 00 00 00 00 00 00 00 00 00 00 00 00 00
       0.0 0.0 0.0 0.0
000010 00 00 00 00 00 00 00 00 00 00 00 00 00 00 00 00
       0.0 0.0 0.0 0.0
000020 00 00 00 00 00 00 00 00 00 00 00 00 00 00 00 00
       0.0 0.0 0.0 0.0
000030 00 00 00 00 00 00 00 00 00 00 00 00 00 00 00 00
       0.0 0.0 0.0 0.0
000040 00 00 00 00 00 00 00 00 00 00 00 00 00 00 00 00
       0.0 0.0 0.0 0.0
000050 00 00 00 00 00 00 00 00 00 00 00 00 00 00 00 00
       0.0 0.0 0.0 0.0
000060 00 00 00 00 00 00 00 00 00 00 00 00 00 00 00 00
       0.0 0.0 0.0 0.0
000070 00 00 00 00 00 00 00 00 00 00 00 00 00 00 00 00
       0.0 0.0 0.0 0.0
000080 00 00 00 00 00 00 00 00 00 00 00 00 00 00 00 00
       0.0 0.0 0.0 0.0
000090 00 00 00 00 00 00 00 00 00 00 00 00 00 00 00 00
       0.0 0.0 0.0 0.0
0000a0 00 00 00 00 00 00 00 00 00 00 00 00 00 00 00 00
       0.0 0.0 0.0 0.0
0000b0 00 00 00 00 00 00 00 00 00 00 00 00 00 00 00 00
       0.0 0.0 0.0 0.0
0000c0 00 00 00 00 00 00 00 00 00 00 00 00 00 00 00 00
       0.0 0.0 0.0 0.0
0000d0 00 00 00 00 00 00 00 00 00 00 00 00 00 00 00 00
       0.0 0.0 0.0 0.0
0000e0 00 00 00 00 00 00 00 00 00 00 00 00 00 00 00 00
       0.0 0.0 0.0 0.0
0000f0 00 00 00 00 00 00 00 00 00 00 00 00 00 00 00 00
       0.0 0.0 0.0 0.0
000100 00 00 00 00 00 00 00 00 00 00 00 00 00 00 00 00
       0.0 0.0 0.0 0.0
000110 00 00 00 00 00 00 00 00 00 00 00 00 00 00 00 00
       0.0 0.0 0.0 0.0
000120 00 00 00 00 00 00 00 00 00 00 00 00 00 00 00 00
       0.0 0.0 0.0 0.0
000130 00 00 00 00 00 00 00 00 00 00 00 00 00 00 00 00
       0.0 0.0 0.0 0.0
000140 00 00 00 00 00 00 00 00 00 00 00 00 00 00 00 00
       0.0 0.0 0.0 0.0
000150 00 00 00 00 00 00 00 00 00 00 00 00 00 00 00 00
       0.0 0.0 0.0 0.0
000160 00 00 00 00 00 00 00 00 00 00 00 00 00 00 00 00
       0.0 0.0 0.0 0.0
000170 00 00 00 00 00 00 00 00 00 00 00 00 00 00 00 00
       0.0 0.0 0.0 0.0
000180 00 00 00 00 00 00 00 00 00 00 00 00 00 00 00 00
       0.0 0.0 0.0 0.0
000190 00 00 00 00 00 00 00 00 00 00 00 00 00 00 00 00
       0.0 0.0 0.0 0.0
0001a0 00 00 00 00 00 00 00 00 00 00 00 00 00 00 00 00
       0.0 0.0 0.0 0.0
0001b0 00 00 00 00 00 00 00 00 00 00 00 00 00 00 00 00
       0.0 0.0 0.0 0.0
0001c0 00 00 00 00 00 00 00 00 00 00 00 00 00 00 00 00
       0.0 0.0 0.0 0.0
0001d0 00 00 00 00 00 00 00 00 00 00 00 00 00 00 00 00
       0.0 0.0 0.0 0.0
0001e0 00 00 00 00 00 00 00 00 00 00 00 00 00 00 00 00
       0.0 0.0 0.0 0.0
0001f0 00 00 00 00 00 00 00 00 00 00 00 00 00 00 00 00
       0.0 0.0 0.0 0.0

network_body._body_endoder.seq_layers.0.weight f4 [128, 138]
000000 91 10 e1 3c dc 8e b2 bd 04 43 b6 bd 4f b6 b4 3d
       0.02747372 -0.087186545 -0.08899501 0.08823835
000010 52 69 54 bd c9 f3 a5 3b 3e 74 0b be 80 09 97 bd
       -0.051858254 0.005064462 -0.13618562 -0.07374859
000020 90 0b 50 bd 78 d6 4b be 02 c0 c0 3c 32 00 8b 3c
       -0.050792277 -0.19906032 0.023529056 0.016967867
000030 b4 33 8a bd e9 b2 a3 bd 92 00 92 bd 96 75 a6 bc
       -0.06748143 -0.07993109 -0.07129015 -0.020319741
000040 24 a1 75 3d 83 bc 50 3d 61 4c 57 bd 40 4e 39 bd
       0.05996813 0.05096103 -0.052563075 -0.04524064
000050 42 71 33 bc 66 d0 1d bc 46 38 ab 3d 66 88 c0 bc
       -0.010952296 -0.009632206 0.08360343 -0.02350254
000060 49 07 31 3b 96 cf 83 bc f1 a1 ca bd e3 34 ce 3b
       0.00270124 -0.016090196 -0.09894169 0.0062929257
000070 c6 75 99 3c fb 87 1a be 96 8c 12 3c ba cc 3a 3d
       0.018732917 -0.15090935 0.008944651 0.0456054
000080 20 50 1b 3e e7 25 d6 bd a1 3a c9 3d ad 07 8b 3c
       0.15167284 -0.10456448 0.09825636 0.016971434
000090 5a b6 d1 3d ed 60 20 3d 7e ff e2 3b 6a a5 b9 bd
       0.10239859 0.039154936 0.0069274297 -0.09064753
0000a0 9e 42 5d be ed a9 b9 3d ae 1c 2b 3d 99 d4 ee bd
       -0.21607444 0.09065614 0.041775398 -0.116616435
0000b0 58 ee 94 3d 59 62 38 bc ae 02 82 3d 99 8d bf 3d
       0.07272023 -0.011253917 0.06348167 0.093531795
0000c0 62 a7 9a bd ea 48 f2 bd e7 da b2 3d 70 65 e4 bd
       -0.07551457 -0.118303135 0.087331586 -0.1115216
0000d0 7f 55 6b bd 9b 9f d3 bd 24 c8 ca 3c 34 bd d9 bd
       -0.057454582 -0.10333177 0.024753638 -0.10631791
0000e0 68 ef 32 be 7a 49 43 3c e1 81 8c 3d ea 82 91 ba
       -0.17474139 0.011919374 0.0686071 -0.0011101638
0000f0 5c 4b c8 bd 63 cb bf bd 62 05 79 3d 68 37 20 be
       -0.09779999 -0.09364965 0.06079615 -0.15646136
000100 75 65 60 3b 35 6d 23 bd a1 e7 c0 bc 96 f2 e9 bc
       0.003424016 -0.03989907 -0.02354795 -0.028558057
000110 d2 33 1c be 64 87 f5 bd 63 4a 00 be 02 39 0d be
       -0.15254143 -0.11988714 -0.12528376 -0.13791278
000120 89 ce 0b 3d b6 a4 f7 bd cc 53 f4 bd 3c 76 6e 3c
       0.034132514 -0.12091963 -0.119300455 0.014554556
000130 37 7f 04 3d 6b 16 92 bc 36 bc de bb 56 58 93 3d
       0.032347884 -0.017832955 -0.006797339 0.07194583
000140 81 bf 63 be bf c0 72 bd c1 54 6c bd 0b 66 20 be
       -0.22241022 -0.05926585 -0.057698015 -0.15663926
000150 a8 53 b9 3c 21 c8 3b 3d dd d4 14 3d e1 f5 e6 3d
       0.022622898 0.045845155 0.036335815 0.112773664
000160 9d 98 f1 3d 81 4e d0 3d 95 ff 1e 3c a5 be da 3d
       0.11796687 0.101712234 0.00970449 0.10680894
000170 17 7a fa 3d 24 c8 53 3d d8 f8 33 3c 47 0f 2b bc
       0.12230318 0.05170454 0.010984622 -0.010440654
000180 5a 71 54 3c 34 2c d3 bc 0e df fd bc 18 30 c1 bd
       0.012966478 -0.025777914 -0.03099015 -0.09433001
000190 d5 2e b0 3d bb 35 20 3e ea bf 1a 3e 92 89 c7 ba
       0.086026825 0.15645497 0.15112272 -0.0015223494
0001a0 da 81 aa bd 7e 83 03 bd 95 bc 91 be 05 b9 21 be
       -0.083255485 -0.032107823 -0.2846419 -0.15793236
0001b0 c4 05 a7 bd 2a 43 37 bd 60 d5 9d 3d 71 39 38 bb
       -0.081553966 -0.044741787 0.07706714 -0.002811041
0001c0 c8 42 aa bc 10 a3 cd ba f9 de 26 bc c1 75 37 bd
       -0.020783797 -0.0015688855 -0.010184997 -0.044790033
0001d0 1c d8 82 bc 0e c6 6a 3c b0 4d d1 bd 1e 88 bc bd
       -0.01597219 0.0143294465 -0.10219896 -0.0920565
0001e0 50 af 05 3d 7a 68 ca bc e5 08 bf 3d b9 24 3e bd
       0.032637894 -0.024708021 0.09327868 -0.04642174
0001f0 89 2a 82 bc fb e6 1c 3e 05 8d 00 bd 16 58 9c 3c
       -0.015889423 0.15322487 -0.031384487 0.019084971
000200 4c ce ae bc 6b 4e 5b 3d 0b 60 73 3c b1 56 03 be
       -0.021338604 0.053541582 0.014854441 -0.12826039
000210 7e 36 34 3d 8e 47 62 bd 54 33 d0 bd 59 3e 02 bd
       0.04399728 -0.05524402 -0.1016604 -0.03179774
000220 14 ed 23 3d e5 18 37 bc 19 d8 6e 3d 39 ad 24 bd
       0.040021017 -0.011175369 0.058311556 -0.04020426
000230 9e f9 b0 bd 39 e9 04 be b1 b1 a2 bd 8e 5f 35 bd
       -0.08641361 -0.12979592 -0.07944048 -0.04428058
000240 d2 c5 90 bd 72 5f 90 bd b8 b1 11 3e 86 c8 a9 3d
       -0.07068981 -0.07049455 0.1422795 0.082902
000250 c8 35 88 3d 38 41 98 bd d3 de 2f bd 73 74 4c 3a
       0.06650883 -0.074343145 -0.04293711 0.00077993347
000260 d9 df 8f bd 27 17 f1 3d f8 f4 4a 3d 8f e6 63 bd
       -0.070251174 0.11771994 0.049550027 -0.0556398
000270 1d e1 42 3d b9 34 03 3e 3c 71 2a 3d 4e 41 6e bd
       0.047577966 0.12813081 0.041611895 -0.05816775
000280 aa e9 3a 3d d0 47 b6 3c a5 9c 6a bd 5a d5 e3 bc
       0.045632996 0.02225104 -0.057278294 -0.027811695
000290 82 9c 19 be 32 a1 9e 3d 54 dd 59 bc f0 51 61 bb
       -0.15001109 0.07745589 -0.013297398 -0.0034381114
0002a0 66 32 fb 3c bb c0 e4 bd 63 c5 9f 3d b9 84 ee bc
       0.03066368 -0.11169573 0.078013204 -0.029116021
0002b0 64 41 f7 3c 49 22 25 bd b5 f8 fd bc 73 c6 82 3d
       0.030182548 -0.0403159 -0.031002382 0.063855074
0002c0 d2 8f 04 3d 70 89 07 3e 51 6e 1e 3e 69 93 84 3d
       0.03236372 0.13236022 0.1547177 0.06473429
0002d0 43 c2 1e 3e b2 20 58 3d 2d e1 09 3d 09 c0 46 3d
       0.15503792 0.052765556 0.03366201 0.048522983
0002e0 bf 14 b6 3c e0 5d c2 bb 45 f7 c6 bd 9e 55 87 bd
       0.02222669 -0.005931601 -0.09715132 -0.06608127
0002f0 f5 e0 5c bd d4 e1 9f bd 1f 10 6c bd 46 eb 1e bd
       -0.053925473 -0.07806745 -0.05763256 -0.038798593
000300 36 95 88 bd be ac a8 ba 0a 42 ec bc 54 73 cd 3c
       -0.06669085 -0.0012868864 -0.028840084 0.025079407
000310 36 16 71 3d c2 99 f9 3d db 40 04 3e a8 54 32 3e
       0.058859073 0.1218753 0.12915365 0.17415106
000320 83 43 1b be 6b 22 9b bc 69 61 89 bd dd 13 a3 3c
       -0.15162472 -0.01893731 -0.06708033 0.019906932
000330 55 95 a9 3d 3e 0a 00 3d 80 9f cb 3c be 93 48 bc
       0.08280436 0.031259768 0.024856329 -0.012242256
000340 43 3c ed bd 02 10 54 bc 1d a0 2b 3e 2f 93 4f 3d
       -0.1158376 -0.01294327 0.16760297 0.050677475
000350 a3 6b 59 3a 09 39 07 bd db 9d e9 3d f6 6d 1e 3d
       0.0008293932 -0.033013377 0.11407062 0.038679086
000360 ff 03 a0 bc df 4e 11 3d 16 22 d5 3d 40 0c 75 3d
       -0.019533155 0.035475608 0.10406892 0.059826136
000370 19 91 ac 3d 3d 04 27 3d 69 ce 0f 3e d5 f8 b7 3d
       0.08426113 0.040775526 0.14043583 0.08983008
000380 ad 81 be 3d 4b 36 bb bd 67 05 0d be eb c8 cc bd
       0.093020774 -0.09141215 -0.13771592 -0.099992596
000390 6e 8c ae bc 74 e5 9c bc c3 47 15 3d 61 5a 9d bd
       -0.021307196 -0.01915238 0.03644539 -0.07683254
0003a0 6c 07 6a 3e b9 c8 2a be d3 49 5f bc 69 63 e0 bd
       0.22854394 -0.16678132 -0.013628441 -0.10956461
0003b0 ac a7 7f 3d 00 c7 da bd 63 16 0b 3e 8c 5e 70 3d
       0.062415764 -0.106824875 0.13582759 0.058683917
0003c0 03 d0 0b bc 64 51 84 bd 8d 57 5c 3d 42 a1 ca 3d
       -0.008533481 -0.064608365 0.053794432 0.09894039
0003d0 ec 53 10 3c cf a3 93 3c 80 f8 34 3d 5f 73 91 bd
       0.008809071 0.018022446 0.0441823 -0.071020834
0003e0 87 6c eb 3c a9 cf 0a 3b b2 f1 7d 3c 70 4e 3f 3d
       0.028738273 0.0021180904 0.015499519 0.046705663
0003f0 0b 54 bc 3d 7c 40 d3 3a 23 56 85 3c b1 da a9 3c
       0.091957174 0.001611724 0.016276425 0.020734163

network_body._body_endoder.seq_layers.2.bias f4 [128]
000000 00 00 00 00 00 00 00 00 00 00 00 00 00 00 00 00
       0.0 0.0 0.0 0.0
000010 00 00 00 00 00 00 00 00 00 00 00 00 00 00 00 00
       0.0 0.0 0.0 0.0
000020 00 00 00 00 00 00 00 00 00 00 00 00 00 00 00 00
       0.0 0.0 0.0 0.0
000030 00 00 00 00 00 00 00 00 00 00 00 00 00 00 00 00
       0.0 0.0 0.0 0.0
000040 00 00 00 00 00 00 00 00 00 00 00 00 00 00 00 00
       0.0 0.0 0.0 0.0
000050 00 00 00 00 00 00 00 00 00 00 00 00 00 00 00 00
       0.0 0.0 0.0 0.0
000060 00 00 00 00 00 00 00 00 00 00 00 00 00 00 00 00
       0.0 0.0 0.0 0.0
000070 00 00 00 00 00 00 00 00 00 00 00 00 00 00 00 00
       0.0 0.0 0.0 0.0
000080 00 00 00 00 00 00 00 00 00 00 00 00 00 00 00 00
       0.0 0.0 0.0 0.0
000090 00 00 00 00 00 00 00 00 00 00 00 00 00 00 00 00
       0.0 0.0 0.0 0.0
0000a0 00 00 00 00 00 00 00 00 00 00 00 00 00 00 00 00
       0.0 0.0 0.0 0.0
0000b0 00 00 00 00 00 00 00 00 00 00 00 00 00 00 00 00
       0.0 0.0 0.0 0.0
0000c0 00 00 00 00 00 00 00 00 00 00 00 00 00 00 00 00
       0.0 0.0 0.0 0.0
0000d0 00 00 00 00 00 00 00 00 00 00 00 00 00 00 00 00
       0.0 0.0 0.0 0.0
0000e0 00 00 00 00 00 00 00 00 00 00 00 00 00 00 00 00
       0.0 0.0 0.0 0.0
0000f0 00 00 00 00 00 00 00 00 00 00 00 00 00 00 00 00
       0.0 0.0 0.0 0.0
000100 00 00 00 00 00 00 00 00 00 00 00 00 00 00 00 00
       0.0 0.0 0.0 0.0
000110 00 00 00 00 00 00 00 00 00 00 00 00 00 00 00 00
       0.0 0.0 0.0 0.0
000120 00 00 00 00 00 00 00 00 00 00 00 00 00 00 00 00
       0.0 0.0 0.0 0.0
000130 00 00 00 00 00 00 00 00 00 00 00 00 00 00 00 00
       0.0 0.0 0.0 0.0
000140 00 00 00 00 00 00 00 00 00 00 00 00 00 00 00 00
       0.0 0.0 0.0 0.0
000150 00 00 00 00 00 00 00 00 00 00 00 00 00 00 00 00
       0.0 0.0 0.0 0.0
000160 00 00 00 00 00 00 00 00 00 00 00 00 00 00 00 00
       0.0 0.0 0.0 0.0
000170 00 00 00 00 00 00 00 00 00 00 00 00 00 00 00 00
       0.0 0.0 0.0 0.0
000180 00 00 00 00 00 00 00 00 00 00 00 00 00 00 00 00
       0.0 0.0 0.0 0.0
000190 00 00 00 00 00 00 00 00 00 00 00 00 00 00 00 00
       0.0 0.0 0.0 0.0
0001a0 00 00 00 00 00 00 00 00 00 00 00 00 00 00 00 00
       0.0 0.0 0.0 0.0
0001b0 00 00 00 00 00 00 00 00 00 00 00 00 00 00 00 00
       0.0 0.0 0.0 0.0
0001c0 00 00 00 00 00 00 00 00 00 00 00 00 00 00 00 00
       0.0 0.0 0.0 0.0
0001d0 00 00 00 00 00 00 00 00 00 00 00 00 00 00 00 00
       0.0 0.0 0.0 0.0
0001e0 00 00 00 00 00 00 00 00 00 00 00 00 00 00 00 00
       0.0 0.0 0.0 0.0
0001f0 00 00 00 00 00 00 00 00 00 00 00 00 00 00 00 00
       0.0 0.0 0.0 0.0

network_body._body_endoder.seq_layers.2.weight f4 [128, 128]
000000 ab 5b 8c 3d 88 2f 22 3e 4e a2 b3 bd 42 97 19 bd
       0.06853422 0.15838444 -0.087711915 -0.037497766
000010 45 f2 89 bd 99 2b 4a bd b6 a1 1d 3e 2f 58 6f bd
       -0.06735662 -0.049357984 0.15393719 -0.058433708
000020 d9 33 fd bd 48 85 ef 3d 80 3b 1c 3d e8 79 42 3d
       -0.12363405 0.11695343 0.03814268 0.04747954
000030 f3 6f de 3d ec be 58 3c 6e f7 59 3c fd 55 02 be
       0.10861196 0.013229113 0.013303621 -0.12728114
000040 81 7b 83 3d e4 2c 63 3b a9 d7 8b 3d 93 98 b0 3d
       0.06420041 0.0034664208 0.06828243 0.08622851
000050 17 b0 d9 bd fc b4 5b 3c 89 24 fe 3d b2 2b 9a bd
       -0.106292896 0.013409849 0.12409312 -0.075278655
000060 10 9a 41 3e 7a dd 95 bd d4 5c 3f bb e5 ef 47 bc
       0.18906426 -0.07317634 -0.0029199617 -0.012203191
000070 36 7e e8 3d 52 30 81 bd 2c 41 c0 3d 27 48 06 3e
       0.11352198 -0.063080445 0.093874305 0.13113461
000080 43 f4 98 bd bf e0 67 bd 1d 03 c6 bc 10 a0 93 3d
       -0.07468464 -0.05661082 -0.024171406 0.07208264
000090 f5 3a 69 bd d6 6d 88 bd 24 b9 b9 bd 80 a3 54 3d
       -0.05694099 -0.066615745 -0.09068516 0.05191374
0000a0 60 2c fe 3c 38 a8 90 3c a5 2c 31 3e 79 8f 95 bd
       0.031027019 0.017658338 0.17302187 -0.07302756
0000b0 b5 6f 53 bc 8c 33 f2 bc e4 7d 41 bd c1 ea 30 be
       -0.012905051 -0.029565595 -0.0472392 -0.17277052
0000c0 e2 55 8d 3d fd fd fe 3d 2e 44 05 3e 04 1b 26 3e
       0.069011465 0.12450788 0.1301429 0.16221243
0000d0 13 09 73 3d c4 3a 1e 3d a2 bb 63 3d af 82 3d bc
       0.059334826 0.038630262 0.055598862 -0.011566802
0000e0 87 38 86 bd d6 46 c4 bc 9e cb a2 bc 26 25 d4 bd
       -0.065537505 -0.023959558 -0.019872483 -0.10358648
0000f0 04 43 ac 3d b2 43 64 bd d3 76 f0 3d 34 44 00 3d
       0.0841122 -0.05572862 0.11741414 0.031315044
000100 b5 14 55 3c 1c 98 f1 b9 25 81 da bd ec 17 d7 bd
       0.013005425 -0.00046080432 -0.106691636 -0.105026096
000110 31 f9 05 bd f7 87 e7 3c c9 22 2d 3d 26 ce c6 ba
       -0.03270835 0.028263075 0.0422695 -0.0015167638
000120 74 01 e7 3c 96 35 2b bd b2 57 c0 3d 68 55 00 3d
       0.028198935 -0.04179915 0.093917266 0.03133145
000130 ed 06 cb 3d 1e 81 6e 3d 07 ca 04 be 39 04 d0 bd
       0.0991343 0.058228604 -0.12967692 -0.101570554
000140 80 99 d1 3d 2f c0 8e bd dd 86 f1 bd e4 28 0b bd
       0.10234356 -0.0697025 -0.11793301 -0.033974543
000150 dd da d1 bb 9a 59 c8 bd ce b6 ba 3c cc b7 9a bd
       -0.0064042644 -0.09782715 0.022792246 -0.07554588
000160 9a 43 9d 3d c1 b9 c7 bb 2e d1 b4 3d 28 a5 82 3d
       0.076789096 -0.0060951416 0.0882896 0.06379157
000170 71 11 2e bd 5e dc 35 bd 25 b4 47 bd 80 80 2f bd
       -0.042497102 -0.04439961 -0.048755784 -0.042847157
000180 09 8a 00 3c 95 ef b9 bd bb 16 da 3d e2 43 cf bd
       0.00784541 -0.090789 0.10648867 -0.101203695
000190 c0 7a 53 3c 74 49 bc bd be 81 95 bd c5 ab b1 bd
       0.012907684 -0.091936976 -0.07300137 -0.086753406
0001a0 d7 80 22 3d e4 35 d1 bc 14 b3 02 be 30 c8 61 bd
       0.039673652 -0.025538392 -0.12763625 -0.055122554
0001b0 db 56 2a 3d 6c e3 c8 3a 44 a9 08 3e 32 35 99 bc
       0.041586738 0.0015326566 0.1334582 -0.018702123
0001c0 3c 0a 8a bc b1 fb f8 bc db 13 8e bd a6 bd 83 bb
       -0.016850583 -0.030393453 -0.06937381 -0.0040204106
0001d0 8e ee 5d bd 4f ce 8a bd ee 21 9a 3c 3a c6 9e bd
       -0.05418258 -0.067776315 0.018815007 -0.077526525
0001e0 88 8d 8d bd c0 25 79 3d 33 aa 45 bd 7e b1 1b be
       -0.069117606 0.060827017 -0.048258018 -0.15204427
0001f0 60 17 b1 bd f3 b2 54 bd 67 f0 10 bc 77 6e bb 3d
       -0.086470366 -0.05192847 -0.008846379 0.09151929
000200 90 1c bb 3d 3c fb e1 3d 5a db f3 3d 67 5f fd 3d
       0.09136307 0.11034247 0.11907072 0.12371712
000210 b6 46 3f bd 80 47 ba 3b fd 6c 89 3d 8f db 33 3e
       -0.046698295 0.005684793 0.06710241 0.17564224
000220 c4 e9 9e bb 77 8d 36 bc 5c c4 04 be cf 24 27 3a
       -0.0048496444 -0.011142126 -0.1296553 0.00063760293
000230 41 2c 42 bd d0 94 25 3d 1f ac 4e 3e 45 c5 5c 3d
       -0.047405485 0.04042512 0.20182846 0.05389907
000240 80 ef d5 3d c6 c0 48 bd fc 85 0d 3e 1f 1c f0 3c
       0.104460716 -0.049011968 0.13820642 0.029310284
000250 80 1e 75 3d a7 6c 5f bd 08 81 aa bd 9f c7 f9 3d
       0.05984354 -0.05454698 -0.08325392 0.12196278
000260 c2 8c 38 bc 3c e7 1d 3d 75 70 96 3c f9 c1 41 3d
       -0.011264028 0.0385506 0.01836417 0.047304127
000270 18 76 05 3e 3c 5d bd bc ee 7d 41 3b 54 91 c0 3d
       0.1303333 -0.023115747 0.0029524523 0.09402719
000280 83 fe 80 be b7 16 f6 bd 8b 77 e6 bc 43 e5 c5 bd
       -0.25194177 -0.12016051 -0.028133174 -0.09662869
000290 99 31 d1 bd 98 78 ac bd fb dd cb 3d 5f ae a4 3b
       -0.10214538 -0.08421439 0.09954449 0.0050256695
0002a0 3b e5 65 bd 10 71 09 3e 14 03 ac bc d4 f8 00 be
       -0.056126814 0.13422036 -0.020997562 -0.1259492
0002b0 af f6 69 3d 59 09 78 bb 8c 87 01 be b8 bc ee 3d
       0.05712002 -0.0037847369 -0.12649363 0.11657089
0002c0 96 fa ae 3d 21 e6 ad bd 53 f4 1b be 3e bd 69 3c
       0.08543889 -0.08491159 -0.15229921 0.01426631
0002d0 fe ea fa bd fc 6c f8 3d 76 e2 cb 3d e5 f7 98 3d
       -0.122518525 0.12130162 0.09955303 0.07469157
0002e0 be 82 0f 3e e0 87 4a 3d 08 ac 01 3d 63 89 21 3e
       0.14014718 0.049445987 0.031658202 0.15775065
0002f0 20 78 50 3d a7 66 80 3d be ff b2 3c 23 35 b8 bc
       0.05089581 0.062695794 0.021850463 -0.022486275
000300 10 b0 82 3b 1e e1 5b 3d 80 d2 3d 3d eb b8 a2 3d
       0.0039882734 0.053681485 0.046343327 0.079454266
000310 fd 0f 3f 3d 17 96 c8 bd 62 9c 4e bd 35 5a bc bd
       0.046646107 -0.09794252 -0.050442107 -0.09196893
000320 03 fc d9 3d 42 86 ff 3d fd fa 3f 3d f4 b9 84 bd
       0.106437705 0.124767795 0.04687022 -0.0648078
000330 3f 74 1a 39 ab 4b 0f be 1f 7b 88 3d 9d 5c 16 be
       0.0001472989 -0.13993709 0.066641085 -0.14683767
000340 3f 86 40 3e 7a 79 a1 3c 0e 2f c2 3d c3 28 18 bc
       0.18801211 0.019711245 0.09481631 -0.009287062
000350 7e c7 35 3d 92 26 29 3a 0d d1 05 3e fd 10 e6 3c
       0.044379704 0.0006452586 0.13068028 0.028084273
000360 08 4c 0a 3e 23 64 2b bb 07 a5 bc bc 7d 81 84 bd
       0.13505566 -0.0026152215 -0.02302791 -0.064700104
000370 3a d8 97 3d 68 0a b7 3c 7d dc 87 3d 15 c8 46 bc
       0.07414289 0.02234383 0.06633852 -0.012132664
000380 a3 7c 04 be 66 9a cd bd 7f eb fd bd f9 1c fe 3c
       -0.1293817 -0.10039215 -0.12398433 0.031019675
000390 53 15 3d bd 72 48 52 3d ea 21 e8 3d f6 e4 88 3b
       -0.046162914 0.05133862 0.113345936 0.004177685
0003a0 80 4c 4a 3d 1d 07 29 be cd ef 9e 3c d3 f3 f4 bb
       0.049389362 -0.1650662 0.019401455 -0.007475355
0003b0 28 b6 38 3e b5 16 99 3e 10 12 f0 bd 2e dd a2 3d
       0.18038237 0.29900137 -0.11722195 0.07952343
0003c0 b6 a0 61 3c cd ed 40 3d 67 38 80 3b 13 0e 5c bc
       0.013771227 0.047101784 0.0039129737 -0.01343109
0003d0 af c9 2e 3c 9b f2 ec 3d 56 8b a0 3c b1 e9 e8 3d
       0.010668202 0.11569711 0.01959769 0.11372698
0003e0 18 6d b7 bd 6b 47 c5 bd 39 68 99 bb ff 1f 72 3a
       -0.08956355 -0.096327625 -0.0046816138 0.0009236335
0003f0 aa 10 9e 3d e9 e5 0c 3d 89 dc 82 3d 94 36 f3 3d
       0.07718022 0.034398947 0.0638972 0.11875644
