Results/test6/SnowBall/SnowBall-3254.onnx (onnx, 143334 bytes, 9 tensors)

action_model._discrete_distribution.branches.0.bias f4 [3]
0.0 0.0 0.0
00000000: 0000 0000 0000 0000 0000 0000

action_model._discrete_distribution.branches.0.weight f4 [3, 128]
0.0051283683 0.009921546 0.0031462894 -0.01117278 0.0060949354 -0.007575799 -0.004307329 -0.0034159229
0.0013495947 -0.007354419 -0.0038815276 0.0066741975 -0.0072373697 -0.0062331227 -0.0001714613 0.013249549
0.013402519 0.014901139 0.0068511786 -0.0026061102 0.0016861778 -0.012583397 0.014578211 0.0007155986
0.01906105 -0.0044620107 0.006663011 0.0032153432 0.00028748144 0.009874642 0.00083204184 -0.0007353322
0.008906167 3.197355e-05 0.01391386 0.011925912 -0.018585501 0.001522603 0.0010930089 -0.00094866374
-0.008450671 -0.0022613376 -0.0077677565 0.0062205833 0.009906815 0.009022972 0.00054964813 -0.011244986
0.005649676 -0.011450928 -0.020469716 -0.005416595 -0.017203627 -0.0006693931 0.0061550587 -0.005428421
-0.019375514 -0.0005801897 -0.009493544 -0.012069988 0.012548188 0.011279468 -0.007722596 -0.0046709683
-0.013623173 0.014800051 0.0048741754 -0.005146771 -0.0027477422 -0.009007345 0.011915663 -0.0032476827
-0.007454441 -0.0069580986 0.014042459 -0.0013785489 -0.012668969 -0.008977881 -0.0018722523 -0.0067837383
-0.0029756473 -0.013433196 0.0042788745 0.0009239724 -0.0020313235 -0.00887401 -0.0025079965 0.003910625
-0.011640151 0.03251278 -0.00056127604 -0.010044516 0.0055410094 0.0005585742 0.006177868 -0.005723631
0.0073008323 -0.014682245 -0.006250494 -0.0020782528 0.0026974212 0.008515017 0.003943132 -0.0023792163
-0.012578706 -0.0050868653 0.009074873 0.0095252255 0.013044958 0.0022892293 0.008029035 -0.004430251
-0.014659611 0.0020096637 -0.0002552185 -0.0036068994 0.0004473664 -0.005657028 -0.0018988977 -0.001211708
-0.0054905633 0.004592431 0.0011179706 0.0011264028 0.011405346 0.014271493 0.003054639 -0.005780748
-0.008134256 -0.0017401224 -0.0012450934 0.008763635 0.008351946 -0.0043208483 0.0013493615 -0.008118006
0.0117401695 -0.0037886892 0.00943281 -0.0066412925 -0.0004599126 0.012807964 -0.01403507 -0.017309776
-0.0013282953 0.007218686 0.0034442462 -0.0048221652 -0.0019239385 -0.0031544769 0.003734595 0.00576668
-0.004735918 0.0006194679 0.0028934334 0.015601866 -0.01829289 -0.0040592714 -0.017560223 -0.01984152
-0.016046315 -0.0017352694 0.009519741 0.006841725 0.00028676863 0.003526356 0.00015629592 0.01179499
0.009020013 0.0024229407 -0.013633646 0.004746543 -0.012033462 0.0031677026 0.0031451085 0.0002696584
-0.0044583348 -0.011994146 0.009871594 0.005781164 -0.0155358305 -0.006384027 -0.0033780814 0.0009914578
6.873134e-05 0.017060705 -0.0064653023 0.014529361 0.013835534 0.0055408524 0.0046514156 0.0019359855
0.004380924 0.0032986682 0.0047246353 -0.015104274 -0.016723791 0.011658018 0.013545548 -0.006908789
0.01659851 0.0012028975 0.008626287 -0.0022270312 -0.0064593377 -0.0020831486 -0.0076903063 -0.001827398
0.0010329016 0.029336527 -0.0053855404 -0.0037034624 0.0027963177 -0.024254343 0.01997361 -0.008486769
0.0015291575 -0.010200354 -0.0011618669 0.0070961015 -0.020300869 -0.0045685987 -0.01363487 0.0024142952
0.00165702 -0.014366398 -0.014823836 -0.0019514896 0.006090148 -0.01582451 -0.009758189 0.008118092
-0.015980942 0.002457012 0.0010174756 0.027172444 -0.018467551 -0.0006297027 -0.008300237 0.0060544726
0.00027678054 0.008278343 -0.0036709362 -0.008681785 0.00017620838 -0.0048235375 -0.0013319739 -0.0037484088
0.00088322425 0.0122542 -0.006373813 0.0007352132 -0.010750496 0.009922568 -0.0026135803 -0.005767116
00000000: df0b a83b fb8d 223c fa31 4e3b 090e 37bc
00000010: 06b8 c73b 683e f8bb 7f24 8dbb addd 5fbb
00000020: e2e4 b03a 57fd f0bb 3a61 7ebb 3ab3 da3b
00000030: 7527 edbb 393f ccbb 4bca 33b9 a314 593c
00000040: 3d96 5b3c e823 743c da7f e03b 46cb 2abb
00000050: bd02 dd3a 982a 4ebc 73d9 6e3c 0297 3b3a
00000060: eb25 9c3c 0f36 92bb 6355 da3b 82b8 523b
00000070: 1bb9 9639 40c9 213c 621d 5a3a 4fc3 40ba
00000080: 2ceb 113c 571b 0638 f5f6 633c e764 433c
00000090: 9f40 98bc 1492 c73a 4b43 8f3a bfaf 78ba
000000a0: af74 0abc f332 14bb aa88 febb 09d6 cb3b
000000b0: 3250 223c 16d5 133c 4316 103a e43c 38bc
000000c0: eb20 b93b ac9c 3bbc 1bb0 a7bc b17d b1bb
000000d0: 9fee 8cbc 367a 2fba 60b0 c93b e5e0 b1bb
000000e0: 66b9 9ebc df17 18ba cf8a 1bbc 33c1 45bc
000000f0: ea96 4d3c 85cd 383c d50d fdbb ec0e 99bb
00000100: bb33 5fbc ea7b 723c 8cb7 9f3b 3fa6 a8bb
00000110: 7713 34bb 8b93 13bc ea39 433c 13d7 54bb
00000120: 6244 f4bb c300 e4bb 5812 663c 6db0 b4ba
00000130: 8291 4fbc f617 13bc 5d66 f5ba 1f4a debb
00000140: 1403 43bb e816 5cbc cd35 8c3b bd36 723a
00000150: f41f 05bb 4c64 11bc 335d 24bb b324 803b
00000160: 55b6 3ebc 1f2c 053d 9922 13ba c191 24bc
00000170: 5b91 b53b 486d 123a b76f ca3b 4c8d bbbb
00000180: d23b ef3b cd8d 70bc f2d0 ccbb 4c33 08bb
00000190: 38c7 303b 9282 0b3c 6335 813b a0ec 1bbb
000001a0: eb16 4ebc b8af a6bb c7ae 143c b10f 1c3c
000001b0: 85ba 553c e506 163b 378c 033c a42b 91bb
000001c0: dd2e 70bc 90b4 033b d9ce 85b9 bb61 6cbb
000001d0: 808c ea39 975e b9bb 6fe4 f8ba 2cd2 9eba
000001e0: 2fea b3bb 1a7c 963b de88 923a cea3 933a
000001f0: 7ddd 3a3c fbd2 693c 5730 483b 6e6c bdbb
00000200: 8b45 05bc d214 e4ba 6732 a3ba 5995 0f3c
00000210: 9ad6 083c e795 8dbb 0fdd b03a 6301 05bc
00000220: d759 403c a84b 78bb 138c 1a3c 339f d9bb
00000230: 6d20 f1b9 7fd8 513c 5af3 65bc 3bcd 8dbc
00000240: 321a aeba ba8a ec3b ddb8 613b 4103 9ebb
00000250: aa2c fcba 57bb 4ebb 1bc0 743b 6bf6 bc3b
00000260: c22f 9bbb c963 223a c29f 3d3b f89e 7f3c
00000270: f9da 95bc a303 85bb 75da 8fbc af8a a2bc
00000280: 9073 83bc fb71 e3ba b0f8 1b3c 8d30 e03b
00000290: 6f59 9639 701a 673b 5ee3 2339 c63f 413c
000002a0: adc8 133c 33ca 1e3b a85f 5fbc e388 9b3b
000002b0: ff27 45bc 3b99 4f3b 2a1e 4e3b f060 8d39
000002c0: 3917 92bb 1883 44bc 77bc 213c eb6f bd3b
000002d0: ff89 7ebc 1a31 d1bb cd62 5dbb cef3 813a
000002e0: db23 9038 e4c2 8b3c e3da d3bb 8f0c 6e3c
000002f0: 70ae 623c 0a90 b53b e76a 983b e5c0 fd3a
00000300: db8d 8f3b 782e 583b 1dd1 9a3b eb77 77bc
00000310: 5500 89bc 4601 3f3c 25ee 5d3c 1f63 e2bb
00000320: 99f9 873c 8baa 9d3a 4555 0d3c 62f3 11bb
00000330: daa8 d3bb 6f85 08bb f7fe fbbb 4d85 efba
00000340: 6d62 873a 2853 f03c 3079 b0bb cab5 72bb
00000350: 6d42 373b 0bb1 c6bc b29f a33c 170c 0bbc
00000360: 036e c83a 631f 27bc c949 98ba 6a86 e83b
00000370: 024e a6bc 2fb4 95bb ca64 5fbc 2739 1e3b
00000380: 5d30 d93a 0a61 6bbc addf 72bc 20c9 ffba
00000390: dd8f c73b 67a2 81bc d0e0 1fbc bf01 053c
000003a0: 77ea 82bc d205 213b d15c 853a bf98 de3c
000003b0: 4349 97bc a212 25ba b8fd 07bc 9964 c63b
000003c0: db1c 9139 e3a1 073c 1794 70bb 0c3e 0ebc
000003d0: 94c4 3839 c40e 9ebb a195 aeba dda7 75bb
000003e0: 2d88 673a d7c5 483c 6bdb d0bb 53bb 403a
000003f0: d922 30bc 4492 223c 9a48 2bbb 13fa bcbb

action_model._discrete_distribution.branches.1.bias f4 [3]
0.0 0.0 0.0
00000000: 0000 0000 0000 0000 0000 0000

action_model._discrete_distribution.branches.1.weight f4 [3, 128]
0.007467272 3.2528726e-05 -0.010147663 -0.0018535954 -0.006557435 0.0030427126 0.00075662957 0.013190863
-0.0054732473 -0.0018907642 0.003574229 -0.0026031702 -0.0029834176 -0.012413955 -0.0022914594 -0.012871613
-0.0141319735 -0.013229367 0.007053036 -0.01989742 0.009704895 -0.0017798288 -0.0004291441 0.0019487034
0.010466324 -0.007390946 0.0009023671 0.015495834 -0.017325796 0.0036034805 0.015305543 -0.00017788498
0.010291261 0.012997766 0.01850993 0.002143833 0.009496855 0.0030188586 -0.0019880373 0.009860064
0.0028885321 -0.0033223801 0.0010581489 0.0009470779 0.0034637232 0.011388774 0.008059356 0.0037145668
-0.005717795 -0.016169464 -0.0045737373 0.029693931 -0.0077476352 0.0004598347 -0.0048165675 -0.009663946
0.018239817 -0.009774535 -0.004004588 -0.006436528 -0.009002597 -0.020151392 -0.005458285 -0.009334306
0.00028960514 0.007508064 0.0071113827 -0.009738954 -0.017564073 0.0062042573 -0.005911465 -0.00092728663
0.010905835 -0.0072608166 0.014211717 0.008642805 -0.006876584 0.005996985 -0.0032550655 0.007455258
0.002868234 -0.0012483456 -0.006653695 -0.0019059249 -0.003950583 -0.00767923 0.006819866 -0.0065108635
0.017173728 -0.0018807839 -0.0046118624 0.0059028477 -0.005220614 0.0019019563 0.00593342 0.0044093113
0.008952964 -0.014291934 0.0046686702 -0.02351297 0.0020498468 0.011800564 0.021262879 -0.010135545
0.0014797522 0.0012013109 -0.0031599402 -0.010495842 0.007223112 -0.006169299 0.014117501 0.006804034
-0.0021743986 0.00060805824 -0.006011582 -0.009685277 0.0061916793 0.0090649165 -0.0069127786 0.0026907944
-0.0033943455 -0.0069001312 -0.0015539693 0.008770703 0.008727363 -0.016901461 -0.004693014 0.010138011
0.0028744505 -0.0068528927 0.009224784 0.00078252814 0.004289483 -0.007817493 0.0039483816 -0.017895002
-3.328974e-05 0.008482027 0.0201451 -0.017513074 -0.004098347 0.0006775381 -0.0027769515 0.0042063836
-0.019793272 0.024301393 -0.0022383835 0.016704047 0.001533709 0.013016115 -0.004681116 0.0024456258
-0.009885769 -0.019810557 -0.004383036 0.0031522643 -0.008708273 0.009440248 -0.008879734 0.0013368757
-0.0030931756 -0.00377093 0.0025650314 -0.005077017 -0.015499353 -0.011632247 0.0043873875 0.011842971
0.0045734304 0.008899077 0.00052755483 -0.007137067 0.008873479 -0.009123067 -0.0023251586 -0.0032821104
0.0028274409 0.0042002774 0.0043075806 0.0071563693 0.012996311 0.005586538 0.012087582 0.024168322
0.0043793577 -0.011308455 -0.003347718 -0.010348392 -0.003266645 0.0090816645 0.0005834017 -0.0006301574
0.016723622 0.008177135 0.0020874946 -0.0036147197 0.0128405085 -0.020427113 0.012278801 0.0154147865
-0.003700015 0.007484153 -0.002661553 -0.0026148118 0.017484741 -0.0006595602 0.0026350797 -0.007939379
-9.890336e-06 0.0026603134 -0.021130325 0.0030614235 0.0023046096 0.009102373 -0.005359783 -0.0055514374
-0.0020921656 -0.009000908 0.013227669 -0.008320699 -0.02262141 0.005686942 -0.004268598 -0.0080022225
-0.006358789 -0.011796494 0.012376882 0.005757905 0.011763936 0.0046821623 -0.0002822371 -0.010780408
-0.013492206 0.0060139685 0.001786194 0.0005866834 0.0013374148 -0.0056285746 0.0070380173 -0.002659259
-0.00064039626 0.00038474833 -0.016181415 0.0049646758 -0.005645934 0.0046999506 0.0149674965 0.0017707754
0.0033782348 0.006752215 0.0069968845 0.0020808305 -0.0057621324 0.004076228 -0.006285892 -0.013356191
00000000: 05b0 f43b 746f 0838 6242 26bc 57f4 f2ba
00000010: c0df d6bb 3f68 473b 8d58 463a 7d1e 583c
00000020: ed58 b3bb 85d3 f7ba 9d3d 6a3b f399 2abb
00000030: 7185 43bb e763 4bbc 4f2c 16bb 75e3 52bc
00000040: cb89 67bc fdbf 58bc 271d e73b eaff a2bc
00000050: 4801 1f3c 2549 e9ba bffe e0b9 a36b ff3a
00000060: f27a 2b3c c02f f2bb d58c 6c3a 3de2 7d3c
00000070: d4ee 8dbc 5f28 6c3b 1ac4 7a3c a386 3ab9
00000080: ad9c 283c 95f4 543c 23a2 973c 8d7f 0c3b
00000090: b298 1b3c 0bd8 453b bb49 02bb 1b8c 213c
000000a0: 874d 3d3b 4abc 59bb 96b1 8a3a 5245 783a
000000b0: a2ff 623b fb97 3a3c 640b 043c 1770 733b
000000c0: 575c bbbb d375 84bc 4adf 95bb b040 f33c
000000d0: e0df fdbb f815 f139 4cd4 9dbb 8755 1ebc
000000e0: ab6b 953c 5f25 20bc eb38 83bb 83e9 d2bb
000000f0: a17f 13bc 8814 a5bc 6adb b2bb ebee 18bc
00000100: 25d6 9739 3506 f63b 9a06 e93b 2290 1fbc
00000110: 88e2 8fbc 154d cb3b f6b4 c1bb 2715 73ba
00000120: 63ae 323c 25ec edbb 43d8 683c 8d9a 0d3c
00000130: f854 e1bb 5b82 c43b f052 55bb 3d4b f43b
00000140: fbf8 3b3b 879f a3ba 3d07 dabb 3ad0 f9ba
00000150: e473 81bb 0da2 fbbb 2f79 df3b 1559 d5bb
00000160: ebaf 8c3c a384 f6ba 1b1f 97bb ad6c c13b
00000170: af11 abbb 104b f93a 226d c23b fc7b 903b
00000180: 74af 123c b728 6abc a5fb 983b 469e c0bc
00000190: b956 063b 2757 413c 7d2f ae3c 8f0f 26bc
000001a0: 3ff4 c13a 4e75 9d3a 0017 4fbb c1f6 2bbc
000001b0: dbaf ec3b d527 cabb 174d 673c 60f4 de3b
000001c0: 5b80 0ebb 1966 1f3a cefc c4bb ffae 1ebc
000001d0: 92e3 ca3b 0485 143c 9784 e2bb 0a58 303b
000001e0: ab73 5ebb 7f1a e2bb 8fae cbba ffb2 0f3c
000001f0: 37fd 0e3c ef74 8abc dbc7 99bb e619 263c
00000200: 4761 3c3b 3b8e e0bb 8c23 173c 9322 4d3a
00000210: cb8e 8c3b f114 00bc 6d61 813b 8a98 92bc
00000220: 96a0 0bb8 33f8 0a3c 5607 a53c 9477 8fbc
00000230: 6d4b 86bb d09c 313a 84fd 35bb b4d5 893b
00000240: 8025 a2bc b713 c73c d8b1 12bb edd6 883c
00000250: bc06 c93a 8b41 553c 0c64 99bb cb46 203b
00000260: ecf7 21bc c049 a2bc 929f 8fbb 3896 4e3b
00000270: 25ad 0ebc 45ab 1a3c 4e7c 11bc 1b3a af3a
00000280: e0b6 4abb b521 77bb 161a 283b 1b5d a6bb
00000290: 00f1 7dbc 2e95 3ebc 13c4 8f3b 0509 423c
000002a0: b7dc 953b 6fcd 113c 9b4b 0a3a 0fde e9bb
000002b0: 1262 113c eb78 15bc b061 18bb ad18 57bb
000002c0: 964c 393b 7ba2 893b 9b26 8d3b fa7f ea3b
000002d0: 7bee 543c 470f b73b fe0a 463c a5fc c53c
000002e0: b780 8f3b 1947 39bc 6365 5bbb 4d8c 29bc
000002f0: 3515 56bb 43cb 143c 6def 183a 2631 25ba
00000300: faff 883c 64f9 053c 59ce 083b efe4 6cbb
00000310: ff60 523c c356 a7bc 062d 493c 4d8e 7c3c
00000320: f37b 72bb a03d f53b 736d 2ebb 435d 2bbb
00000330: 293c 8f3c 56e6 2cba 4db1 2c3b 2b14 02bc
00000340: abee 25b7 a758 2e3b 8119 adbc 2aa2 483b
00000350: ef08 173b 1f22 153c 1ea1 afbb d5e8 b5bb
00000360: b71c 09bb 8b78 13bc ddb8 583c 8b53 08bc
00000370: 8950 b9bc 8759 ba3b 98df 8bbb c11b 03bc
00000380: 635d d0bb 1546 41bc 68c8 4a3c cfac bc3b
00000390: 86bd 403c d36c 993b 39f9 93b9 4fa0 30bc
000003a0: 6a0e 5dbc d310 c53b ba1e ea3a a8cb 193a
000003b0: 324c af3a e86f b8bb 2b9f e63b f646 2ebb
000003c0: 44e0 27ba 0cb8 c939 e38e 84bc b8ae a23b
000003d0: 8701 b9bb 0b02 9a3b 3b3a 753c 5d19 e83a
000003e0: 6065 5d3b af41 dd3b 1f46 e53b 8b5e 083b
000003f0: 45d0 bcbb e191 853b e2f9 cdbb edd3 5abc

discrete_action_output_shape f4 [1, 2]
3.0 3.0
00000000: 0000 4040 0000 4040

network_body._body_endoder.seq_layers.0.bias f4 [128]
0.0 0.0 0.0 0.0 0.0 0.0 0.0 0.0
0.0 0.0 0.0 0.0 0.0 0.0 0.0 0.0
0.0 0.0 0.0 0.0 0.0 0.0 0.0 0.0
0.0 0.0 0.0 0.0 0.0 0.0 0.0 0.0
0.0 0.0 0.0 0.0 0.0 0.0 0.0 0.0
0.0 0.0 0.0 0.0 0.0 0.0 0.0 0.0
0.0 0.0 0.0 0.0 0.0 0.0 0.0 0.0
0.0 0.0 0.0 0.0 0.0 0.0 0.0 0.0
0.0 0.0 0.0 0.0 0.0 0.0 0.0 0.0
0.0 0.0 0.0 0.0 0.0 0.0 0.0 0.0
0.0 0.0 0.0 0.0 0.0 0.0 0.0 0.0
0.0 0.0 0.0 0.0 0.0 0.0 0.0 0.0
0.0 0.0 0.0 0.0 0.0 0.0 0.0 0.0
0.0 0.0 0.0 0.0 0.0 0.0 0.0 0.0
0.0 0.0 0.0 0.0 0.0 0.0 0.0 0.0
0.0 0.0 0.0 0.0 0.0 0.0 0.0 0.0
00000000: 0000 0000 0000 0000 0000 0000 0000 0000
00000010: 0000 0000 0000 0000 0000 0000 0000 0000
00000020: 0000 0000 0000 0000 0000 0000 0000 0000
00000030: 0000 0000 0000 0000 0000 0000 0000 0000
00000040: 0000 0000 0000 0000 0000 0000 0000 0000
00000050: 0000 0000 0000 0000 0000 0000 0000 0000
00000060: 0000 0000 0000 0000 0000 0000 0000 0000
00000070: 0000 0000 0000 0000 0000 0000 0000 0000
00000080: 0000 0000 0000 0000 0000 0000 0000 0000
00000090: 0000 0000 0000 0000 0000 0000 0000 0000
000000a0: 0000 0000 0000 0000 0000 0000 0000 0000
000000b0: 0000 0000 0000 0000 0000 0000 0000 0000
000000c0: 0000 0000 0000 0000 0000 0000 0000 0000
000000d0: 0000 0000 0000 0000 0000 0000 0000 0000
000000e0: 0000 0000 0000 0000 0000 0000 0000 0000
000000f0: 0000 0000 0000 0000 0000 0000 0000 0000
00000100: 0000 0000 0000 0000 0000 0000 0000 0000
00000110: 0000 0000 0000 0000 0000 0000 0000 0000
00000120: 0000 0000 0000 0000 0000 0000 0000 0000
00000130: 0000 0000 0000 0000 0000 0000 0000 0000
00000140: 0000 0000 0000 0000 0000 0000 0000 0000
00000150: 0000 0000 0000 0000 0000 0000 0000 0000
00000160: 0000 0000 0000 0000 0000 0000 0000 0000
00000170: 0000 0000 0000 0000 0000 0000 0000 0000
00000180: 0000 0000 0000 0000 0000 0000 0000 0000
00000190: 0000 0000 0000 0000 0000 0000 0000 0000
000001a0: 0000 0000 0000 0000 0000 0000 0000 0000
000001b0: 0000 0000 0000 0000 0000 0000 0000 0000
000001c0: 0000 0000 0000 0000 0000 0000 0000 0000
000001d0: 0000 0000 0000 0000 0000 0000 0000 0000
000001e0: 0000 0000 0000 0000 0000 0000 0000 0000
000001f0: 0000 0000 0000 0000 0000 0000 0000 0000

network_body._body_endoder.seq_layers.0.weight f4 [128, 138]
-0.057879895 -0.08893718 0.0234186 -0.0025811747 -0.027421279 0.1511726 0.040206354 -0.090864666
0.1516958 0.013481414 0.05480602 -0.049576655 -0.061733816 0.09455168 0.0028520452 -0.018132038
0.014024634 0.039328646 0.04070137 0.08498042 0.019182837 -0.096367076 -0.07463145 -0.20945895
-0.05136018 -0.10533334 0.11581119 -0.115609564 -0.08732852 0.0009112727 0.12756243 0.15483955
0.010531321 -0.03469837 0.18577942 -0.037089545 0.11738325 -0.07988877 0.012237798 0.079726614
-0.07403069 0.10541069 -0.1258167 0.14568885 0.017200295 -0.033711787 0.07880554 0.1231249
-0.012629536 -0.122285485 -0.008559347 0.06552621 -0.022247758 0.003186879 -0.11343481 0.13754116
0.012463514 -0.010915126 0.099212304 -0.0045039356 -0.11537451 0.100196555 0.08867303 0.11040748
-0.10241547 -0.14971367 0.064593635 0.06522851 0.07272756 0.023199813 0.016371956 -0.00042244175
0.056590952 0.009996117 -0.0093 -0.010192899 -0.12061533 0.06605246 -0.0842481 -0.041994948
0.013193642 -0.022862053 0.0013103593 0.033431057 0.16875918 0.03482131 -0.059132755 -0.1311458
-0.004924386 0.15979896 0.008120295 -0.06566788 -0.0117172 0.05127256 -0.068087265 -0.028688781
0.011841501 0.074904926 0.039048832 -0.0953099 -0.037911613 0.061076898 0.10404542 -0.08771496
-0.06631104 0.095225364 -0.033763345 -0.07008347 -0.044502176 0.021711363 0.050863467 -0.004937533
-0.17886859 -0.06234362 -0.048913013 0.143466 -0.118485615 0.0066485037 -0.0400321 -0.061914157
-0.052119628 -0.042111125 -0.044822536 0.009646297 -0.12609653 -0.15411031 0.011789727 -0.06875229
0.02134386 0.046224654 0.045620922 0.0448353 -0.07649286 0.017205965 0.096630625 -0.045730732
0.035531074 -0.23752594 0.056147322 0.15589638 -0.024545528 -0.017280927 0.08321676 0.12860315
0.00877155 -0.13345672 0.089992635 0.028018441 -0.13839561 -0.08717491 0.0962026 0.018586833
0.082746774 -0.013260136 -0.033516105 -0.08309024 -0.14593846 -0.008556971 -0.10768248 0.07527381
0.105906926 -0.05749738 0.06283909 -0.035716757 0.12420781 -0.110669605 -0.01565368 -0.063815616
-0.0166885 -0.075398 0.05047766 0.12756386 -0.07872244 0.027305536 0.0264107 0.036575057
-0.06548906 0.06447337 -0.108459994 -0.05428857 -0.0073747253 -0.11611548 -0.011856315 0.1024744
-0.06753159 -0.06885682 0.036935095 -0.0041577597 0.11832864 -0.11845559 -0.020188257 0.08534565
-0.08647025 0.06823444 0.046079736 0.02536965 -0.16684268 0.015325193 -0.010555359 -0.038471177
0.11777857 -0.09723112 0.10473445 -0.06819058 0.2101947 -0.0657211 0.08962841 0.01797205
-0.098680586 0.12513784 0.023465011 0.09036358 0.20651008 -0.04777148 0.1455527 -0.13442081
-0.011262961 -0.13114195 -0.066543184 -0.18945707 -0.08748967 0.03217647 0.04419063 0.0035870718
0.075560726 0.023081664 -0.1394329 -0.057131518 0.008927829 0.08410807 -0.1484144 -0.14317638
0.030457541 -0.0099368105 0.08420607 0.03191398 -0.015264347 -0.0051676873 -0.11794506 -0.04248378
0.12595405 -0.17718844 0.119915485 -0.09651978 0.03478282 -0.0544105 -0.041916594 -0.031042755
-0.056971595 0.21243796 -0.10494427 -0.049588792 -0.053301938 0.042208925 0.0920964 -0.18696158
00000000: 7813 6dbd b224 b6bd 5dd8 bf3c ed28 29bb
00000010: 97a2 e0bc fdcc 1a3e 6baf 243d 4117 babd
00000020: 2556 1b3e 26e1 5c3c 477c 603d e410 4bbd
00000030: 99dc 7cbd 50a4 c13d 61e9 3a3b a489 94bc
00000040: 94c7 653c 1317 213d 7bb6 263d 370a ae3d
00000050: 5325 9d3c 1a5c c5bd 60d8 98bd 687c 56be
00000060: 0d5f 52bd 02b9 d7bd 6b2e ed3d b5c4 ecbd
00000070: 4cd9 b2bd 7ae2 6e3a ba9f 023e 428e 1e3e
00000080: 908b 2c3c e11f 0ebd f63c 3e3e 35eb 17bd
00000090: a166 f03d b99c a3bd 0c81 483c b547 a33d
000000a0: 679d 97bd 8fe1 d73d 18d6 00be 752f 153e
000000b0: a2e7 8c3c 5f15 0abd cd64 a13d e828 fc3d
000000c0: 1dec 4ebc d070 fabd 813c 0cbc 9b32 863d
000000d0: ee40 b6bc f5da 503b 8250 e8bd 97d7 0c3e
000000e0: c433 4c3c 5bd5 32bc d22f cb3d c095 93bb
000000f0: 7949 ecbd da33 cd3d 359a b53d 511d e23d
00000100: 34bf d1bd 8a4e 19be ab49 843d 8696 853d
00000110: 30f2 943d 890d be3c 7b1e 863c 2c7b ddb9
00000120: eacb 673d c1c6 233c 075f 18bc 1e00 27bc
00000130: 2c05 f7bd 8346 873d 458a acbd e502 2cbd
00000140: 252a 583c 3349 bbbc 5dc0 ab3a 01ef 083d
00000150: 35cf 2c3e caa0 0e3d 3035 72bd 164b 06be
00000160: be5c a1bb 57a2 233e fc0a 053c e27c 86bd
00000170: 80f9 3fbc 2d03 523d 5671 8bbd bc04 ebbc
00000180: db02 423c c167 993d abf1 1f3d d631 c3bd
00000190: 3549 1bbd c52b 7a3d c415 d53d e7a3 b3bd
000001a0: 15ce 87bd 8405 c33d 6f4b 0abd ec87 8fbd
000001b0: ea47 36bd 07dc b13c 3656 503d 07cb a1bb
000001c0: 5429 37be 065c 7fbd 0359 48bd c0e8 123e
000001d0: 96a8 f2bd b1db d93b b3f8 23bd b399 7dbd
000001e0: 647b 55bd b77c 2cbd d697 37bd 810b 1e3c
000001f0: 731f 01be 18cf 1dbe b329 413c 00ce 8cbd
00000200: 52d9 ae3c 1056 3d3d 01dd 3a3d 38a5 373d
00000210: 4aa8 9cbd 86f3 8c3c 47e6 c53d 2650 3bbd
00000220: 0889 113d 003a 73be bcfa 653d 4da3 1f3e
00000230: b413 c9bc bb90 8dbc 8c6d aa3d 8bb0 033e
00000240: 8cb6 0f3c e1a8 08be 0f4e b83d ee86 e53c
00000250: 94b7 0dbe c288 b2bd de05 c53d 6a43 983c
00000260: 2477 a93d 0b41 59bc 2f48 09bd 372b aabd
00000270: e470 15be 8a32 0cbc a288 dcbd 2829 9a3d
00000280: bbe5 d83d 5f82 6bbd c8b1 803d bc4b 12bd
00000290: aa60 fe3d bfa6 e2bd 253c 80bc c3b1 82bd
000002a0: 52b6 88bc 446a 9abd aac1 4e3d 1aa0 023e
000002b0: 3b39 a1bd dcaf df3c 415b d83c bacf 153d
000002c0: 211f 86bd 9d0a 843d 4620 debd b15d 5ebd
000002d0: aea7 f1bb f4cd edbd fd40 42bc 19de d13d
000002e0: 014e 8abd ce04 8dbd 4149 173d d13d 88bb
000002f0: 4956 f23d d898 f2bd d861 a5bc b3c9 ae3d
00000300: 5017 b1bd 80be 8b3d 1bbe 3c3d 03d4 cf3c
00000310: cfd8 2abe 8516 7b3c 62f0 2cbc f493 1dbd
00000320: e435 f13d 1c21 c7bd 047f d63d 81a7 8bbd
00000330: 483d 573e c998 86bd 1a8f b73d 1f3a 933c
00000340: 0c19 cabd 2224 003e b239 c03c 8a10 b93d
00000350: 6177 533e 07ac 43bd c40b 153e 9ca5 09be
00000360: 4888 38bc 134a 06be cb47 88bd 0901 42be
00000370: c92d b3bd 79cb 033d 3c01 353d 1415 6b3b
00000380: 95bf 9a3d c215 bd3c 80c7 0ebe bd02 6abd
00000390: 0746 123c da40 ac3d f2f9 17be d49c 12be
000003a0: 1882 f93c 01ce 22bc 3b74 ac3d 3cb8 023d
000003b0: 5017 7abc b455 a9bb 2e8d f1bd 7903 2ebd
000003c0: 19fa 003e e370 35be 4096 f53d 2aac c5bd
000003d0: 6e78 0e3d 8bdd 5ebd bcb0 2bbd 604d febc
000003e0: 0c5b 69bd 5689 593e 05ed d6bd 9e1d 4bbd
000003f0: 2253 5abd 44e3 2c3d 0a9d bc3d db72 3fbe

network_body._body_endoder.seq_layers.2.bias f4 [128]
0.0 0.0 0.0 0.0 0.0 0.0 0.0 0.0
0.0 0.0 0.0 0.0 0.0 0.0 0.0 0.0
0.0 0.0 0.0 0.0 0.0 0.0 0.0 0.0
0.0 0.0 0.0 0.0 0.0 0.0 0.0 0.0
0.0 0.0 0.0 0.0 0.0 0.0 0.0 0.0
0.0 0.0 0.0 0.0 0.0 0.0 0.0 0.0
0.0 0.0 0.0 0.0 0.0 0.0 0.0 0.0
0.0 0.0 0.0 0.0 0.0 0.0 0.0 0.0
0.0 0.0 0.0 0.0 0.0 0.0 0.0 0.0
0.0 0.0 0.0 0.0 0.0 0.0 0.0 0.0
0.0 0.0 0.0 0.0 0.0 0.0 0.0 0.0
0.0 0.0 0.0 0.0 0.0 0.0 0.0 0.0
0.0 0.0 0.0 0.0 0.0 0.0 0.0 0.0
0.0 0.0 0.0 0.0 0.0 0.0 0.0 0.0
0.0 0.0 0.0 0.0 0.0 0.0 0.0 0.0
0.0 0.0 0.0 0.0 0.0 0.0 0.0 0.0
00000000: 0000 0000 0000 0000 0000 0000 0000 0000
00000010: 0000 0000 0000 0000 0000 0000 0000 0000
00000020: 0000 0000 0000 0000 0000 0000 0000 0000
00000030: 0000 0000 0000 0000 0000 0000 0000 0000
00000040: 0000 0000 0000 0000 0000 0000 0000 0000
00000050: 0000 0000 0000 0000 0000 0000 0000 0000
00000060: 0000 0000 0000 0000 0000 0000 0000 0000
00000070: 0000 0000 0000 0000 0000 0000 0000 0000
00000080: 0000 0000 0000 0000 0000 0000 0000 0000
00000090: 0000 0000 0000 0000 0000 0000 0000 0000
000000a0: 0000 0000 0000 0000 0000 0000 0000 0000
000000b0: 0000 0000 0000 0000 0000 0000 0000 0000
000000c0: 0000 0000 0000 0000 0000 0000 0000 0000
000000d0: 0000 0000 0000 0000 0000 0000 0000 0000
000000e0: 0000 0000 0000 0000 0000 0000 0000 0000
000000f0: 0000 0000 0000 0000 0000 0000 0000 0000
00000100: 0000 0000 0000 0000 0000 0000 0000 0000
00000110: 0000 0000 0000 0000 0000 0000 0000 0000
00000120: 0000 0000 0000 0000 0000 0000 0000 0000
00000130: 0000 0000 0000 0000 0000 0000 0000 0000
00000140: 0000 0000 0000 0000 0000 0000 0000 0000
00000150: 0000 0000 0000 0000 0000 0000 0000 0000
00000160: 0000 0000 0000 0000 0000 0000 0000 0000
00000170: 0000 0000 0000 0000 0000 0000 0000 0000
00000180: 0000 0000 0000 0000 0000 0000 0000 0000
00000190: 0000 0000 0000 0000 0000 0000 0000 0000
000001a0: 0000 0000 0000 0000 0000 0000 0000 0000
000001b0: 0000 0000 0000 0000 0000 0000 0000 0000
000001c0: 0000 0000 0000 0000 0000 0000 0000 0000
000001d0: 0000 0000 0000 0000 0000 0000 0000 0000
000001e0: 0000 0000 0000 0000 0000 0000 0000 0000
000001f0: 0000 0000 0000 0000 0000 0000 0000 0000

network_body._body_endoder.seq_layers.2.weight f4 [128, 128]
-0.0012574989 -0.024602935 -0.028576743 0.18124455 0.046188843 -0.13690175 -0.07326874 0.04313273
-0.093868546 0.13767095 -0.155726 0.12304964 0.01221859 -0.006300085 -0.036554623 -0.1948263
-0.027813409 -0.0780496 -0.035490703 -0.0858613 0.021686664 0.0003245656 -0.026496308 -0.010397994
0.034100078 -0.044178564 0.061186466 -0.0015256274 -0.02528838 0.110680416 -0.02635361 -0.04369599
0.011421854 -0.1365617 0.07108785 0.056693934 0.06739707 -0.04717791 -0.06371394 0.14792095
-0.03749663 0.003955542 -0.08361813 -0.0661881 0.042100467 0.04215681 -0.013512032 -0.029754562
0.07513334 -0.09767666 -0.10262623 0.07513686 -0.023120256 -0.013825894 -0.104702234 0.003707559
0.0038526105 -0.053002708 0.10757461 -0.019970968 -0.022343663 0.023577308 -0.08056004 -0.22208901
-0.055276677 -0.14121552 -0.07388627 0.01605362 -0.033909258 0.10965031 -0.13318053 0.08879129
0.008423238 0.023223 -0.08769241 0.118887916 0.11630568 0.028082576 0.0004172945 0.034268204
0.022275075 -0.038697705 0.15295672 -0.0025044412 -0.05563781 -0.11223274 -0.12107151 -0.053634495
0.051702823 0.14197439 -0.11943548 -0.04445305 0.11921854 0.09259702 -0.04887645 0.044032596
-0.13304217 -0.01595681 0.01198716 0.08252322 -0.08868338 0.115978524 0.032386992 -0.021515554
0.08999741 0.013997765 0.0114546465 -0.15945801 -0.0072824773 0.15952998 -0.030102927 0.007847678
0.015459208 -0.10335881 -0.03004281 0.022212325 0.11117588 0.05287178 -0.2482816 -0.02843887
0.018795349 -0.14350358 0.107217886 0.10400899 0.08646361 -0.084497415 -0.024071358 0.07083231
-0.09427869 0.090331286 -0.17558864 -0.07705174 -0.033413783 0.010045207 -0.020722209 0.21685371
-0.011266065 0.028901793 0.024821687 0.008410627 0.11375446 0.011611296 0.1162603 3.8285834e-05
0.021054918 -0.12088867 0.00619161 -0.034459222 0.03516607 0.17611527 0.008849834 0.07507273
0.08360499 -0.15492153 0.112159915 -0.14392518 -0.06013087 0.0934788 0.033488087 -0.0029596759
-0.03075098 -0.16855544 0.11988849 -0.05357342 0.032949828 -0.02293499 0.05755825 0.09848437
-0.046580076 -0.061544575 -0.08638507 0.099728905 -0.09277067 -0.044557944 -0.03767669 -0.05412899
-0.045101196 -0.12739518 0.09886063 -0.11849104 0.059517603 0.12004603 -0.13408017 0.085970655
0.05299129 -0.082603626 0.03221579 -0.21814793 0.18063016 0.13962708 -0.043871757 -0.011024003
0.01583241 0.056964822 -0.064895734 -0.09658777 0.089588866 -0.056479596 -0.03660605 0.07863435
-0.03899438 -0.11509231 0.041308694 0.09505308 0.15305698 0.098783426 0.034277394 0.06379367
0.05513159 -0.16461597 -0.21493176 -0.027428687 0.017930161 0.07927699 0.030395903 0.09023587
0.09131494 -0.007864063 0.031768654 -0.03712509 0.037421845 -0.012674234 0.16448937 0.040885378
0.031034488 -0.13302043 -0.01570994 -0.042591773 -0.031622253 -0.12552685 0.035057466 0.006171826
0.025655488 -0.06267401 0.016171431 0.14407527 -0.1836091 -0.16397744 0.00993413 0.0753734
0.0008819441 0.0678035 -0.1286428 -0.035029948 0.046135973 0.15470548 0.032328725 0.11189573
0.027023664 -0.1074678 -0.005272697 -0.05072208 -0.10296938 -0.087263644 0.031180136 0.03331724
00000000: a9d2 a4ba 188c c9bc c619 eabc 2c98 393e
00000010: 8330 3d3d f92f 0cbe ec0d 96bd f2ab 303d
00000020: 273e c0bd 9df9 0c3e a376 1fbe 7301 fc3d
00000030: 7b30 483c f270 cebb 4dba 15bd 8c80 47be
00000040: f2d8 e3bc 78d8 9fbd b35e 11bd 0dd8 afbd
00000050: 3ba8 b13c 752a aa39 c90e d9bc 595c 2abc
00000060: 86ac 0b3d 95f4 34bd a99e 7a3d 90f7 c7ba
00000070: 9429 cfbc 6aac e23d 87e3 d7bc 91fa 32bd
00000080: ba22 3b3c d5d6 0bbe 8296 913d e637 683d
00000090: 7a07 8a3d a03d 41bd 747c 82bd 9778 173e
000000a0: 1196 19bd 7e9d 813b fb3f abbd a08d 87bd
000000b0: 8a71 2c3d 9fac 2c3d 9261 5dbc d7bf f3bc
000000c0: 82df 993d b30a c8bd b32d d2bd 5be1 993d
000000d0: b166 bdbc 0186 62bc 206e d6bd 85fa 723b
000000e0: 147c 7c3b 5e19 59bd 1450 dc3d 289a a3bc
000000f0: 0f0a b7bc 3325 c13c aafc a4bd 4d6b 63be
00000100: cc69 62bd cd9a 10be af51 97bd e282 833c
00000110: 6fe4 0abd 5790 e03d 7a60 08be 35d8 b53d
00000120: 9f01 0a3c 293e be3c 1498 b3bd 827b f33d
00000130: ac31 ee3d 6e0d e63c 52c8 da39 d15c 0c3d
00000140: 387a b63c 7c81 1ebd b0a0 1c3e 8d21 24bb
00000150: 79e4 63bd 47da e5bd 57f4 f7bd d8af 5bbd
00000160: 57c6 533d bc61 113e 979a f4bd 6714 36bd
00000170: da28 f43d 82a3 bd3d ac32 48bd 865b 343d
00000180: 353c 08be dbb7 82bc cb65 443c ef01 a93d
00000190: a29f b5bd 2686 ed3d 39a8 043d 6341 b0bc
000001a0: 9050 b83d e256 653c 45ac 3b3c f648 23be
000001b0: d9a1 eebb d45b 233e 6a9a f6bc 8c93 003c
000001c0: 9e48 7d3c c9ad d3bd 571c f6bc 9ff6 b53c
000001d0: 2eb0 e33d 1490 583d 883d 7ebe a2f8 e8bc
000001e0: b4f8 993c 9af2 12be 0d95 db3d aa02 d53d
000001f0: d513 b13d fb0c adbd 4c31 c5bc 8810 913d
00000200: 3015 c1bd 9cff b83d 82cd 33be 4dcd 9dbd
00000210: e4dc 08bd a794 243c 9fc1 a9bc e60e 5e3e
00000220: 4d95 38bc 74c3 ec3c da56 cb3c bacc 093c
00000230: 19f8 e83d 4e3d 3e3c e119 ee3d 1a95 2038
00000240: 5d7b ac3c 7b94 f7bd fde2 ca3b 1d25 0dbd
00000250: 4c0a 103d 9057 343e e5fe 103c bbbf 993d
00000260: 1839 ab3d c0a3 1ebe 19b4 e53d 1f61 13be
00000270: ca4b 76bd d071 bf3d ce2a 093d 1ff7 41bb
00000280: 7be9 fbbc cc99 2cbe 1988 f53d cd6f 5bbd
00000290: 66f6 063d 29e2 bbbc 33c2 6b3d 2cb2 c93d
000002a0: c0ca 3ebd 2a16 7cbd a8ea b0bd ab3e cc3d
000002b0: 8dfe bdbd 6482 36bd df52 1abd 5cb6 5dbd
000002c0: 08bc 38bd e273 02be 7177 ca3d 6eab f2bd
000002d0: bbc8 733d b1da f53d 504c 09be 6211 b03d
000002e0: 650d 593d 172c a9bd b4f4 033d 2c62 5fbe
000002f0: 1df7 383e 67fa 0e3e dfb2 33bd 059e 34bc
00000300: f8b2 813c f253 693d 0ee8 84bd cfcf c5bd
00000310: 5e7a b73d 2657 67bd 3af0 15bd 0c0b a13d
00000320: 92b8 1fbd 84b5 ebbd 4e33 293d 30ab c23d
00000330: f8ba 1c3e f74e ca3d 7466 0c3d 41a6 823d
00000340: aad1 613d 1791 28be 1217 5cbe 20b2 e0bc
00000350: 46e2 923c f95b a23d d400 f93c 95cd b83d
00000360: 5403 bb3d 45d8 00bc d91f 023d 7a10 18bd
00000370: a647 193d 97a7 4fbc e76f 283e 6d77 273d
00000380: 0a3c fe3c 8236 08be 22b2 80bc b674 2ebd
00000390: 5686 01bd 1c8a 00be 6b98 0f3d 073d ca3b
000003a0: 752b d23c 3b5b 80bd f379 843c 7888 133e
000003b0: 0604 3cbe b4e9 27be c3c2 223c 5e5d 9a3d
000003c0: 4432 673a 90dc 8a3d f0ba 03be 907b 0fbd
000003d0: 13f9 3c3d 1d6b 1e3e 206b 043d 9729 e53d
000003e0: bb60 dd3c 1418 dcbd 97c6 acbb f5c1 4fbd
000003f0: 9ce1 d2bd 48b7 b2bd 7c6d ff3c a977 083d
