Results/test23/SnowBall.onnx (onnx, 143334 bytes, 9 tensors)

action_model._discrete_distribution.branches.0.bias f4 [3]
0	0x00000000	0.0
1	0x00000000	0.0
2	0x00000000	0.0

action_model._discrete_distribution.branches.0.weight f4 [3, 128]
0	0x3bb30d2a	0.0054642158
1	0x3c24546f	0.010029896
2	0x3c39da4f	0.011343553
3	0xb9bfa93b	-0.00036556445
4	0xba6a7eb0	-0.00089452695
5	0xbc3dda84	-0.011587743
6	0xbc8a9047	-0.0169145
7	0x3c3017fc	0.010747906
8	0xbc070cd7	-0.008242807
9	0x39c49bb5	0.00037500044
10	0xbc3d1d79	-0.011542671
11	0xbb5c6c0a	-0.0033633732
12	0x3c190416	0.009339353
13	0xbaaa56f7	-0.0012995888
14	0xbb57daaf	-0.0032936742
15	0x3b8a52c9	0.0042212945
16	0xba9cf890	-0.0011975933
17	0xbb832e27	-0.0040033045
18	0xbba2ae5e	-0.004964634
19	0x3bddf58f	0.0067736576
20	0x3c74f962	0.014952036
21	0x3b957fc2	0.004562349
22	0x3c32c56c	0.010911327
23	0xbc253c18	-0.010085128
24	0xbb850913	-0.0040599196
25	0xbb66cc8b	-0.0035217132
26	0x3c01f5c3	0.007932129
27	0xbc5366ad	-0.012902898
28	0x3be2ebea	0.006925096
29	0x3b7d76b5	0.0038675491
30	0xbb4028ec	-0.0029321266
31	0x3b22285a	0.002474329
32	0xb7c8f837	-2.3957442e-05
33	0xbc825c9e	-0.015913304
34	0x3c583f72	0.01319872
35	0xbbb4855b	-0.0055090613
36	0x3c6ed25a	0.014576519
37	0xbb0dfd01	-0.0021665695
38	0x3c2d1a44	0.010565344
39	0xbc55eab5	-0.013056447
40	0xbbfb30b3	-0.0076657175
41	0x3a625193	0.00086333713
42	0xba1a2daf	-0.0005881441
43	0xbbaaf68f	-0.0052173804
44	0xbb075009	-0.002064707
45	0xbac4979d	-0.0014998798
46	0x3c119b1e	0.0088870805
47	0x3b5cba78	0.003368048
48	0x3c8a0839	0.016849624
49	0xbc3af250	-0.011410311
50	0xbb4eacaf	-0.0031536033
51	0xbb35f5d0	-0.0027764924
52	0x3ba62af3	0.005071038
53	0xbb352a15	-0.002764349
54	0xbbb9bab5	-0.005668009
55	0x39db85f3	0.00041870735
56	0xbc24181d	-0.010015515
57	0x3c1a6be1	0.009425134
58	0x3c79fa43	0.015257421
59	0x3be8c9ea	0.007104148
60	0x3b6b4237	0.0035897621
61	0x3b52cff0	0.0032167397
62	0x3bf4b65b	0.0074680275
63	0xbad1c0c7	-0.0016002887
64	0x3ca26835	0.01982508
65	0xbb808544	-0.0039221365
66	0x3befb137	0.007314827
67	0x3a4db64a	0.00078472926
68	0x3bfd2762	0.007725642
69	0xb70a02df	-8.2261095e-06
70	0xba513b93	-0.00079815945
71	0xba084e9f	-0.0005199704
72	0xbc482c4c	-0.012217592
73	0x3b98a211	0.0046579917
74	0xbc413031	-0.011791275
75	0x3beed3a2	0.007288412
76	0x3c0b2176	0.008491864
77	0x3c4992d2	0.012303071
78	0x3bf99268	0.00761633
79	0xba93df06	-0.0011281676
80	0x3c5b15dd	0.013371912
81	0xbbb10ca5	-0.0054031187
82	0x3af1bf37	0.0018443827
83	0x3c3fd31b	0.011708046
84	0xbba658e7	-0.005076516
85	0xbb420c91	-0.002960954
86	0x3bc51eb9	0.0060156253
87	0xbca9ebe9	-0.020742374
88	0xb825b023	-3.9503106e-05
89	0xbb93240f	-0.0044903825
90	0xbc2684a3	-0.010163459
91	0x3bb95f03	0.005657078
92	0x3b83a8cf	0.0040179263
93	0x38f806ff	0.00011826865
94	0xbb8102ff	-0.0039371247
95	0x3bf64fab	0.0075168214
96	0xbbb52173	-0.005527669
97	0x3a57ec48	0.0008236808
98	0x3bcd46c8	0.0062645413
99	0x3b6dfdfd	0.003631472
100	0x3b07a5d3	0.0020698204
101	0x3befec12	0.007321843
102	0x3b617287	0.003440054
103	0x3b520e85	0.0032052111
104	0xbb981d73	-0.0046421825
105	0x3b063fdb	0.0020484838
106	0x3ae6b685	0.0017602002
107	0x3c99daf2	0.01878116
108	0xbb096b1d	-0.0020968386
109	0xbbd7051b	-0.006561888
110	0x3c97646d	0.018480504
111	0xbb8b8973	-0.0042583286
112	0x3845e0a8	4.7177688e-05
113	0x3aba4fd2	0.0014214462
114	0xbc231332	-0.009953307
115	0x3c329aea	0.010901192
116	0xbb142406	-0.002260448
117	0xbaeb4f63	-0.0017952736
118	0x3b05f8f5	0.002044258
119	0xb9c16d22	-0.0003689314
120	0xbb8fa358	-0.0043834858
121	0xbaaddc13	-0.001326444
122	0xb81d1339	-3.744962e-05
123	0xbc525c07	-0.012839324
124	0xbaf4419d	-0.0018635277
125	0x3ac6cedf	0.0015167854
126	0xbc04d7c9	-0.008108088
127	0xbb9286f7	-0.0044716555
128	0x37daa0fa	2.6062586e-05
129	0x3be8e047	0.007106814
130	0x3b831fa1	0.004001573
131	0xbc62183d	-0.013799724
132	0x3c066bda	0.008204425
133	0x3bc9f813	0.006163606
134	0xbc109ec2	-0.008826913
135	0xbbd26588	-0.006420795
136	0x3b976385	0.004620018
137	0x3bede447	0.007259879
138	0x399a6208	0.00029446208
139	0x3b1fbc31	0.0024373645
140	0xbb825b56	-0.0039781732
141	0xba1572ff	-0.00057010347
142	0xbb17c7f9	-0.0023159964
143	0x3b3b3da6	0.002857068
144	0x3bb3dce6	0.0054889796
145	0x3b552e0f	0.0032528674
146	0x3c3efe3b	0.011657293
147	0xbb1ce93c	-0.002394273
148	0x3a80a72b	0.0009815445
149	0x3a50afad	0.0007960748
150	0x3af11e57	0.0018395883
151	0x3b5973d5	0.0033180614
152	0xbc457485	-0.012051706
153	0x3c405cb3	0.011740851
154	0x3c89dcc7	0.016828908
155	0x3b281fbc	0.002565368
156	0xbbf26387	-0.0073971185
157	0x38a556d1	7.883984e-05
158	0xbb6b16ba	-0.00358717
159	0x3cb7349d	0.022363955
160	0xbc0941ad	-0.008377475
161	0x3c1ccd6f	0.009570464
162	0x3c1e16de	0.009649007
163	0xbc1cdbfb	-0.009573932
164	0x3bc1286c	0.0058947112
165	0x3a5c5095	0.00084043416
166	0xbc2c3726	-0.010511195
167	0x3bfebac0	0.007773727
168	0x3c012c3f	0.007884084
169	0x3b9248f3	0.0044642626
170	0x3b6689fa	0.0035177455
171	0x3c52bbd0	0.012862161
172	0xbc009775	-0.00784861
173	0x3bd369ca	0.00645182
174	0x3b85ce85	0.004083457
175	0x3bd7f62d	0.0065906257
176	0xbc9c2b63	-0.019063657
177	0x3c1e30f6	0.009655228
178	0xbc09bc23	-0.008406672
179	0x3c637042	0.013881745
180	0x3c5fab0a	0.013651619
181	0xbb380b41	-0.002808288
182	0x3c9521e7	0.018204642
183	0xbc0e2855	-0.008676608
184	0x3bf4a492	0.0074659074
185	0x3c4f0b8a	0.0126370285
186	0xbbe577ff	-0.00700283
187	0xb9be666b	-0.0003631593
188	0xbc72b82d	-0.014814419
189	0xbb8cff96	-0.004302929
190	0xbb2cc6f8	-0.0026363712
191	0xbb03f360	-0.0020134076
192	0x3acf46bb	0.0015813926
193	0xba317af8	-0.0006770338
194	0xbbdb4ab0	-0.006692253
195	0x3c65ca05	0.014025216
196	0x3c7c79ad	0.015409869
197	0x3b3583e8	0.002769703
198	0xbb98b55b	-0.004660291
199	0xb9b72ec8	-0.00034939335
200	0xbb0265bf	-0.0019897071
201	0x3c9602c2	0.018311862
202	0x3c87c083	0.016571289
203	0x3be465f3	0.006970161
204	0xbc087af8	-0.008330099
205	0x3bfe9b55	0.007769982
206	0x3c34c43b	0.011033113
207	0x3aed43f8	0.0018101921
208	0x3beb7fd2	0.007186868
209	0x3c049810	0.008092895
210	0x3b94fc28	0.004546661
211	0xbc7ef30f	-0.015560879
212	0x3b1f0877	0.002426652
213	0xbc0dd000	-0.008655548
214	0x3bd131d0	0.006384112
215	0xbc709eaf	-0.014686271
216	0xbc05fcf4	-0.0081779845
217	0x3be7a418	0.007069122
218	0x3ad9c5e5	0.0016614763
219	0xbb3f3ee9	-0.0029181784
220	0xbbbd57da	-0.005778295
221	0x3ad17add	0.0015982051
222	0x3c73a53a	0.014870936
223	0xbabaf4da	-0.0014263645
224	0x3c97b6c0	0.01851976
225	0x3c1c145a	0.009526337
226	0xbb481967	-0.003053272
227	0xbc00f955	-0.007871945
228	0xbbd88ba2	-0.0066084424
229	0x3b9d7e5b	0.0048063225
230	0x3b6dafdb	0.0036268148
231	0x3c572b3b	0.013132866
232	0x3bdeecf2	0.0068031484
233	0x3aaba42b	0.001309519
234	0x3bc224b1	0.005924784
235	0xbbcb6405	-0.0062069916
236	0xbbba4353	-0.005684295
237	0xbbd95bc3	-0.0066332533
238	0x3a8e24e0	0.001084473
239	0x3a3446c5	0.00068770006
240	0x3c8b3891	0.016994746
241	0xbbc8cc71	-0.006127887
242	0x3a8b7f6f	0.0010642837
243	0x3b9358d2	0.004496672
244	0xbc2e36e1	-0.010633201
245	0xbb103a88	-0.0022007544
246	0xbc791d60	-0.015204757
247	0x3c05ad11	0.008158938
248	0xbc95f476	-0.018305045
249	0x3c1fb50a	0.009747753
250	0xba77854b	-0.00094421644
251	0xbc7771e5	-0.015102838
252	0x3c31379c	0.010816481
253	0xbb1be6ff	-0.0023788807
254	0xbc220f16	-0.009891292
255	0x3c14e1a8	0.009087004

action_model._discrete_distribution.branches.1.bias f4 [3]
0	0x00000000	0.0
1	0x00000000	0.0
2	0x00000000	0.0

action_model._discrete_distribution.branches.1.weight f4 [3, 128]
0	0x3aabebc7	0.0013116532
1	0x3bd3cd0f	0.006463654
2	0x3bbd4eab	0.0057772
3	0x3c274783	0.010209921
4	0x3c0f0e23	0.008731398
5	0xbc8edf53	-0.017440474
6	0x3c08274b	0.008310149
7	0xbc1b0240	-0.009460986
8	0xbb843ed6	-0.004035811
9	0xba6f738f	-0.0009134346
10	0x3b063d33	0.0020483255
11	0x3b1d5f5d	0.002401314
12	0xbc95a22a	-0.018265802
13	0x3b17fa09	0.0023189804
14	0x3c2bf6b1	0.0104958275
15	0xbbe039bb	-0.0068428195
16	0x3c2b6f29	0.010463514
17	0xbbc75a00	-0.006083727
18	0x3bec388a	0.0072088884
19	0xbbf311da	-0.0074178996
20	0x3b994c17	0.00467826
21	0xbc2d13b9	-0.010563784
22	0xbc439b1d	-0.011938837
23	0x3b790c13	0.0038001582
24	0x3b351d53	0.0027635887
25	0xbb2bbfe1	-0.0026206898
26	0xbb9bc8ac	-0.0047541466
27	0x3c3a0017	0.0113525605
28	0xbbd86503	-0.0066038384
29	0xbb942206	-0.0045206575
30	0xbb2b8327	-0.0026170702
31	0xbc016893	-0.007898468
32	0xbc981197	-0.018563075
33	0xbc99d93d	-0.018780345
34	0xbbeaf7b0	-0.00717064
35	0x3b14f976	0.0022731698
36	0xbbb56777	-0.0055360156
37	0x3b5ee915	0.003401344
38	0x3c306d8e	0.010768307
39	0x3a698f2a	0.0008909578
40	0x3ac5dab7	0.0015095089
41	0x3bd046d7	0.006356101
42	0xbcbf2aa3	-0.02333576
43	0xbc8c81a9	-0.01715167
44	0xbc26400b	-0.010147105
45	0xbb6a6052	-0.0035762978
46	0xbb5bdeb5	-0.0033549492
47	0x3bbe03af	0.005798779
48	0x39e06103	0.0004279689
49	0xbadbc432	-0.0016766845
50	0xbbf833e0	-0.0075745434
51	0x3a3463d8	0.0006881333
52	0x3c1e3e6c	0.009658437
53	0xbbe13687	-0.0068729552
54	0xbc0cf7ec	-0.008604031
55	0x3c221b9c	0.009894278
56	0x3bc3f357	0.005979936
57	0x3b9e953b	0.004839567
58	0xbcab4017	-0.020904584
59	0x3c185960	0.009298652
60	0x3afc28bf	0.0019238218
61	0x3bd8865f	0.006607815
62	0xbc09143a	-0.008366639
63	0x3b5801ab	0.0032959979
64	0x3c43b2b0	0.011944458
65	0x3b397392	0.0028297645
66	0xbcaf8dd9	-0.021429943
67	0x3a89bd8e	0.0010508762
68	0xbcdb2f13	-0.026755845
69	0x3a1611aa	0.0005724678
70	0x3b2ea922	0.0026651104
71	0x3a926bc5	0.0011171034
72	0x3c112aac	0.008860271
73	0x3b70accb	0.0036724086
74	0xbbd1df7d	-0.0064048157
75	0x3baeb3e5	0.0053315037
76	0xbb4438bf	-0.002994105
77	0xbc2edb13	-0.010672349
78	0x3b1c5e8c	0.0023860065
79	0x3a28003e	0.00064087275
80	0xbbc1920f	-0.005907304
81	0x3bb4ec67	0.0055213454
82	0xbc211747	-0.00983221
83	0xbc824423	-0.01590163
84	0xbc04e055	-0.008110126
85	0xbad92e82	-0.0016569647
86	0x3cab8526	0.020937514
87	0xbc0e3d25	-0.00868157
88	0xbb88b379	-0.0041717854
89	0x3c1b6808	0.009485252
90	0xbbcce725	-0.0062531405
91	0x3c2de252	0.010613041
92	0xbc42720b	-0.01186801
93	0x3a9a0b53	0.0011752642
94	0xba34b42b	-0.0006893302
95	0x3bfc2e82	0.007695974
96	0xba2d5b2a	-0.0006613011
97	0xbc3223f3	-0.010872829
98	0x3aadbfcd	0.0013256014
99	0xbc7fd97a	-0.015615815
100	0x37833d93	1.564509e-05
101	0xbb36b93a	-0.00278814
102	0xbc061fac	-0.008186262
103	0xbbfba595	-0.007679651
104	0x3bac30b3	0.005254829
105	0x3922129a	0.00015456454
106	0x3b97209d	0.004612042
107	0x3c9296d3	0.017894184
108	0xbc724f5b	-0.014789428
109	0x3ca8754e	0.020563748
110	0x3b9c9b64	0.004779266
111	0xbbc81073	-0.0061054765
112	0xbaf7cf8a	-0.0018906456
113	0x3c86bf3a	0.016448606
114	0x3bceef85	0.006315174
115	0x3ab3adb8	0.0013708388
116	0x3c2918d9	0.010320866
117	0x3c9aae49	0.018881934
118	0xbb5b01cf	-0.0033417826
119	0x3bb37a93	0.0054772585
120	0xbbbc6e93	-0.005750486
121	0x3bc45c7a	0.0059924694
122	0xbb4ac9b8	-0.0030942988
123	0x3aed4973	0.0018103555
124	0x3be9f443	0.007139714
125	0xbb2ab4cc	-0.0026047705
126	0xbb269a33	-0.00254215
127	0x3ba9eb25	0.005185502
128	0xbc0e70bd	-0.008693871
129	0xbc2c0e93	-0.010501522
130	0x3bf8a7bb	0.0075883544
131	0x3b7986e3	0.0038074784
132	0xbb2d130d	-0.002640906
133	0xbc6ac26d	-0.014328581
134	0x3b2d366c	0.0026430143
135	0xb982ae14	-0.0002492523
136	0x3c1d0fa9	0.009586253
137	0xbc3f6037	-0.011680654
138	0x3c13170b	0.008977662
139	0xbb07b3a5	-0.0020706442
140	0xbc03bab6	-0.008040121
141	0x3c5483ca	0.012970874
142	0xbb65cc4a	-0.0035064393
143	0x3ca89c43	0.020582324
144	0x3c0efdeb	0.008727531
145	0xbba766eb	-0.0051087043
146	0xbaafb334	-0.0013404847
147	0xbca8f94f	-0.020626692
148	0xbc13d0eb	-0.009021978
149	0xbb6de82f	-0.0036301722
150	0xbb5607fb	-0.0032658565
151	0xbc267cf5	-0.010161628
152	0x3b8c5317	0.004282366
153	0xbbab7bb5	-0.005233253
154	0xbc3a8b2f	-0.011385723
155	0x3c4227ad	0.01185028
156	0xbbc35a77	-0.005961712
157	0x3c3a893e	0.01138526
158	0xbb71b2e7	-0.0036880316
159	0xbc15bcae	-0.009139223
160	0xbab15a03	-0.0013530854
161	0x3aa643a9	0.0012684959
162	0x3bc90fa4	0.0061358977
163	0xbbf1108b	-0.0073567084
164	0x3c632c6f	0.013865574
165	0xbc0af7d9	-0.008481943
166	0x3b295333	0.0025836944
167	0x3c23465d	0.009965506
168	0x3c2fe833	0.010736513
169	0xba23deab	-0.00062511367
170	0x3bf2157d	0.0073878155
171	0xbb1b5f1f	-0.002370782
172	0x3b53baef	0.0032307466
173	0xbc33058b	-0.0109266145
174	0xbaf4ee7f	-0.00186868
175	0x3b761717	0.0037550384
176	0xbc138828	-0.00900463
177	0x3bdd7fb0	0.0067596063
178	0x3b9c9558	0.0047785453
179	0xba6daf3d	-0.0009066945
180	0xbc29aadb	-0.0103556765
181	0x3c47a991	0.012186424
182	0xbca34489	-0.019930141
183	0xbbe466d3	-0.0069702654
184	0x3b18b812	0.0023303074
185	0x3c1acada	0.009447778
186	0x3b6ac8db	0.0035825286
187	0x3b891e68	0.004184533
188	0xbc82ac6f	-0.015951363
189	0xbb10c79b	-0.002209163
190	0x3b7cb7db	0.0038561735
191	0x3ba8d6d1	0.0051525612
192	0x3b89a0aa	0.004200061
193	0xbb760ebf	-0.003754541
194	0xbc2dc6b9	-0.010606461
195	0xb97aedfa	-0.00023930511
196	0x39cde252	0.0003926927
197	0x3c8d8b00	0.017278194
198	0x3a44c234	0.0007505745
199	0x3bdfa720	0.006825343
200	0x3c19f213	0.009396094
201	0x39330e57	0.00017076112
202	0x3c6d1020	0.0144691765
203	0xbb857bcd	-0.004073596
204	0x3bea6f4f	0.0071543823
205	0xbc1622a9	-0.009163537
206	0xbaa6ad67	-0.0012716473
207	0x3bbeb567	0.0058199647
208	0x3bbcfe1f	0.0057675983
209	0xbb2fb373	-0.002680984
210	0xbb88e91c	-0.0041781794
211	0x3b597b00	0.0033184886
212	0x3bbc097f	0.0057384367
213	0x3bb5dbe0	0.005549893
214	0xbc2d051f	-0.010560303
215	0x3c350cdf	0.011050432
216	0xbc1fa1e3	-0.009743187
217	0x3a17ca02	0.00057902944
218	0x3c819722	0.015819136
219	0x3ac32e63	0.0014891144
220	0xbc598360	-0.013275951
221	0x3bb19343	0.0054191663
222	0x3b1ada9f	0.0023628843
223	0x3bc71017	0.006074916
224	0x3b62551d	0.0034535595
225	0x3c59ac0d	0.013285649
226	0xbb3710e3	-0.002793365
227	0xbb7331b0	-0.0037108473
228	0x3ba56dfb	0.005048511
229	0x3b98e943	0.004666479
230	0xbc4c1258	-0.012455545
231	0x3c6178c0	0.013761699
232	0x3bfb07ab	0.007660826
233	0x3c19e074	0.009391893
234	0xbc5afc87	-0.013365871
235	0x3b2129d1	0.0024591575
236	0xbc0c09fb	-0.008547301
237	0x3c158e2f	0.0091281375
238	0xba63a77b	-0.00086843193
239	0x3ae75303	0.0017648641
240	0x3c36f092	0.011165755
241	0xb9b102e0	-0.00033762213
242	0xbaf29f30	-0.0018510576
243	0x3c2f6cbf	0.010707079
244	0x3b7a4985	0.0038190794
245	0x3c701d8f	0.014655485
246	0x3cc73f23	0.024322098
247	0x3a038f53	0.00050186104
248	0xbca816c7	-0.020518674
249	0x3c5bf357	0.013424716
250	0x3c2ec676	0.010667434
251	0x3ae7a5c0	0.0017673299
252	0xbb88b63f	-0.004172116
253	0x3bd1f648	0.006407533
254	0x3c701dd2	0.014655547
255	0x3ba12bd3	0.0049185543

discrete_action_output_shape f4 [1, 2]
0	0x40400000	3.0
1	0x40400000	3.0

network_body._body_endoder.seq_layers.0.bias f4 [128]
0	0x00000000	0.0
1	0x00000000	0.0
2	0x00000000	0.0
3	0x00000000	0.0
4	0x00000000	0.0
5	0x00000000	0.0
6	0x00000000	0.0
7	0x00000000	0.0
8	0x00000000	0.0
9	0x00000000	0.0
10	0x00000000	0.0
11	0x00000000	0.0
12	0x00000000	0.0
13	0x00000000	0.0
14	0x00000000	0.0
15	0x00000000	0.0
16	0x00000000	0.0
17	0x00000000	0.0
18	0x00000000	0.0
19	0x00000000	0.0
20	0x00000000	0.0
21	0x00000000	0.0
22	0x00000000	0.0
23	0x00000000	0.0
24	0x00000000	0.0
25	0x00000000	0.0
26	0x00000000	0.0
27	0x00000000	0.0
28	0x00000000	0.0
29	0x00000000	0.0
30	0x00000000	0.0
31	0x00000000	0.0
32	0x00000000	0.0
33	0x00000000	0.0
34	0x00000000	0.0
35	0x00000000	0.0
36	0x00000000	0.0
37	0x00000000	0.0
38	0x00000000	0.0
39	0x00000000	0.0
40	0x00000000	0.0
41	0x00000000	0.0
42	0x00000000	0.0
43	0x00000000	0.0
44	0x00000000	0.0
45	0x00000000	0.0
46	0x00000000	0.0
47	0x00000000	0.0
48	0x00000000	0.0
49	0x00000000	0.0
50	0x00000000	0.0
51	0x00000000	0.0
52	0x00000000	0.0
53	0x00000000	0.0
54	0x00000000	0.0
55	0x00000000	0.0
56	0x00000000	0.0
57	0x00000000	0.0
58	0x00000000	0.0
59	0x00000000	0.0
60	0x00000000	0.0
61	0x00000000	0.0
62	0x00000000	0.0
63	0x00000000	0.0
64	0x00000000	0.0
65	0x00000000	0.0
66	0x00000000	0.0
67	0x00000000	0.0
68	0x00000000	0.0
69	0x00000000	0.0
70	0x00000000	0.0
71	0x00000000	0.0
72	0x00000000	0.0
73	0x00000000	0.0
74	0x00000000	0.0
75	0x00000000	0.0
76	0x00000000	0.0
77	0x00000000	0.0
78	0x00000000	0.0
79	0x00000000	0.0
80	0x00000000	0.0
81	0x00000000	0.0
82	0x00000000	0.0
83	0x00000000	0.0
84	0x00000000	0.0
85	0x00000000	0.0
86	0x00000000	0.0
87	0x00000000	0.0
88	0x00000000	0.0
89	0x00000000	0.0
90	0x00000000	0.0
91	0x00000000	0.0
92	0x00000000	0.0
93	0x00000000	0.0
94	0x00000000	0.0
95	0x00000000	0.0
96	0x00000000	0.0
97	0x00000000	0.0
98	0x00000000	0.0
99	0x00000000	0.0
100	0x00000000	0.0
101	0x00000000	0.0
102	0x00000000	0.0
103	0x00000000	0.0
104	0x00000000	0.0
105	0x00000000	0.0
106	0x00000000	0.0
107	0x00000000	0.0
108	0x00000000	0.0
109	0x00000000	0.0
110	0x00000000	0.0
111	0x00000000	0.0
112	0x00000000	0.0
113	0x00000000	0.0
114	0x00000000	0.0
115	0x00000000	0.0
116	0x00000000	0.0
117	0x00000000	0.0
118	0x00000000	0.0
119	0x00000000	0.0
120	0x00000000	0.0
121	0x00000000	0.0
122	0x00000000	0.0
123	0x00000000	0.0
124	0x00000000	0.0
125	0x00000000	0.0
126	0x00000000	0.0
127	0x00000000	0.0

network_body._body_endoder.seq_layers.0.weight f4 [128, 138]
0	0x3ddf409f	0.10900997
1	0xbb12f7cb	-0.0022425528
2	0x3afedc36	0.001944429
3	0xbd55dc6c	-0.052212164
4	0x3db18c90	0.08669388
5	0xbdb5eaa4	-0.08882645
6	0x3de05ae0	0.10954833
7	0xbdc2e542	-0.09516384
8	0x3d378b56	0.044810615
9	0x3d60adb9	0.054853175
10	0xbc2ac9b0	-0.010424063
11	0x3e021694	0.12703925
12	0x39994b02	0.0002923832
13	0xbda306c6	-0.07960276
14	0x3ae4569b	0.001742083
15	0xba6f72d9	-0.000913424
16	0xbe0b294d	-0.13589974
17	0x3e158dc3	0.14604859
18	0xbd12a8d5	-0.035805542
19	0x3da37222	0.079807535
20	0xbbc82b62	-0.0061086873
21	0x3da5591d	0.08073638
22	0x3c3b28b3	0.011423278
23	0xbe372a55	-0.17887242
24	0xbc3e1512	-0.011601703
25	0xbd1991be	-0.037492506
26	0x3b967cd6	0.0045925183
27	0x3c26bf46	0.010177439
28	0xbe034a29	-0.12821259
29	0xbdce30ec	-0.10067925
30	0xbdb68789	-0.0891257
31	0xbd41f824	-0.047355786
32	0x3dc76c13	0.097374104
33	0x3d86b4dc	0.06577465
34	0xbb349ad0	-0.0027558096
35	0xbce09b61	-0.02741784
36	0xbd640c38	-0.055675715
37	0x3d8f21c8	0.06988865
38	0xbc585fdb	-0.0132064475
39	0xbe302019	-0.17199744
40	0xbc123972	-0.008924829
41	0x3d6f1779	0.058371995
42	0xbd4dd731	-0.05025405
43	0x3daf2567	0.08552056
44	0x3c918f65	0.017768571
45	0x3e19b634	0.15010911
46	0x3e34970a	0.17635742
47	0xbd64f02c	-0.05589311
48	0x3d497aa0	0.04918921
49	0x3dd62a32	0.10457267
50	0xbd738754	-0.05945523
51	0x3dacf775	0.08445636
52	0x3c56e945	0.013117139
53	0x3d58f0ab	0.052963894
54	0x3e2b9c70	0.16758895
55	0xbe35a608	-0.17739117
56	0xbd9aeef6	-0.075651094
57	0xbc04afe6	-0.008098578
58	0xbd70f000	-0.05882263
59	0xbcf8db10	-0.030377895
60	0x3e564cad	0.20927687
61	0x3d13d8fb	0.0360956
62	0x3d66f2a7	0.056383755
63	0xbd35818c	-0.044313
64	0x3d80986a	0.06279071
65	0xbdf41200	-0.11917496
66	0xbc339790	-0.010961428
67	0xbdaab891	-0.083359845
68	0xbda0c903	-0.0785084
69	0xbc2a6fd9	-0.010402643
70	0x3b3bb830	0.002864372
71	0xbd829556	-0.0637614
72	0xbc34f21f	-0.011044054
73	0x3d1c780b	0.03820042
74	0x3c1f6548	0.009728737
75	0x3cbe7c5c	0.023252659
76	0x3da4b50e	0.08042346
77	0xbcdc6ea3	-0.026908224
78	0x3c72eb51	0.014826612
79	0x3d1c4a87	0.038157012
80	0x3db863db	0.09003421
81	0x3d941680	0.07230854
82	0xbd4522ed	-0.04812901
83	0x3d25f832	0.0405199
84	0xbdd46aab	-0.10371908
85	0x3bbe2b07	0.005803469
86	0xbdb77c83	-0.089592956
87	0x3dd27375	0.10275928
88	0x3d04ae22	0.03239263
89	0xbc54e2ee	-0.012993557
90	0xbd1dead5	-0.03855403
91	0x3d5e223c	0.054231867
92	0x3d398f45	0.045302648
93	0xbd95a8e8	-0.07307607
94	0x3dc3fe7e	0.09570025
95	0xbe0df2b2	-0.13862112
96	0x3cb7a0b5	0.022415498
97	0xbd0b587e	-0.03401994
98	0xbd768702	-0.060187347
99	0x3d3a83b0	0.045535743
100	0xbdf9a75c	-0.121901244
101	0x3dae79c7	0.08519321
102	0xbd0a5807	-0.033775356
103	0x3e1ea5a7	0.15492879
104	0x3c3ceb74	0.011530746
105	0x3cfc2c7e	0.030782934
106	0xbdf057ae	-0.117354736
107	0xbd437637	-0.04772016
108	0x3cf9a6a9	0.030474978
109	0xbd320357	-0.043460216
110	0x3d9812a9	0.07425434
111	0x3d606245	0.054781217
112	0xbde6f900	-0.11277962
113	0xbd3dcf28	-0.046340138
114	0xbdd17b3f	-0.102285855
115	0xbddff493	-0.10935321
116	0x3d3ba949	0.04581574
117	0xbe10128c	-0.14069575
118	0x3d4b1037	0.04957601
119	0xbdf6ac73	-0.12044611
120	0x3c5897b4	0.013219763
121	0x3d118cad	0.03553455
122	0x3dc3783d	0.09544418
123	0x3da3e02e	0.08001743
124	0x3d8b8c5d	0.068138815
125	0xbd749457	-0.05971178
126	0xbc7eb001	-0.015544892
127	0xbe1954d1	-0.14973761
128	0x3c845814	0.01615528
129	0xba9d9abe	-0.0012024266
130	0xbc10cfc5	-0.008838599
131	0x3d050166	0.032472037
132	0xbd798a62	-0.060922988
133	0x3de96e37	0.11397975
134	0x3d4e6a07	0.050394084
135	0xbd6c2c0b	-0.05765919
136	0xbbad961e	-0.0052974364
137	0xbdbdbcd6	-0.09264533
138	0x3c54d2ed	0.012989742
139	0x3da28b7b	0.0793676
140	0x3e003e31	0.12523724
141	0x3e0750e1	0.13214447
142	0x3dcbd35b	0.09952422
143	0xbd2b2ba8	-0.04178968
144	0xbc434208	-0.011917599
145	0x3dae0b75	0.08498279
146	0x3d5d2efb	0.053999882
147	0xbc68dc3f	-0.014212667
148	0xbe154575	-0.14577277
149	0xbe056724	-0.13027626
150	0xbc2775f1	-0.0102209905
151	0xbd979d01	-0.07402993
152	0x3c3fab1f	0.011698513
153	0x3d0921ae	0.033479385
154	0x3dccc290	0.09998047
155	0x3de5267d	0.11188982
156	0xbcb78c48	-0.022405759
157	0x3b6ba900	0.0035958886
158	0x3d807fd3	0.062743805
159	0x3c5ebc84	0.01359475
160	0xbe170eb2	-0.147517
161	0x3d8348e3	0.064103864
162	0xbd1e7489	-0.038685355
163	0xbce6b030	-0.028160185
164	0xbdd35011	-0.10318006
165	0x3c5551c9	0.013019987
166	0x3d985632	0.074383155
167	0xbe2d3a54	-0.16916782
168	0x3ca89c13	0.020582234
169	0x3e13acee	0.14421436
170	0xbc939c34	-0.01801882
171	0xbc86a547	-0.016436232
172	0x3dc03bd5	0.09386412
173	0x3ccff1f9	0.025383936
174	0x3c47ba99	0.012190484
175	0xbceec437	-0.029146297
176	0x3cf801f7	0.030274374
177	0x3cc5e854	0.024158634
178	0xbdc281fc	-0.09497449
179	0x3d3dd881	0.046349052
180	0xbd9964eb	-0.07489952
181	0xbd1902e0	-0.037356257
182	0x3e232f82	0.15936092
183	0x3d34de2d	0.044157196
184	0x3d8677ae	0.06565796
185	0x3c344c09	0.011004456
186	0xbb5cb82e	-0.0033679116
187	0x3e046cb3	0.1293209
188	0xbd2db446	-0.04240825
189	0xbd88ed5e	-0.06685899
190	0x3dde9bea	0.10869582
191	0x3b319f60	0.0027103052
192	0x3dbdf823	0.09275844
193	0xbd165b91	-0.03670842
194	0xbe0fbe55	-0.1403745
195	0xbdd2d9b2	-0.10295428
196	0xbdad8cf3	-0.084741496
197	0xbd0b69a0	-0.03403628
198	0x3e01be72	0.12670305
199	0xbde52dcc	-0.11190376
200	0xbd928bb3	-0.07155552
201	0xbcd26b37	-0.02568589
202	0xbbd2e494	-0.00643594
203	0xbc0edd80	-0.008719802
204	0x3df4b144	0.11947873
205	0x3d3f0519	0.04663572
206	0xbd450e92	-0.0481096
207	0xbd7a5e25	-0.06112494
208	0x3d39bc6f	0.04534572
209	0xbcab834b	-0.020936629
210	0x3d69bf5c	0.05706726
211	0x3d9c37fb	0.07627865
212	0x3a61e95d	0.00086178427
213	0xbdee9f4b	-0.116514765
214	0x3e311d7c	0.17296404
215	0x3b4cb4e4	0.003123575
216	0xbd97cc8e	-0.074120626
217	0x3c0067bb	0.007837231
218	0x3d4590be	0.04823374
219	0xbc7e4b57	-0.015520892
220	0xbd77e354	-0.06051953
221	0xbd9e395e	-0.07725786
222	0x3b783b2d	0.0037877068
223	0x3c99488a	0.018711347
224	0xbba5d44a	-0.005060707
225	0x3d4d8f8f	0.050185736
226	0x3da0a900	0.07844734
227	0xbc7262a1	-0.014794023
228	0xbd5e84c2	-0.054325826
229	0x3db813fe	0.08988188
230	0x383e0759	4.5306373e-05
231	0xbdfed493	-0.12442889
232	0x3dd4bffb	0.1038818
233	0xbd761f4f	-0.060088452
234	0x3d0a51dc	0.033769473
235	0x3e3ebdfb	0.1862716
236	0x3c1cae26	0.009563005
237	0x3db5c8d0	0.088761926
238	0x3dfe4879	0.12416167
239	0xbd943182	-0.07236005
240	0xbdf5c6f6	-0.120008394
241	0xbb8031d0	-0.003912188
242	0x3cd59664	0.026072688
243	0x3d92192d	0.07133708
244	0xbddc1158	-0.107454956
245	0xbd107ee3	-0.03527726
246	0xbe5d5e2d	-0.21617956
247	0xbd07dd97	-0.03317031
248	0xbd2cf0c5	-0.042221803
249	0x3d85ca8c	0.065327734
250	0x3e2f500f	0.17120384
251	0xbc4d1931	-0.012518213
252	0x3def0cc9	0.116723605
253	0xbd891e97	-0.06695288
254	0x3d9ea47c	0.07746217
255	0x3ce685c5	0.028139958

network_body._body_endoder.seq_layers.2.bias f4 [128]
0	0x00000000	0.0
1	0x00000000	0.0
2	0x00000000	0.0
3	0x00000000	0.0
4	0x00000000	0.0
5	0x00000000	0.0
6	0x00000000	0.0
7	0x00000000	0.0
8	0x00000000	0.0
9	0x00000000	0.0
10	0x00000000	0.0
11	0x00000000	0.0
12	0x00000000	0.0
13	0x00000000	0.0
14	0x00000000	0.0
15	0x00000000	0.0
16	0x00000000	0.0
17	0x00000000	0.0
18	0x00000000	0.0
19	0x00000000	0.0
20	0x00000000	0.0
21	0x00000000	0.0
22	0x00000000	0.0
23	0x00000000	0.0
24	0x00000000	0.0
25	0x00000000	0.0
26	0x00000000	0.0
27	0x00000000	0.0
28	0x00000000	0.0
29	0x00000000	0.0
30	0x00000000	0.0
31	0x00000000	0.0
32	0x00000000	0.0
33	0x00000000	0.0
34	0x00000000	0.0
35	0x00000000	0.0
36	0x00000000	0.0
37	0x00000000	0.0
38	0x00000000	0.0
39	0x00000000	0.0
40	0x00000000	0.0
41	0x00000000	0.0
42	0x00000000	0.0
43	0x00000000	0.0
44	0x00000000	0.0
45	0x00000000	0.0
46	0x00000000	0.0
47	0x00000000	0.0
48	0x00000000	0.0
49	0x00000000	0.0
50	0x00000000	0.0
51	0x00000000	0.0
52	0x00000000	0.0
53	0x00000000	0.0
54	0x00000000	0.0
55	0x00000000	0.0
56	0x00000000	0.0
57	0x00000000	0.0
58	0x00000000	0.0
59	0x00000000	0.0
60	0x00000000	0.0
61	0x00000000	0.0
62	0x00000000	0.0
63	0x00000000	0.0
64	0x00000000	0.0
65	0x00000000	0.0
66	0x00000000	0.0
67	0x00000000	0.0
68	0x00000000	0.0
69	0x00000000	0.0
70	0x00000000	0.0
71	0x00000000	0.0
72	0x00000000	0.0
73	0x00000000	0.0
74	0x00000000	0.0
75	0x00000000	0.0
76	0x00000000	0.0
77	0x00000000	0.0
78	0x00000000	0.0
79	0x00000000	0.0
80	0x00000000	0.0
81	0x00000000	0.0
82	0x00000000	0.0
83	0x00000000	0.0
84	0x00000000	0.0
85	0x00000000	0.0
86	0x00000000	0.0
87	0x00000000	0.0
88	0x00000000	0.0
89	0x00000000	0.0
90	0x00000000	0.0
91	0x00000000	0.0
92	0x00000000	0.0
93	0x00000000	0.0
94	0x00000000	0.0
95	0x00000000	0.0
96	0x00000000	0.0
97	0x00000000	0.0
98	0x00000000	0.0
99	0x00000000	0.0
100	0x00000000	0.0
101	0x00000000	0.0
102	0x00000000	0.0
103	0x00000000	0.0
104	0x00000000	0.0
105	0x00000000	0.0
106	0x00000000	0.0
107	0x00000000	0.0
108	0x00000000	0.0
109	0x00000000	0.0
110	0x00000000	0.0
111	0x00000000	0.0
112	0x00000000	0.0
113	0x00000000	0.0
114	0x00000000	0.0
115	0x00000000	0.0
116	0x00000000	0.0
117	0x00000000	0.0
118	0x00000000	0.0
119	0x00000000	0.0
120	0x00000000	0.0
121	0x00000000	0.0
122	0x00000000	0.0
123	0x00000000	0.0
124	0x00000000	0.0
125	0x00000000	0.0
126	0x00000000	0.0
127	0x00000000	0.0

network_body._body_endoder.seq_layers.2.weight f4 [128, 128]
0	0xbc901ff4	-0.017593361
1	0xbc9e0210	-0.019288093
2	0xbd5735d8	-0.052541584
3	0x3e14c746	0.14529142
4	0xbd403d81	-0.046933655
5	0xbd7e644a	-0.06210736
6	0xbd21e4cd	-0.039524842
7	0xbd8bba81	-0.06822682
8	0x3d4771db	0.048692565
9	0xbe1ea087	-0.15490924
10	0x3d5b2d81	0.053510193
11	0xbd8463b0	-0.064643264
12	0xbde11fb4	-0.10992375
13	0xbe06a949	-0.13150515
14	0xbc212b1c	-0.009836938
15	0x3cc63c98	0.024198815
16	0x3d5b138d	0.053485442
17	0x3ddaa992	0.10676874
18	0xbd8d3cc0	-0.06896353
19	0xbc55b711	-0.013044135
20	0x3d3014ba	0.042988516
21	0xbdd0c6af	-0.10194146
22	0xbdcf9f74	-0.10137835
23	0xbe0a98ed	-0.13534899
24	0xbdadffca	-0.084960535
25	0x3e52bd6c	0.20580071
26	0x3dd2ca1d	0.10292456
27	0xbd38bcc7	-0.045101907
28	0x3d926d22	0.07149722
29	0x3e65bb20	0.22434664
30	0xbb76a682	-0.0037635867
31	0x3dfbde85	0.122983016
32	0xbcb398a1	-0.021923365
33	0x3e094dc5	0.13408573
34	0x3d478c17	0.048717584
35	0xbe7b216c	-0.24524468
36	0x3d858275	0.06519023
37	0x3b800c09	0.0039076847
38	0x3ddd21ee	0.10797487
39	0x3c88825f	0.016663728
40	0x3e511cfa	0.2042121
41	0xbd98fb97	-0.07469862
42	0x3cc7bf99	0.024383353
43	0xbcd15a45	-0.02555574
44	0x3e04da43	0.12973885
45	0x3b901a3b	0.004397658
46	0xbd29f7dd	-0.041496146
47	0xbcb00033	-0.02148447
48	0xbe228dd7	-0.1587442
49	0xbd3b9f88	-0.045806438
50	0x3d599f10	0.05313021
51	0x3e3c7d20	0.18407106
52	0x3e15da9a	0.14634171
53	0xbe126ebb	-0.14300053
54	0x3ddcccda	0.1078126
55	0x3d16ee02	0.036848076
56	0xbbd8a1f8	-0.006611105
57	0x3c0f5bd2	0.008749919
58	0x3dca19c9	0.098681994
59	0x3da2c437	0.07947581
60	0x3da9a693	0.08283725
61	0xbd5b93e6	-0.053607844
62	0xbd8f59bc	-0.06999537
63	0xbc9ce60f	-0.01915267
64	0x3d6eb280	0.0582757
65	0xbd038db0	-0.032117546
66	0xbc2283b8	-0.0099190995
67	0x3c226cc3	0.009913626
68	0xbe16182f	-0.14657663
69	0xbda3fd45	-0.08007292
70	0x3d5fe018	0.05465707
71	0xbce5706a	-0.028007705
72	0x3d2006c1	0.03906894
73	0x3dad3ef2	0.084592715
74	0xbc9fd965	-0.019512841
75	0xbd3627b0	-0.044471443
76	0x3b2bb057	0.0026197636
77	0xbcda49f7	-0.026646597
78	0x3d1b968d	0.037985373
79	0x3dfde0c2	0.12396385
80	0xbdefbdf6	-0.11706154
81	0xbd2b94aa	-0.041889824
82	0x3c6fa063	0.0146256415
83	0x3d994ae2	0.07484986
84	0x3d6a7fa8	0.05725065
85	0xbd9cfa49	-0.076649256
86	0xbdda66b2	-0.10664119
87	0xbd5ea7f6	-0.0543594
88	0xbd897f30	-0.06713712
89	0xbd15c56b	-0.036565226
90	0xbdff13b2	-0.124549285
91	0xbd272925	-0.040810723
92	0x3debd796	0.11515729
93	0x3e1ba45d	0.15199418
94	0x3d5412b2	0.05177564
95	0xbda98ddf	-0.08279013
96	0x3ccd1532	0.02503452
97	0xbdcef04d	-0.101044275
98	0x3cc38e19	0.023871468
99	0x3e55ece1	0.20891143
100	0xbdc7f1ea	-0.09762938
101	0xbd09c086	-0.03363087
102	0x3d96cb3d	0.073629834
103	0x3d113cdb	0.035458427
104	0x3cb56118	0.022141024
105	0xbd9b33f3	-0.07578268
106	0xbde93c4a	-0.11388452
107	0xbdcf4d97	-0.10122221
108	0x3d2f0aac	0.042734787
109	0xbe35591b	-0.17709772
110	0xbda4df28	-0.08050376
111	0x3d32f6d9	0.043692444
112	0x3d9b6eb9	0.07589478
113	0xbd8fd880	-0.07023716
114	0xbe32744b	-0.17427175
115	0xbd7d2493	-0.061802458
116	0xbccf7577	-0.025324566
117	0x3d9012b7	0.070348196
118	0x3d8a6566	0.067576215
119	0xbcde556a	-0.027140338
120	0xbb45eb5f	-0.0030200107
121	0x3d453b49	0.04815224
122	0xbd34ff34	-0.044188693
123	0xbdb5f6d2	-0.08884968
124	0x3e268c46	0.16264448
125	0x3e107b47	0.14109527
126	0x3d60376d	0.05474036
127	0x3bc05a93	0.0058701723
128	0x3e63055d	0.22170015
129	0x3e315967	0.1731926
130	0x3d8ff5c2	0.070292965
131	0x3bec1847	0.0072050425
132	0xbd0f6ae2	-0.03501404
133	0x3db0e850	0.0863806
134	0x3e08de53	0.1336606
135	0x3e2a9f2c	0.16662282
136	0x3bc7189c	0.0060759317
137	0xbde35a4d	-0.11101208
138	0xbc4e8c51	-0.012606696
139	0x3d9f8885	0.07789711
140	0x3da95c73	0.082695864
141	0xbc59b9fa	-0.013288969
142	0x3d1e8e98	0.038710207
143	0xbcb2ad86	-0.021811258
144	0x3d03bd66	0.032163046
145	0x3dd69e94	0.10479465
146	0x3daf599c	0.085620135
147	0xbdb157be	-0.086593136
148	0xbdf5bddc	-0.119991034
149	0xbdc3ac41	-0.09554339
150	0xbda80285	-0.082036056
151	0x3d7425c1	0.059606317
152	0x3b95e08b	0.0045738867
153	0xbc1994ed	-0.009373886
154	0x3d286a8f	0.041117247
155	0xbbb50902	-0.0055247555
156	0xbdb5aec1	-0.08871222
157	0x3cc9e74d	0.024646426
158	0x3e207d79	0.15672864
159	0x3e0f896b	0.14017265
160	0xbd60e546	-0.054906152
161	0x3e42b697	0.19014965
162	0xbc9cba23	-0.019131726
163	0x3d1434da	0.036183216
164	0x3cfafe14	0.030638732
165	0xbd93873f	-0.072035305
166	0xbd0b2d33	-0.033978652
167	0x3d816c68	0.06319505
168	0xbd6ad110	-0.057328284
169	0x3d8947a7	0.0670312
170	0xbd3a09cd	-0.045419503
171	0x3c9409b8	0.01807104
172	0xbcd414c2	-0.025888804
173	0xbc82f3b5	-0.01598535
174	0x3d975e19	0.073909946
175	0x3dd077e9	0.10179121
176	0xbd191489	-0.0373731
177	0x3dec8d64	0.115504056
178	0x3d0a3b2b	0.033747833
179	0xbc7e7944	-0.015531842
180	0x3be03da4	0.0068432856
181	0xbb36aa9b	-0.0027872685
182	0xbc846e5e	-0.016165908
183	0x3e01c452	0.12672547
184	0x3c654b63	0.013995024
185	0xbd525b9b	-0.051356893
186	0x3d1f543b	0.038898688
187	0x3e06f8c7	0.13180839
188	0x3cd6912e	0.026192274
189	0xbd8cda40	-0.068775654
190	0xbd449a56	-0.04799875
191	0xbd98cd12	-0.07460989
192	0xbe916964	-0.2840072
193	0x3dc3f258	0.09567708
194	0xbce6154b	-0.028086325
195	0x3c0695a1	0.008214385
196	0x3cbf349c	0.023340516
197	0xbd80846a	-0.06275256
198	0xbcf3c9e7	-0.02975936
199	0xbd190439	-0.037357543
200	0xbc0681ad	-0.008209628
201	0xbc8d6ee3	-0.017264789
202	0xbe1123b7	-0.1417378
203	0xbde626db	-0.1123788
204	0x3d95507a	0.0729074
205	0x3b9e2c32	0.004827046
206	0x3db66245	0.08905462
207	0xbd9ee432	-0.077583686
208	0xbdb8f276	-0.09030621
209	0xbd96ec89	-0.07369334
210	0xbbfa716c	-0.0076429155
211	0xbd6b7d41	-0.0574925
212	0xb919ffd1	-0.00014686516
213	0x3d845aaf	0.06462609
214	0xbbfc2a57	-0.007695477
215	0x3d3cee04	0.046125427
216	0x3d41059f	0.0471245
217	0x3e0a9d90	0.13536668
218	0x3cca04e9	0.024660544
219	0xbe2bde54	-0.1678403
220	0xbd654b3b	-0.05597995
221	0x3d1f8b13	0.03895099
222	0x3d7fae10	0.06242186
223	0xbe616ae5	-0.22013433
224	0xbc42074a	-0.011842558
225	0x3c763890	0.015028134
226	0xbd397b3f	-0.045283552
227	0x3c8e394d	0.017361308
228	0x3def4e58	0.11684865
229	0x3e065096	0.13116679
230	0x3ce4295b	0.027851751
231	0x3d05465c	0.032537803
232	0x3dd863fb	0.10565945
233	0x3ce044d4	0.02737657
234	0x3cac90bf	0.021065114
235	0xbddfa5e8	-0.10920316
236	0xbbd7ff16	-0.006591688
237	0x3d46f8b2	0.048577018
238	0x3d8f3f36	0.069944784
239	0x3d2b5e3c	0.041837916
240	0x3d818c4a	0.06325586
241	0xbdac86fe	-0.08424185
242	0x3ded330b	0.11582001
243	0x3e2e0f00	0.1699791
244	0xbe254dbc	-0.16142935
245	0xbe1ff56b	-0.15620963
246	0x3dd88e4e	0.105740175
247	0x3e0c8104	0.1372109
248	0x3d135fd5	0.035980064
249	0x3d83ae83	0.0642977
250	0x3e037da1	0.12840892
251	0x3ca3af37	0.01998101
252	0x3d9047b0	0.07044923
253	0xbe099486	-0.13435563
254	0xbd8aa683	-0.06770041
255	0x3d2a19de	0.041528575
