Results/test4/SnowBall/SnowBall-1290.onnx (onnx, 143334 bytes, 9 tensors)

action_model._discrete_distribution.branches.0.bias f4 [3]
0.0 0.0 0.0
00000000: 0000 0000 0000 0000 0000 0000

action_model._discrete_distribution.branches.0.weight f4 [3, 128]
0.008227269 0.009837958 0.005322167 0.0039314805 -0.0010027788 0.0030309404 0.005170557 0.0028894786
-0.008645976 -0.0006183729 -0.0051307087 -0.0070642116 0.00059492164 -0.015837481 -0.009518026 0.00831074
-0.00480176 -0.0027541236 0.00741122 -0.0038870794 0.0050266525 0.002197164 0.012654783 -0.007591691
0.013346094 0.011519878 0.024882663 0.00023527684 -0.007879531 0.0068398104 -0.001405614 0.01481572
-0.0010406001 0.0057850457 -0.003795073 -0.010414163 -0.0068681533 -0.0036986694 -0.0043144035 -0.0071846345
0.002163294 0.0048550176 0.013700552 0.015320785 -0.012704635 0.008431773 -0.009188428 -0.00022639807
0.017060464 -0.0030599216 0.008663424 -0.005483743 -0.0076193507 0.0069880225 0.009522111 -0.017046167
-0.02185445 0.0005638922 -0.008985969 -0.006748561 0.010739444 -0.0033776728 -0.0032794226 0.0018826344
-0.00974789 0.005710397 -0.010008613 -0.016589133 0.009571742 0.0039786412 -0.010995738 0.012490594
-0.0010239631 -0.0062826164 -0.0061910106 0.005853381 -0.007575004 0.008021111 -0.0015669818 -0.010510004
-0.017153658 -0.012649858 0.0030697628 0.010650362 0.011789299 -0.002626753 0.0032957592 0.005823291
-0.0076926523 -0.004473984 -0.005737738 0.019278886 -0.013460404 -0.00021761411 -0.009350342 -0.0026854377
-0.0014869706 0.0045406925 -0.0022446641 -0.00778576 0.006506465 -0.012520276 0.00116567 -0.000397608
-0.009789983 -0.0098364 0.014164753 0.008700187 -0.0058968514 0.002425311 0.00017556625 0.010143607
-0.008127938 0.017331807 0.0028430915 0.010027285 0.0032451663 -0.0014389101 -0.0050072283 0.011883581
0.0051356154 0.005005081 0.009455663 0.0023695126 -0.008776217 0.0034989298 0.0073494734 0.0006771828
0.001697346 -0.006847139 -0.005832655 0.0064753615 -0.0036349595 -0.008761149 -0.006933443 -0.0050652903
-0.0029283413 -0.0035439052 -0.010665172 0.013143765 -0.002010293 0.0015074323 -0.0015636719 0.009833242
0.013654609 -0.019542921 0.003230117 -0.0005752992 -0.00038342105 -0.021744652 0.0073025315 -0.0009608506
0.0004030907 0.004517551 -0.0059035444 -0.0026509394 0.0064014415 2.4270168e-05 0.0007305437 0.012685294
0.00010707019 -0.0024352593 0.00014278873 0.008187584 -0.0077619078 0.02161337 -0.00081885204 0.0033012168
0.0016787909 -0.00261184 0.0043169945 -0.003183217 0.006865716 0.0041391007 -0.01076102 -0.002204391
-0.003203629 -0.0006646323 -0.0015249936 -0.016346842 -0.01099428 -0.013543196 0.010899954 0.00082024606
0.009654983 -0.008647724 0.008073605 -0.0027691098 -0.008197212 0.008283311 0.011306226 0.0053311093
0.0049077044 0.005457587 -0.002111377 0.010150284 -0.0050097597 -0.0031267253 -0.01512433 -0.008939592
-0.0020412202 0.010735963 -0.0045261397 0.009620014 -0.008975227 -0.007987737 -0.0050449967 -0.020767745
-0.0036607932 -0.0027654793 -0.008787344 0.0027740682 -0.0023679195 0.0031445865 0.017265042 -0.0002229088
0.0013544946 0.004227862 -0.0011227671 0.0033270337 -0.002529457 0.0007504873 -0.00021893496 -0.012983506
-0.0064980797 -0.00021011234 -0.00371424 0.0039405446 -0.0041754735 -0.005448339 0.004432101 0.0019940888
-0.016951805 0.008736677 0.0062741353 0.0010630721 -0.0022641167 -0.004104499 0.008109505 -0.010650455
0.0042278315 -0.0067408876 -0.014110662 0.0022424206 0.0005198462 0.0071727145 0.002253102 -0.013444523
-0.0011194935 0.0064696497 -0.012012223 -0.00044983352 0.006573216 0.0013667766 -0.011294915 -0.0029312014
00000000: abcb 063c 632f 213c 9365 ae3b a6d3 803b
00000010: ac6f 83ba bea2 463b c76d a93b 685d 3d3b
00000020: daa7 0dbc 4e1a 22ba 811f a8bb e77a e7bb
00000030: 84f4 1b3a 9bbd 81bc 7ff1 1bbc c529 083c
00000040: 1558 9dbb 877e 34bb d2d9 f23b 5fbe 7ebb
00000050: 9eb6 a43b 4cfe 0f3b 0256 4f3c b8c3 f8bb
00000060: 93a9 5a3c dfbd 3c3c bad6 cb3c a5b4 7639
00000070: 2619 01bc 7d20 e03b 943c b8ba a2bd 723c
00000080: bf64 88ba 7b90 bd3b c2b6 78bb 2aa0 2abc
00000090: 3f0e e1bb 6065 72bb d75f 8dbb 156d ebbb
000000a0: 0dc6 0d3b d716 9f3b 4878 603c 0804 7b3c
000000b0: 1a27 50bc 6b25 0a3c 0f8b 16bc 4565 6db9
000000c0: 63c2 8b3c f788 48bb 09f1 0d3c f8b0 b3bb
000000d0: bfab f9bb c8fb e43b a102 1c3c 67a4 8bbc
000000e0: 1b08 b3bc 2ad2 133a e339 13bc 0823 ddbb
000000f0: 7ef4 2f3c f25b 5dbb 95eb 56bb bac2 f63a
00000100: 9db5 1fbc 481e bb3b 2afb 23bc efe5 87bc
00000110: ccd2 1c3c 435f 823b 7827 34bc 59a5 4c3c
00000120: 8036 86ba 68de cdbb f6dd cabb b8cd bf3b
00000130: bd37 f8bb fa6a 033c 2f63 cdba 2732 2cbc
00000140: d485 8cbc 5a41 4fbc 132e 493b db7e 2e3c
00000150: e727 413c 9a25 2cbb aafd 573b 4ed1 be3b
00000160: a512 fcbb 7f9a 92bb a303 bcbb c1ee 9d3c
00000170: 0789 5cbc 582f 64b9 2d32 19bc 2bfe 2fbb
00000180: 74e6 c2ba 17ca 943b 371b 13bb b01f ffbb
00000190: 2f34 d53b d821 4dbc 65c9 983a 0b76 d0b9
000001a0: 2a66 20bc da28 21bc 4813 683c 3b8b 0e3c
000001b0: 603a c1bb f7f1 1e3b 3518 3839 5f31 263c
000001c0: 0b2b 05bc 6ffb 8d3c 2953 3a3b 7b49 243c
000001d0: dbac 543b d099 bcba ad13 a4bb 5ab3 423c
000001e0: aa48 a83b aa01 a43b edeb 1a3c d349 1b3b
000001f0: 1fca 0fbc 4d4e 653b dad3 f03b f884 313a
00000200: 7b79 de3a f75d e0bb db1f bfbb 452f d43b
00000210: 8038 6ebb ec8a 0fbc ef31 e3bb bcfa a5bb
00000220: 6ae9 3fbb dd40 68bb f9bc 2ebc f258 573c
00000230: 1fbf 03bb 0995 c53a 1ff4 ccba 9b1b 213c
00000240: 95b7 5f3c 7a18 a0bc 5fb0 533b adcf 16ba
00000250: e705 c9b9 d721 b2bc 134a ef3b 98e1 7bba
00000260: eb55 d339 f707 943b 8572 c1bb 62bb 2dbb
00000270: 2fc3 d13b ca97 cb37 f581 3f3a fbd5 4f3c
00000280: df8a e038 df98 1fbb 8fb9 1539 3725 063c
00000290: 9a57 febb 860e b13c 3ba8 56ba 3a59 583b
000002a0: e00a dc3a 672b 2bbb 9375 8d3b 859d 50bb
000002b0: cdf9 e03b 4ba1 873b fd4e 30bc 8b77 10bb
000002c0: faf3 51bb b83a 2eba 4be2 c7ba d0e9 85bc
000002d0: 5a21 34bc 48e4 5dbc b895 323c c805 573a
000002e0: ef2f 1e3c 2faf 0dbc 2747 043c f479 35bb
000002f0: 994d 06bc b9b6 073c c03d 393c 96b0 ae3b
00000300: cfd0 a03b 8fd5 b23b 075f 0abb 604d 263c
00000310: e928 a4bb bfe9 4cbb 0acc 77bc 5e77 12bc
00000320: fec5 05bb e4e5 2f3c 0350 94bb 439d 1d3c
00000330: d50c 13bc ffde 02bc 8050 a5bb 1e21 aabc
00000340: ebe9 6fbb 0b3d 35bb cbf8 0fbc 24cd 353b
00000350: 192f 1bbb 6815 4e3b 6b6f 8d3c a0bc 69b9
00000360: 4c89 b13a e189 8a3b d029 93ba 5d0a 5a3b
00000370: 3fc5 25bb 5abc 443a e891 65b9 c5b8 54bc
00000380: d8ed d4bb 9a51 5cb9 9b6a 73bb af1f 813b
00000390: 69d2 88bb fb87 b2bb 283b 913b 42af 023b
000003a0: 83de 8abc 4724 0f3c 4397 cd3b c856 8b3a
000003b0: 9361 14bb 087f 86bb bbdd 043c 3f7f 2ebc
000003c0: 9f89 8a3b aae2 dcbb 6830 67bc 93f5 123b
000003d0: 4a46 083a 1709 eb3b c7a8 133b 6b46 5cbc
000003e0: f8bb 92ba 5bff d33b eace 44bc a2d7 ebb9
000003f0: 2264 d73b 6a25 b33a 4f0e 39bc 6619 40bb

action_model._discrete_distribution.branches.1.bias f4 [3]
0.0 0.0 0.0
00000000: 0000 0000 0000 0000 0000 0000

action_model._discrete_distribution.branches.1.weight f4 [3, 128]
-0.007922905 0.0006782745 -0.003574257 0.006429173 -0.0044963416 0.0073790723 -0.009079515 -0.00570939
0.0013874854 0.010040419 0.011616456 -0.0048785293 -0.013095126 -7.976728e-05 -0.005451632 0.01622478
-0.0052851825 0.0075166435 -0.005727384 -0.014052609 0.0015668875 0.0010244189 -0.0065521128 -0.011206898
0.00064086117 -0.0043992414 0.0040839924 0.008570082 0.0031652772 -0.009886707 0.0015540419 -0.0054439544
-0.0017150464 0.0067866347 0.0048112143 0.0034413242 -0.018099329 -0.003688157 0.0012543408 0.0073692934
-0.007761308 -0.005044329 -0.0092458455 -0.011234875 -0.0023816216 0.0027098719 0.017068047 -0.0062395125
0.00027575286 0.013232516 -0.00029118147 0.0030071677 0.011298403 -0.011360944 -0.01298483 -0.0068151127
0.017179362 0.005388188 0.0054390845 0.0043086484 0.0013479277 0.012681688 -0.013001464 0.0012224393
-0.0144727575 -0.0024978505 -0.0075560617 -0.009893591 0.009709718 0.008513453 -0.006894576 -0.0014883409
-0.005359029 0.0072180866 0.01085972 0.0016362546 -0.0021565838 0.003823381 -0.008603249 0.008105903
0.009481165 0.0051231193 0.0066087055 -0.0037597609 0.008927617 0.0037215264 -0.0032661166 -0.004592563
0.0012122298 -0.011574866 0.005555864 0.00048609558 -0.0053823604 -0.003195716 0.0044735456 0.00222059
0.012829864 -0.0073287413 0.00025795735 0.0023674648 -0.0012417315 -0.0009839959 0.0014258822 0.0070375795
-0.014570685 -0.012730238 -0.0044446317 -0.023211028 0.004017815 -0.0057202834 0.0026404047 5.167619e-05
0.007797807 -0.017886033 -0.007769447 -0.014810661 -0.0055023204 -0.0017663998 0.0037357395 0.020344175
0.005526916 -0.0020380872 0.015413927 -0.012214128 -0.0034942576 -0.00665816 -0.0046791243 -0.00081539014
0.0014780738 -0.00038373607 0.0077044815 -0.0040709437 -0.00083069893 -0.0049980474 0.0018337421 -0.0036122021
0.007540533 0.019769104 0.006952108 0.0002336636 0.0037969432 0.0025298109 -0.002071352 -0.0051358263
-0.015592696 0.010548222 0.005925824 0.008584517 0.011367324 0.015403365 0.01285618 -0.019012807
-0.005088923 0.012829463 0.010684246 -0.024460144 0.0029367197 0.002246336 -0.0046621356 -0.011098927
0.006690841 -0.014700361 -0.00014157541 0.01404302 0.002391508 0.00024616232 0.0047341413 -0.0011018092
-0.013754683 -0.008876432 -0.00016468707 -0.0072580515 -0.014236882 0.013979969 -0.003007911 0.013213317
-0.006742216 0.012091962 -0.010014649 0.0057886606 0.0025928793 0.005973214 0.0025239785 -0.010674231
-0.0011016628 -0.019468864 -0.02018697 0.00546191 -0.004167796 0.0015795123 0.0052799224 0.008570141
0.005940768 -0.0020346646 0.0015373458 0.0007176052 -0.0076622884 -0.008522008 0.002281034 0.012660518
-0.012612996 0.009155353 -0.009750057 0.0030525394 -0.0034845402 -0.009793035 -0.00026729584 0.010333412
-0.015428013 -0.01806042 -0.009328269 -0.01665002 -0.013109614 -0.0076957266 -0.00547419 -0.007813395
0.0017879916 0.008269818 -0.012616694 0.0010752518 -0.0046849796 0.001996997 0.0033904656 0.004410526
0.0034803685 -0.016771121 -0.0060905153 -0.0028481109 -0.0035808124 0.0016177957 0.007296362 -0.0022300053
-0.00015939694 -0.010653814 0.0061674397 -0.010063472 0.005768522 -0.019335015 -0.007959473 -0.002796806
-0.011225882 0.0056369933 -0.015398905 -0.0069151386 -0.013319196 -0.0076747835 0.003047629 0.007665494
-0.0005214265 -0.016136406 -0.01012095 0.0039007496 -0.014525811 -0.0010243993 -0.00011587826 -0.010724584
00000000: 12cf 01bc 3bce 313a 153e 6abb d0ab d23b
00000010: 0c56 93bb 25cc f13b 3fc2 14bc d615 bbbb
00000020: 49dc b53a 9280 243c f352 3e3c 12dc 9fbb
00000030: f08c 56bc bb48 a7b8 9ba3 b2bb d4e9 843c
00000040: 532f adbb 2d4e f63b c7ac bbbb ea3c 66bc
00000050: 0560 cd3a cb45 863a 1bb3 d6bb 239d 37bc
00000060: 77ff 273a 8327 90bb 03d3 853b 8769 0c3c
00000070: 8a70 4f3b dbfb 21bc feb0 cb3a 3363 b2bb
00000080: 68cb e0ba 6b62 de3b 64a7 9d3b d787 613b
00000090: 0b45 94bc 02b5 71bb b168 a43a 1d7a f13b
000000a0: 9252 febb e64a a5bb e37b 17bc 7b12 38bc
000000b0: fb14 1cbb 1b98 313b 4ad2 8b3c d374 ccbb
000000c0: ec92 9039 32cd 583c b7a9 98b9 e713 453b
000000d0: f01c 393c 4123 3abc 53be 54bc 4f51 dfbb
000000e0: bcbb 8c3c 668f b03b 593a b23b 902f 8d3b
000000f0: f3ac b03a dbc6 4f3c 1804 55bc 423a a03a
00000100: 251f 6dbc fab2 23bb d798 f7bb ba18 22bc
00000110: 8215 1f3c 037c 0b3c e5eb e1bb 6f14 c3ba
00000120: cb9a afbb b385 ec3b f8ec 313c 9877 d63a
00000130: 7955 0dbb b091 7a3b a4f4 0cbc 9fce 043c
00000140: e356 1b3c d7df a73b d78d d83b 5266 76bb
00000150: 2445 123c dae4 733b 580c 56bb 367d 96bb
00000160: afe3 9e3a 82a4 3dbc f70d b63b a5da fe39
00000170: 835e b0bb 386f 51bb d296 923b 5187 113b
00000180: 5a34 523c f025 f0bb 733e 8739 7827 1b3b
00000190: 98c1 a2ba 6cf9 80ba abe4 ba3a 7f9b e63b
000001a0: e2b9 6ebc 7d92 50bc 46a4 91bb 0e25 bebc
000001b0: e0a7 833b 3771 bbbb a40a 2d3b e3be 5838
000001c0: bf84 ff3b bb85 92bc d896 febb 6aa8 72bc
000001d0: cf4c b4bb 8b86 e7ba 4fd3 743b d4a8 a63c
000001e0: 221b b53b 6e91 05bb b28a 7c3c c41d 48bc
000001f0: eaff 64bb b22c dabb 5753 99bb e8bf 55ba
00000200: edbb c13a 2f30 c9b9 e075 fc3b 8d65 85bb
00000210: 43c3 59ba a9c6 a3bb 2d5a f03a b2ba 6cbb
00000220: 9316 f73b d1f2 a13c 82ce e33b 9803 7539
00000230: 23d6 783b 2fcb 253b 85bf 07bb 6f4a a8bb
00000240: 8278 7fbc 73d2 2c3c 6a2d c23b 13a6 0c3c
00000250: 033e 3a3c 655e 7c3c baa2 523c bfc0 9bbc
00000260: fbc0 a6bb ab32 523c fa0c 2f3c a460 c8bc
00000270: fb75 403b 4437 133b d4c4 98bb 46d8 35bc
00000280: d83e db3b c8d9 70bc dc73 14b9 b214 663c
00000290: d9ba 1c3b 590f 8139 db20 9b3b 956a 90ba
000002a0: 525b 61bc 746e 11bc d9af 2cb9 f3d4 edbb
000002b0: d041 69bc 3d0c 653c 5f20 45bb ab7c 583c
000002c0: cfed dcbb 5d1d 463c 7b14 24bc ceae bd3b
000002d0: 4ced 293b f3ba c33b 5569 253b f8e2 2ebc
000002e0: ab65 90ba 2b7d 9fbc 255f a5bc d2f9 b23b
000002f0: 0292 88bb a307 cf3a 3303 ad3b c769 0c3c
00000300: c6aa c23b 0258 05bb c480 c93a ab1d 3c3a
00000310: ef13 fbbb e49f 0bbc 667d 153b 106e 4f3c
00000320: bda6 4ebc 5500 163c b4be 1fbc 1d0d 483b
00000330: e25c 64bb f772 20bc d723 8cb9 794d 293c
00000340: c7c5 7cbc 72f3 93bc 99d5 18bc 9f65 88bc
00000350: b5c9 56bc 6f2c fcbb d660 b3bb c103 00bc
00000360: 0b5b ea3a 217e 073c 40b6 4ebc 77ef 8c3a
00000370: 7584 99bb 0de0 023b 9332 5e3b 2c86 903b
00000380: e516 643b 9763 89bc f292 c7bb 5fa7 3abb
00000390: 10ac 6abb 370c d43a 5216 ef3b 4825 12bb
000003a0: ca23 27b9 568d 2ebc 3c18 ca3b 43e1 24bc
000003b0: df05 bd3b 7764 9ebc 7368 02bc 9e4a 37bb
000003c0: c3ec 37bc 87b6 b83b b04b 7cbc 6398 e2bb
000003d0: c238 5abc c07c fbbb bbba 473b d32e fb3b
000003e0: 57b0 08ba 7f30 84bc 57d2 25bc b8a3 7f3b
000003f0: abfd 6dbc 2345 86ba ab03 f3b8 2ab6 2fbc

discrete_action_output_shape f4 [1, 2]
3.0 3.0
00000000: 0000 4040 0000 4040

network_body._body_endoder.seq_layers.0.bias f4 [128]
0.0 0.0 0.0 0.0 0.0 0.0 0.0 0.0
0.0 0.0 0.0 0.0 0.0 0.0 0.0 0.0
0.0 0.0 0.0 0.0 0.0 0.0 0.0 0.0
0.0 0.0 0.0 0.0 0.0 0.0 0.0 0.0
0.0 0.0 0.0 0.0 0.0 0.0 0.0 0.0
0.0 0.0 0.0 0.0 0.0 0.0 0.0 0.0
0.0 0.0 0.0 0.0 0.0 0.0 0.0 0.0
0.0 0.0 0.0 0.0 0.0 0.0 0.0 0.0
0.0 0.0 0.0 0.0 0.0 0.0 0.0 0.0
0.0 0.0 0.0 0.0 0.0 0.0 0.0 0.0
0.0 0.0 0.0 0.0 0.0 0.0 0.0 0.0
0.0 0.0 0.0 0.0 0.0 0.0 0.0 0.0
0.0 0.0 0.0 0.0 0.0 0.0 0.0 0.0
0.0 0.0 0.0 0.0 0.0 0.0 0.0 0.0
0.0 0.0 0.0 0.0 0.0 0.0 0.0 0.0
0.0 0.0 0.0 0.0 0.0 0.0 0.0 0.0
00000000: 0000 0000 0000 0000 0000 0000 0000 0000
00000010: 0000 0000 0000 0000 0000 0000 0000 0000
00000020: 0000 0000 0000 0000 0000 0000 0000 0000
00000030: 0000 0000 0000 0000 0000 0000 0000 0000
00000040: 0000 0000 0000 0000 0000 0000 0000 0000
00000050: 0000 0000 0000 0000 0000 0000 0000 0000
00000060: 0000 0000 0000 0000 0000 0000 0000 0000
00000070: 0000 0000 0000 0000 0000 0000 0000 0000
00000080: 0000 0000 0000 0000 0000 0000 0000 0000
00000090: 0000 0000 0000 0000 0000 0000 0000 0000
000000a0: 0000 0000 0000 0000 0000 0000 0000 0000
000000b0: 0000 0000 0000 0000 0000 0000 0000 0000
000000c0: 0000 0000 0000 0000 0000 0000 0000 0000
000000d0: 0000 0000 0000 0000 0000 0000 0000 0000
000000e0: 0000 0000 0000 0000 0000 0000 0000 0000
000000f0: 0000 0000 0000 0000 0000 0000 0000 0000
00000100: 0000 0000 0000 0000 0000 0000 0000 0000
00000110: 0000 0000 0000 0000 0000 0000 0000 0000
00000120: 0000 0000 0000 0000 0000 0000 0000 0000
00000130: 0000 0000 0000 0000 0000 0000 0000 0000
00000140: 0000 0000 0000 0000 0000 0000 0000 0000
00000150: 0000 0000 0000 0000 0000 0000 0000 0000
00000160: 0000 0000 0000 0000 0000 0000 0000 0000
00000170: 0000 0000 0000 0000 0000 0000 0000 0000
00000180: 0000 0000 0000 0000 0000 0000 0000 0000
00000190: 0000 0000 0000 0000 0000 0000 0000 0000
000001a0: 0000 0000 0000 0000 0000 0000 0000 0000
000001b0: 0000 0000 0000 0000 0000 0000 0000 0000
000001c0: 0000 0000 0000 0000 0000 0000 0000 0000
000001d0: 0000 0000 0000 0000 0000 0000 0000 0000
000001e0: 0000 0000 0000 0000 0000 0000 0000 0000
000001f0: 0000 0000 0000 0000 0000 0000 0000 0000

network_body._body_endoder.seq_layers.0.weight f4 [128, 138]
-0.04102612 -0.06437517 -0.03377865 0.02850704 0.17431664 0.112685025 0.09055497 -0.037474245
-0.01409539 0.048570026 -0.04061541 -0.11621318 0.044883765 0.061997216 -0.076646164 -0.056887835
-0.062285893 0.003773601 -0.010031065 -0.008517919 0.06039747 -0.20023762 -0.0019116134 0.036832605
0.02148519 0.04416681 0.06140896 -0.076177746 -0.029209947 0.015382125 -0.07592007 -0.07322492
0.14131369 -0.14457804 -0.023650955 -0.10805953 0.052277498 0.025362618 -0.05794641 -0.039668832
0.18524244 0.058799703 0.058704983 0.06292454 0.03853507 0.03442233 0.07788339 -0.13649987
0.014860921 0.018370371 0.09744327 -0.092397526 -0.13589588 0.04581505 0.06798367 0.1311381
0.0684718 0.010143093 0.01439193 -0.13832271 -0.18858083 -0.07376727 0.14469816 -0.0025655418
0.05831367 -0.16199501 0.018309498 0.057804655 -0.009584034 -0.15107055 0.13202234 -0.11477787
-0.0019379767 0.005725455 0.03144005 0.04355418 -0.105933696 -0.06643326 -0.08999249 -0.12317187
0.00436944 -0.102421604 0.017755266 0.115137234 -0.08310181 -0.008333198 -0.06946582 -0.07198695
-0.0008419218 0.19103973 -0.07747134 -0.11292048 -0.055985257 -0.018722398 -0.0029007709 0.019679781
0.11568831 -0.099149525 0.034200914 -0.12205638 0.066640064 0.015293111 0.29327342 -0.14917298
-0.061822947 0.100106895 -0.061203532 -0.04189215 -0.03854362 0.0962381 -0.02672213 0.010127588
0.049169563 0.009082781 -0.012276073 0.052042335 -0.052262522 -0.00092569384 0.028299438 -0.024727218
0.118983656 -0.015793836 -0.17648701 0.05669474 -0.027320163 -0.010305007 -0.044002265 0.014669072
-0.043391448 0.033947133 0.038779244 0.006837548 0.11391878 0.025653081 -0.10524654 -0.027399706
-0.1009253 -0.15686995 0.031509466 -0.008420249 -0.1508046 0.042959068 0.033422597 -0.020772817
0.034896016 -0.09814186 0.018171659 0.22027442 -0.001478266 -0.07912743 0.031384718 -0.0099662915
0.026479386 -0.12875818 -0.096801184 0.005982114 -0.020736756 -0.08270738 0.15559232 0.13855849
0.029296344 0.014004857 -0.080205694 0.120476 0.07948878 -0.019648954 0.00654923 0.053508237
0.11771909 0.049031395 0.034654856 -0.17419481 -0.02039043 0.059072446 -0.017009875 0.00080257404
0.15252635 0.05298135 0.018694397 -0.08318626 0.041941505 -0.06978867 0.018915972 0.008877688
0.012474529 -0.046872366 -0.10506301 -0.119955435 0.06776099 0.06693026 -0.06550199 -0.04037338
0.06672982 -0.042879853 -0.17215952 -0.1901814 0.043936297 -0.06973079 0.06591059 -0.025553634
-0.08133134 0.187995 0.08740816 -0.10570339 -0.084667385 -0.055617176 -0.07816496 0.122786656
-0.01424518 0.12744515 -0.0084534045 0.027595876 0.05364669 0.0036739968 -0.098233245 -0.039168354
-0.11620728 0.1061224 0.052216846 0.0007640717 0.011576099 -0.046625074 0.10268847 0.059901442
-0.032298908 0.026355945 0.0060261684 0.0081921145 -0.028552016 -0.042613268 -0.020237632 0.012905752
0.00765607 -0.015912235 -0.009710027 0.078934975 -0.14418137 0.04323879 -0.030160846 0.08432293
0.056071796 -0.043523833 0.038726065 -0.04286846 -0.02856133 -0.09366156 0.061671644 0.09485985
-0.042429827 -0.04761605 0.09103763 -0.039673407 0.036902502 0.03365981 0.027866548 0.025352793
00000000: 010b 28bd 21d7 83bd 7b5b 0abd 9987 e93c
00000010: 1080 323e 68c7 e63d e274 b93d 987e 19bd
00000020: 5af0 66bc 5df1 463d 585c 26bd 2d01 eebd
00000030: 0ad8 373d cbf0 7d3d aaf8 9cbd 3803 69bd
00000040: 7e1f 7fbd 854e 773b 5659 24bc be8e 0bbc
00000050: 5663 773d 170b 4dbe 1a8f faba c9dd 163d
00000060: b601 b03c 42e8 343d f687 7b3d 1403 9cbd
00000070: b349 efbc 4f05 7c3c fb7b 9bbd f2f6 95bd
00000080: 89b4 103e 440c 14be a6bf c1bc 514e ddbd
00000090: ee20 563d 44c5 cf3c 3759 6dbd c97b 22bd
000000a0: 32b0 3d3e f5d7 703d a374 703d 95de 803d
000000b0: f3d6 1d3d 6efe 0c3d 5481 9f3d 9fc6 0bbe
000000c0: 387b 733c 767d 963c 5690 c73d ea3a bdbd
000000d0: 4a28 0bbe 90a8 3b3d 063b 8b3d 1149 063e
000000e0: f13a 8c3d 372f 263c 21cc 6b3c 78a4 0dbe
000000f0: 551b 41be 4b13 97bd c12b 143e a622 28bb
00000100: 51da 6e3d 05e2 25be cdfd 953c 93c4 6c3d
00000110: 5a06 1dbc 3db2 1abe dd30 073e a910 ebbd
00000120: b503 feba 999c bb3b 48c7 003d de65 323d
00000130: c4f3 d8bd 290e 88bd fc4d b8bd 8941 fcbd
00000140: 852d 8f3b 6bc2 d1bd 7e73 913c 12cd eb3d
00000150: 4831 aabd f787 08bc 1944 8ebd e56d 93bd
00000160: 6ab4 5cba eb9f 433e 4ba9 9ebd da42 e7bd
00000170: cc50 65bd b75f 99bc dc1a 3ebb 7e37 a13c
00000180: feed ec3d e80e cbbd 4216 0c3d b2f8 f9bd
00000190: 967a 883d f58f 7a3c ef27 963e cdc0 18be
000001a0: 0f3a 7dbd d804 cd3d 8eb0 7abd 1a97 2bbd
000001b0: eadf 1dbd 7b18 c53d 5ee8 dabc 2fee 253c
000001c0: 0666 493d f2cf 143c 9521 49bc 582a 553d
000001d0: 3a11 56bd 43aa 72ba 39d4 e73c bc90 cabc
000001e0: b4ad f33d 1362 81bc 03b9 34be be38 683d
000001f0: 89ce dfbc 55d6 28bc b83b 34bd 8c56 703c
00000200: 3bbb 31bd 260c 0b3d fcd6 1e3d 830d e03b
00000210: 404e e93d 6926 d23c 7f8b d7bd 5975 e0bc
00000220: ecb1 cebd 84a2 20be 1210 013d 16f5 09bc
00000230: 856c 1abe d9f5 2f3d 22e6 083d c12b aabc
00000240: 20ef 0e3d 99fe c8bd bbdc 943c 9e8f 613e
00000250: 60c2 c1ba 900d a2bd 438d 003d a849 23bc
00000260: 4ceb d83c 2fd9 03be b33f c6bd 9c05 c43b
00000270: 21e0 a9bc 7d62 a9bd 9853 1f3e 47e2 0d3e
00000280: e3fe ef3c a174 653c e242 a4bd 1fbc f63d
00000290: 03cb a23d d8f6 a0bc ec9a d63b 742b 5b3d
000002a0: b516 f13d 25d5 483d 40f2 0d3d 2060 32be
000002b0: d509 a7bc f3f5 713d 4b58 8bbc d563 523a
000002c0: de2f 1c3e f902 593d fe24 993c 8f5d aabd
000002d0: dbca 2b3d 5ded 8ebd abf5 9a3c b973 113c
000002e0: f861 4c3c 3dfd 3fbd 462b d7bd 32ab f5bd
000002f0: 46c6 8a3d bb12 893d e825 86bd 8f5e 25bd
00000300: a5a9 883d c9a2 2fbd 964a 30be eabe 42be
00000310: 8cf6 333d 04cf 8ebd 22fc 863d db55 d1bc
00000320: 0c91 a6bd c381 403e 0d03 b33d 057b d8bd
00000330: 1866 adbd d6ce 63bd f314 a0bd 9277 fb3d
00000340: 9e64 69bc fb80 023e 2680 0abc bf10 e23c
00000350: a2bc 5b3d 70c7 703b 832e c9bd ff6e 20bd
00000360: 15fe edbd b356 d93d 55e1 553d fc4b 483a
00000370: aea9 3d3c eff9 3ebd 554e d23d 375b 753d
00000380: dc4b 04bd 6ce8 d73c 2a77 c53b 3838 063c
00000390: ebe5 e9bc 408b 2ebd 64c9 a5bc a672 533c
000003a0: c5df fa3b 605a 82bc ce16 1fbc a9a8 a13d
000003b0: 48a4 13be 281b 313d e113 f7bc 80b1 ac3d
000003c0: 8aab 653d 0c46 32bd 399f 1e3d d796 2fbd
000003d0: 73f9 e9bc a2d1 bfbd 689b 7c3d e245 c23d
000003e0: e6ca 2dbd 0c09 43bd f071 ba3d 9580 22bd
000003f0: 1427 173d dede 093d 6348 e43c a9b0 cf3c

network_body._body_endoder.seq_layers.2.bias f4 [128]
0.0 0.0 0.0 0.0 0.0 0.0 0.0 0.0
0.0 0.0 0.0 0.0 0.0 0.0 0.0 0.0
0.0 0.0 0.0 0.0 0.0 0.0 0.0 0.0
0.0 0.0 0.0 0.0 0.0 0.0 0.0 0.0
0.0 0.0 0.0 0.0 0.0 0.0 0.0 0.0
0.0 0.0 0.0 0.0 0.0 0.0 0.0 0.0
0.0 0.0 0.0 0.0 0.0 0.0 0.0 0.0
0.0 0.0 0.0 0.0 0.0 0.0 0.0 0.0
0.0 0.0 0.0 0.0 0.0 0.0 0.0 0.0
0.0 0.0 0.0 0.0 0.0 0.0 0.0 0.0
0.0 0.0 0.0 0.0 0.0 0.0 0.0 0.0
0.0 0.0 0.0 0.0 0.0 0.0 0.0 0.0
0.0 0.0 0.0 0.0 0.0 0.0 0.0 0.0
0.0 0.0 0.0 0.0 0.0 0.0 0.0 0.0
0.0 0.0 0.0 0.0 0.0 0.0 0.0 0.0
0.0 0.0 0.0 0.0 0.0 0.0 0.0 0.0
00000000: 0000 0000 0000 0000 0000 0000 0000 0000
00000010: 0000 0000 0000 0000 0000 0000 0000 0000
00000020: 0000 0000 0000 0000 0000 0000 0000 0000
00000030: 0000 0000 0000 0000 0000 0000 0000 0000
00000040: 0000 0000 0000 0000 0000 0000 0000 0000
00000050: 0000 0000 0000 0000 0000 0000 0000 0000
00000060: 0000 0000 0000 0000 0000 0000 0000 0000
00000070: 0000 0000 0000 0000 0000 0000 0000 0000
00000080: 0000 0000 0000 0000 0000 0000 0000 0000
00000090: 0000 0000 0000 0000 0000 0000 0000 0000
000000a0: 0000 0000 0000 0000 0000 0000 0000 0000
000000b0: 0000 0000 0000 0000 0000 0000 0000 0000
000000c0: 0000 0000 0000 0000 0000 0000 0000 0000
000000d0: 0000 0000 0000 0000 0000 0000 0000 0000
000000e0: 0000 0000 0000 0000 0000 0000 0000 0000
000000f0: 0000 0000 0000 0000 0000 0000 0000 0000
00000100: 0000 0000 0000 0000 0000 0000 0000 0000
00000110: 0000 0000 0000 0000 0000 0000 0000 0000
00000120: 0000 0000 0000 0000 0000 0000 0000 0000
00000130: 0000 0000 0000 0000 0000 0000 0000 0000
00000140: 0000 0000 0000 0000 0000 0000 0000 0000
00000150: 0000 0000 0000 0000 0000 0000 0000 0000
00000160: 0000 0000 0000 0000 0000 0000 0000 0000
00000170: 0000 0000 0000 0000 0000 0000 0000 0000
00000180: 0000 0000 0000 0000 0000 0000 0000 0000
00000190: 0000 0000 0000 0000 0000 0000 0000 0000
000001a0: 0000 0000 0000 0000 0000 0000 0000 0000
000001b0: 0000 0000 0000 0000 0000 0000 0000 0000
000001c0: 0000 0000 0000 0000 0000 0000 0000 0000
000001d0: 0000 0000 0000 0000 0000 0000 0000 0000
000001e0: 0000 0000 0000 0000 0000 0000 0000 0000
000001f0: 0000 0000 0000 0000 0000 0000 0000 0000

network_body._body_endoder.seq_layers.2.weight f4 [128, 128]
0.0019232677 -0.14138259 -0.15656888 -0.1924363 -0.034168053 -0.09781043 0.07448121 -0.016866336
-0.023254625 0.13735473 0.03486809 -0.037748683 0.026484122 -0.1853544 0.0186545 0.02632935
-0.12866154 -0.0592153 -0.15293355 0.014478297 -0.036915727 -0.14010061 0.11616225 0.00018481037
0.062728375 -0.0733411 0.052030727 0.16219233 0.23432373 0.027107805 -0.027817456 0.0035433185
0.027530424 -0.0659178 -0.037747342 0.0049135312 0.0474395 0.0322605 -0.06561042 -0.011369581
0.11763948 -0.036936145 0.058764126 -0.069932334 0.07753682 -0.093567885 -0.14969882 0.058797482
-0.16820909 -0.009023631 0.05204416 -0.01683757 -0.173482 -0.087555654 -0.042109583 0.061070025
0.1601393 0.06818657 -0.13010429 0.023690853 0.14383817 -0.045042437 0.09470106 -0.04157611
-0.03999544 -0.015747638 0.018723298 0.041769378 0.1009645 0.10091492 -0.0051000924 0.09283621
0.13554157 0.050159905 -0.042739794 -0.20368029 -0.020307565 -0.0503874 -0.07337933 0.060081407
0.0033377092 0.1414332 0.13724661 0.08560103 -0.041015923 0.11994194 -0.04807369 0.15045139
-0.052712288 -0.008127198 -0.0019218163 -0.04800587 0.072435275 0.18008447 -0.0022716033 -0.068224065
0.07080123 0.073900566 -0.07819568 -0.09744018 -0.07698532 0.18093336 -0.002919392 0.0074743503
-0.0004201158 -0.12198759 -0.04417162 0.14987221 -0.12358515 0.07673933 -0.079272605 0.040442407
0.025765043 0.15524977 -0.10948362 -0.061879005 0.11491044 0.19598773 -0.08179702 -0.017916832
0.16240148 0.0029932794 -0.05958313 0.054375835 0.014102555 0.092559375 -0.095655955 0.095649794
0.06655234 0.008797849 0.06312465 0.212464 -0.210852 -0.15199058 -0.0024071608 0.09244138
0.10881834 0.03102401 -0.030281398 -0.00059387076 0.051632803 -0.10420014 -0.050571095 0.10584962
-0.17667037 0.044728104 0.054217868 -0.062592015 0.117177285 -0.1577313 -0.07163755 0.06059536
0.16310227 -0.00463839 -0.096691325 -0.0026408236 -0.0063841925 0.04639681 0.11274737 -0.12016844
-0.0155498935 -0.099428974 -0.031818446 -0.08331511 -0.024545057 0.06957127 0.05157867 -0.16059597
-0.17384036 0.09125963 0.058607172 0.14532873 0.16619015 -0.12471814 0.011520056 -0.06012917
-0.019463364 -0.061166473 -0.055521943 -0.008959478 0.021107063 -0.002211594 -0.023586417 0.08185382
-0.14690107 0.116472326 -0.0152366515 -0.040453877 0.0076229237 -0.15958996 0.10314938 0.09946107
-0.08421186 0.004738864 0.13209938 -0.0043408778 0.011831392 -0.032403868 -0.043484326 0.0839096
-0.019637393 -0.0498461 0.062268466 0.08295875 0.08230721 0.11784283 0.048971012 0.008679499
0.02419706 0.022544406 0.07807969 0.07043923 0.13101272 0.022978643 -0.035952006 0.018882059
0.17643644 0.11123469 0.08740768 0.085043795 0.09150598 0.014233903 0.06075545 0.045461982
0.12050287 -0.012341567 -0.02968731 0.004705167 0.05388674 0.11412904 -0.084382944 -0.07106967
-0.0436277 0.071557894 0.021145387 0.15372536 -0.027968466 -0.11897321 -0.112563305 0.068215095
0.031714678 0.083127074 0.015627367 -0.17787386 -0.113981925 0.03822345 -0.03657178 -0.058110792
0.16153707 -0.02625174 -0.08547035 -0.13698958 0.018688975 -0.04914871 -0.017474467 0.12075762
00000000: 2816 fc3a 99c6 10be 9853 20be 050e 45be
00000010: cdf3 0bbd d650 c8bd 9b89 983d 452b 8abc
00000020: 7c80 bebc b8a6 0c3e d8d1 0e3d 5d9e 1abd
00000030: 3bf5 d83c 8bcd 3dbe 52d1 983c a6b0 d73c
00000040: dabf 03be be8b 72bd 9d9a 1cbe 6136 6d3c
00000050: f234 17bd 8976 0fbe 79e6 ed3d a8c9 4139
00000060: bc77 803d dc33 96bd 2c1e 553d bf15 263e
00000070: 8ff2 6f3e 3011 de3c 6fe1 e3bc 0537 683b
00000080: 7c87 e13c e9ff 86bd f59c 1abd b001 a13b
00000090: ec4f 423d 9623 043d c25e 86bd 7b47 3abc
000000a0: f8ec f03d 5b4a 17bd a7b2 703d af38 8fbd
000000b0: a0cb 9e3d 85a0 bfbd a64a 19be a1d5 703d
000000c0: 013f 2cbe dad7 13bc 422c 553d f2ee 89bc
000000d0: 44a5 31be 6150 b3bd 197b 2cbd 9024 7a3d
000000e0: 8ffb 233e 67a5 8b3d 0f3a 05be 5213 c23c
000000f0: 504a 133e 6b7e 38bd a1f2 c13d b64b 2abd
00000100: 42d2 23bd 3101 81bc 9a61 993c 5e16 2b3d
00000110: 7ac6 ce3d 7bac ce3d ad1e a7bb e920 be3d
00000120: 69cb 0a3e 7974 4d3d ec0f 2fbd 9191 50be
00000130: 0d5c a6bc 0563 4ebd e747 96bd ec17 763d
00000140: 78bd 5a3b ddd3 103e 608a 0c3e 984f af3d
00000150: 5000 28bd 1fa4 f53d ebe8 44bd ee0f 1a3e
00000160: d7e8 57bd f027 05bc 74e5 fbba cea1 44bd
00000170: f258 943d 1068 383e 2edf 14bb 0fb9 8bbd
00000180: 3c00 913d 2e59 973d 0f25 a0bd b88e c7bd
00000190: 7baa 9dbd 9846 393e 4553 3fbb 65eb f43b
000001a0: fd42 dcb9 a1d4 f9bd 4ded 34bd 1a78 193e
000001b0: 361a fdbd 8329 9d3d ad59 a2bd f0a6 253d
000001c0: 3611 d33c ccf9 1e3e f338 e0bd d774 7dbd
000001d0: 2a56 eb3d 02b1 483e 3285 a7bd 52c6 92bc
000001e0: 934c 263e e52a 443b 710d 74bd 32b9 5e3d
000001f0: 670e 673c c58f bd3d 45e7 c3bd 0ae4 c33d
00000200: 984c 883d da24 103c 7f47 813d 2a90 593e
00000210: 96e9 57be 6ba3 1bbe 75c1 1dbb e851 bd3d
00000220: 26dc de3d 1126 fe3c b210 f8bc fead 1bba
00000230: eb7c 533d e266 d5bd a323 4fbd b0c7 d83d
00000240: 14e9 34be d134 373d 8e13 5e3d 3e30 80bd
00000250: a5fa ef3d 5084 21be b5b6 92bd d732 783d
00000260: 4804 273e a3fd 97bb 1a06 c6bd ab11 2dbb
00000270: 7d32 d1bb 950a 3e3d 18e8 e63d df1a f6bd
00000280: fbc4 7ebc 6ba1 cbbd 0f54 02bd 1da1 aabd
00000290: b712 c9bc 627b 8e3d 2844 533d 4573 24be
000002a0: 3503 32be 54e6 ba3d 130e 703d 0ed1 143e
000002b0: c02d 2a3e 396c ffbd 9ebe 3c3c 014a 76bd
000002c0: a271 9fbc b289 7abd fa6a 63bd c6ca 12bc
000002d0: b8e8 ac3c 64f0 10bb 4d38 c1bc faa2 a73d
000002e0: 3c6d 16be 0b89 ee3d 26a3 79bc f7b2 25bd
000002f0: b8c9 f93b 8d6b 23be fb3f d33d 3fb2 cb3d
00000300: 4577 acbd 7948 9b3b 0f45 073e ec3d 8ebb
00000310: 74d8 413c ebb9 04bd 9f1c 32bd ccd8 ab3d
00000320: 99de a0bc 6d2b 4cbd 380d 7f3d 47e6 a93d
00000330: af90 a83d 9557 f13d d495 483d 7534 0e3c
00000340: ea38 c63c 0caf b83c 3fe8 9f3d 7142 903d
00000350: 3328 063e b53d bc3c 6942 13bd 8cae 9a3c
00000360: c1ab 343e 03cf e33d cc02 b33d 712b ae3d
00000370: 7d67 bb3d 5135 693c b5da 783d 5836 3a3d
00000380: 35ca f63d 4934 4abc cd32 f3bc cd2d 9a3b
00000390: 58b8 5c3d 7cbc e93d f7d0 acbd fa8c 91bd
000003a0: f6b2 32bd f28c 923d 1739 ad3c 2e6a 1d3e
000003b0: 201e e5bc 3aa8 f3bd 9787 e6bd 5bb4 8b3d
000003c0: 40e7 013d 873e aa3d f704 803c 9124 36be
000003d0: 5b6f e9bd 3190 1c3d 4acc 15bd 9505 6ebd
000003e0: f969 253e e40d d7bc 140b afbd ff46 0cbe
000003f0: 9f19 993c 2850 49bd 9d26 8fbc c54f f73d
