Results/test34/SnowBall.onnx (onnx, 143334 bytes, 9 tensors)

action_model._discrete_distribution.branches.0.bias f4 [3]
00000000: 0000 0000 0000 0000 0000 0000
0.0 0.0 0.0

action_model._discrete_distribution.branches.0.weight f4 [3, 128]
00000000: dbc0 a43a e231 993c f75e ccbb d2e4 b63c
00000010: b8f5 1bbc 025c 0abc aa1e ea3a 1b93 2fbc
00000020: 7f9d 373c 6ca7 13bc bb93 133b 4cb6 bab8
00000030: 8bd7 2e3c 2d12 5f3b 1b64 323c c919 12bc
00000040: 5e07 05bb f809 e7bb 75d9 a73b 0646 093a
00000050: 8a37 9dbb 9e04 173c df57 273c 1bb3 b5b9
00000060: fb12 823c f0f5 f43b c71d 8e3a c8cf 33ba
00000070: 8f50 03bc e8a0 d13b 0893 0a3a 9fb5 913c
00000080: c139 883b d376 3d3c f368 3b3b ec10 a13b
00000090: b239 ec3b 1bd0 a93b 6054 d03b 5dac f8bb
000000a0: 4b73 433c b277 b739 cf02 21bb 2d9e 583a
000000b0: 9346 efbb c3d3 133b e8bb dfbb 803c 7ebb
000000c0: e0d4 ea38 d4fa 9fba 4f85 a63a 3458 a83c
000000d0: b044 183c 8f64 f6bb af3f f93b 664a 86bb
000000e0: 9dce 86bb 1bbe c8bb e063 193c 27b9 19bb
000000f0: b7d6 543b cf26 eb3a bb31 a9bb 1544 3fbc
00000100: c755 ee39 a2bd 7cbb b792 48ba c176 3639
00000110: 6ca5 1cbb da51 6d3b ab55 1c3a 7bc1 13bc
00000120: 1bf1 98bb 329a 0fbc 20fe 1c3c 1558 b83c
00000130: ef8a d53b 64e3 2dbc 9bf5 213b 7f0c a4ba
00000140: 5044 fd3b e8c6 bcba 6f94 3d3c 6e30 8e3a
00000150: 23d1 bdbb 9461 12bc 5297 c2bb 1d3e 8ebc
00000160: 6d3d 733c e436 a23a 37d4 c539 4fc6 babc
00000170: d6c7 863b 6b81 0e3c 430a b3bb 2ffe af3b
00000180: 749f 0d3c 93ed 013c afd9 b83a ac60 b43b
00000190: 6d0e e0ba cec6 3f3c 6f49 e9bb 33ce 2ebb
000001a0: 1f48 e0bb 3f50 193b 239e 0bbc 00f5 4cbc
000001b0: 63bc b83b ff89 063c 4f56 283c 0987 c4bc
000001c0: 3d45 423c 5d09 0e3c c39f 583b 9f59 bbbb
000001d0: a2a8 f2bb eebb b8bb fd1b 76b9 ea16 3b3c
000001e0: 2346 7dbc 28cb 29bb a704 1eba 37ce 6ebb
000001f0: ef8f 00bc bc09 223c e243 95bb b1cd 893c
00000200: 52d7 74bc 6d28 503c e1a0 07bc 5f7e 02b9
00000210: 0e1c c13b 86eb 07bc c1a0 1ebb 09e5 473c
00000220: 8b16 b9bb 8bfd 17b9 9349 27bc 33f4 cab9
00000230: 5a3c 843c 31da 393b 4e51 1c3a 7282 643c
00000240: 0ae8 183c eef6 21bc 87ae 28bc 6230 f73b
00000250: adfa e13b 2b67 d03b 5f88 82ba 9676 c1bb
00000260: 0638 2ebb 691b b83b 322a 343c 2afa 48bc
00000270: 8da7 d0bb ec55 40bc b574 75bc 75e0 2cbb
00000280: 12b7 f0bb a772 ae3b c6df 893b 9f3c cc3b
00000290: b075 02bc 44e4 00bc fb78 b6bb 9f0b 02ba
000002a0: 5b71 253c 48f5 403b 8a57 383b 0970 0f3c
000002b0: 30f8 5f3b 9f95 0639 12ad d7bb b9e8 2b3c
000002c0: 7b55 76bb 5fa8 0e3c ca09 a03b a831 433c
000002d0: c9b3 8239 853e 57bc 1f0f 4f3c 9f8b 883b
000002e0: 452f 76ba cd88 6c3b 1f3d d9bb 7ba0 37bc
000002f0: 1984 34bc b762 173c c783 283c 6286 7eba
00000300: fb67 92bb 21d2 063c 34e6 cbbb e329 c5bb
00000310: b828 61bb 9866 e5bb 7300 223c a268 503a
00000320: c5b3 e13b 3248 793c 366b 323c 9c1d c7ba
00000330: 5d34 7a3c c92c 313b 0d50 d0ba 0ecf 143c
00000340: 36ed 9c3c 8f13 463b 783f 4f3c f594 8e3a
00000350: b6af 0b3c 02b4 4dbc f260 f03b 5fec a0b9
00000360: 282f 22ba 9699 323b e557 e63b 0f82 013b
00000370: 46a4 303c 5a47 763c 68f5 7c3b a7ae e93b
00000380: 6362 d33b 6374 863c b0b8 d2ba fb70 a5bb
00000390: d357 b6ba b8a1 403a d072 edbb 7ff5 a039
000003a0: f071 613b 71e9 22bb 4936 b0bc 4d54 1f3c
000003b0: bf08 19bc e702 d23b 9a79 d83a 0b55 883a
000003c0: 29a4 b43b 27d6 6c3b 029b 5439 12e2 debb
000003d0: f2d7 7a3b 97db 4abb 045b 19bc 5672 bbbc
000003e0: c864 6cbc b86a 913a b767 cfbb e073 ab3b
000003f0: e04c 943b d23b 363c 1de1 85bb 1f97 d63b
0.0012569682 0.018700544 -0.0062369066 0.022325907 -0.009519033 -0.008444788 0.0017861922 -0.010716225
0.011206984 -0.009012084 0.0022518474 -8.9031266e-05 0.010671507 0.0034037933 0.010888125 -0.0089172805
-0.002029858 -0.007050749 0.0051223584 0.00052365696 -0.0047978805 0.009217409 0.010213821 -0.00034656454
0.015878191 0.007475607 0.0010842615 -0.000685927 -0.008014812 0.0063973553 0.00052861916 0.017786799
0.0041572754 0.011563974 0.002859649 0.0049153473 0.0072090263 0.005182279 0.0063577145 -0.0075889067
0.011929343 0.0003499366 -0.0024568324 0.0008263316 -0.0073021143 0.002255664 -0.00682782 -0.0038793385
0.000111976406 -0.001220549 0.0012704524 0.020549871 0.00929372 -0.0075193117 0.0076064686 -0.0040982245
-0.0041139857 -0.006126178 0.009362191 -0.0023456307 0.0032476613 0.0017940643 -0.005163399 -0.011673947
0.00045458807 -0.0038565178 -0.0007651257 0.00017401112 -0.002390231 0.0036212117 0.0005963693 -0.009018297
-0.004667414 -0.00876479 0.0095820725 0.022502938 0.0065168063 -0.010613296 0.0024713043 -0.0012515931
0.0077290908 -0.001440254 0.011571034 0.0010848173 -0.0057927533 -0.008934397 -0.005938449 -0.017363602
0.014846188 0.0012375978 0.0003773288 -0.022799639 0.004113178 0.008697848 -0.00546387 0.005370877
0.008643974 0.007930177 0.0014102961 0.0055046882 -0.0017094143 0.011705114 -0.0071193497 -0.0026673197
-0.006844535 0.0023393778 -0.008521589 -0.012509584 0.005637692 0.008211612 0.010274484 -0.023990171
0.011857328 0.008669225 0.003305421 -0.005717471 -0.0074053565 -0.0056376373 -0.00023470815 0.011419037
-0.015458616 -0.0025908444 -0.0006027915 -0.0036438832 -0.007846816 0.009890016 -0.0045552114 0.016821714
-0.0149439145 0.012704951 -0.008278103 -0.00012444843 0.005893237 -0.008295899 -0.0024204704 0.012200602
-0.0056484393 -0.00014494934 -0.010210413 -0.00038710385 0.01614206 0.0028358812 0.0005963043 0.013947116
0.009332666 -0.009885533 -0.010295517 0.0075436095 0.006896338 0.006359955 -0.0009958855 -0.005904029
-0.0026583686 0.005618502 0.010996388 -0.012266675 -0.00636763 -0.011739235 -0.014981438 -0.0026378904
-0.0073460424 0.005323726 0.004207584 0.0062328125 -0.007962629 -0.007866923 -0.005568621 -0.0004960838
0.010097827 0.0029443074 0.002812835 0.008754739 0.003417503 0.00012834974 -0.006581911 0.010492497
-0.0037587571 0.008707135 0.0048839794 0.011913694 0.00024929483 -0.013137464 0.0126378825 0.0041670348
-0.0009391199 0.0036092282 -0.0066296007 -0.011207695 -0.011017823 0.009239844 0.010285324 -0.00097093557
-0.004467962 0.00822881 -0.0062225107 -0.006016956 -0.0034356546 -0.0070007555 0.009887802 0.0007950162
0.0068878853 0.015214967 0.010889819 -0.0015191319 0.015271273 0.002703475 -0.0015892998 0.009082569
0.01915608 0.003022406 0.0126494095 0.0010878133 0.0085257795 -0.012555124 0.0073357755 -0.00030693688
-0.00061868364 0.002725219 0.007029521 0.001976136 0.010781353 0.01503166 0.0038598422 0.007131416
0.0064509376 0.01641292 -0.001607677 -0.0050488687 -0.0013911672 0.0007348317 -0.0072463527 0.00030700487
0.0034400187 -0.002485838 -0.02151026 0.009724689 -0.009340464 0.0064090374 0.0016515732 0.0010401321
0.0055127335 0.0036138387 0.0002027564 -0.006801852 0.0038275686 -0.003095364 -0.009360079 -0.022881668
-0.014428325 0.0011094427 -0.0063295024 0.0052323192 0.004525766 0.011122661 -0.0040856735 0.0065487768

action_model._discrete_distribution.branches.1.bias f4 [3]
00000000: 0000 0000 0000 0000 0000 0000
0.0 0.0 0.0

action_model._discrete_distribution.branches.1.weight f4 [3, 128]
00000000: a8cb 0bbc 6533 66bc 3116 2f3c 06e8 3c3c
00000010: e61b 1d3c b8f4 d63a e33d 5a3c 3afe 573b
00000020: 15a6 aebc 5ebb 29bc 3203 653c f38b 38bc
00000030: 7a8e eb3b f03b 513b 70cd 87b9 c957 843c
00000040: cd51 d5b9 e75a 54bb 5ff2 5b39 0b3f 483a
00000050: 5a4e f2ba 0fb9 bc3b 9a84 90bb 739e 123c
00000060: 8dfd 5bbb 8d9f 8d3c af52 04bb 8af7 dabb
00000070: 658a 7c3c 5671 423c f3e3 9c3b 13cf ec3b
00000080: 34d4 333b 87fc 143b 47fb 803b 0b9a 49bb
00000090: 8a29 3abc f6de 413c eba8 d93a 23c0 e6bb
000000a0: c214 a6bc 7834 74bc 0c07 11bc 7d26 73bc
000000b0: f09c 523a f6cb acbb 4270 253b d058 d03a
000000c0: 09c5 2b3b 28d4 333c 3a32 b03b 832d ff3b
000000d0: a0d9 5bba ba31 5d3c ff00 acba 2ff2 1e3b
000000e0: 3ff0 38bc 27ef 3d3c ad31 ae3b 6f70 c9bb
000000f0: 220d 663b 7974 10bc cd30 6ebb c36e 613c
00000100: 55dd cc3b 60a0 1fbc e312 88bb ff9a 923c
00000110: fb4b eabb 694f 3ebc 87cf bdbc 4d87 53bc
00000120: 0db0 1ebc 62c3 f2bb 14f1 27ba 9963 093c
00000130: 8304 1939 a3cf b8bb da7b b9ba e2ae 133b
00000140: c827 ad3b c209 efbb a058 ffbb ea96 68bb
00000150: 854a da3b 18ec d63b c385 6c3c 9077 3ebb
00000160: 5898 c83a 7b8f 0ebb 4b73 00ba ce85 2a3c
00000170: 4e02 a2bb 0003 513b 0a97 b63b 8fba fd3b
00000180: 63f9 13bc d3c4 cd3a 38b9 51bc c823 263c
00000190: 273a 2abc 6fd7 0cbc c716 25bc ebfe 8f3b
000001a0: 85e3 b0bb 406d 593a 830d 0abc 544a 113c
000001b0: 5993 403c 6712 dcbb 8b54 76bc dbf9 0cbc
000001c0: d64d 96bc ba90 6e3c 13ed 6dba 14b9 46bb
000001d0: ef5b 303c 979e 923c 7752 ecbb 4a55 fbbb
000001e0: 263e 373c a68a 0abc 9a07 57bc cb2d da3b
000001f0: bbca b5ba d556 5fbb 4f2b fb3b 33fb 833c
00000200: 1736 adbc 2c5a bdbb cf55 d83b a46f 3ebb
00000210: 4b19 8a3c 12c2 e8bb 72bc 79bc 83a1 b2bb
00000220: 1f15 8f3b 0434 b4ba 5d46 c43b b8fa 6fbc
00000230: fdca ec3b 9e6c 26bb e7cd 073c 48be 4a3c
00000240: 2fea e5bb 576c 033b f751 363c 1bb9 fbbb
00000250: 8396 443c fb21 95ba 893d bc3b 4f43 b4ba
00000260: daf8 763b 76a0 bb3b 7888 6ebc 13ef 22bc
00000270: c3ba 9c3b bd7f ee3b 2451 c039 cdb6 87bb
00000280: a79e 95bc 10d6 5e3b b309 4c3c 60c9 163c
00000290: c397 c7bb 00e9 a5b9 9c54 3e39 ebbc 2cbb
000002a0: 5aaf 89bc f13a 27bb f49e 80bc bfd8 5bbc
000002b0: 17c6 1ebc 9d21 ea38 8301 f1bb b75e a0bb
000002c0: 8ffe 9eb9 ef21 7e3c 2327 0d3c 14b7 2f3a
000002d0: eb41 10ba d1d2 a43b ff80 45bc 2bd1 22bb
000002e0: 50c7 7b3c 6ff8 18bc 97a6 473a 773f 3d3c
000002f0: 6fda 72bc 0216 273c 97c0 2f39 824e 36bb
00000300: db3a cc3b 4041 89bb cbd4 a03c 657f 6cbc
00000310: d7a0 333c ca4a 193c 7509 063c 7c98 8c3c
00000320: e4d8 b5ba a641 4c3b c00a 50bc c33f a53b
00000330: 1374 893b 63ca e53b 5eb2 323b 37c5 a83b
00000340: 0a0a 9439 b7ae 673b de79 033b 3951 adbb
00000350: 9c29 89bc 9a9a 163c 1b77 f0bb 928b 9cba
00000360: 808f edb9 fefe 45bb 9bf8 c7bb 2fa3 eeba
00000370: b0b6 5a3c 559e db3b 43af 6a3c e887 dabb
00000380: 0c36 a9ba 8b06 9cbb f63e 34bb c781 34bc
00000390: 95fa 283c f83d 033c 74ee c0bb 63b6 5abc
000003a0: 1abf fcbc e27b eab9 1572 45bb 2782 73bb
000003b0: ed4d 1d3c e7c2 86bc 1118 aebc 2f0d 853c
000003c0: 5b0e 56b9 4726 1c3c 20c8 5c3c 4d5b 4d3c
000003d0: d5cf c93c 0ffa ab3b f1e1 adbc d77f 343a
000003e0: 3e18 20ba df30 aabb cb16 463c c872 26bc
000003f0: 357c 8abb e532 5f3c 47ec 063b 6bd0 143b
-0.008532442 -0.014050339 0.010686443 0.011529928 0.009589171 0.0016399836 0.013320419 0.0032957927
-0.021319428 -0.010359613 0.013977813 -0.011263835 0.0071886154 0.0031926595 -0.0002590227 0.01615514
-0.00040687472 -0.0032402815 0.00020975758 0.00076387887 -0.0018486485 0.0057593654 -0.0044103386 0.00894891
-0.0033567876 0.017287994 -0.0020190885 -0.006682341 0.015413855 0.011867842 0.004787916 0.0072268336
0.0027439715 0.0022733526 0.0039362046 -0.0030761983 -0.011362443 0.011832943 0.0016606128 -0.0070419475
-0.02027357 -0.014905088 -0.008851778 -0.014840719 0.000803425 -0.0052733375 0.0025243913 0.0015895609
0.0026209971 0.010975875 0.005377081 0.007787408 -0.00083866157 0.013500625 -0.0013122855 0.002425324
-0.011287748 0.011592663 0.0053159804 -0.0061474363 0.0035103043 -0.008816832 -0.0036345006 0.013759318
0.006251971 -0.009742826 -0.004152642 0.017896174 -0.007150171 -0.011615613 -0.023170246 -0.012910676
-0.009685528 -0.0074085454 -0.0006406468 0.008385562 0.00014592898 -0.0056399866 -0.001415129 0.0022534658
0.0052842833 -0.0072948644 -0.0077925473 -0.0035490342 0.0066617155 0.0065589063 0.014436188 -0.0029062964
0.0015304191 -0.0021753001 -0.00048999925 0.010407878 -0.0049441224 0.0031892657 0.0055722045 0.007743187
-0.009031626 0.0015698917 -0.012800507 0.010140367 -0.010389841 -0.008596285 -0.010076231 0.0043944023
-0.005398216 0.00082941726 -0.008426073 0.008867819 0.01175388 -0.006716061 -0.015034805 -0.008604492
-0.018347662 0.014560873 -0.00090761593 -0.0030322718 0.010764106 0.017897887 -0.007211979 -0.0076700794
0.011184251 -0.008455908 -0.013124371 0.006658291 -0.0013869622 -0.0034078856 0.007665075 0.016110992
-0.021143956 -0.0057785716 0.006602026 -0.0029058242 0.016857764 -0.007103213 -0.015242683 -0.0054513826
0.0043665315 -0.0013748412 0.0059898333 -0.014647178 0.0072263465 -0.002539433 0.008288837 0.012374468
-0.0070164423 0.002005359 0.01112794 -0.0076819784 0.011998775 -0.0011377925 0.0057446402 -0.001375297
0.0037684948 0.0057259155 -0.014558904 -0.009944695 0.004783006 0.007278411 0.00036681548 -0.0041416646
-0.018264128 0.0034002103 0.012453484 0.009203285 -0.0060910895 -0.0003164485 0.00018151331 -0.002635772
-0.016807247 -0.002551731 -0.015700795 -0.0134183755 -0.009690783 0.000111642505 -0.0073549165 -0.0048941034
-0.0003032577 0.01551102 0.008615288 0.0006703001 -0.00055029866 0.005030014 -0.012054681 -0.0024843912
0.015367344 -0.009336575 0.00076160714 0.011550776 -0.014822586 0.010198118 0.00016761046 -0.002781779
0.006232602 -0.0041886866 0.019632718 -0.01443467 0.01096364 0.00935621 0.008180966 0.017162554
-0.0013873843 0.003116706 -0.0126978755 0.0050430014 0.0041947453 0.007012652 0.002726696 0.005150463
0.0002823624 0.003535194 0.0020061652 -0.0052892235 -0.016743474 0.009192133 -0.007338417 -0.0011943451
-0.00045311078 -0.0030211802 -0.006102634 -0.0018206591 0.01334922 0.0067022243 0.014324012 -0.0066690333
-0.0012909784 -0.004761522 -0.0027503348 -0.011017269 0.01031365 0.00801038 -0.005887801 -0.013349148
-0.030852843 -0.00044724258 -0.0030127813 -0.0037156434 0.0096010985 -0.016450359 -0.02125171 0.016241638
-0.00020413978 0.00953061 0.013475448 0.012533975 0.024635235 0.005248315 -0.021225901 0.00068855047
-0.0006107128 -0.005193814 0.012090395 -0.010159202 -0.0042262324 0.013622974 0.002058761 0.0022707235

discrete_action_output_shape f4 [1, 2]
00000000: 0000 4040 0000 4040
3.0 3.0

network_body._body_endoder.seq_layers.0.bias f4 [128]
00000000: 0000 0000 0000 0000 0000 0000 0000 0000
00000010: 0000 0000 0000 0000 0000 0000 0000 0000
00000020: 0000 0000 0000 0000 0000 0000 0000 0000
00000030: 0000 0000 0000 0000 0000 0000 0000 0000
00000040: 0000 0000 0000 0000 0000 0000 0000 0000
00000050: 0000 0000 0000 0000 0000 0000 0000 0000
00000060: 0000 0000 0000 0000 0000 0000 0000 0000
00000070: 0000 0000 0000 0000 0000 0000 0000 0000
00000080: 0000 0000 0000 0000 0000 0000 0000 0000
00000090: 0000 0000 0000 0000 0000 0000 0000 0000
000000a0: 0000 0000 0000 0000 0000 0000 0000 0000
000000b0: 0000 0000 0000 0000 0000 0000 0000 0000
000000c0: 0000 0000 0000 0000 0000 0000 0000 0000
000000d0: 0000 0000 0000 0000 0000 0000 0000 0000
000000e0: 0000 0000 0000 0000 0000 0000 0000 0000
000000f0: 0000 0000 0000 0000 0000 0000 0000 0000
00000100: 0000 0000 0000 0000 0000 0000 0000 0000
00000110: 0000 0000 0000 0000 0000 0000 0000 0000
00000120: 0000 0000 0000 0000 0000 0000 0000 0000
00000130: 0000 0000 0000 0000 0000 0000 0000 0000
00000140: 0000 0000 0000 0000 0000 0000 0000 0000
00000150: 0000 0000 0000 0000 0000 0000 0000 0000
00000160: 0000 0000 0000 0000 0000 0000 0000 0000
00000170: 0000 0000 0000 0000 0000 0000 0000 0000
00000180: 0000 0000 0000 0000 0000 0000 0000 0000
00000190: 0000 0000 0000 0000 0000 0000 0000 0000
000001a0: 0000 0000 0000 0000 0000 0000 0000 0000
000001b0: 0000 0000 0000 0000 0000 0000 0000 0000
000001c0: 0000 0000 0000 0000 0000 0000 0000 0000
000001d0: 0000 0000 0000 0000 0000 0000 0000 0000
000001e0: 0000 0000 0000 0000 0000 0000 0000 0000
000001f0: 0000 0000 0000 0000 0000 0000 0000 0000
0.0 0.0 0.0 0.0 0.0 0.0 0.0 0.0
0.0 0.0 0.0 0.0 0.0 0.0 0.0 0.0
0.0 0.0 0.0 0.0 0.0 0.0 0.0 0.0
0.0 0.0 0.0 0.0 0.0 0.0 0.0 0.0
0.0 0.0 0.0 0.0 0.0 0.0 0.0 0.0
0.0 0.0 0.0 0.0 0.0 0.0 0.0 0.0
0.0 0.0 0.0 0.0 0.0 0.0 0.0 0.0
0.0 0.0 0.0 0.0 0.0 0.0 0.0 0.0
0.0 0.0 0.0 0.0 0.0 0.0 0.0 0.0
0.0 0.0 0.0 0.0 0.0 0.0 0.0 0.0
0.0 0.0 0.0 0.0 0.0 0.0 0.0 0.0
0.0 0.0 0.0 0.0 0.0 0.0 0.0 0.0
0.0 0.0 0.0 0.0 0.0 0.0 0.0 0.0
0.0 0.0 0.0 0.0 0.0 0.0 0.0 0.0
0.0 0.0 0.0 0.0 0.0 0.0 0.0 0.0
0.0 0.0 0.0 0.0 0.0 0.0 0.0 0.0

network_body._body_endoder.seq_layers.0.weight f4 [128, 138]
00000000: 4156 aabd d3f5 a8bb 8e20 6ebc a368 7fbd
00000010: 2555 b3bc 1a2c a9bc 66df babc e78b b7bd
00000020: 121f 0a3d 7b32 3fbc 5243 28be d267 9e3d
00000030: 2bab 853d 28a6 b6bc 5d67 663c 7c49 8abd
00000040: 1bda d53c 9f3b c93d 1940 9f3c 018d b9bb
00000050: 7821 38bd ca1b 253e 8728 e9bb 271a f2bd
00000060: 3142 33bd 2ed7 283c f6bb 09bc 9119 7e3c
00000070: 86de a73c 3c88 833d a439 6d3d 1969 1dbd
00000080: 62d1 463e e12e 1fbe c1f3 5d3e 5d1a 833c
00000090: b501 3bbd d11c b13d 44f6 c5bc a284 283d
000000a0: d609 2cbe ce8f 793c 5390 113e 4809 f7bd
000000b0: 0563 77bb 7d7e c43d b2f5 01be 674f 9ebd
000000c0: a039 2f3c 77fb e13c b191 19bd 6ce0 06bd
000000d0: e16b 0c3d 1ebf f1bd f8ef 86bd f333 33bd
000000e0: 04d9 42be fa26 17be 44a8 36be 16ca 083e
000000f0: cfce 1bbc 30be 6f3d aa94 9cbd 02ba 843d
00000100: e4cb fb3c dba7 6bbc 7a74 023e 2795 5cbd
00000110: 4694 6cbe d728 95bd b8a0 0a3e 1557 f03d
00000120: 50c6 e2bd 1e89 993d 6a98 9fbc c8fc edbd
00000130: 0de6 823d 02b0 4cbc ee17 29be 8c9d b6bd
00000140: 72e9 2c3c 3b26 c63d 1ce5 b83c fe81 f1bc
00000150: 01e1 c9bd 7c1e 553e f6db 19bd 182f a53d
00000160: 5eec 153b 4262 c53d 6378 f7ba b463 6ebb
00000170: 54aa ab3d bf4a bd3d f5e2 8cbc fdca f23d
00000180: 9c8e 693d f6b3 eebc 9a69 03be 8d45 923c
00000190: b2ff 85bd fd09 d83d 4124 82bb 60c1 cf3b
000001a0: 9ae1 a53d b4b1 96bd 24df 71bc a67f 6fbd
000001b0: 9630 b43d 3c4f cf3d 8be8 51bd 85fe bbbc
000001c0: c70b 7cbd d468 c83d b15b da3d 5bff 60bd
000001d0: ccac c43d 80ac 28bd 3fd6 453c f84f ccbd
000001e0: 39d0 05bd d2ab 78bd d3aa 023d 532c bfbd
000001f0: f2fb be3b 224d 413b 9a29 09bb 992a 71bd
00000200: 2a0f 0fbe 9bf9 8cbd 0e08 373e 56fd b2bd
00000210: abdf f83d 39bc 613d d68f 633d d4de febc
00000220: 419b c03d ddff f83c 889d f53d 43ec 84bd
00000230: 58f4 1bbe fbb2 cdbd fa1d a3bd 4704 963c
00000240: 4075 123d d336 fe3d b248 a6bd 9ecc dd3d
00000250: e6dd 3fbd 40a6 3f3d aea2 aabd 2eaf 9d3d
00000260: d071 193e 322c cc3c 376d 54bc c9ac 44be
00000270: 4241 36bd a527 ebbc 95ba b43c e355 cabd
00000280: b726 813d cfee cdbd e1ee de3c 27ce 0abc
00000290: 7160 2ebd 99c8 a33d d2af 8bbd f326 fdbd
000002a0: b53b 133d 546a de3d 0da0 0a3e 149b 813e
000002b0: 628e 493e bf79 3ebd ea06 8e3d 5433 aebd
000002c0: 7b3a 293d 74cb 963b d111 1a3d befc 55bd
000002d0: cb8e f83c cf2f 8a3d c4b0 8a3d fe1f efbd
000002e0: 0ecd 153d 41dd 513c cac7 363d 87b8 9a3d
000002f0: 6e41 21be 0c1c a53c a7eb 2c3d 36fc 733d
00000300: 0afd 743d 5856 5abb d309 06bd 0ac4 4c3e
00000310: 4f64 293b 51f8 5c3c a32d 45bd 6db1 5f3d
00000320: 8686 fa3c 807a 7b3d c198 3dbd fbaa b3bd
00000330: 8ae1 043e a8e6 97bd 1b04 0c3d 372b b93c
00000340: 055d c2bd 1a41 443c 8b29 bebd 27a1 6fbd
00000350: 9444 3b3d e74d e33d f4e2 97bd f13f 6ebd
00000360: d8df 343d 6b65 0dbe f25d d93c 55b3 bc3c
00000370: b70b f1bd fe47 2b3d 60e3 7ebd dbd3 b8bd
00000380: 158b 3dbc fd8d 383d ed3e 5c3b b138 90bc
00000390: fdb9 07bd 6e0f 85bc 646f b8bd 8ac5 28bb
000003a0: ba90 dabd ebbd 0ebe 112a 833d 1558 913d
000003b0: ab09 91bc 7c79 9d3d 4cc4 81bd 03bd 0fbe
000003c0: b9d6 7b3d 3eb8 a63d b346 c53d 3612 8bbc
000003d0: 7247 00be 0684 013d 7ce7 51bd 1217 053d
000003e0: 41ec c3bc 4957 2cbe 7281 06be d347 b53d
000003f0: 8096 71bd 669e d23d d743 49be a559 bd3d
-0.08317233 -0.0051562577 -0.014534129 -0.06235565 -0.021891186 -0.020650912 -0.022811603 -0.08962231
0.033721037 -0.01166975 -0.1643193 0.07734646 0.06526788 -0.022296026 0.01406273 -0.06752297
0.026104977 0.09825825 0.019439744 -0.005662561 -0.044953793 0.16123882 -0.007115427 -0.118213944
-0.043764297 0.010305209 -0.00840663 0.015509025 0.02049185 0.06422469 0.0579163 -0.038430307
0.1941581 -0.15545227 0.21675016 0.016003782 -0.045655925 0.086480744 -0.02416528 0.041142114
-0.16800627 0.01523204 0.14215212 -0.12062317 -0.003774823 0.09594438 -0.12691382 -0.077299885
0.010694891 0.027585728 -0.037492458 -0.03292887 0.03428257 -0.11804031 -0.06588739 -0.043750715
-0.19028097 -0.14760962 -0.17837626 0.1335834 -0.009509756 0.058530986 -0.07645543 0.06480791
0.030736871 -0.014383282 0.12739745 -0.05385318 -0.23103437 -0.0728318 0.13537872 0.117353596
-0.11072981 0.07496856 -0.019481856 -0.1162048 0.06391535 -0.012493135 -0.16513035 -0.089167684
0.010553705 0.09675261 0.022570185 -0.02948093 -0.09857369 0.2081241 -0.037563287 0.08065623
0.0022876482 0.09637882 -0.0018880483 -0.0036375346 0.08382097 0.09242772 -0.017198065 0.11855123
0.05702077 -0.029138546 -0.12833253 0.01785543 -0.06542911 0.1054878 -0.003971607 0.006340191
0.08099671 -0.07358113 -0.0147626735 -0.058471344 0.087983295 0.10122535 -0.05124716 -0.022948513
-0.06153467 0.097856194 0.1066202 -0.054931026 0.09603271 -0.041180134 0.012075006 -0.0997619
-0.03266928 -0.060710736 0.031901192 -0.09334626 0.005828374 0.0029495438 -0.0020929337 -0.058878515
-0.13970628 -0.06883546 0.17874166 -0.08739726 0.12152036 0.055111144 0.055557095 -0.031112112
0.09404612 0.030395443 0.11992937 -0.06490376 -0.15229928 -0.100439034 -0.07964702 0.018312586
0.03575635 0.12412801 -0.08119334 0.10830043 -0.04684248 0.046789408 -0.0833181 0.076994285
0.14984822 0.024923418 -0.012965492 -0.19206537 -0.04449583 -0.028705427 0.022061625 -0.09879663
0.063062124 -0.10055315 0.027213516 -0.008472002 -0.042572442 0.07997245 -0.068206444 -0.123609446
0.035945613 0.10860124 0.13537617 0.25313628 0.19683221 -0.046502825 0.069349125 -0.08505884
0.041315537 0.00460189 0.037614647 -0.052242987 0.030341526 0.067474 0.067719966 -0.11676024
0.03657251 0.012809099 0.044624127 0.07554727 -0.15747616 0.020154975 0.042216923 0.0595667
0.05981163 -0.0033315625 -0.032724213 0.19996658 0.0025847142 0.013486938 -0.048139226 0.054612566
0.030581724 0.061396122 -0.046288256 -0.08772846 0.12976661 -0.07417041 0.034183603 0.022603614
-0.09490398 0.011978412 -0.092852674 -0.058503296 0.045719698 0.11098843 -0.07416335 -0.058166448
0.044158787 -0.13808219 0.026534054 0.02303473 -0.117698126 0.041816704 -0.06222856 -0.09024783
-0.011568804 0.045057286 0.0033606843 -0.017605158 -0.033136357 -0.016242709 -0.09005621 -0.0025752508
-0.10672136 -0.13939635 0.06404508 0.070968784 -0.017704805 0.07689187 -0.06336269 -0.14036946
0.061484072 0.0814061 0.096326254 -0.016976457 -0.12527254 0.031620048 -0.05124615 0.032492705
-0.023916366 -0.16830172 -0.13135317 0.0885159 -0.05898142 0.10284118 -0.19654785 0.09245614

network_body._body_endoder.seq_layers.2.bias f4 [128]
00000000: 0000 0000 0000 0000 0000 0000 0000 0000
00000010: 0000 0000 0000 0000 0000 0000 0000 0000
00000020: 0000 0000 0000 0000 0000 0000 0000 0000
00000030: 0000 0000 0000 0000 0000 0000 0000 0000
00000040: 0000 0000 0000 0000 0000 0000 0000 0000
00000050: 0000 0000 0000 0000 0000 0000 0000 0000
00000060: 0000 0000 0000 0000 0000 0000 0000 0000
00000070: 0000 0000 0000 0000 0000 0000 0000 0000
00000080: 0000 0000 0000 0000 0000 0000 0000 0000
00000090: 0000 0000 0000 0000 0000 0000 0000 0000
000000a0: 0000 0000 0000 0000 0000 0000 0000 0000
000000b0: 0000 0000 0000 0000 0000 0000 0000 0000
000000c0: 0000 0000 0000 0000 0000 0000 0000 0000
000000d0: 0000 0000 0000 0000 0000 0000 0000 0000
000000e0: 0000 0000 0000 0000 0000 0000 0000 0000
000000f0: 0000 0000 0000 0000 0000 0000 0000 0000
00000100: 0000 0000 0000 0000 0000 0000 0000 0000
00000110: 0000 0000 0000 0000 0000 0000 0000 0000
00000120: 0000 0000 0000 0000 0000 0000 0000 0000
00000130: 0000 0000 0000 0000 0000 0000 0000 0000
00000140: 0000 0000 0000 0000 0000 0000 0000 0000
00000150: 0000 0000 0000 0000 0000 0000 0000 0000
00000160: 0000 0000 0000 0000 0000 0000 0000 0000
00000170: 0000 0000 0000 0000 0000 0000 0000 0000
00000180: 0000 0000 0000 0000 0000 0000 0000 0000
00000190: 0000 0000 0000 0000 0000 0000 0000 0000
000001a0: 0000 0000 0000 0000 0000 0000 0000 0000
000001b0: 0000 0000 0000 0000 0000 0000 0000 0000
000001c0: 0000 0000 0000 0000 0000 0000 0000 0000
000001d0: 0000 0000 0000 0000 0000 0000 0000 0000
000001e0: 0000 0000 0000 0000 0000 0000 0000 0000
000001f0: 0000 0000 0000 0000 0000 0000 0000 0000
0.0 0.0 0.0 0.0 0.0 0.0 0.0 0.0
0.0 0.0 0.0 0.0 0.0 0.0 0.0 0.0
0.0 0.0 0.0 0.0 0.0 0.0 0.0 0.0
0.0 0.0 0.0 0.0 0.0 0.0 0.0 0.0
0.0 0.0 0.0 0.0 0.0 0.0 0.0 0.0
0.0 0.0 0.0 0.0 0.0 0.0 0.0 0.0
0.0 0.0 0.0 0.0 0.0 0.0 0.0 0.0
0.0 0.0 0.0 0.0 0.0 0.0 0.0 0.0
0.0 0.0 0.0 0.0 0.0 0.0 0.0 0.0
0.0 0.0 0.0 0.0 0.0 0.0 0.0 0.0
0.0 0.0 0.0 0.0 0.0 0.0 0.0 0.0
0.0 0.0 0.0 0.0 0.0 0.0 0.0 0.0
0.0 0.0 0.0 0.0 0.0 0.0 0.0 0.0
0.0 0.0 0.0 0.0 0.0 0.0 0.0 0.0
0.0 0.0 0.0 0.0 0.0 0.0 0.0 0.0
0.0 0.0 0.0 0.0 0.0 0.0 0.0 0.0

network_body._body_endoder.seq_layers.2.weight f4 [128, 128]
00000000: 1e31 15bd b693 7f3d d815 203e 1d59 bdbd
00000010: 6b85 6abd 8ed4 c8bc 8cd0 48bc 48c6 a4bc
00000020: 8b7c 97bd 9a0e b2bd 38c4 9d3d 6c71 813c
00000030: 5218 c0bb 22d0 f1bd 56f2 7bbd 59e0 143e
00000040: a705 0abe 41e4 c13d f0a5 89bc 897a 8c3c
00000050: 99ea 173c 66db 68bc c021 f8ba e797 613d
00000060: 98a5 5f3d 7755 86be 7aa9 fd3d d55c 0c3b
00000070: 4086 2bbd 57e5 b8bb 5f44 ebbd 9439 743d
00000080: 8448 2dbe 0b0a 283e 60a5 5a3c 38c9 a83e
00000090: 7668 393d 59d2 fabd e929 6cbd 3b61 a83d
000000a0: 74f4 1e3e e473 62b9 2b02 f8bd b810 b2bd
000000b0: dc3a 8bbd 5eff d2bd 7ec2 453d 85e6 99bd
000000c0: 433a e63c 22ae 87bd 67df 0ebd e0b6 603d
000000d0: 3e43 72bc 86f6 eb3d 27c6 51bd 5524 cebd
000000e0: 14a5 ce3c d573 b8bc 9f92 13ba c2cf e53d
000000f0: 8612 5fbd 4091 b33c 9120 98bc 4097 04be
00000100: e1b0 5a3c 48bb 7cbd 6631 3ebe f870 5cbe
00000110: 2a34 8a3d d50f cbbd 2415 de3d b8ae dabd
00000120: 6267 e9bd 6d17 12bb 74a2 d03d 07c9 8bbd
00000130: 8ac5 943c a49f 733d a22f f8bd a587 01bd
00000140: 8903 b9bd 9990 99bc 3996 213e 205d 69bd
00000150: 1c51 61bd 4d9d c43d 2e1e b83c e813 cebd
00000160: a298 25bd 5a4d 833d 2081 8a3d 62b6 a13c
00000170: 7ea8 f63d e597 dc3d e89f 723d 7851 a53d
00000180: a313 14bd 22b0 543d 16ab 36be 0c8d 4e3e
00000190: a1cc 7fbd c683 5cbc 850d b7bd b766 a43b
000001a0: 2e9c 5d3d 7ff9 05bd 82d0 0c3e f119 e4bd
000001b0: 4bfc 16bd d8a7 c8bc 8769 c6bd 1025 51be
000001c0: f970 7c3c d18c e3bd 9ee6 3d3b a91f 00be
000001d0: 26cd 99bc d524 eb3d 467e 98bd 176f d53d
000001e0: d9b8 2e3d ead2 8b3d b2dc 8dbc 20cd 1d3d
000001f0: 5c80 aabb d230 063b 13c3 a13c 2302 903d
00000200: 8d46 53bc bf38 f5bd dcab 8b3d 4c1c d4bc
00000210: be68 7e3d 0be4 b33d 2ed4 46be d368 cc3b
00000220: 3112 97bd 84fa 3abd be55 473e 07f4 b63d
00000230: 6d31 d1bd cc50 6c3a e6f3 e53c 50a2 2a3e
00000240: 7885 24be 3c90 743d a41c eebd 1c6d 71bd
00000250: 8957 203e 1ad7 c23d fb36 c8bc c234 71bd
00000260: c915 af3b c5bf 71bd 48b8 7b3d 687e dcbd
00000270: dc52 d1bd 2657 50bd c0a9 c63c b973 6f3d
00000280: e25c b23d 3669 0dbd 3e73 4abd dd84 8a3c
00000290: 6e89 4fbd ee44 c1bd b02c a2bd 6b8f e23b
000002a0: 5c24 473d 0831 20be 97bc 413d 2387 913d
000002b0: 61ae a73a 94cd fb3c a92a 913d 4127 883d
000002c0: bbf0 173e 2875 0abe 904f 303d 4006 d3bc
000002d0: 6529 6bba 339c 91bd c00f 923c 26ca 02be
000002e0: a7ee e03d 93a0 de3d 5569 81bd 054a 943b
000002f0: e983 0e3d 1046 0ebe 96ca 9fbd ab73 e43d
00000300: 3ecf febd 902c 49bd 8981 67bc 0878 b93d
00000310: ec4c cdbd 9654 3e3c 3656 2bbe 9361 d7bd
00000320: 1d96 00bd e565 8a3d e236 9bbd b148 b1bd
00000330: dda1 a63d b37b 15bd 5a37 04be aa72 d9bc
00000340: 1390 10be 487f 12be 2d48 69bc 0563 c73b
00000350: 8b99 fd3d e4ca bd3b 040b 093e e0b7 813d
00000360: 3faa 423c 56f8 f038 73c1 023b 22a4 d33d
00000370: 20f6 bb3c 5d17 d6bd b89d 8ebd 80aa dc3d
00000380: ca3d 3b3d fc75 ad3d b972 6ebc 8d6f 0dbd
00000390: 5dce 973d 7a16 2c3b f17e 783d 308f 38bd
000003a0: 99eb 083e bee1 9fbd 46f9 78bd 5659 fdbc
000003b0: 412a ddbb c6a2 293e bdb1 16be 00bc f3bd
000003c0: 2ce8 42be 4668 7b3d 134d a23d 34f3 45bc
000003d0: 19ba b03c 1ed6 933d 4068 23bd b90f 34bd
000003e0: 0efe b63d cc2d 2cbe 0466 cc3d 5650 a63d
000003f0: 0d31 b53d 1867 24bd 5920 01bb 0140 903d
-0.036423795 0.062396728 0.15633333 -0.09245513 -0.057256144 -0.024515416 -0.012256753 -0.02011408
-0.073968016 -0.08694191 0.077034414 0.015801154 -0.005862274 -0.11807276 -0.061510406 0.14538707
-0.13478719 0.09467364 -0.016802758 0.017148273 0.009272241 -0.014212465 -0.0018930957 0.055076506
0.054601282 -0.2623708 0.12385841 0.0021417637 -0.041876078 -0.005642574 -0.1148765 0.059625223
-0.16922194 0.16410081 0.013345093 0.32966018 0.045265637 -0.12247152 -0.057657156 0.0822167
0.15522939 -0.00021596212 -0.121097885 -0.08694595 -0.06798336 -0.10302614 0.048281185 -0.07514671
0.028103953 -0.0662501 -0.03488102 0.054861903 -0.01478654 0.1152163 -0.051214363 -0.100655235
0.0252252 -0.02251617 -0.0005629453 0.11221267 -0.054461025 0.021919847 -0.018570216 -0.12948322
0.013347835 -0.061702043 -0.18573532 -0.21527469 0.06748231 -0.09915129 0.10843876 -0.10677856
-0.11396672 -0.0022291795 0.101872355 -0.06825452 0.0181606 0.059478417 -0.1211846 -0.0316235
-0.090338774 -0.018745707 0.15779962 -0.056973577 -0.055008993 0.09600315 0.022475328 -0.100623906
-0.040428765 0.06411238 0.0676291 0.019740287 0.12043856 0.10771159 0.05923453 0.080721796
-0.03615154 0.051925786 -0.17838702 0.20170993 -0.06245101 -0.013459152 -0.089381255 0.0050171274
0.054104023 -0.03270864 0.13751414 -0.111377604 -0.0368617 -0.024494097 -0.096880965 -0.20424294
0.015407794 -0.11110843 0.002897657 -0.12512077 -0.01877458 0.114816345 -0.0744596 0.10421579
0.042656753 0.06827338 -0.01731715 0.0385257 -0.00520329 0.0020475877 0.019746339 0.070316575
-0.012895239 -0.11973714 0.06819889 -0.0258924 0.06211161 0.0878373 -0.19416878 0.006238082
-0.073765166 -0.045649067 0.19466302 0.08933263 -0.10214505 0.0009014725 0.028070401 0.1666348
-0.1606654 0.059707865 -0.116265565 -0.058941945 0.15658392 0.095136836 -0.02444028 -0.058888204
0.005343173 -0.059020776 0.06145504 -0.107662976 -0.10220882 -0.05086436 0.024250865 0.05845997
0.08709122 -0.034524165 -0.04942631 0.016909057 -0.050668173 -0.094369754 -0.0791868 0.0069140694
0.04861866 -0.15643704 0.047298994 0.071058534 0.0012793058 0.030737676 0.07088215 0.06648112
0.14837925 -0.13521254 0.043044627 -0.025759816 -0.0008970707 -0.07109871 0.017829776 -0.12772426
0.10983019 0.10870471 -0.063189186 0.0045254254 0.034793768 -0.13893914 -0.07802312 0.111548744
-0.12441872 -0.049114764 -0.014130005 0.09056097 -0.10024437 0.011616847 -0.16732106 -0.10516658
-0.03139316 0.06757716 -0.075788274 -0.08656443 0.08136342 -0.036494922 -0.1291174 -0.026543934
-0.1411746 -0.14306366 -0.014238399 0.006084802 0.123828016 0.0057920087 0.13383108 0.063338995
0.01188141 0.00011490348 0.001995173 0.1033404 0.02294451 -0.10453675 -0.06963676 0.10774708
0.045713224 0.08469769 -0.014553719 -0.03453021 0.074124075 0.0026258514 0.060667936 -0.04505843
0.13371123 -0.07806729 -0.0607846 -0.030926388 -0.006749422 0.16566 -0.1471624 -0.119010925
-0.19033879 0.06137874 0.07924857 -0.01208191 0.021573113 0.07218574 -0.039894342 -0.043960307
0.08935176 -0.16814345 0.099803954 0.081207916 0.08847246 -0.04013738 -0.0019703119 0.07043458
