Results/test28/SnowBall/SnowBall-2071.onnx (onnx, 214028 bytes, 9 tensors)

action_model._discrete_distribution.branches.0.bias f4 [3]
000000 00 00 00 00 00 00 00 00 00 00 00 00
       0.0 0.0 0.0

action_model._discrete_distribution.branches.0.weight f4 [3, 128]
000000 77 f3 14 3c 4f d5 17 3c 4b a2 d8 3b 58 48 81 bc
       0.00909125 0.009267165 0.0066111437 -0.015781567
000010 c7 a7 34 3c 30 4e 11 bc 84 db 85 3b e8 fd c9 bb
       0.011026329 -0.008868739 0.004085006 -0.006164301
000020 7f 1e 20 bb 1a e2 40 3c 0f d2 0b 3c 4d fc cb 3b
       -0.002443224 0.011772657 0.008533969 0.006225145
000030 6b 1b 9c ba 20 0a 06 bc e8 6d c4 bb 5f 98 09 bc
       -0.0011910027 -0.008181125 -0.005994547 -0.0083981445
000040 75 48 fc 3b 0b c5 2b b9 d7 35 1b bc 50 b6 ef 38
       0.0076990672 -0.00016381235 -0.009473286 0.000114303664
000050 7b 75 93 ba 9e a0 8e bb 2b ca 5a 3c 84 f2 15 3c
       -0.0011250222 -0.004352643 0.013353865 0.0091520585
000060 a6 f6 95 b9 67 68 dc bc 0b 1e 99 3b af c3 88 bb
       -0.00028603262 -0.026905252 0.004672771 -0.004173718
000070 53 09 60 bb 4f 47 02 3c 2f f1 46 bc 0f 6e 40 bc
       -0.0034185245 0.007951572 -0.012142464 -0.01174499
000080 fc a9 c0 3b 9f 26 98 3b 9a f6 fb bb 4f c3 b8 b7
       0.0058796387 0.004643276 -0.0076893093 -2.2025457e-05
000090 3f 43 87 ba fe 60 3c bc 5f 98 2b bc 18 1e be 3b
       -0.0010319724 -0.011497734 -0.01047334 0.0058019273
0000a0 d2 ea ad bb 73 e9 85 bb 43 1d 3a bc 5e 6b 2f 3a
       -0.005307534 -0.004086667 -0.011359516 0.0006691719
0000b0 35 70 90 3b 82 58 5b 3b 8e 45 83 bb 6e db 2a 3b
       0.0044079074 0.0033469503 -0.0040060943 0.0026070732
0000c0 db 30 35 3b 00 ac 19 3c d9 a6 23 3c 43 be 19 3c
       0.0027647528 0.009379387 0.00998851 0.009383741
0000d0 eb c4 4e bb 28 e6 5a ba 70 9f d9 bb 40 92 fe 3b
       -0.0031550478 -0.0008350336 -0.006641321 0.007768899
0000e0 20 68 d2 3b 95 fb 21 3c 93 c0 0f bc 7f ec 19 3c
       0.006421104 0.009886642 -0.008773941 0.009394764
0000f0 7c 44 83 bc 5a 38 d5 bb 89 71 2c bb 7b b4 83 bb
       -0.016023867 -0.006506962 -0.002631279 -0.0040193177
000100 09 5f 89 bb 1a 87 fd ba 7d db 22 3b a3 63 65 bc
       -0.0041922373 -0.0019342632 0.0024850063 -0.014000806
000110 53 80 59 bb 50 3c 6e bc bf de 29 bc 37 cc 61 3c
       -0.003318806 -0.014540747 -0.010368048 0.013781599
000120 31 00 84 3c 5d 2d a7 3c 6a b1 62 bb 93 db 5d bc
       0.016113373 0.020407373 -0.003459061 -0.01354112
000130 3a aa c3 3a 92 e8 2d bc 08 c9 49 bb c2 6e 7b 3c
       0.0014928051 -0.010614531 -0.003078999 0.015346231
000140 bb a4 ff 3b dc 9b 25 bb 93 ec 48 3b 65 03 e1 ba
       0.00780162 -0.0025269901 0.0030658587 -0.0017167149
000150 6f f3 d9 3b 3b 9c ae 3b cb 13 5d bc 8e 50 45 bc
       0.006651334 0.0053286827 -0.013493489 -0.0120431315
000160 27 2d 02 bc ae aa bd 3b e8 71 03 3c df e3 06 3c
       -0.0079453355 0.005788169 0.008022763 0.00823304
000170 90 07 eb 3b a3 fe 3f bc d3 fa 7e 3c b2 b0 82 3a
       0.0071725324 -0.011718425 0.015562731 0.0009970872
000180 5c 7d c8 3a 88 7a aa 3c 57 4c a5 bb 0b 46 9f 3b
       0.0015296149 0.02081038 -0.005044501 0.0048606447
000190 a9 31 83 bc c5 9d b4 bb 4f 30 0a bc 77 c4 89 bc
       -0.01601489 -0.0055119717 -0.008434369 -0.016817315
0001a0 7d 75 d5 ba 0b 64 5f 3b 9b ec 7c 3c d3 0d 6d bc
       -0.0016285625 0.003408673 0.0154372705 -0.014468628
0001b0 bf b8 4d 3b 3e ff 0d 3b f0 46 93 bc 5f 75 cf 3a
       0.0031390635 0.0021667029 -0.017978162 0.0015827826
0001c0 73 5c a4 b9 5a 35 62 3c 0b bd 4d bc 02 3f e6 bb
       -0.00031349398 0.013806665 -0.012557278 -0.007026554
0001d0 f2 27 51 bb fa 95 01 bc 78 8b 1d 3c 17 4e 38 3c
       -0.0031914678 -0.007909292 0.0096157715 0.011249087
0001e0 88 42 1f bc 2a 45 ce 3a 0f 82 d8 ba 5f f0 dc bb
       -0.009720452 0.0015737165 -0.0016518253 -0.0067425217
0001f0 a7 44 39 bc 67 8f 39 bc 53 b5 0f bc 8f fc c5 3b
       -0.011307872 -0.011325694 -0.008771258 0.00604207
000200 aa ff f9 bb 5a 64 80 bb 37 8c 6c bc b2 fd 71 3c
       -0.0076293545 -0.003918213 -0.014437727 0.014769958
000210 61 b3 4a 3c 43 ed dc 3b c8 65 86 3a c4 4d 01 3c
       0.012371869 0.006742151 0.0010253722 0.007892076
000220 fa 28 00 bb ae c6 0d 3b 05 c3 8f 3b 8a 20 0f 3c
       -0.0019555674 0.0021633315 0.004387262 0.008735785
000230 f1 57 a2 3b 9f 75 1b bc 9b 1c 2a 3c 9f 45 10 bc
       0.004954331 -0.009488492 0.010382797 -0.008805661
000240 78 d0 1f 3c bf e6 43 bb d1 87 ab 3a 9b e4 8b 3c
       0.009754293 -0.0029892174 0.0013086741 0.017076781
000250 8c 8b 30 3c ee 7d 08 3c 44 ce 20 3b 27 32 10 bc
       0.010775458 0.008330805 0.0024537006 -0.00880102
000260 7b 03 11 bc a3 13 da 3b 45 64 fb 3b 77 c6 58 3b
       -0.008850927 0.006655173 0.007671865 0.0033077279
000270 bf 87 96 3c fb 85 27 bc 33 fa 95 bb ff 80 39 bc
       0.018375276 -0.0102248145 -0.004576945 -0.011322259
000280 d8 f1 0b bc 00 61 32 3b d7 f4 91 bb 0a 4c 79 ba
       -0.008541547 0.002721846 -0.004454236 -0.0009509927
000290 6c 5a 83 bc e5 27 5f bc 8f 5b 71 bb b5 18 65 3b
       -0.016034327 -0.013620351 -0.0036828255 0.0034957353
0002a0 f3 f5 d7 bb 1b 73 54 bb b0 01 49 bc 63 9f ac 39
       -0.0065905987 -0.003241724 -0.012268469 0.0003292515
0002b0 8d 12 23 3c 6a 01 3b bc 18 ff 6f bb 4d 53 58 bc
       0.009953153 -0.011413911 -0.0036620554 -0.013203454
0002c0 f3 cf 6c bc 0e 5c ad 3b 15 6e 6e 3c 70 3f 56 ba
       -0.014453876 0.005290515 0.014552613 -0.0008172905
0002d0 bb 0e cf bb 3f 6a e7 3b 65 27 7f 3b 0d 8c d3 b9
       -0.0063188947 0.007062226 0.0038933393 -0.00040349402
0002e0 22 0c 36 bc cf 06 f7 bb b7 26 8b bb 43 6c c3 bb
       -0.011111291 -0.0075386534 -0.0042465585 -0.0059638335
0002f0 c4 1c 95 bc 0f 80 52 bc c8 76 a9 bb 38 1c ff bb
       -0.018202193 -0.012847914 -0.0051716305 -0.0077853464
000300 b7 fd 53 bc 08 4b 4e 3b e4 7c 91 3b 77 52 0b bc
       -0.012938908 0.0031477828 0.004439937 -0.008503548
000310 2b b4 e1 3a 8d 00 e1 ba 05 96 38 ba b6 fa 86 ba
       0.0017219832 -0.0017166302 -0.00070413976 -0.0010298106
000320 94 cc 91 3b 63 3e 34 bb ab 73 10 3c 07 09 f3 3b
       0.0044494364 -0.0027503006 0.00881664 0.0074168476
000330 05 d5 ba bb 8b 43 ef bb ed fa 9c bb c3 d6 92 3b
       -0.0057016634 -0.007301753 -0.004790655 0.004481168
000340 d0 dd 36 3c 0b 11 fb b9 2b c3 d3 3b 2d f4 99 bb
       0.011161283 -0.0004788715 0.006462475 -0.0046982975
000350 63 f3 a3 ba 96 0e 02 3b 08 80 6a bc 83 c0 4f 3a
       -0.0012508448 0.001984512 -0.014312752 0.000792511
000360 5e f5 bc bb 4b 53 08 3c cb f1 55 bc 6b a4 8d 3b
       -0.0057665547 0.00832064 -0.013058136 0.0043225787
000370 e7 54 9c bc 9d 8c 33 3b 0e 99 34 bc e1 22 94 bb
       -0.019083453 0.0027397044 -0.011022819 -0.0045207595
000380 ef 19 ea 3a a6 13 20 3b bc 81 1c 3c 62 0c f8 39
       0.0017860512 0.0024425774 0.009552415 0.00047311472
000390 26 ee bd 3b a7 a0 f2 3a 66 73 b4 3b d3 1e 94 bb
       0.005796212 0.0018511013 0.0055069206 -0.004520276
0003a0 ef e3 f5 3b 3f 8c 52 3c 88 b2 25 bc 4a 29 e1 bb
       0.0075039784 0.01285082 -0.010113366 -0.006871377
0003b0 33 d6 6d 3c ab bc 8a 39 90 90 87 bc 33 b3 78 3b
       0.014516401 0.0002646198 -0.016548425 0.0037948608
0003c0 92 0b c1 bb 4b 27 32 3c ff 95 b5 bb 76 38 42 bb
       -0.005891272 0.010873626 -0.0055415626 -0.0029635704
0003d0 5c 87 46 3b 5a 72 06 3c cb b0 68 3b bc b1 35 39
       0.0030293083 0.0082059745 0.0035505767 0.00017327716
0003e0 8d 82 ea 3b 7b ad 14 3c a0 b7 c0 3b 58 f5 4d bb
       0.007156676 0.009074564 0.005881265 -0.0031426754
0003f0 28 87 07 3a a0 a2 e2 bb 4b ea dd bb ba 91 97 3c
       0.0005169981 -0.006916359 -0.0067723147 0.018502105

action_model._discrete_distribution.branches.1.bias f4 [3]
000000 00 00 00 00 00 00 00 00 00 00 00 00
       0.0 0.0 0.0

action_model._discrete_distribution.branches.1.weight f4 [3, 128]
000000 b7 00 39 bc fa 9d 0c 3c 03 d7 68 ba a4 19 bc ba
       -0.011291674 0.008582586 -0.0008882137 -0.0014350903
000010 fe 55 9d 3c d3 a3 a2 3c 03 05 f6 bb 53 4f e0 bc
       0.019206043 0.019853508 -0.0075079217 -0.027381575
000020 9d d6 f9 bb 8d 1c 30 3c 41 36 34 3c f8 30 dc 39
       -0.007624461 0.010748995 0.010999263 0.00041998154
000030 18 df d1 ba 33 7f ae ba 25 ef dc ba 0b a0 3a bb
       -0.0016011922 -0.0013313055 -0.0016855939 -0.002847674
000040 73 0e 2c 3b be 3e 41 3c e0 da 22 ba 7f 71 20 3b
       0.002625373 0.011794744 -0.00062124245 0.0024481711
000050 b7 08 69 ba c3 ac 66 3b 5d 1b 24 3c e8 e8 01 3b
       -0.0008889543 0.003519819 0.01001629 0.001982266
000060 a3 c7 8d ba 38 79 0c bb a1 7a 15 3c 42 a0 11 bc
       -0.0010816943 -0.0021434557 0.009123475 -0.008888306
000070 bb 6b e6 bb 23 49 08 3c 9a 7a 59 bb ed a5 e1 3b
       -0.0070318854 0.008318218 -0.0033184648 0.006886235
000080 23 de 61 ba d7 d2 c0 bb ff 54 26 3c 36 15 93 b8
       -0.000861617 -0.005884509 0.010152101 -7.013457e-05
000090 1e 83 42 3b 5a 77 5f 3b 60 c7 91 3c 6a 00 4f bb
       0.0029680203 0.0034098239 0.017795265 -0.003158594
0000a0 97 13 f4 bb df a4 04 bc e7 c8 e2 3b b3 62 2a bc
       -0.0074486244 -0.008095949 0.006920922 -0.010399508
0000b0 87 77 6b 3c e0 4e 81 bb 72 a9 6e 3c ba 58 b8 3b
       0.014371759 -0.00394617 0.014566766 0.0056258114
0000c0 41 80 c8 b9 a6 1a 37 ba ca b7 04 3c fa d5 3b bc
       -0.0003824253 -0.0006984867 0.008100459 -0.01146459
0000d0 45 37 81 3c 29 0d 02 bc 07 42 a7 3c 63 3a 50 bc
       0.015773425 -0.007937708 0.020417226 -0.012709233
0000e0 ab e9 18 3c 98 1b 0d 3c 15 54 a3 3a 3d 60 57 3c
       0.009333055 0.008612536 0.0012460971 0.013145504
0000f0 1b e3 a3 3c 4f 76 12 bc e7 ce 57 bc c8 99 ce 3a
       0.020005753 -0.00893934 -0.013171888 0.0015762383
000100 6c 99 43 bc 57 1d aa 3a 73 47 8f 3b 18 1c aa bc
       -0.011938434 0.0012978715 0.004372531 -0.02076535
000110 d1 10 4b 3c 2d b1 2d 3c e0 78 1c ba 7d 98 c4 bb
       0.012394146 0.010601324 -0.00059689395 -0.0059996233
000120 d3 29 d7 3a dd 8c 5d bb 3a a3 27 bb 98 71 32 3c
       0.0016415663 -0.0033805885 -0.0025579468 0.010891341
000130 e0 f8 39 bb 13 15 5f 3b 31 4a 8e 3c a3 6e 70 39
       -0.00283771 0.003403966 0.017369362 0.00022929399
000140 e0 49 86 3a 28 1c ed ba db 83 99 3a 06 1b 2d bc
       0.0010245405 -0.0018090056 0.001171227 -0.010565525
000150 74 71 1d 3c 3b 6d 45 3b 88 64 38 3b 42 20 62 ba
       0.009609569 0.003012492 0.0028136093 -0.00086260226
000160 62 84 4e bc 3b 85 37 bc b3 83 38 bb 7a 36 02 3b
       -0.012604805 -0.011201198 -0.002815467 0.0019868896
000170 7d 82 cd 3b e9 16 a9 3b f5 d0 ff 3b 83 8c 75 3c
       0.006271659 0.005160202 0.007806892 0.014987114
000180 33 85 f4 bb b8 40 02 bb 2e 8a 18 bc f9 97 0e 3c
       -0.0074621676 -0.0019875 -0.009310288 0.008703225
000190 eb 65 06 3b 65 47 a8 bb 29 b2 0c bc ac 65 02 bc
       0.0020507525 -0.005135464 -0.008587399 -0.007958811
0001a0 25 8c 51 3c 9a 47 4c bb 93 73 1a 3c 3e 06 be bb
       0.012789761 -0.0031170608 0.009426969 -0.005799084
0001b0 33 30 cf 3b c2 05 73 bb 40 e4 7c bb dc 7e 81 3c
       0.0063228845 -0.003708229 -0.0038588196 0.015807562
0001c0 ae 25 02 3c c6 2d 99 3b 4d ff 8c bc 50 05 d4 bb
       0.007943554 0.004674646 -0.01721158 -0.00647036
0001d0 ff 2b 27 bb 3a 06 5f bc 12 d8 95 3c 62 cd 7f 3b
       -0.0025508401 -0.013612324 0.018291507 0.003903233
0001e0 56 58 a2 bb d7 b6 ef 3b ec 1e a6 bb 71 ed b2 3b
       -0.004954378 0.0073154974 -0.005069604 0.005460434
0001f0 69 bd bd b9 f3 2e e0 3b e6 27 88 3c 18 6a 6d bc
       -0.0003619001 0.0068415343 0.016620588 -0.014490627
000200 a7 97 1d bc 44 d1 33 bc 9c 0a b2 ba 67 1a 20 bc
       -0.009618676 -0.010975186 -0.0013583484 -0.00977192
000210 44 f8 35 3b bd 35 de 3b 7a 1b 99 bb 35 ab d9 3a
       0.0027766386 0.0067813084 -0.004672465 0.001660681
000220 b2 bd 73 3b 62 1f ed ba f5 ca 62 3a e2 a6 d7 ba
       0.0037191925 -0.0018091018 0.0008651459 -0.0016452933
000230 2a aa 9f 3b 48 4f 93 3b c7 c6 ae bc c1 43 c4 3a
       0.00487258 0.004495535 -0.021335019 0.0014973806
000240 7f b6 5f ba 23 5d 20 bb cb 95 64 bc 5a ba 70 3b
       -0.0008533969 -0.0024469576 -0.013951729 0.0036732168
000250 e1 4c 88 3b 4b bb 9b 38 cd c5 16 bc 97 35 37 3c
       0.0041595553 7.425862e-05 -0.009202433 0.01118221
000260 eb 85 cb bb c2 0e f2 bb 3b a4 75 bc a3 ec aa ba
       -0.0062110326 -0.007387013 -0.014992769 -0.0013040494
000270 03 7c e3 3b 48 3a ea bb 8f c0 0f bc c7 f4 d1 bb
       0.0069422736 -0.007148061 -0.008773937 -0.0064073536
000280 21 8e 25 3b b3 05 8e b9 0f b3 df bb 67 df a6 3b
       0.0025261717 -0.00027088597 -0.0068267654 0.0050925496
000290 13 da 15 3c eb 1b aa 3a 97 b0 ab bb 3d 8a 7e 3c
       0.009146231 0.0012978291 -0.005239557 0.015535888
0002a0 ef d5 cc bb 7f 74 38 3c 08 3c 4e bb fb 93 c2 bb
       -0.006251089 0.011258244 -0.0031468887 -0.005938051
0002b0 5b 46 18 3c 0b 90 b1 b9 46 19 1c bc 3c 68 a0 3b
       0.009294118 -0.0003386739 -0.00952751 0.004895238
0002c0 a6 85 24 bb 99 b8 1e 3c 8a 09 d2 3b 26 be 19 3c
       -0.0025104075 0.009687566 0.0064098286 0.009383714
0002d0 ea 08 2c bc 35 51 55 3b f2 b3 1d 3a 50 cf 9d bb
       -0.010500172 0.0032549624 0.00060158886 -0.0048159733
0002e0 ef 89 0d 3c 6f 37 54 bb bd a6 f4 3b f4 90 24 3c
       0.008638843 -0.0032381674 0.007466166 0.010044325
0002f0 66 6a 0c bc 69 3e 92 bb 5c 1c 0e 3a 9a af 44 3b
       -0.008570289 -0.0044630063 0.0005421096 0.0030011893
000300 2c ac 9a 3a 8d 64 53 bb cf a0 0c 3c 61 b8 86 3a
       0.0011800579 -0.0032255978 0.008583262 0.0010278338
000310 b7 fb a5 bb 64 63 ae bb 85 c0 2a 3c 0f 82 07 bb
       -0.005065407 -0.005321907 0.010421877 -0.0020676886
000320 db ff 24 3c 50 16 53 bc 8a 94 d6 3b 9b c1 48 3b
       0.010070766 -0.012883738 0.006548469 0.0030632976
000330 58 75 4f 3c 68 ba 90 bc 38 ef 81 ba 3f 7b 98 39
       0.012662254 -0.01766701 -0.0009913212 0.00029083525
000340 27 61 19 ba a8 c3 09 bc 7e 6e 8d bc 26 a8 12 3c
       -0.00058509636 -0.0084084645 -0.0172646 0.0089512225
000350 87 b9 93 bb 63 99 1a 3b b4 63 27 3b d7 fd 8c bc
       -0.0045082006 0.002358996 0.0025541605 -0.017210884
000360 d4 c7 c6 3b 50 45 22 bc d8 f8 1f 39 a0 ef 2b bb
       0.006066302 -0.009904221 0.00015256123 -0.0026235357
000370 75 3d 33 3c 3e 95 8a 39 0b 4b 24 bc 4a 49 4f 3b
       0.0109399455 0.00026432605 -0.010027657 0.0031629377
000380 af f9 39 3c a6 65 a0 bb 27 72 9e 3b ca fb dd bc
       0.011351033 -0.00489493 0.0048353854 -0.027097601
000390 93 91 9c 3c 13 d1 fe 3b 87 49 3b bc 1f 8b cb 3b
       0.019112384 0.0077763884 -0.0114311045 0.006211653
0003a0 38 e3 77 3c 99 db 18 3a a5 fb e0 39 ad 57 32 3c
       0.015129857 0.00058310624 0.000429121 0.010885161
0003b0 34 52 97 b9 1b 97 11 3c f3 5c cd 3b 65 a2 d9 bb
       -0.0002886221 0.008886124 0.006267184 -0.0066416734
0003c0 50 d4 de 3b 62 fd 28 bc 53 ba 1b ba 3f 64 5d bc
       0.006800212 -0.010314317 -0.0005940545 -0.01351267
0003d0 f2 0c 4f 3b fd 5c 96 b6 6d 6a 62 bb 4b 8b d5 3b
       0.003159341 -4.4811736e-06 -0.0034548298 0.006516849
0003e0 d3 bc 3a 3c 51 7b 08 bc ec 7d aa 3b 02 4f cb ba
       0.011397558 -0.008330182 0.0052029993 -0.0015511217
0003f0 03 46 d4 bb 05 68 17 3c 2b af c0 bb c2 5f a2 3c
       -0.0064780726 0.009241109 -0.0058802566 0.019821052

discrete_action_output_shape f4 [1, 2]
000000 00 00 40 40 00 00 40 40
       3.0 3.0

network_body._body_endoder.seq_layers.0.bias f4 [128]
000000 00 00 00 00 00 00 00 00 00 00 00 00 00 00 00 00
       0.0 0.0 0.0 0.0
000010 00 00 00 00 00 00 00 00 00 00 00 00 00 00 00 00
       0.0 0.0 0.0 0.0
000020 00 00 00 00 00 00 00 00 00 00 00 00 00 00 00 00
       0.0 0.0 0.0 0.0
000030 00 00 00 00 00 00 00 00 00 00 00 00 00 00 00 00
       0.0 0.0 0.0 0.0
000040 00 00 00 00 00 00 00 00 00 00 00 00 00 00 00 00
       0.0 0.0 0.0 0.0
000050 00 00 00 00 00 00 00 00 00 00 00 00 00 00 00 00
       0.0 0.0 0.0 0.0
000060 00 00 00 00 00 00 00 00 00 00 00 00 00 00 00 00
       0.0 0.0 0.0 0.0
000070 00 00 00 00 00 00 00 00 00 00 00 00 00 00 00 00
       0.0 0.0 0.0 0.0
000080 00 00 00 00 00 00 00 00 00 00 00 00 00 00 00 00
       0.0 0.0 0.0 0.0
000090 00 00 00 00 00 00 00 00 00 00 00 00 00 00 00 00
       0.0 0.0 0.0 0.0
0000a0 00 00 00 00 00 00 00 00 00 00 00 00 00 00 00 00
       0.0 0.0 0.0 0.0
0000b0 00 00 00 00 00 00 00 00 00 00 00 00 00 00 00 00
       0.0 0.0 0.0 0.0
0000c0 00 00 00 00 00 00 00 00 00 00 00 00 00 00 00 00
       0.0 0.0 0.0 0.0
0000d0 00 00 00 00 00 00 00 00 00 00 00 00 00 00 00 00
       0.0 0.0 0.0 0.0
0000e0 00 00 00 00 00 00 00 00 00 00 00 00 00 00 00 00
       0.0 0.0 0.0 0.0
0000f0 00 00 00 00 00 00 00 00 00 00 00 00 00 00 00 00
       0.0 0.0 0.0 0.0
000100 00 00 00 00 00 00 00 00 00 00 00 00 00 00 00 00
       0.0 0.0 0.0 0.0
000110 00 00 00 00 00 00 00 00 00 00 00 00 00 00 00 00
       0.0 0.0 0.0 0.0
000120 00 00 00 00 00 00 00 00 00 00 00 00 00 00 00 00
       0.0 0.0 0.0 0.0
000130 00 00 00 00 00 00 00 00 00 00 00 00 00 00 00 00
       0.0 0.0 0.0 0.0
000140 00 00 00 00 00 00 00 00 00 00 00 00 00 00 00 00
       0.0 0.0 0.0 0.0
000150 00 00 00 00 00 00 00 00 00 00 00 00 00 00 00 00
       0.0 0.0 0.0 0.0
000160 00 00 00 00 00 00 00 00 00 00 00 00 00 00 00 00
       0.0 0.0 0.0 0.0
000170 00 00 00 00 00 00 00 00 00 00 00 00 00 00 00 00
       0.0 0.0 0.0 0.0
000180 00 00 00 00 00 00 00 00 00 00 00 00 00 00 00 00
       0.0 0.0 0.0 0.0
000190 00 00 00 00 00 00 00 00 00 00 00 00 00 00 00 00
       0.0 0.0 0.0 0.0
0001a0 00 00 00 00 00 00 00 00 00 00 00 00 00 00 00 00
       0.0 0.0 0.0 0.0
0001b0 00 00 00 00 00 00 00 00 00 00 00 00 00 00 00 00
       0.0 0.0 0.0 0.0
0001c0 00 00 00 00 00 00 00 00 00 00 00 00 00 00 00 00
       0.0 0.0 0.0 0.0
0001d0 00 00 00 00 00 00 00 00 00 00 00 00 00 00 00 00
       0.0 0.0 0.0 0.0
0001e0 00 00 00 00 00 00 00 00 00 00 00 00 00 00 00 00
       0.0 0.0 0.0 0.0
0001f0 00 00 00 00 00 00 00 00 00 00 00 00 00 00 00 00
       0.0 0.0 0.0 0.0

network_body._body_endoder.seq_layers.0.weight f4 [128, 276]
000000 ed c2 90 3d 94 43 d5 bc 81 08 4b 3d 7f 6a 85 bd
       0.07068429 -0.0260332 0.049568657 -0.06514453
000010 d5 ae 9d 3c 16 ec fa bc 87 ee 97 3d b7 89 3f bc
       0.019248405 -0.030630153 0.07418542 -0.011690549
000020 2a f9 05 3a 1a ac 75 bc a3 8b 9f 3d 82 bc 05 bd
       0.00051106757 -0.0149946455 0.077903055 -0.03265048
000030 d9 5a 10 bd b2 aa 5e bb 6b 80 6f 3d 95 04 8f bc
       -0.03524289 -0.0033976254 0.05847208 -0.01745824
000040 44 69 17 3c c4 4f 67 bd f6 e3 c4 3d 41 5b b2 bd
       0.009241406 -0.056472555 0.096137926 -0.087088116
000050 03 f3 b8 3b 57 1f 6b bc 85 81 62 bb 57 7b d1 bd
       0.0056442036 -0.014350734 -0.0034562063 -0.10228603
000060 a1 68 41 bd 2e 90 94 bd 2c 7d a3 bd 22 76 4a bb
       -0.047218923 -0.072540626 -0.07982859 -0.0030893167
000070 ae 50 bb bd ef 35 18 3d 9f 98 d6 3d 63 5d e2 3c
       -0.09146248 0.03716081 0.10478329 0.02763242
000080 c6 92 f6 3c a0 0d 8d bd 8b c4 11 bc 94 d9 2c bd
       0.030099284 -0.068873644 -0.008896957 -0.042199686
000090 e2 ab 0f be b0 d1 02 3d e5 b3 79 bd 19 91 b2 bd
       -0.14030412 0.031938255 -0.060962576 -0.087190814
0000a0 09 cc 0d 3c d5 4f 41 3d 70 f4 8a bc e1 c5 28 bd
       0.008654603 0.047195274 -0.01696226 -0.041204337
0000b0 7b d7 63 3b 50 1e 1a 3d 55 13 88 3c b2 8d db 3c
       0.0034765888 0.037626565 0.01661078 0.026800964
0000c0 fb 81 4d 3d 62 f4 16 3c 6c 14 4b 3d fb c6 2c bc
       0.050172787 0.009213539 0.049580023 -0.0105454875
0000d0 d9 8d b0 3d 94 e2 32 bb d7 f6 fe 39 5a 00 ec 3d
       0.08620805 -0.0027295696 0.00048630565 0.115235046
0000e0 74 20 3a 3d e6 41 9b bd 64 94 1e bd db bd a8 3d
       0.045441106 -0.075809285 -0.038715735 0.08239337
0000f0 ab 45 f2 3d ed f0 a4 3d e1 57 5c 3d 0b b3 4d 3d
       0.11829694 0.080537654 0.053794745 0.050219577
000100 6e da 86 3d 42 36 77 3c ec 67 59 3c 41 b2 13 3e
       0.06584631 0.01508862 0.013269406 0.14423467
000110 09 84 b7 bb 65 86 a0 bd b8 88 b7 3d d0 9b 2c bd
       -0.0056004566 -0.07838134 0.08961624 -0.042140782
000120 41 96 94 bc 41 52 48 3d fc a9 3a 3d a2 a2 50 3d
       -0.018138053 0.04890657 0.045572266 0.05093635
000130 ea 7f 2a bd 37 86 66 bd 84 e4 33 3d 82 ad ab bc
       -0.041625895 -0.05628034 0.0439191 -0.020956758
000140 3b f7 57 bd 19 13 b8 3d 7b 3f 8a bd 20 33 aa bd
       -0.05272601 0.089880176 -0.06750389 -0.083105326
000150 b9 68 2a bd 41 83 cf bd 09 8a 36 bd 17 dd 5d 3d
       -0.041603778 -0.101324566 -0.044565234 0.054165926
000160 4e 70 c0 bd 87 85 2e bd 7a b6 7b bd 2f 6e f3 bc
       -0.093964204 -0.04260781 -0.06145332 -0.029715626
000170 4c dc 1a bc 4f 66 41 3d f4 76 0c 3d 5d 21 bc ba
       -0.009451937 0.04721671 0.03429313 -0.0014353205
000180 fc 92 bc 3c af 2c 17 be b5 cf 03 bc 85 dd f4 38
       0.023019306 -0.14763139 -0.008045127 0.00011676088
000190 97 67 63 bc e5 84 f5 bc 4e 93 44 3d 29 d9 29 3d
       -0.013879678 -0.029970596 0.047992043 0.041466866
0001a0 ea 64 9c bd 58 b2 c3 bd 87 b0 7e 3b 1f 5f 9c b9
       -0.07636435 -0.09555501 0.0038862543 -0.0002982551
0001b0 0f 50 f2 3d 51 f0 bd bb af 77 83 bd a3 d2 51 3d
       0.11831676 -0.00579647 -0.06419312 0.05122627
0001c0 aa 7f 06 3e e2 25 04 bd c6 ee 7f bd ed a0 00 3e
       0.13134637 -0.03226269 -0.06248357 0.12561388
0001d0 2e 03 c3 bd b3 c3 0d bc 09 55 3f ba 26 05 ad bd
       -0.09522091 -0.008652615 -0.0007298743 -0.084482476
0001e0 9d b1 d3 bd 29 dd 66 bd 1c 72 51 3d f7 44 18 bd
       -0.103366114 -0.05636326 0.051134214 -0.037175145
0001f0 95 68 fd 3d 60 db ac 3d 7e 32 6e bd 0f 0e a6 bb
       0.12373463 0.0844028 -0.05815362 -0.005067594
000200 1c db e1 3a 8e db 6f bd c0 65 b4 bc 9f c3 fa bc
       0.0017231437 -0.058558993 -0.022021174 -0.030610858
000210 a1 17 08 3d 75 80 ba bd e6 8d 7b bb 50 09 26 be
       0.03322566 -0.091065325 -0.0038384139 -0.1621449
000220 61 d1 9f bd 3b cd 41 3d ec f0 a2 3d 59 43 ac 3d
       -0.07803608 0.047314864 0.079561085 0.08411283
000230 5f 31 e6 bd 67 1c 86 bd 63 a5 c2 bb 0b 4f d1 bd
       -0.112398855 -0.06548386 -0.005940126 -0.102201544
000240 87 3b 82 bd 79 dd 23 3d 05 f6 aa 3c 01 2b 35 3d
       -0.0635901 0.040006135 0.020869264 0.044230465
000250 50 c9 83 bd 26 67 9f 3d 24 9e d8 3d ed f1 66 bc
       -0.06434882 0.07783346 0.10577038 -0.014095766
000260 75 f0 04 bc cc df cb bb 1b ed 93 bc 05 64 43 bd
       -0.00811397 -0.006221747 -0.018057397 -0.047702808
000270 95 cb 83 bc 4e 8f a8 3d bb f6 2a bd b4 f4 ff bc
       -0.016088286 0.08230458 -0.041739207 -0.031244613
000280 11 f2 8a bd 29 42 06 bd 03 7f 37 bc c5 8a c9 bc
       -0.06784452 -0.03277794 -0.011199716 -0.024602303
000290 fb 1e 3c 3b 5a 9e 3f 3d e9 67 e6 3d ef ea 13 3e
       0.002870499 0.046781875 0.11250288 0.14445089
0002a0 f3 00 db 3c bc 2d 12 3d 4b b2 f1 bc a2 d7 5e bd
       0.026733851 0.035688147 -0.029503962 -0.054404862
0002b0 68 79 d4 3c cf a1 b4 bc 6e d4 d6 bc 6c a1 91 bb
       0.025936797 -0.022049813 -0.026224341 -0.004444292
0002c0 80 de 9e 3d ee 48 5f bd 25 4a 9a bd 5f 64 a6 3d
       0.07757282 -0.05451291 -0.07533673 0.08124613
0002d0 ab c5 15 3e b8 10 4f bd f3 df a5 bd 87 88 5d bd
       0.14626186 -0.050553054 -0.080993555 -0.05408528
0002e0 fa 3e cd bc a6 a0 26 bc 81 54 65 bd b2 84 03 bb
       -0.025054444 -0.0101701375 -0.055988792 -0.0020068106
0002f0 58 58 2c 3d 39 e3 82 bd 3b 3f 07 3d ae e7 94 3c
       0.04207644 -0.063909955 0.033019286 0.01817688
000300 3c 70 5a 3c df fd d9 bc d9 d2 ac bc 5b 19 16 3c
       0.013332423 -0.026610313 -0.021096634 0.009161319
000310 d7 2c f6 bc 4e c3 15 bd 89 a8 fc 3d 91 3c b4 3b
       -0.030050678 -0.03656321 0.12336833 0.005500384
000320 6e d9 9a bc e7 bc 05 3c 6b 4a 7e bd 86 40 c7 bd
       -0.018902507 0.008162714 -0.06208269 -0.09729104
000330 02 47 6c 3d df d7 b8 bc 2b 6a 1e bd 50 b3 ee 3d
       0.057684906 -0.022563873 -0.03867547 0.11655295
000340 be 2e 16 3d 1e 70 1e 3b 4a e0 aa 3d a2 97 07 be
       0.03666567 0.0024175714 0.08343561 -0.13241437
000350 98 12 89 3c 6f 00 fe 3c f3 f3 8d 3d b0 2a 11 bd
       0.016732499 0.031006066 0.06931295 -0.0354411
000360 27 e1 0d 3c 02 41 c1 39 0f b8 e7 bd 63 28 c7 bd
       0.0086596375 0.00036860263 -0.11314403 -0.097245
000370 b1 a3 7d bd 30 f7 3d 3d 93 41 41 bd 32 9f 1e 3e
       -0.061923686 0.046378314 -0.047181677 0.15490416
000380 bc 61 88 3d eb 2a 87 bd 2b 80 06 bd 92 45 32 bd
       0.06659266 -0.06599983 -0.032837074 -0.04352338
000390 39 67 59 bd 4f 76 8c bc b8 37 1b 3d 03 74 fe 3c
       -0.053076956 -0.017146258 0.037894934 0.031061178
0003a0 87 42 c2 bd 76 de 82 3d b9 37 46 3d 93 3f 0a 3d
       -0.09485345 0.06390087 0.048392985 0.033752035
0003b0 91 c1 3e 3d ae ca 8e bd 68 ee 05 3d c3 55 8f bd
       0.046571318 -0.06972252 0.032698065 -0.069987796
0003c0 a7 02 b8 bc f2 a1 85 bd a0 fb 41 3d b5 d5 a8 3a
       -0.022462202 -0.06525029 0.04735911 0.0012881072
0003d0 d6 33 78 bd 35 3b ee bc 4e 1f 53 bc 3e 7f b7 bd
       -0.06059631 -0.029080966 -0.012885882 -0.089598164
0003e0 6b 97 cf 3d f2 ef 5e bd aa ee 58 bd 6d 9d 3f 3d
       0.101363026 -0.05442805 -0.052961983 0.046780992
0003f0 96 0c 06 bc 68 20 2a 3c 5c 1e f2 bd 8d f9 1e 3c
       -0.008181712 0.010383703 -0.11822197 0.009703052

network_body._body_endoder.seq_layers.2.bias f4 [128]
000000 00 00 00 00 00 00 00 00 00 00 00 00 00 00 00 00
       0.0 0.0 0.0 0.0
000010 00 00 00 00 00 00 00 00 00 00 00 00 00 00 00 00
       0.0 0.0 0.0 0.0
000020 00 00 00 00 00 00 00 00 00 00 00 00 00 00 00 00
       0.0 0.0 0.0 0.0
000030 00 00 00 00 00 00 00 00 00 00 00 00 00 00 00 00
       0.0 0.0 0.0 0.0
000040 00 00 00 00 00 00 00 00 00 00 00 00 00 00 00 00
       0.0 0.0 0.0 0.0
000050 00 00 00 00 00 00 00 00 00 00 00 00 00 00 00 00
       0.0 0.0 0.0 0.0
000060 00 00 00 00 00 00 00 00 00 00 00 00 00 00 00 00
       0.0 0.0 0.0 0.0
000070 00 00 00 00 00 00 00 00 00 00 00 00 00 00 00 00
       0.0 0.0 0.0 0.0
000080 00 00 00 00 00 00 00 00 00 00 00 00 00 00 00 00
       0.0 0.0 0.0 0.0
000090 00 00 00 00 00 00 00 00 00 00 00 00 00 00 00 00
       0.0 0.0 0.0 0.0
0000a0 00 00 00 00 00 00 00 00 00 00 00 00 00 00 00 00
       0.0 0.0 0.0 0.0
0000b0 00 00 00 00 00 00 00 00 00 00 00 00 00 00 00 00
       0.0 0.0 0.0 0.0
0000c0 00 00 00 00 00 00 00 00 00 00 00 00 00 00 00 00
       0.0 0.0 0.0 0.0
0000d0 00 00 00 00 00 00 00 00 00 00 00 00 00 00 00 00
       0.0 0.0 0.0 0.0
0000e0 00 00 00 00 00 00 00 00 00 00 00 00 00 00 00 00
       0.0 0.0 0.0 0.0
0000f0 00 00 00 00 00 00 00 00 00 00 00 00 00 00 00 00
       0.0 0.0 0.0 0.0
000100 00 00 00 00 00 00 00 00 00 00 00 00 00 00 00 00
       0.0 0.0 0.0 0.0
000110 00 00 00 00 00 00 00 00 00 00 00 00 00 00 00 00
       0.0 0.0 0.0 0.0
000120 00 00 00 00 00 00 00 00 00 00 00 00 00 00 00 00
       0.0 0.0 0.0 0.0
000130 00 00 00 00 00 00 00 00 00 00 00 00 00 00 00 00
       0.0 0.0 0.0 0.0
000140 00 00 00 00 00 00 00 00 00 00 00 00 00 00 00 00
       0.0 0.0 0.0 0.0
000150 00 00 00 00 00 00 00 00 00 00 00 00 00 00 00 00
       0.0 0.0 0.0 0.0
000160 00 00 00 00 00 00 00 00 00 00 00 00 00 00 00 00
       0.0 0.0 0.0 0.0
000170 00 00 00 00 00 00 00 00 00 00 00 00 00 00 00 00
       0.0 0.0 0.0 0.0
000180 00 00 00 00 00 00 00 00 00 00 00 00 00 00 00 00
       0.0 0.0 0.0 0.0
000190 00 00 00 00 00 00 00 00 00 00 00 00 00 00 00 00
       0.0 0.0 0.0 0.0
0001a0 00 00 00 00 00 00 00 00 00 00 00 00 00 00 00 00
       0.0 0.0 0.0 0.0
0001b0 00 00 00 00 00 00 00 00 00 00 00 00 00 00 00 00
       0.0 0.0 0.0 0.0
0001c0 00 00 00 00 00 00 00 00 00 00 00 00 00 00 00 00
       0.0 0.0 0.0 0.0
0001d0 00 00 00 00 00 00 00 00 00 00 00 00 00 00 00 00
       0.0 0.0 0.0 0.0
0001e0 00 00 00 00 00 00 00 00 00 00 00 00 00 00 00 00
       0.0 0.0 0.0 0.0
0001f0 00 00 00 00 00 00 00 00 00 00 00 00 00 00 00 00
       0.0 0.0 0.0 0.0

network_body._body_endoder.seq_layers.2.weight f4 [128, 128]
000000 e2 70 ba 3c 06 48 0a bd 91 f5 69 3d f3 ca 70 bd
       0.022758905 -0.033760093 0.057118956 -0.058787297
000010 7b f6 24 be a9 b8 cf bd 72 eb e3 bc 94 29 c4 bd
       -0.1610965 -0.10142643 -0.02782223 -0.09578243
000020 5e 04 71 3d 57 0d b7 bd e7 e2 d6 bd f5 67 38 3c
       0.058842055 -0.08938091 -0.10492497 0.011255254
000030 e8 8a 17 3d d1 e8 85 bd ae 11 6e 3e f1 30 c3 bd
       0.036997706 -0.06538547 0.23248932 -0.09530819
000040 ad 08 1e 3e c7 2b 0a bd 1a a6 03 3e 92 9d 00 bd
       0.15432997 -0.033733156 0.12856331 -0.03140027
000050 67 cf 87 bd b6 41 c4 bd 7b a7 ea bd eb 19 2c 3e
       -0.06631356 -0.09582846 -0.114577256 0.16806762
000060 80 79 b5 3b bb d3 80 bd 17 52 4b 3b 08 9b 2a 3c
       0.0055381656 -0.062903844 0.003102427 0.010412939
000070 c3 8c c4 3d 64 39 99 bc 55 8a b4 bc 7f 81 76 3b
       0.09597161 -0.018704124 -0.022038618 0.0037613807
000080 fc a7 9e 3b 59 f3 18 3e e5 e9 92 3d 2e 06 48 bd
       0.0048418026 0.1493658 0.07173518 -0.04883402
000090 ed 12 b6 3d fa c1 cf bd f6 a6 05 be 4e 9b 53 bd
       0.088903286 -0.1014442 -0.13051972 -0.051661782
0000a0 63 8b 8c bd c4 83 9e 3d aa 94 5a bd c0 38 6f 3d
       -0.068625234 0.07739976 -0.053364433 0.05840373
0000b0 30 4c 90 bd 34 fb a8 3b 3e a0 ac bb a6 ee ce bc
       -0.070457816 0.005156899 -0.005268126 -0.02526028
0000c0 da 0e 44 bd a3 c0 6d bd f5 38 22 3d e4 a9 68 bc
       -0.047865726 -0.05804504 0.0396051 -0.014200661
0000d0 a9 6a c0 3d 16 45 ed bb 43 00 93 3d 04 e6 81 bd
       0.09395344 -0.0072409017 0.07177784 -0.063427
0000e0 a3 db 5b bd 66 d9 21 bd a3 25 c5 bd 79 d9 c9 3d
       -0.05367626 -0.039513968 -0.09626319 0.09855933
0000f0 55 7e a9 3b ed e2 ab bd a8 4f b8 bd 30 56 7f 3c
       0.0051725307 -0.08392892 -0.08999568 0.015584514
000100 97 e7 65 3d 3c 90 09 3e f9 39 dd 3d 91 5f b3 bc
       0.056129064 0.13433927 0.10802073 -0.021896156
000110 26 ac 4a bd 1f ac a6 ba e9 17 91 be ff 26 46 3c
       -0.04948058 -0.0012716091 -0.28338555 0.012094258
000120 c9 5f bb 3c a2 c1 02 bd be 75 8f bd b1 27 ca 3d
       0.022872822 -0.031922944 -0.070048794 0.09870852
000130 a5 b3 f1 bd 41 5c 99 3b 7f 60 b5 3d c7 44 a6 bd
       -0.118018426 0.004680187 0.08856296 -0.08118587
000140 03 82 07 3d 5b 71 7e bd 84 f3 18 be 0d 50 de 3b
       0.033082973 -0.062119823 -0.14936644 0.006784445
000150 e0 76 a8 bd b1 e6 86 3b 10 48 0e 3d c0 fd 80 bd
       -0.082257986 0.004116856 0.034736693 -0.06298399
000160 94 64 a3 3c d3 ae 53 bc 73 cf 0b be d1 75 52 3d
       0.01994542 -0.012920099 -0.13653354 0.05138189
000170 74 93 ca bb b1 08 51 3d 5c af 83 3d bb b4 b6 bd
       -0.0061821286 0.05103368 0.064299315 -0.0892119
000180 fc da 5a bd a7 29 27 3e 3c f2 1f bd 26 32 4c 3c
       -0.053431496 0.16324483 -0.039049372 0.012463128
000190 1b 50 b5 3c e5 f7 89 3d fa 80 7c bc a4 23 33 3e
       0.022132924 0.06736735 -0.01541161 0.17494065
0001a0 09 2f 89 bd 7d f3 33 be 5d 69 85 bd 5e bb 70 bd
       -0.06698424 -0.17573352 -0.06514237 -0.058772437
0001b0 da 9d e5 bd 08 a6 6b bd 6e fe db bc 46 af 8b 3d
       -0.112117484 -0.057531387 -0.02685472 0.0682054
0001c0 e4 2d 9e 3d 6b 10 d9 3a c8 4a 27 bd 7e 07 fb bc
       0.07723597 0.0016560679 -0.0408428 -0.030643221
0001d0 69 ba 01 be 95 12 f4 3d f3 7b e5 bb 48 26 97 bc
       -0.12668766 0.11917607 -0.0070033013 -0.018450871
0001e0 b2 e0 75 3d 3a b2 43 3e 5e 10 7f bd 80 a2 2f bc
       0.06002874 0.19110957 -0.06227147 -0.010719895
0001f0 ec b9 b3 3d 39 71 97 bd de 2a f3 bd ab 06 f7 bc
       0.08775696 -0.073946424 -0.11873411 -0.030154547
000200 e6 b1 63 bb e9 4f aa 3d 92 d0 6b bd da 6a 8f bc
       -0.0034743487 0.08316023 -0.057571955 -0.017507005
000210 f6 11 05 bd a6 30 3e bc a4 1c 32 3b 20 d1 6e bd
       -0.032487832 -0.011608278 0.0027177716 -0.058304906
000220 aa 27 5a 3e ec 6b ca bb 03 60 76 3d a4 db be bd
       0.21304193 -0.006177416 0.060150158 -0.09319237
000230 51 00 c3 bd 83 fc 44 be 48 11 d7 bc d0 e0 e4 3d
       -0.09521545 -0.1923695 -0.026253358 0.11175692
000240 b2 2f 82 bd 47 56 cc 3d 61 b3 4b be 83 86 f3 bb
       -0.063567534 0.099773936 -0.19892646 -0.0074318065
000250 6d 05 2b 3e 26 75 15 bd ff f9 31 bd cd 03 b3 bd
       0.16701289 -0.036488675 -0.043451305 -0.08740959
000260 14 69 de bd f2 50 bf 3d 95 fb 2a bd 8f 4b af bd
       -0.10859886 0.09341611 -0.041743834 -0.085593335
000270 68 72 d4 3c 9b cf 8b bd 0c 44 39 be bb b0 01 3e
       0.02593346 -0.06826707 -0.18092364 0.12665074
000280 5b b7 86 bd fc ec b5 bd 6d d8 92 bd 15 43 3b 3d
       -0.06577941 -0.08883092 -0.07170186 0.04571827
000290 46 10 38 bd d5 8d e0 bc 1d a3 15 3e c9 78 27 be
       -0.044937395 -0.02741138 0.14613004 -0.1635467
0002a0 f5 82 74 3d 03 d5 a4 3b cf 9a 08 bd e1 f5 36 3e
       0.059695203 0.005030276 -0.033350762 0.17867233
0002b0 48 0e e8 bd 53 ef 8c be 3b b3 dd 3c 33 49 ae 3c
       -0.11330849 -0.2752634 0.027063003 0.021275138
0002c0 6c 48 7f bd 5a f5 12 3e 80 6a 5c 3c ea ae e0 bc
       -0.062324926 0.14351407 0.013453126 -0.027427156
0002d0 f2 f6 b8 3d a8 d3 34 3d 27 ed 9c 3d d4 97 35 bd
       0.09031476 0.044147164 0.07662421 -0.044334248
0002e0 b6 d5 4a 3d 5d 88 79 3d ae 91 ae bd 07 25 fd bd
       0.049520217 0.06092106 -0.0852388 -0.12360578
0002f0 5c cc 13 3e e3 c3 67 3c b5 e6 a6 3d d1 13 b4 3d
       0.14433426 0.014145824 0.081494726 0.08792842
000300 8d 08 05 3d 00 ea a9 bc f7 62 3e be c3 64 84 3d
       0.032478858 -0.020741463 -0.1859244 0.06464531
000310 ef b9 51 bc 0a 89 04 3e b7 ee 28 3c 47 37 e4 3c
       -0.012800678 0.12942901 0.01031082 0.02785839
000320 eb ae 58 3d 9f 7a 26 bd c6 07 10 bd 24 41 0a bd
       0.05290119 -0.040644284 -0.035163663 -0.03375353
000330 0a 94 d0 bd 01 14 cf bd 6d 38 8b 3c 5d 70 85 3b
       -0.10184486 -0.10111237 0.01699468 0.0040722326
000340 76 9f d8 3c e7 a8 56 bd 83 13 1a bd ca 96 4b bd
       0.026443224 -0.05240717 -0.037616264 -0.04970435
000350 2a 67 8c 3d 39 fe 29 3e 21 7c 14 3d fe 63 06 3d
       0.068556145 0.16600884 0.03625119 0.032810204
000360 67 ec 2a bd 59 38 e3 bc 17 5d 70 3d 3d d3 37 bd
       -0.041729357 -0.02773683 0.058682527 -0.044879187
000370 af 83 83 bd aa e3 13 3e 43 f2 53 3d ea 43 dd bd
       -0.06421601 0.14442316 0.05174471 -0.10803969
000380 26 d4 12 3d 37 18 2d 3d f8 39 80 3d a6 e2 0e be
       0.03584685 0.04225942 0.06261057 -0.13953647
000390 ee c0 19 be 70 d0 bb 3c 55 10 a0 3d 1b 23 ac bc
       -0.15015003 0.02292654 0.07815615 -0.021012833
0003a0 b2 52 65 3c b4 57 35 3e 71 b9 3d 3e bd ce 14 3e
       0.013996767 0.17709237 0.18527772 0.1453199
0003b0 27 d5 6e bd d0 96 ed bd f1 3a 6b be 53 ef d1 3d
       -0.058308747 -0.11601031 -0.22971703 0.102507256
0003c0 81 dd c2 3b a6 01 4f bd 7d 72 51 3e aa c8 0b 3e
       0.0059468155 -0.05053868 0.2045383 0.13650766
0003d0 bb c6 0c be 02 0e 4b 3d 9f a3 66 3d ca c8 ac b8
       -0.13747685 0.049573906 0.056308385 -8.238999e-05
0003e0 7d 9f 04 3b 73 56 50 bc a3 eb dd bd d3 49 d5 bd
       0.0020236664 -0.012715924 -0.1083596 -0.104144715
0003f0 9c ef a6 bd 89 17 89 3d 25 6a 94 bd 72 58 7f bd
       -0.081511706 0.06693942 -0.07246808 -0.062340207
