Results/test14/SnowBall/SnowBall-2304.pt (torch, 287319 bytes, 14 tensors)

discrete_act_size_vector f4 [1, 2]
00000000: 0000 4040 0000 4040
3.0 3.0

network_body._body_endoder.seq_layers.0.weight f4 [128, 138]
00000000: 3441 ab3d 9c1a 633d 4caa 503d 074f 883b
00000010: 98c3 f6bd d7fa c93c 2f62 9b3d e023 a5bd
00000020: c6ce b0bd 6bc2 67be 9ab5 a4ba bc9e 7dbd
00000030: 2b4e 213e c337 afbd 9e91 d8bc 88ca 10bd
00000040: 73ea 0ebc 3b77 1d3d aef9 883d feed b23c
00000050: 3300 46bd e772 cbbd 16c2 733d 175b 89bd
00000060: f461 b93c 7927 95ba a72a 31be 9788 f83c
00000070: d6d4 383d 68b4 f23c 67ee f7bd 3fd8 33bd
00000080: fb85 92bc 0a1c 54b9 85bf 823d c1b3 96bd
00000090: a47a 843d 690d b33c 065e c6bd 4203 b1bc
000000a0: cafa 4f3d 3298 f7bd a12b 91bd 909a 8ebe
000000b0: b1c5 87bd 6ed3 13bd 106e c7bd e440 f0bb
000000c0: 5017 f43d aa7d cc3a 55af 39bd 9397 3b3b
000000d0: c68f 31bd c3f6 393e 388e 1abd 8577 6b3d
000000e0: 790c 0a3e d5e9 35bb ee40 f03d 5c22 04bd
000000f0: e178 543c e678 733c ed2b 9a3c 837a 06bd
00000100: 4b8d 1e3e e7a7 f23c 70e4 adbc 490f 373d
00000110: 3d88 d2bd c179 91bc 2e0f 013e da65 17be
00000120: 2363 1b3d fc57 8cbe 7f66 723d f141 f6bc
00000130: d6de e7bd fcfc 483e a8a2 07be 13d9 f6bd
00000140: 0e4f 5bbc a80c dbbc 8e41 b5bd f626 0dbd
00000150: e854 eaba bb42 063e 4ded 98bc b913 d33d
00000160: c294 debd 6f64 08bb 72d5 f53d da65 083e
00000170: 9d90 5e3d 2e55 1a3e 8ddf bfbd ab71 29bd
00000180: 3e67 53bd 2e5d 16be fa12 92bd 251a c8bc
00000190: cb14 02bd e389 933d 9bc0 b13d 365d a8bb
000001a0: 0d3e e7bc 54aa c33d d8f5 a3bc 6d6f 99bd
000001b0: dc61 a4bb 1c87 bbbd d5dc 0f3d 6d52 7bbe
000001c0: 7572 293d 1228 bebc 521f 193c 7c29 6bbc
000001d0: 6580 ce3d 305f 67bd d232 4b3d 922d 5abc
000001e0: f07e d3bd 9efc d3bd 47e0 a43b 07cf a33c
000001f0: c21c 02be 9383 b03c 7122 e23b e307 2cbd
00000200: 610b 443d ccd5 01bd 9e3c bcbd f863 ccbb
00000210: 4be1 6a3c fa1b 1a3d 0020 823d 3f3f cb3d
00000220: aaa0 08bb 0b1d 16be e98b ddbc d599 00bd
00000230: 97ca c53d 0aea 04bd 4665 1dbe b484 69bd
00000240: a9cf 073e 0382 753a f227 04bd 3300 39be
00000250: dbc4 0ebc 59bf 8b3d 3afe 973c b9b8 8a3d
00000260: 5584 32be 4538 52bc 574c 083d 3bfd 2f3d
00000270: b43a 32be d1d5 47bd 2e40 493d 1473 cdbc
00000280: e133 acbd d7ae eb3d 1289 783d a186 333d
00000290: 7954 9e3d 56b4 0ebd e45c 09bc f5bb babd
000002a0: e9ea bd3a a555 65bc 4a61 453d 55a4 ac3c
000002b0: 8954 edbc a7c1 503b df50 01bd 50e7 5d3d
000002c0: 1a01 dbbd d260 8b3e 30d1 7d3c 94e9 d8bd
000002d0: 3c00 393d d2f6 6a3e b3b8 26be fdea 493e
000002e0: 8cba 543d 6142 5c3d 05e8 2b3d 3263 bcbb
000002f0: 259a e0bc 62dd 6dbc 0aa4 4d3d 924d 853d
00000300: a196 b8bd 2668 b9bc 4f26 febb 3103 213d
00000310: 66ef 9abd 3ec0 cf3c 391e 9abc dfdc 063e
00000320: ed3b b53d 0b90 03be fc8e 05bd 52a5 19be
00000330: bd46 a4bc cdb6 d9bc 6567 d6bd eb75 09be
00000340: 76bd 383d b80e 2bbb 58c4 0a3d 51f7 6fbd
00000350: f9ef 0d3d 6f3b 21bd 4a67 97bc b226 92bd
00000360: 4e5e 3bbc a3a5 23bd 53c5 c43d e487 1ebd
00000370: f489 003d c044 38bc 5d93 09be fe26 cbbd
00000380: 4a03 833d 7f9c 43bc 81e7 e1bd 374b 803d
00000390: eb7b d13c 185c 46be 309b 0c3e 185f 1d3e
000003a0: 86ee e73d 4101 18bd a726 953d 5710 7fbc
000003b0: 04ac e13c 6a0e ce3d 2871 9fbd 70ee a4bd
000003c0: 12e1 aabd 2c89 593e 50b8 3ebe 7c70 c5bd
000003d0: c00c 1d3d 9920 293e e4d0 1e3e c3a0 e63c
000003e0: 5d9c a53c 3b8b 01bd b501 983d 68a9 c1bc
000003f0: d16e eab9 f1d9 6abd 0f5b f23c 1d0d e0bc
0.08362046 0.0554453 0.050943658 0.0041598114 -0.12049025 0.024655743 0.075870864 -0.08063483
-0.08633189 -0.22632758 -0.0012566329 -0.06191896 0.15752475 -0.085555576 -0.026436623 -0.0353494
-0.008722889 0.038443785 0.066882476 0.021842 -0.048340034 -0.09934025 0.059511267 -0.06706827
0.022629716 -0.0011379562 -0.17301427 0.030338569 0.04512485 0.02962704 -0.121060185 -0.0439074
-0.017886152 -0.00020228341 0.06384186 -0.07358504 0.06468704 0.02185698 -0.09685902 -0.021607999
0.05077628 -0.12089576 -0.070884 -0.27852297 -0.066295035 -0.036090307 -0.0973779 -0.0073319543
0.11918509 0.0015601416 -0.045333225 0.002862428 -0.043350004 0.18160538 -0.037733287 0.05748703
0.1348132 -0.0027757783 0.11731134 -0.03225933 0.012968273 0.014860367 0.018819774 -0.03283168
0.15483586 0.029621078 -0.021227092 0.04469231 -0.10279892 -0.017758252 0.12603447 -0.14784947
0.03793634 -0.27410877 0.05917978 -0.03006074 -0.113217995 0.19627756 -0.13245642 -0.12053122
-0.013385547 -0.026739433 -0.08850394 -0.034460984 -0.0017878087 0.13111393 -0.018667841 0.10306496
-0.10868217 -0.0020811816 0.12003602 0.13320103 0.054337133 0.15071556 -0.09368811 -0.041368168
-0.05161213 -0.14683983 -0.07132526 -0.02442653 -0.03175811 0.07204034 0.08679315 -0.0051380647
-0.02822783 0.09553972 -0.020014688 -0.07491956 -0.0050165486 -0.091566294 0.03512271 -0.24543162
0.04136892 -0.023212466 0.009345846 -0.014353152 0.10083083 -0.056487262 0.049609013 -0.013316529
-0.10326946 -0.10350917 0.0050316188 0.01999618 -0.12706283 0.021547114 0.0069010784 -0.04199971
0.047862414 -0.031698033 -0.09191249 -0.006237503 0.014335941 0.037624337 0.0635376 0.099241726
-0.0020847716 -0.14659517 -0.027044253 -0.031396706 0.096577816 -0.03244976 -0.15370664 -0.05701132
0.1326281 0.00093653816 -0.032264657 -0.18066482 -0.008713926 0.06823606 0.018553842 0.06773514
-0.17433293 -0.0128307985 0.03327593 0.04296611 -0.17405206 -0.048787896 0.049133472 -0.025079288
-0.084083326 0.115079574 0.060677595 0.043829564 0.07730956 -0.03483995 -0.008383963 -0.09117881
0.0014489564 -0.01399747 0.048188485 0.021074453 -0.028970974 0.0031853707 -0.031571265 0.054175675
-0.106935695 0.27222306 0.015491769 -0.105914265 0.04516624 0.22945717 -0.16281395 0.19718547
0.051935717 0.05377424 0.041969318 -0.0057491297 -0.027417252 -0.014518114 0.050205268 0.06508936
-0.09013105 -0.02263267 -0.0077560316 0.039309684 -0.07565193 0.025360223 -0.01881324 0.13170193
0.088493206 -0.12847917 -0.032607064 -0.15004471 -0.020053262 -0.026576424 -0.1046894 -0.13423888
0.04510256 -0.0026101302 0.033878654 -0.05858547 0.034652684 -0.03936332 -0.01848187 -0.07136287
-0.011436058 -0.039952885 0.09607949 -0.038703814 0.031381562 -0.01124686 -0.13435121 -0.099195465
0.06397112 -0.011939167 -0.11030484 0.06264346 0.025571784 -0.19371068 0.13731074 0.15368307
0.113247916 -0.03711057 0.07282763 -0.015567861 0.027547844 0.10061343 -0.07785255 -0.08053291
-0.0834371 0.21243733 -0.18624997 -0.09640595 0.038342237 0.16516341 0.15509373 0.028152829
0.020216161 -0.03162692 0.074222006 -0.02364035 -0.00044714523 -0.05733675 0.029584436 -0.027350003

network_body._body_endoder.seq_layers.0.bias f4 [128]
00000000: 0000 0000 0000 0000 0000 0000 0000 0000
00000010: 0000 0000 0000 0000 0000 0000 0000 0000
00000020: 0000 0000 0000 0000 0000 0000 0000 0000
00000030: 0000 0000 0000 0000 0000 0000 0000 0000
00000040: 0000 0000 0000 0000 0000 0000 0000 0000
00000050: 0000 0000 0000 0000 0000 0000 0000 0000
00000060: 0000 0000 0000 0000 0000 0000 0000 0000
00000070: 0000 0000 0000 0000 0000 0000 0000 0000
00000080: 0000 0000 0000 0000 0000 0000 0000 0000
00000090: 0000 0000 0000 0000 0000 0000 0000 0000
000000a0: 0000 0000 0000 0000 0000 0000 0000 0000
000000b0: 0000 0000 0000 0000 0000 0000 0000 0000
000000c0: 0000 0000 0000 0000 0000 0000 0000 0000
000000d0: 0000 0000 0000 0000 0000 0000 0000 0000
000000e0: 0000 0000 0000 0000 0000 0000 0000 0000
000000f0: 0000 0000 0000 0000 0000 0000 0000 0000
00000100: 0000 0000 0000 0000 0000 0000 0000 0000
00000110: 0000 0000 0000 0000 0000 0000 0000 0000
00000120: 0000 0000 0000 0000 0000 0000 0000 0000
00000130: 0000 0000 0000 0000 0000 0000 0000 0000
00000140: 0000 0000 0000 0000 0000 0000 0000 0000
00000150: 0000 0000 0000 0000 0000 0000 0000 0000
00000160: 0000 0000 0000 0000 0000 0000 0000 0000
00000170: 0000 0000 0000 0000 0000 0000 0000 0000
00000180: 0000 0000 0000 0000 0000 0000 0000 0000
00000190: 0000 0000 0000 0000 0000 0000 0000 0000
000001a0: 0000 0000 0000 0000 0000 0000 0000 0000
000001b0: 0000 0000 0000 0000 0000 0000 0000 0000
000001c0: 0000 0000 0000 0000 0000 0000 0000 0000
000001d0: 0000 0000 0000 0000 0000 0000 0000 0000
000001e0: 0000 0000 0000 0000 0000 0000 0000 0000
000001f0: 0000 0000 0000 0000 0000 0000 0000 0000
0.0 0.0 0.0 0.0 0.0 0.0 0.0 0.0
0.0 0.0 0.0 0.0 0.0 0.0 0.0 0.0
0.0 0.0 0.0 0.0 0.0 0.0 0.0 0.0
0.0 0.0 0.0 0.0 0.0 0.0 0.0 0.0
0.0 0.0 0.0 0.0 0.0 0.0 0.0 0.0
0.0 0.0 0.0 0.0 0.0 0.0 0.0 0.0
0.0 0.0 0.0 0.0 0.0 0.0 0.0 0.0
0.0 0.0 0.0 0.0 0.0 0.0 0.0 0.0
0.0 0.0 0.0 0.0 0.0 0.0 0.0 0.0
0.0 0.0 0.0 0.0 0.0 0.0 0.0 0.0
0.0 0.0 0.0 0.0 0.0 0.0 0.0 0.0
0.0 0.0 0.0 0.0 0.0 0.0 0.0 0.0
0.0 0.0 0.0 0.0 0.0 0.0 0.0 0.0
0.0 0.0 0.0 0.0 0.0 0.0 0.0 0.0
0.0 0.0 0.0 0.0 0.0 0.0 0.0 0.0
0.0 0.0 0.0 0.0 0.0 0.0 0.0 0.0

network_body._body_endoder.seq_layers.2.weight f4 [128, 128]
00000000: ad04 353d ce3d a3bc 0380 d83c 643e b7bc
00000010: 4fdd cbbd 9005 123d 12ed 813d 894e ff3c
00000020: fb72 483d 19ff 093e 388e 873d 0841 d83c
00000030: ff82 04be ea80 cf3d 7c83 36bd 193f c23d
00000040: c898 1abb 3d31 d3bd b291 1f3d 635e 8c3d
00000050: 4d58 893d fb8e adbd 786a 22bd 2b61 85bd
00000060: 2012 6fbd c7c0 d33d 9736 ef3c ef37 1ebc
00000070: 2572 e63d 64f2 2ebd 3409 f83c 2904 c9bc
00000080: 665f 14be 160f 36be 4f51 59bc 81a9 ab3c
00000090: 5d6d f7bd ebc2 0bbe 87e0 73bd a3e1 043c
000000a0: 317e 733c 3177 3dbc 80e8 c73d 9427 07bc
000000b0: 2cd3 a53c 9131 bb3d 13cf d13c 556f e4bd
000000c0: 36d8 d3bd be04 313e 8e06 983b 2b55 de3c
000000d0: e317 14be 9f84 cdbd 873b f0bb cddc 05be
000000e0: ddec a1bc 72c9 28be 2218 7e3d 5455 8c3d
000000f0: 8700 b53d c813 f23b 1747 a73d 6148 dfbc
00000100: bf46 043e 1ae2 343d fd76 4a3e 5478 22bc
00000110: da69 4abc 7d92 8cbd 80bc c03d 3eee 07be
00000120: 9637 8c3d 86c9 acbd d785 813c 77f8 6e3c
00000130: c221 44bd 77af 6bbe d129 713d 235a ba3d
00000140: 8e31 9fbd 59a0 b3bd 6a26 5abd 5197 d2bd
00000150: 102e c13c 62ab b6bd 1019 dbbc a767 e83d
00000160: bbb4 cb3d 1944 313d 4992 31be 4279 603d
00000170: b405 033c 7f43 f3bd 21d2 ea3d 10bd f9bd
00000180: 6b7f 8bbd 27d0 02be b6cc 6cbd b18d bb3d
00000190: 3c8c 80bd 44e6 313e 6b67 73bd 65be 983b
000001a0: 640d 21be 9127 8ebc 938d 223d b6ac 2a3b
000001b0: e166 1e3e 3bbf 9a3d d09e 94bc 816a 2f3e
000001c0: 9d03 f6bd 395f a9bd 75fb f0bd 8af5 323c
000001d0: 7113 b0bd cb2e 5b3d a72d 393c f152 89bd
000001e0: e4d6 b43d 2d92 083e 31e0 cdbc cc05 4ebe
000001f0: f228 353e cb62 98bd 60eb 953d 16ae 4cbc
00000200: 0063 1a3d c112 48ba bbc8 1abe 902e 73bd
00000210: eb7b fcbd d69d 24be 7540 a93d 054b 723c
00000220: 23d0 1cbd 1ee0 1dbe 67f7 9e3d af7d f63b
00000230: 50ca d6bd 213f 18bd af20 af3d b46c ea3d
00000240: 0432 1a3e 49bb 083e 0b39 1dbc 861b 4abe
00000250: 53ec 33be 9035 a4bc 0b3d 05be 8e2e 293d
00000260: 4447 223d 473f f6bd 783a 9e3d af57 bebd
00000270: cd65 393c 873b 89bd 7523 13bd 849c e63c
00000280: 976c 1a3c 2988 023e a7ac f8bd c0af f6bc
00000290: a35f d43d 27bf d4bd 07d3 2abe ccf8 f83c
000002a0: a5d3 a43d b4dc 983d e18c b9bd 291e 953d
000002b0: 2389 b93b f159 8c3b 4142 233c ffd5 6dbd
000002c0: 1f6d 30bd 55c4 91bd e060 55bd 0888 7dbd
000002d0: 2c41 bcbc 7514 a33d de32 31be 17e9 1dbd
000002e0: 855f 1ebe e2f6 1abe 3b2c b53d 7a58 213e
000002f0: 9785 e9bc 3a92 123d 3594 14be 2abe b03b
00000300: 930a e33c 3970 f03d ba75 1b3d 74cb eebd
00000310: 638e 213c bf91 2cbe 4579 66bc cabc 27be
00000320: 0f5d a83c ccb5 f4bd 7e04 20bd 5396 80bd
00000330: 54df 493d 14a1 c0bc eebf b0bd 9f90 4f3d
00000340: 36aa 10be fe6c adbb 4439 c0bd 001b 85bc
00000350: 9a6c 44be 4cef 1abe b2af febc a652 27bd
00000360: aacb 5dbc b62b 70be 37e3 833d 209c c23b
00000370: aab8 43bd d664 ea3d 2e46 8f3e 5fd3 b33b
00000380: 1e5a a13d d03e 23bd f34c c13c 2646 b63d
00000390: 6a74 b23c bac7 29bd 5cdb 23bd 73b9 9ebd
000003a0: 1249 833d 5f81 113c def3 d7bc d726 843e
000003b0: 18ca 4d3e 3a66 8e3d 63ef 9a3d 2684 e63c
000003c0: 7d9e 143e c7c1 54bd 1077 ee3d bb7d fa3d
000003d0: 2325 123c 51b1 0dbd 9ca1 5b3e d97c 61bd
000003e0: 9884 3bbd c78a b1bd 87f7 2b3c bcda 733e
000003f0: bd3f 99bd fa0c 0b3e 2999 3dbe 46aa d53b
0.044193912 -0.019926932 0.026428228 -0.022368617 -0.09954321 0.035649836 0.06344046 0.031165378
0.04893778 0.13476218 0.06618923 0.026398197 -0.12940596 0.1013201 -0.044558987 0.09484691
-0.00235896 -0.10312126 0.038957305 0.0685394 0.06706295 -0.08474537 -0.039652318 -0.06512674
-0.058366895 0.10339504 0.029200835 -0.00965689 0.1125224 -0.04271163 0.030277826 -0.024538117
-0.14489517 -0.17779192 -0.013264014 0.02095485 -0.12081406 -0.13648574 -0.059540298 0.008110437
0.014861629 -0.011564062 0.09761143 -0.008249182 0.020242296 0.091403134 0.025611436 -0.111540474
-0.10343973 0.17286965 0.0046394533 0.02714022 -0.14462237 -0.10035061 -0.007331315 -0.1307251
-0.019766266 -0.16483095 0.062034734 0.068522125 0.08837991 0.007387612 0.08167856 -0.027256193
0.12917612 0.04416094 0.19771953 -0.009916384 -0.012354339 -0.06863878 0.094109535 -0.13274476
0.0684654 -0.08436875 0.01581089 0.014585606 -0.047883756 -0.23016153 0.05887777 0.090992235
-0.07773124 -0.08770818 -0.05325929 -0.102827676 0.023581535 -0.089194074 -0.02674535 0.11347895
0.09946581 0.043277834 -0.1734096 0.05480314 0.007996965 -0.11878108 0.1146586 -0.12194264
-0.068114124 -0.12774716 -0.057812415 0.09157885 -0.062767476 0.17372996 -0.0594248 0.0046613687
-0.15727764 -0.017352851 0.039685797 0.0026042885 0.15468933 0.075560056 -0.018142134 0.17130472
-0.12012408 -0.082701154 -0.117667116 0.010922799 -0.08597458 0.053511422 0.011302388 -0.06705273
0.0883005 0.13337012 -0.025131317 -0.20119399 0.176914 -0.07440718 0.07320285 -0.012492677
0.03769207 -0.0007632189 -0.15115635 -0.059370577 -0.12328323 -0.16075835 0.08264247 0.014788394
-0.038284432 -0.15417525 0.07762032 0.007522307 -0.10487807 -0.03716958 0.08551156 0.11446515
0.15058142 0.13352694 -0.00959612 -0.19737062 -0.1757062 -0.020045072 -0.13011567 0.041304164
0.039618745 -0.12023788 0.07725996 -0.09294068 0.011315775 -0.06700807 -0.035922486 0.028150804
0.009425304 0.12747253 -0.12142306 -0.030113101 0.10369804 -0.10388022 -0.16682063 0.030392073
0.080481805 0.07463971 -0.09060074 0.07281143 0.0056621 0.004283183 0.009964527 -0.05806541
-0.043072816 -0.071175255 -0.05209434 -0.061897308 -0.022980295 0.07962886 -0.1730456 -0.03855237
-0.15466125 -0.15133241 0.08846327 0.15756407 -0.028506083 0.035783984 -0.14509661 0.005393763
0.027715003 0.11740155 0.03795407 -0.11659899 0.009860608 -0.16852473 -0.014066999 -0.16380611
0.020552186 -0.119487375 -0.039066784 -0.06278672 0.049285248 -0.023514308 -0.08630358 0.05067503
-0.1412743 -0.005292534 -0.093859226 -0.016248226 -0.19182053 -0.15130347 -0.031089637 -0.040850304
-0.013537327 -0.23454174 0.06439822 0.0059390217 -0.04778353 0.11445014 0.2798323 0.005487844
0.078785166 -0.039854825 0.023596263 0.089000985 0.021784026 -0.04145024 -0.04000412 -0.077502154
0.064104214 0.008880942 -0.026361402 0.25810882 0.20096624 0.06953092 0.07565191 0.028139185
0.14513583 -0.051942613 0.11643803 0.122310124 0.008919987 -0.03459293 0.21448368 -0.055050705
-0.045780748 -0.08669048 0.010496027 0.2381391 -0.0748286 0.13579169 -0.18515457 0.0065205423

network_body._body_endoder.seq_layers.2.bias f4 [128]
00000000: 0000 0000 0000 0000 0000 0000 0000 0000
00000010: 0000 0000 0000 0000 0000 0000 0000 0000
00000020: 0000 0000 0000 0000 0000 0000 0000 0000
00000030: 0000 0000 0000 0000 0000 0000 0000 0000
00000040: 0000 0000 0000 0000 0000 0000 0000 0000
00000050: 0000 0000 0000 0000 0000 0000 0000 0000
00000060: 0000 0000 0000 0000 0000 0000 0000 0000
00000070: 0000 0000 0000 0000 0000 0000 0000 0000
00000080: 0000 0000 0000 0000 0000 0000 0000 0000
00000090: 0000 0000 0000 0000 0000 0000 0000 0000
000000a0: 0000 0000 0000 0000 0000 0000 0000 0000
000000b0: 0000 0000 0000 0000 0000 0000 0000 0000
000000c0: 0000 0000 0000 0000 0000 0000 0000 0000
000000d0: 0000 0000 0000 0000 0000 0000 0000 0000
000000e0: 0000 0000 0000 0000 0000 0000 0000 0000
000000f0: 0000 0000 0000 0000 0000 0000 0000 0000
00000100: 0000 0000 0000 0000 0000 0000 0000 0000
00000110: 0000 0000 0000 0000 0000 0000 0000 0000
00000120: 0000 0000 0000 0000 0000 0000 0000 0000
00000130: 0000 0000 0000 0000 0000 0000 0000 0000
00000140: 0000 0000 0000 0000 0000 0000 0000 0000
00000150: 0000 0000 0000 0000 0000 0000 0000 0000
00000160: 0000 0000 0000 0000 0000 0000 0000 0000
00000170: 0000 0000 0000 0000 0000 0000 0000 0000
00000180: 0000 0000 0000 0000 0000 0000 0000 0000
00000190: 0000 0000 0000 0000 0000 0000 0000 0000
000001a0: 0000 0000 0000 0000 0000 0000 0000 0000
000001b0: 0000 0000 0000 0000 0000 0000 0000 0000
000001c0: 0000 0000 0000 0000 0000 0000 0000 0000
000001d0: 0000 0000 0000 0000 0000 0000 0000 0000
000001e0: 0000 0000 0000 0000 0000 0000 0000 0000
000001f0: 0000 0000 0000 0000 0000 0000 0000 0000
0.0 0.0 0.0 0.0 0.0 0.0 0.0 0.0
0.0 0.0 0.0 0.0 0.0 0.0 0.0 0.0
0.0 0.0 0.0 0.0 0.0 0.0 0.0 0.0
0.0 0.0 0.0 0.0 0.0 0.0 0.0 0.0
0.0 0.0 0.0 0.0 0.0 0.0 0.0 0.0
0.0 0.0 0.0 0.0 0.0 0.0 0.0 0.0
0.0 0.0 0.0 0.0 0.0 0.0 0.0 0.0
0.0 0.0 0.0 0.0 0.0 0.0 0.0 0.0
0.0 0.0 0.0 0.0 0.0 0.0 0.0 0.0
0.0 0.0 0.0 0.0 0.0 0.0 0.0 0.0
0.0 0.0 0.0 0.0 0.0 0.0 0.0 0.0
0.0 0.0 0.0 0.0 0.0 0.0 0.0 0.0
0.0 0.0 0.0 0.0 0.0 0.0 0.0 0.0
0.0 0.0 0.0 0.0 0.0 0.0 0.0 0.0
0.0 0.0 0.0 0.0 0.0 0.0 0.0 0.0
0.0 0.0 0.0 0.0 0.0 0.0 0.0 0.0

action_model._discrete_distribution.branches.0.weight f4 [3, 128]
00000000: 0d48 88bc b37f 62bc 6a73 c0bb 2371 09bc
00000010: abc0 62bc 9e87 8b3c b51e 383b a381 8c3b
00000020: fb5b 4a3c 0157 87bc 0b20 d9bb e990 b4bc
00000030: 23a7 d73a 0b1f 8cbb d059 973b 8f40 9dbc
00000040: 2230 963c 536a 4b3c 546d a03b bc0a bcba
00000050: 7dc0 643c 6650 9a3b ded1 45b9 68f8 553c
00000060: b085 f8bb f51a 3ebc 74b0 4039 22ca e0bb
00000070: 3fac f0ba 4f78 a9bc 9634 b0bb b8ec f9bb
00000080: ba76 5b3b af3e 55bc bb73 cc3b 321e fc3b
00000090: b7bf 37bc 9b8f 07bc 5fd7 d5ba baeb e1ba
000000a0: c7b4 7dbc 773f 00ba 2626 bab9 ea46 513b
000000b0: 3304 6eb9 c39c cabb 8d6b 573c c7d4 bebb
000000c0: 701a c9bb e726 05bc 585b 1d3c b2fd 273a
000000d0: 2392 5a3c 9b1a 48bb 2321 4f3c 0782 56ba
000000e0: a16d 09bc 0a2e 9a3b dd7f 5eba 5b9e 01bc
000000f0: d5fc 503c 23c4 863c c28a 24bc ead8 cdbb
00000100: b59b 2f3c c72d cc3b acca 05bc 1596 e13a
00000110: 7d4d 7bbc 631e 95ba dffd 073c 1e62 89bb
00000120: 1366 533c 61ac 3a3a 8346 473b 8e4b a13b
00000130: cabb 983b 0b22 82bb 4787 643c 8812 4e3c
00000140: 1ddc 7b3c f7f9 2abc fd5c 25bc 5e63 bfbb
00000150: 9b4b 1abb 30ca a23a 5369 65bb b387 a3bb
00000160: c607 8bb8 33bc 35bb 6baf 7dbc 2a0d d8b9
00000170: 289a c83c 36ef 403c f840 cfbb 9705 8d3b
00000180: 87da f43b aa93 7fbb e8d2 f83a 8e1e 3eba
00000190: 0cc7 003c 0d5a 25bc b755 aeba b95a 2b3c
000001a0: 3e81 84bb 9810 88bc d317 dcba b7ee e7bb
000001b0: b78b 5abc aab9 31bc e725 b33b d854 20bc
000001c0: 77bc b63a c5b7 06bc 2566 2d3c 69b7 3abb
000001d0: fd4f 5b3c 1b71 99bb 6292 fa3b 33d7 9c3b
000001e0: c861 373b 2f9c edba 0b73 843c 3fda 0a3b
000001f0: f4ac 3fbc b8d9 90bb bfed b7bb 5309 333c
00000200: 0501 963b d88b 4f3c 4fca 22bc 4763 84ba
00000210: 5b43 ca3b c7fb c4bb f096 123b 5dae 4bbc
00000220: 6b4c 9b3b b103 bab9 47b7 c1bb 4fb2 3dbb
00000230: 5c32 823b 03dc 203b d1b3 a7bc 9fee 343c
00000240: ab40 b43c e037 bbbb 4f34 3b3c 285b 5f3b
00000250: 4f04 1cbc 4025 4d3c 2389 843b 7736 333c
00000260: f3b6 fe3a 454e e0bc 73dd b2bb 5db6 f7bb
00000270: 6031 b2b9 ffcf 6fbb 324c adbc fb36 70bc
00000280: c571 ee3a 0bc1 b03b 0f50 74ba 6de5 433b
00000290: 5321 903c 8b1e 893c 07c9 e9ba f712 deba
000002a0: e81f cf3a 4d47 7038 90a1 a33c a014 a9bc
000002b0: 4073 db3b db3c a73b 97b4 c43b aacd 5fbb
000002c0: 020f 553c 5c87 243c eac6 613c a4b8 423c
000002d0: dfc7 9cba bff1 e53b 1358 9ebc f99f 46bb
000002e0: 8b7c 05bc 064c 88bc 1b36 96bb ef06 43bb
000002f0: f72d 90bb 8576 e4ba c28f 9f3c b9bb 983a
00000300: d71d 323c 979a c93b 027a 8abc ba92 2bbc
00000310: b031 8a3c 4132 a33b a717 8f3b bd98 dd3b
00000320: a7cf 1cbb aac0 31bc a87b 67bb 3d61 983b
00000330: 7394 f0b7 d73a 39bc c500 873c dd6b 663c
00000340: a2a2 de3b 2539 43bc c4bf 9dba 8758 803a
00000350: eb49 5c3b e911 bcbb 63b6 08bc 673c 313b
00000360: 5f34 d9bb 3062 70bb 4753 7f3c fa9f 24bb
00000370: bb9d 4e3c 5b1a 153c ca4f f7ba 20ec a83c
00000380: dfee 06ba 3aa3 82bb 458f 773b b6ba 9dba
00000390: 9bf7 8c3a e53f 0e3c 32c4 6d3a b3be 353a
000003a0: 5b53 423c 1df5 573c 97a0 263c 3618 b13a
000003b0: ad9f ed3b aac1 e43a 221b d23b e35f 00bc
000003c0: 642a ab3c da48 f13b 0433 903c dba1 28bc
000003d0: cd49 78bb 7581 d6bb 57d0 8cbb 3ba7 9dba
000003e0: 629c 16bb 8864 113c 0915 0dba f313 7f3c
000003f0: 4884 a7bc dda2 eb3a ceb1 483c 926a 843b
-0.016635919 -0.013824391 -0.0058731334 -0.00838879 -0.013839881 0.01703244 0.0028094475 0.004287915
0.012351031 -0.016520979 -0.0066261343 -0.022041755 0.0016453009 -0.0042761615 0.004618861 -0.019195823
0.018333498 0.012415486 0.0048958454 -0.0014346461 0.013961908 0.0047092913 -0.00018865566 0.013059713
-0.007584296 -0.011603107 0.00018376281 -0.0068600336 -0.001836188 -0.02068725 -0.0053773625 -0.007627096
0.0033487515 -0.013015433 0.006239382 0.0076940292 -0.011215142 -0.008273984 -0.0016314796 -0.001723639
-0.015484995 -0.00048922695 -0.00035505107 0.0031933137 -0.00022699013 -0.0061832382 0.013148201 -0.005823705
-0.006137185 -0.008126951 0.009604298 0.0006408348 0.013340506 -0.0030533436 0.012642178 -0.0008182828
-0.008387954 0.0047051953 -0.0008487681 -0.00791129 0.012755592 0.016450947 -0.010042848 -0.0062819617
0.010718276 0.006231043 -0.0081659965 0.0017210866 -0.015338299 -0.0011376854 0.008300274 -0.0041926047
0.012902754 0.00071210234 0.0030407018 0.004922337 0.004661058 -0.0039713434 0.013948268 0.01257766
0.015372303 -0.010435573 -0.010092971 -0.005840703 -0.00235436 0.0012419876 -0.0035005405 -0.004990542
-6.6294844e-05 -0.0027730584 -0.015483717 -0.00041208538 0.02448757 0.011775782 -0.0063248836 0.004303645
0.0074723396 -0.0038997927 0.0018983753 -0.0007252478 0.0078599565 -0.010092271 -0.0013300691 0.010458642
-0.004043727 -0.016609475 -0.0016791768 -0.0070780176 -0.013338975 -0.010847488 0.005467165 -0.009785853
0.0013941665 -0.008222525 0.010583435 -0.0028490669 0.01338577 -0.0046826727 0.0076468447 0.004786396
0.0027981866 -0.0018128211 0.016168138 0.0021187214 -0.01169895 -0.0044204853 -0.0056130583 0.010927516
0.0045777583 0.012667619 -0.009935929 -0.0010100388 0.00617258 -0.0060114595 0.0022367798 -0.012431708
0.0047393343 -0.00035479435 -0.005911741 -0.0028945392 0.0039732885 0.00245452 -0.020471485 0.01104322
0.022003492 -0.005713448 0.011426046 0.0034081433 -0.009522512 0.012521088 0.0040446683 0.010938278
0.0019433185 -0.027381072 -0.0054585277 -0.007559581 -0.00033987593 -0.0036592481 -0.021154497 -0.014661546
0.0018191865 0.0053941063 -0.0009319791 0.0029891387 0.017594015 0.016738197 -0.00178364 -0.0016942908
0.0015802355 5.7286863e-05 0.0199745 -0.020639718 0.0066970885 0.00510369 0.0060029733 -0.0034149685
0.013004066 0.010042038 0.013780335 0.011884842 -0.0011961422 0.007017344 -0.019329106 -0.0030307753
-0.008147369 -0.016637813 -0.0045840866 -0.0029758771 -0.0044000107 -0.0017430341 0.019477729 0.0011652625
0.010871372 0.0061524617 -0.016903881 -0.010471994 0.016869396 0.004980356 0.0043668333 0.0067625926
-0.0023927481 -0.010849157 -0.0035321508 0.0046502636 -2.8679357e-05 -0.011305532 0.01647986 0.014063803
0.0067942897 -0.01191548 -0.00120353 0.0009792008 0.0033613394 -0.0057394397 -0.008344266 0.002704406
-0.0066285576 -0.0036679618 0.01558382 -0.0025119768 0.012610848 0.009100522 -0.0018868383 0.020620406
-0.0005147289 -0.0039867433 0.0037774604 -0.0012033794 0.0010754945 0.008682226 0.0009070068 0.00069330184
0.011860694 0.013180998 0.010170124 0.0013511244 0.007251701 0.0017452736 0.006411926 -0.007835361
0.020894237 0.007363421 0.017602451 -0.010292496 -0.0037885786 -0.006546194 -0.004297297 -0.0012027988
-0.0022981395 0.008874066 -0.00053818576 0.015568721 -0.020448819 0.0017977614 0.012249423 0.0040410245

action_model._discrete_distribution.branches.0.bias f4 [3]
00000000: 0000 0000 0000 0000 0000 0000
0.0 0.0 0.0

action_model._discrete_distribution.branches.1.weight f4 [3, 128]
00000000: 1d6f b9bb ac8c 8e3b d570 f8bb d038 febb
00000010: db5f 2b3b 6313 473a a522 063c 1d7f cc3b
00000020: 3b9c b339 f5bd 59bc 5840 8fbb 7a77 5cbb
00000030: ed56 2f3b 93a5 cf3b aabf 133c 4e52 3e3b
00000040: a997 15bc 8820 52ba 2404 b13b c8d5 64bc
00000050: dfeb 843a 93fe 6cbc b450 c43b ab49 953a
00000060: 7abf 3abc 2f86 2f3c e1fe 03bc 55c2 73bc
00000070: 23d8 84bc 13bc 9a3a bb3e 28bc 82fc f23b
00000080: 6f76 423c 077e 09bc 1b14 06bb 0f2b c7bb
00000090: a2cc 8f3b 3e6c b53b 0066 663b 8adb 0cbc
000000a0: 31a2 2dbb 6766 ab3b 4a36 e23a 5fb1 933b
000000b0: c52d 5b3c 52ab 14bb b632 28bc 9574 7d3a
000000c0: 2087 863c b7de b039 e41e 413c 07ea 86bb
000000d0: 5023 da3b b6f0 a83a 12d1 4ebb 2b2b 22bc
000000e0: b389 4b3a cc8d 8d3b abef b4bb 9015 f23b
000000f0: 607c 35bc b7f5 26bb efb0 8bbb 60f3 db3b
00000100: ff00 99bb 8682 a539 527c 38ba 7cf2 393c
00000110: 37a8 a13b cda0 4abb 94b2 3c3a ddd0 1abc
00000120: 6ba9 933b 1e17 9ebb ed0c 5abc 863d 293c
00000130: 902f 92bb 3e41 9cbb 83a0 163b fded 86b9
00000140: 535b b539 cbd2 003c cb96 03bb 856b 15bc
00000150: 121f 353c 6da3 ab3c 0bec 08bc fb82 aa3b
00000160: 24e7 03bc 93a2 1b3b 59e5 9e38 4d49 68bc
00000170: b878 acbb 1aae 60bb 8b26 e5bb 4b91 c7bb
00000180: c2f6 073c 55b1 54bb 9f20 563b 269c 083b
00000190: af38 283c 1dd9 2e3a 6f1d 39bc 7399 95bb
000001a0: 06c5 263b 4f0a 9fbc 7bb8 893b 7720 c7bb
000001b0: 320c 87bc e336 4abc 0f18 57bb cb90 49bb
000001c0: 6baa 70bb a360 a5ba 93a9 aebb 9c64 9abb
000001d0: 9fbd b13b bf59 e4bb 8048 793c 1d2f fbbc
000001e0: 0bdc 8e3c 5a13 9c3b 5bc7 493c 84ee 843b
000001f0: 343c bbbb 6be9 5d3a ddd2 fb3b ce7c 973b
00000200: ff6c 15bb 2792 67bb 2f58 293c 8995 9cbb
00000210: bc39 03bb cd03 8cbb 631a 62bc b2c4 cbbb
00000220: e253 57bc 201e 023b 173f c43a 5eb7 c13c
00000230: d8ab b1bb 614b 3fbb f819 d7bc 933d aa3a
00000240: b7a4 e5bb 7769 adba 13b9 233b 08ca 543b
00000250: dc07 00bb 6d25 d23b ef40 37bb 0d6f af3b
00000260: a8e9 2d3c 7e46 a3bc a2c0 b1bb 65b3 ddbb
00000270: 680f ee3a 45b2 caba 721d 19bb 37af 24bc
00000280: e3f5 3fbb 3f5f 7f3b 5248 a53b 6023 4239
00000290: c290 5a3c f6a5 44bc da36 f63b 0267 30bc
000002a0: 73a7 63bc 0f8a cb3b 38a6 f63a 905e 243b
000002b0: cfd7 043c 036f 563c 8d28 74bc 1f6d b6bb
000002c0: 9f9a 76bb f72a cd3b 48e7 c6bc 4bbb 00bb
000002d0: 5609 243c 3e8e bcbb ff3c 0bbb 27ef 8aba
000002e0: 9340 36bb 547f 15bb c28f f93b a3de 56ba
000002f0: 95e5 7a3b 3a5e e63a 4df5 8d3b e7ff f33b
00000300: 97a6 7b3c 3187 483c d763 e0bb fb74 d1bb
00000310: 637e 5a3b 629d dcb9 f89a 0d3c e3fb 98bc
00000320: b330 eab9 05de 243c 63ad 573b 4828 ceba
00000330: c1d9 9039 6f0c 2fbc 5fc1 a5bb 7447 183c
00000340: c37a 3e3b 2394 b0ba 7778 cebb 6fb3 bdbb
00000350: 97cd 803c 1795 473c 8d55 213b 4f04 323c
00000360: 382d e5b9 320a 69b9 401b f6bb 9e93 973a
00000370: 4d41 fcbb de7b 1bbc 44e1 963c 7e11 083c
00000380: 383a 8dbc e4a8 32ba 1388 b53c 44c0 083b
00000390: 6dfb db3b 8aed 4f3c 574f 57bc ebae a73b
000003a0: 5b2b 653b 195f ae3c 2d9f 2f3c 1f06 e8bb
000003b0: 1136 0a3c f605 433c 8d92 263b 4917 2c3c
000003c0: a727 313c bf70 03bc 695b 1bbb 0b2d 13bc
000003d0: 57e6 483c 42b1 9cbb df41 043b 7501 6c3c
000003e0: 40df 86bb 76cc 2e3c 99ce 97bc 37c4 c03b
000003f0: 3f6a 49bc 9f4e 7a3b 933a b6ba 5737 f53b
-0.0056589977 0.0043502655 -0.00758181 -0.0077582374 0.0026149664 0.00075941364 0.008186971 0.006240739
0.0003425794 -0.013289918 -0.004371684 -0.003364055 0.0026754693 0.0063368767 0.009017864 0.0029040757
-0.009130397 -0.0008015712 0.005402105 -0.013966985 0.0010141096 -0.014464992 0.005991066 0.0011389753
-0.011398191 0.010713144 -0.008056373 -0.014877875 -0.016216343 0.0011805318 -0.010268862 0.007415355
0.011869057 -0.008391864 -0.002045876 -0.006078131 0.004388408 0.005536585 0.0035156012 -0.008597264
-0.0026494379 0.005230713 0.0017258611 0.0045072283 0.0133776115 -0.0022685123 -0.010265997 0.0009668556
0.016421854 0.0003373527 0.01178715 -0.0041172537 0.0066570416 0.001288912 -0.003155772 -0.009897987
0.0007764354 0.004319882 -0.0055217347 0.0073878244 -0.011077017 -0.0025476047 -0.0042630355 0.006712362
-0.004669308 0.000315685 -0.0007037568 0.011349317 0.004933383 -0.0030918599 0.0007198241 -0.009449211
0.00450628 -0.004824533 -0.013308746 0.01032961 -0.0044612363 -0.0047685197 0.0022983856 -0.00025735787
0.00034591052 0.007862757 -0.0020078893 -0.009119873 0.011054771 0.02095195 -0.008357058 0.0052036024
-0.008050714 0.0023748025 7.5767464e-05 -0.0141776325 -0.0052634142 -0.003428346 -0.00699312 -0.0060903183
0.008298578 -0.003245433 0.0032673252 0.0020845025 0.010267421 0.00066699256 -0.011298521 -0.0045654117
0.0025447025 -0.019414095 0.0042029 -0.006076868 -0.016485307 -0.012342188 -0.0032820737 -0.003075647
-0.003672267 -0.0012617301 -0.0053302734 -0.0047117006 0.005424216 -0.0069687064 0.015215039 -0.030662114
0.017438909 0.004763049 0.012315596 0.0040567536 -0.005713964 0.0008465263 0.007685049 0.004623032
-0.0022800562 -0.0035334916 0.010335966 -0.004778568 -0.0020023426 -0.004272914 -0.013800236 -0.0062185163
-0.013142558 0.0019854382 0.0014972416 0.023647007 -0.0054220967 -0.0029189216 -0.0262575 0.0012988321
-0.007008161 -0.0013230284 0.002498214 0.0032469053 -0.0019535935 0.006413153 -0.0027962287 0.0053538145
0.01061479 -0.019931074 -0.005424575 -0.0067657703 0.001816255 -0.0015464505 -0.0023363498 -0.01005154
-0.0029290847 0.0038966683 0.0050440216 0.0001851446 0.013340177 -0.012002459 0.007513863 -0.0107667465
-0.0138949035 0.006211526 0.0018817848 0.0025080778 0.008108093 0.013087991 -0.014902246 -0.0055672075
-0.0037628782 0.0062612253 -0.024280205 -0.0019642885 0.0100119915 -0.0057542613 -0.0021246073 -0.0010599837
-0.0027809485 -0.002281149 0.007616014 -0.00081966276 0.0038283814 0.0017575689 0.0043322206 0.0074462774
0.015359542 0.012239263 -0.0068478393 -0.006392119 0.0033339493 -0.0004207893 0.008642904 -0.018674796
-0.00044668242 0.010062699 0.0032909743 -0.0015728557 0.0002762806 -0.010684117 -0.005058452 0.0092943795
0.002906487 -0.0013471883 -0.0063009816 -0.0057892124 0.015723033 0.012181542 0.0024617643 0.010865285
-0.00043711974 -0.0002222441 -0.0075105727 0.0011564379 -0.007698214 -0.009489981 0.018417962 0.008304952
-0.017239675 -0.0006815328 0.022159612 0.0020866552 0.006713322 0.012690911 -0.013141475 0.0051172874
0.0034968469 0.02128558 0.010719103 -0.007080808 0.008435742 0.011903277 0.002541694 0.0105035985
0.0108126765 -0.008022486 -0.0023705608 -0.008982907 0.012261949 -0.004781873 0.0020180864 0.014404644
-0.004115969 0.0106688645 -0.01853113 0.0058827656 -0.012293397 0.0038193834 -0.0013902955 0.0074834037

action_model._discrete_distribution.branches.1.bias f4 [3]
00000000: 0000 0000 0000 0000 0000 0000
0.0 0.0 0.0

network_body._body_endoder.seq_layers.0.weight f4 [128, 138]
00000000: 4480 d2bd 52e3 d5bd 9443 90bc fc0b 2bbc
00000010: b70c af3b 5196 5ebd 2d29 833d ad8b ca3d
00000020: 6b1c 003e 1a7d 1abe 9b2c 2dbe 9a50 69bd
00000030: 6afb d53c 1b34 99bd 8529 3ebe 3d61 9a3c
00000040: d493 863d f237 813d 4c7d 4f3d 839f 8b3a
00000050: 0c48 9bbc ea24 b33d f156 0a3e c46a 2b38
00000060: 34b5 b1bc e288 2fbc 48b4 943d 244d f6bd
00000070: ef40 70bd a023 cabd 617c aa3d 167c 8a3d
00000080: 07f7 0bbe 241a 74bd bd7c 9dbc 094e 86bd
00000090: 65e2 263e 66ad 9b3d 4bd9 bbbc 22ac 54bd
000000a0: a394 3f3d 0731 d03a 4e7e 7e3c 2b8f c5bc
000000b0: e523 093e b83a 9cbc ec5d 5dbd 79a1 223e
000000c0: 788b 103e 2711 413d 5c39 633d cb59 f63c
000000d0: f62b 12bd b721 26be a00e 273d bea1 63bd
000000e0: e2b0 bc3c 9cea 9b3d 50f7 8ebd be0c 60bd
000000f0: 400c 88bd e512 233c 201a 6b3b 7f5b 8f3d
00000100: 6276 6abd a0e0 483d 8c15 293d b9fa 4a3d
00000110: 3a12 203a 07ba e13b cad3 6a3e de33 cbbd
00000120: 0b16 403d 8d38 6dbc 3206 f6bd 7e9a 123d
00000130: 7e05 da3b 3b96 40bd a87d 39be d87c 793c
00000140: 7d4a 06be 7b09 443d 8095 aabd fa51 c93d
00000150: 7357 d73d 69d0 c93d 35c1 4bbd c477 cdbc
00000160: 35c4 f23b 2395 d0bd 7f0d 31bd e2e2 f93d
00000170: 430a ffbc d629 123b 80cd 40bc e48e a23d
00000180: 3136 8bbb 23c7 8f3c 7f4e 393b ecb1 cbbd
00000190: d250 23bd c5d1 fa3d 3e44 1bbe f2a5 07bd
000001a0: e1c8 7abd a10e 033e de5a 4bbd a75b 01be
000001b0: 6a05 02bd 7e99 e73b bd99 b53d 82c5 a6bd
000001c0: b7b0 fc3c 624e 4bbe f39a debb 164c 04be
000001d0: f5cb 3dbd a8a2 84bd 35f5 05be b5e0 da3b
000001e0: 5227 7ebd 194d 923d bd88 8e3d 11fd 9fbc
000001f0: edc3 18be 5c04 75bd ea8b 983d 954f 33bd
00000200: 1da3 283e 15d7 d93d 5fef 433d 0656 2fbe
00000210: 6ebe 923d 75e9 17bd 560d 9cbd 0e57 01be
00000220: 6f89 023e a2b5 7f3d 74c2 27bd 6c65 5fbd
00000230: fdc2 81bc 3c5c 953e c0a5 383e e17d dcba
00000240: 9ab8 e13c ce9f a13d 4aaf 4a3d b883 19bc
00000250: 1b74 9c3d 8f33 9cbd b5f8 6a3d 6489 6d3c
00000260: 1d91 dfbc ec57 313e dbec b03d cc84 3ebe
00000270: 8dd1 6dbd 41ee e9bd 5b15 08be ccbd 72bd
00000280: ea8f b7bd 78be 2b3d 8ee8 8c3d cbd9 523d
00000290: f4a0 8b3c 0193 8ebe 3d60 9c3d a1d6 a0bd
000002a0: 4f2e 7a3d a7d5 c63d 3a39 de3d 4303 9fb9
000002b0: 697e 243c 9068 c63d b475 3ebe b829 133e
000002c0: 3fa7 1fbc a07f 9fbd 2576 793d ac6d 18bd
000002d0: 7b6a 2fbe 641b 27be 60d5 823e eb01 fc3b
000002e0: 4c3f cabc 7a30 173d bcb7 52be dca8 a2bd
000002f0: bfbe 873d 9892 bb3d 27df 543e 4cc6 8c3d
00000300: b497 0cbe 97d1 a2bc 8f3a a9bd a0e9 923a
00000310: 059c f13c 1e27 07bd 0e52 dfbd 06aa a1bd
00000320: 47d7 dc3d f8d3 b7bd 0ca8 2ebe 0eff a4bd
00000330: aa1a 9bbd f7fd 393d 219b 923d 9fe6 603c
00000340: a95b 5d3d 982f b13d 57e0 90bd 41db b13d
00000350: 3223 e33d c407 963d 9aac e83d 37fd 5e3d
00000360: 345b 51bd 6434 823c d8cf 2d3e df61 a13d
00000370: 974a 72bd 90aa 38bd 2a4a c5bd f758 54bd
00000380: d2cf 0a3d ce14 e23c 9e21 d7bd 4d74 edbd
00000390: 93cd 2ebd cba9 a93c 07b1 bdbd 298b 1ebd
000003a0: ea9f 5c3c 9ee2 27bd 84f4 6b3d 4f93 7dbb
000003b0: 2bc2 933d feb6 5cbc cada 0b3d c34a c83c
000003c0: 8989 0c3d f032 e9bd 0299 aa3b 972c c93c
000003d0: 2c09 06be bbc4 173e 7b38 073d 3971 c7bc
000003e0: c942 9f3d c2fe a5bc cbfb b03d f7b9 3abd
000003f0: aef6 2a3d af68 19be adeb 7d3d 9082 683d
-0.10278371 -0.104437485 -0.017610349 -0.010439869 0.005342092 -0.05434257 0.06404338 0.09889922
0.1251084 -0.15086785 -0.16911547 -0.056961633 0.02612086 -0.074806415 -0.18570526 0.018845195
0.06571165 0.06309499 0.0506566 0.0010652397 -0.018955253 0.08747275 0.13509728 4.086901e-05
-0.02169285 -0.010713788 0.072609484 -0.12026432 -0.058655676 -0.09870076 0.08324505 0.06761949
-0.13668452 -0.059595242 -0.019224519 -0.06557853 0.162973 0.076014325 -0.022930762 -0.05192197
0.04677261 0.0015883752 0.015533043 -0.02411612 0.13392599 -0.019070968 -0.05404465 0.1588191
0.14115703 0.0471355 0.055474624 0.030072113 -0.035686456 -0.16223799 0.04078543 -0.05557417
0.023033563 0.076131076 -0.06980765 -0.054699652 -0.066429615 0.009953235 0.0035873726 0.06999873
-0.057241805 0.049042344 0.041280314 0.049555514 0.00061062316 0.0068886313 0.22932354 -0.09922002
0.04689602 -0.014478815 -0.120129004 0.035791866 0.0066534868 -0.04701827 -0.1811434 0.015227519
-0.13114353 0.047860604 -0.08329296 0.09830089 0.105147265 0.09854204 -0.049744803 -0.025081523
0.0074086436 -0.101846956 -0.04322576 0.122014776 -0.031132823 0.0022302768 -0.011767745 0.079374105
-0.0042484035 0.01755101 0.0028275547 -0.09946045 -0.039871998 0.122470416 -0.15162751 -0.033117242
-0.06122673 0.12798549 -0.049647205 -0.12632619 -0.031743445 0.0070678582 0.08867214 -0.081431404
0.030845983 -0.1985412 -0.0067933737 -0.1291965 -0.046337087 -0.06476337 -0.1308182 0.006679619
-0.062049218 0.071436115 0.069596745 -0.019529851 -0.1491849 -0.05981861 0.074485615 -0.043777067
0.16468473 0.10636727 0.047835704 -0.17122659 0.07165228 -0.037087876 -0.07619731 -0.12630865
0.1274774 0.062429078 -0.04095693 -0.054540083 -0.015840048 0.29171932 0.18031979 -0.0016822183
0.027553845 0.078918085 0.049483575 -0.009369783 0.07639333 -0.076270215 0.05736609 0.0144980885
-0.027290875 0.17318696 0.086389266 -0.18605345 -0.05806117 -0.114223965 -0.13289396 -0.059263036
-0.08962996 0.041929692 0.06880294 0.051477235 0.017044522 -0.2784653 0.076355435 -0.07853437
0.06107932 0.0970872 0.10850759 -0.00030329273 0.010039904 0.096879125 -0.18599588 0.14371383
-0.009744464 -0.077880144 0.060903687 -0.037213966 -0.17130463 -0.16319042 0.25553417 0.0076906583
-0.024688385 0.036911465 -0.20577902 -0.079423636 0.06628179 0.0915882 0.20788251 0.068737596
-0.13729745 -0.01987533 -0.08263122 0.0011208542 0.029493341 -0.03299629 -0.109043226 -0.078937575
0.107832484 -0.08975977 -0.17056292 -0.0805646 -0.07573445 0.045408215 0.07158495 0.013726859
0.054042492 0.08651656 -0.070740394 0.086843975 0.11090697 0.073257 0.11361046 0.054440703
-0.05111237 0.015894122 0.16973817 0.078799956 -0.059153166 -0.045084536 -0.09633286 -0.051842656
0.0338896 0.027597811 -0.10504459 -0.11594448 -0.04267652 0.020710846 -0.09262281 -0.038706932
0.013465861 -0.040987603 0.057606235 -0.003869254 0.07214769 -0.013471363 0.0341442 0.024449712
0.03431085 -0.11386669 0.0052062282 0.024557395 -0.13089436 0.1482114 0.03301285 -0.024345981
0.0777641 -0.02026308 0.08641776 -0.045587506 0.04173916 -0.1498134 0.061992336 0.05676514

network_body._body_endoder.seq_layers.0.bias f4 [128]
00000000: 0000 0000 0000 0000 0000 0000 0000 0000
00000010: 0000 0000 0000 0000 0000 0000 0000 0000
00000020: 0000 0000 0000 0000 0000 0000 0000 0000
00000030: 0000 0000 0000 0000 0000 0000 0000 0000
00000040: 0000 0000 0000 0000 0000 0000 0000 0000
00000050: 0000 0000 0000 0000 0000 0000 0000 0000
00000060: 0000 0000 0000 0000 0000 0000 0000 0000
00000070: 0000 0000 0000 0000 0000 0000 0000 0000
00000080: 0000 0000 0000 0000 0000 0000 0000 0000
00000090: 0000 0000 0000 0000 0000 0000 0000 0000
000000a0: 0000 0000 0000 0000 0000 0000 0000 0000
000000b0: 0000 0000 0000 0000 0000 0000 0000 0000
000000c0: 0000 0000 0000 0000 0000 0000 0000 0000
000000d0: 0000 0000 0000 0000 0000 0000 0000 0000
000000e0: 0000 0000 0000 0000 0000 0000 0000 0000
000000f0: 0000 0000 0000 0000 0000 0000 0000 0000
00000100: 0000 0000 0000 0000 0000 0000 0000 0000
00000110: 0000 0000 0000 0000 0000 0000 0000 0000
00000120: 0000 0000 0000 0000 0000 0000 0000 0000
00000130: 0000 0000 0000 0000 0000 0000 0000 0000
00000140: 0000 0000 0000 0000 0000 0000 0000 0000
00000150: 0000 0000 0000 0000 0000 0000 0000 0000
00000160: 0000 0000 0000 0000 0000 0000 0000 0000
00000170: 0000 0000 0000 0000 0000 0000 0000 0000
00000180: 0000 0000 0000 0000 0000 0000 0000 0000
00000190: 0000 0000 0000 0000 0000 0000 0000 0000
000001a0: 0000 0000 0000 0000 0000 0000 0000 0000
000001b0: 0000 0000 0000 0000 0000 0000 0000 0000
000001c0: 0000 0000 0000 0000 0000 0000 0000 0000
000001d0: 0000 0000 0000 0000 0000 0000 0000 0000
000001e0: 0000 0000 0000 0000 0000 0000 0000 0000
000001f0: 0000 0000 0000 0000 0000 0000 0000 0000
0.0 0.0 0.0 0.0 0.0 0.0 0.0 0.0
0.0 0.0 0.0 0.0 0.0 0.0 0.0 0.0
0.0 0.0 0.0 0.0 0.0 0.0 0.0 0.0
0.0 0.0 0.0 0.0 0.0 0.0 0.0 0.0
0.0 0.0 0.0 0.0 0.0 0.0 0.0 0.0
0.0 0.0 0.0 0.0 0.0 0.0 0.0 0.0
0.0 0.0 0.0 0.0 0.0 0.0 0.0 0.0
0.0 0.0 0.0 0.0 0.0 0.0 0.0 0.0
0.0 0.0 0.0 0.0 0.0 0.0 0.0 0.0
0.0 0.0 0.0 0.0 0.0 0.0 0.0 0.0
0.0 0.0 0.0 0.0 0.0 0.0 0.0 0.0
0.0 0.0 0.0 0.0 0.0 0.0 0.0 0.0
0.0 0.0 0.0 0.0 0.0 0.0 0.0 0.0
0.0 0.0 0.0 0.0 0.0 0.0 0.0 0.0
0.0 0.0 0.0 0.0 0.0 0.0 0.0 0.0
0.0 0.0 0.0 0.0 0.0 0.0 0.0 0.0

network_body._body_endoder.seq_layers.2.weight f4 [128, 128]
00000000: 8174 3cbd d097 923c 6d42 303d 7e74 bcbc
00000010: 6007 9d3d bac1 073e e5eb 2cbe ba54 043c
00000020: dc06 5cbc 9e4b 63bd 41ec 573d eddf b63c
00000030: 2f06 84bd d4b4 02be 44e7 1abb fc71 2d3d
00000040: 5033 a6bd 15d3 803d 1c60 b33d 9504 1a3d
00000050: c19a a2bd 7ac4 bbbd 9482 163e 5e0a e93d
00000060: cb62 e33d 5891 7b3d 02dd 37bd 901b 853d
00000070: c077 d03d 1c05 2a3e 2b80 713d 8555 013b
00000080: 1c03 003e 21d2 acbc 54bf 773d 0397 b6bd
00000090: 3222 6fbd e63e 31be 296a f7bd 127d dcbc
000000a0: e564 9bbd 0663 623d c662 28bd b6d3 32bd
000000b0: fd1b 873d d72b 1b3b 6616 83bc ec01 12be
000000c0: 69b7 023e 677a 9dbd fa3d 33be 8ada ef3b
000000d0: 4b09 e3bd 6fdd 1abb c4c3 7f3d be2e e93d
000000e0: 2241 37bd b4a1 95bc fd6f 9bbd ee3e 70bd
000000f0: 3a37 483c 40ef 8abc 0036 303d e2c8 823b
00000100: e457 4f3d c7d7 64bd 2f8b 4bbd 851e c5bd
00000110: 9cb4 df3d 08ac 8dbd e40e a6bd 6679 b4bc
00000120: 68c1 603d 618a 37bd 8001 9fbd ca22 83bd
00000130: 5421 353e 71a6 0abe e231 1a3d 6024 1ebd
00000140: b004 8e3d 5d33 8f3c f190 13be c306 db3d
00000150: 9fdd 563c 4dd5 11be 60d0 023e 1bfb 15be
00000160: 812d 013d 45a3 633d 8e9c e8bb ada3 9fbd
00000170: 5c03 023d 633c 28bd cfcd 8fbd 4a4a 95bb
00000180: 2d6d a1bc e672 043d 5db8 3ebe 4028 913c
00000190: 5d1e bebc 58b8 d73d 72c8 013e a25f ce3c
000001a0: 4d77 2d3d 8d68 d7bb ad79 edbd da11 50be
000001b0: 224f 923d 5049 f6bd cecd ecbd b2ca 903d
000001c0: a3dc 013e 0621 b0bc 114b 583b c997 653c
000001d0: 1030 a33d b1e9 163e 0422 a23d e14a 503c
000001e0: ef05 473d 5d13 b2bd 3b55 9cbc 7ba6 ccbd
000001f0: fa4a 373d 4e7e 653c fe74 243e 3f50 bc3d
00000200: 4036 9a3c c7ef 54be 1edd 0ebd 9e5c dbbd
00000210: fbaf d9bb 1134 be3c 7627 36bc 98f4 513b
00000220: 5bc0 a33d 65b9 01be 0d70 803c 0e06 de3b
00000230: 769e 9dbd 2e5a 653d ba84 523d a79c a6bd
00000240: 949f 18bd aebd 98bd 1d5c 0d3e 6c72 09be
00000250: 3400 c33d 0e6f 51bd da05 513d 593b 1fbd
00000260: f566 8339 f914 843c 4f34 63be 5833 553c
00000270: 323f 50bd e61b f1bb d7b2 c7bd 12d0 21be
00000280: b068 eebd e087 f83d 4926 cc3d 77af 883c
00000290: a167 19bd 600c 063d 5aa1 ebbd 723e 373d
000002a0: a5c5 e8bc 0541 a0bc 1568 1bbd 090a 47be
000002b0: a643 44bc 6377 a13c c2bc 01be c30c fdbd
000002c0: e845 183e 25df c23d d271 74bd 13ff 063e
000002d0: 7e73 a5bb e421 a3bd 3294 31bd 5bb4 dd3d
000002e0: c23d 64bd 9d29 62bb de70 16ba 422c 7cbd
000002f0: 3277 9f3d 4e53 ee3c 32c0 c6bd 4b0a 8cbd
00000300: a50c 0a3e 1eed b53d de28 ff3b 870d c2bc
00000310: 240a 143c dbcd 103e 9d52 5bbd 4a1d c5bd
00000320: 0aef 173e 6302 f53b 052b e7bc 7357 f7bd
00000330: 18f3 98bd fd9b 57bb 1850 553e 861c 85bc
00000340: 49be 3dbd 03a4 ad38 6f3c df3d a027 abbd
00000350: 355f bc3d 0a27 edbd d9a9 c03b b0c2 743b
00000360: 70ca 72bd 7098 a13d eed4 8c3d 23df f4b9
00000370: f3e1 953c b277 15bd ca7a 053d 6794 dfbb
00000380: 2399 c6bd 5158 1ebc 4181 11bc 5901 00be
00000390: 8f6f 05bc 45c5 ec3d 075e 39be a3e9 9fbd
000003a0: d0b0 823c 46a0 3ebd 0f3c 13bd c2b8 85bd
000003b0: 1938 e13d c9f2 83bb a395 ac3d 0611 043e
000003c0: d68e babc ef73 afbc 51ec b7bd 21be b6bd
000003d0: 251d 97bd f537 383e f678 fbbd bbed 42bd
000003e0: dc66 a63a 5a95 31ba 01aa 0fbe d952 92bd
000003f0: 5624 043d 8f3c 23be d132 42be 2ab5 e33c
-0.046009544 0.017894655 0.0430321 -0.023004767 0.07667422 0.13257495 -0.16886862 0.008076841
-0.01342937 -0.055492036 0.052715544 0.022323573 -0.06446492 -0.12764293 -0.002363638 0.042345032
-0.08115256 0.06290261 0.08758566 0.037602026 -0.07939673 -0.09168334 0.14698249 0.113789305
0.11102828 0.061417907 -0.044888504 0.06499398 0.101790905 0.16603512 0.05896012 0.0019734812
0.12501186 -0.021096291 0.0604852 -0.08915522 -0.05838222 -0.1730915 -0.12080795 -0.026915107
-0.075876035 0.055270217 -0.041109823 -0.043658935 0.06597135 0.0023677254 -0.016001891 -0.14258546
0.12765278 -0.07689362 -0.17504111 0.007319753 -0.11085757 -0.002363052 0.062442556 0.113858685
-0.04473985 -0.018265583 -0.075897194 -0.058653764 0.012220198 -0.016959786 0.04302025 0.0039912323
0.05062093 -0.055869844 -0.049693283 -0.09624962 0.109231204 -0.06917578 -0.08108309 -0.022030544
0.054871947 -0.044809703 -0.07763958 -0.0640312 0.17688495 -0.13540055 0.03764523 -0.03860891
0.06934488 0.017480547 -0.1441076 0.10694649 0.013114362 -0.14241524 0.12774801 -0.1464657
0.031537537 0.055575628 -0.007098741 -0.077948906 0.031741485 -0.041073214 -0.07021677 -0.004555975
-0.01970538 0.03233614 -0.18625017 0.017719388 -0.023207838 0.10533208 0.1267412 0.025192086
0.042350102 -0.0065737427 -0.115954734 -0.2031931 0.07144 -0.12025702 -0.11562692 0.07069911
0.12681822 -0.021500122 0.0033003727 0.014013239 0.079681516 0.14737584 0.07916644 0.012713165
0.048589643 -0.086950995 -0.01908361 -0.09992691 0.044749238 0.014007164 0.16060254 0.09194993
0.018824697 -0.20794593 -0.034878843 -0.10711025 -0.006643293 0.023218187 -0.011117807 0.0032036658
0.07995673 -0.12668379 0.01567843 0.006775624 -0.0769624 0.055994205 0.05139611 -0.08135348
-0.03726156 -0.074580535 0.1380467 -0.13422555 0.09521523 -0.0511313 0.05103097 -0.038874958
0.00025062976 0.016123282 -0.22187923 0.01301273 -0.050841518 -0.007358062 -0.09750908 -0.15802029
-0.11641061 0.12135291 0.0996824 0.01668523 -0.037452344 0.032726645 -0.11505385 0.044737287
-0.028414557 -0.019562254 -0.037941057 -0.19437422 -0.011979019 0.019710248 -0.12669662 -0.1235595
0.14870417 0.09515218 -0.05967886 0.1318324 -0.005049168 -0.079654485 -0.04335422 0.10825416
-0.05572296 -0.0034509667 -0.00057388644 -0.061565645 0.077864066 0.029092457 -0.09704627 -0.06837901
0.13481386 0.08883117 0.007786854 -0.023688091 0.009035621 0.14141028 -0.053545583 -0.09624727
0.1483728 0.007477091 -0.028218755 -0.120772265 -0.074682415 -0.0032899373 0.20831335 -0.016248953
-0.04632405 8.2798324e-05 0.10900199 -0.08357167 0.09197847 -0.11579712 0.0058796224 0.0037347488
-0.05927509 0.07890403 0.068765506 -0.00046705556 0.018296218 -0.036491103 0.032587804 -0.006823111
-0.09697177 -0.009664611 -0.008880914 -0.12500514 -0.008144273 0.11561064 -0.18102275 -0.078082345
0.015953451 -0.046539567 -0.03594595 -0.065293804 0.10997028 -0.004026745 0.084269784 0.12897119
-0.022773188 -0.021417586 -0.08980621 -0.08922983 -0.07378606 0.17990096 -0.12278931 -0.04759
0.0012695449 -0.0006774269 -0.14029695 -0.07144708 0.032261215 -0.1594107 -0.18964697 0.027796347

network_body._body_endoder.seq_layers.2.bias f4 [128]
00000000: 0000 0000 0000 0000 0000 0000 0000 0000
00000010: 0000 0000 0000 0000 0000 0000 0000 0000
00000020: 0000 0000 0000 0000 0000 0000 0000 0000
00000030: 0000 0000 0000 0000 0000 0000 0000 0000
00000040: 0000 0000 0000 0000 0000 0000 0000 0000
00000050: 0000 0000 0000 0000 0000 0000 0000 0000
00000060: 0000 0000 0000 0000 0000 0000 0000 0000
00000070: 0000 0000 0000 0000 0000 0000 0000 0000
00000080: 0000 0000 0000 0000 0000 0000 0000 0000
00000090: 0000 0000 0000 0000 0000 0000 0000 0000
000000a0: 0000 0000 0000 0000 0000 0000 0000 0000
000000b0: 0000 0000 0000 0000 0000 0000 0000 0000
000000c0: 0000 0000 0000 0000 0000 0000 0000 0000
000000d0: 0000 0000 0000 0000 0000 0000 0000 0000
000000e0: 0000 0000 0000 0000 0000 0000 0000 0000
000000f0: 0000 0000 0000 0000 0000 0000 0000 0000
00000100: 0000 0000 0000 0000 0000 0000 0000 0000
00000110: 0000 0000 0000 0000 0000 0000 0000 0000
00000120: 0000 0000 0000 0000 0000 0000 0000 0000
00000130: 0000 0000 0000 0000 0000 0000 0000 0000
00000140: 0000 0000 0000 0000 0000 0000 0000 0000
00000150: 0000 0000 0000 0000 0000 0000 0000 0000
00000160: 0000 0000 0000 0000 0000 0000 0000 0000
00000170: 0000 0000 0000 0000 0000 0000 0000 0000
00000180: 0000 0000 0000 0000 0000 0000 0000 0000
00000190: 0000 0000 0000 0000 0000 0000 0000 0000
000001a0: 0000 0000 0000 0000 0000 0000 0000 0000
000001b0: 0000 0000 0000 0000 0000 0000 0000 0000
000001c0: 0000 0000 0000 0000 0000 0000 0000 0000
000001d0: 0000 0000 0000 0000 0000 0000 0000 0000
000001e0: 0000 0000 0000 0000 0000 0000 0000 0000
000001f0: 0000 0000 0000 0000 0000 0000 0000 0000
0.0 0.0 0.0 0.0 0.0 0.0 0.0 0.0
0.0 0.0 0.0 0.0 0.0 0.0 0.0 0.0
0.0 0.0 0.0 0.0 0.0 0.0 0.0 0.0
0.0 0.0 0.0 0.0 0.0 0.0 0.0 0.0
0.0 0.0 0.0 0.0 0.0 0.0 0.0 0.0
0.0 0.0 0.0 0.0 0.0 0.0 0.0 0.0
0.0 0.0 0.0 0.0 0.0 0.0 0.0 0.0
0.0 0.0 0.0 0.0 0.0 0.0 0.0 0.0
0.0 0.0 0.0 0.0 0.0 0.0 0.0 0.0
0.0 0.0 0.0 0.0 0.0 0.0 0.0 0.0
0.0 0.0 0.0 0.0 0.0 0.0 0.0 0.0
0.0 0.0 0.0 0.0 0.0 0.0 0.0 0.0
0.0 0.0 0.0 0.0 0.0 0.0 0.0 0.0
0.0 0.0 0.0 0.0 0.0 0.0 0.0 0.0
0.0 0.0 0.0 0.0 0.0 0.0 0.0 0.0
0.0 0.0 0.0 0.0 0.0 0.0 0.0 0.0

value_heads.value_heads.extrinsic.weight f4 [1, 128]
00000000: 9838 2f3e 53fb 413e cb52 1bbe a3c2 b0bd
00000010: 8103 05be d9f8 d2bd 253d 12be 0bda 313d
00000020: 8d9d 0b3e 0d1e ef3d 7a78 65bd 5713 71bd
00000030: 35d3 093d 2768 253d 5966 413e 908b fb3d
00000040: 99ac 50be b771 c8bd 00cb 063e d29f 38bd
00000050: 2319 00be 5bbe e53d c8d6 96bc 8097 afbd
00000060: 4a34 7a3d ca46 fcbd ee07 673d 0bd6 3d3e
00000070: cbe8 ab3d d258 1e3c e034 463e 2332 ae3d
00000080: 9582 2abe c4ba 323e 5b3f c23d 1056 9abd
00000090: afaa fdbd ea84 15bd 3b62 33be 3087 f23d
000000a0: 66fe 3e3b 4e11 443e 72cb f9bd bc62 0abd
000000b0: 584e 85bd 8559 b4bd 0a77 193c 49c3 593e
000000c0: d78f 03be a808 013e 5a4d 003d 2c38 0ebc
000000d0: 64ac f43d 32b4 233e 1d5d 823d f0f6 2fbe
000000e0: 60c0 32bd 1989 4cbe 2cc4 d63d e318 993d
000000f0: a0d4 3c3d 6589 f9bd bc6a 5b3e ad53 2dbb
00000100: 088f 293e deb8 b23d 146c 0cbd 180d 443d
00000110: 99f3 f53d df38 52be d356 34bc 0784 4ebe
00000120: 811f ed3d f767 48be 68c0 a63d 3a99 0c3e
00000130: 83a8 883d 096f 36bd 6496 d2bd 0868 4dbd
00000140: 2329 cbbd 1a6e 163d 549a 4ebe da81 413e
00000150: 4ea8 47bb 391a 6a3c 5dd5 593e cc07 3fbe
00000160: 7215 10be b8d2 1f3d 8549 0fbe 2b40 963d
00000170: c255 45be e440 323e 1fad 79bc c416 8f3d
00000180: 7206 90bd 8634 283e 088b 5cbc 63db d83c
00000190: 1d09 4dbb 0543 08be f6da 32be 2226 cabb
000001a0: cb42 c73d e3bc 92bd a781 25bd a50f 12be
000001b0: 9bf6 46be bb08 b83d 4cbc 55be 4cee 42be
000001c0: cbdc b43d fba5 f33c 8e3d 953d 10a2 a13d
000001d0: 92dd 4c3e 99dd 9cbd 295c 62bd 3399 693d
000001e0: 8f4b 55be fa63 65bd bed9 173e ae4d 33be
000001f0: bad1 32be 7f51 a0bd bd8c 893d 5230 15bc
0.17111433 0.18943529 -0.15168302 -0.08630874 -0.12989618 -0.1030137 -0.14281137 0.043420833
0.1363432 0.116756536 -0.0560231 -0.058856335 0.03364869 0.04038253 0.18886699 0.12282479
-0.20378341 -0.097873144 0.13163376 -0.04507429 -0.12509589 0.11217948 -0.018412963 -0.08573818
0.061085023 -0.123181894 0.056404047 0.18538682 0.08394011 0.009664731 0.19356108 0.085056566
-0.16651376 0.17454058 0.0948474 -0.07535946 -0.12386071 -0.03650371 -0.1751794 0.11842191
0.0029143333 0.19147226 -0.12197007 -0.033785567 -0.065090835 -0.08806137 0.00936676 0.21265902
-0.1284784 0.12600958 0.03132377 -0.008680385 0.119469434 0.15986708 0.06365416 -0.17184043
-0.043640494 -0.19974174 0.104866356 0.0747545 0.046101213 -0.12184409 0.21427435 -0.002644758
0.16558468 0.08726667 -0.03428276 0.04786405 0.12009353 -0.20529507 -0.011007029 -0.20167552
0.115782745 -0.1957091 0.08142167 0.13730326 0.06672766 -0.044539485 -0.10282591 -0.05014804
-0.099199556 0.036726095 -0.20176059 0.1889719 -0.0030465308 0.0142884785 0.21272798 -0.18655318
-0.1407068 0.039019316 -0.13992889 0.07336458 -0.19270995 0.17407566 -0.015239029 0.06986764
-0.07032479 0.16426286 -0.013460882 0.0264718 -0.003128595 -0.13306816 -0.1746634 -0.0061690966
0.097295366 -0.071649335 -0.04040685 -0.1426378 -0.1943001 0.0898604 -0.20872611 -0.19036216
0.088311754 0.029742232 0.07287131 0.07892239 0.20006397 -0.07659454 -0.055263672 0.057030868
-0.20829605 -0.05600355 0.14829156 -0.17510101 -0.17462817 -0.07828044 0.06716297 -0.009105759
