Results/test17/SnowBall.onnx (onnx, 141414 bytes, 6 tensors)

action_model._discrete_distribution.branches.0.bias f4 [4]
0.0 0.0 0.0 0.0
00000000: 0000 0000 0000 0000 0000 0000 0000 0000

action_model._discrete_distribution.branches.0.weight f4 [4, 128]
-0.0030609057 -0.008662826 -0.00048989017 -0.006805016 -0.0027495886 0.001909891 -0.00050327386 -0.018066132
0.0003314843 -0.0066180476 -0.003608266 -0.0015564807 0.00065010384 -0.01703185 0.0010528275 -0.0063916445
0.0061301957 -0.0139522 0.0025349048 -0.0022399267 0.008341598 -0.00331629 0.0014188646 0.0144087365
-0.0015340339 0.02144208 0.0030390953 -0.0063533247 -0.01411179 -0.02103632 0.0057871123 0.016137786
0.004159235 0.012262152 0.010741855 -0.003473761 0.014333985 -0.0051173437 0.00033176862 0.003528043
-0.0011208114 -0.0012071865 0.0036874493 0.0047424873 -0.010583589 -0.0043943417 -0.01951024 0.0013680721
-0.0021621382 -0.005624568 0.0072891847 -0.00049229135 -0.0036811847 -0.009002796 -0.008672975 0.002875282
0.0042249705 0.003324393 0.0019411565 0.0044404855 -0.010908916 -0.0074424855 0.010016609 0.004559422
-0.00248914 -0.008895013 0.0066906824 -0.0037296098 0.024252905 0.0065226853 0.0041101156 -0.0009188178
-0.011125369 0.018820105 0.00601469 -0.007766422 -0.008051331 0.0041615195 0.012395751 0.005097133
0.0033866868 -0.018855203 -0.014407426 -0.0036465705 -0.000624749 -0.017522747 -9.1291164e-05 0.012514891
-0.022393659 0.009698584 0.015099386 0.010915677 -0.0038093277 -0.0043917056 -0.0029456893 0.013179746
0.00075510656 -0.00089774834 0.00828225 0.0064699487 0.01618518 -0.009514397 -0.004079483 0.002767592
-0.00428439 0.008940073 -0.009182862 0.003778599 0.0065416503 -0.0023515744 0.013695021 -0.0037830833
-0.010727595 0.0054927543 -0.0003565526 0.020848878 0.0031896268 0.0071561784 -0.005938837 -0.0008017661
-0.011702925 0.0072873696 0.006516633 0.0050839297 -0.018004311 -0.0016854297 0.0044885688 0.0077549233
0.0056810654 0.010723797 -0.013684875 -0.0015573067 0.00976577 -0.010065385 0.008688762 -0.0022324007
-0.017446073 0.0042885873 0.0035352823 0.0026896254 0.00601817 -0.005750752 -0.008030868 -0.002358977
0.00563641 -0.010598016 -0.009078741 0.010851912 0.006390688 -0.008241851 -0.008806582 -0.0051782723
0.004026959 -0.012675687 -0.008267041 -0.011760504 0.0034595 0.005061341 -0.008382092 0.0065980703
0.0052054566 0.0025516178 0.0016972909 -0.0072138547 -0.001942103 -0.007685866 0.009724809 0.0025094633
-0.012456381 -0.008132971 -0.018238692 -0.007650578 0.003772561 0.0038388798 0.0033044473 0.013187522
-0.001043308 0.007901619 0.015935464 0.0027686078 0.00049882015 0.0042587407 0.009303158 0.0036615145
0.0022158881 0.004796483 -0.01383847 -0.0037890964 0.014074099 -0.012725121 0.014037085 -0.004830506
0.014580752 0.0037768134 -0.011517382 -0.018387968 0.0061725676 -0.005964607 0.0044579413 -0.004552008
0.008668243 0.008628703 -0.007945049 0.0023347938 0.0018911026 0.007456442 -0.0035177853 0.006542907
-0.006458813 -0.00037566343 -0.010355428 -0.006632782 -0.0042669643 0.0025484522 0.008110678 -0.002697423
0.01170168 -0.009431438 -0.0034099855 -0.0035714281 -0.0045291493 0.008292965 -0.009498619 -0.0038676765
0.0017781232 0.0054334956 0.013065261 0.010288692 0.002376962 0.0018464131 -0.00023467944 -5.067172e-05
-0.0006831601 0.010874885 -0.0057849353 0.0109880855 -0.027392864 -0.010664898 0.0012121277 0.011247411
0.00033095485 -0.0031421953 0.008129956 0.0004309232 0.007356547 -0.007105147 0.008464112 -0.0017840558
-0.0018672306 -0.0028401122 0.009965974 0.0040566474 0.005666218 0.019492123 -0.0010414523 -0.010918661
00000000: 7a99 48bb 87ee 0dbc f96b 00ba 9dfc debb
00000010: 7132 34bb 4f55 fa3a 23ee 03ba 6dff 93bc
00000020: 12cb ad39 35dc d8bb a878 6cbb d302 ccba
00000030: bb6b 2a3a 6186 8bbc 07ff 893a 0071 d1bb
00000040: cfdf c83b c597 64bc a520 263b bccb 12bb
00000050: 33ab 083c 1d56 59bb 32f9 b93a 9f12 6c3c
00000060: a311 c9ba 4da7 af3c 8f2b 473b 8d2f d0bb
00000070: 2335 67bc 5c54 acbc d1a1 bd3b 6433 843c
00000080: 314a 883b 31e7 483c 9bfe 2f3c 0aa8 63bb
00000090: 17d9 6a3c 64af a7bb 3bf1 ad39 bd36 673b
000000a0: 31e8 92ba 753a 9eba 22a9 713b de66 9b3b
000000b0: ca66 2dbc 69fe 8fbb f0d3 9fbc e250 b33a
000000c0: a9b2 0dbb 4c4e b8bb 1dda ee3b 1d0d 01ba
000000d0: 0840 71bb 7780 13bc 1819 0ebc 3a6f 3c3b
000000e0: 9f71 8a3b 0fde 593b 676e fe3a 7e81 913b
000000f0: 4fbb 32bc 18e0 f3bb b41c 243c 3467 953b
00000100: d720 23bb 63bc 11bc 833d db3b 786c 74bb
00000110: 07ae c63c 40bc d53b 26ae 863b d2dc 70ba
00000120: 2e47 36bc 9f2c 9a3c e016 c53b 787d febb
00000130: bbe9 03bc 5b5d 883b 8c17 4b3c da05 a73b
00000140: 2df3 5d3b 3a76 9abc 200d 6cbc 4dfb 6ebb
00000150: 32c6 23ba dd8b 8fbc 9273 bfb8 420b 4d3c
00000160: e872 b7bc cfe6 1e3c 6a63 773c abd7 323c
00000170: eaa5 79bb 4ce8 8fbb 770c 41bb ddef 573c
00000180: 58f2 453a df56 6bba 46b2 073c dd01 d43b
00000190: c896 843c 46e2 1bbc 2fad 85bb 7d60 353b
000001a0: 1164 8cbb 6279 123c b773 16bc 5fa2 773b
000001b0: 575b d63b df1c 1abb 1561 603c 9bed 77bb
000001c0: cbc2 2fbc 90fc b33b aeef bab9 44cb aa3c
000001d0: 0f09 513b 607e ea3b 939a c2bb 9d2d 52ba
000001e0: a0bd 3fbc e3ca ee3b 7b89 d53b 1897 a63b
000001f0: c77d 93bc a3e9 dcba d814 933b 031d fe3b
00000200: 3b28 ba3b ddb2 2f3c 8736 60bc 8b1e ccba
00000210: 9c00 203c 49e9 24bc 4f5b 0e3c 784d 12bb
00000220: 11eb 8ebc 4787 8c3b 32b0 673b 6d44 303b
00000230: 1234 c53b ce70 bcbb e793 03bc 1199 1abb
00000240: a2b1 b83b 4da3 2dbc 00bf 14bc 38cc 313c
00000250: fa68 d13b d408 07bc 7b49 10bc 7fae a9bb
00000260: 95f4 833b afad 4fbc 7c72 07bc 21af 40bc
00000270: c7b8 623b 9bd9 a53b 0b55 09bc a034 d83b
00000280: 8992 aa3b 0b39 273b a277 de3a 3362 ecbb
00000290: 2a8e feba b8d9 fbbb ce54 1f3c cf75 243b
000002a0: d915 4cbc 2740 05bc 4f69 95bc b3b1 fabb
000002b0: 123d 773b b795 7b3b 6d8f 583b 7a10 583c
000002c0: 9bbf 88ba cb75 013c 178b 823c 8871 353b
000002d0: 41c3 023a e88c 8b3b 466c 183c 05f6 6f3b
000002e0: 6f38 113b d12b 9d3b c0ba 62bc 7d52 78bb
000002f0: 0d97 663c 077d 50bc cdfb 653c 3949 9ebb
00000300: 1be4 6e3c 6a84 773b 67b3 3cbc 5da2 96bc
00000310: 4043 ca3b c072 c3bb ec13 923b 0329 95bb
00000320: 3f05 0e3c 675f 0d3c f32b 02bc 5703 193b
00000330: e0de f73a 2b55 f43b a58a 66bb e265 d63b
00000340: 73a4 d3bb b1f4 c4b9 d0a9 29bc cf57 d9bb
00000350: e4d1 8bbb ef03 273b a6e2 043c 40c7 30bb
00000360: 67b8 3f3c 5186 1abc 107a 5fbb 9f0e 6abb
00000370: 4269 94bb 37df 073c 18a0 1bbc d878 7dbb
00000380: ea0f e93a 770b b23b ad0f 563c e791 283c
00000390: cec6 1b3b 5803 f23a 4814 76b9 5888 54b8
000003a0: 1916 33ba 932c 323c 8e8f bdbb 5f07 343c
000003b0: 0067 e0bc d3bb 2ebc 42e0 9e3a 1047 383c
000003c0: 0284 ad39 4aed 4dbb 8233 053c 88ed e139
000003d0: 300f f13b 4bd2 e8bb 0fad 0a3c fbd6 e9ba
000003e0: ddbd f4ba 2d21 3abb 5348 233c a0ed 843b
000003f0: afab b93b f2ad 9f3c 5781 88ba 2fe4 32bc

network_body._body_endoder.seq_layers.0.bias f4 [128]
0.0 0.0 0.0 0.0 0.0 0.0 0.0 0.0
0.0 0.0 0.0 0.0 0.0 0.0 0.0 0.0
0.0 0.0 0.0 0.0 0.0 0.0 0.0 0.0
0.0 0.0 0.0 0.0 0.0 0.0 0.0 0.0
0.0 0.0 0.0 0.0 0.0 0.0 0.0 0.0
0.0 0.0 0.0 0.0 0.0 0.0 0.0 0.0
0.0 0.0 0.0 0.0 0.0 0.0 0.0 0.0
0.0 0.0 0.0 0.0 0.0 0.0 0.0 0.0
0.0 0.0 0.0 0.0 0.0 0.0 0.0 0.0
0.0 0.0 0.0 0.0 0.0 0.0 0.0 0.0
0.0 0.0 0.0 0.0 0.0 0.0 0.0 0.0
0.0 0.0 0.0 0.0 0.0 0.0 0.0 0.0
0.0 0.0 0.0 0.0 0.0 0.0 0.0 0.0
0.0 0.0 0.0 0.0 0.0 0.0 0.0 0.0
0.0 0.0 0.0 0.0 0.0 0.0 0.0 0.0
0.0 0.0 0.0 0.0 0.0 0.0 0.0 0.0
00000000: 0000 0000 0000 0000 0000 0000 0000 0000
00000010: 0000 0000 0000 0000 0000 0000 0000 0000
00000020: 0000 0000 0000 0000 0000 0000 0000 0000
00000030: 0000 0000 0000 0000 0000 0000 0000 0000
00000040: 0000 0000 0000 0000 0000 0000 0000 0000
00000050: 0000 0000 0000 0000 0000 0000 0000 0000
00000060: 0000 0000 0000 0000 0000 0000 0000 0000
00000070: 0000 0000 0000 0000 0000 0000 0000 0000
00000080: 0000 0000 0000 0000 0000 0000 0000 0000
00000090: 0000 0000 0000 0000 0000 0000 0000 0000
000000a0: 0000 0000 0000 0000 0000 0000 0000 0000
000000b0: 0000 0000 0000 0000 0000 0000 0000 0000
000000c0: 0000 0000 0000 0000 0000 0000 0000 0000
000000d0: 0000 0000 0000 0000 0000 0000 0000 0000
000000e0: 0000 0000 0000 0000 0000 0000 0000 0000
000000f0: 0000 0000 0000 0000 0000 0000 0000 0000
00000100: 0000 0000 0000 0000 0000 0000 0000 0000
00000110: 0000 0000 0000 0000 0000 0000 0000 0000
00000120: 0000 0000 0000 0000 0000 0000 0000 0000
00000130: 0000 0000 0000 0000 0000 0000 0000 0000
00000140: 0000 0000 0000 0000 0000 0000 0000 0000
00000150: 0000 0000 0000 0000 0000 0000 0000 0000
00000160: 0000 0000 0000 0000 0000 0000 0000 0000
00000170: 0000 0000 0000 0000 0000 0000 0000 0000
00000180: 0000 0000 0000 0000 0000 0000 0000 0000
00000190: 0000 0000 0000 0000 0000 0000 0000 0000
000001a0: 0000 0000 0000 0000 0000 0000 0000 0000
000001b0: 0000 0000 0000 0000 0000 0000 0000 0000
000001c0: 0000 0000 0000 0000 0000 0000 0000 0000
000001d0: 0000 0000 0000 0000 0000 0000 0000 0000
000001e0: 0000 0000 0000 0000 0000 0000 0000 0000
000001f0: 0000 0000 0000 0000 0000 0000 0000 0000

network_body._body_endoder.seq_layers.0.weight f4 [128, 138]
0.04546587 -0.015483354 0.09240189 0.03445031 -0.04885244 0.10356693 0.012919222 -0.021050688
-0.06564037 -0.027964424 0.02869199 -0.0054780673 0.05317343 -0.1012508 0.034865174 -0.1710142
-0.064527705 -0.07140766 -0.008430892 -0.047305427 -0.00045631255 0.09925183 0.019604843 -0.06969609
0.16455562 -0.033082217 -0.15026553 0.06101919 0.16428845 -0.03330806 -0.050363977 -0.12950768
0.07598202 -0.109490015 -0.011674571 0.07104864 0.09742469 -0.02068646 -0.02631082 0.12017573
0.13005462 0.009824358 0.14004269 -0.096327215 -0.07106964 -0.022836156 0.04686953 0.0077464604
0.011427311 -0.025123684 0.027096469 -0.010157297 0.101882584 0.11497038 0.013503174 -0.071858495
-0.003458182 0.022996472 -0.08865438 0.05298413 -0.1739494 0.023095861 0.14901094 0.0061224275
-0.04613007 0.024814228 0.052770738 0.14137131 0.03498635 -0.071727216 0.16299163 0.17182183
-0.004250479 0.02733875 -0.120041005 0.093000315 -0.058081865 0.087841675 0.09743434 0.049406234
0.09088287 -0.06981339 0.03089321 -0.12289846 -0.07195243 0.05481368 0.027599841 0.0067383163
-0.005771114 -0.042189937 -0.023803579 0.042411692 -0.31986293 0.041389275 -0.039124947 -0.1360794
-0.046390384 -0.10087233 -0.03952681 -0.10996995 -0.053470135 -0.005627548 0.16122256 -0.06498502
0.08138176 0.0393 0.031893115 0.023372116 0.102206714 -0.084666975 0.058390874 0.017227748
-0.084647015 0.16178788 0.2014693 -0.0972564 -0.039626263 -0.04407518 -0.0015858954 -0.24422349
-0.16440122 -0.0054168245 -0.07817822 0.12615582 0.11065137 -0.03415899 -0.13972099 0.037506662
-0.044225063 -0.09637985 -0.2355447 -0.0019942839 0.10540515 -0.0031344623 -0.11873607 0.025040317
-0.06712662 -0.20045428 -0.05649666 0.073796555 0.07539241 -0.103229545 0.015896043 0.1101937
-0.07984427 -0.04990254 0.0042677214 -0.19595762 -0.04909915 0.12355273 0.16160879 -0.057970498
0.014604457 0.0032283154 0.016411029 -0.07410601 0.012520438 0.06462942 -0.048756868 0.0706613
0.073363684 -0.10022056 -0.14589785 -0.06205422 -0.061400924 -0.115194336 -0.008388483 0.007784547
0.003825999 0.019772854 0.054052163 0.13536589 0.018662307 0.012211499 -0.055767935 -0.14451565
0.08328523 0.041480802 0.0941873 0.012601945 0.098813094 0.07594166 -0.018620273 -0.05885164
-0.0071829148 0.013260645 -0.027710134 -0.058695395 0.046389896 -0.013556619 0.0090824785 0.030612318
0.088324174 -0.0795136 -0.014269008 0.008528488 0.1253793 -0.18520875 0.12299109 -0.030438611
-0.072658606 0.06024047 -0.114179745 0.06165244 0.0044875066 -0.12836325 -0.10404423 0.067700684
-0.08513067 0.05511228 -0.04055119 0.06437966 0.0045065694 -0.14592618 -0.015931286 -0.044616625
-0.044837907 0.08239962 -0.07249611 -0.042959858 0.019538514 -0.02852957 -0.04748804 0.030305497
0.0130201215 0.021873562 0.13540745 0.041391827 0.024081187 0.04562357 0.1066838 -0.002478683
-0.041602835 0.21873955 -0.11705218 0.19621876 -0.037363764 0.16208111 -0.08809495 0.02984737
-0.19151497 0.16851962 -0.07246045 -0.024607396 0.011008714 0.12927233 0.08064967 0.05011475
0.08424882 0.02967006 -0.13435099 0.013648895 0.08189671 0.0043698163 -0.0705556 -0.055376317
00000000: 6c3a 3a3d e5ad 7dbc 343d bd3d c51b 0d3d
00000010: 7f19 48bd e61a d43d 25ab 533c 7e72 acbc
00000020: 756e 86bd a615 e5bc 770b eb3c 5c81 b3bb
00000030: 62cc 593d 945c cfbd c9ce 0e3d 591e 2fbe
00000040: 1a27 84bd 2e3e 92bd b921 0abc 56c3 41bd
00000050: 3c3d efb9 8b44 cb3d 569a a03c d3bc 8ebd
00000060: 4581 283e 3881 07bd 35df 19be 42ef 793d
00000070: 3b3b 283e 086e 08bd 754a 4ebd a99d 04be
00000080: 769c 9b3d 4d3c e0bd b346 3fbc f381 913d
00000090: 9986 c73d a776 a9bc ca89 d7bc b11e f63d
000000a0: 0a2d 053e 58f6 203c 5a67 0f3e 3447 c5bd
000000b0: f68c 91bd e412 bbbc 44fa 3f3d 05d6 fd3b
000000c0: 9e39 3b3c 2fd0 cdbc 6af9 dd3c cb6a 26bc
000000d0: d1a7 d03d 9775 eb3d 6b3c 5d3c 8c2a 93bd
000000e0: aba2 62bb 1963 bc3c 6d90 b5bd e305 593d
000000f0: cb1f 32be 8833 bd3c 5396 183e a59e c83b
00000100: e2f2 3cbd 3547 cb3c 2126 583d a4c3 103e
00000110: d94d 0f3d b8e5 92bd 47e7 263e 10f2 2f3e
00000120: 9a47 8bbb 84f5 df3c 0fd8 f5bd f376 be3d
00000130: 40e7 6dbd 56e6 b33d a88b c73d 315e 4a3d
00000140: cc20 ba3d 53fa 8ebd c213 fd3c 30b2 fbbd
00000150: cc5b 93bd 4f84 603d 1019 e23c 18cd dc3b
00000160: 9d1b bdbb 5bcf 2cbd b9ff c2bc e2b7 2d3d
00000170: 13c5 a3be cd87 293d 7b41 20bd 6658 0bbe
00000180: d803 3ebd 2796 cebd dde6 21bd ed37 e1bd
00000190: 8003 5bbd 4b67 b8bb 8717 253e de16 85bd
000001a0: 7bab a63d 09f9 203d 5ba2 023d e176 bf3c
000001b0: c151 d13d e165 adbd 452b 6f3d 3521 8d3c
000001c0: 6a5b adbd b9ab 253e f84d 4e3e 5d2e c7bd
000001d0: 264f 22bd 2d88 34bd d2dd cfba b915 7abe
000001e0: cb58 28be 9e7f b1bb e71b a0bd fe2e 013e
000001f0: 2f9d e23d 4cea 0bbd 0513 0fbe 96a0 193d
00000200: 5725 35bd cc62 c5bd a132 71be 88b2 02bb
00000210: a8de d73d 8d6b 4dbb e62b f3bd 5a21 cd3c
00000220: ae79 89bd e343 4dbe 0b69 67bd a622 973d
00000230: 5667 9a3d 036a d3bd 6b38 823c 3cad e13d
00000240: 6585 a3bd 9b66 4cbd 3ed8 8b3b 1da9 48be
00000250: 311c 49bd 3709 fd3d c67c 253e 7972 6dbd
00000260: 8847 6f3c 2592 533b 6c70 863c e4c4 97bd
00000270: 8622 4d3c 6e5c 843d 48b5 47bd dfb6 903d
00000280: b33f 963d 7040 cdbd 3f66 15be 912c 7ebd
00000290: 897f 7bbd 02eb ebbd d96f 09bc 8315 ff3b
000002a0: 9dbd 7a3b aefa a13c cd65 5d3d 5b9d 0a3e
000002b0: b2e1 983c bd12 483c eb6c 64bd e9fb 13be
000002c0: 7291 aa3d c6e7 293d 45e5 c03d 6378 4e3c
000002d0: 855e ca3d 4d87 9b3d 8b89 98bc 6b0e 71bd
000002e0: a85e ebbb 2d43 593c 5d00 e3bc 956a 70bd
000002f0: 5503 3e3d 951c 5ebc adce 143c afc6 fa3c
00000300: 4ee3 b43d 07d8 a2bd 8fc8 69bc 12bb 0b3c
00000310: 6e63 003e 5da7 3dbe c1e2 fb3d 655a f9bc
00000320: 09ce 94bd b6be 763d 12d7 e9bd 4587 7c3d
00000330: ef0b 933b a871 03be 2415 d5bd a8a6 8a3d
00000340: fd58 aebd 6abd 613d 0119 26bd 7cd9 833d
00000350: d8ab 933b ac6d 15be 5482 82bc ecbf 36bd
00000360: f4a7 37bd 22c1 a83d d778 94bd adf6 2fbd
00000370: 3c0f a03c d8b6 e9bc d282 42bd 3c43 f83c
00000380: 5952 553c 2f30 b33c 40a8 0a3e 7a8a 293d
00000390: e945 c53c c8df 3a3d 097d da3d 6671 22bb
000003a0: bc67 2abd 43fd 5f3e 0eb9 efbd 92ed 483e
000003b0: bf0a 19bd 97f8 253e 206b b4bd 7982 f43c
000003c0: 801c 44be 6890 2c3e 2566 94bd 7395 c9bc
000003d0: e55d 343c f75f 043e a72b a53d 2045 4d3d
000003e0: a58a ac3d a00e f33c 4e93 09be 9d9f 5f3c
000003f0: 76b9 a73d ad30 8f3b 747f 90bd 47d2 62bd

network_body._body_endoder.seq_layers.2.bias f4 [128]
0.0 0.0 0.0 0.0 0.0 0.0 0.0 0.0
0.0 0.0 0.0 0.0 0.0 0.0 0.0 0.0
0.0 0.0 0.0 0.0 0.0 0.0 0.0 0.0
0.0 0.0 0.0 0.0 0.0 0.0 0.0 0.0
0.0 0.0 0.0 0.0 0.0 0.0 0.0 0.0
0.0 0.0 0.0 0.0 0.0 0.0 0.0 0.0
0.0 0.0 0.0 0.0 0.0 0.0 0.0 0.0
0.0 0.0 0.0 0.0 0.0 0.0 0.0 0.0
0.0 0.0 0.0 0.0 0.0 0.0 0.0 0.0
0.0 0.0 0.0 0.0 0.0 0.0 0.0 0.0
0.0 0.0 0.0 0.0 0.0 0.0 0.0 0.0
0.0 0.0 0.0 0.0 0.0 0.0 0.0 0.0
0.0 0.0 0.0 0.0 0.0 0.0 0.0 0.0
0.0 0.0 0.0 0.0 0.0 0.0 0.0 0.0
0.0 0.0 0.0 0.0 0.0 0.0 0.0 0.0
0.0 0.0 0.0 0.0 0.0 0.0 0.0 0.0
00000000: 0000 0000 0000 0000 0000 0000 0000 0000
00000010: 0000 0000 0000 0000 0000 0000 0000 0000
00000020: 0000 0000 0000 0000 0000 0000 0000 0000
00000030: 0000 0000 0000 0000 0000 0000 0000 0000
00000040: 0000 0000 0000 0000 0000 0000 0000 0000
00000050: 0000 0000 0000 0000 0000 0000 0000 0000
00000060: 0000 0000 0000 0000 0000 0000 0000 0000
00000070: 0000 0000 0000 0000 0000 0000 0000 0000
00000080: 0000 0000 0000 0000 0000 0000 0000 0000
00000090: 0000 0000 0000 0000 0000 0000 0000 0000
000000a0: 0000 0000 0000 0000 0000 0000 0000 0000
000000b0: 0000 0000 0000 0000 0000 0000 0000 0000
000000c0: 0000 0000 0000 0000 0000 0000 0000 0000
000000d0: 0000 0000 0000 0000 0000 0000 0000 0000
000000e0: 0000 0000 0000 0000 0000 0000 0000 0000
000000f0: 0000 0000 0000 0000 0000 0000 0000 0000
00000100: 0000 0000 0000 0000 0000 0000 0000 0000
00000110: 0000 0000 0000 0000 0000 0000 0000 0000
00000120: 0000 0000 0000 0000 0000 0000 0000 0000
00000130: 0000 0000 0000 0000 0000 0000 0000 0000
00000140: 0000 0000 0000 0000 0000 0000 0000 0000
00000150: 0000 0000 0000 0000 0000 0000 0000 0000
00000160: 0000 0000 0000 0000 0000 0000 0000 0000
00000170: 0000 0000 0000 0000 0000 0000 0000 0000
00000180: 0000 0000 0000 0000 0000 0000 0000 0000
00000190: 0000 0000 0000 0000 0000 0000 0000 0000
000001a0: 0000 0000 0000 0000 0000 0000 0000 0000
000001b0: 0000 0000 0000 0000 0000 0000 0000 0000
000001c0: 0000 0000 0000 0000 0000 0000 0000 0000
000001d0: 0000 0000 0000 0000 0000 0000 0000 0000
000001e0: 0000 0000 0000 0000 0000 0000 0000 0000
000001f0: 0000 0000 0000 0000 0000 0000 0000 0000

network_body._body_endoder.seq_layers.2.weight f4 [128, 128]
-0.065581225 -0.12967932 -0.016370034 -0.046792973 0.032935936 -0.012043234 0.11274742 -0.04446197
-0.13411878 -0.011700431 0.0038701405 0.0149038145 0.098379955 -0.051676676 0.16764067 -0.15661187
0.10988113 -0.045043834 -0.09340863 0.08557322 0.04156058 0.029147837 -0.051510464 0.02521509
0.08692902 0.060026716 -0.042579334 0.086337514 0.06376151 0.08794783 -0.17292929 0.028643865
-0.022359667 0.012231224 0.12913644 -0.2071317 0.08546087 -0.072013445 -0.03585989 -0.11204946
0.030750217 -0.032151315 -0.057381067 -0.096214965 0.13631648 -0.16998251 -0.10340537 0.020641934
0.026264636 -0.008331499 -0.08770934 0.0044828383 0.058955785 -0.03486682 -0.1540587 0.04946345
-0.0024999336 0.060088597 -0.23571578 -0.027435808 -0.1412644 -0.15308617 -0.008458094 0.14940104
0.1242132 0.07576936 0.17847049 0.014718704 -0.11706894 0.017739657 0.011524937 0.09302598
-0.050293997 0.13892242 0.061239053 -0.0041283267 0.035646487 -0.08882422 -0.04832146 -0.022944853
0.13798791 0.042409644 0.057809502 -0.007969091 0.040498704 -0.12104585 0.10905781 -0.120528206
0.0046306173 0.027713565 -0.059078496 -0.02857469 0.08277341 0.0014197299 -0.039103214 -0.13383524
-0.06691833 0.024351459 0.0021022083 -0.07910445 0.063139394 -0.0032609254 0.034166858 -0.0025732564
-0.15159191 -0.12049281 -0.0009458652 -0.028325705 -0.03774725 0.04473553 -0.11675996 0.022590535
-0.118961014 0.21139148 -0.12551624 0.01998318 0.081858106 -0.09703511 0.13769078 -0.15294488
0.07078686 -0.0822319 -0.049171437 -0.04796712 -0.19544454 -0.075879194 0.05417591 0.045366425
-0.017351503 -0.032323346 -0.10512619 0.03921149 0.014104828 -0.0036694033 -5.436416e-05 -0.077644385
0.03755339 -0.14524783 -0.036886103 0.06994823 0.09179634 -0.05858102 -0.2094314 0.00019621778
0.18259528 0.026224311 -0.04880643 0.085507214 -0.10482042 -0.14381287 0.049874276 -0.002306269
-0.20906551 0.002268753 -0.03366013 0.026075708 0.08464712 -0.03920021 -0.013369508 0.056282934
0.13797656 0.044158246 0.021040654 -0.19792733 0.08029132 -0.07923679 0.020101536 0.1073199
0.007835695 0.04245979 -0.066544496 -0.10604642 0.061978627 -0.12480477 0.013933576 -0.07555687
0.13967147 -0.05417821 0.10989976 0.07047375 -0.022589257 -0.04097402 -0.20224096 0.07109254
-0.05189638 -0.11152486 -0.10056582 -0.094845325 -0.13863312 0.050561905 -0.015018156 0.03665586
0.07479484 -0.011528115 0.024244668 -0.022998514 -0.049351867 -0.030453442 -0.08514054 0.13568752
-0.20414977 0.017619355 0.11464989 -0.002676566 -0.048494585 0.05540929 -0.016042948 0.00059249625
0.014639851 -0.07043049 0.018784257 0.043703236 0.009465775 -0.046530347 -0.00883128 -0.013499882
0.218863 -0.007832098 0.14062005 0.013222235 0.22565058 -0.12012573 0.12767977 -0.033620685
0.054755963 -0.059457354 -0.04334696 0.08488727 0.014223326 0.069933385 -0.038267896 -0.1632062
-0.06652232 -0.102739066 0.018277941 -0.08179785 -0.0638174 -0.09973274 0.015260989 0.014066093
0.035495713 -0.013296816 0.14412314 -0.11900816 -0.025553433 -0.12483243 0.008594828 0.093633235
-0.12132686 -0.03774985 0.062249288 0.052664403 0.14459768 0.072601736 -0.13446149 -0.024922146
00000000: 734f 86bd a8ca 04be 731a 86bc fda9 3fbd
00000010: d5e7 063d fc50 45bc 1fe8 e63d c11d 36bd
00000020: 6f56 09be 2ab3 3fbc 2fa2 7d3b 212f 743c
00000030: 6e7b c93d ecaa 53bd ffa9 2b3e dd5e 20be
00000040: 5c09 e13d e27f 38bd 064d bfbd 0341 af3d
00000050: 6d3b 2a3d 72c7 ee3c a3fc 52bd e08f ce3c
00000060: d807 b23d 93de 753d ab67 2ebd b9d1 b03d
00000070: 6595 823d fe1d b43d 6014 31be 8aa6 ea3c
00000080: 9f2b b7bc 7965 483c 583c 043e 551a 54be
00000090: 1c06 af3d c97b 93bd d2e1 12bd 307a e5bd
000000a0: e1e7 fb3c 19b1 03bd 6908 6bbd 5a0c c5bd
000000b0: 8c96 0b3e e50f 2ebe 32c6 d3bd 4619 a93c
000000c0: ef28 d73c d780 08bc f4a0 b3bd c6e4 923b
000000d0: 9f7b 713d 83d0 0ebd 90c1 1dbe 309a 4a3d
000000e0: edd5 23bb 761f 763d 7a5f 71be 0fc1 e0bc
000000f0: 9da7 10be 9fc2 1cbe d193 0abc 96fc 183e
00000100: 7d63 fe3d f72c 9b3d f8c0 363e b826 713c
00000110: d7c1 efbd c252 913c 17d3 3c3c 6884 be3d
00000120: 1401 4ebd ae41 0e3e cdd5 7a3d ea46 87bb
00000130: 0d02 123d 79e9 b5bd b9ec 45bd d8f6 bbbc
00000140: b44c 0d3e bcb5 2d3d a8c9 6c3d ca90 02bc
00000150: f8e1 253d e3e6 f7bd b359 df3d 7ed7 f6bd
00000160: 6fbc 973b 8f07 e33c 4bfc 71bd 7815 eabc
00000170: 1b85 a93d 3b16 ba3a b12a 20bd 1b0c 09be
00000180: 7a0c 89bd b67c c73c 34c5 093b 8401 a2bd
00000190: 3a4f 813d 40b5 55bb 8cf2 0b3d 14a4 28bb
000001a0: e93a 1bbe efc4 f6bd f0f3 77ba 4f0b e8bc
000001b0: dc9c 1abd 9a3c 373d d91f efbd c90f b93c
000001c0: d5a1 f3bd 0277 583e 5487 00be c4b3 a33c
000001d0: 39a5 a73d 58ba c6bd d0fe 0c3e 959d 1cbe
000001e0: b4f8 903d 3369 a8bd fd67 49bd 2c79 44bd
000001f0: 9d22 48be 8d66 9bbd 8fe7 5d3d 25d2 393d
00000200: bd24 8ebc 7c65 04bd 664c d7bd 3a9c 203d
00000210: f017 673c 5f7a 70bb 1305 64b8 0504 9fbd
00000220: 95d1 193d d9bb 14be e215 17bd 0541 8f3d
00000230: b8ff bb3d a7f2 6fbd 2f75 56be cfbf 4d39
00000240: 42fa 3a3e 5ed4 d63c 40e9 47bd 681e af3d
00000250: 17ac d6bd ae43 13be f848 4c3d c624 17bb
00000260: 4515 56be 5caf 143b 34df 09bd b99c d53c
00000270: 785b ad3d 6690 20bd c80b 5bbc ef88 663d
00000280: ba49 0d3e 47df 343d 735d ac3c 76ad 4abe
00000290: c76f a43d e646 a2bd faab a43c 89ca db3d
000002a0: 4961 003c 51ea 2d3d 7b48 88bd de2e d9bd
000002b0: 4ddd 7d3d a599 ffbd a749 643c 8fbd 9abd
000002c0: 0a06 0f3e f9e9 5dbd 2013 e13d 8b54 903d
000002d0: 1b0d b9bc 60d4 27bd 4118 4fbe f798 913d
000002e0: 4c91 54bd 2567 e4bd 74f5 cdbd 443e c2bd
000002f0: d7f5 0dbe 001a 4f3d b60e 76bc 7424 163d
00000300: 092e 993d 6be0 3cbc c19c c63c 6167 bcbc
00000310: 2f25 4abd 7f79 f9bc 2a5e aebd abf1 0a3e
00000320: a30c 51be 7756 903c 90cd ea3d 5369 2fbb
00000330: 42a2 46bd daf4 623d 806c 83bc c051 1b3a
00000340: fcdb 6f3c dc3d 90bd 71e1 993c 2a02 333d
00000350: 5716 1b3c 9b96 3ebd 13b1 10bc 9c2e 5dbc
00000360: 9f1d 603e 3352 00bc b4fe 0f3e 13a2 583c
00000370: f210 673e 7b04 f6bd 7cbe 023e d8b5 09bd
00000380: ca47 603d 8e89 73bd 958c 31bd 61d9 ad3d
00000390: f408 693c 3c39 8f3d ccbe 1cbd 871f 27be
000003a0: db3c 88bd dc68 d2bd 9fbb 953c a285 a7bd
000003b0: b2b2 82bd ae40 ccbd 3a09 7a3c 7875 663c
000003c0: f463 113d e3da 59bc 0495 133e 8dba f3bd
000003d0: 6f55 d1bc 25a8 ffbd 52d1 0c3c c8c2 bf3d
000003e0: 377a f8bd 969f 1abd 1cf9 7e3d a1b6 573d
000003f0: 6a11 143e 38b0 943d 46b0 09be 8729 ccbc
