Results/test13/SnowBall/checkpoint.pt (torch, 287319 bytes, 14 tensors)

discrete_act_size_vector f4 [1, 2]
00000000: 0000 4040 0000 4040
3.0 3.0

network_body._body_endoder.seq_layers.0.weight f4 [128, 138]
00000000: 7c01 933d ced5 ef3d db6d 4f3e 1f6e 7a3c
00000010: 3fcf d83d 7819 92bc 937c 42bc 288f bdbd
00000020: 848b 03be 395a 92bd b6e0 693c a79e 293b
00000030: 1558 43bc a1d0 c03d 7d63 0cbe d1cc 1a3e
00000040: 0ad4 933d 094e b7bd a7b6 25bd 7e8a b33b
00000050: 4d0c a03c 787d a8bc dff2 01bb 2bcd 4cbe
00000060: adb2 bebd 4dbd 2f3c d866 e7bd beaf 82bc
00000070: a426 2c3d 32d0 05be a9f6 afbd 44bb 873b
00000080: 4c1c c5bd 3f28 193d 48db 80bd 03a7 0abe
00000090: 744c a83d 1c85 ad3b 242c 123d 47c1 48bd
000000a0: ba7f fa3d 7603 5a3e 3864 30be 1da1 42be
000000b0: 59ac 00be 48a6 81bc 90c7 bcbd 1def 1b3e
000000c0: 607e b2bb 589c 56bd b37a f539 6af1 8cbd
000000d0: a69d 9d3c a97f 613d fddc 073e e524 e3bd
000000e0: 42de 8cbd d900 033d a45a 50bd 0674 28be
000000f0: d5fb 6cbd c5e0 e83d 551a a53d bb78 813d
00000100: fcbc e53d 3efe 573d b3f1 c13d bd18 3a3e
00000110: b7a7 1fbe 0341 1abd 4818 f4bd 4b3f 1ebc
00000120: 668a 12bd 2bae e3bd 2559 783b 2099 423c
00000130: 44dc 9cbd 4b27 0a3e 52f7 4bbe 7f73 a73d
00000140: 2295 d63d dd88 89bc d3fc cfbd 91c9 853d
00000150: a840 103e 61a5 7fbd baa9 dc3a b053 963d
00000160: b648 05bb 4eb8 4dbd 9e06 73bd f1ae f6bd
00000170: 8fbc a1bc e532 8a3c 3d9b bbbd 65ba d23c
00000180: 1b13 f83a ae36 93ba dfba 553e 42b3 b63d
00000190: 6402 6abd add8 5cbd a014 943d f8ae 2fbe
000001a0: c2dd debb baa8 9ebc 0c9d 9c3c f410 33bd
000001b0: c69a a73d f922 153c be71 6cbd 624b f5bd
000001c0: 75f5 eb3c a069 8ebd 5d0d e0bd 4bf8 8bbd
000001d0: 7543 153e eb49 df3d c5f6 323d 9a36 ef3d
000001e0: d500 133d 92ce 5abd 45e2 003d b489 e6bd
000001f0: b40e d83d 410e b4bc 48c6 803d b74d 0fbe
00000200: bdef 28bc 706c bcbd 813b 1bbe 8c6f c0bd
00000210: 54b3 bdbc c5f4 5e3d 184d b43d 3189 7bbd
00000220: af02 0a3d 73c4 e6bd ce5f 953d 66b2 93bd
00000230: 45de 1abd 08dd 85bd 5d91 ca3b 7e68 54bd
00000240: 4f33 32bd 6e7f bc3c c499 843d e9df 923d
00000250: a03f 613d d0a5 ac3c d2ca fb3d a156 55bd
00000260: d25b a2bd 91ff dfbc 6108 a13d 9e6f fe3d
00000270: 9d3e 6b3e 8eb0 61bd 3508 1c3d 42c0 a33d
00000280: c0e0 9bbd ca46 fa3d b5ae 463d c50f d6bd
00000290: 7404 a23e 634d 51bd da19 493d 2cf7 153e
000002a0: bf0c 99bb cb7c 603d bcd9 10bd 3ba3 aa3d
000002b0: 2b83 2f3b e9ca 0f3c 9ab4 d8bd 09de b83d
000002c0: 1a22 573c 83e9 8bbd 2c5b 52bd b235 74be
000002d0: 51a6 a83b 6cbb 843d fda9 ab3d 061b 18bd
000002e0: d47b 3dbd 420f 1e3d af85 df3c fa15 c5bd
000002f0: a7e4 393c 20ed 043c 184b 763c c824 013e
00000300: 03ea 7a3d 7bde 99bc 8a0d 883d e68e 9f3d
00000310: 0c48 fc3c 029c 103e 5769 f53c dcd8 473c
00000320: 9239 4c3e b77c 6cbd 84a5 79bd 3016 6c3d
00000330: b0d7 8ebd 27d3 bb3d 90f8 c53c c258 943c
00000340: 61bc 95bd 911d 80bd 74d9 3ebe ebe9 0d3e
00000350: 0cd7 393c 4739 ca3c bb5e eebc fc41 70bd
00000360: 6bc2 dbbd 2a4d 39bd 6d25 c6bc 7658 2fbe
00000370: f0ff 3fbb d537 af3d 5038 d9bd b26c 46bd
00000380: e766 6dbd 26b7 0fbd 81d8 5a3d 1d1d 04be
00000390: ac0d 953d 2a90 9f3d 464a cabd 4e88 b03d
000003a0: 69da b23d 8aaa b63c 83d3 eb3d f99a 2abd
000003b0: dd69 8c3d 8e64 e43d aa3c bcbd bf83 9fbc
000003c0: 65bf d2bc d0a1 99bd 2818 5dbd a6cd 833d
000003d0: d93c 603d 1b59 033e 1646 8d3e 37b5 41bd
000003e0: 2273 f0bd 5ef8 603d 432c 033e c5ad b33d
000003f0: 472d 833d e358 cc3c 7263 aabd d39c e33d
0.071780175 0.11710702 0.2025675 0.015285044 0.10586404 -0.01783441 -0.011870521 -0.092558205
-0.1284619 -0.07146115 0.014274767 0.0025881918 -0.011922856 0.09414793 -0.13709827 0.15117194
0.072181776 -0.08950431 -0.040457394 0.005479156 0.019537115 -0.02056764 -0.00198286 -0.2000014
-0.093114235 0.010726285 -0.11298913 -0.015952941 0.042029038 -0.13067701 -0.085919686 0.004142197
-0.09624538 0.037391897 -0.062918246 -0.13540272 0.08217707 0.005295409 0.035686627 -0.04901245
0.12231393 0.21290383 -0.1722573 -0.19006772 -0.12565745 -0.01582636 -0.09217751 0.15227933
-0.005447194 -0.052395195 0.0004682146 -0.068819836 0.019240212 0.055053387 0.13267894 -0.110910214
-0.0687833 0.03198323 -0.05086769 -0.1645051 -0.057857353 0.113709964 0.08061663 0.06321856
0.112176865 0.0527327 0.094699286 0.181735 -0.15591322 -0.037659656 -0.11918694 -0.009658645
-0.03577652 -0.11117204 0.003789493 0.011877328 -0.076592 0.13491552 -0.19918564 0.08176326
0.104776636 -0.016788894 -0.10155644 0.06532586 0.14087164 -0.062413577 0.001683525 0.07340181
-0.0020337529 -0.050224595 -0.059332483 -0.12045086 -0.019743232 0.016869972 -0.09160469 0.025723645
0.0018926592 -0.0011231506 0.20872067 0.089209095 -0.057131186 -0.053917576 0.072304964 -0.17156589
-0.006801338 -0.019367564 0.019117855 -0.04371734 0.081838176 0.009102576 -0.05772566 -0.11977269
0.028803566 -0.0695374 -0.10940049 -0.068344675 0.14576514 0.109027706 0.04369237 0.11680336
0.035889465 -0.053419657 0.031465787 -0.112567335 0.105496794 -0.021979453 0.06287819 -0.1399449
-0.010311064 -0.0920037 -0.15159418 -0.09396276 -0.0231568 0.05443265 0.08803767 -0.061410133
0.033693966 -0.112679385 0.07293664 -0.07211761 -0.03780963 -0.06536299 0.0061818794 -0.051857464
-0.043505963 0.023009982 0.06474641 0.07171614 0.05499232 0.02107516 0.12294544 -0.05208457
-0.079276696 -0.027343543 0.07862926 0.12423633 0.22973104 -0.055100016 0.038093764 0.07995655
-0.07611227 0.12220533 0.048506457 -0.104522265 0.31644022 -0.051099192 0.04909692 0.1464507
-0.004670709 0.05480651 -0.035363898 0.08331915 0.0026781063 0.008776405 -0.10581322 0.09026725
0.013130689 -0.06831648 -0.05135648 -0.23848608 0.0051467796 0.064810604 0.08382032 -0.037135147
-0.04626067 0.03858877 0.027285425 -0.09623332 0.011346019 0.008113176 0.015032552 0.12611687
0.061258327 -0.018782845 0.06643207 0.077909276 0.030796073 0.14122012 0.029957457 0.012197699
0.19943836 -0.057736125 -0.060948864 0.057638347 -0.06974733 0.091711335 0.024166375 0.01810873
-0.07311321 -0.06255639 -0.1863764 0.13858764 0.011342775 0.024685515 -0.029097905 -0.058656678
-0.10730442 -0.045239605 -0.024187768 -0.17123589 -0.0029296838 0.08555571 -0.10606444 -0.048443504
-0.057959463 -0.035086773 0.05342913 -0.12901731 0.07277998 0.07791169 -0.09877448 0.08619748
0.08733065 0.022298116 0.11514952 -0.0416517 0.06856129 0.11151992 -0.09191258 -0.019472001
-0.02572603 -0.075015664 -0.053978115 0.06435709 0.05474553 0.1282696 0.27592534 -0.04729196
-0.1174071 0.05492436 0.12809853 0.08773378 0.0640512 0.024944728 -0.08319749 0.11113896

network_body._body_endoder.seq_layers.0.bias f4 [128]
00000000: 0000 0000 0000 0000 0000 0000 0000 0000
00000010: 0000 0000 0000 0000 0000 0000 0000 0000
00000020: 0000 0000 0000 0000 0000 0000 0000 0000
00000030: 0000 0000 0000 0000 0000 0000 0000 0000
00000040: 0000 0000 0000 0000 0000 0000 0000 0000
00000050: 0000 0000 0000 0000 0000 0000 0000 0000
00000060: 0000 0000 0000 0000 0000 0000 0000 0000
00000070: 0000 0000 0000 0000 0000 0000 0000 0000
00000080: 0000 0000 0000 0000 0000 0000 0000 0000
00000090: 0000 0000 0000 0000 0000 0000 0000 0000
000000a0: 0000 0000 0000 0000 0000 0000 0000 0000
000000b0: 0000 0000 0000 0000 0000 0000 0000 0000
000000c0: 0000 0000 0000 0000 0000 0000 0000 0000
000000d0: 0000 0000 0000 0000 0000 0000 0000 0000
000000e0: 0000 0000 0000 0000 0000 0000 0000 0000
000000f0: 0000 0000 0000 0000 0000 0000 0000 0000
00000100: 0000 0000 0000 0000 0000 0000 0000 0000
00000110: 0000 0000 0000 0000 0000 0000 0000 0000
00000120: 0000 0000 0000 0000 0000 0000 0000 0000
00000130: 0000 0000 0000 0000 0000 0000 0000 0000
00000140: 0000 0000 0000 0000 0000 0000 0000 0000
00000150: 0000 0000 0000 0000 0000 0000 0000 0000
00000160: 0000 0000 0000 0000 0000 0000 0000 0000
00000170: 0000 0000 0000 0000 0000 0000 0000 0000
00000180: 0000 0000 0000 0000 0000 0000 0000 0000
00000190: 0000 0000 0000 0000 0000 0000 0000 0000
000001a0: 0000 0000 0000 0000 0000 0000 0000 0000
000001b0: 0000 0000 0000 0000 0000 0000 0000 0000
000001c0: 0000 0000 0000 0000 0000 0000 0000 0000
000001d0: 0000 0000 0000 0000 0000 0000 0000 0000
000001e0: 0000 0000 0000 0000 0000 0000 0000 0000
000001f0: 0000 0000 0000 0000 0000 0000 0000 0000
0.0 0.0 0.0 0.0 0.0 0.0 0.0 0.0
0.0 0.0 0.0 0.0 0.0 0.0 0.0 0.0
0.0 0.0 0.0 0.0 0.0 0.0 0.0 0.0
0.0 0.0 0.0 0.0 0.0 0.0 0.0 0.0
0.0 0.0 0.0 0.0 0.0 0.0 0.0 0.0
0.0 0.0 0.0 0.0 0.0 0.0 0.0 0.0
0.0 0.0 0.0 0.0 0.0 0.0 0.0 0.0
0.0 0.0 0.0 0.0 0.0 0.0 0.0 0.0
0.0 0.0 0.0 0.0 0.0 0.0 0.0 0.0
0.0 0.0 0.0 0.0 0.0 0.0 0.0 0.0
0.0 0.0 0.0 0.0 0.0 0.0 0.0 0.0
0.0 0.0 0.0 0.0 0.0 0.0 0.0 0.0
0.0 0.0 0.0 0.0 0.0 0.0 0.0 0.0
0.0 0.0 0.0 0.0 0.0 0.0 0.0 0.0
0.0 0.0 0.0 0.0 0.0 0.0 0.0 0.0
0.0 0.0 0.0 0.0 0.0 0.0 0.0 0.0

network_body._body_endoder.seq_layers.2.weight f4 [128, 128]
00000000: fdcf 82be f5dd 19bd 61e0 9a3b 3f41 8ebd
00000010: 17ba ba3d d56a e6bb d223 cdbd 06a8 31bd
00000020: a0a5 a63b 9b67 bd3d 13d8 95bd 87aa 58bd
00000030: 4920 053d 55d3 d2bd c803 c4bd 9fc6 1cbe
00000040: 0508 abbd b699 f1bd a34f 2fbd b042 d5bd
00000050: f2d0 15be db6b 46bd 5f02 a4ba 3fdc 90bc
00000060: b449 60bd 0b8a 783d cb06 b43d 109a 3abd
00000070: 5272 febd 59d5 e23b 8b45 8dbd 11ad d53d
00000080: 4d3d 183d ec81 9a3d 1f4c c339 012a ecbd
00000090: af0c d8bc 70cb debb 08c1 d3bc cec0 b0bd
000000a0: c374 2d3d bade b63a fe7c de3d b498 4c3d
000000b0: 4482 c9bd 76d9 593d 1a40 203c 6b63 5abe
000000c0: f203 fa3d 52d3 abbc 3708 aabd a709 8fbc
000000d0: 835f 23be 5845 c63d de26 17be 86dc a4bd
000000e0: b57e 92bc a2a4 70bc 71fe f2bd b479 a0bc
000000f0: de57 423d 3c4d 06be c0ab 34bd 1106 50bd
00000100: 2b73 03bc 6ffa b83d 77f5 adbd 62f9 363c
00000110: 1c3e 72bd 5523 053e 9398 a4bb 6235 0ebc
00000120: a92c 1c3d e42b b73d d8d1 5bbe 4828 20be
00000130: 6b52 7fbd 605a 44bd ca26 c6bd 4f47 393d
00000140: 3354 2b3d f4b8 793d c889 683c dd4c 72bd
00000150: 288d e63d 878c af3d 7db5 a03c 5800 89bd
00000160: 029e 693b e662 c8ba 4c6e 82bd de4e be3d
00000170: b793 2bbc 9fd7 fb3d 34e6 41b9 1c33 173d
00000180: ed87 403e 2ee8 e03d 6c9a 2e3e 1432 9b3d
00000190: b0e8 f33d 0ac9 cebc fb16 96bd 8d02 fc3c
000001a0: 2ae9 89bd e163 3b3c 87e0 8ebd dbb9 623e
000001b0: 73b7 20be 3a57 28be 2ad8 f13d 24a3 283d
000001c0: 7bc9 11bd 7ef0 a63d bc3b fabc bce3 4dbd
000001d0: b533 83bd 76ce 143e 8865 ccbd a030 01bc
000001e0: 6199 85bd 58cf ce3d 92c6 393d 4087 b53d
000001f0: 2d6b 0fbd 2dc0 ffbd 0c49 093d 7204 18bd
00000200: 8ed7 693d 42e2 aabd a0e9 bfbd 522d b6bd
00000210: d219 13be 47e2 7cbd 2031 213e 6e19 a4bd
00000220: bb39 3cbe c0a1 1ebc 253f 163e 30f1 dabc
00000230: 34c0 9ebc e6eb 4b3d 5f12 34be a960 9abc
00000240: fb81 2ebe 29ba 253c 29c6 4dbe c4d9 913d
00000250: a22c e6bd 9ecf 5f3e bf53 d8bd 318c e9bc
00000260: e691 0abe c929 cdbd 5e54 773c 7843 7abd
00000270: 0d70 9c3a 5f85 febd 58fd e9bd 0c97 8bbd
00000280: 2e06 333e 680f b8bd 15bb 1ebd f14b 23be
00000290: 6316 b9bd e1f6 06be 62f5 60bc fba2 833d
000002a0: 45c4 3fbc 4f0d 3cbd 469e 6dbc 7c29 7bbd
000002b0: 234c d5bd 8633 fcbc 6d0c 223d 5b8b 453e
000002c0: 5bbd 303d 0648 02be 110d 1dbd 9cd8 2dbe
000002d0: e6af dabc a96f a1bd da9c a33c 20a5 003d
000002e0: 0a13 c4bc 51aa c0bc c371 813c c951 d5bd
000002f0: 0a19 2abe 0095 6fbe 3255 29be e26c 133d
00000300: e8b0 c03d bc13 42bc e437 fb3b 9d3e 1f3d
00000310: 71fc 74bb c767 d8bd f511 653d 2b1c 48be
00000320: 4caa b43d 3aae c1bd f6dd 38be 2aa3 44bd
00000330: cdf2 9b3d 7590 d73d 0d3c f53b 8652 bdbd
00000340: ac66 b53d 4b5b 35bc 18cf f7bc 10e7 cd3c
00000350: 2fdd 6cbd 640f b139 bb80 c73d e4d0 19be
00000360: 7ada cfbd 10c6 f23a c1c8 f63d c2f1 c8bc
00000370: 2463 9e3c 06fc 84bd 4498 12be e0c7 84bd
00000380: 1e1a b53b d6a8 c1bc 528f d5bd 558d e33d
00000390: 056f 8d3d b42d 12bd 827c 8ebd a8fe 8cbc
000003a0: 90dc debc 13b7 cbbd 730c 663e 6f6f fc3c
000003b0: 12e1 f63c 9f1a 513d 61cd 3fbd 122d ad3d
000003c0: a861 15bc dd92 a0bd 5477 673c 0a6a f6bc
000003d0: 804a 483d f2b8 b4bd 62b4 8ebd d42d fdbd
000003e0: 0f81 083d af77 023d 6047 56bd df00 c9bc
000003f0: 89a7 9e3c 8c03 9e3d 3b75 df3d 6f86 96bd
-0.25549307 -0.03756519 0.004726455 -0.069460385 0.09117525 -0.0070317783 -0.10016598 -0.04337313
0.005085662 0.09248277 -0.073166035 -0.052897003 0.032501493 -0.10294215 -0.09571034 -0.15310143
-0.08351139 -0.11796896 -0.042800557 -0.1041311 -0.14630488 -0.048442703 -0.0012512914 -0.017683147
-0.05475779 0.060678523 0.08790358 -0.04555708 -0.124241486 0.0069224057 -0.0689803 0.104334004
0.037167836 0.07544312 0.00037250013 -0.11531449 -0.026373236 -0.006799154 -0.02584888 -0.086305246
0.04234768 0.0013951876 0.10863684 0.049950317 -0.09839299 0.053185903 0.009780908 -0.21326987
0.12207784 -0.020974789 -0.08302348 -0.017460657 -0.15954404 0.09681195 -0.1476092 -0.08049874
-0.017882684 -0.014687689 -0.11864937 -0.019589283 0.047447078 -0.131154 -0.044109106 -0.050787035
-0.008023064 0.090321414 -0.08494084 0.011167856 -0.059141263 0.1300176 -0.005023071 -0.00867972
0.03812853 0.08943918 -0.21466768 -0.15640366 -0.06233446 -0.04793775 -0.09675367 0.04523402
0.041828346 0.0609674 0.014193006 -0.059155334 0.11257392 0.08571725 0.01961779 -0.06689519
0.0035647159 -0.0015288263 -0.06368694 0.092923865 -0.01047223 0.12296986 -0.00018491672 0.036913976
0.18801852 0.10981785 0.17051095 0.07577911 0.11909616 -0.025242347 -0.07328602 0.030762935
-0.06733926 0.011437387 -0.06976419 0.2214121 -0.1569498 -0.16439524 0.11808808 0.041171208
-0.035592537 0.08151339 -0.030546062 -0.050266013 -0.06406347 0.14531884 -0.09980303 -0.007885128
-0.06523395 0.100981414 0.045355387 0.088636875 -0.03501432 -0.124878265 0.03351693 -0.037113614
0.057090335 -0.083439365 -0.09370732 -0.08895363 -0.14365318 -0.061739232 0.15741396 -0.08012663
-0.18381397 -0.009682119 0.14672525 -0.026726335 -0.019378759 0.049785517 -0.17585133 -0.01884492
-0.17041771 0.010115185 -0.20095123 0.071216136 -0.11238982 0.21856543 -0.10562848 -0.028509231
-0.13532218 -0.100177355 0.015095798 -0.0610995 0.0011935249 -0.12427782 -0.114252746 -0.06815919
0.17482826 -0.089873135 -0.038752634 -0.15946938 -0.09037473 -0.13180114 -0.013730379 0.064275704
-0.011704509 -0.04591113 -0.014503067 -0.06131886 -0.104149126 -0.030786287 0.03956263 0.19291441
0.043149333 -0.12722787 -0.03834254 -0.16977161 -0.026695203 -0.078826256 0.019972254 0.031407475
-0.02393486 -0.023518713 0.015801316 -0.1041599 -0.16611114 -0.23396683 -0.16536406 0.03599251
0.09408742 -0.011845525 0.007666575 0.038878072 -0.0037381912 -0.10566669 0.05592533 -0.19541995
0.08821544 -0.09457059 -0.18053421 -0.048007168 0.0761467 0.105256 0.0074839653 -0.09244256
0.08857474 -0.011069129 -0.030250117 0.025134593 -0.057828125 0.00033771538 0.0974135 -0.15021092
-0.10149093 0.0018522162 0.120500095 -0.024529342 0.019334383 -0.06493382 -0.14315897 -0.06483436
0.005526795 -0.023640078 -0.10427727 0.11110941 0.06905941 -0.035688117 -0.06957342 -0.017211273
-0.027204782 -0.09947028 0.22465687 0.030814854 0.030136619 0.05105078 -0.046826724 0.08455862
-0.009117521 -0.07840512 0.014127571 -0.03007986 0.048899174 -0.08824338 -0.06967999 -0.12362257
0.033326205 0.03185242 -0.052314162 -0.024536548 0.019366996 0.0771552 0.10911032 -0.0734986

network_body._body_endoder.seq_layers.2.bias f4 [128]
00000000: 0000 0000 0000 0000 0000 0000 0000 0000
00000010: 0000 0000 0000 0000 0000 0000 0000 0000
00000020: 0000 0000 0000 0000 0000 0000 0000 0000
00000030: 0000 0000 0000 0000 0000 0000 0000 0000
00000040: 0000 0000 0000 0000 0000 0000 0000 0000
00000050: 0000 0000 0000 0000 0000 0000 0000 0000
00000060: 0000 0000 0000 0000 0000 0000 0000 0000
00000070: 0000 0000 0000 0000 0000 0000 0000 0000
00000080: 0000 0000 0000 0000 0000 0000 0000 0000
00000090: 0000 0000 0000 0000 0000 0000 0000 0000
000000a0: 0000 0000 0000 0000 0000 0000 0000 0000
000000b0: 0000 0000 0000 0000 0000 0000 0000 0000
000000c0: 0000 0000 0000 0000 0000 0000 0000 0000
000000d0: 0000 0000 0000 0000 0000 0000 0000 0000
000000e0: 0000 0000 0000 0000 0000 0000 0000 0000
000000f0: 0000 0000 0000 0000 0000 0000 0000 0000
00000100: 0000 0000 0000 0000 0000 0000 0000 0000
00000110: 0000 0000 0000 0000 0000 0000 0000 0000
00000120: 0000 0000 0000 0000 0000 0000 0000 0000
00000130: 0000 0000 0000 0000 0000 0000 0000 0000
00000140: 0000 0000 0000 0000 0000 0000 0000 0000
00000150: 0000 0000 0000 0000 0000 0000 0000 0000
00000160: 0000 0000 0000 0000 0000 0000 0000 0000
00000170: 0000 0000 0000 0000 0000 0000 0000 0000
00000180: 0000 0000 0000 0000 0000 0000 0000 0000
00000190: 0000 0000 0000 0000 0000 0000 0000 0000
000001a0: 0000 0000 0000 0000 0000 0000 0000 0000
000001b0: 0000 0000 0000 0000 0000 0000 0000 0000
000001c0: 0000 0000 0000 0000 0000 0000 0000 0000
000001d0: 0000 0000 0000 0000 0000 0000 0000 0000
000001e0: 0000 0000 0000 0000 0000 0000 0000 0000
000001f0: 0000 0000 0000 0000 0000 0000 0000 0000
0.0 0.0 0.0 0.0 0.0 0.0 0.0 0.0
0.0 0.0 0.0 0.0 0.0 0.0 0.0 0.0
0.0 0.0 0.0 0.0 0.0 0.0 0.0 0.0
0.0 0.0 0.0 0.0 0.0 0.0 0.0 0.0
0.0 0.0 0.0 0.0 0.0 0.0 0.0 0.0
0.0 0.0 0.0 0.0 0.0 0.0 0.0 0.0
0.0 0.0 0.0 0.0 0.0 0.0 0.0 0.0
0.0 0.0 0.0 0.0 0.0 0.0 0.0 0.0
0.0 0.0 0.0 0.0 0.0 0.0 0.0 0.0
0.0 0.0 0.0 0.0 0.0 0.0 0.0 0.0
0.0 0.0 0.0 0.0 0.0 0.0 0.0 0.0
0.0 0.0 0.0 0.0 0.0 0.0 0.0 0.0
0.0 0.0 0.0 0.0 0.0 0.0 0.0 0.0
0.0 0.0 0.0 0.0 0.0 0.0 0.0 0.0
0.0 0.0 0.0 0.0 0.0 0.0 0.0 0.0
0.0 0.0 0.0 0.0 0.0 0.0 0.0 0.0

action_model._discrete_distribution.branches.0.weight f4 [3, 128]
00000000: 4760 973c 6521 033b 3bc7 043c 9b54 853c
00000010: 818c 9439 8e72 a13a df51 43bb 3912 8dbb
00000020: 648e adbb a84c 9f3a 18f1 ffbb 4852 0c39
00000030: 8767 e6bb 06b7 b83b da62 85ba 5bd0 e1bb
00000040: 8263 853b ac92 8b3c afb4 903b 8f38 dabb
00000050: be58 a6bb 27a9 28bc f32a b639 baec b6bc
00000060: 4be0 a2bc 8213 85bc b008 bcbb 8fd0 6f3c
00000070: 7335 baba b541 d2bb f7bd 26bc 9294 7f3c
00000080: 0766 573c 1760 3f3b da0f cf3a da13 f43b
00000090: ea95 1c3b 1293 7abc 2fcd 0c3c 37a0 463b
000000a0: ea53 243b a8ea 893c ba86 b4bb ea37 87bc
000000b0: 8cba 953b e2ad dcbb e7e3 553b 9d18 7b3c
000000c0: 2835 353b f9d2 83bc c2f6 7cbb a780 08ba
000000d0: 1b23 b4ba 81ce a238 0ec4 003c 0726 03bc
000000e0: d40b b73a fd2c 563c dbbf a4bb 0217 6ebb
000000f0: 5553 b63b 11fa 0abc f20a 8f3c 1b25 e63b
00000100: 2059 5ebc 5d25 183c df24 803c 7be7 d53c
00000110: b39f 653b 28b4 db3b 6794 a93b 70e6 3e3b
00000120: 9d13 fcbb 64ed a73a 8818 94bb 9133 443c
00000130: 43e9 58ba f06a 8fbb 5efe b9bb eb54 de3b
00000140: 48c9 debb 6597 1d3b fb20 52bc e746 9a3b
00000150: 2929 01ba 38da ac38 b58a efbb 41d3 983a
00000160: 7aa5 2a3c 4dce d7bb aa9f 37bc 7cd4 9d3b
00000170: ca8b 86bb e2c0 ea3b 38e5 75ba 9dab 05ba
00000180: 67e9 6ebc f0ae b7ba ba24 d0b9 afdd d73a
00000190: 2b16 323c c002 753a 4910 9dbb edfb 24bb
000001a0: b5c6 13bb 3888 da3b 8fd3 6cbc a9dd 4bbb
000001b0: 0b3c c13b 1f62 35bc 18dd dbbb c002 043c
000001c0: bf2d 473c bdbd de3c 6716 6f3a 8a0b a03b
000001d0: 0d51 96bb 1258 223c 97ee 933b 3359 1a3a
000001e0: bb5e 183c db19 853c 81cc cbba 6bb8 7a3b
000001f0: 07fe 6fbc 980d bfbb 1e91 2abc aa99 37bc
00000200: 63fc b0b9 351c d5bb 2f7e 4e3b b462 1abb
00000210: 1d6d 7fbb c5b8 763b 83e1 8d3c feff 1d3b
00000220: f5ef c6bb 15d1 65bc 9c3a 25bc e32e 63bc
00000230: 13ee 10bc 7a09 f1bb 4b96 c3bb df05 75bc
00000240: 0a9c 00bb 8299 32bc 0f1b b3bb f47e 3fbc
00000250: 9809 47bc 45ec 93bb 4992 1ebc e093 433c
00000260: a333 db3b 5fd9 2d3c e8b2 673c 48de 053c
00000270: 9f11 363c b818 5d3b 806b 2d3b 9345 9abb
00000280: a74d 81ba 1b60 073c f8ca 913b 22cf 41bc
00000290: b4b8 89bb 9789 9f3b caa6 27bb b368 293c
000002a0: a32f 00bc bdb1 d7ba c042 823b 35bd 073c
000002b0: bfe8 cfba 5a22 5f3b f06c ce3b 0a59 4e3c
000002c0: 2031 e3ba 3f41 dc3b ff5c f13b 0dad 1bbc
000002d0: 3ae2 643b 5fc1 73bc 17e6 09bc 7156 043c
000002e0: 0e00 3bbb bc29 85bb fb2d 7d3b 3b1b 34bc
000002f0: 7c75 b5ba c513 86bb 6664 b43b 60bd 86bc
00000300: 2030 6b3c 5d78 da39 3695 4cb7 c29a 0f3c
00000310: c6ec a13c 5afc 753c 858b 3b3c 67b4 07bc
00000320: ecb6 abbc 3b09 a4bc 3846 a7bb 1223 ae3b
00000330: 3da5 013c 82cc 283c 73c6 3439 7bb7 f83a
00000340: 1e60 a83a 6974 0c3c 2888 853c 1579 bc3a
00000350: b8c6 623b 839f 06bb 4a84 3abc d2b6 103c
00000360: 35d7 d33a 5891 e8bb db31 3abc 9a9b f1bb
00000370: 9851 ad3b c065 04ba 82d9 993b 87c8 ee3b
00000380: 2a25 4b3c cbda a33b 0b74 633c 6a6c 963b
00000390: 769e 033c b16a c9ba cbe1 3d3c 29e0 98bb
000003a0: 7f68 2f3c b599 643c cb5b ceba da99 51bc
000003b0: 1a3a 8d3a 2061 543b 2332 2bbc 4e50 1e3c
000003c0: eed7 43bc 623c 6f3b 13f3 02bb 9394 40bc
000003d0: f276 f13b 72c9 21bb bce2 333c ad56 8fbb
000003e0: f085 503b 3fbc 1d3c 3d2b e23a 2c81 3abb
000003f0: 65e7 81bc 1318 da3b 1130 bfba 8d3e 7f39
0.018478526 0.0020008918 0.008104141 0.016275695 0.00028333443 0.0012317465 -0.0029803438 -0.004305151
-0.0052965153 0.0012153583 -0.007810723 0.00013382093 -0.0070313844 0.0056370525 -0.0010176555 -0.006891293
0.0040707 0.017037712 0.0044160704 -0.0066595743 -0.005076497 -0.010294235 0.00034745745 -0.022329677
-0.019882342 -0.016244654 -0.0057383403 0.014637127 -0.0014206603 -0.0064165243 -0.010177127 0.015599387
0.013146884 0.002920156 0.0015797571 0.0074486556 0.0023893067 -0.015293853 0.008593841 0.0030307898
0.002507443 0.016835526 -0.0055092247 -0.016506154 0.0045693573 -0.0067345956 0.003263706 0.0153256925
0.0027650092 -0.01609181 -0.0038599228 -0.0005207159 -0.0013743372 7.763226e-05 0.007859243 -0.008004672
0.0013965317 0.0130722495 -0.0050277538 -0.0036329632 0.005564133 -0.008482472 0.017461274 0.0070234663
-0.013571054 0.009286252 0.015642582 0.026111355 0.0035037815 0.006704826 0.0051751616 0.002912905
-0.007692768 0.0012811837 -0.004519526 0.011975185 -0.0008274505 -0.0043767616 -0.005676075 0.0067850254
-0.006798897 0.0024046537 -0.012825246 0.0047081592 -0.0004927093 8.2422455e-05 -0.0073102363 0.0011659638
0.010415429 -0.0065858723 -0.0112075005 0.00481659 -0.0041060196 0.0071641067 -0.00093801646 -0.000509912
-0.014582015 -0.0014013927 -0.00039700215 0.0016469265 0.010869543 0.0009346418 -0.004793201 -0.0025174574
-0.0022548859 0.0066690706 -0.014454736 -0.0031107462 0.0058970503 -0.011070757 -0.006709706 0.008057296
0.012156903 0.027190084 0.00091204647 0.004884188 -0.0045872987 0.009908693 0.004514526 0.00058879255
0.009299929 0.01624768 -0.0015548618 0.0038256894 -0.014647967 -0.005830478 -0.010410575 -0.01120607
-0.0003375738 -0.0065036067 0.0031508317 -0.0023557367 -0.0038974949 0.0037646752 0.017319446 0.0024108882
-0.0060710856 -0.0140269 -0.010084774 -0.013866159 -0.008845824 -0.007355866 -0.005968844 -0.014955013
-0.0019624257 -0.010900857 -0.005465872 -0.011687983 -0.012148283 -0.0045142495 -0.009678432 0.011937112
0.006689505 0.010610907 0.014141776 0.008170672 0.0111126 0.0033736657 0.002646178 -0.004708001
-0.0009865061 0.008262659 0.0044492446 -0.0118291695 -0.0042029265 0.004868697 -0.0025581592 0.010339904
-0.0078238575 -0.0016456168 0.0039752424 0.008284857 -0.001586221 0.0034047575 0.0062996075 0.012594471
-0.0017333366 0.006721645 0.0073658223 -0.009501708 0.003492488 -0.014877646 -0.008416674 0.00807725
-0.0028533968 -0.004063813 0.0038632143 -0.01099282 -0.0013844217 -0.004091712 0.0055051325 -0.016447723
0.014354736 0.00041669878 -1.2194088e-05 0.0087649245 0.019766223 0.015013779 0.011446838 -0.008282757
-0.020961247 -0.020023933 -0.0051048063 0.0053142393 0.007912931 0.010302665 0.00017240066 0.001897558
0.0012846028 0.008572676 0.016300276 0.0014379347 0.003460331 -0.0020541854 -0.011384079 0.00883265
0.0016162159 -0.0070974045 -0.0113644255 -0.0073732855 0.0052892677 -0.00050505623 0.0046951184 0.0072870883
0.012398997 0.0050004474 0.013882647 0.0045905607 0.0080333855 -0.001536688 0.011589478 -0.004665394
0.010706066 0.013952662 -0.0015743909 -0.012793029 0.0010774762 0.0032406524 -0.010448965 0.009662701
-0.011953337 0.0036504497 -0.001998131 -0.011754173 0.0073689157 -0.002468672 0.010979351 -0.004374346
0.0031818114 0.009627401 0.0017255318 -0.002845834 -0.015857408 0.006655702 -0.0014586468 0.00024341997

action_model._discrete_distribution.branches.0.bias f4 [3]
00000000: 0000 0000 0000 0000 0000 0000
0.0 0.0 0.0

action_model._discrete_distribution.branches.1.weight f4 [3, 128]
00000000: ec1a a0ba dc77 293b 67b9 223c 27fa 1ebb
00000010: 37fd a03b ae0c 40bb 3a3f 853c 4842 633a
00000020: 6064 a83a ea13 a5bb 2bba b2bc 86f6 1d3b
00000030: 885e 5fbc 8481 a03c e9d0 c13b 8da5 0abc
00000040: 882e d0bb 87c2 453a 2908 97bb b210 debb
00000050: 8d23 06bc 5375 83bc 57ee ef3b ef14 813c
00000060: 3b55 553b e565 24bc a8d9 7e3a d323 4bbc
00000070: 82d6 b9bb 0d8a 75bc 4b8f fc3b df15 bdba
00000080: ab83 79bc 2d4c 73bb 7dc0 f2bb cf36 133c
00000090: c9f1 363b 0d18 bf3b ff76 ccbb b4be 383c
000000a0: 5fb6 283c 0f61 9abb 7bd1 ae3b 3702 4bba
000000b0: 3f24 fc3b b4cf 95bb 65f4 67bb 8890 123c
000000c0: 1981 9d3b f867 9dbc a10e 8abc 142f 3b3b
000000d0: d598 a1bb 3f56 4dbc 089f 54bc a76d 55bc
000000e0: 4ad6 e4ba 8bab fb39 b4eb 80bc f0c4 80bb
000000f0: 554d fe3a 9b8d 90bb 7294 4abb ef3a f2bb
00000100: 7b8e 9abc e223 e23b a7ae abba 57cb 4abb
00000110: 759a d93b b3db c53a 0758 543a b6aa 1ebb
00000120: 7675 18ba 7a69 b33b 43c1 1d3c e2ef dcbb
00000130: e04b 0ebc 8362 24bc 53e0 daba f8e4 b23a
00000140: 03b0 a8ba 0ba0 31bb da41 953b 1440 a5ba
00000150: c4ac a8bc a5d4 e73b 409a e3bb b31e 723a
00000160: eacf 15bb 555b 453b 22c2 7abc 87ab 663b
00000170: 3177 3a3c 7b9b 0abc 4b21 8b3b e132 c6bb
00000180: 4853 963c 7fe7 62b9 80ce cdbb e221 6b3c
00000190: a7d3 433c a096 d5bb eb09 d93b 9603 1bbc
000001a0: 2a28 7bbc 5466 aabc 73fe dc3b 64e9 27bc
000001b0: 3b8c 4a3c ffca 65ba 500c 253b 2bdd 7d3a
000001c0: 3142 003c 1b43 04bc 25d8 113a 0082 ad3a
000001d0: 9e1b 16bc b4eb 01bb 5a59 473a 3ba5 c7bb
000001e0: 1981 b9bb 686e 39bc c8ce 76bc bcd3 0ebb
000001f0: 0201 96bb 58e3 353c fe07 b8b8 2517 35ba
00000200: d5dc ee3b c331 dbba 8f9b 0e3b 68f0 e63b
00000210: d1e3 0dbc ffc8 3fbc 41db be3b f26d 31bb
00000220: c2bb cfbc 2bdf e0bb 2296 e83b aa2c 58bb
00000230: 19b3 88bb ed99 743b 88c2 e7bb 4d40 753a
00000240: 87a1 383c cf0d 58b9 b2e7 f5ba 9146 183c
00000250: bba8 0f3b 751d 7dbb d1e3 82bc c33c 5dba
00000260: 91bf c13b cfd7 8b3b 37a2 f8bb 7ad2 d63b
00000270: 7717 23bc 1f58 3bbb cda6 ec3a dbc3 4abb
00000280: 23fb 1a3b b0f2 45bc bb8d bdbb 2c8d c63a
00000290: da7d e6ba e763 9cbb c8c0 723c 9fd3 803b
000002a0: dded 9f3b 74ca c5bb 825c 913b edea 43bc
000002b0: 06a0 83bc 63bb 5a3b caf9 e8ba 6b0f e7b9
000002c0: acf8 13bc 7be6 1abb f587 0db9 a6e8 85bc
000002d0: ec3f 17ba bb38 0abc 2aca dbbb 50e2 263c
000002e0: bb3d aebb 7976 93bb af51 e93c 2f41 2bbc
000002f0: 7a54 eeba ab7a 493b 02c6 ab3b 2f15 02bc
00000300: 49b0 13bc 09ae 28bc 7b1d e7bb e5b7 463c
00000310: 054f 6c39 cdea e5bb 4815 ee39 58fa fd3a
00000320: 4397 883b b292 72bc 659d 8fba fa0a 903c
00000330: fef7 14bc df8e ac3c 2d76 143c ee59 c83b
00000340: 7918 a4ba 5d7a 78bb 1699 10bc 50ee bf3b
00000350: 3f0b 35ba 7910 453c b73f a33b 5898 80bc
00000360: 0b1d d2bb 086c bdbb bf62 013c 1b74 55bb
00000370: 0d7b 67bb cbe7 a4ba 67f6 b6ba 2dab 86bb
00000380: 5add f239 46ea 4b3b 01ab a13b 97be 1f3a
00000390: aabf db3a 0484 1f3a 22dc e93a faf3 ad39
000003a0: 968a 1e3c 1573 e6bb 23d8 06bc 61e1 2e3c
000003b0: 05b5 b9ba b956 a5bb be58 cb3b 9816 f43b
000003c0: 3223 6abb 13f2 70bc 1202 dd3b c3e9 bebc
000003d0: ab58 0fbc aada c23b 481a a13a c85b ba3b
000003e0: 767b b2bc 0df6 4a3b 9f99 063b 532f b6bb
000003f0: dc2f aebb 14db 883c af79 f5bb 3993 85bc
-0.0012215055 0.0025858795 0.009931899 -0.002425799 0.004912998 -0.0029304433 0.0162655 0.00086692395
0.0012847297 -0.0050377743 -0.021817287 0.0024103238 -0.013633378 0.019593008 0.0059147966 -0.008462322
-0.006353203 0.00075439404 -0.004609127 -0.0067768926 -0.008187187 -0.016047155 0.0073221135 0.015757052
0.0032552022 -0.010034059 0.00097217644 -0.012398678 -0.0056713233 -0.014986527 0.0077075115 -0.0014426074
-0.015229146 -0.0037124262 -0.0074082003 0.008985235 0.0027915111 0.0058317245 -0.0062397714 0.011275936
0.010297387 -0.0047112773 0.0053350306 -0.00077441655 0.0076947506 -0.0045718793 -0.0035393473 0.008945592
0.0048066494 -0.019214615 -0.016852679 0.0028561996 -0.004931549 -0.01253277 -0.012977369 -0.013026631
-0.0017458883 0.0004800226 -0.015737392 -0.003929727 0.0019401709 -0.004411412 -0.0030911234 -0.0073922793
-0.018866768 0.00690125 -0.0013098315 -0.0030943954 0.006640727 0.0015095383 0.00081002753 -0.0024210638
-0.0005815843 0.0054752203 0.009628597 -0.0067424634 -0.008685082 -0.010033253 -0.0016698934 0.001364856
-0.0012869838 -0.002710345 0.0045549693 -0.0012607598 -0.020590194 0.0070749098 -0.0069458783 0.0009236142
-0.0022859522 0.0030114253 -0.015305074 0.0035197453 0.0113809565 -0.008459921 0.004245912 -0.0060485457
0.018350258 -0.00021639279 -0.0062807202 0.01435134 0.011952317 -0.0065182 0.0066234968 -0.009461304
-0.0153294 -0.020800747 0.0067442 -0.010248516 0.012362535 -0.00087659055 0.002518434 0.00096841407
0.007828281 -0.00807264 0.0005563519 0.0013237596 -0.009161858 -0.0019824328 0.0007604562 -0.006092695
-0.0056611416 -0.011317827 -0.015063949 -0.0021793684 -0.004577757 0.011101566 -8.7752924e-05 -0.0006908051
0.007289509 -0.0016723204 0.00217602 0.0070477016 -0.008660273 -0.011705636 0.005824477 -0.002707359
-0.025358085 -0.006862541 0.0070979754 -0.0032985606 -0.0041717407 0.0037323192 -0.0070727505 0.000935559
0.01126898 -0.0002060451 -0.0018761067 0.009294168 0.002192064 -0.0038622294 -0.015977772 -0.0008439535
0.005912729 0.0042676697 -0.007587697 0.0065558525 -0.009954325 -0.002858646 0.0018055082 -0.0030939493
0.0023648224 -0.012081787 -0.005784718 0.0015148274 -0.0017585114 -0.0047726515 0.01481647 0.003931477
0.0048806504 -0.006036097 0.0044360766 -0.011957866 -0.016067516 0.0033375851 -0.0017774638 -0.0004407124
-0.009031456 -0.0023635912 -0.00013497456 -0.016346287 -0.0005769718 -0.008436377 -0.0067074494 0.010185793
-0.0053174174 -0.004500207 0.028481333 -0.010452553 -0.0018183135 0.0030743282 0.00524211 -0.007939621
-0.009014198 -0.010295399 -0.007053075 0.012128805 0.00022536151 -0.007016516 0.00045410753 0.0019376976
0.0041684224 -0.014805483 -0.0010956941 0.017583359 -0.009092329 0.02106422 0.009061378 0.006114236
-0.00125195 -0.003791473 -0.008825561 0.0058572665 -0.0006906278 0.012027853 0.0049819606 -0.015697643
-0.0064121536 -0.0057807006 0.007897078 -0.0032570425 -0.0035321147 -0.0012581287 -0.0013958932 -0.004109761
0.00046322757 0.003111498 0.0049337153 0.0006093769 0.0016765494 0.00060850405 0.0017842094 0.00033178908
0.009676596 -0.007032762 -0.008230242 0.010673852 -0.0014168328 -0.0050457385 0.0062056473 0.0074489824
-0.0035726544 -0.0147061525 0.0067446316 -0.023304826 -0.008749167 0.005946477 0.0012291158 0.0056872107
-0.021787386 0.0030969412 0.0020538343 -0.0055598407 -0.005315764 0.016706027 -0.0074913125 -0.016305553

action_model._discrete_distribution.branches.1.bias f4 [3]
00000000: 0000 0000 0000 0000 0000 0000
0.0 0.0 0.0

network_body._body_endoder.seq_layers.0.weight f4 [128, 138]
00000000: 5bdd d63d 7456 a03d 9a1a e43c 09b3 b7bd
00000010: a975 683d 5edf a4bd 9edb cb3d 117a 98bd
00000020: 6693 413d 25c3 21bd caf1 76bd 83fe 87bc
00000030: 971a 243e 6c64 0ebd 9ba7 cd3d 57c5 d7bb
00000040: 38ec 483e 0a42 1cbd 5bd6 383d 109a d53c
00000050: 9661 c3bd 6137 cbbc 4041 2b3d e820 e4bd
00000060: 3371 a03d b4a6 3d3b 14f1 85bd 55fe a4bd
00000070: 792a 0f3e 3254 2cbd 4739 c33d a4fd 5d3e
00000080: 8412 72bc e9d1 543d 92dd dcbd 1ad3 35bd
00000090: 63b5 2e3e 6d86 e2bc 8589 0fbe b89a afbd
000000a0: 8abb b03b ced7 363d 9c12 563e 51fa ddbd
000000b0: b30d c83d 9f7e 983c 1821 65bd d887 113e
000000c0: 9b79 91bd 4ae5 1ebc 18c6 7f3d 3925 23bd
000000d0: f5b1 143e e6f4 6bbd 4039 0a3d 427b efbc
000000e0: 821c e4bc a079 fe3c 3be5 14bd 00b2 98bd
000000f0: 8de1 44bd 7293 d73c 3414 87bd 6ee5 8eba
00000100: cc20 f5bc e553 04be 04fa 4ebe 91d4 133e
00000110: 3159 8ebc de71 22bc cafa 033d 110e 073e
00000120: b543 ccbc 16e1 1e3e e111 aa3c c89d 413e
00000130: 6f8c db3c 5f4c a63d cb41 8bbd 7e6f 4ebe
00000140: ee26 3f3d c2dc d9bd 2452 80bb 7547 ba3b
00000150: f96e 493d 6b6d ae3c 649e 163d 252f 293e
00000160: 3fc7 0b3e c036 433e ec90 9fbd c204 0c3e
00000170: e352 cfbc 6213 46bd 715e 35bc 32d6 803c
00000180: f798 353c 187c 033d 76fd 98bd 32ad 903c
00000190: ca69 8c3d 2e00 8abc b734 103e fdec 4c3d
000001a0: ac52 683d 9f76 203d dfcf 1abc a70b ee3d
000001b0: e49e c33d 96e0 123d aae1 fabc 12ed 8ebc
000001c0: f744 cd3c b94e 7b3d 0d54 853d 93cf b3bd
000001d0: 4015 853c 988d a43d c73a a03c df78 d7bd
000001e0: 5a27 dabd 0714 963d 7354 563b 8a49 983d
000001f0: a745 d73d 8b9d 193c 3da9 323d e2b3 7abd
00000200: f62a 7a3c 67f0 3a3c ce72 a9bd 1d0e ec3d
00000210: d622 69be 6db5 b4bd 191e a6bd 0f41 15bd
00000220: 2770 523d 0cf8 5bbd 2abc 933d 281f bebd
00000230: 3eb1 9dbc 6fca 39bc 310e 0bbd d86a 10be
00000240: e145 133e b815 973c c53f 793d b068 583e
00000250: edfe bbbd bc69 833d 0f10 bdbd d7f9 1a3c
00000260: 4f91 353e 6c44 453c 7086 7dbd 091e ce3c
00000270: 04c1 843d e319 00be 7239 d43d 5ec2 86bc
00000280: 4550 8cbd 86b4 60bc f4f5 f2bc 3fb5 06be
00000290: 1a1e babd 37b6 023e 9025 08be e19b 99bd
000002a0: d751 cfbc c96b 42bd baf3 5c3c 0621 78bd
000002b0: 4b9a aa3d 0705 a73d d887 fbbd f381 4e3d
000002c0: 9352 3ebd eecc 03be 337b 0b3d e08a 91bd
000002d0: 5446 9f3d 04f5 8c3e fb94 4abe 341c 793d
000002e0: fbee 46be fa4b f9bd 99e0 f9bd a50f a8bc
000002f0: cc54 1bbd 6e92 3bbe a01b 16be bb2c 16be
00000300: fcf8 6f3d 89b3 b63d c19e 52bd 8089 32be
00000310: 7e0e 4d3c 5681 6dbd eef7 833c a077 3fbe
00000320: 718b 723d b9e7 64bb 0424 363d a55b 08bd
00000330: feb1 933d d000 203d 446b 013d 735a 8abd
00000340: c906 80bd bc06 b23d d847 06bd 4e23 bb3d
00000350: e9a7 22bd aec7 12bd bf28 2a3d 4478 543d
00000360: 2bb7 2f3e 8599 32bd 5c52 6439 6a21 ef3d
00000370: 4b8b 2bbe cce6 c8bc c856 493e a5c4 d53d
00000380: 658c 80bd a3e1 cfbb 0e88 9cbc 0f35 10be
00000390: f586 5bbd bc89 77bd b532 09be f5f7 24be
000003a0: f563 40be 84aa 44bd 4f2f 0cbe 121f 133d
000003b0: f237 803d b3ac 643d e47c 3d3d ccde 933d
000003c0: 3b26 d0bd 0904 143b d4bc 16bd b317 fe3d
000003d0: 9f75 f9bb 77dd 233e af62 e3bd 4bc5 f1bd
000003e0: 62aa c6bd 2e66 5fbd 94fc a4bd ce46 a2bd
000003f0: 1ff2 af3c d323 ff3d 40f2 00be 1785 b13c
0.10491439 0.078289896 0.027844716 -0.08969695 0.056752834 -0.080504164 0.09953998 -0.07445157
0.04725971 -0.039492745 -0.06028918 -0.016600853 0.16025768 -0.03476374 0.10041734 -0.006584804
0.1962136 -0.038148917 0.0451263 0.02607444 -0.095400974 -0.02480668 0.041810274 -0.11139089
0.07834091 0.0028938474 -0.06540123 -0.080563225 0.13981046 -0.042072482 0.09532409 0.21678787
-0.014774922 0.051958 -0.10784449 -0.044390775 0.17061381 -0.02765199 -0.14017303 -0.08574432
0.00539345 0.0446394 0.20905536 -0.1083876 0.09768238 0.018615065 -0.055939764 0.14211977
-0.071032725 -0.009698221 0.062444776 -0.03983042 0.1452101 -0.0576066 0.033746004 -0.029233579
-0.027845625 0.031063855 -0.036351424 -0.07455826 -0.048066664 0.026315425 -0.0659565 -0.0010902116
-0.029922865 -0.12922628 -0.20212561 0.14436556 -0.017376514 -0.009914843 0.032221593 0.1318896
-0.024934629 0.15515551 0.020760478 0.18907845 0.026800362 0.081200354 -0.067996584 -0.20159718
0.046667986 -0.10637809 -0.003916042 0.005684788 0.049178097 0.021292409 0.036772147 0.1652189
0.13650225 0.19063854 -0.077913135 0.1367369 -0.025308078 -0.04835833 -0.01106988 0.015727136
0.011083833 0.032100767 -0.07470219 0.017660711 0.06856115 -0.016845789 0.14082609 0.050030697
0.056719467 0.039175626 -0.009448974 0.11623316 0.0955179 0.035858713 -0.030625183 -0.017447028
0.025057299 0.061354373 0.06510172 -0.08779826 0.016245484 0.08034819 0.019559277 -0.10521101
-0.10652037 0.07328039 0.0032704144 0.074359015 0.10511332 0.00937594 0.04361843 -0.061206706
0.015269032 0.011409855 -0.082738504 0.115261294 -0.22767195 -0.08823667 -0.081112094 -0.036438998
0.051376488 -0.053703353 0.07213624 -0.09283286 -0.019249555 -0.011339768 -0.03394908 -0.14103258
0.14382125 0.018442973 0.06085183 0.21133685 -0.091794826 0.064166516 -0.092315786 0.0094589805
0.17731212 0.012040239 -0.061895788 0.025160806 0.06482127 -0.12509875 0.10362519 -0.016450103
-0.06851248 -0.013714915 -0.029658295 -0.13155077 -0.09087773 0.12764822 -0.13295579 -0.07500435
-0.025307579 -0.047466073 0.013485843 -0.06057837 0.0833021 0.08155256 -0.122817695 0.050416898
-0.046465468 -0.12871143 0.03405304 -0.071065664 0.07777086 0.27530682 -0.19783394 0.060817912
-0.19427101 -0.121726945 -0.12201042 -0.020515272 -0.037922665 -0.18317577 -0.14658976 -0.14665501
0.05858706 0.08920962 -0.05142093 -0.17435265 0.012515662 -0.057984672 0.016109433 -0.18697977
0.059215013 -0.0034928157 0.04446794 -0.033290524 0.07211684 0.039063275 0.031596437 -0.06755533
-0.06251294 0.08692691 -0.03278336 0.09137593 -0.039710913 -0.03583496 0.041542765 0.051872507
0.17159717 -0.04360344 0.00021774456 0.11676295 -0.16752355 -0.024524115 0.1966201 0.104378976
-0.06276778 -0.0063440367 -0.019107845 -0.1408274 -0.053595502 -0.060434088 -0.1339825 -0.16110213
-0.1878813 -0.04801418 -0.13689922 0.035918303 0.06260671 0.05582876 0.046261683 0.072202295
-0.10163542 0.0022585413 -0.036801174 0.12406864 -0.0076128985 0.16002451 -0.11102807 -0.11805209
-0.09700467 -0.054540806 -0.08055988 -0.07923661 0.021477757 0.12458005 -0.12592411 0.021669907

network_body._body_endoder.seq_layers.0.bias f4 [128]
00000000: 0000 0000 0000 0000 0000 0000 0000 0000
00000010: 0000 0000 0000 0000 0000 0000 0000 0000
00000020: 0000 0000 0000 0000 0000 0000 0000 0000
00000030: 0000 0000 0000 0000 0000 0000 0000 0000
00000040: 0000 0000 0000 0000 0000 0000 0000 0000
00000050: 0000 0000 0000 0000 0000 0000 0000 0000
00000060: 0000 0000 0000 0000 0000 0000 0000 0000
00000070: 0000 0000 0000 0000 0000 0000 0000 0000
00000080: 0000 0000 0000 0000 0000 0000 0000 0000
00000090: 0000 0000 0000 0000 0000 0000 0000 0000
000000a0: 0000 0000 0000 0000 0000 0000 0000 0000
000000b0: 0000 0000 0000 0000 0000 0000 0000 0000
000000c0: 0000 0000 0000 0000 0000 0000 0000 0000
000000d0: 0000 0000 0000 0000 0000 0000 0000 0000
000000e0: 0000 0000 0000 0000 0000 0000 0000 0000
000000f0: 0000 0000 0000 0000 0000 0000 0000 0000
00000100: 0000 0000 0000 0000 0000 0000 0000 0000
00000110: 0000 0000 0000 0000 0000 0000 0000 0000
00000120: 0000 0000 0000 0000 0000 0000 0000 0000
00000130: 0000 0000 0000 0000 0000 0000 0000 0000
00000140: 0000 0000 0000 0000 0000 0000 0000 0000
00000150: 0000 0000 0000 0000 0000 0000 0000 0000
00000160: 0000 0000 0000 0000 0000 0000 0000 0000
00000170: 0000 0000 0000 0000 0000 0000 0000 0000
00000180: 0000 0000 0000 0000 0000 0000 0000 0000
00000190: 0000 0000 0000 0000 0000 0000 0000 0000
000001a0: 0000 0000 0000 0000 0000 0000 0000 0000
000001b0: 0000 0000 0000 0000 0000 0000 0000 0000
000001c0: 0000 0000 0000 0000 0000 0000 0000 0000
000001d0: 0000 0000 0000 0000 0000 0000 0000 0000
000001e0: 0000 0000 0000 0000 0000 0000 0000 0000
000001f0: 0000 0000 0000 0000 0000 0000 0000 0000
0.0 0.0 0.0 0.0 0.0 0.0 0.0 0.0
0.0 0.0 0.0 0.0 0.0 0.0 0.0 0.0
0.0 0.0 0.0 0.0 0.0 0.0 0.0 0.0
0.0 0.0 0.0 0.0 0.0 0.0 0.0 0.0
0.0 0.0 0.0 0.0 0.0 0.0 0.0 0.0
0.0 0.0 0.0 0.0 0.0 0.0 0.0 0.0
0.0 0.0 0.0 0.0 0.0 0.0 0.0 0.0
0.0 0.0 0.0 0.0 0.0 0.0 0.0 0.0
0.0 0.0 0.0 0.0 0.0 0.0 0.0 0.0
0.0 0.0 0.0 0.0 0.0 0.0 0.0 0.0
0.0 0.0 0.0 0.0 0.0 0.0 0.0 0.0
0.0 0.0 0.0 0.0 0.0 0.0 0.0 0.0
0.0 0.0 0.0 0.0 0.0 0.0 0.0 0.0
0.0 0.0 0.0 0.0 0.0 0.0 0.0 0.0
0.0 0.0 0.0 0.0 0.0 0.0 0.0 0.0
0.0 0.0 0.0 0.0 0.0 0.0 0.0 0.0

network_body._body_endoder.seq_layers.2.weight f4 [128, 128]
00000000: a9fa b8bd 80ed 79bd 470b 043c 7ef7 4d3c
00000010: 250f a73b 45a9 06bd fd98 f53d 7675 f5bd
00000020: c8b9 ce3d f6f4 e83d 1663 2f3e 030d 2c3c
00000030: aaf1 df3d a299 97bd 8776 043d 801b a0bd
00000040: 7c6c c93c 219d 85bd 588d 5d3d 3187 4ebb
00000050: b961 963b af67 dcbc 399b a4bd 996f cfbd
00000060: 62f2 65bd 3092 373d 6d8a d73c 1296 fc3d
00000070: c0fb c63d fae8 ba3b 5853 203b 2e2f 03be
00000080: 14b6 0dbe 3334 a43d 9370 f2bd b13f ee3c
00000090: 5ed5 e5b8 c520 bbbc 7133 edbd bbe6 32be
000000a0: 310e f63c dab5 00be 6c0e e83c 3205 11be
000000b0: 0ad8 2c3e f85e 413e 62c9 a53d 99ed 86bc
000000c0: e861 4c3d 2020 38bc d72a ce3c 16de 7f3d
000000d0: 7b63 643d 8bdf c1bd ea03 3b3d 93bb aebc
000000e0: 5e1f 76bd 11af a73c a770 3c3e 551d 54bc
000000f0: c935 5d3d 7c1b 2c3d b09a fa3b bf07 4e3e
00000100: 8b73 d13d f69b 1ebe b6cf 8d3c 9318 6dbc
00000110: e0ca 9bbc b0de 0c3e 9478 383d 29b9 553d
00000120: 40c5 d2bd d261 f73b fcc2 05bc 0de4 21bd
00000130: ea48 f7bd 3a8f ecbb 1e36 ce3d 6a36 fabd
00000140: 2e06 22bd b958 473c 3313 fb3d 4d67 7fbd
00000150: 33a2 343d 64d9 30bd 9ea3 f63d 5902 5dbc
00000160: b320 503c 9366 e3bc 3ceb acbd aa77 14be
00000170: e16c 3f3e 3a01 113e 88c2 39bc 197b 47be
00000180: 8b4d 9d3c e3bd a9bd 547b c03d 18bf d93d
00000190: 534b 40bc 15b8 26bd d012 94bd 8ca3 e2bd
000001a0: 776b f2bc ba45 9ebd 15c2 2dbe 24e9 c63c
000001b0: 85a7 3c3b 5197 90bc 5209 d33c 0926 093e
000001c0: 0e13 e8bc 866e b7bd e880 0fbe 21fc b93d
000001d0: 779c 393d e267 32be 3245 3f3e 5f0e 10bd
000001e0: 1bd3 bf3c 8cff 18bd 6c01 b4bd 4b99 a73d
000001f0: 8027 dfbd 2510 02be 3859 2b3c 1e43 893d
00000200: 32ce 043e d7a3 2a3e 9c5f dd3d 60bf aabd
00000210: 49de 8c3c 7e66 3f3d 11e7 41bc 8772 15be
00000220: ba41 943c fd23 72bd 5bfc 4a3c 4f70 85bd
00000230: e87f 9e3d 545e 2e3c da2b 293d 4280 163d
00000240: 1c9e 0a3e 942d 22bd 63ff b9bd 8284 1cbe
00000250: 366f 903b 68ff d53b 8a0f 12be 548e 0b3e
00000260: c8dd a2bd e46c 9ebc 546b 63bd 4acd f33d
00000270: ad24 aabc 351f c8bd 30a2 393e f5d4 b83d
00000280: dc90 66bd 9cf8 d4bc 59af 85bd 9fc5 ff3d
00000290: 2696 debc 90f6 b43c d7a4 72bc 3f06 2d3e
000002a0: 67a5 e43d 0cd9 16be 12fb 00be 2fb8 dcbc
000002b0: 1ae2 cd3c af47 fd3c b3a0 c2bc b934 b9bd
000002c0: e4ff 49bb 32a7 8fbd 6456 873d 51b6 83bd
000002d0: 101f 09bd 7fa4 59bd 3b2d 1b3e 99bb b3bd
000002e0: 75a0 a4bc 64a3 393d 4a6c 223d 9c82 eabd
000002f0: 1d9a 323e c1c2 053e 0798 223e 2fba 983d
00000300: d377 403c e13c 943d e065 e1bc 2830 05be
00000310: 8a40 87bc de0f 4bbd 61a2 923c 0a8e 1dbe
00000320: 9016 c2bd 22b2 e5bd 8397 493d 63bc ebbd
00000330: 7cb0 d4bc 51c0 043d 863c f8ba ff25 633b
00000340: d483 26be 7189 04be 7822 923c 2ef3 d33d
00000350: 6b56 cfbd 32ac a33b 12d0 8abd 0543 2b3c
00000360: 8fd2 7abb fca2 13be cba5 adbd 104e f0bd
00000370: d804 98bd 1a7a f5bc 9e55 91bc 9ee5 b93d
00000380: 3c6b e33c 164b bd3d f874 8b3d 0686 b53d
00000390: eeca c1bd 353d 0d3d 6a27 44bd c42c 443d
000003a0: 96c4 053e 9e41 a6bd 19c5 b0ba b03e 6bbc
000003b0: c6d6 b63b cea9 1bbe f32f 44be 930a 223d
000003c0: 1709 1bbd 936a 933d 3c06 a8bc e853 1f3c
000003d0: f7ec 02bc 323b a0bd 8b10 ea3d 34df 5d3d
000003e0: 1af8 0abd 7a8c cbbd 86d2 ef3c 86a0 da3d
000003f0: 22c8 a33d 0809 273e d5d0 6b3d a3be f13c
-0.09032185 -0.061017513 0.008059329 0.012571214 0.005098241 -0.03287627 0.11992071 -0.119852945
0.10094029 0.113748476 0.17127642 0.010501149 0.10934766 -0.0740235 0.0323396 -0.07817745
0.024587862 -0.065241106 0.054089874 -0.0031513686 0.004589286 -0.026904909 -0.08037419 -0.101287074
-0.056139357 0.04481715 0.026311124 0.12333311 0.09715986 0.0057040425 0.002446374 -0.12810966
-0.13838989 0.08017769 -0.11837878 0.029083105 -0.00010959314 -0.022842774 -0.11582077 -0.17470829
0.030036064 -0.12569371 0.02832719 -0.14162138 0.16879287 0.18883884 0.08095051 -0.016470717
0.04989806 -0.011238128 0.025166912 0.062467657 0.055758934 -0.094664656 0.04565803 -0.021329677
-0.060088508 0.02046922 0.18402348 -0.012946446 0.05400637 0.0420184 0.0076478347 0.20120142
0.10227116 -0.15489182 0.017310958 -0.014471191 -0.019017637 0.13756824 0.045036867 0.052178536
-0.10291529 0.007549503 -0.008164164 -0.039524127 -0.12074454 -0.0072192224 0.10068916 -0.1221741
-0.039556675 0.012167149 0.12259521 -0.062354375 0.044099998 -0.04317607 0.12042926 -0.013489329
0.012703109 -0.027758872 -0.08443305 -0.14498773 0.18693878 0.14160624 -0.011337884 -0.19480552
0.019202014 -0.08288171 0.09398523 0.10632151 -0.011736709 -0.040702898 -0.07230151 -0.1106635
-0.029592259 -0.07728143 -0.16968568 0.024281092 0.0028786373 -0.017650278 0.02576128 0.13393416
-0.028329398 -0.089566275 -0.14014018 0.09081293 0.045315232 -0.1742244 0.1867874 -0.035169955
0.023416093 -0.037353083 -0.08789334 0.08183535 -0.10896206 -0.12701471 0.010458283 0.06702255
0.12969282 0.16664062 0.10809252 -0.08337283 0.017195838 0.046728604 -0.011834876 -0.1459447
0.018097747 -0.059116352 0.012389268 -0.06515562 0.0773924 0.010642607 0.041301586 0.03674341
0.13536876 -0.039594248 -0.09081914 -0.15284923 0.0044077886 0.006530691 -0.1426374 0.13628513
-0.07952458 -0.019339032 -0.055522278 0.1190439 -0.020769442 -0.09771577 0.18128276 0.09024993
-0.056290492 -0.025997452 -0.065275855 0.12488865 -0.027171206 0.022090226 -0.014809809 0.16896914
0.111643605 -0.14731234 -0.12595776 -0.026943294 0.025132228 0.03091797 -0.023758268 -0.09043259
-0.0030822689 -0.07014312 0.066082746 -0.064312585 -0.03347689 -0.05313539 0.15153973 -0.08776016
-0.020096043 0.045321837 0.039654054 -0.11450693 0.17441602 0.13062574 0.15878306 0.07457387
0.011747318 0.07238174 -0.027514398 -0.13006651 -0.016510267 -0.04957568 0.017899694 -0.15386215
-0.0947696 -0.11215617 0.04921676 -0.11510541 -0.02596306 0.03240997 -0.0018938936 0.0034660099
-0.16261226 -0.12943055 0.017838702 0.10349117 -0.10123905 0.0049948925 -0.067779675 0.01045299
-0.0038272475 -0.14417642 -0.08478888 -0.11733639 -0.07422799 -0.02996545 -0.01774102 0.09076999
0.027761094 0.09242837 0.068094194 0.088634536 -0.09462534 0.0344822 -0.04788915 0.047894254
0.13063273 -0.08117984 -0.0013486474 -0.014358208 0.005579802 -0.15201494 -0.19158916 0.039560866
-0.037850466 0.07198062 -0.020510785 0.009724595 -0.007991067 -0.078237906 0.114289366 0.05416794
-0.033928014 -0.09938903 0.02927519 0.10675149 0.07997157 0.16312039 0.057572205 0.029509848

network_body._body_endoder.seq_layers.2.bias f4 [128]
00000000: 0000 0000 0000 0000 0000 0000 0000 0000
00000010: 0000 0000 0000 0000 0000 0000 0000 0000
00000020: 0000 0000 0000 0000 0000 0000 0000 0000
00000030: 0000 0000 0000 0000 0000 0000 0000 0000
00000040: 0000 0000 0000 0000 0000 0000 0000 0000
00000050: 0000 0000 0000 0000 0000 0000 0000 0000
00000060: 0000 0000 0000 0000 0000 0000 0000 0000
00000070: 0000 0000 0000 0000 0000 0000 0000 0000
00000080: 0000 0000 0000 0000 0000 0000 0000 0000
00000090: 0000 0000 0000 0000 0000 0000 0000 0000
000000a0: 0000 0000 0000 0000 0000 0000 0000 0000
000000b0: 0000 0000 0000 0000 0000 0000 0000 0000
000000c0: 0000 0000 0000 0000 0000 0000 0000 0000
000000d0: 0000 0000 0000 0000 0000 0000 0000 0000
000000e0: 0000 0000 0000 0000 0000 0000 0000 0000
000000f0: 0000 0000 0000 0000 0000 0000 0000 0000
00000100: 0000 0000 0000 0000 0000 0000 0000 0000
00000110: 0000 0000 0000 0000 0000 0000 0000 0000
00000120: 0000 0000 0000 0000 0000 0000 0000 0000
00000130: 0000 0000 0000 0000 0000 0000 0000 0000
00000140: 0000 0000 0000 0000 0000 0000 0000 0000
00000150: 0000 0000 0000 0000 0000 0000 0000 0000
00000160: 0000 0000 0000 0000 0000 0000 0000 0000
00000170: 0000 0000 0000 0000 0000 0000 0000 0000
00000180: 0000 0000 0000 0000 0000 0000 0000 0000
00000190: 0000 0000 0000 0000 0000 0000 0000 0000
000001a0: 0000 0000 0000 0000 0000 0000 0000 0000
000001b0: 0000 0000 0000 0000 0000 0000 0000 0000
000001c0: 0000 0000 0000 0000 0000 0000 0000 0000
000001d0: 0000 0000 0000 0000 0000 0000 0000 0000
000001e0: 0000 0000 0000 0000 0000 0000 0000 0000
000001f0: 0000 0000 0000 0000 0000 0000 0000 0000
0.0 0.0 0.0 0.0 0.0 0.0 0.0 0.0
0.0 0.0 0.0 0.0 0.0 0.0 0.0 0.0
0.0 0.0 0.0 0.0 0.0 0.0 0.0 0.0
0.0 0.0 0.0 0.0 0.0 0.0 0.0 0.0
0.0 0.0 0.0 0.0 0.0 0.0 0.0 0.0
0.0 0.0 0.0 0.0 0.0 0.0 0.0 0.0
0.0 0.0 0.0 0.0 0.0 0.0 0.0 0.0
0.0 0.0 0.0 0.0 0.0 0.0 0.0 0.0
0.0 0.0 0.0 0.0 0.0 0.0 0.0 0.0
0.0 0.0 0.0 0.0 0.0 0.0 0.0 0.0
0.0 0.0 0.0 0.0 0.0 0.0 0.0 0.0
0.0 0.0 0.0 0.0 0.0 0.0 0.0 0.0
0.0 0.0 0.0 0.0 0.0 0.0 0.0 0.0
0.0 0.0 0.0 0.0 0.0 0.0 0.0 0.0
0.0 0.0 0.0 0.0 0.0 0.0 0.0 0.0
0.0 0.0 0.0 0.0 0.0 0.0 0.0 0.0

value_heads.value_heads.extrinsic.weight f4 [1, 128]
00000000: d74e 2ebe 7407 c53d b4a0 16bd 7228 49bd
00000010: 1f7e 53be 4f4f 66bd f8ee b8bd 80f5 4b3e
00000020: 7f5b ecbd 945e 273e f523 143e d935 92bd
00000030: a286 44bd a40e 91bc 7ed2 f8bc 4355 49bd
00000040: cccc 03be 3859 d03d 6721 393e fdd1 0e3e
00000050: a0b6 853d 1586 a5bd 25a8 b93d 938c 09be
00000060: c71b 823d acee 66bd 4a61 38bd 3aa4 c6bd
00000070: 602c 0cbd 1630 83bc 8685 f3bc 0e79 b83d
00000080: a753 f5bd a8d1 5dbc c48c 40be b763 04be
00000090: f2b4 70bd 19cc 1c3e d968 ec3d c1a4 8f3c
000000a0: 9cd3 37be 19f4 23be 09a0 ee3d 5de1 453e
000000b0: 6b54 12bd d991 7dbd 328f 413e bae4 213e
000000c0: cb69 283e 8115 543e fd33 c9bd 93e5 4fbe
000000d0: 874f 973d 9dba 5abe c9ea 003e 3ee4 2a3d
000000e0: fd24 da3d 6ca9 a4bd aa79 283e 0998 6a3d
000000f0: 079f 1c3d 655e 14be 24d7 3e3e 94a4 f3bc
00000100: 64c0 813d 0318 283e 020b 4bbc 53d3 9d3d
00000110: d758 353e 2ff9 30be b8a3 21be ea11 7bbd
00000120: d04a fa3d 115a 53bc 86e3 98bc 8deb 433e
00000130: ec8f 47bd 588c febc ff9b 2dbe c088 59be
00000140: a579 00bd ff23 ec3d d617 a9bd d4d8 423d
00000150: 5ed2 2bbe 44c5 953d 1999 323a ad52 00bd
00000160: ad34 f2bd 40f7 9c3d c363 14be 99e3 75bb
00000170: 8cee 353e 7c5c b5bd c85c cf39 767f e53d
00000180: 8a8b cabd 5f3a 0a3e 4800 f2bd 46c2 d8bd
00000190: 584d 2fbe f980 573e 7adc 0b3e c504 d0bd
000001a0: 4bf9 46be 46ba 583e aef0 ce3d eec0 1d3e
000001b0: 1323 683d dc08 51be 72e5 34be c5fc 00be
000001c0: d5aa 47be d695 bbbd dfe9 113e 2f7d 51be
000001d0: 3fe9 623d ef19 a6bd d1df f3bd 62a2 bd3d
000001e0: 30f2 453e 53f2 42be 6205 0a3e cf15 1d3e
000001f0: 92bf 00be 4d5a 473e 032b f2bd 20e8 753d
-0.17022263 0.09620562 -0.036774352 -0.049110837 -0.2065358 -0.05622798 -0.09029955 0.1991787
-0.11540889 0.16344672 0.14466842 -0.07139177 -0.04797996 -0.017707177 -0.030373808 -0.049153578
-0.12871093 0.10173267 0.18079148 0.13947292 0.065289736 -0.08082215 0.09065274 -0.13432531
0.06352954 -0.05637996 -0.045014657 -0.096992925 -0.034222007 -0.01601414 -0.029726755 0.09007464
-0.11978846 -0.0135387555 -0.18803698 -0.12928663 -0.058766313 0.15312232 0.115434356 0.017534615
-0.17951816 -0.16011085 0.11651618 0.1932425 -0.03572504 -0.06190667 0.18902281 0.15809909
0.16446607 0.20711328 -0.09824369 -0.2030242 0.073882155 -0.2136025 0.12589563 0.041721575
0.10651586 -0.08040127 0.16452661 0.0572739 0.038237598 -0.14489134 0.18636757 -0.029741563
0.06335524 0.1641541 -0.012392761 0.077063225 0.17709671 -0.17282556 -0.1578511 -0.06129638
0.122213006 -0.0128998915 -0.01866318 0.19132824 -0.04872124 -0.03107278 -0.16954039 -0.21243572
-0.03136601 0.11530303 -0.082564995 0.047570065 -0.16779467 0.07313016 0.00068129745 -0.031328846
-0.11826453 0.07664347 -0.14491181 -0.0037519692 0.1776678 -0.088555306 0.00039551244 0.11205952
-0.09889896 0.1349883 -0.1181646 -0.1058393 -0.17119348 0.21045293 0.13658324 -0.1015716
-0.19431035 0.21164808 0.101045 0.15405628 0.056674074 -0.20413536 -0.17665651 -0.12596424
-0.19498761 -0.09159438 0.14249371 -0.2045791 0.055398222 -0.08110415 -0.11907924 0.09259488
0.19330668 -0.19037752 0.13478616 0.1534035 -0.12573078 0.19468041 -0.1182461 0.060035825
