Results/test27/SnowBall.onnx (onnx, 143334 bytes, 9 tensors)

action_model._discrete_distribution.branches.0.bias f4 [3]
0	0x00000000	0.0
1	0x00000000	0.0
2	0x00000000	0.0

action_model._discrete_distribution.branches.0.weight f4 [3, 128]
0	0x3be07dcd	0.006850934
1	0xbbe6923d	-0.007036476
2	0xbc329afe	-0.010901211
3	0xbaa5eda4	-0.0012659323
4	0xbab92833	-0.001412636
5	0x3b34d925	0.0027595249
6	0x3b418cb3	0.0029533326
7	0xb9fce272	-0.000482339
8	0x3bd17bb2	0.0063929195
9	0xbc1a718b	-0.009426485
10	0x3c0696c8	0.00821466
11	0x3c4e9cad	0.012610597
12	0xba8166e4	-0.0009872583
13	0xbc56a45a	-0.013100708
14	0xbc017396	-0.007901093
15	0xbaa63f05	-0.0012683576
16	0xbb5abe1d	-0.0033377477
17	0xbbdbd9df	-0.006709322
18	0x3bf9d3e8	0.007624138
19	0x3c1d9fc0	0.009620607
20	0xbb4bb2b7	-0.0031081864
21	0x3b2e41a7	0.0026589425
22	0xbb36db83	-0.0027901835
23	0x3b443243	0.0029937185
24	0xbbc0e85a	-0.0058870735
25	0xba9f8c24	-0.0012172502
26	0x3bc23f4c	0.0059279557
27	0x3b27647e	0.0025542076
28	0x3a69588a	0.0008901438
29	0xbc0fa959	-0.008768403
30	0xbc1939c0	-0.009352148
31	0xbb686fd8	-0.0035467055
32	0x3a2ffbde	0.00067132514
33	0xba1a1ac5	-0.0005878623
34	0x3a0acd4b	0.0005294873
35	0x3badfff8	0.005310055
36	0x3bf85eed	0.0075796754
37	0x3c28b731	0.0102975825
38	0x3c1a70cf	0.00942631
39	0x3c707485	0.014676218
40	0x3c048c83	0.008090141
41	0x3c9db783	0.019252544
42	0xbb7a5808	-0.0038199443
43	0x3c20abeb	0.009806613
44	0x39ca30ac	0.00038564706
45	0x3c299bcc	0.010352086
46	0xbaa0f347	-0.0012279534
47	0xbcd47497	-0.0259345
48	0xb84dfcf8	-4.9111404e-05
49	0xbc4ed798	-0.012624644
50	0xbbbefcc3	-0.0058284714
51	0x3ba06503	0.004894854
52	0xbb869d23	-0.0041080876
53	0x3be79678	0.007067498
54	0x3ba94074	0.005165154
55	0x3aea8070	0.001789106
56	0x3badf9e9	0.0053093326
57	0xbaea43e8	-0.0017873021
58	0xbb664dbd	-0.003514155
59	0xbc073dfe	-0.008254526
60	0xbc6b8dfd	-0.014377114
61	0xbb5d01f5	-0.003372309
62	0xbbe2bd27	-0.0069195214
63	0xbb4bd3e0	-0.003110163
64	0xba10f811	-0.0005530129
65	0xbbdb8b10	-0.006699927
66	0x3b8bde6f	0.0042684595
67	0x3c9e4b1f	0.01932293
68	0x3bb7dc3a	0.00561097
69	0xbc8a838d	-0.016908431
70	0xbc32d526	-0.010915076
71	0xbcab0624	-0.020876952
72	0x3ab170d6	0.0013537656
73	0x3ad8e9db	0.0016549187
74	0x3bf81a55	0.0075714984
75	0xbb80436f	-0.0039142887
76	0x3a4fecb5	0.00079316954
77	0xbc082ded	-0.008311731
78	0xbc19c7f5	-0.009386052
79	0xbbc36f5e	-0.0059642037
80	0xbbc294ec	-0.005938163
81	0xbbacc5b1	-0.00527259
82	0x3b7d39af	0.0038639118
83	0xbc926390	-0.01786974
84	0x3c0f6a53	0.008753377
85	0x3bbe5021	0.005807892
86	0xbbf183f3	-0.007370466
87	0x3c46857d	0.012116787
88	0x3c02cc47	0.007983274
89	0xbc0d4a89	-0.008623728
90	0xbb9067c7	-0.0044069025
91	0x3c73e26b	0.014885525
92	0x3c0d3158	0.0086177215
93	0x3b7ad0c3	0.0038271404
94	0x39e2be7a	0.00043247995
95	0x3b581447	0.003297107
96	0x3c5460d7	0.012962542
97	0x3bb29c02	0.0054507265
98	0xbb2ec247	-0.0026666091
99	0x3b9af2e1	0.0047286605
100	0xbb26db97	-0.0025460476
101	0x3ab2a5eb	0.001362977
102	0x3bac3fff	0.0052566524
103	0x3ada88cd	0.001667285
104	0xbbbd9f93	-0.005786845
105	0x3b0d7396	0.0021583787
106	0x3bf407b8	0.007447209
107	0x3c35e4ac	0.011101883
108	0xbcb9be4f	-0.022673754
109	0x3b929623	0.004473464
110	0x3b15cf57	0.002285918
111	0xb9a4ec0d	-0.0003145639
112	0x391459f4	0.0001414789
113	0xbc40ceec	-0.011768084
114	0x3ab71e9b	0.0013970913
115	0xbb9591d3	-0.0045645027
116	0xbbd648d0	-0.0065394416
117	0x3b8807c4	0.0041513164
118	0x3cbb9fa6	0.022903275
119	0xbaae3e73	-0.0013293758
120	0x3c2b08e4	0.010439131
121	0x3af69e07	0.0018815406
122	0xbbacfd23	-0.0052791997
123	0x3c49132f	0.01227264
124	0x3c24c2de	0.010056226
125	0xb9ff78ad	-0.000487273
126	0xbbb6b644	-0.005575927
127	0xbaf42df8	-0.0018629422
128	0xbc1612ee	-0.009159787
129	0xbc05c194	-0.008163828
130	0xbbcf0da2	-0.006318764
131	0xbaf53b70	-0.001870973
132	0x3bea6378	0.007152971
133	0x3c69db6f	0.014273508
134	0xbbe9ab8a	-0.0071310448
135	0x3b764685	0.0037578654
136	0x3afd84fd	0.0019342002
137	0x3afe73d2	0.0019413179
138	0x3c60a87f	0.013712048
139	0xbb367790	-0.002784226
140	0x3b56100d	0.0032663376
141	0x3b2ea29d	0.0026647218
142	0xbbd0a542	-0.0063673565
143	0x3bb755b2	0.0055949325
144	0x3b3465c3	0.0027526475
145	0x3c99e952	0.018788014
146	0x39962e7d	0.00028644866
147	0xbc7160b5	-0.014732529
148	0xba140acf	-0.00056473626
149	0xbb348af5	-0.0027548645
150	0x3c82ad5f	0.01595181
151	0x3baebb78	0.0053324066
152	0x3c4d5f60	0.012534946
153	0x3c5049a7	0.012712873
154	0xbb80c067	-0.003929186
155	0x3b367f55	0.0027846892
156	0xbcb86357	-0.022508306
157	0xbc29abba	-0.010355884
158	0xbc0979fc	-0.0083909
159	0xba1ed8a7	-0.00060595054
160	0x3bbc1a43	0.0057404353
161	0x3bb830c7	0.005621049
162	0xbc05e88e	-0.008173121
163	0xbbbcec78	-0.005765494
164	0x3c9263d7	0.017869873
165	0xbb704830	-0.003666412
166	0x3b604832	0.003422272
167	0x3c087fd3	0.008331257
168	0xbbba2c07	-0.005681518
169	0xbc085469	-0.008320906
170	0x3bc76a15	0.006085644
171	0x3bb7c025	0.005607622
172	0x3c0a8291	0.008453981
173	0xbb2f5b23	-0.0026757203
174	0xbc81cafe	-0.015843865
175	0x3ac6a9ab	0.0015156766
176	0x3a928717	0.0011179176
177	0xbb3fcb74	-0.0029265555
178	0x3c43609d	0.01192489
179	0xbc4a2578	-0.012338035
180	0xba95e74d	-0.0011436731
181	0xbc00a4d9	-0.007851803
182	0xbc3def11	-0.011592642
183	0x3b48bcd7	0.0030630135
184	0xbc30febc	-0.010802921
185	0xbc9dca32	-0.019261453
186	0xbb871ef3	-0.0041235625
187	0xbc10ef5a	-0.008846128
188	0xbb23f1ff	-0.0025016067
189	0x3c4da1df	0.0125508
190	0x3bd2df88	0.0064353384
191	0x3b448d82	0.0029991572
192	0xbc3d82c8	-0.011566825
193	0x3889b493	6.566304e-05
194	0x3c0b2de7	0.008494831
195	0xb9313449	-0.00016899513
196	0x3aa70461	0.0012742394
197	0x3a43570f	0.00074516324
198	0xbbcdf0a7	-0.0062847915
199	0x3b654c6a	0.0034988173
200	0x3a4f1d6a	0.00079008064
201	0xbbfe0bca	-0.00775287
202	0x3c9e340b	0.019311925
203	0xbb29ec52	-0.0025928211
204	0xbbc0ad15	-0.005880008
205	0xbc2de728	-0.010614194
206	0xbb7c7e23	-0.0038527332
207	0x3bfc920a	0.007707839
208	0xbb949f77	-0.0045356113
209	0xbc43200a	-0.011909494
210	0x3b10f66f	0.0022119542
211	0xbc35657b	-0.011071558
212	0x3ad2f1cf	0.0016093793
213	0xbc53a280	-0.012917161
214	0x3b93cc04	0.0045104045
215	0x3c2e91bb	0.010654862
216	0xb99db1e1	-0.00030077904
217	0xbb106a17	-0.002203589
218	0x3ce24478	0.02762054
219	0x3c268e73	0.0101657985
220	0xb96ed337	-0.00022776132
221	0x39dabc88	0.00041720667
222	0xbc458cc9	-0.012057492
223	0x3c37618f	0.011192693
224	0xbb9c2fd3	-0.0047664433
225	0xba9ed51b	-0.0012117954
226	0x3b6c3bbf	0.0036046354
227	0xbc34a466	-0.011025524
228	0xbc3aeef7	-0.011409513
229	0xbbcc50e2	-0.006235228
230	0x3a4f6f42	0.0007913002
231	0x3a1c2463	0.000595635
232	0x3c774efa	0.015094513
233	0xb78b6e99	-1.6621592e-05
234	0xbc391fcb	-0.011299084
235	0xbc79483a	-0.015214974
236	0x3b373282	0.002795369
237	0x3b31646b	0.002706791
238	0x3be7c1b8	0.0070726536
239	0xbb88568d	-0.0041607083
240	0x3be235a3	0.0069033667
241	0x3c1555e3	0.009114715
242	0x3b3a355a	0.0028413148
243	0xbc030977	-0.007997862
244	0x3bae6096	0.0053215725
245	0xbc69b31f	-0.014263897
246	0xbb932e6f	-0.0044916193
247	0x3a47fe52	0.0007629144
248	0xbbb8586d	-0.0056257755
249	0x3a4bd9af	0.0007776273
250	0x3b17d720	0.0023168996
251	0x3b5ea15f	0.0033970696
252	0x3c715fad	0.014732284
253	0x3c1a2cfe	0.009410141
254	0xbc33af38	-0.010967068
255	0x3c44987d	0.011999247

action_model._discrete_distribution.branches.1.bias f4 [3]
0	0x00000000	0.0
1	0x00000000	0.0
2	0x00000000	0.0

action_model._discrete_distribution.branches.1.weight f4 [3, 128]
0	0x3c04d3bb	0.008107121
1	0xba18f732	-0.0005835175
2	0xbb5ad0d0	-0.0033388622
3	0xbc224d6d	-0.009906155
4	0xbc48b682	-0.0122505445
5	0xbc35cc47	-0.011096067
6	0xbb86f606	-0.0041186837
7	0x3c1384f7	0.009003869
8	0x3b4f527b	0.0031634856
9	0xbc303637	-0.010755113
10	0x3bb4aa62	0.0055134753
11	0x3b90e030	0.0044212565
12	0xbbda82d3	-0.0066684275
13	0xb9c22da6	-0.00037036574
14	0x3a4b7591	0.0007761354
15	0x3b108508	0.002205195
16	0xbc571262	-0.013126941
17	0x3c9a5399	0.01883869
18	0xbc36acf3	-0.011149633
19	0x3b39366f	0.0028261205
20	0x3c983cc0	0.018583655
21	0xbb022514	-0.0019858526
22	0x3bf78542	0.0075537274
23	0xbab858d2	-0.0014064556
24	0x3c766177	0.015037886
25	0xbb8dacc8	-0.0043235756
26	0x3b3176da	0.0027078898
27	0xb9cda1b5	-0.00039221128
28	0x393dc378	0.00018097262
29	0xbbead353	-0.007166305
30	0x3c2ba396	0.010476014
31	0xbb84b441	-0.0040498083
32	0x3c4f27c2	0.012643756
33	0x3c875eec	0.016524754
34	0x3c29cf10	0.010364309
35	0xbbbaf21b	-0.0057051308
36	0x3bd35c0d	0.0064501823
37	0x3b11c9bd	0.002224549
38	0x3bcc0833	0.0062265634
39	0x3bc6b6a5	0.0060642534
40	0x3be5dfba	0.0070151957
41	0x3c975df0	0.01847741
42	0x3c6c5107	0.014423615
43	0x3bf867ed	0.0075807483
44	0x3c8a1daf	0.016859857
45	0xbb9bbc91	-0.0047527035
46	0x3c2b1287	0.010441429
47	0xbb501cff	-0.0031755564
48	0x3bec5582	0.0072123418
49	0xbbb0a0af	-0.0053902487
50	0x3bc9f3bc	0.0061630886
51	0x3bb6508d	0.0055638016
52	0xbbddc767	-0.0067681554
53	0x398e4fef	0.00027143906
54	0x3c0ffb72	0.008787977
55	0x3b344631	0.0027507658
56	0x3b35a043	0.0027713932
57	0xbb44d58d	-0.0030034513
58	0xbc6d978d	-0.014501465
59	0x3aa9f913	0.0012967907
60	0x3b5fdd73	0.0034159094
61	0xbb83e68a	-0.004025285
62	0x3cc47e94	0.023986138
63	0xbc9aeb8c	-0.018911146
64	0xbba5e9c0	-0.0050632656
65	0xbac61e67	-0.0015115262
66	0xbb94114e	-0.0045186644
67	0x3b0cbe7d	0.0021475845
68	0xbbdad5d7	-0.0066783237
69	0x3bb7c21a	0.0056078555
70	0x384984c5	4.8045786e-05
71	0xbb7cf58f	-0.0038598513
72	0x3b5882bd	0.003303691
73	0xbc374f03	-0.011188271
74	0x3b645138	0.003483845
75	0xbb2a58c7	-0.0025992857
76	0x3bb5db6f	0.00554984
77	0x3b6ab5d0	0.0035813935
78	0xbc38836b	-0.011261801
79	0x3afd0b1a	0.0019305677
80	0x3bb2e46b	0.0054593585
81	0xba5de47d	-0.00084645284
82	0x3cb92362	0.02259988
83	0x3ad475e8	0.0016209455
84	0xbba3b2ae	-0.0049956655
85	0x3c13b083	0.009014252
86	0xbb7d962d	-0.0038694248
87	0xbbacd217	-0.005274068
88	0xbb917016	-0.0044384105
89	0x3b33ecbe	0.0027454342
90	0x3bcac47a	0.0061879726
91	0xba08cb4f	-0.00052182836
92	0x3b51e9b7	0.0032030174
93	0xbb94fea8	-0.004546959
94	0xbb7a9460	-0.003823541
95	0x3c05a342	0.0081565995
96	0x3bd71fc0	0.006565064
97	0x3add8357	0.0016900104
98	0x3c205cff	0.009787797
99	0x3b8fe7e6	0.004391658
100	0xbbaa2af8	-0.0051931106
101	0xbaf8e813	-0.0018990062
102	0x3c432321	0.011910231
103	0x3ba09350	0.0049003735
104	0x3be3c783	0.006951274
105	0xbbf1dabf	-0.007380813
106	0x3c01c027	0.007919348
107	0xbc32c2f5	-0.010910739
108	0xbc145496	-0.00905337
109	0x3a57d9d0	0.0008234056
110	0x3ba673f1	0.0050797393
111	0xbb3027ff	-0.0026879308
112	0xbb13690f	-0.002249304
113	0xbc864bc9	-0.016393559
114	0x3bc3642f	0.0059628705
115	0x3b9af142	0.004728467
116	0xbbc6a64d	-0.006062305
117	0x3bfa6d35	0.007642413
118	0x3c71b69b	0.014753009
119	0xbbc48ab6	-0.005997981
120	0x3b07a31a	0.0020696581
121	0xbc01b8a1	-0.007917554
122	0xbbe40f4b	-0.006959831
123	0x3a9d66c8	0.0012008781
124	0x3bb1ec96	0.0054298146
125	0xbbd7ad92	-0.0065819705
126	0xbb6d99c2	-0.0036254977
127	0x3b5e2df5	0.0033901904
128	0x3c16d50c	0.009206068
129	0x3c496422	0.01229194
130	0xbc87743c	-0.016534917
131	0xba819cbb	-0.0009888628
132	0xbc85ca12	-0.016331706
133	0xbb595365	-0.003316128
134	0x3c161591	0.009160415
135	0xbcb6c1b6	-0.022309165
136	0x3c3becc5	0.0114700245
137	0x3bc81c57	0.006106894
138	0xb88a48e3	-6.593929e-05
139	0x3b2ec186	0.0026665642
140	0x39a7813b	0.00031949006
141	0x3b348427	0.002754459
142	0x3b7a12f5	0.0038158272
143	0xba48b354	-0.00076561165
144	0xbbd0ba93	-0.0063698976
145	0x3b0a8adb	0.0021139893
146	0x3c5896f2	0.013219582
147	0x3bd1b092	0.0063992226
148	0xbb6ee680	-0.0036453307
149	0xbc637295	-0.013882299
150	0x3b096c53	0.0020969107
151	0xbca4c025	-0.020111153
152	0x3c585e1b	0.01320603
153	0x3bb5dc9c	0.0055499803
154	0x3c55a01a	0.0130386595
155	0xbbc30908	-0.0059520043
156	0x3c00e600	0.007867336
157	0x3ba19780	0.0049313903
158	0x3c76399b	0.015028383
159	0xba18d1b4	-0.0005829588
160	0xbbf6245a	-0.0075116577
161	0x3c0da069	0.008644202
162	0x3922461b	0.0001547564
163	0xbbce393f	-0.0062934454
164	0xbb3331c6	-0.00273429
165	0x3b732aa0	0.0037104264
166	0x3b1c08ae	0.0023808884
167	0x3c579e92	0.013160365
168	0xbad60ad7	-0.0016330135
169	0xbbb116bf	-0.005404323
170	0x3abe7aac	0.0014532409
171	0xbb64ac9a	-0.0034892918
172	0xbb01dd17	-0.0019815618
173	0xbbd2dd18	-0.006435048
174	0xbbf94820	-0.007607475
175	0x3b77ec42	0.003783003
176	0x3b9ebcb5	0.004844273
177	0x3bb44dad	0.0055024237
178	0xbc8f3b14	-0.017484225
179	0xbc00be94	-0.007857937
180	0xbc197508	-0.009366281
181	0x3b07697e	0.0020662243
182	0x38b3ea78	8.579058e-05
183	0x3bfdfb17	0.0077508795
184	0xbafad4c7	-0.0019136899
185	0xbbb939cf	-0.0056526433
186	0xbbfa3378	-0.00763553
187	0xbc0d9868	-0.0086422935
188	0xbc143257	-0.009045205
189	0xbbc1d929	-0.00591578
190	0xbb51476d	-0.0031933442
191	0x3c236749	0.009973356
192	0xbc000e7c	-0.007815953
193	0x3c389287	0.011265404
194	0xbbac82e7	-0.005264628
195	0xbb28c139	-0.0025749935
196	0x3ad2870b	0.0016061974
197	0x3bb57a9f	0.005538299
198	0x3c423a35	0.011854698
199	0x3bc0b91c	0.0058814418
200	0x3b2d5fbb	0.0026454765
201	0x3c97670b	0.018481752
202	0x3c065f97	0.008201501
203	0x3af1903d	0.0018429827
204	0x3bacbbf5	0.0052714297
205	0xbc6e9ab7	-0.014563254
206	0xbc042ed3	-0.008067804
207	0xbc48372f	-0.012220188
208	0xbc85fd5b	-0.01635616
209	0xbb2c36cd	-0.002627778
210	0x3c3af935	0.011411955
211	0xbb26f366	-0.0025474667
212	0xbbd8a7b7	-0.00661179
213	0x393169e4	0.00016919483
214	0xbb28b7ea	-0.0025744387
215	0xbbc11d8d	-0.0058934153
216	0x3c720a3a	0.014772946
217	0xbc4d65e3	-0.012536499
218	0xbb360a60	-0.002777718
219	0x3b9f814d	0.004867709
220	0x3bd45ef8	0.0064810477
221	0xba033a6f	-0.00050059607
222	0x3bd4c59d	0.006493284
223	0xbae7cd2a	-0.0017685045
224	0xbb4c7e86	-0.0031203344
225	0xbb958ec2	-0.004564137
226	0x3b3f66cf	0.0029205566
227	0x3c9d1a2b	0.019177517
228	0xbb384f27	-0.002812335
229	0xbc3bea76	-0.011469474
230	0xbc7c66fa	-0.015405411
231	0xbbf233c5	-0.0073914253
232	0xbc893d11	-0.016752752
233	0xbb5c0d1a	-0.0033577145
234	0x3beb366a	0.0071781175
235	0xbc5efdd8	-0.013610326
236	0xbbc0b678	-0.005881127
237	0x3b4f86ed	0.0031666115
238	0x3b2b1e2c	0.0026110513
239	0xbb112494	-0.0022147046
240	0x3c247162	0.010036798
241	0xbcaad146	-0.020851742
242	0xbbd6e422	-0.0065579573
243	0x3b5e4982	0.0033918326
244	0xbb9d983b	-0.004809407
245	0x3b46450b	0.0030253555
246	0xbb6b74bf	-0.003592774
247	0x3ba7bbb9	0.005118814
248	0x3c97efad	0.018546904
249	0xbc7cac9a	-0.015422011
250	0x3b8f1508	0.004366521
251	0xbbc26f19	-0.005933654
252	0x3bc69caa	0.0060611563
253	0xbc8d2fb7	-0.017234666
254	0x3c979c4e	0.01850715
255	0x3b3f19fd	0.0029159777

discrete_action_output_shape f4 [1, 2]
0	0x40400000	3.0
1	0x40400000	3.0

network_body._body_endoder.seq_layers.0.bias f4 [128]
0	0x00000000	0.0
1	0x00000000	0.0
2	0x00000000	0.0
3	0x00000000	0.0
4	0x00000000	0.0
5	0x00000000	0.0
6	0x00000000	0.0
7	0x00000000	0.0
8	0x00000000	0.0
9	0x00000000	0.0
10	0x00000000	0.0
11	0x00000000	0.0
12	0x00000000	0.0
13	0x00000000	0.0
14	0x00000000	0.0
15	0x00000000	0.0
16	0x00000000	0.0
17	0x00000000	0.0
18	0x00000000	0.0
19	0x00000000	0.0
20	0x00000000	0.0
21	0x00000000	0.0
22	0x00000000	0.0
23	0x00000000	0.0
24	0x00000000	0.0
25	0x00000000	0.0
26	0x00000000	0.0
27	0x00000000	0.0
28	0x00000000	0.0
29	0x00000000	0.0
30	0x00000000	0.0
31	0x00000000	0.0
32	0x00000000	0.0
33	0x00000000	0.0
34	0x00000000	0.0
35	0x00000000	0.0
36	0x00000000	0.0
37	0x00000000	0.0
38	0x00000000	0.0
39	0x00000000	0.0
40	0x00000000	0.0
41	0x00000000	0.0
42	0x00000000	0.0
43	0x00000000	0.0
44	0x00000000	0.0
45	0x00000000	0.0
46	0x00000000	0.0
47	0x00000000	0.0
48	0x00000000	0.0
49	0x00000000	0.0
50	0x00000000	0.0
51	0x00000000	0.0
52	0x00000000	0.0
53	0x00000000	0.0
54	0x00000000	0.0
55	0x00000000	0.0
56	0x00000000	0.0
57	0x00000000	0.0
58	0x00000000	0.0
59	0x00000000	0.0
60	0x00000000	0.0
61	0x00000000	0.0
62	0x00000000	0.0
63	0x00000000	0.0
64	0x00000000	0.0
65	0x00000000	0.0
66	0x00000000	0.0
67	0x00000000	0.0
68	0x00000000	0.0
69	0x00000000	0.0
70	0x00000000	0.0
71	0x00000000	0.0
72	0x00000000	0.0
73	0x00000000	0.0
74	0x00000000	0.0
75	0x00000000	0.0
76	0x00000000	0.0
77	0x00000000	0.0
78	0x00000000	0.0
79	0x00000000	0.0
80	0x00000000	0.0
81	0x00000000	0.0
82	0x00000000	0.0
83	0x00000000	0.0
84	0x00000000	0.0
85	0x00000000	0.0
86	0x00000000	0.0
87	0x00000000	0.0
88	0x00000000	0.0
89	0x00000000	0.0
90	0x00000000	0.0
91	0x00000000	0.0
92	0x00000000	0.0
93	0x00000000	0.0
94	0x00000000	0.0
95	0x00000000	0.0
96	0x00000000	0.0
97	0x00000000	0.0
98	0x00000000	0.0
99	0x00000000	0.0
100	0x00000000	0.0
101	0x00000000	0.0
102	0x00000000	0.0
103	0x00000000	0.0
104	0x00000000	0.0
105	0x00000000	0.0
106	0x00000000	0.0
107	0x00000000	0.0
108	0x00000000	0.0
109	0x00000000	0.0
110	0x00000000	0.0
111	0x00000000	0.0
112	0x00000000	0.0
113	0x00000000	0.0
114	0x00000000	0.0
115	0x00000000	0.0
116	0x00000000	0.0
117	0x00000000	0.0
118	0x00000000	0.0
119	0x00000000	0.0
120	0x00000000	0.0
121	0x00000000	0.0
122	0x00000000	0.0
123	0x00000000	0.0
124	0x00000000	0.0
125	0x00000000	0.0
126	0x00000000	0.0
127	0x00000000	0.0

network_body._body_endoder.seq_layers.0.weight f4 [128, 138]
0	0xbda4852c	-0.08033213
1	0x3db62e7c	0.08895585
2	0xbd281618	-0.041036695
3	0xbd45750e	-0.048207335
4	0x3ce01d81	0.027357819
5	0x3da7a7a2	0.0818627
6	0xbe68c5c0	-0.22731686
7	0xbd7c0c74	-0.061535314
8	0x3e24d70a	0.16097656
9	0xbd2458f3	-0.04012389
10	0xbe32f420	-0.17475939
11	0xbe8d7f64	-0.27636254
12	0x3bccd862	0.006251381
13	0x3d989924	0.07451084
14	0xbd4bd07d	-0.049759377
15	0x3c80c34b	0.015718123
16	0x3e00700f	0.12542747
17	0xbe2eed27	-0.17082654
18	0x3e0c4b1e	0.1370053
19	0x3db66988	0.08906847
20	0x3d8849a9	0.066546746
21	0xbcf60142	-0.030029897
22	0x3dc6c53d	0.09705589
23	0xbc065700	-0.008199453
24	0xbd8851fb	-0.066562615
25	0x3d2a74d9	0.04161534
26	0x3c244ccd	0.010028076
27	0xbd952e36	-0.07284205
28	0xbd90b577	-0.07065862
29	0xbe7d5985	-0.2474118
30	0xbdaa1e0c	-0.08306512
31	0x3cca3f18	0.024688289
32	0xbd6df9ed	-0.058099676
33	0x3e39e559	0.18153895
34	0x3b93a770	0.004506044
35	0x3d13b51a	0.036061384
36	0x3cc48dd8	0.023993418
37	0x3a6ac516	0.00089557597
38	0x3e04fd4a	0.12987247
39	0x3cb1bd44	0.021696694
40	0x3d6cf3ed	0.057849813
41	0xbdd9121a	-0.10599156
42	0x3df3bc7a	0.119011834
43	0xbbca1c88	-0.006167952
44	0xbe3cfb2d	-0.18455191
45	0x3d04136c	0.032245085
46	0x3da131d8	0.07870835
47	0x3da762e9	0.081731625
48	0xbe3aa804	-0.18228155
49	0xbd942c76	-0.07235043
50	0x3d856104	0.06512645
51	0x3bf127d4	0.007359484
52	0x3de35269	0.11099703
53	0xbc652689	-0.013986238
54	0x3cc4f939	0.02404462
55	0x3d86bbcf	0.065787904
56	0xbdb6cbc9	-0.08925588
57	0x3dd50bb1	0.104026206
58	0x3d854e43	0.06509068
59	0x3d81aec0	0.06332159
60	0x3d4623a2	0.048373826
61	0x3cc7eb3e	0.024404164
62	0x3d31f90c	0.0434504
63	0x3ca91066	0.020637702
64	0xbdb023cb	-0.08600577
65	0xbc2b71ac	-0.010464113
66	0xbd10344b	-0.03520612
67	0x3c7d09c4	0.015444223
68	0xbcb5892c	-0.022160135
69	0x3e10e443	0.14149575
70	0x3cc09a3a	0.023511041
71	0xbc158a4c	-0.009127211
72	0x3d8be2b8	0.068303525
73	0xbe27f794	-0.16403037
74	0x3b4a1a10	0.0030838288
75	0x3cede293	0.029038703
76	0x3d1d2d64	0.038373366
77	0x3d89623f	0.06708192
78	0xbd3daa8a	-0.046305217
79	0x3cb743b9	0.02237116
80	0x3d683d09	0.056698833
81	0xbe1224a3	-0.14271788
82	0xbd8873a4	-0.06662682
83	0xbdc32265	-0.095280446
84	0x3d42476a	0.047431387
85	0x3df06f35	0.11739961
86	0xbdda6773	-0.106642626
87	0x3d8bc7ef	0.06825244
88	0xbde5e4d3	-0.112252854
89	0x3dc8e2d0	0.09808886
90	0x3e329351	0.17439009
91	0xbdf5d9d4	-0.12004438
92	0xbd43800e	-0.047729544
93	0xbce8100a	-0.02832796
94	0xbe1db968	-0.15402758
95	0x3d959cbf	0.073052876
96	0x3b4c7780	0.0031199157
97	0xbe01ef91	-0.12689044
98	0xbc2bb4a5	-0.010480081
99	0xbd2af18f	-0.041734274
100	0x3c2efc27	0.010680235
101	0x3dfed6de	0.124433264
102	0xbd9aec53	-0.075646065
103	0x3c819913	0.015820062
104	0xbcb3ad85	-0.021933326
105	0xbda0c0fd	-0.078493096
106	0x3d1e2615	0.038610537
107	0xbcc72b07	-0.02431251
108	0xbd42548a	-0.047443904
109	0x3e0a703e	0.1351938
110	0xbe1589a5	-0.14603288
111	0x3e83a27b	0.257099
112	0x3da6b2d4	0.081395775
113	0xbde10f7e	-0.10989283
114	0x3d5f3a77	0.054499116
115	0xbd95af76	-0.07308857
116	0x3d7ff46e	0.062488966
117	0x3d49f009	0.04930118
118	0x3d9b216d	0.07574735
119	0x3e267114	0.16254073
120	0xbcd5d88a	-0.02610423
121	0xbd6cf2c9	-0.057848725
122	0xbd74b7d2	-0.059745617
123	0x3dce0eb7	0.100614004
124	0x3db6d446	0.08927207
125	0xbe0a600a	-0.13513198
126	0x3e02d7b1	0.12777592
127	0xbd3e79dd	-0.046502937
128	0xbd809503	-0.06278422
129	0x3d4d6057	0.050140705
130	0x3cb653ec	0.022256814
131	0xbdb64b0d	-0.089010336
132	0x3e130fee	0.14361545
133	0xbd4bd4a7	-0.049763348
134	0xbe091428	-0.13386595
135	0x3cb25492	0.021768842
136	0xbe196a52	-0.14981964
137	0xbc591867	-0.013250447
138	0xbc4c76a6	-0.01247946
139	0x3d167d34	0.036740497
140	0xbde45031	-0.11148108
141	0x3d00599b	0.031335454
142	0xbccf549e	-0.025308903
143	0xbd3b4d07	-0.045727756
144	0x3ddcde33	0.10784569
145	0xbd69e455	-0.05710252
146	0x3cc35128	0.02384241
147	0xbd19a5a1	-0.03751147
148	0xbc9b82fd	-0.018983359
149	0xbd7483f8	-0.059696168
150	0x3d8645f8	0.06556314
151	0xbd0403bd	-0.032230128
152	0xbdf7905f	-0.120880835
153	0xbe231cb4	-0.15928918
154	0x3de6d435	0.11270944
155	0x3e160781	0.146513
156	0xbe02ad88	-0.1276151
157	0x3e0d7073	0.13812427
158	0x3e0b89f4	0.13626844
159	0xbdaa3f7b	-0.08312889
160	0xbc7c6245	-0.015404289
161	0x3e0f4873	0.13992481
162	0xbd88a19f	-0.06671452
163	0x3d2e15ed	0.04250138
164	0xbe0dc185	-0.13843353
165	0xbc42a99e	-0.01188126
166	0xbd8f0a29	-0.0698436
167	0x3cc9e3fe	0.024644848
168	0x3d352916	0.044228636
169	0x3e5f0aa2	0.217814
170	0xbd8fb7e5	-0.07017497
171	0xbe453b4c	-0.19260901
172	0x3daed21f	0.08536171
173	0x3db0e43a	0.08637281
174	0x3d38b045	0.04508998
175	0xbd3d683e	-0.04624199
176	0x3d3bc1e9	0.045839224
177	0xbdf390cf	-0.118928544
178	0xbe46a10f	-0.19397376
179	0x3e815157	0.2525737
180	0xbde80d28	-0.11330634
181	0xbd7ea03c	-0.06216453
182	0x3c8bdd27	0.017073227
183	0x3dba29a8	0.090899765
184	0x3c8f1fd2	0.017471228
185	0x3ca2a34e	0.01985326
186	0x3cf48537	0.029848678
187	0x3c403ea8	0.011733688
188	0x3d02e925	0.031960625
189	0xbda480a8	-0.08032352
190	0x3d12f88b	0.03588156
191	0xbe0a408e	-0.13501188
192	0x3cae7be5	0.021299312
193	0xbd37a2a9	-0.04483286
194	0x3cd1b6ec	0.02559992
195	0x3e1dee02	0.15422824
196	0x3c606beb	0.013697605
197	0x3df82648	0.121166766
198	0xbc32f8fc	-0.01092362
199	0xbc844f24	-0.016151018
200	0x3c575625	0.013143097
201	0x3dbf0798	0.0932762
202	0xbd9a5402	-0.075355545
203	0xbe0a9db4	-0.13536721
204	0x3d6a62aa	0.057223
205	0xbd3285e5	-0.043584723
206	0xbcf44598	-0.029818341
207	0xbdbc15d6	-0.091838524
208	0xbd7e978e	-0.062156253
209	0x3d2d8dc1	0.042371515
210	0xbcd9d83e	-0.02659237
211	0xbda1be17	-0.07897585
212	0xbca48291	-0.02008179
213	0x3d1820dc	0.037140712
214	0x3e6004bc	0.21876806
215	0xbc202f60	-0.00977692
216	0x3c945ab4	0.018109657
217	0x3e0ac822	0.13552907
218	0x3d233622	0.039846547
219	0xbdfaf6ee	-0.12254129
220	0xbd14b2f5	-0.03630348
221	0x3dda446f	0.10657584
222	0x3bd7b54f	0.006582893
223	0x3e11496e	0.14188167
224	0xbe54a5e9	-0.20766415
225	0x3d3dbf50	0.046325028
226	0xbe185a88	-0.14878285
227	0xbded875a	-0.11598082
228	0xbe367454	-0.17817813
229	0xbcdd9565	-0.027048776
230	0x3de5edf8	0.112270296
231	0x3e216afc	0.15763468
232	0xbc566266	-0.013084983
233	0xbe015412	-0.12629727
234	0xbd943d32	-0.072382346
235	0xbc3100db	-0.010803427
236	0x3c3e02da	0.01159736
237	0x3d259ed4	0.040434673
238	0x3c2c624d	0.010521484
239	0xbcd53821	-0.02602774
240	0x3d126e9a	0.03575001
241	0xbe5316aa	-0.20614114
242	0x3cbbb3dd	0.022912914
243	0x3be78e80	0.007066548
244	0xbc14b3c7	-0.009076065
245	0xbd1f92cf	-0.038958367
246	0x3d5f5d0d	0.0545321
247	0x3decfb96	0.11571424
248	0xbe3503ce	-0.17677233
249	0xbe0749dd	-0.1321177
250	0xbdd18c8f	-0.102318875
251	0xbde5a8e3	-0.11213853
252	0xbc83863a	-0.016055215
253	0x3b85c3ec	0.0040821936
254	0x3dfe9b21	0.12431932
255	0x3dd1d6c6	0.10246043

network_body._body_endoder.seq_layers.2.bias f4 [128]
0	0x00000000	0.0
1	0x00000000	0.0
2	0x00000000	0.0
3	0x00000000	0.0
4	0x00000000	0.0
5	0x00000000	0.0
6	0x00000000	0.0
7	0x00000000	0.0
8	0x00000000	0.0
9	0x00000000	0.0
10	0x00000000	0.0
11	0x00000000	0.0
12	0x00000000	0.0
13	0x00000000	0.0
14	0x00000000	0.0
15	0x00000000	0.0
16	0x00000000	0.0
17	0x00000000	0.0
18	0x00000000	0.0
19	0x00000000	0.0
20	0x00000000	0.0
21	0x00000000	0.0
22	0x00000000	0.0
23	0x00000000	0.0
24	0x00000000	0.0
25	0x00000000	0.0
26	0x00000000	0.0
27	0x00000000	0.0
28	0x00000000	0.0
29	0x00000000	0.0
30	0x00000000	0.0
31	0x00000000	0.0
32	0x00000000	0.0
33	0x00000000	0.0
34	0x00000000	0.0
35	0x00000000	0.0
36	0x00000000	0.0
37	0x00000000	0.0
38	0x00000000	0.0
39	0x00000000	0.0
40	0x00000000	0.0
41	0x00000000	0.0
42	0x00000000	0.0
43	0x00000000	0.0
44	0x00000000	0.0
45	0x00000000	0.0
46	0x00000000	0.0
47	0x00000000	0.0
48	0x00000000	0.0
49	0x00000000	0.0
50	0x00000000	0.0
51	0x00000000	0.0
52	0x00000000	0.0
53	0x00000000	0.0
54	0x00000000	0.0
55	0x00000000	0.0
56	0x00000000	0.0
57	0x00000000	0.0
58	0x00000000	0.0
59	0x00000000	0.0
60	0x00000000	0.0
61	0x00000000	0.0
62	0x00000000	0.0
63	0x00000000	0.0
64	0x00000000	0.0
65	0x00000000	0.0
66	0x00000000	0.0
67	0x00000000	0.0
68	0x00000000	0.0
69	0x00000000	0.0
70	0x00000000	0.0
71	0x00000000	0.0
72	0x00000000	0.0
73	0x00000000	0.0
74	0x00000000	0.0
75	0x00000000	0.0
76	0x00000000	0.0
77	0x00000000	0.0
78	0x00000000	0.0
79	0x00000000	0.0
80	0x00000000	0.0
81	0x00000000	0.0
82	0x00000000	0.0
83	0x00000000	0.0
84	0x00000000	0.0
85	0x00000000	0.0
86	0x00000000	0.0
87	0x00000000	0.0
88	0x00000000	0.0
89	0x00000000	0.0
90	0x00000000	0.0
91	0x00000000	0.0
92	0x00000000	0.0
93	0x00000000	0.0
94	0x00000000	0.0
95	0x00000000	0.0
96	0x00000000	0.0
97	0x00000000	0.0
98	0x00000000	0.0
99	0x00000000	0.0
100	0x00000000	0.0
101	0x00000000	0.0
102	0x00000000	0.0
103	0x00000000	0.0
104	0x00000000	0.0
105	0x00000000	0.0
106	0x00000000	0.0
107	0x00000000	0.0
108	0x00000000	0.0
109	0x00000000	0.0
110	0x00000000	0.0
111	0x00000000	0.0
112	0x00000000	0.0
113	0x00000000	0.0
114	0x00000000	0.0
115	0x00000000	0.0
116	0x00000000	0.0
117	0x00000000	0.0
118	0x00000000	0.0
119	0x00000000	0.0
120	0x00000000	0.0
121	0x00000000	0.0
122	0x00000000	0.0
123	0x00000000	0.0
124	0x00000000	0.0
125	0x00000000	0.0
126	0x00000000	0.0
127	0x00000000	0.0

network_body._body_endoder.seq_layers.2.weight f4 [128, 128]
0	0x3d6383cd	0.055545617
1	0x3ca4f455	0.020136038
2	0xbb28ce4d	-0.002575773
3	0x3db559ca	0.088550165
4	0x3d4dbc6b	0.050228518
5	0x3d38b591	0.04509503
6	0x3deaa154	0.11456552
7	0xbdce13cd	-0.100623704
8	0xbda04cbb	-0.07827135
9	0xbd5f28c2	-0.05448223
10	0x3e1148eb	0.14187972
11	0xbd8addb9	-0.067805715
12	0xbdc8fcd7	-0.098138504
13	0xbb299c0a	-0.002588036
14	0xbb68ed3d	-0.0035541796
15	0xbd1c6fe8	-0.03819266
16	0xbe2665d0	-0.16249776
17	0xbda669e2	-0.08125664
18	0xbc61f8be	-0.013792215
19	0xbd2201e4	-0.039552584
20	0xbd5d5751	-0.05403835
21	0xbde2f4e8	-0.110818684
22	0xbdd607e4	-0.10450724
23	0xbd4b0547	-0.04956558
24	0xbd9baf5b	-0.07601806
25	0xbdea92f3	-0.114538096
26	0xbe0051ce	-0.12531206
27	0x3bfbe194	0.007686803
28	0xbd88d6c5	-0.06681589
29	0xbdfd7992	-0.12376703
30	0x3d815096	0.06314199
31	0x3bd4d073	0.0064945756
32	0x3dcb6f4c	0.099333376
33	0x3d79142e	0.06081026
34	0x3cca8aae	0.02472433
35	0xbcf12502	-0.029436592
36	0x3d7325dd	0.05936228
37	0xbe3b0295	-0.18262704
38	0x3e09d90a	0.134617
39	0xbd6f7b3f	-0.058467146
40	0xbc637e31	-0.013885067
41	0xbdd8e915	-0.10591332
42	0xbc9cd1a3	-0.019142931
43	0xbdcfbc80	-0.101433754
44	0xbe1dc69b	-0.15407793
45	0x3d15b398	0.036548227
46	0x3c8d543e	0.017252084
47	0x3bc79e07	0.0060918364
48	0x3d0472d9	0.03233609
49	0xbdb42f6a	-0.08798106
50	0x3d358095	0.04431208
51	0xbdbf8538	-0.09351581
52	0xbd098661	-0.03357542
53	0x3cbd5018	0.02310948
54	0xbc45cda5	-0.012072955
55	0xbca4e304	-0.02012778
56	0xbdc8a204	-0.09796527
57	0x3de95d53	0.11394753
58	0x3d8dae16	0.0691797
59	0x3e3954f5	0.18098815
60	0x3d9bc8f2	0.07606687
61	0xbc54dd84	-0.012992267
62	0xbb40d93f	-0.0029426364
63	0xbd87aaa6	-0.066243455
64	0x3e06a074	0.13147146
65	0xbe0f05a2	-0.13966992
66	0x3cd082ce	0.025452998
67	0xbd97f33e	-0.07419442
68	0x3d70146f	0.058613237
69	0xbe30db1a	-0.1727108
70	0x3d1d5762	0.038413413
71	0xbd003f69	-0.031310473
72	0xbdf00ed8	-0.11721581
73	0xbe0d4048	-0.13794053
74	0x3d12efbb	0.035873156
75	0x3d96e79d	0.073683955
76	0xbcb73251	-0.02236286
77	0xbd752ad2	-0.05985529
78	0xbdc142f5	-0.09436599
79	0x3be59261	0.007005975
80	0x3bcc06c0	0.0062263906
81	0x3d1fa5fc	0.038976654
82	0xbc94c179	-0.018158661
83	0xbaec0daa	-0.0018009443
84	0xbcea6c35	-0.02861605
85	0xbe49d89b	-0.19711535
86	0x3e4537c3	0.19259553
87	0xbd4eaea9	-0.050459538
88	0xbccfac22	-0.025350634
89	0xbc810d83	-0.015753513
90	0xbd4ae2e0	-0.04953277
91	0x3da1092d	0.07863078
92	0x3d70e46d	0.058811594
93	0x3da2bd41	0.079462536
94	0xbd12845f	-0.03577077
95	0x3c006c39	0.007838302
96	0xbe088b10	-0.13334298
97	0xbdacc698	-0.08436316
98	0xbd12098b	-0.035653632
99	0x3c89d345	0.016824374
100	0xbd8f59bf	-0.069995396
101	0xbe3729a3	-0.17886977
102	0xbd3954f3	-0.04524703
103	0x3d9cecd4	0.07662359
104	0xbdade345	-0.08490614
105	0xbce0fe04	-0.027464874
106	0xbd8e2994	-0.06941524
107	0xbd4815d1	-0.04884893
108	0xbe2a148e	-0.16609403
109	0x3d8af150	0.06784308
110	0xbe1be60e	-0.15224478
111	0x3d5c3ef7	0.053770985
112	0xbdf739a6	-0.120715424
113	0xbe02bbec	-0.12766999
114	0xbdd00b4c	-0.10158405
115	0x3bd7910c	0.00657857
116	0xbe006a6a	-0.12540594
117	0x3d05d74d	0.03267603
118	0xbdac1e08	-0.084041655
119	0x3d45d858	0.048302025
120	0x3e79f564	0.24410015
121	0x3b76a1fc	0.0037633171
122	0xbbae4eee	-0.0053194677
123	0x3dea589b	0.114426814
124	0xbd41a1b1	-0.04727334
125	0xbd96cd99	-0.073634334
126	0xbd7823a3	-0.06058086
127	0x3df1b417	0.118019275
128	0x3dfa5a9a	0.12224312
129	0xbd1f6200	-0.03891182
130	0xbe2de61e	-0.16982314
131	0x3e06de90	0.13170838
132	0x3cbf52c9	0.023354905
133	0x3cee41dd	0.02908414
134	0x3d23bf9b	0.03997765
135	0xbb86c2ed	-0.0041125924
136	0x3d563cac	0.052303955
137	0x3e2470f0	0.16058707
138	0x3d412257	0.04715189
139	0x3e62b10e	0.22137854
140	0xbd09cd75	-0.033643205
141	0xbd775732	-0.06038589
142	0x3d60a158	0.05484137
143	0xbd6c4836	-0.057686053
144	0x3d8f733e	0.070044026
145	0xbe85f568	-0.26163793
146	0xbc9b98fe	-0.01899385
147	0xbd97d59e	-0.07413791
148	0xbc21fe03	-0.009887221
149	0xbe764bfb	-0.24052422
150	0xbdf0dbb2	-0.117606536
151	0xbd95563c	-0.072918385
152	0xbd31da26	-0.043420933
153	0x3d09396a	0.03350202
154	0xbd126001	-0.035736088
155	0xbc0f93ca	-0.008763263
156	0xbd945365	-0.07242469
157	0x3dbfbacd	0.09361801
158	0x3d25d908	0.04049018
159	0x3d767ba9	0.060176525
160	0x3e7d28e9	0.24722637
161	0x3dcbaced	0.09945092
162	0x3d616ea7	0.055037167
163	0xbc1354b6	-0.008992365
164	0x3d677f5c	0.056517944
165	0x3e044ff5	0.12921126
166	0xbe5e9f41	-0.21740438
167	0xbd3b5857	-0.045738544
168	0xbe0c1209	-0.13678755
169	0x3c324b55	0.010882218
170	0xbcbecf5a	-0.023292232
171	0x3d3a3cad	0.04546802
172	0xbd1b5613	-0.037923884
173	0xbcc0253e	-0.023455258
174	0xbe0044fb	-0.12526314
175	0xbd0c50c7	-0.034256723
176	0x3d1dd4ce	0.038533024
177	0x3df6795e	0.12034868
178	0x3e027caf	0.12742876
179	0x3d72e0e6	0.05929651
180	0x3cf3b126	0.029747557
181	0x3e2307c7	0.15920936
182	0x3d3a1aed	0.045435835
183	0x3e279f40	0.16369343
184	0xbd89b9e8	-0.06724912
185	0x3dbcebf6	0.092246935
186	0x3d92a8ac	0.07161078
187	0xbd8f7140	-0.070040226
188	0xbc702c2c	-0.014658969
189	0xbd851fed	-0.0650023
190	0x3cb0e613	0.021594083
191	0x3d88c8fc	0.0667896
192	0x3d0855a0	0.033284783
193	0x3e2ed310	0.17072701
194	0xbd7033e1	-0.058643226
195	0xbe0c2426	-0.13685665
196	0xbd5925ee	-0.05301469
197	0x3b8ad046	0.004236254
198	0xbe41ca48	-0.1892482
199	0x3cf7d084	0.030250795
200	0x3da9dd64	0.0829418
201	0x3dafd95e	0.085863814
202	0xbe052d7f	-0.13005637
203	0xbd89fb85	-0.06737427
204	0x3d12afde	0.03581225
205	0x3c85aee5	0.016318748
206	0x3d7df68e	0.06200271
207	0xbd8f7a7f	-0.07005786
208	0x3d2fa1aa	0.042878784
209	0xbcbd2d2c	-0.023092829
210	0x3d96eb61	0.07369114
211	0x3e141772	0.14462069
212	0x3d5c8982	0.053842075
213	0xbc87b4ef	-0.016565768
214	0x3c083743	0.008313957
215	0x3d831a3d	0.06401489
216	0xbd721ea6	-0.05911126
217	0x3e7badef	0.24578069
218	0xbd3c2fe3	-0.045944106
219	0xbd059131	-0.03260917
220	0xbe297adf	-0.16550778
221	0xbc286b7e	-0.010279534
222	0x3cbaf1d2	0.022820387
223	0xbd02adb1	-0.031903926
224	0xbe07dbe1	-0.13267471
225	0xbd2d24f4	-0.04227157
226	0xbc51218c	-0.012764346
227	0x3c854909	0.016270177
228	0xbe35d9ec	-0.17758912
229	0xbd6eda9c	-0.05831395
230	0x3de10667	0.10987549
231	0x3d4a1fb4	0.04934664
232	0xbdaadd8d	-0.08343039
233	0x3cb6e41c	0.022325568
234	0xbdb5a10f	-0.0886861
235	0xbdd436e7	-0.10362034
236	0xbd89d14e	-0.06729375
237	0xbd596620	-0.05307591
238	0x3dc06276	0.0939378
239	0x3d105dca	0.035245694
240	0xbe2490fb	-0.1607093
241	0xbddf3f1d	-0.1090071
242	0x3e2b8cf1	0.16752984
243	0x3d3a7aa5	0.04552712
244	0x3e304c91	0.17216708
245	0x3ce062da	0.027390886
246	0x3da7bafa	0.0818996
247	0xbe318bdf	-0.17338513
248	0xbdefcaef	-0.117086284
249	0xbcd2192c	-0.025646769
250	0xbda6c2e6	-0.08142643
251	0xbdab0f22	-0.08352496
252	0xbcfe80d6	-0.031067293
253	0x3e339168	0.17535937
254	0xbd89eadc	-0.06734249
255	0x3e84b115	0.25916353
