Results/test26/SnowBall.onnx (onnx, 143334 bytes, 9 tensors)

action_model._discrete_distribution.branches.0.bias f4 [3]
00000000: 0000 0000 0000 0000 0000 0000
0.0 0.0 0.0

action_model._discrete_distribution.branches.0.weight f4 [3, 128]
00000000: 3e81 b5bb ba48 523c 0ec8 40bc 770d 413c
00000010: 2b7e 403b e5a8 fb3a c40c 453c f3f0 4a3c
00000020: 703a d93c 4829 fc3b f3d1 60bc 2150 aaba
00000030: e771 17bc 4699 09bb f551 0e3c 3d1b c3bb
00000040: 33b8 03bc 98be 18bc 8913 4aba d8dc dd3a
00000050: 7308 1bbc 342f 04bc 3ca2 12bc ab8b e43b
00000060: c0b8 5b3c 1b2c 5d3c 1f49 893c f728 70b9
00000070: ebff 803b 1782 513c fd6c d83a 3ffe 4c3b
00000080: 3b78 81bb a048 123b bdd1 6bbc 5fdb 0f3c
00000090: 5b3e 1c3b d08f a93b df2d ab3c e268 5d3c
000000a0: 9369 ccbb 005f aa3a 5f41 7c3b 6a5d fc3a
000000b0: af03 2cbc cc01 963a 17b8 583a 9a35 81bc
000000c0: 18db 6e3b e5a8 98bb 4b49 a53b 202a 95bb
000000d0: f060 8539 22c4 e53b ddfb c43b 2bab 46bb
000000e0: 9a77 65bc 1bb8 9c3b 9e96 1d3c 437e abbc
000000f0: 40f0 e0bb f6d9 20bc bdb6 41bc 1f22 793c
00000100: 2128 c5bb b3a1 54bc 5265 683c 8760 82ba
00000110: d247 8a3b 7034 603b ccec 393c 55c0 04bc
00000120: 1ba4 b93b 88cf b8bb 9c53 36bc 9592 5dbb
00000130: ccdb 173c b5b1 71bb 30a1 88ba c026 f13b
00000140: 52f7 ccbb 4f52 0a3b 9568 6abb 25a9 723c
00000150: 7be3 cc3a 1517 b03b 3b5d 3abc 803a 033a
00000160: 1d98 f23b b7de 9c3b 8835 62bb 13a4 bebb
00000170: 0315 9b3b 2820 cabb f40f 353c 1710 443b
00000180: b41d 2dbc 6f3b 3b3b bda6 143a a7c4 b3bb
00000190: da4b 9f3b d362 ebba 9a70 1dbb 0e25 453c
000001a0: 1c3f 1fbc eab5 013b 08ca 75bb 9ab9 c83b
000001b0: 406b 023c 9de3 cd3b c73e a33c 3cf1 08bc
000001c0: aa2c 1b3b 087c 7b3c 6c1d 9d3c be48 1c3b
000001d0: 28ea 783b 8769 bebb 531b 293b 5035 dfba
000001e0: 0f8f ca3b 5be6 113c 5f94 fb3b 9e81 3bbc
000001f0: 654f 3cbc 8306 b83b d29f 57bc 723a 0ebc
00000200: 317c 33bc de02 29bc 9358 19bc 053d 57bc
00000210: 2b80 edbb 87c8 47bc 7bb1 9cba 5342 edbb
00000220: fcad 133c a839 f4bb df12 8b3c 234b c5bb
00000230: c48d a5bb e0de f4bb e7e5 813c e318 a73b
00000240: 9f39 8e3c 2586 e5bb 0798 96ba c5f2 92bb
00000250: c32e 9abc a3f2 ed39 fb18 40bc c5e2 143b
00000260: 7137 bb3b a27b f8bb 4cc7 08bc 301a b1bb
00000270: cec9 17bb 3972 02bc 18fa 80bb bb79 253c
00000280: b000 7cbb 01b3 bf3b 5fb5 57bc 4200 a5bb
00000290: 7de9 65bb e3ce cb3b 7fe4 0bbc 919f 31bc
000002a0: bd5e adbb f810 55ba f125 113b 1d5d 10bc
000002b0: 378d 41bc c683 a63b bd00 e33a af65 803b
000002c0: 97b2 96ba cbaf 20bc b591 dfbb ddc1 c0bb
000002d0: 713f 0f3c f60e 40bb cc9d 34bc 8072 9db9
000002e0: 5f54 12bc c742 003c f155 8f3b e3e3 fd39
000002f0: 8f9f 653b 2846 403c 9f31 42bb b9b1 0cbb
00000300: 6d0f 193c dbf3 b13a abe9 f3ba bd21 61bc
00000310: 78a6 e0bb 15eb 50bc 6dd5 51bc af4a 8b3b
00000320: 45a4 d9bb 0f02 a23c 9bb3 28bc a81f 56ba
00000330: 85cc 5d3a 968f cb3b 46eb 493a d0cd 5c3c
00000340: 8555 7abc 3c2c 993b 13b1 7c3b d286 143c
00000350: f2c2 ed3b 43cf 88bc aba3 9a39 b0a7 38ba
00000360: 205a 883b cabc c63a c951 9d3b fe9c 1abc
00000370: 4714 80bb b5cb 58bc e3a1 113c a780 41bc
00000380: a710 23bc baf9 843b 6d37 3337 cb63 773b
00000390: ff9c 423c 3cc6 1f3b b04f 6dbb 9b6d d73b
000003a0: 4362 923b 62aa b538 a0cb 5fbb 2f52 e4bb
000003b0: 3356 04bc 2d4f f5bb 3b65 4e3c 2f6b 8c3a
000003c0: 1f9b 7dbb 2c7b a0bb 6b43 663c 2fca bf3a
000003d0: 03ce dfbb 798e 87bc 1a79 843b 6ddb 143c
000003e0: b704 c9b9 1d9c 52bc 0759 c33c 4748 21bc
000003f0: 65df be3a c3a4 d0bb f8a4 493c eaa3 45bc
-0.0055390885 0.012834722 -0.011766447 0.011782995 0.0029372077 0.0019200115 0.012026969 0.012386548
0.026517123 0.007695351 -0.013721931 -0.0012993851 -0.009243465 -0.00209959 0.008686532 -0.005954175
-0.008039522 -0.009322785 -0.00077085994 0.0016926778 -0.009462464 -0.008067895 -0.0089498125 0.0069746575
0.013410747 0.013499285 0.0167585 -0.00022903444 0.003936758 0.0127873635 0.0016511973 0.0031279472
-0.0039511 0.002232112 -0.014393267 0.0087803295 0.0023840878 0.0051746145 0.020895896 0.013513776
-0.0062381714 0.0012998283 0.0038491113 0.0019253914 -0.010498925 0.0011444627 0.00082671776 -0.01577263
0.0036446508 -0.0046588057 0.0050441376 -0.004552141 0.0002543996 0.0070119062 0.0060114698 -0.0030314426
-0.014005566 0.0047826893 0.0096184295 -0.02093423 -0.0068645775 -0.009817591 -0.011823353 0.015205889
-0.0060167466 -0.012978005 0.014184313 -0.000994698 0.0042199874 0.0034210943 0.011347961 -0.008102496
0.005665315 -0.005639974 -0.0111283325 -0.0033809294 0.009268712 -0.0036879603 -0.0010424014 0.0073593557
-0.006255069 0.0021106189 -0.0035767902 0.014810835 0.0015631759 0.0053738453 -0.011374767 0.00050059706
0.007403387 0.004787292 -0.003451677 -0.005817899 0.0047327294 -0.006168384 0.011051167 0.0029916817
-0.010566164 0.002856936 0.0005670598 -0.0054860893 0.004861337 -0.0017958529 -0.0024023415 0.01203276
-0.009719636 0.0019792267 -0.0037504453 0.006125641 0.007960141 0.006283237 0.019927396 -0.008358296
0.0023677745 0.015349396 0.019179069 0.0023847069 0.0037981365 -0.0058109197 0.002580364 -0.0017029438
0.0061816047 0.008905019 0.0076775993 -0.011444477 -0.0114935385 0.0056160106 -0.013160663 -0.008680927
-0.0109549025 -0.010315625 -0.009359497 -0.013137107 -0.007247945 -0.012193806 -0.0011954749 -0.0072405725
0.009013649 -0.007453162 0.016976772 -0.00602092 -0.0050523 -0.007472858 0.015856696 0.0050994023
0.01736146 -0.0070045167 -0.00114894 -0.004484507 -0.018821126 0.0004538494 -0.011724706 0.0022718173
0.0057133962 -0.0075830976 -0.008348297 -0.005404733 -0.0023161056 -0.007961803 -0.0039360635 0.010099824
-0.0038452558 0.0058501964 -0.013165801 -0.005035431 -0.0035081797 0.006219731 -0.008538364 -0.010841266
-0.0052908347 -0.0008127834 0.002214786 -0.008811262 -0.011813453 0.0050816266 0.0017318946 0.0039183716
-0.0011497316 -0.009807537 -0.0068227896 -0.0058824853 0.008743153 -0.0029305792 -0.01102395 -0.00030030683
-0.008931248 0.007828421 0.0043742587 0.0004842571 0.0035037731 0.011735477 -0.0029631627 -0.0021468236
0.009342057 0.0013576703 -0.0018609067 -0.013740954 -0.006855782 -0.01275136 -0.012807232 0.0042508463
-0.006641897 0.019776372 -0.0102967275 -0.00081681693 0.0008460957 0.006212185 0.00077026 0.013476804
-0.0152791785 0.0046744626 0.0038557693 0.009065347 0.0072559053 -0.016700393 0.0002949511 -0.00070440304
0.0041611344 0.0015162465 0.0048010093 -0.009436844 -0.0039086672 -0.013232161 0.008888694 -0.011810458
-0.009952701 0.00405809 1.0682136e-05 0.003774869 0.011878251 0.0024379632 -0.0036210828 0.0065743453
0.00446728 8.662489e-05 -0.003414847 -0.006967805 -0.008077192 -0.007486245 0.012597377 0.0010713096
-0.0038697196 -0.0048974957 0.01405416 0.0014632399 -0.0068299784 -0.016547428 0.0040427567 0.009085518
-0.0003834122 -0.012854603 0.023846162 -0.009843892 0.0014562426 -0.0063672974 0.012307398 -0.012063006

action_model._discrete_distribution.branches.1.bias f4 [3]
00000000: 0000 0000 0000 0000 0000 0000
0.0 0.0 0.0

action_model._discrete_distribution.branches.1.weight f4 [3, 128]
00000000: d78a 483c d089 813b c2d6 0fbc 2294 fb3b
00000010: 1adc c63c bb77 92bb 9b90 95ba aaeb dbbb
00000020: 3b9c 33bb 0b45 4a3a 85d3 64bc d177 93ba
00000030: 0f2e 923a 188b 073b 7f98 47bc da8f 06ba
00000040: 323b 89ba 1f3d adbb df94 5ebc 230c 6e3b
00000050: a2f4 08bc 87f6 79bc 99db 39bc edc7 5b3c
00000060: c729 263c ae00 b9bb c4aa 093c a38a 083c
00000070: 4ece ba3b 038c 6b3b 4b58 493c 673a a8bb
00000080: 1bf0 7d3b 1dcc d4ba 6f26 86bb 8c7e 1e3c
00000090: 12ba 8ebb d8e5 0fbb c5cd 3abc 3a41 86bb
000000a0: ae8e 3ebb ed8d 48bb 75d2 57bc 2515 81bb
000000b0: 2295 613b f88a 4e3b 46db 1bbc eba0 873b
000000c0: 10bf 72bb 53f2 713a fc6c c7bb 9f92 753c
000000d0: caa1 5d3b 625c 4d3c d8df d63a c71a cc39
000000e0: 4697 b63b 1843 25bb e173 3d3a 8be7 eb3b
000000f0: 21ed b1bb 4337 643b 83c2 ad39 814b b23b
00000100: a8d4 8dbc 745c 423b 68b2 873b fbe4 003c
00000110: a254 1fba a488 c9bb 522d ef3b 7a17 72bb
00000120: d775 4c3c 9b86 1c3c 6336 62b8 a515 243b
00000130: a5f2 6c3c 935a 23bc 3092 fdbb 1144 acbb
00000140: d24b 4dba 50d1 613b cd2c 0ebc f228 65bb
00000150: f7ba 2e3b 0ef7 3b3b 0f3c 21bc 3fa4 44bc
00000160: 6f4d b2ba 8f63 12bc aba0 48bb 45e0 953b
00000170: fd73 72bc a579 6dbb cde7 4fbc 021a 923a
00000180: 4a88 f538 dde7 29bb 9fad 093b 62a3 523a
00000190: ff4b 57bc 521c a4ba cb09 84bc 52d9 7c3b
000001a0: 6026 7838 6397 603b 1598 56ba 9362 18bb
000001b0: ffa9 d5bb 8fd0 e4bb 5398 0fbb 7ff0 acbb
000001c0: 33a9 563c fdb6 49bb 1d56 7c3b 8713 1fbc
000001d0: 084b 62bc 7a80 f33a 0d7d 03bc 132a 6b3c
000001e0: 9708 95ba 8666 08b9 ebaf 823c 9bc2 083b
000001f0: 8950 273a 8fb4 533c 63f8 7dbb 906b 5a3b
00000200: 0e12 853b 3f33 71ba a45c cab9 cf4a b2bb
00000210: 9303 e2bb b3bc 59bc df8b 2ebc 82c6 843c
00000220: ef21 e3ba 8fd5 a339 5b67 92bb 6c46 0abc
00000230: c7ea 893b 5e4c a3bb 9271 5d3c e34f 03bb
00000240: e4a3 4abb 47d6 cbba 08e5 a1bc 5dd8 6e3c
00000250: 202f 1fbc 8193 ca3b a344 29bc 0280 a73b
00000260: 887b 7a3a 5527 40b9 468a b8bb 500d 933c
00000270: 004c 913b 78ec eebb 1d82 e83a 1784 9b3a
00000280: 427e 50bc 97c5 663c fded 66bb 9dee 5e3b
00000290: 7825 79bb fcf1 a13c bca1 b43b 2ff1 78bb
000002a0: 67b3 273b 770f 253b ead1 c2bb dee4 b1bb
000002b0: 38f3 c5bb 009f 5ebc 5048 10bc 231f 51bc
000002c0: dd37 1dbc 62df 18bc b0e3 0739 80d4 a4bc
000002d0: 838f fa3b 757d 303b e154 3cbc 8074 303c
000002e0: cf26 9239 0b1a 52bc 9acd c0bb a57f 293a
000002f0: 6322 573b 8b88 ce3b 37a0 0cbb 0db2 5b3b
00000300: 34ae ccbb 2f6f 8fba 07e7 b4ba 9a06 94bb
00000310: c70c 8939 2369 19bc 9b99 783c 30c5 d0bc
00000320: 7a85 53bc a394 47bc 5d29 37bb cd0d a0bc
00000330: 077d d23b 32ce 9c3c 8dd2 ab39 0d17 37bc
00000340: 12a4 e1b9 405d 4b3b 3c27 1fbb 3773 acbb
00000350: a336 513b 728f 01bc 834c a9bb ef52 603c
00000360: 547d 923b 11d0 40bc 5bfe 2cbc 333b 0b3b
00000370: 0e99 033c 5f86 bf3b 78b4 febb c7d0 20bc
00000380: 0485 87ba 8bca 213c 23fc 50ba 6043 13bc
00000390: caa3 e13b 87c3 08bc 6f4c ba3b 6f13 8dbc
000003a0: 64cc b9bb 87be dabb 5be4 333c 17d7 bc3c
000003b0: ed87 383b bcda 263c e0f4 853b 7c6e 883c
000003c0: 4fca de3b 78c9 d0bb 3ac4 423b 9bb7 293c
000003d0: dc4c 81bb 8d24 4c3c 2a91 523c 8046 32bb
000003e0: 1583 2c3b a51d 69bb ab97 af3a 473b 81bc
000003f0: adc4 653c d9b4 143c 4868 c53b 567b 263c
0.012240133 0.003953196 -0.00877923 0.007677571 0.024274874 -0.0044698394 -0.0011410894 -0.006711443
-0.0027406353 0.00077159767 -0.013966446 -0.0011250918 0.0011152643 0.0020682272 -0.012182354 -0.000513313
-0.0010469912 -0.005286827 -0.013585298 0.0036323152 -0.008359106 -0.015256531 -0.01134386 0.013414365
0.010141796 -0.005645833 0.00840253 0.008333835 0.005700863 0.0035941608 0.012289117 -0.005133915
0.003874785 -0.0016235147 -0.004093937 0.009673726 -0.0043556774 -0.0021957066 -0.011401598 -0.004097131
-0.0029076743 -0.0030602172 -0.013172735 -0.003939288 0.0034421165 0.0031515937 -0.009512728 0.004139056
-0.0037040152 0.00092295295 -0.00608599 0.0149885705 0.0033818358 0.012534233 0.0016393615 0.00038929863
0.0055722324 -0.0025216993 0.0007227045 0.007199233 -0.0054298793 0.0034822978 0.00033142054 0.0054411297
-0.017313316 0.0029657157 0.0041411407 0.007867093 -0.000607798 -0.006150322 0.007299104 -0.0036940263
0.012479267 0.009553577 -5.393325e-05 0.0025037315 0.014462148 -0.009970325 -0.007738374 -0.0052571376
-0.00078314275 0.0034457035 -0.0086776735 -0.0034967032 0.0026661733 0.0028681192 -0.009840979 -0.01200205
-0.0013603399 -0.008934869 -0.0030613344 0.004573854 -0.014798162 -0.0036235836 -0.012689543 0.0011146667
0.00011707896 -0.0025925555 0.0021008027 0.000803521 -0.0131406775 -0.0012520647 -0.01611795 0.0038581681
5.9163547e-05 0.003426992 -0.0008186114 -0.0023252114 -0.0065205093 -0.00698287 -0.002191086 -0.005277693
0.013101864 -0.0030779236 0.0038503476 -0.0097092455 -0.013811834 0.0018577718 -0.00802542 0.014353293
-0.0011370358 -0.00013008164 0.015953025 0.0020867947 0.0006382545 0.0129214665 -0.0038752786 0.0033328272
0.00406099 -0.00092010567 -0.00038597465 -0.005441047 -0.0068973987 -0.013289618 -0.010653465 0.016207937
-0.0017328839 0.00031248896 -0.0044678873 -0.008439641 0.004208896 -0.004983469 0.013515847 -0.002003663
-0.003092044 -0.001555153 -0.01976253 0.014577952 -0.009715825 0.0061821346 -0.010331306 0.0051116953
0.0009555151 -0.00018325199 -0.005631718 0.017950684 0.0044341087 -0.007291373 0.0017738972 0.0011864927
-0.012725415 0.014085195 -0.0035237067 0.0034016736 -0.0038016718 0.019768707 0.0055124443 -0.0037985553
0.002558911 0.002518622 -0.005945434 -0.0054288944 -0.006040957 -0.013587713 -0.008806303 -0.012763771
-0.009595838 -0.009330602 0.00012959423 -0.02012086 0.0076465025 0.0026930247 -0.011494846 0.010769963
0.00027876205 -0.012823592 -0.0058838846 0.0006465859 0.0032826893 0.0063028983 -0.00214578 0.0033522875
-0.0062463526 -0.001094317 -0.0013801762 -0.0045173885 0.00026140196 -0.009363445 0.015173341 -0.025484651
-0.012910241 -0.012181434 -0.0027948238 -0.01953783 0.006423596 0.01914129 0.00032772534 -0.011174929
-0.00043037586 0.0031030923 -0.002428486 -0.005262758 0.0031923435 -0.007907735 -0.0051665916 0.013691648
0.0044705067 -0.011768357 -0.01055869 0.0021245002 0.008032097 0.0058448757 -0.0077729784 -0.009815401
-0.0010339324 0.00987495 -0.00079721416 -0.008988231 0.0068859803 -0.008347399 0.005685381 -0.01722118
-0.005670117 -0.0066755447 0.010979737 0.023051782 0.002815719 0.010183986 0.0040880293 0.016654246
0.0067990194 -0.006371673 0.002971901 0.010358716 -0.00394593 0.012459886 0.012851993 -0.0027202666
0.0026323248 -0.0035570648 0.0013396641 -0.015775336 0.014023942 0.009076321 0.006024394 0.0101612415

discrete_action_output_shape f4 [1, 2]
00000000: 0000 4040 0000 4040
3.0 3.0

network_body._body_endoder.seq_layers.0.bias f4 [128]
00000000: 0000 0000 0000 0000 0000 0000 0000 0000
00000010: 0000 0000 0000 0000 0000 0000 0000 0000
00000020: 0000 0000 0000 0000 0000 0000 0000 0000
00000030: 0000 0000 0000 0000 0000 0000 0000 0000
00000040: 0000 0000 0000 0000 0000 0000 0000 0000
00000050: 0000 0000 0000 0000 0000 0000 0000 0000
00000060: 0000 0000 0000 0000 0000 0000 0000 0000
00000070: 0000 0000 0000 0000 0000 0000 0000 0000
00000080: 0000 0000 0000 0000 0000 0000 0000 0000
00000090: 0000 0000 0000 0000 0000 0000 0000 0000
000000a0: 0000 0000 0000 0000 0000 0000 0000 0000
000000b0: 0000 0000 0000 0000 0000 0000 0000 0000
000000c0: 0000 0000 0000 0000 0000 0000 0000 0000
000000d0: 0000 0000 0000 0000 0000 0000 0000 0000
000000e0: 0000 0000 0000 0000 0000 0000 0000 0000
000000f0: 0000 0000 0000 0000 0000 0000 0000 0000
00000100: 0000 0000 0000 0000 0000 0000 0000 0000
00000110: 0000 0000 0000 0000 0000 0000 0000 0000
00000120: 0000 0000 0000 0000 0000 0000 0000 0000
00000130: 0000 0000 0000 0000 0000 0000 0000 0000
00000140: 0000 0000 0000 0000 0000 0000 0000 0000
00000150: 0000 0000 0000 0000 0000 0000 0000 0000
00000160: 0000 0000 0000 0000 0000 0000 0000 0000
00000170: 0000 0000 0000 0000 0000 0000 0000 0000
00000180: 0000 0000 0000 0000 0000 0000 0000 0000
00000190: 0000 0000 0000 0000 0000 0000 0000 0000
000001a0: 0000 0000 0000 0000 0000 0000 0000 0000
000001b0: 0000 0000 0000 0000 0000 0000 0000 0000
000001c0: 0000 0000 0000 0000 0000 0000 0000 0000
000001d0: 0000 0000 0000 0000 0000 0000 0000 0000
000001e0: 0000 0000 0000 0000 0000 0000 0000 0000
000001f0: 0000 0000 0000 0000 0000 0000 0000 0000
0.0 0.0 0.0 0.0 0.0 0.0 0.0 0.0
0.0 0.0 0.0 0.0 0.0 0.0 0.0 0.0
0.0 0.0 0.0 0.0 0.0 0.0 0.0 0.0
0.0 0.0 0.0 0.0 0.0 0.0 0.0 0.0
0.0 0.0 0.0 0.0 0.0 0.0 0.0 0.0
0.0 0.0 0.0 0.0 0.0 0.0 0.0 0.0
0.0 0.0 0.0 0.0 0.0 0.0 0.0 0.0
0.0 0.0 0.0 0.0 0.0 0.0 0.0 0.0
0.0 0.0 0.0 0.0 0.0 0.0 0.0 0.0
0.0 0.0 0.0 0.0 0.0 0.0 0.0 0.0
0.0 0.0 0.0 0.0 0.0 0.0 0.0 0.0
0.0 0.0 0.0 0.0 0.0 0.0 0.0 0.0
0.0 0.0 0.0 0.0 0.0 0.0 0.0 0.0
0.0 0.0 0.0 0.0 0.0 0.0 0.0 0.0
0.0 0.0 0.0 0.0 0.0 0.0 0.0 0.0
0.0 0.0 0.0 0.0 0.0 0.0 0.0 0.0

network_body._body_endoder.seq_layers.0.weight f4 [128, 138]
00000000: 76e2 f2bc 3a63 833c eb0b 423d 8927 f93d
00000010: 8afa ecbd 642f 9f3c 3a0c 34bc 8123 783d
00000020: 8521 32bd 9a34 94bd 242b 623d 2218 8cbd
00000030: d37d 503b d04e e23c 3026 a13c 0b6c 173e
00000040: c98b 243d b15e 49bd 4921 2c3c 05c8 483d
00000050: f7c3 42bd 971e e0bc be48 96bd cf9d 83bc
00000060: c083 813d 4b0a 0d3d 1c8d 123e 3185 3abd
00000070: 8ef1 6dbd d691 923d c671 a93d 60ea 2bbc
00000080: 8f2d c03c 0bdd 103d f745 d6bc d002 8d3d
00000090: 1b91 063d 3dcd 95ba 12c7 9fbd 1f0b 9dbd
000000a0: d498 6f3d a48a 9bbd 5f9b e63b 762a b7bd
000000b0: 0754 ac3d d1cb f03d 6e36 973b 9174 a63d
000000c0: 4c28 5b3c 59bd a2bd ef4a e4bd 637e 9abc
000000d0: 21ec 2dbd ec9c e93c aea0 d1bd 60e5 45bd
000000e0: 4b54 ba3d 3701 663d d528 ecbd 364c b4ba
000000f0: 8e94 bfbd 731c edbc 30d2 823c 99e4 0f3c
00000100: c9fc c5bd 19ef a13d 13bb 1cbc 5bf6 95bb
00000110: 961e fc3c 3da3 c9ba 4db0 803c 9a35 ffbb
00000120: ff5f 03be 5b22 beba d72a bf3d 1b58 b5bd
00000130: 4188 eebd 8eed 82bd 7eb6 3abb 9d79 49be
00000140: 8284 303e 7726 953d 58be 96bd ace1 c13d
00000150: 2043 aebb 4433 75bc aedd 01ba 51b0 0c3e
00000160: 43fb 7c3d cf8d f33d 99d7 a0bd e276 b7bd
00000170: 8da1 81bc c82a d2bd fec1 843d 9140 dfbd
00000180: 7592 03be 4969 073d 25a9 4d3e bfa7 463d
00000190: 27b2 a9bc 024d 953a 5959 0d3e 40fe 1fbd
000001a0: d39e 12be 3721 643e 5682 283e 6631 f53d
000001b0: 54b1 2f3d ba0b 39be 4f24 ebbc 9e71 e6bc
000001c0: 6d32 6abd b6c2 133e a4a9 aebd 26db 25bd
000001d0: 83d2 5dbd 8db3 55bd a7a3 bc3d 2579 9c3d
000001e0: 597b 0fbd 31cc 3e3d 334f 9f3c de61 20be
000001f0: fb95 aebd 0054 a5bd 2f55 3ebd d493 50be
00000200: d79a 523d 7076 6dbd 9c1b b63d 9eea 88bc
00000210: 8ebf 95bc 7de6 4b3d 2f69 d23c 111c 013e
00000220: 08c2 33bb a91a 6e3d 2d2b 903d 9353 59bd
00000230: 9140 9bbd c8c7 bf3c abf2 45be 96a7 2c3e
00000240: a3d9 1dbd 66e0 b5bc f75d 25bb e834 2ebe
00000250: 997e 11bd ef22 18be 806e a93d 9f78 38bd
00000260: 68cd d9bd e004 023d c9ca e0bd 1b3d d43d
00000270: 6b37 9dbc daea 593d 0cfe ab3c 463b 39bd
00000280: 8743 88bd dba1 9fbd a8fd 033e 1949 98bc
00000290: 12f0 8dbd eb90 90b8 b242 66bd c37c fcbd
000002a0: 145b 92bd d824 b93d 93ab a6bd 64a1 d1ba
000002b0: c0ba 083e dfd6 d0bd ab18 ff3d 5b24 083d
000002c0: d4dc 64bd eb65 44be fd4d c4bb 5a5c 32bd
000002d0: 956f fb3b 1340 023e d480 4abd 6dd5 efbd
000002e0: 17d5 e63c e9a3 883d 6d52 6abd 7002 dd3d
000002f0: eb56 213c 9816 f43a 478e ec3d 974a e63d
00000300: ec8d e5bc 5330 1a3d 4898 843d a105 8dbd
00000310: 910f 0dbd c130 24bd c4b5 ce3c 5d65 afbd
00000320: dc7c 073e 4c4f 163e 50e7 e8bd 2009 b6bd
00000330: 9f83 333e 4b5c b83d f4e3 693c f8ca 453d
00000340: dff2 c4bd 83b8 023e 25a9 da3d 65c2 89bd
00000350: f976 94bd 91a0 d4bb d172 023d e22e 473e
00000360: 9186 0f3d f2e7 2e3d e393 e2bd 0f63 8e3d
00000370: b2ca ae3b 8404 e23d e64c 4fbe 5bad 263e
00000380: 03c4 853d da7d 173d b59c 61bd 8016 1cbd
00000390: d7cf 8c3c 7396 42be 1681 afbc 72fb 043e
000003a0: 5bc6 2cbe ea41 7c3d 8521 873d 63a3 4a3d
000003b0: 4c84 d03d 4258 b73d 465f e1bd 456d 03bd
000003c0: 946f e43c 3494 9bbd 1cf1 9c3d f878 483e
000003d0: 0c2e d7bd c2c7 543d 790a c83d d047 103e
000003e0: 3557 3e3c 5ec5 cc3d ecd9 c6bd a0d7 4abd
000003f0: 9e98 2f3e 47f0 893c 0e92 333e a182 d53b
-0.029649 0.016038526 0.047374647 0.12165744 -0.11571224 0.019431777 -0.010989243 0.060580734
-0.043488998 -0.072365955 0.055216923 -0.068405405 0.0031813278 0.027625471 0.01967153 0.14787309
0.040172372 -0.04916257 0.010505983 0.04901888 -0.047550168 -0.027358336 -0.07338093 -0.01606646
0.063239574 0.034433644 0.14311641 -0.045537177 -0.058091693 0.07156722 0.08273654 -0.010492891
0.023459224 0.035367053 -0.026156409 0.06885302 0.032853227 -0.0011428964 -0.078016415 -0.07668137
0.058495358 -0.07594803 0.0070375646 -0.08943646 0.084144644 0.11757625 0.004614643 0.08127702
0.013376307 -0.079462714 -0.11147105 -0.018859094 -0.04246152 0.028517209 -0.10235725 -0.048314452
0.09098109 0.056153502 -0.115312256 -0.0013755623 -0.093545064 -0.02894423 0.015969366 0.008782529
-0.096673556 0.079069324 -0.009566086 -0.004576487 0.030776303 -0.0015383732 0.015709067 -0.007788372
-0.12829588 -0.0014506088 0.09334343 -0.088546954 -0.11647082 -0.06392966 -0.0028490121 -0.19675298
0.17238048 0.07282727 -0.07360524 0.094668716 -0.0053180605 -0.014965836 -0.00049539923 0.13739134
0.06176306 0.11892282 -0.07853622 -0.08958222 -0.015824104 -0.10262066 0.064823136 -0.10900987
-0.12848838 0.033059392 0.20084055 0.04849982 -0.020714832 0.0011390748 0.13803615 -0.03906083
-0.14318399 0.22278295 0.16455969 0.11972313 0.042893723 -0.1807088 -0.028703837 -0.028130349
-0.057176996 0.14429745 -0.0852845 -0.0404922 -0.054155838 -0.052173186 0.09210902 0.07640294
-0.035029743 0.04658145 0.019446945 -0.15662333 -0.085247 -0.08072662 -0.046467956 -0.20368892
0.051417198 -0.05797428 0.08891985 -0.016713437 -0.018279817 0.049780358 0.025684921 0.12608363
-0.0027428884 0.058130894 0.07039485 -0.05305822 -0.075806744 0.023410693 -0.19330852 0.16860804
-0.038537633 -0.022201728 -0.002523301 -0.1701237 -0.035521124 -0.14857076 0.08273029 -0.04503691
-0.10634881 0.03174293 -0.10976178 0.103632174 -0.019191464 0.053202488 0.020995162 -0.045222543
-0.06653505 -0.07794543 0.12889731 -0.018589543 -0.069305554 -6.893448e-05 -0.05621595 -0.12328484
-0.07146278 0.090402305 -0.08138194 -0.0015993533 0.1335249 -0.101972334 0.12455877 0.033237796
-0.05587466 -0.19179504 -0.0059907422 -0.043545105 0.0076732137 0.12719755 -0.049439266 -0.117106296
0.028177781 0.066718884 -0.057207514 0.107914805 0.009847383 0.0018622456 0.11550575 0.11244696
-0.028021775 0.03764374 0.06474358 -0.06885839 -0.034438673 -0.040085558 0.025233157 -0.085642554
0.13231224 0.14678687 -0.11372244 -0.08888459 0.17530678 0.090019785 0.01427554 0.04828927
-0.096166365 0.12765698 0.10676793 -0.06726531 -0.07249255 -0.0064888676 0.03184778 0.19451478
0.035040442 0.04270167 -0.110633634 0.06952488 0.0053342218 0.110360175 -0.20244178 0.16277067
0.06531527 0.036985256 -0.055081088 -0.038107395 0.01718895 -0.19002704 -0.021423858 0.12986544
-0.16872542 0.061586298 0.0659819 0.049472224 0.101814836 0.08952381 -0.110045 -0.03208663
0.027885236 -0.07596627 0.076631755 0.19577396 -0.105068296 0.051948316 0.097676225 0.14089894
0.011617471 0.09998582 -0.09709534 -0.049522042 0.17148063 0.016838206 0.17536184 0.0065158163

network_body._body_endoder.seq_layers.2.bias f4 [128]
00000000: 0000 0000 0000 0000 0000 0000 0000 0000
00000010: 0000 0000 0000 0000 0000 0000 0000 0000
00000020: 0000 0000 0000 0000 0000 0000 0000 0000
00000030: 0000 0000 0000 0000 0000 0000 0000 0000
00000040: 0000 0000 0000 0000 0000 0000 0000 0000
00000050: 0000 0000 0000 0000 0000 0000 0000 0000
00000060: 0000 0000 0000 0000 0000 0000 0000 0000
00000070: 0000 0000 0000 0000 0000 0000 0000 0000
00000080: 0000 0000 0000 0000 0000 0000 0000 0000
00000090: 0000 0000 0000 0000 0000 0000 0000 0000
000000a0: 0000 0000 0000 0000 0000 0000 0000 0000
000000b0: 0000 0000 0000 0000 0000 0000 0000 0000
000000c0: 0000 0000 0000 0000 0000 0000 0000 0000
000000d0: 0000 0000 0000 0000 0000 0000 0000 0000
000000e0: 0000 0000 0000 0000 0000 0000 0000 0000
000000f0: 0000 0000 0000 0000 0000 0000 0000 0000
00000100: 0000 0000 0000 0000 0000 0000 0000 0000
00000110: 0000 0000 0000 0000 0000 0000 0000 0000
00000120: 0000 0000 0000 0000 0000 0000 0000 0000
00000130: 0000 0000 0000 0000 0000 0000 0000 0000
00000140: 0000 0000 0000 0000 0000 0000 0000 0000
00000150: 0000 0000 0000 0000 0000 0000 0000 0000
00000160: 0000 0000 0000 0000 0000 0000 0000 0000
00000170: 0000 0000 0000 0000 0000 0000 0000 0000
00000180: 0000 0000 0000 0000 0000 0000 0000 0000
00000190: 0000 0000 0000 0000 0000 0000 0000 0000
000001a0: 0000 0000 0000 0000 0000 0000 0000 0000
000001b0: 0000 0000 0000 0000 0000 0000 0000 0000
000001c0: 0000 0000 0000 0000 0000 0000 0000 0000
000001d0: 0000 0000 0000 0000 0000 0000 0000 0000
000001e0: 0000 0000 0000 0000 0000 0000 0000 0000
000001f0: 0000 0000 0000 0000 0000 0000 0000 0000
0.0 0.0 0.0 0.0 0.0 0.0 0.0 0.0
0.0 0.0 0.0 0.0 0.0 0.0 0.0 0.0
0.0 0.0 0.0 0.0 0.0 0.0 0.0 0.0
0.0 0.0 0.0 0.0 0.0 0.0 0.0 0.0
0.0 0.0 0.0 0.0 0.0 0.0 0.0 0.0
0.0 0.0 0.0 0.0 0.0 0.0 0.0 0.0
0.0 0.0 0.0 0.0 0.0 0.0 0.0 0.0
0.0 0.0 0.0 0.0 0.0 0.0 0.0 0.0
0.0 0.0 0.0 0.0 0.0 0.0 0.0 0.0
0.0 0.0 0.0 0.0 0.0 0.0 0.0 0.0
0.0 0.0 0.0 0.0 0.0 0.0 0.0 0.0
0.0 0.0 0.0 0.0 0.0 0.0 0.0 0.0
0.0 0.0 0.0 0.0 0.0 0.0 0.0 0.0
0.0 0.0 0.0 0.0 0.0 0.0 0.0 0.0
0.0 0.0 0.0 0.0 0.0 0.0 0.0 0.0
0.0 0.0 0.0 0.0 0.0 0.0 0.0 0.0

network_body._body_endoder.seq_layers.2.weight f4 [128, 128]
00000000: d9c3 4dbc 97bd 5abd 7ba3 2dbd c694 e0bc
00000010: bfb0 8fbd 6aa9 4d3d 3743 20bb cfad cb3d
00000020: 7d68 d5bd 1a79 d73c 7a80 443e 6dd3 34bd
00000030: b883 0dbd 0463 03be 7d12 3fbc 1d1b 16bd
00000040: db48 3fbc 7c9e 0c3e c437 5c3c 3525 7cbd
00000050: 34be 20be f685 28bc ae4b 83bd 8389 1dbd
00000060: 8412 aebb a211 273e 2e77 c1bd 9225 483d
00000070: 0404 b6bd 2114 823c 96a6 f6bc 1102 67bd
00000080: ef20 d63d 1ef7 2f3d 4624 bc3d 88ea 803e
00000090: 9811 58bd 1201 22bd 4fd0 24bb b515 d13d
000000a0: 494f 12be 352e d63d b095 b23d 4e3e bcbd
000000b0: d7ce 28be ab0e e4bd 2aa1 4d3d 645b 9fbd
000000c0: 6817 c9bc 350c 063d b6d3 d5bc b117 943d
000000d0: 7d4e 63bd 282c acbd f2c6 9cbc 2940 e6bc
000000e0: 283e 1fbe 1bea a33d 7e6f b13d b240 32bc
000000f0: 3c19 5a3e 8d71 dfbd 1285 8ebd 4e46 133d
00000100: c39e 9dbd 849f 0e3c 5a25 86bd e614 00bd
00000110: 7358 613d ba1c e7bd a595 263d 217a 8cbd
00000120: 4dff d7bd c4e1 323b ea5d f4bd 11d4 bb3a
00000130: 6d6a bb3c c0c1 acbc 2dfb 353e d910 683d
00000140: 604f e8bd 9f1e 14bd c5ca a0bc d827 223c
00000150: 8b6c 7b3d cf6c e63c 32b7 ff3d 94c0 75bc
00000160: 34b5 18be 576c c5bc b266 143d ca52 e23c
00000170: d168 363c 3758 0fbe cdce cdbc 816a b1bc
00000180: 1435 043e 7bff 19be 3304 cd3d e122 4b3d
00000190: 0e21 52bc 1305 c7bd c413 123e 2abb dfbd
000001a0: 2d40 a93c 1c74 2abd 7ff5 a93d d8b1 833d
000001b0: e0de efbc e21d ee3b 5fd4 283d 7d43 53bd
000001c0: ea85 0ebe 5009 5abe 3d2d 9f3d be80 c53d
000001d0: 082d 55bd e7a4 103e ba28 20bd 00a4 83bd
000001e0: 45b9 8abd da3b 513e 8dfd 89bd 0523 603d
000001f0: 267f 243d 58e7 223e 39cf 8a3d f75e e93c
00000200: 738d db3d abaf 85bd 3b8e bc3d e5ab 79bd
00000210: 8ef2 b8bd 16e5 38be 60c9 c3bd 7738 e4bd
00000220: 0860 0f3d 6606 b3bb efe5 6ebb 5cff efbc
00000230: ea0c 85bd 858b 2dbd 0135 48bd 4904 7dbc
00000240: 34ab e53d 9014 093e 2329 dabb 408a 88bd
00000250: e4c7 18bc a424 123e 1a35 403c b2b5 c33d
00000260: b593 933d 3612 01be f7d9 393d 7874 18bd
00000270: 1797 e33d 0251 34bc fe57 90bd ebba 433d
00000280: 9604 0dbe 0434 563c 052e 87bc 2814 a83c
00000290: 29f5 0d3e 131f 353c 4815 77bd 6453 7fbe
000002a0: 72ce 243e 4634 a43c 350d ccbb d342 0c3e
000002b0: fc9a 783a 44d8 3a3d 4caa f73d 4e70 773d
000002c0: 1b67 dc3d dccd d93d 8bdd 143e a31b 6cbc
000002d0: b9b8 143c 6fd7 0bbd 78a1 eebb b0a2 703c
000002e0: 85e4 6f3d 0589 3d3c 5989 c43c 8e35 f63d
000002f0: bd63 59bc 85cf 39be 9ef1 a73b 451c 85be
00000300: b39e 133d efaf 1e3c 5bd3 95bd 2669 cd3d
00000310: 0728 35bd 8909 e6bd a6f7 ac3d d369 8fbd
00000320: 02dd ecbd e15b 86bc 8b9d 2dbd 8910 543e
00000330: 1628 26bd 2165 033e 1eba e1bc 5641 8ebd
00000340: 7f07 9bbd 667c 02be 9420 c1bd c8cc 75bd
00000350: 976a 983d eb66 1fbd 215c 0b3e 6a28 163d
00000360: a1a0 b6bd 6666 47bc ba90 7fbd fb2a d0bc
00000370: b19b 20be 46c5 0b3d 33ae 823c 5e63 3fbd
00000380: e1cb 1c3d 5526 883d d614 02be 9a2f 573e
00000390: 12bc 44bc 494b 51bc 9aa1 9dbd 77ea 24bd
000003a0: 02a8 45be 607e fcbc 6359 21be c4c6 d23d
000003b0: 4705 4ebd 89df e2bd f4ec aa3d a811 63bd
000003c0: d6ff e9bd fc9d fdbd b9c8 0d3d 60a3 033d
000003d0: c1d2 273e 3784 db3d 58cb 143e e7c3 f3bc
000003e0: 68b9 50bb f6ed e83d a840 053e 1246 9ebd
000003f0: bba3 763d af68 a23d 91ca 76bd e680 143d
-0.012558901 -0.053403463 -0.042392235 -0.02741469 -0.070161335 0.050210394 -0.0024454126 0.09945261
-0.1042032 0.026302863 0.19189635 -0.044146944 -0.034549445 -0.1283074 -0.011662123 -0.03664695
-0.011675085 0.13732332 0.01344103 -0.06155892 -0.15697557 -0.010285845 -0.06410919 -0.03846122
-0.005312266 0.1631532 -0.0944656 0.048863955 -0.08887485 0.015878739 -0.030108731 -0.056398455
0.104555 0.04296028 0.09186606 0.25178933 -0.052751154 -0.039551802 -0.0025148576 0.102092184
-0.14288057 0.10458032 0.08719957 -0.09191571 -0.16485153 -0.1113561 0.050202526 -0.07781103
-0.024547294 0.032726485 -0.026101928 0.07231081 -0.055494774 -0.0840686 -0.019137833 -0.028106766
-0.15551054 0.080036364 0.086638436 -0.010879682 0.21298689 -0.1091033 -0.06958975 0.03595572
-0.07696297 0.008705024 -0.06550093 -0.03126993 0.055015992 -0.11284776 0.040670056 -0.06859232
-0.10546742 0.0027295211 -0.11931975 0.0014330168 0.022877896 -0.021088481 0.17771597 0.056656692
-0.113432646 -0.036162015 -0.019627938 0.009897195 0.06138281 0.028128056 0.124861136 -0.0149995275
-0.14912874 -0.024099512 0.03623075 0.027627368 0.011133389 -0.13998495 -0.025123024 -0.02165723
0.12910873 -0.15038864 0.100105666 0.04959381 -0.012825264 -0.09717765 0.14265352 -0.109243706
0.020660484 -0.041614637 0.08298778 0.064304054 -0.02928108 0.007266746 0.041218158 -0.051578034
-0.13918272 -0.21292615 0.077723004 0.09643696 -0.0520449 0.14125405 -0.03910134 -0.06427765
-0.067736186 0.20432988 -0.06737814 0.054720897 0.04016032 0.15908563 0.06777806 0.028487666
0.10720339 -0.06527647 0.09206816 -0.060954947 -0.09030639 -0.1805614 -0.095598936 -0.11143582
0.035003692 -0.0054634092 -0.003645297 -0.02929657 -0.06496604 -0.042369384 -0.048878673 -0.015442916
0.11214295 0.1338675 -0.006657736 -0.06666994 -0.009325001 0.1427179 0.01173141 0.0955614
0.07205907 -0.12604603 0.045373883 -0.03722045 0.111128025 -0.011005642 -0.07048033 0.04778568
-0.1377128 0.013073925 -0.016501436 0.020517424 0.13863052 0.011054772 -0.06032303 -0.24934155
0.16094378 0.020044457 -0.0062271603 0.13697366 0.00094835437 0.045616403 0.120930284 0.060409836
0.10761853 0.10634968 0.14537637 -0.014410886 0.009077244 -0.034141 -0.007282432 0.014687225
0.058567543 0.0115683125 0.023991274 0.120219335 -0.013268408 -0.18145569 0.0051252386 -0.2599813
0.03604002 0.0096855005 -0.073157035 0.10029821 -0.044227626 -0.112322874 0.08445673 -0.07002606
-0.115655914 -0.016401233 -0.042386573 0.20709433 -0.040565573 0.12831546 -0.027554568 -0.069460556
-0.07569789 -0.12742767 -0.09430042 -0.060009748 0.074422054 -0.03891651 0.13609363 0.036659636
-0.08917356 -0.01217041 -0.06239388 -0.02541112 -0.15684392 0.03412368 0.015952205 -0.046725623
0.03828037 0.06647936 -0.12703261 0.21014252 -0.01200773 -0.012774297 -0.07696839 -0.040262666
-0.19302371 -0.030821979 -0.15756755 0.10291818 -0.050298 -0.11077792 0.083459765 -0.05543676
-0.1142575 -0.12383649 0.034615252 0.03213823 0.1638899 0.10718577 0.14530694 -0.0297565
-0.0031848792 0.113735124 0.13012946 -0.077282086 0.06021474 0.07930123 -0.060251776 0.03625574
