Results/test14/SnowBall.onnx (onnx, 143334 bytes, 9 tensors)

action_model._discrete_distribution.branches.0.bias f4 [3]
0	0x00000000	0.0
1	0x00000000	0.0
2	0x00000000	0.0

action_model._discrete_distribution.branches.0.weight f4 [3, 128]
0	0xbc88480d	-0.016635919
1	0xbc627fb3	-0.013824391
2	0xbbc0736a	-0.0058731334
3	0xbc097123	-0.00838879
4	0xbc62c0ab	-0.013839881
5	0x3c8b879e	0.01703244
6	0x3b381eb5	0.0028094475
7	0x3b8c81a3	0.004287915
8	0x3c4a5bfb	0.012351031
9	0xbc875701	-0.016520979
10	0xbbd9200b	-0.0066261343
11	0xbcb490e9	-0.022041755
12	0x3ad7a723	0.0016453009
13	0xbb8c1f0b	-0.0042761615
14	0x3b9759d0	0.004618861
15	0xbc9d408f	-0.019195823
16	0x3c963022	0.018333498
17	0x3c4b6a53	0.012415486
18	0x3ba06d54	0.0048958454
19	0xbabc0abc	-0.0014346461
20	0x3c64c07d	0.013961908
21	0x3b9a5066	0.0047092913
22	0xb945d1de	-0.00018865566
23	0x3c55f868	0.013059713
24	0xbbf885b0	-0.007584296
25	0xbc3e1af5	-0.011603107
26	0x3940b074	0.00018376281
27	0xbbe0ca22	-0.0068600336
28	0xbaf0ac3f	-0.001836188
29	0xbca9784f	-0.02068725
30	0xbbb03496	-0.0053773625
31	0xbbf9ecb8	-0.007627096
32	0x3b5b76ba	0.0033487515
33	0xbc553eaf	-0.013015433
34	0x3bcc73bb	0.006239382
35	0x3bfc1e32	0.0076940292
36	0xbc37bfb7	-0.011215142
37	0xbc078f9b	-0.008273984
38	0xbad5d75f	-0.0016314796
39	0xbae1ebba	-0.001723639
40	0xbc7db4c7	-0.015484995
41	0xba003f77	-0.00048922695
42	0xb9ba2626	-0.00035505107
43	0x3b5146ea	0.0031933137
44	0xb96e0433	-0.00022699013
45	0xbbca9cc3	-0.0061832382
46	0x3c576b8d	0.013148201
47	0xbbbed4c7	-0.005823705
48	0xbbc91a70	-0.006137185
49	0xbc0526e7	-0.008126951
50	0x3c1d5b58	0.009604298
51	0x3a27fdb2	0.0006408348
52	0x3c5a9223	0.013340506
53	0xbb481a9b	-0.0030533436
54	0x3c4f2123	0.012642178
55	0xba568207	-0.0008182828
56	0xbc096da1	-0.008387954
57	0x3b9a2e0a	0.0047051953
58	0xba5e7fdd	-0.0008487681
59	0xbc019e5b	-0.00791129
60	0x3c50fcd5	0.012755592
61	0x3c86c423	0.016450947
62	0xbc248ac2	-0.010042848
63	0xbbcdd8ea	-0.0062819617
64	0x3c2f9bb5	0.010718276
65	0x3bcc2dc7	0.006231043
66	0xbc05caac	-0.0081659965
67	0x3ae19615	0.0017210866
68	0xbc7b4d7d	-0.015338299
69	0xba951e63	-0.0011376854
70	0x3c07fddf	0.008300274
71	0xbb89621e	-0.0041926047
72	0x3c536613	0.012902754
73	0x3a3aac61	0.00071210234
74	0x3b474683	0.0030407018
75	0x3ba14b8e	0.004922337
76	0x3b98bbca	0.004661058
77	0xbb82220b	-0.0039713434
78	0x3c648747	0.013948268
79	0x3c4e1288	0.01257766
80	0x3c7bdc1d	0.015372303
81	0xbc2af9f7	-0.010435573
82	0xbc255cfd	-0.010092971
83	0xbbbf635e	-0.005840703
84	0xbb1a4b9b	-0.00235436
85	0x3aa2ca30	0.0012419876
86	0xbb656953	-0.0035005405
87	0xbba387b3	-0.004990542
88	0xb88b07c6	-6.6294844e-05
89	0xbb35bc33	-0.0027730584
90	0xbc7daf6b	-0.015483717
91	0xb9d80d2a	-0.00041208538
92	0x3cc89a28	0.02448757
93	0x3c40ef36	0.011775782
94	0xbbcf40f8	-0.0063248836
95	0x3b8d0597	0.004303645
96	0x3bf4da87	0.0074723396
97	0xbb7f93aa	-0.0038997927
98	0x3af8d2e8	0.0018983753
99	0xba3e1e8e	-0.0007252478
100	0x3c00c70c	0.0078599565
101	0xbc255a0d	-0.010092271
102	0xbaae55b7	-0.0013300691
103	0x3c2b5ab9	0.010458642
104	0xbb84813e	-0.004043727
105	0xbc881098	-0.016609475
106	0xbadc17d3	-0.0016791768
107	0xbbe7eeb7	-0.0070780176
108	0xbc5a8bb7	-0.013338975
109	0xbc31b9aa	-0.010847488
110	0x3bb325e7	0.005467165
111	0xbc2054d8	-0.009785853
112	0x3ab6bc77	0.0013941665
113	0xbc06b7c5	-0.008222525
114	0x3c2d6625	0.010583435
115	0xbb3ab769	-0.0028490669
116	0x3c5b4ffd	0.01338577
117	0xbb99711b	-0.0046826727
118	0x3bfa9262	0.0076468447
119	0x3b9cd733	0.004786396
120	0x3b3761c8	0.0027981866
121	0xbaed9c2f	-0.0018128211
122	0x3c84730b	0.016168138
123	0x3b0ada3f	0.0021187214
124	0xbc3facf4	-0.01169895
125	0xbb90d9b8	-0.0044204853
126	0xbbb7edbf	-0.0056130583
127	0x3c330953	0.010927516
128	0x3b960105	0.0045777583
129	0x3c4f8bd8	0.012667619
130	0xbc22ca4f	-0.009935929
131	0xba846347	-0.0010100388
132	0x3bca435b	0.00617258
133	0xbbc4fbc7	-0.0060114595
134	0x3b1296f0	0.0022367798
135	0xbc4bae5d	-0.012431708
136	0x3b9b4c6b	0.0047393343
137	0xb9ba03b1	-0.00035479435
138	0xbbc1b747	-0.005911741
139	0xbb3db24f	-0.0028945392
140	0x3b82325c	0.0039732885
141	0x3b20dc03	0.00245452
142	0xbca7b3d1	-0.020471485
143	0x3c34ee9f	0.01104322
144	0x3cb440ab	0.022003492
145	0xbbbb37e0	-0.005713448
146	0x3c3b344f	0.011426046
147	0x3b5f5b28	0.0034081433
148	0xbc1c044f	-0.009522512
149	0x3c4d2540	0.012521088
150	0x3b848923	0.0040446683
151	0x3c333677	0.010938278
152	0x3afeb6f3	0.0019433185
153	0xbce04e45	-0.027381072
154	0xbbb2dd73	-0.0054585277
155	0xbbf7b65d	-0.007559581
156	0xb9b23160	-0.00033987593
157	0xbb6fcfff	-0.0036592481
158	0xbcad4c32	-0.021154497
159	0xbc7036fb	-0.014661546
160	0x3aee71c5	0.0018191865
161	0x3bb0c10b	0.0053941063
162	0xba74500f	-0.0009319791
163	0x3b43e56d	0.0029891387
164	0x3c902153	0.017594015
165	0x3c891e8b	0.016738197
166	0xbae9c907	-0.00178364
167	0xbade12f7	-0.0016942908
168	0x3acf1fe8	0.0015802355
169	0x3870474d	5.7286863e-05
170	0x3ca3a190	0.0199745
171	0xbca914a0	-0.020639718
172	0x3bdb7340	0.0066970885
173	0x3ba73cdb	0.00510369
174	0x3bc4b497	0.0060029733
175	0xbb5fcdaa	-0.0034149685
176	0x3c550f02	0.013004066
177	0x3c24875c	0.010042038
178	0x3c61c6ea	0.013780335
179	0x3c42b8a4	0.011884842
180	0xba9cc7df	-0.0011961422
181	0x3be5f1bf	0.007017344
182	0xbc9e5813	-0.019329106
183	0xbb469ff9	-0.0030307753
184	0xbc057c8b	-0.008147369
185	0xbc884c06	-0.016637813
186	0xbb96361b	-0.0045840866
187	0xbb4306ef	-0.0029758771
188	0xbb902df7	-0.0044000107
189	0xbae47685	-0.0017430341
190	0x3c9f8fc2	0.019477729
191	0x3a98bbb9	0.0011652625
192	0x3c321dd7	0.010871372
193	0x3bc99a97	0.0061524617
194	0xbc8a7a02	-0.016903881
195	0xbc2b92ba	-0.010471994
196	0x3c8a31b0	0.016869396
197	0x3ba33241	0.004980356
198	0x3b8f17a7	0.0043668333
199	0x3bdd98bd	0.0067625926
200	0xbb1ccfa7	-0.0023927481
201	0xbc31c0aa	-0.010849157
202	0xbb677ba8	-0.0035321508
203	0x3b98613d	0.0046502636
204	0xb7f09473	-2.8679357e-05
205	0xbc393ad7	-0.011305532
206	0x3c8700c5	0.01647986
207	0x3c666bdd	0.014063803
208	0x3bdea2a2	0.0067942897
209	0xbc433925	-0.01191548
210	0xba9dbfc4	-0.00120353
211	0x3a805887	0.0009792008
212	0x3b5c49eb	0.0033613394
213	0xbbbc11e9	-0.0057394397
214	0xbc08b663	-0.008344266
215	0x3b313c67	0.002704406
216	0xbbd9345f	-0.0066285576
217	0xbb706230	-0.0036679618
218	0x3c7f5347	0.01558382
219	0xbb249ffa	-0.0025119768
220	0x3c4e9dbb	0.012610848
221	0x3c151a5b	0.009100522
222	0xbaf74fca	-0.0018868383
223	0x3ca8ec20	0.020620406
224	0xba06eedf	-0.0005147289
225	0xbb82a33a	-0.0039867433
226	0x3b778f45	0.0037774604
227	0xba9dbab6	-0.0012033794
228	0x3a8cf79b	0.0010754945
229	0x3c0e3fe5	0.008682226
230	0x3a6dc432	0.0009070068
231	0x3a35beb3	0.00069330184
232	0x3c42535b	0.011860694
233	0x3c57f51d	0.013180998
234	0x3c26a097	0.010170124
235	0x3ab11836	0.0013511244
236	0x3bed9fad	0.007251701
237	0x3ae4c1aa	0.0017452736
238	0x3bd21b22	0.006411926
239	0xbc005fe3	-0.007835361
240	0x3cab2a64	0.020894237
241	0x3bf148da	0.007363421
242	0x3c903304	0.017602451
243	0xbc28a1db	-0.010292496
244	0xbb7849cd	-0.0037885786
245	0xbbd68175	-0.006546194
246	0xbb8cd057	-0.004297297
247	0xba9da73b	-0.0012027988
248	0xbb169c62	-0.0022981395
249	0x3c116488	0.008874066
250	0xba0d1509	-0.00053818576
251	0x3c7f13f3	0.015568721
252	0xbca78448	-0.020448819
253	0x3aeba2dd	0.0017977614
254	0x3c48b1ce	0.012249423
255	0x3b846a92	0.0040410245

action_model._discrete_distribution.branches.1.bias f4 [3]
0	0x00000000	0.0
1	0x00000000	0.0
2	0x00000000	0.0

action_model._discrete_distribution.branches.1.weight f4 [3, 128]
0	0xbbb96f1d	-0.0056589977
1	0x3b8e8cac	0.0043502655
2	0xbbf870d5	-0.00758181
3	0xbbfe38d0	-0.0077582374
4	0x3b2b5fdb	0.0026149664
5	0x3a471363	0.00075941364
6	0x3c0622a5	0.008186971
7	0x3bcc7f1d	0.006240739
8	0x39b39c3b	0.0003425794
9	0xbc59bdf5	-0.013289918
10	0xbb8f4058	-0.004371684
11	0xbb5c777a	-0.003364055
12	0x3b2f56ed	0.0026754693
13	0x3bcfa593	0.0063368767
14	0x3c13bfaa	0.009017864
15	0x3b3e524e	0.0029040757
16	0xbc1597a9	-0.009130397
17	0xba522088	-0.0008015712
18	0x3bb10424	0.005402105
19	0xbc64d5c8	-0.013966985
20	0x3a84ebdf	0.0010141096
21	0xbc6cfe93	-0.014464992
22	0x3bc450b4	0.005991066
23	0x3a9549ab	0.0011389753
24	0xbc3abf7a	-0.011398191
25	0x3c2f862f	0.010713144
26	0xbc03fee1	-0.008056373
27	0xbc73c255	-0.014877875
28	0xbc84d823	-0.016216343
29	0x3a9abc13	0.0011805318
30	0xbc283ebb	-0.010268862
31	0x3bf2fc82	0.007415355
32	0x3c42766f	0.011869057
33	0xbc097e07	-0.008391864
34	0xbb06141b	-0.002045876
35	0xbbc72b0f	-0.006078131
36	0x3b8fcca2	0.004388408
37	0x3bb56c3e	0.005536585
38	0x3b666600	0.0035156012
39	0xbc0cdb8a	-0.008597264
40	0xbb2da231	-0.0026494379
41	0x3bab6667	0.005230713
42	0x3ae2364a	0.0017258611
43	0x3b93b15f	0.0045072283
44	0x3c5b2dc5	0.0133776115
45	0xbb14ab52	-0.0022685123
46	0xbc2832b6	-0.010265997
47	0x3a7d7495	0.0009668556
48	0x3c868720	0.016421854
49	0x39b0deb7	0.0003373527
50	0x3c411ee4	0.01178715
51	0xbb86ea07	-0.0041172537
52	0x3bda2350	0.0066570416
53	0x3aa8f0b6	0.001288912
54	0xbb4ed112	-0.003155772
55	0xbc222b2b	-0.009897987
56	0x3a4b89b3	0.0007764354
57	0x3b8d8dcc	0.004319882
58	0xbbb4efab	-0.0055217347
59	0x3bf21590	0.0073878244
60	0xbc357c60	-0.011077017
61	0xbb26f5b7	-0.0025476047
62	0xbb8bb0ef	-0.0042630355
63	0x3bdbf360	0.006712362
64	0xbb9900ff	-0.004669308
65	0x39a58286	0.000315685
66	0xba387c52	-0.0007037568
67	0x3c39f27c	0.011349317
68	0x3ba1a837	0.004933383
69	0xbb4aa0cd	-0.0030918599
70	0x3a3cb294	0.0007198241
71	0xbc1ad0dd	-0.009449211
72	0x3b93a96b	0.00450628
73	0xbb9e171e	-0.004824533
74	0xbc5a0ced	-0.013308746
75	0x3c293d86	0.01032961
76	0xbb922f90	-0.0044612363
77	0xbb9c413e	-0.0047685197
78	0x3b16a083	0.0022983856
79	0xb986edfd	-0.00025735787
80	0x39b55b53	0.00034591052
81	0x3c00d2cb	0.007862757
82	0xbb0396cb	-0.0020078893
83	0xbc156b85	-0.009119873
84	0x3c351f12	0.011054771
85	0x3caba36d	0.02095195
86	0xbc08ec0b	-0.008357058
87	0x3baa82fb	0.0052036024
88	0xbc03e724	-0.008050714
89	0x3b1ba293	0.0023748025
90	0x389ee559	7.5767464e-05
91	0xbc68494d	-0.0141776325
92	0xbbac78b8	-0.0052634142
93	0xbb60ae1a	-0.003428346
94	0xbbe5268b	-0.00699312
95	0xbbc7914b	-0.0060903183
96	0x3c07f6c2	0.008298578
97	0xbb54b155	-0.003245433
98	0x3b56209f	0.0032673252
99	0x3b089c26	0.0020845025
100	0x3c2838af	0.010267421
101	0x3a2ed91d	0.00066699256
102	0xbc391d6f	-0.011298521
103	0xbb959973	-0.0045654117
104	0x3b26c506	0.0025447025
105	0xbc9f0a4f	-0.019414095
106	0x3b89b87b	0.0042029
107	0xbbc72077	-0.006076868
108	0xbc870c32	-0.016485307
109	0xbc4a36e3	-0.012342188
110	0xbb57180f	-0.0032820737
111	0xbb4990cb	-0.003075647
112	0xbb70aa6b	-0.003672267
113	0xbaa560a3	-0.0012617301
114	0xbbaea993	-0.0053302734
115	0xbb9a649c	-0.0047117006
116	0x3bb1bd9f	0.005424216
117	0xbbe459bf	-0.0069687064
118	0x3c794880	0.015215039
119	0xbcfb2f1d	-0.030662114
120	0x3c8edc0b	0.017438909
121	0x3b9c135a	0.004763049
122	0x3c49c75b	0.012315596
123	0x3b84ee84	0.0040567536
124	0xbbbb3c34	-0.005713964
125	0x3a5de96b	0.0008465263
126	0x3bfbd2dd	0.007685049
127	0x3b977cce	0.004623032
128	0xbb156cff	-0.0022800562
129	0xbb679227	-0.0035334916
130	0x3c29582f	0.010335966
131	0xbb9c9589	-0.004778568
132	0xbb0339bc	-0.0020023426
133	0xbb8c03cd	-0.004272914
134	0xbc621a63	-0.013800236
135	0xbbcbc4b2	-0.0062185163
136	0xbc5753e2	-0.013142558
137	0x3b021e20	0.0019854382
138	0x3ac43f17	0.0014972416
139	0x3cc1b75e	0.023647007
140	0xbbb1abd8	-0.0054220967
141	0xbb3f4b61	-0.0029189216
142	0xbcd719f8	-0.0262575
143	0x3aaa3d93	0.0012988321
144	0xbbe5a4b7	-0.007008161
145	0xbaad6977	-0.0013230284
146	0x3b23b913	0.002498214
147	0x3b54ca08	0.0032469053
148	0xbb0007dc	-0.0019535935
149	0x3bd2256d	0.006413153
150	0xbb3740ef	-0.0027962287
151	0x3baf6f0d	0.0053538145
152	0x3c2de9a8	0.01061479
153	0xbca3467e	-0.019931074
154	0xbbb1c0a2	-0.005424575
155	0xbbddb365	-0.0067657703
156	0x3aee0f68	0.001816255
157	0xbacab245	-0.0015464505
158	0xbb191d72	-0.0023363498
159	0xbc24af37	-0.01005154
160	0xbb3ff5e3	-0.0029290847
161	0x3b7f5f3f	0.0038966683
162	0x3ba54852	0.0050440216
163	0x39422360	0.0001851446
164	0x3c5a90c2	0.013340177
165	0xbc44a5f6	-0.012002459
166	0x3bf636da	0.007513863
167	0xbc306702	-0.0107667465
168	0xbc63a773	-0.0138949035
169	0x3bcb8a0f	0.006211526
170	0x3af6a638	0.0018817848
171	0x3b245e90	0.0025080778
172	0x3c04d7cf	0.008108093
173	0x3c566f03	0.013087991
174	0xbc74288d	-0.014902246
175	0xbbb66d1f	-0.0055672075
176	0xbb769a9f	-0.0037628782
177	0x3bcd2af7	0.0062612253
178	0xbcc6e748	-0.024280205
179	0xbb00bb4b	-0.0019642885
180	0x3c240956	0.0100119915
181	0xbbbc8e3e	-0.0057542613
182	0xbb0b3cff	-0.0021246073
183	0xba8aef27	-0.0010599837
184	0xbb364093	-0.0027809485
185	0xbb157f54	-0.002281149
186	0x3bf98fc2	0.007616014
187	0xba56dea3	-0.00081966276
188	0x3b7ae595	0.0038283814
189	0x3ae65e3a	0.0017575689
190	0x3b8df54d	0.0043322206
191	0x3bf3ffe7	0.0074462774
192	0x3c7ba697	0.015359542
193	0x3c488731	0.012239263
194	0xbbe063d7	-0.0068478393
195	0xbbd174fb	-0.006392119
196	0x3b5a7e63	0.0033339493
197	0xb9dc9d62	-0.0004207893
198	0x3c0d9af8	0.008642904
199	0xbc98fbe3	-0.018674796
200	0xb9ea30b3	-0.00044668242
201	0x3c24de05	0.010062699
202	0x3b57ad63	0.0032909743
203	0xbace2848	-0.0015728557
204	0x3990d9c1	0.0002762806
205	0xbc2f0c6f	-0.010684117
206	0xbba5c15f	-0.005058452
207	0x3c184774	0.0092943795
208	0x3b3e7ac3	0.002906487
209	0xbab09423	-0.0013471883
210	0xbbce7877	-0.0063009816
211	0xbbbdb36f	-0.0057892124
212	0x3c80cd97	0.015723033
213	0x3c479517	0.012181542
214	0x3b21558d	0.0024617643
215	0x3c32044f	0.010865285
216	0xb9e52d38	-0.00043711974
217	0xb9690a32	-0.0002222441
218	0xbbf61b40	-0.0075105727
219	0x3a97939e	0.0011564379
220	0xbbfc414d	-0.007698214
221	0xbc1b7bde	-0.009489981
222	0x3c96e144	0.018417962
223	0x3c08117e	0.008304952
224	0xbc8d3a38	-0.017239675
225	0xba32a8e4	-0.0006815328
226	0x3cb58813	0.022159612
227	0x3b08c044	0.0020866552
228	0x3bdbfb6d	0.006713322
229	0x3c4fed8a	0.012690911
230	0xbc574f57	-0.013141475
231	0x3ba7aeeb	0.0051172874
232	0x3b652b5b	0.0034968469
233	0x3cae5f19	0.02128558
234	0x3c2f9f2d	0.010719103
235	0xbbe8061f	-0.007080808
236	0x3c0a3611	0.008435742
237	0x3c4305f6	0.011903277
238	0x3b26928d	0.002541694
239	0x3c2c1749	0.0105035985
240	0x3c3127a7	0.0108126765
241	0xbc0370bf	-0.008022486
242	0xbb1b5b69	-0.0023705608
243	0xbc132d0b	-0.008982907
244	0x3c48e657	0.012261949
245	0xbb9cb142	-0.004781873
246	0x3b0441df	0.0020180864
247	0x3c6c0175	0.014404644
248	0xbb86df40	-0.004115969
249	0x3c2ecc76	0.0106688645
250	0xbc97ce99	-0.01853113
251	0x3bc0c437	0.0058827656
252	0xbc496a3f	-0.012293397
253	0x3b7a4e9f	0.0038193834
254	0xbab63a93	-0.0013902955
255	0x3bf53757	0.0074834037

discrete_action_output_shape f4 [1, 2]
0	0x40400000	3.0
1	0x40400000	3.0

network_body._body_endoder.seq_layers.0.bias f4 [128]
0	0x00000000	0.0
1	0x00000000	0.0
2	0x00000000	0.0
3	0x00000000	0.0
4	0x00000000	0.0
5	0x00000000	0.0
6	0x00000000	0.0
7	0x00000000	0.0
8	0x00000000	0.0
9	0x00000000	0.0
10	0x00000000	0.0
11	0x00000000	0.0
12	0x00000000	0.0
13	0x00000000	0.0
14	0x00000000	0.0
15	0x00000000	0.0
16	0x00000000	0.0
17	0x00000000	0.0
18	0x00000000	0.0
19	0x00000000	0.0
20	0x00000000	0.0
21	0x00000000	0.0
22	0x00000000	0.0
23	0x00000000	0.0
24	0x00000000	0.0
25	0x00000000	0.0
26	0x00000000	0.0
27	0x00000000	0.0
28	0x00000000	0.0
29	0x00000000	0.0
30	0x00000000	0.0
31	0x00000000	0.0
32	0x00000000	0.0
33	0x00000000	0.0
34	0x00000000	0.0
35	0x00000000	0.0
36	0x00000000	0.0
37	0x00000000	0.0
38	0x00000000	0.0
39	0x00000000	0.0
40	0x00000000	0.0
41	0x00000000	0.0
42	0x00000000	0.0
43	0x00000000	0.0
44	0x00000000	0.0
45	0x00000000	0.0
46	0x00000000	0.0
47	0x00000000	0.0
48	0x00000000	0.0
49	0x00000000	0.0
50	0x00000000	0.0
51	0x00000000	0.0
52	0x00000000	0.0
53	0x00000000	0.0
54	0x00000000	0.0
55	0x00000000	0.0
56	0x00000000	0.0
57	0x00000000	0.0
58	0x00000000	0.0
59	0x00000000	0.0
60	0x00000000	0.0
61	0x00000000	0.0
62	0x00000000	0.0
63	0x00000000	0.0
64	0x00000000	0.0
65	0x00000000	0.0
66	0x00000000	0.0
67	0x00000000	0.0
68	0x00000000	0.0
69	0x00000000	0.0
70	0x00000000	0.0
71	0x00000000	0.0
72	0x00000000	0.0
73	0x00000000	0.0
74	0x00000000	0.0
75	0x00000000	0.0
76	0x00000000	0.0
77	0x00000000	0.0
78	0x00000000	0.0
79	0x00000000	0.0
80	0x00000000	0.0
81	0x00000000	0.0
82	0x00000000	0.0
83	0x00000000	0.0
84	0x00000000	0.0
85	0x00000000	0.0
86	0x00000000	0.0
87	0x00000000	0.0
88	0x00000000	0.0
89	0x00000000	0.0
90	0x00000000	0.0
91	0x00000000	0.0
92	0x00000000	0.0
93	0x00000000	0.0
94	0x00000000	0.0
95	0x00000000	0.0
96	0x00000000	0.0
97	0x00000000	0.0
98	0x00000000	0.0
99	0x00000000	0.0
100	0x00000000	0.0
101	0x00000000	0.0
102	0x00000000	0.0
103	0x00000000	0.0
104	0x00000000	0.0
105	0x00000000	0.0
106	0x00000000	0.0
107	0x00000000	0.0
108	0x00000000	0.0
109	0x00000000	0.0
110	0x00000000	0.0
111	0x00000000	0.0
112	0x00000000	0.0
113	0x00000000	0.0
114	0x00000000	0.0
115	0x00000000	0.0
116	0x00000000	0.0
117	0x00000000	0.0
118	0x00000000	0.0
119	0x00000000	0.0
120	0x00000000	0.0
121	0x00000000	0.0
122	0x00000000	0.0
123	0x00000000	0.0
124	0x00000000	0.0
125	0x00000000	0.0
126	0x00000000	0.0
127	0x00000000	0.0

network_body._body_endoder.seq_layers.0.weight f4 [128, 138]
0	0x3dab4134	0.08362046
1	0x3d631a9c	0.0554453
2	0x3d50aa4c	0.050943658
3	0x3b884f07	0.0041598114
4	0xbdf6c398	-0.12049025
5	0x3cc9fad7	0.024655743
6	0x3d9b622f	0.075870864
7	0xbda523e0	-0.08063483
8	0xbdb0cec6	-0.08633189
9	0xbe67c26b	-0.22632758
10	0xbaa4b59a	-0.0012566329
11	0xbd7d9ebc	-0.06191896
12	0x3e214e2b	0.15752475
13	0xbdaf37c3	-0.085555576
14	0xbcd8919e	-0.026436623
15	0xbd10ca88	-0.0353494
16	0xbc0eea73	-0.008722889
17	0x3d1d773b	0.038443785
18	0x3d88f9ae	0.066882476
19	0x3cb2edfe	0.021842
20	0xbd460033	-0.048340034
21	0xbdcb72e7	-0.09934025
22	0x3d73c216	0.059511267
23	0xbd895b17	-0.06706827
24	0x3cb961f4	0.022629716
25	0xba952779	-0.0011379562
26	0xbe312aa7	-0.17301427
27	0x3cf88897	0.030338569
28	0x3d38d4d6	0.04512485
29	0x3cf2b468	0.02962704
30	0xbdf7ee67	-0.121060185
31	0xbd33d83f	-0.0439074
32	0xbc9285fb	-0.017886152
33	0xb9541c0a	-0.00020228341
34	0x3d82bf85	0.06384186
35	0xbd96b3c1	-0.07358504
36	0x3d847aa4	0.06468704
37	0x3cb30d69	0.02185698
38	0xbdc65e06	-0.09685902
39	0xbcb10342	-0.021607999
40	0x3d4ffaca	0.05077628
41	0xbdf79832	-0.12089576
42	0xbd912ba1	-0.070884
43	0xbe8e9a90	-0.27852297
44	0xbd87c5b1	-0.066295035
45	0xbd13d36e	-0.036090307
46	0xbdc76e10	-0.0973779
47	0xbbf040e4	-0.0073319543
48	0x3df41750	0.11918509
49	0x3acc7daa	0.0015601416
50	0xbd39af55	-0.045333225
51	0x3b3b9793	0.002862428
52	0xbd318fc6	-0.043350004
53	0x3e39f6c3	0.18160538
54	0xbd1a8e38	-0.037733287
55	0x3d6b7785	0.05748703
56	0x3e0a0c79	0.1348132
57	0xbb35e9d5	-0.0027757783
58	0x3df040ee	0.11731134
59	0xbd04225c	-0.03225933
60	0x3c5478e1	0.012968273
61	0x3c7378e6	0.014860367
62	0x3c9a2bed	0.018819774
63	0xbd067a83	-0.03283168
64	0x3e1e8d4b	0.15483586
65	0x3cf2a7e7	0.029621078
66	0xbcade470	-0.021227092
67	0x3d370f49	0.04469231
68	0xbdd2883d	-0.10279892
69	0xbc9179c1	-0.017758252
70	0x3e010f2e	0.12603447
71	0xbe1765da	-0.14784947
72	0x3d1b6323	0.03793634
73	0xbe8c57fc	-0.27410877
74	0x3d72667f	0.05917978
75	0xbcf641f1	-0.03006074
76	0xbde7ded6	-0.113217995
77	0x3e48fcfc	0.19627756
78	0xbe07a2a8	-0.13245642
79	0xbdf6d913	-0.12053122
80	0xbc5b4f0e	-0.013385547
81	0xbcdb0ca8	-0.026739433
82	0xbdb5418e	-0.08850394
83	0xbd0d26f6	-0.034460984
84	0xbaea54e8	-0.0017878087
85	0x3e0642bb	0.13111393
86	0xbc98ed4d	-0.018667841
87	0x3dd313b9	0.10306496
88	0xbdde94c2	-0.10868217
89	0xbb08646f	-0.0020811816
90	0x3df5d572	0.12003602
91	0x3e0865da	0.13320103
92	0x3d5e909d	0.054337133
93	0x3e1a552e	0.15071556
94	0xbdbfdf8d	-0.09368811
95	0xbd2971ab	-0.041368168
96	0xbd53673e	-0.05161213
97	0xbe165d2e	-0.14683983
98	0xbd9212fa	-0.07132526
99	0xbcc81a25	-0.02442653
100	0xbd0214cb	-0.03175811
101	0x3d9389e3	0.07204034
102	0x3db1c09b	0.08679315
103	0xbba85d36	-0.0051380647
104	0xbce73e0d	-0.02822783
105	0x3dc3aa54	0.09553972
106	0xbca3f5d8	-0.020014688
107	0xbd996f6d	-0.07491956
108	0xbba461dc	-0.0050165486
109	0xbdbb871c	-0.091566294
110	0x3d0fdcd5	0.03512271
111	0xbe7b526d	-0.24543162
112	0x3d297275	0.04136892
113	0xbcbe2812	-0.023212466
114	0x3c191f52	0.009345846
115	0xbc6b297c	-0.014353152
116	0x3dce8065	0.10083083
117	0xbd675f30	-0.056487262
118	0x3d4b32d2	0.049609013
119	0xbc5a2d92	-0.013316529
120	0xbdd37ef0	-0.10326946
121	0xbdd3fc9e	-0.10350917
122	0x3ba4e047	0.0050316188
123	0x3ca3cf07	0.01999618
124	0xbe021cc2	-0.12706283
125	0x3cb08393	0.021547114
126	0x3be22271	0.0069010784
127	0xbd2c07e3	-0.04199971
128	0x3d440b61	0.047862414
129	0xbd01d5cc	-0.031698033
130	0xbdbc3c9e	-0.09191249
131	0xbbcc63f8	-0.006237503
132	0x3c6ae14b	0.014335941
133	0x3d1a1bfa	0.037624337
134	0x3d822000	0.0635376
135	0x3dcb3f3f	0.099241726
136	0xbb08a0aa	-0.0020847716
137	0xbe161d0b	-0.14659517
138	0xbcdd8be9	-0.027044253
139	0xbd0099d5	-0.031396706
140	0x3dc5ca97	0.096577816
141	0xbd04ea0a	-0.03244976
142	0xbe1d6546	-0.15370664
143	0xbd6984b4	-0.05701132
144	0x3e07cfa9	0.1326281
145	0x3a758203	0.00093653816
146	0xbd0427f2	-0.032264657
147	0xbe390033	-0.18066482
148	0xbc0ec4db	-0.008713926
149	0x3d8bbf59	0.06823606
150	0x3c97fe3a	0.018553842
151	0x3d8ab8b9	0.06773514
152	0xbe328455	-0.17433293
153	0xbc523845	-0.0128307985
154	0x3d084c57	0.03327593
155	0x3d2ffd3b	0.04296611
156	0xbe323ab4	-0.17405206
157	0xbd47d5d1	-0.048787896
158	0x3d49402e	0.049133472
159	0xbccd7314	-0.025079288
160	0xbdac33e1	-0.084083326
161	0x3debaed7	0.115079574
162	0x3d788912	0.060677595
163	0x3d3386a1	0.043829564
164	0x3d9e5479	0.07730956
165	0xbd0eb456	-0.03483995
166	0xbc095ce4	-0.008383963
167	0xbdbabbf5	-0.09117881
168	0x3abdeae9	0.0014489564
169	0xbc6555a5	-0.01399747
170	0x3d45614a	0.048188485
171	0x3caca455	0.021074453
172	0xbced5489	-0.028970974
173	0x3b50c1a7	0.0031853707
174	0xbd0150df	-0.031571265
175	0x3d5de750	0.054175675
176	0xbddb011a	-0.106935695
177	0x3e8b60d2	0.27222306
178	0x3c7dd130	0.015491769
179	0xbdd8e994	-0.105914265
180	0x3d39003c	0.04516624
181	0x3e6af6d2	0.22945717
182	0xbe26b8b3	-0.16281395
183	0x3e49eafd	0.19718547
184	0x3d54ba8c	0.051935717
185	0x3d5c4261	0.05377424
186	0x3d2be805	0.041969318
187	0xbbbc6332	-0.0057491297
188	0xbce09a25	-0.027417252
189	0xbc6ddd62	-0.014518114
190	0x3d4da40a	0.050205268
191	0x3d854d92	0.06508936
192	0xbdb896a1	-0.09013105
193	0xbcb96826	-0.02263267
194	0xbbfe264f	-0.0077560316
195	0x3d210331	0.039309684
196	0xbd9aef66	-0.07565193
197	0x3ccfc03e	0.025360223
198	0xbc9a1e39	-0.01881324
199	0x3e06dcdf	0.13170193
200	0x3db53bed	0.088493206
201	0xbe03900b	-0.12847917
202	0xbd058efc	-0.032607064
203	0xbe19a552	-0.15004471
204	0xbca446bd	-0.020053262
205	0xbcd9b6cd	-0.026576424
206	0xbdd66765	-0.1046894
207	0xbe0975eb	-0.13423888
208	0x3d38bd76	0.04510256
209	0xbb2b0eb8	-0.0026101302
210	0x3d0ac458	0.033878654
211	0xbd6ff751	-0.05858547
212	0x3d0deff9	0.034652684
213	0xbd213b6f	-0.03936332
214	0xbc97674a	-0.01848187
215	0xbd9226b2	-0.07136287
216	0xbc3b5e4e	-0.011436058
217	0xbd23a5a3	-0.039952885
218	0x3dc4c553	0.09607949
219	0xbd1e87e4	-0.038703814
220	0x3d0089f4	0.031381562
221	0xbc3844c0	-0.01124686
222	0xbe09935d	-0.13435121
223	0xbdcb26fe	-0.099195465
224	0x3d83034a	0.06397112
225	0xbc439c7f	-0.011939167
226	0xbde1e781	-0.11030484
227	0x3d804b37	0.06264346
228	0x3cd17beb	0.025571784
229	0xbe465c18	-0.19371068
230	0x3e0c9b30	0.13731074
231	0x3e1d5f18	0.15368307
232	0x3de7ee86	0.113247916
233	0xbd180141	-0.03711057
234	0x3d9526a7	0.07282763
235	0xbc7f1057	-0.015567861
236	0x3ce1ac04	0.027547844
237	0x3dce0e6a	0.10061343
238	0xbd9f7128	-0.07785255
239	0xbda4ee70	-0.08053291
240	0xbdaae112	-0.0834371
241	0x3e59892c	0.21243733
242	0xbe3eb850	-0.18624997
243	0xbdc5707c	-0.09640595
244	0x3d1d0cc0	0.038342237
245	0x3e292099	0.16516341
246	0x3e1ed0e4	0.15509373
247	0x3ce6a0c3	0.028152829
248	0x3ca59c5d	0.020216161
249	0xbd018b3b	-0.03162692
250	0x3d9801b5	0.074222006
251	0xbcc1a968	-0.02364035
252	0xb9ea6ed1	-0.00044714523
253	0xbd6ad9f1	-0.05733675
254	0x3cf25b0f	0.029584436
255	0xbce00d1d	-0.027350003

network_body._body_endoder.seq_layers.2.bias f4 [128]
0	0x00000000	0.0
1	0x00000000	0.0
2	0x00000000	0.0
3	0x00000000	0.0
4	0x00000000	0.0
5	0x00000000	0.0
6	0x00000000	0.0
7	0x00000000	0.0
8	0x00000000	0.0
9	0x00000000	0.0
10	0x00000000	0.0
11	0x00000000	0.0
12	0x00000000	0.0
13	0x00000000	0.0
14	0x00000000	0.0
15	0x00000000	0.0
16	0x00000000	0.0
17	0x00000000	0.0
18	0x00000000	0.0
19	0x00000000	0.0
20	0x00000000	0.0
21	0x00000000	0.0
22	0x00000000	0.0
23	0x00000000	0.0
24	0x00000000	0.0
25	0x00000000	0.0
26	0x00000000	0.0
27	0x00000000	0.0
28	0x00000000	0.0
29	0x00000000	0.0
30	0x00000000	0.0
31	0x00000000	0.0
32	0x00000000	0.0
33	0x00000000	0.0
34	0x00000000	0.0
35	0x00000000	0.0
36	0x00000000	0.0
37	0x00000000	0.0
38	0x00000000	0.0
39	0x00000000	0.0
40	0x00000000	0.0
41	0x00000000	0.0
42	0x00000000	0.0
43	0x00000000	0.0
44	0x00000000	0.0
45	0x00000000	0.0
46	0x00000000	0.0
47	0x00000000	0.0
48	0x00000000	0.0
49	0x00000000	0.0
50	0x00000000	0.0
51	0x00000000	0.0
52	0x00000000	0.0
53	0x00000000	0.0
54	0x00000000	0.0
55	0x00000000	0.0
56	0x00000000	0.0
57	0x00000000	0.0
58	0x00000000	0.0
59	0x00000000	0.0
60	0x00000000	0.0
61	0x00000000	0.0
62	0x00000000	0.0
63	0x00000000	0.0
64	0x00000000	0.0
65	0x00000000	0.0
66	0x00000000	0.0
67	0x00000000	0.0
68	0x00000000	0.0
69	0x00000000	0.0
70	0x00000000	0.0
71	0x00000000	0.0
72	0x00000000	0.0
73	0x00000000	0.0
74	0x00000000	0.0
75	0x00000000	0.0
76	0x00000000	0.0
77	0x00000000	0.0
78	0x00000000	0.0
79	0x00000000	0.0
80	0x00000000	0.0
81	0x00000000	0.0
82	0x00000000	0.0
83	0x00000000	0.0
84	0x00000000	0.0
85	0x00000000	0.0
86	0x00000000	0.0
87	0x00000000	0.0
88	0x00000000	0.0
89	0x00000000	0.0
90	0x00000000	0.0
91	0x00000000	0.0
92	0x00000000	0.0
93	0x00000000	0.0
94	0x00000000	0.0
95	0x00000000	0.0
96	0x00000000	0.0
97	0x00000000	0.0
98	0x00000000	0.0
99	0x00000000	0.0
100	0x00000000	0.0
101	0x00000000	0.0
102	0x00000000	0.0
103	0x00000000	0.0
104	0x00000000	0.0
105	0x00000000	0.0
106	0x00000000	0.0
107	0x00000000	0.0
108	0x00000000	0.0
109	0x00000000	0.0
110	0x00000000	0.0
111	0x00000000	0.0
112	0x00000000	0.0
113	0x00000000	0.0
114	0x00000000	0.0
115	0x00000000	0.0
116	0x00000000	0.0
117	0x00000000	0.0
118	0x00000000	0.0
119	0x00000000	0.0
120	0x00000000	0.0
121	0x00000000	0.0
122	0x00000000	0.0
123	0x00000000	0.0
124	0x00000000	0.0
125	0x00000000	0.0
126	0x00000000	0.0
127	0x00000000	0.0

network_body._body_endoder.seq_layers.2.weight f4 [128, 128]
0	0x3d3504ad	0.044193912
1	0xbca33dce	-0.019926932
2	0x3cd88003	0.026428228
3	0xbcb73e64	-0.022368617
4	0xbdcbdd4f	-0.09954321
5	0x3d120590	0.035649836
6	0x3d81ed12	0.06344046
7	0x3cff4e89	0.031165378
8	0x3d4872fb	0.04893778
9	0x3e09ff19	0.13476218
10	0x3d878e38	0.06618923
11	0x3cd84108	0.026398197
12	0xbe0482ff	-0.12940596
13	0x3dcf80ea	0.1013201
14	0xbd36837c	-0.044558987
15	0x3dc23f19	0.09484691
16	0xbb1a98c8	-0.00235896
17	0xbdd3313d	-0.10312126
18	0x3d1f91b2	0.038957305
19	0x3d8c5e63	0.0685394
20	0x3d89584d	0.06706295
21	0xbdad8efb	-0.08474537
22	0xbd226a78	-0.039652318
23	0xbd85612b	-0.06512674
24	0xbd6f1220	-0.058366895
25	0x3dd3c0c7	0.10339504
26	0x3cef3697	0.029200835
27	0xbc1e37ef	-0.00965689
28	0x3de67225	0.1125224
29	0xbd2ef264	-0.04271163
30	0x3cf80934	0.030277826
31	0xbcc90429	-0.024538117
32	0xbe145f66	-0.14489517
33	0xbe360f16	-0.17779192
34	0xbc59514f	-0.013264014
35	0x3caba981	0.02095485
36	0xbdf76d5d	-0.12081406
37	0xbe0bc2eb	-0.13648574
38	0xbd73e087	-0.059540298
39	0x3c04e1a3	0.008110437
40	0x3c737e31	0.014861629
41	0xbc3d7731	-0.011564062
42	0x3dc7e880	0.09761143
43	0xbc072794	-0.008249182
44	0x3ca5d32c	0.020242296
45	0x3dbb3191	0.091403134
46	0x3cd1cf13	0.025611436
47	0xbde46f55	-0.111540474
48	0xbdd3d836	-0.10343973
49	0x3e3104be	0.17286965
50	0x3b98068e	0.0046394533
51	0x3cde552b	0.02714022
52	0xbe1417e3	-0.14462237
53	0xbdcd849f	-0.10035061
54	0xbbf03b87	-0.007331315
55	0xbe05dccd	-0.1307251
56	0xbca1ecdd	-0.019766266
57	0xbe28c972	-0.16483095
58	0x3d7e1822	0.062034734
59	0x3d8c5554	0.068522125
60	0x3db50087	0.08837991
61	0x3bf213c8	0.007387612
62	0x3da74717	0.08167856
63	0xbcdf4861	-0.027256193
64	0x3e0446bf	0.12917612
65	0x3d34e21a	0.04416094
66	0x3e4a76fd	0.19771953
67	0xbc227854	-0.009916384
68	0xbc4a69da	-0.012354339
69	0xbd8c927d	-0.06863878
70	0x3dc0bc80	0.094109535
71	0xbe07ee3e	-0.13274476
72	0x3d8c3796	0.0684654
73	0xbdacc986	-0.08436875
74	0x3c8185d7	0.01581089
75	0x3c6ef877	0.014585606
76	0xbd4421c2	-0.047883756
77	0xbe6baf77	-0.23016153
78	0x3d7129d1	0.05887777
79	0x3dba5a23	0.090992235
80	0xbd9f318e	-0.07773124
81	0xbdb3a059	-0.08770818
82	0xbd5a266a	-0.05325929
83	0xbdd29751	-0.102827676
84	0x3cc12e10	0.023581535
85	0xbdb6ab62	-0.089194074
86	0xbcdb1910	-0.02674535
87	0x3de867a7	0.11347895
88	0x3dcbb4bb	0.09946581
89	0x3d314419	0.043277834
90	0xbe319249	-0.1734096
91	0x3d607942	0.05480314
92	0x3c0305b4	0.007996965
93	0xbdf3437f	-0.11878108
94	0x3dead221	0.1146586
95	0xbdf9bd10	-0.12194264
96	0xbd8b7f6b	-0.068114124
97	0xbe02d027	-0.12774716
98	0xbd6cccb6	-0.057812415
99	0x3dbb8db1	0.09157885
100	0xbd808c3c	-0.062767476
101	0x3e31e644	0.17372996
102	0xbd73676b	-0.0594248
103	0x3b98be65	0.0046613687
104	0xbe210d64	-0.15727764
105	0xbc8e2791	-0.017352851
106	0x3d228d93	0.039685797
107	0x3b2aacb6	0.0026042885
108	0x3e1e66e1	0.15468933
109	0x3d9abf3b	0.075560056
110	0xbc949ed0	-0.018142134
111	0x3e2f6a81	0.17130472
112	0xbdf6039d	-0.12012408
113	0xbda95f39	-0.082701154
114	0xbdf0fb75	-0.117667116
115	0x3c32f58a	0.010922799
116	0xbdb01371	-0.08597458
117	0x3d5b2ecb	0.053511422
118	0x3c392da7	0.011302388
119	0xbd8952f1	-0.06705273
120	0x3db4d6e4	0.0883005
121	0x3e08922d	0.13337012
122	0xbccde031	-0.025131317
123	0xbe4e05cc	-0.20119399
124	0x3e3528f2	0.176914
125	0xbd9862cb	-0.07440718
126	0x3d95eb60	0.07320285
127	0xbc4cae16	-0.012492677
128	0x3d1a6300	0.03769207
129	0xba4812c1	-0.0007632189
130	0xbe1ac8bb	-0.15115635
131	0xbd732e90	-0.059370577
132	0xbdfc7beb	-0.12328323
133	0xbe249dd6	-0.16075835
134	0x3da94075	0.08264247
135	0x3c724b05	0.014788394
136	0xbd1cd023	-0.038284432
137	0xbe1de01e	-0.15417525
138	0x3d9ef767	0.07762032
139	0x3bf67daf	0.007522307
140	0xbdd6ca50	-0.10487807
141	0xbd183f21	-0.03716958
142	0x3daf20af	0.08551156
143	0x3dea6cb4	0.11446515
144	0x3e1a3204	0.15058142
145	0x3e08bb49	0.13352694
146	0xbc1d390b	-0.00959612
147	0xbe4a1b86	-0.19737062
148	0xbe33ec53	-0.1757062
149	0xbca43590	-0.020045072
150	0xbe053d0b	-0.13011567
151	0x3d292e8e	0.041304164
152	0x3d224744	0.039618745
153	0xbdf63f47	-0.12023788
154	0x3d9e3a78	0.07725996
155	0xbdbe57af	-0.09294068
156	0x3c3965cd	0.011315775
157	0xbd893b87	-0.06700807
158	0xbd132375	-0.035922486
159	0x3ce69c84	0.028150804
160	0x3c1a6c97	0.009425304
161	0x3e028829	0.12747253
162	0xbdf8aca7	-0.12142306
163	0xbcf6afc0	-0.030113101
164	0x3dd45fa3	0.10369804
165	0xbdd4bf27	-0.10388022
166	0xbe2ad307	-0.16682063
167	0x3cf8f8cc	0.030392073
168	0x3da4d3a5	0.080481805
169	0x3d98dcb4	0.07463971
170	0xbdb98ce1	-0.09060074
171	0x3d951e29	0.07281143
172	0x3bb98923	0.0056621
173	0x3b8c59f1	0.004283183
174	0x3c234241	0.009964527
175	0xbd6dd5ff	-0.05806541
176	0xbd306d1f	-0.043072816
177	0xbd91c455	-0.071175255
178	0xbd5560e0	-0.05209434
179	0xbd7d8808	-0.061897308
180	0xbcbc412c	-0.022980295
181	0x3da31475	0.07962886
182	0xbe3132de	-0.1730456
183	0xbd1de917	-0.03855237
184	0xbe1e5f85	-0.15466125
185	0xbe1af6e2	-0.15133241
186	0x3db52c3b	0.08846327
187	0x3e21587a	0.15756407
188	0xbce98597	-0.028506083
189	0x3d12923a	0.035783984
190	0xbe149435	-0.14509661
191	0x3bb0be2a	0.005393763
192	0x3ce30a93	0.027715003
193	0x3df07039	0.11740155
194	0x3d1b75ba	0.03795407
195	0xbdeecb74	-0.11659899
196	0x3c218e63	0.009860608
197	0xbe2c91bf	-0.16852473
198	0xbc667945	-0.014066999
199	0xbe27bcca	-0.16380611
200	0x3ca85d0f	0.020552186
201	0xbdf4b5cc	-0.119487375
202	0xbd20047e	-0.039066784
203	0xbd809653	-0.06278672
204	0x3d49df54	0.049285248
205	0xbcc0a114	-0.023514308
206	0xbdb0bfee	-0.08630358
207	0x3d4f909f	0.05067503
208	0xbe10aa36	-0.1412743
209	0xbbad6cfe	-0.005292534
210	0xbdc03944	-0.093859226
211	0xbc851b00	-0.016248226
212	0xbe446c9a	-0.19182053
213	0xbe1aef4c	-0.15130347
214	0xbcfeafb2	-0.031089637
215	0xbd2752a6	-0.040850304
216	0xbc5dcbaa	-0.013537327
217	0xbe702bb6	-0.23454174
218	0x3d83e337	0.06439822
219	0x3bc29c20	0.0059390217
220	0xbd43b8aa	-0.04778353
221	0x3dea64d6	0.11445014
222	0x3e8f462e	0.2798323
223	0x3bb3d35f	0.005487844
224	0x3da15a1e	0.078785166
225	0xbd233ed0	-0.039854825
226	0x3cc14cf3	0.023596263
227	0x3db64626	0.089000985
228	0x3cb2746a	0.021784026
229	0xbd29c7ba	-0.04145024
230	0xbd23db5c	-0.04000412
231	0xbd9eb973	-0.077502154
232	0x3d834912	0.064104214
233	0x3c11815f	0.008880942
234	0xbcd7f3de	-0.026361402
235	0x3e8426d7	0.25810882
236	0x3e4dca18	0.20096624
237	0x3d8e663a	0.06953092
238	0x3d9aef63	0.07565191
239	0x3ce68426	0.028139185
240	0x3e149e7d	0.14513583
241	0xbd54c1c7	-0.051942613
242	0x3dee7710	0.11643803
243	0x3dfa7dbb	0.122310124
244	0x3c122523	0.008919987
245	0xbd0db151	-0.03459293
246	0x3e5ba19c	0.21448368
247	0xbd617cd9	-0.055050705
248	0xbd3b8498	-0.045780748
249	0xbdb18ac7	-0.08669048
250	0x3c2bf787	0.010496027
251	0x3e73dabc	0.2381391
252	0xbd993fbd	-0.0748286
253	0x3e0b0cfa	0.13579169
254	0xbe3d9929	-0.18515457
255	0x3bd5aa46	0.0065205423
