Results/test21/SnowBall/checkpoint.pt (torch, 284999 bytes, 11 tensors)

network_body._body_endoder.seq_layers.0.weight f4 [128, 138]
00000000: fc7b 0c3e bf62 a1bd 333f b73c 6f78 503d
00000010: b21e 3fbd ff73 e2bc 8bbb c6bd 3300 03bd
00000020: 67af 4b3d 3ed4 893d 1f5f 02bd 2aaf 25be
00000030: f3ab 0dbd c52b a6bc d220 843d 6830 adbd
00000040: e33c 8e3c ed0c 42bd b9a2 3a3d 9602 333c
00000050: 4398 08bd ff17 673d 6f2c 84bc de14 5b3c
00000060: efa7 863e bd7f 5abc 9940 c63d 931e 913d
00000070: 6178 913c 0f5d 5c3d 1555 1abe a571 adbb
00000080: b0a0 8eba 11ec 653c 485f d53d d5c6 34bd
00000090: fd32 083d cfe2 c53d b923 ebbc f3b0 5b3d
000000a0: 91d1 57bc 07db 5dbe 7ed5 9bbc 9b9b d4bd
000000b0: 6161 93bd 75df a0bc 783c 34bd e949 5b3c
000000c0: 8e29 433e 7fa6 06bd fe6b 83bc 60ff 6d3d
000000d0: c2d7 753c e54e 103d 8650 09bd 8d6b 00bd
000000e0: 8095 b93d f60f 9abc 57dc d93c 3959 a9bb
000000f0: f1e9 aa3d a592 db3b d3ad dabd 623b a7bd
00000100: 25c0 1c3d 61c6 eb3b 145e 29bd 197c 8ebd
00000110: 2ec7 e3bd 0cf5 2a3d 2f40 723d eea4 fb3c
00000120: fe7a dbbd 3cca d13c c8df 023d 063b a3bd
00000130: cd29 963d ec27 64bd 1ec9 c33d 9b1a 85bd
00000140: 2445 643d 621e 90bd d962 90bc aefb f23d
00000150: 4761 4b3e 79d5 033c 8086 24bc 9733 f5bc
00000160: ce1f 073c 93d6 353d f251 9f3d 7b87 db3d
00000170: 4ab7 febd ef72 11be 68c7 0f3d 4789 9b3d
00000180: 74d8 173d 8e7f 043d 62f7 a73d 6f79 903c
00000190: c626 4a3d b957 063e f3b1 d8bd 73b7 8ebd
000001a0: 99fa fa3d 3e4f 11bd b7ec 45bd b9fc de3d
000001b0: 671c 87bd 157c ffbc 058c 31bd cbe7 83bc
000001c0: 09dd b6bc 648a 74bd ce07 a53d a253 15bd
000001d0: 014f 943d 8558 1b3d 86af 213d d50c ebbd
000001e0: 2443 a13d c516 8f3d 249d 2a3d 8ca2 943d
000001f0: 54d0 733d e1e2 c7bd b468 1f3d c5dc 17bc
00000200: 133c 98bd 6598 833c 1bee 953d 52c2 e9bc
00000210: 5697 1abd 4c5b 20bd 84d8 06bd 9ced 13bd
00000220: ad99 81bd 09f6 fbbd b9e2 3bbd ef88 a53b
00000230: 6315 8d3d 3464 e63d c4cf c83c 3869 b8bd
00000240: af2a 7a3d f0f5 a2bd cb8f 2c3d f00f 8fbd
00000250: 10bd 383e d4d2 903d c568 e83b b768 4a3d
00000260: e2e6 873d be27 193d 5421 153d 34fd 783d
00000270: 01f5 f6bd cd65 31bd 6fbf 523d 618a a2bc
00000280: 2a05 a23c 4fba b3bd 93cf 9fbd bfff ffbd
00000290: ad70 a43c fbe8 e4bc 97c8 9bbc 5154 bebd
000002a0: c262 d1bd c1ad 223d b2cb c13c f310 4abe
000002b0: 2ddb 033e 92eb a9bc 06fe 443e 642d 2a3d
000002c0: 11c6 fc3d ad66 a1bd 012b d63d 521e 223d
000002d0: ae5a 06be 3273 25be a648 2a3d af87 573c
000002e0: f7c6 fabd cba2 163d f428 b4bb 9f41 bf3a
000002f0: ed1b 54bd 5e81 f23d 6bd7 7ebd 98e2 cabd
00000300: 1851 0bbe 3b4a 04be 557a b63a 8587 4c3d
00000310: 255c ad3b 51b4 cfbc 19ba 21bd 52f7 46bd
00000320: cef3 d33d 94e0 823d eb72 733d 0beb 0f3d
00000330: d090 833d f96a 16be 6ddd 683e 9346 c73d
00000340: 3d5f a7bd 809b c8bc 6a5f d23d 9a4d d33d
00000350: c4f3 2f3b 93c3 1a3e e769 163e 2cc6 a43d
00000360: ce37 c1bd c8fb 383d fcb5 143d 0643 f1bb
00000370: 6e2e 023d 9dea 9d3d cb9a b0bd e20f 45bd
00000380: f383 87be 8d14 9a3d 5bd6 fb3d e4f5 a8bd
00000390: 9055 f93d 50a1 543d 09a8 743d c483 9bbd
000003a0: 45c9 68bd 6898 913d 392a 8cbd 415f 803d
000003b0: 714b ef3d 028d a7bd f731 8cbd d580 413b
000003c0: d18c 933d b65a 423c b926 9a3c eb21 9c3c
000003d0: 5874 88bd a145 ee3b 8599 ac3b 5086 d43d
000003e0: 5fa5 013d aa3c 663a 21a5 f6bd e15b 0fbd
000003f0: 606b 813d c041 a83d 382d 1a3e 12d7 ae3d
0.13719171 -0.078801624 0.022369003 0.050896104 -0.046660133 -0.027643202 -0.0970374 -0.031982612
0.049727824 0.06729935 -0.031828996 -0.16180101 -0.03458781 -0.020284543 0.064515725 -0.084564984
0.017363017 -0.04737561 0.04556534 0.0109259095 -0.033348333 0.05641937 -0.016134469 0.013371674
0.26299998 -0.013336119 0.0968029 0.0708591 0.017757596 0.053799685 -0.15071519 -0.0052930885
-0.0010881629 0.014033333 0.10418564 -0.044134934 0.03325175 0.09662401 -0.028703557 0.05363555
-0.013172523 -0.21665584 -0.0190227 -0.10381242 -0.07196308 -0.019637803 -0.04400298 0.013384321
0.1905882 -0.032873627 -0.016042706 0.058104873 0.015005054 0.03523149 -0.03352406 -0.03135257
0.09061718 -0.018806439 0.026594324 -0.005168107 0.08345402 0.006700831 -0.106776856 -0.08165623
0.03826918 0.0071952795 -0.041349486 -0.069572635 -0.11121975 0.0417376 0.05914324 0.030718293
-0.10716818 0.025609128 0.031951696 -0.07970242 0.073321916 -0.055702135 0.095598444 -0.06499215
0.05573 -0.07037045 -0.01762526 0.1186441 0.19861327 0.008046501 -0.010041833 -0.029931827
0.008247329 0.044394087 0.07779302 0.107192 -0.12437303 -0.14204 0.035102278 0.07594543
0.03707166 0.032348208 0.082014814 0.017636029 0.049353383 0.13119401 -0.10580816 -0.06968584
0.12254829 -0.035475962 -0.048321452 0.10888047 -0.06597214 -0.031187097 -0.043346424 -0.016101738
-0.022322195 -0.059702292 0.08058129 -0.03645671 0.07241631 0.037926216 0.039474033 -0.11477057
0.07874134 0.06986765 0.041653767 0.07257566 0.05952485 -0.097600706 0.038918212 -0.009268944
-0.07433333 0.016063878 0.07320806 -0.028535042 -0.03774198 -0.039149567 -0.03292133 -0.036115274
-0.063281395 -0.12302787 -0.045870516 0.005051724 0.06888845 0.11249581 0.024513133 -0.09004444
0.061075862 -0.07957065 0.04212932 -0.06985462 0.18040872 0.07071462 0.0070925676 0.04941627
0.06635834 0.037391417 0.036408737 0.06078835 -0.120584495 -0.043309975 0.051452097 -0.019841375
0.019777853 -0.0877577 -0.078032635 -0.124999516 0.02007326 -0.027943125 -0.019016547 -0.09293426
-0.10223915 0.039716486 0.0236567 -0.19733028 0.12876578 -0.020742211 0.19237527 0.041547194
0.12342466 -0.07880912 0.10457421 0.039579697 -0.13120529 -0.16157225 0.04157319 0.013154908
-0.12244981 0.036776345 -0.005498046 0.00145917 -0.051784445 0.11841081 -0.062217157 -0.099065006
-0.13605154 -0.12918942 0.0013921956 0.04993393 0.0052905255 -0.025354536 -0.039484117 -0.048575707
0.103492364 0.06390491 0.059435766 0.035136264 0.06424105 -0.14689244 0.22740717 0.09730258
-0.08172462 -0.02448821 0.10272105 0.10317536 0.0026848176 0.15113668 0.14688836 0.08045611
-0.09434472 0.045161992 0.036306366 -0.007362726 0.03178256 0.077107646 -0.086232744 -0.04811085
-0.26467857 0.07523451 0.122967444 -0.08250025 0.12174523 0.051911652 0.059730563 -0.07593492
-0.05683257 0.07109147 -0.06843991 0.06268168 0.11684311 -0.08181192 -0.068454675 0.0029526253
0.07204593 0.0118624475 0.018817293 0.019059142 -0.06662816 0.007271484 0.0052673244 0.103771806
0.03165185 0.00087828434 -0.120432146 -0.034999732 0.06319308 0.08215666 0.15056312 0.08537115

network_body._body_endoder.seq_layers.0.bias f4 [128]
00000000: 0000 0000 0000 0000 0000 0000 0000 0000
00000010: 0000 0000 0000 0000 0000 0000 0000 0000
00000020: 0000 0000 0000 0000 0000 0000 0000 0000
00000030: 0000 0000 0000 0000 0000 0000 0000 0000
00000040: 0000 0000 0000 0000 0000 0000 0000 0000
00000050: 0000 0000 0000 0000 0000 0000 0000 0000
00000060: 0000 0000 0000 0000 0000 0000 0000 0000
00000070: 0000 0000 0000 0000 0000 0000 0000 0000
00000080: 0000 0000 0000 0000 0000 0000 0000 0000
00000090: 0000 0000 0000 0000 0000 0000 0000 0000
000000a0: 0000 0000 0000 0000 0000 0000 0000 0000
000000b0: 0000 0000 0000 0000 0000 0000 0000 0000
000000c0: 0000 0000 0000 0000 0000 0000 0000 0000
000000d0: 0000 0000 0000 0000 0000 0000 0000 0000
000000e0: 0000 0000 0000 0000 0000 0000 0000 0000
000000f0: 0000 0000 0000 0000 0000 0000 0000 0000
00000100: 0000 0000 0000 0000 0000 0000 0000 0000
00000110: 0000 0000 0000 0000 0000 0000 0000 0000
00000120: 0000 0000 0000 0000 0000 0000 0000 0000
00000130: 0000 0000 0000 0000 0000 0000 0000 0000
00000140: 0000 0000 0000 0000 0000 0000 0000 0000
00000150: 0000 0000 0000 0000 0000 0000 0000 0000
00000160: 0000 0000 0000 0000 0000 0000 0000 0000
00000170: 0000 0000 0000 0000 0000 0000 0000 0000
00000180: 0000 0000 0000 0000 0000 0000 0000 0000
00000190: 0000 0000 0000 0000 0000 0000 0000 0000
000001a0: 0000 0000 0000 0000 0000 0000 0000 0000
000001b0: 0000 0000 0000 0000 0000 0000 0000 0000
000001c0: 0000 0000 0000 0000 0000 0000 0000 0000
000001d0: 0000 0000 0000 0000 0000 0000 0000 0000
000001e0: 0000 0000 0000 0000 0000 0000 0000 0000
000001f0: 0000 0000 0000 0000 0000 0000 0000 0000
0.0 0.0 0.0 0.0 0.0 0.0 0.0 0.0
0.0 0.0 0.0 0.0 0.0 0.0 0.0 0.0
0.0 0.0 0.0 0.0 0.0 0.0 0.0 0.0
0.0 0.0 0.0 0.0 0.0 0.0 0.0 0.0
0.0 0.0 0.0 0.0 0.0 0.0 0.0 0.0
0.0 0.0 0.0 0.0 0.0 0.0 0.0 0.0
0.0 0.0 0.0 0.0 0.0 0.0 0.0 0.0
0.0 0.0 0.0 0.0 0.0 0.0 0.0 0.0
0.0 0.0 0.0 0.0 0.0 0.0 0.0 0.0
0.0 0.0 0.0 0.0 0.0 0.0 0.0 0.0
0.0 0.0 0.0 0.0 0.0 0.0 0.0 0.0
0.0 0.0 0.0 0.0 0.0 0.0 0.0 0.0
0.0 0.0 0.0 0.0 0.0 0.0 0.0 0.0
0.0 0.0 0.0 0.0 0.0 0.0 0.0 0.0
0.0 0.0 0.0 0.0 0.0 0.0 0.0 0.0
0.0 0.0 0.0 0.0 0.0 0.0 0.0 0.0

network_body._body_endoder.seq_layers.2.weight f4 [128, 128]
00000000: b48f 97bd 818e 3a3e cf68 8a3d 935b 2d3e
00000010: 36d5 40bc 949d 853c f2ba 8a3c 6c8f 7cbd
00000020: 376f f3bd 0668 b8bd 1b1b 35bd 486f 47bb
00000030: 077e 19bd bfa1 41be a6b1 75bd edec 0e3d
00000040: 7bf0 2b3d 569a d5bd 21d7 47bd 1ad5 d73d
00000050: e2b2 ab3d 6f62 e2bc 6d6f 82bd ee9a e83d
00000060: 6eb6 e93d ccf2 11bd 044d 7fbd f70f 16bd
00000070: 5ce5 82bd 5312 883b 085b bfbd d3f5 143e
00000080: 5dbf 0cbe 9824 893d b0b1 1bbe bc5d 91bd
00000090: 1bd8 a6bd d2ba 9e3d 81f2 91bd 1014 27be
000000a0: 977c 0d3d 880b c0bd 60fc 033e 9e49 fdbc
000000b0: 8017 c93c 3fa5 5c3d cabb 023e d604 fc3d
000000c0: 2e41 d8ba 8be6 973d b4f2 00be 6860 d43d
000000d0: 3ff3 393d 92ba 6d3d 91b3 453d 020e 173d
000000e0: 3c02 d93b ad29 843c 0504 c43c 5f73 d1bc
000000f0: ccae f1bb 49ab b2bd c482 21be 6656 063e
00000100: 326a 863d 51f8 bb3d 3ac2 5fbd 0a62 d03d
00000110: e207 a2bd 8a06 553c 4b00 b3bd 8156 13bd
00000120: 52af 8d3d 89e6 533d 06cf ebbd ba34 2bbc
00000130: 8b74 cf3c f3f8 203d f51f 61be 14ea afbd
00000140: 3f40 e03d 0ade 123d 8b7e a2bd 1d9d 333d
00000150: 4a0d ab3d ceeb 21be afde 8e3c 21d0 12bc
00000160: b5c2 27bd 34e8 d1bd 3715 b43d 92f9 d2bd
00000170: e472 023c 86c8 d7bd 3351 463c 3109 143e
00000180: 853f 983c df5f eb3c 1a9e 1c3e a110 283d
00000190: bf96 e03c b7f2 26bd 9637 bd3d 1f15 3fbe
000001a0: 9deb ecbd ae3d 77be b3c6 a43d c44e 15bb
000001b0: 5e63 c1bb cd79 583d 1f82 2abd 2906 963d
000001c0: 9446 0a3d 0851 833d 1d6a eebc 9c1f f7bd
000001d0: 1984 4abd a19b 38bc 9c5a 90bd c464 89bd
000001e0: 849b 8d3e cfc5 6a3d 3520 fc3d 61f4 ea3c
000001f0: 189b 393d b1f3 8c3d e298 24bd 1e08 1a3e
00000200: 192c 4fbd 0f6e 8d3d 84fe ce3d 3ae0 54bc
00000210: c35c 5e3d 0ebe deba 3cb0 9b3d 4e3c af3c
00000220: 167d 733c 1407 cf3d f102 0d3e a772 613d
00000230: c694 dabc a763 b63c 84f3 8abd b402 0fbe
00000240: c3e3 67be 66bc 9e3d 0eee ed3d 6bae 21bd
00000250: 73d9 ab3d 3fea 32bd 6a79 28bd dc0c b93b
00000260: 6d90 5b3c eb88 24bd 5d38 cb3b c8d6 f9bb
00000270: 9476 5038 c665 3bbd 5dc6 30bd e30c 453d
00000280: 8058 a2bd 4a2a 25bd c6d0 cf3d d1a9 74bd
00000290: 5c6f e53c b8d7 cabd 9633 723d 2661 7c3d
000002a0: 65c7 273e d918 75bd 12f7 af3d eea5 03be
000002b0: 718c 883d 044e 07be a6a9 9f3c 75a9 123e
000002c0: 0caa dc3d 24a4 203d 75d3 d83c cef8 583d
000002d0: 4302 b9bd bfcb 4b3c 23a3 f1bd f3ef d4bc
000002e0: 2750 3d3e 1535 f73d b39b 68bd 15c4 e7bd
000002f0: 737c a43d e621 f6bc 484c babd e757 3ebd
00000300: 6968 423c 66aa 8b3d f27e 023c 7298 893d
00000310: 535c fb3d 3596 3e3d ea76 713d 0653 773c
00000320: ad93 b1bd b94e babd ee2d 50bd 6521 d0bc
00000330: e139 823b f393 11be d765 9e3d ff5f 02be
00000340: e052 0f3d 3195 44bd c9d2 033d 48fe f0bd
00000350: 4768 d43d 0d3e 053c 4ba7 283d c450 813e
00000360: 7620 c6bd 6327 0e3d 3477 763c 38a3 a43b
00000370: 8d27 ba3d 949c dc3d c280 25bd f688 d13d
00000380: 85b4 223d b56d e2bc 9aff 90bd 1993 093e
00000390: 01f0 f63b f261 e13d ad26 a83d ef55 1c3e
000003a0: 7d3b eabb 6e69 6c3c bdea 35bc f3d7 a8bd
000003b0: 1c19 b13c 61cd b43b cce0 863c 3223 013e
000003c0: 8560 c6bd 3406 9cbc d1e0 dd3d 52c3 debd
000003d0: 1ac7 523d 0a48 a53d 91c9 96bd 3afd 1d3d
000003e0: 775b 903d bd08 ee3d 900c 39be 5e1a 8f3d
000003f0: 3d76 63bc c729 6bbe afdb 7abd e869 643d
-0.07400456 0.18218423 0.06758272 0.16929464 -0.011769583 0.01631049 0.016934846 -0.061660215
-0.11886447 -0.09004216 -0.044215303 -0.003043132 -0.037473705 -0.18909357 -0.059983872 0.03489392
0.041977387 -0.10429828 -0.048789147 0.10538693 0.083837286 -0.027634827 -0.06368909 0.113576755
0.11411749 -0.03563194 -0.062329307 -0.03663632 -0.06391403 0.004152575 -0.09343535 0.145469
-0.13744874 0.06696433 -0.15204501 -0.070979565 -0.081466876 0.07750477 -0.07126332 -0.16316247
0.034542646 -0.093771994 0.12889242 -0.030918892 0.024547338 0.05386853 0.12766948 0.1230561
-0.0016498917 0.074170195 -0.12592584 0.103699505 0.045397993 0.058039255 0.04826695 0.036878593
0.006622581 0.016133154 0.023927698 -0.025567709 -0.0073755737 -0.08724076 -0.1577254 0.13118896
0.06563224 0.09178222 -0.05462859 0.101749495 -0.0791166 0.013002047 -0.0874029 -0.03597117
0.06918205 0.051733527 -0.11514096 -0.010449583 0.025324127 0.039299916 -0.21984847 -0.08589569
0.10949754 0.035856284 -0.079342924 0.043851007 0.08352144 -0.15812609 0.017440168 -0.008960755
-0.04095717 -0.10249367 0.08793109 -0.10301508 0.007961962 -0.10536294 0.01210432 0.14456631
0.018584976 0.028732238 0.15294686 0.041031484 0.027415631 -0.040758815 0.09239118 -0.18660401
-0.11568377 -0.24144623 0.08045711 -0.0022782544 -0.005901738 0.052850533 -0.041628 0.07325394
0.033758715 0.0641194 -0.029103333 -0.12066576 -0.049442384 -0.011267574 -0.07048532 -0.06708673
0.27657712 0.05731755 0.123108305 0.028680982 0.045313925 0.06882418 -0.040184863 0.15042159
-0.050579164 0.06905758 0.10107139 -0.012992913 0.054287683 -0.0016993897 0.076019734 0.02139106
0.014861366 0.10108772 0.13770653 0.05504098 -0.026682269 0.022264315 -0.06784728 -0.13965875
-0.22645478 0.07750778 0.11617671 -0.03947298 0.083910845 -0.043680426 -0.041131414 0.005647285
0.013401133 -0.040169638 0.0062017874 -0.007624481 4.97015e-05 -0.045751356 -0.043157924 0.048107993
-0.07927036 -0.040323533 0.10147242 -0.059732262 0.028007202 -0.09904426 0.059131227 0.061616085
0.16384657 -0.05983815 0.08592047 -0.12856266 0.06667412 -0.13213354 0.019490074 0.14322455
0.10774621 0.039219037 0.026468018 0.052971654 -0.090336345 0.012438714 -0.11798694 -0.025993323
0.18487607 0.120706715 -0.05678911 -0.113166966 0.08031549 -0.03004546 -0.09096581 -0.04647055
0.011865714 0.0681961 0.007964836 0.0671853 0.12273469 0.046529967 0.058951296 0.015095478
-0.08670745 -0.090970464 -0.050825052 -0.025406549 0.003974185 -0.14216594 0.07734268 -0.12731932
0.034991145 -0.047993843 0.032183442 -0.1176725 0.10371452 0.00813247 0.041175168 0.25256932
-0.0967416 0.03470553 0.015043069 0.00502434 0.09089575 0.107720524 -0.040405996 0.10231201
0.039722938 -0.027640203 -0.07080002 0.1343502 0.007535935 0.1100501 0.08210502 0.15267156
-0.007148205 0.014429433 -0.011103329 -0.08244314 0.021618418 0.005517647 0.016464613 0.12611082
-0.096863784 -0.019045927 0.10833896 -0.10877098 0.05145941 0.08070381 -0.073626645 0.038571574
0.070486955 0.116227604 -0.18071198 0.06987451 -0.013883171 -0.22965156 -0.061244663 0.055765063

network_body._body_endoder.seq_layers.2.bias f4 [128]
00000000: 0000 0000 0000 0000 0000 0000 0000 0000
00000010: 0000 0000 0000 0000 0000 0000 0000 0000
00000020: 0000 0000 0000 0000 0000 0000 0000 0000
00000030: 0000 0000 0000 0000 0000 0000 0000 0000
00000040: 0000 0000 0000 0000 0000 0000 0000 0000
00000050: 0000 0000 0000 0000 0000 0000 0000 0000
00000060: 0000 0000 0000 0000 0000 0000 0000 0000
00000070: 0000 0000 0000 0000 0000 0000 0000 0000
00000080: 0000 0000 0000 0000 0000 0000 0000 0000
00000090: 0000 0000 0000 0000 0000 0000 0000 0000
000000a0: 0000 0000 0000 0000 0000 0000 0000 0000
000000b0: 0000 0000 0000 0000 0000 0000 0000 0000
000000c0: 0000 0000 0000 0000 0000 0000 0000 0000
000000d0: 0000 0000 0000 0000 0000 0000 0000 0000
000000e0: 0000 0000 0000 0000 0000 0000 0000 0000
000000f0: 0000 0000 0000 0000 0000 0000 0000 0000
00000100: 0000 0000 0000 0000 0000 0000 0000 0000
00000110: 0000 0000 0000 0000 0000 0000 0000 0000
00000120: 0000 0000 0000 0000 0000 0000 0000 0000
00000130: 0000 0000 0000 0000 0000 0000 0000 0000
00000140: 0000 0000 0000 0000 0000 0000 0000 0000
00000150: 0000 0000 0000 0000 0000 0000 0000 0000
00000160: 0000 0000 0000 0000 0000 0000 0000 0000
00000170: 0000 0000 0000 0000 0000 0000 0000 0000
00000180: 0000 0000 0000 0000 0000 0000 0000 0000
00000190: 0000 0000 0000 0000 0000 0000 0000 0000
000001a0: 0000 0000 0000 0000 0000 0000 0000 0000
000001b0: 0000 0000 0000 0000 0000 0000 0000 0000
000001c0: 0000 0000 0000 0000 0000 0000 0000 0000
000001d0: 0000 0000 0000 0000 0000 0000 0000 0000
000001e0: 0000 0000 0000 0000 0000 0000 0000 0000
000001f0: 0000 0000 0000 0000 0000 0000 0000 0000
0.0 0.0 0.0 0.0 0.0 0.0 0.0 0.0
0.0 0.0 0.0 0.0 0.0 0.0 0.0 0.0
0.0 0.0 0.0 0.0 0.0 0.0 0.0 0.0
0.0 0.0 0.0 0.0 0.0 0.0 0.0 0.0
0.0 0.0 0.0 0.0 0.0 0.0 0.0 0.0
0.0 0.0 0.0 0.0 0.0 0.0 0.0 0.0
0.0 0.0 0.0 0.0 0.0 0.0 0.0 0.0
0.0 0.0 0.0 0.0 0.0 0.0 0.0 0.0
0.0 0.0 0.0 0.0 0.0 0.0 0.0 0.0
0.0 0.0 0.0 0.0 0.0 0.0 0.0 0.0
0.0 0.0 0.0 0.0 0.0 0.0 0.0 0.0
0.0 0.0 0.0 0.0 0.0 0.0 0.0 0.0
0.0 0.0 0.0 0.0 0.0 0.0 0.0 0.0
0.0 0.0 0.0 0.0 0.0 0.0 0.0 0.0
0.0 0.0 0.0 0.0 0.0 0.0 0.0 0.0
0.0 0.0 0.0 0.0 0.0 0.0 0.0 0.0

action_model._discrete_distribution.branches.0.weight f4 [3, 128]
00000000: 7d1b 4abc 3b6e 7fb9 d15a 173c f337 24bc
00000010: 1f41 16bc 2808 d53b 03a5 3e3b 30de 053c
00000020: 6a05 73bc 1cd7 1b3c 27f1 59bc 43a2 cabb
00000030: 75e7 783b 3122 833c ab37 cbbb 1247 f6bb
00000040: 7a41 dd3a 578f 923c 7583 94b9 df38 87bb
00000050: b56d 6dbb 93cd 3cb9 0227 183c 431a a8ba
00000060: e77b 3e3b 4dc3 5a3c 9da5 dc3b 0d42 c23c
00000070: 6d61 013b 4fd4 f23b 2599 fa3a 8da1 de3a
00000080: 45ab c63b 805b 603b a829 72ba f8c8 163c
00000090: 96fd bcbb 11fc 053c ef23 76bb bb83 ec3b
000000a0: 52c4 6dbc 0d22 fbbb da7b 53ba 628a 193c
000000b0: 7fcd e13b 6396 babb d519 d33b 17e8 43bb
000000c0: 6a81 923b 6262 94bc f873 2b3c d83f 663b
000000d0: 60f8 04ba 6b1d 1a3b 9213 773c 0d0b a938
000000e0: 0014 5abb a484 1a3b 483b 753b 5308 d03a
000000f0: 9ba2 01bc e25b 1c3b 5d04 dc3a a285 563b
00000100: 5765 7e3c b893 76ba b548 3cbb 933b 8abc
00000110: 7474 243c 2b8f 6a3a 3146 2c3c 6b9a bf37
00000120: 6d94 583c 8731 fbbc 1c2f 8339 9c09 29bc
00000130: cdc4 92b8 bfab 0c3a 44c7 1abc b529 863b
00000140: bffd 1d3c aac6 aa3b 5052 cebb d559 9d3b
00000150: 8f2a 393c 17f9 3f3b 1ce7 343c 1259 74bb
00000160: 082f 87bb 0089 4dbb cf28 18b9 f376 f33b
00000170: a3ce fc3b 7b2e d13b 7085 113c fbaa a1bb
00000180: eaaf dfbb f810 223c 2dea 16bc f3cf 2b3b
00000190: 2b8f 60bb 4f5b 0eba e741 043b 4532 d73b
000001a0: 130b c5ba 7086 ab3a 77c8 b33c 5c18 9f3b
000001b0: 9f0e 3a3c 6746 1ebb 829d 893a 2f22 f43b
000001c0: fb03 05bb cf5b 083c 5b04 afbb 03f9 f5ba
000001d0: c9ca 4abc 4439 853b f534 61bc c86c b63b
000001e0: 35d1 e9bb c01f 14ba 43ad b73b 3713 a339
000001f0: d68e 41bc 77eb 76bb cbcd 193c e0eb c7bb
00000200: 4376 95bb 0bd4 3ebb ca0d 903c 652c b3bb
00000210: e3d5 fbbb abc4 483c d5d8 50ba 619c beba
00000220: 857f ffbb 2be0 d4bb 424d d43b ab28 22bc
00000230: 79bb 133b c894 e3ba 2000 aeba b489 36bc
00000240: 8fe0 e2bb cd53 7f3c 7a1b 9bbc de4e bdbb
00000250: e38c 07bb eb81 c1bb 1411 42bb 2079 b73b
00000260: a5ee be3b 239c e6ba b761 54bc 8562 32bc
00000270: 6780 423c 539b a03c df7f 313c 6a8e 4dbb
00000280: 7f16 443c 0a86 573c 75fe 14bc 4adf 813c
00000290: ff20 c1bc 370f 003a c712 863b 9586 3d3c
000002a0: da78 bebc 08c3 cf3b ce07 1ab9 a2d5 ddbb
000002b0: b93f 4abc e200 13bc 0798 b83b 2ad7 ed3c
000002c0: 2221 0dbc 5ae3 6a3a b88f 52bc dbee 983a
000002d0: ef1c fcb9 aebd b3bb a3a9 7ebc 8fcb 933b
000002e0: 78fa e93b ee4a 24bc b2be dcbb 27ed 55bc
000002f0: dda2 793a cc66 93bb 215b 8dbc e51d cd3b
00000300: f75e 353c 7f44 34bc 48cd 093c 4fff a63b
00000310: 8552 95bc d32d c73a 3607 b43b 73e4 233c
00000320: b75c bebb f0ef e0bb 20ef 41bb 27a3 0fbc
00000330: 87f6 a33b bee6 2bbc 93ca 81bc d0a7 69bb
00000340: 9ae2 603a 377a dd3b 2270 813b f378 1a39
00000350: 0db1 113c f3c3 f5bb 2b99 6c3b c3f7 10bb
00000360: 53e8 8a3b 4d8c 0db9 1daa 563b 42fa 4b3c
00000370: e842 9aba f2f2 e1bc 70c5 8ebb 2ae5 de3b
00000380: 80fc d2bb 4a05 bcbb 5b12 2b3b 7893 5fbc
00000390: 8817 67b9 2729 663b 00dc 473c e4e5 a93a
000003a0: 3180 49ba 47d4 e8bb 251a 37bc 36bd 9ebb
000003b0: 70a7 353b 33df 4fbb 9a9c 88bc 1262 50ba
000003c0: dbe2 183c bfaf da3b 6aef a03c a3e8 993c
000003d0: a585 d6bb 07ea 96b9 52c2 75bb fdd4 593c
000003e0: bcd9 82bb d516 693b 2ae2 a5bb b39e 37bc
000003f0: 85cb 643c c8c4 bd3b 974d 973b 800f 133c
-0.012335655 -0.00024359759 0.009237961 -0.010023105 -0.0091707995 0.0065012164 0.0029090054 0.008170649
-0.014832834 0.009511735 -0.013302124 -0.006183894 0.0037979756 0.016007515 -0.0062017045 -0.0075157965
0.0016880475 0.017890615 -0.00028326703 -0.0041266526 -0.003622872 -0.0001800566 0.009286644 -0.0012825209
0.002906555 0.013352227 0.00673361 0.023713136 0.0019741908 0.007410563 0.0019119127 0.0016985402
0.0060628974 0.0034234226 -0.00092377746 0.009203188 -0.0057675345 0.008177773 -0.003755804 0.007217852
-0.014512138 -0.0076639713 -0.00080674666 0.009371372 0.006890952 -0.005694197 0.0064422884 -0.0029892975
0.0044709938 -0.018113319 0.010464661 0.0035133269 -0.0005072411 0.002351607 0.0150803495 8.060606e-05
-0.003327608 0.0023577595 0.0037419368 0.0015871621 -0.007912303 0.0023858477 0.0016785968 0.003273346
0.015527091 -0.0009406167 -0.002872986 -0.01687411 0.01003753 0.00089477253 0.010514782 2.284088e-05
0.013218981 -0.030663265 0.00025021366 -0.010317232 -6.9984795e-05 0.00053661683 -0.009446923 0.0040943273
0.009643017 0.005211671 -0.0062964335 0.0048019686 0.011301651 0.0029292756 0.011041429 -0.0037284535
-0.0041254796 -0.0031362176 -0.00014511052 0.0074299513 0.0077150627 0.0063837147 0.008881912 -0.0049337125
-0.0068263905 0.009891741 -0.009211105 0.0026216477 -0.0034265022 -0.0005430476 0.0020180882 0.006567272
-0.0015033208 0.001308633 0.021946175 0.004855199 0.011356025 -0.002415085 0.0010499211 0.007450364
-0.0020296562 0.00832267 -0.0053410954 -0.0018766228 -0.012377449 0.0040656645 -0.013745536 0.005567167
-0.007135535 -0.0005650483 0.005605371 0.000311041 -0.01181384 -0.003767697 0.009387444 -0.0061011165
-0.004561217 -0.0029118087 0.0175847 -0.0054679387 -0.0076854094 0.012253921 -0.0007966881 -0.0014542454
-0.007797184 -0.0064964495 0.0064789364 -0.009897391 0.0022542162 -0.0017363066 -0.0013275184 -0.011141229
-0.006923742 0.0155839445 -0.018934 -0.005777224 -0.002068334 -0.00590538 -0.002961223 0.005599156
0.0058267885 -0.001759414 -0.01296275 -0.010887747 0.011871434 0.019605314 0.0108337095 -0.0031365403
0.011968254 0.013154516 -0.00909387 0.015853543 -0.023575304 0.00048850797 0.004091594 0.011567731
-0.023250986 0.006340388 -0.00014689492 -0.006769852 -0.012344294 -0.008972378 0.0056333574 0.029033262
-0.0086138565 0.00089602696 -0.012851648 0.0011667864 -0.00048086743 -0.005485258 -0.015543374 0.00451035
0.007140454 -0.01002763 -0.0067366 -0.01305703 0.0009522865 -0.0044983383 -0.017255368 0.006259667
0.011070005 -0.011002659 0.008410759 0.005096353 -0.018227825 0.0015196152 0.0054940237 0.010003197
-0.0058093923 -0.0068645403 -0.0029591992 -0.008766926 0.0050037536 -0.010492025 -0.015843665 -0.0035653003
0.0008578688 0.006758954 0.003950135 0.00014731642 0.00889231 -0.0075001656 0.0036102037 -0.0022120334
0.004239121 -0.00013499074 0.0032755204 0.012449803 -0.0011769207 -0.027581666 -0.0043570325 0.006802221
-0.0064387918 -0.005737935 0.002610347 -0.013645999 -0.00022038643 0.0035119744 0.012198448 0.001296219
-0.00076866435 -0.0071053836 -0.011175667 -0.004844333 0.0027718209 -0.003171873 -0.016676236 -0.0007949184
0.00933143 0.0066737826 0.019645412 0.018787688 -0.0065466934 -0.00028784593 -0.0037499857 0.013295409
-0.003993241 0.0035566587 -0.0050623612 -0.01120727 0.013964538 0.0057912804 0.0046174037 0.008975863

action_model._discrete_distribution.branches.0.bias f4 [3]
00000000: 0000 0000 0000 0000 0000 0000
0.0 0.0 0.0

network_body._body_endoder.seq_layers.0.weight f4 [128, 138]
00000000: 1968 00be 894e 50bd 5af8 c83d 11c2 163d
00000010: 1aec c3bd 9b01 59be d1a2 26be 4956 303e
00000020: 7133 bbbc 08c4 c5bd 633a 633d cfaa 7a3d
00000030: 9364 0a3e 1195 09bd b033 5e3a b34f 70bd
00000040: d966 5c3d a924 ba3c 91ba 7ebd 82b9 2f3e
00000050: 827d ddbd aab4 90bd 4dc4 28bd d959 8d3d
00000060: a94f 383d 3e39 6d3d 26af f4bb 19e8 a7bd
00000070: 3dbe 823c 491d c03c 6021 2a3d d549 efbd
00000080: b500 5e3d 200e 6b3c 9c4c cebc af4e 53bd
00000090: 28d3 9d3e 386c 3b3d 6aae 503c b0c7 f63c
000000a0: ef93 1abb 53e9 dbbc 07d2 f93b be0f e63b
000000b0: f71b d33d 6afa 27be da07 01be 8291 5c3b
000000c0: 18d7 9abd d7fd 3f3c 39cf 1a3d 43ba 453c
000000d0: 7d4a 0dbe feae 8f3d 07d9 fa3d df70 5abd
000000e0: f640 6f3b 43de 0fbd 45b1 88bc 20a3 9d3d
000000f0: a7a2 44bc a30f 46bb 6bb9 943c 3e15 8ebd
00000100: 8a6c ad3d 9a06 67bd 0142 cabd c2a3 6c3c
00000110: 5813 823d 5a65 f0bd 4c97 bbbd bdde 0fbc
00000120: 6415 f7bd bc66 453e ac3d bb3d 4915 943d
00000130: 89ff 073e 8337 d33a acac 8ab9 1aa1 61bc
00000140: 3827 6bbc 862d 82bd 2f13 2bbd ed6b c6bd
00000150: 2852 8fbd 53bb 6ebd e721 70bd cce4 393d
00000160: 37d9 323d fec0 b63b 9c8d 003c 212c 463d
00000170: a68b eabb 4b33 6b3d faab 183d 166b a9bd
00000180: f13f e2bc 12c1 673b c767 46be b43e 96bc
00000190: fbbd 90bd d6ad 24be 2dff 0c3e 57af 393e
000001a0: c898 73bc fa68 84bc b0c5 a43b fa0b b3bd
000001b0: da32 283e d2c1 edbd bfa5 29bd 516c dbbb
000001c0: d1f3 e53d 251d 1cbc 9bb8 06bd 03cd 303e
000001d0: c2b1 9dbc bdbc 103a 2ded f13d b6b9 f9bb
000001e0: 3431 cabd fffc 313d 520b e63d 44ca 6abd
000001f0: 853d 523d 2738 81bd d7d9 61bd 2c3a 49bd
00000200: 44ff 96bd 21e7 59bd 8072 883d cc43 52bd
00000210: 7aef 03be e2c0 ca3b 0aa2 03bb a919 ccbc
00000220: 19dd 703d 71f9 14bd f242 583c 13d6 2e3d
00000230: 5c0d 2a3d c77d d4bd 0a23 3f3c ec49 a3bd
00000240: c167 213b a2ef 0bbe 4c67 503c 437d 6e3d
00000250: 14ec 113e 5fdf 8dbd ffe1 edbb 3f70 9d3d
00000260: 3ea6 04bd d8fd d23c b21e 293e 98f7 07bd
00000270: 4f6d 0cbd 1b70 773d 25e8 4e3d 6466 653d
00000280: 7783 82bb 8a1b fabd 6dfe 02bd eb47 3abc
00000290: 021b 35bd 4b3c c7bc fc09 33bc 0822 b43c
000002a0: 625f 0a3e 456e 173d 543b 773c 1345 7b3d
000002b0: 2192 133e 5973 d03d 22ca 2c3c fca9 1ebd
000002c0: 2883 3a3d 36ca 2fbd fc28 673c 24b9 cc3c
000002d0: 4472 253c 7205 bdbd ffba 21bd fe84 4bbd
000002e0: 53dd e33d 9288 dbbd 5606 e1bc 9635 363d
000002f0: df55 093e f39f 3b3d dc78 83bd 60b9 d03c
00000300: 1906 2dbd 5770 6ebc b704 d0bd 5e35 8dbd
00000310: 82db 42be edd8 fdbc faff 2d3d d12e 2dbd
00000320: 96a6 f8bc 8a20 a33d 3ddb e53c 7fd2 cfbd
00000330: 6cd9 e9bd c20c e63d 2b47 47bd fe57 953d
00000340: 7479 a23d 9112 d73d 5bb6 a0be a5f7 cdbd
00000350: 00b4 7abc 5543 383e e24c 693c cdcf 883d
00000360: d86b 97bc 3dda 51be ce2c d9bc 5c8d 1e3d
00000370: df5b 53bd acde 483c 13c6 383e 1af5 003e
00000380: 8bf1 e03c cf50 a5bd 86e0 ca3c 431b c0bd
00000390: e994 b9bd b345 d13b 412b 10bd 2360 95bd
000003a0: c132 eebd 8231 83bd d30b 833d 438e 683d
000003b0: c719 63bd 24c1 823d 35d5 06bd f6d9 62be
000003c0: 4f5c 963d 7d80 f9bd 93ac 24bd ef4a 493e
000003d0: 2514 ad3c 2275 383c d09a 20bd 3467 e7bd
000003e0: 52cd 463e 98cb 00bc b04d 1d3e 5ac7 a5bc
000003f0: 419e 5a3d 7ea1 cb3d 8952 f8bd bc76 a63d
-0.1253971 -0.050856147 0.09812994 0.03680617 -0.09566517 -0.21192019 -0.16273047 0.17220415
-0.022851678 -0.096565306 0.055475604 0.061198052 0.13514929 -0.033589426 0.000847633 -0.058669757
0.05380902 0.022722559 -0.062189642 0.1716061 -0.10814954 -0.07065709 -0.041202832 0.06901903
0.044997845 0.05791592 -0.0074671684 -0.08198566 0.015959853 0.023451464 0.041535735 -0.11684004
0.054199893 0.014346629 -0.025183015 -0.05158871 0.30825162 0.045757502 0.012736896 0.030124515
-0.002358671 -0.026844656 0.007623914 0.0070209196 0.10308068 -0.16404119 -0.12600651 0.0033656065
-0.07560557 0.011718235 0.03779528 0.012068334 -0.13797946 0.07015799 0.12248426 -0.0533303
0.0036507226 -0.035124075 -0.016686091 0.07697129 -0.01200167 -0.0030221723 0.01815482 -0.069376454
0.08467968 -0.05640278 -0.098758705 0.01444334 0.06351346 -0.11738081 -0.09159717 -0.008781132
-0.12064627 0.19277471 0.09142622 0.07230622 0.13281073 0.0016114566 -0.00026450062 -0.01377132
-0.014352612 -0.06356339 -0.04176634 -0.09688554 -0.06998092 -0.058284115 -0.05862608 0.045384213
0.043664183 0.0055772057 0.007846262 0.04838193 -0.0071577607 0.057421964 0.037273385 -0.08272378
-0.02761838 0.0035362882 -0.19375525 -0.018340446 -0.07067486 -0.16081938 0.13769217 0.18133293
-0.014867969 -0.016163338 0.005028449 -0.08742519 0.16425648 -0.11609234 -0.041417833 -0.006696262
0.11228145 -0.009528433 -0.032890897 0.17265706 -0.0192498 0.0005521288 0.11812816 -0.0076210154
-0.09872666 0.043454167 0.11232628 -0.0573218 0.0513282 -0.06309538 -0.05513939 -0.049127743
-0.07372907 -0.053198937 0.06662464 -0.051334187 -0.12884322 0.006187544 -0.0020085596 -0.02491458
0.058804605 -0.0363707 0.013199555 0.042684626 0.041516647 -0.103755526 0.011666069 -0.07973084
0.0024628493 -0.13665631 0.01271994 0.058224928 0.14250213 -0.0692737 -0.007259607 0.07687425
-0.032385103 0.025755808 0.16515616 -0.03319511 -0.034283932 0.060409646 0.05051436 0.05600585
-0.003982957 -0.12212284 -0.03198092 -0.011369686 -0.04421521 -0.024320742 -0.010927673 0.021988884
0.13512948 0.036970396 0.0150898285 0.06134517 0.14411213 0.10178251 0.010546239 -0.03873633
0.045535237 -0.042917453 0.0141088925 0.024990626 0.010098044 -0.09229554 -0.039484974 -0.049687378
0.111261986 -0.10719408 -0.027468842 0.044484697 0.13411663 0.045806836 -0.064195365 0.025479019
-0.042242143 -0.014553151 -0.10157149 -0.068949446 -0.19029048 -0.030987227 0.042480446 -0.042280976
-0.030352872 0.07965191 0.028058643 -0.10147571 -0.11418423 0.11232902 -0.048651855 0.07292174
0.079333216 0.10501588 -0.31389126 -0.10057 -0.015301704 0.17994435 0.014239522 0.0668026
-0.018484041 -0.20493408 -0.026510622 0.03870903 -0.051601287 0.01226012 0.1804431 0.12593499
0.027458927 -0.08072054 0.024765264 -0.093802 -0.090616055 0.0063864826 -0.0351975 -0.07293727
-0.11630774 -0.06405927 0.0639874 0.056776296 -0.055444505 0.06384495 -0.032918174 -0.22153458
0.07341825 -0.1218271 -0.040203642 0.19657491 0.02112777 0.011258395 -0.03921014 -0.11298981
0.19414261 -0.0078610405 0.15361667 -0.02023666 0.05337358 0.099429116 -0.12125117 0.081281155

network_body._body_endoder.seq_layers.0.bias f4 [128]
00000000: 0000 0000 0000 0000 0000 0000 0000 0000
00000010: 0000 0000 0000 0000 0000 0000 0000 0000
00000020: 0000 0000 0000 0000 0000 0000 0000 0000
00000030: 0000 0000 0000 0000 0000 0000 0000 0000
00000040: 0000 0000 0000 0000 0000 0000 0000 0000
00000050: 0000 0000 0000 0000 0000 0000 0000 0000
00000060: 0000 0000 0000 0000 0000 0000 0000 0000
00000070: 0000 0000 0000 0000 0000 0000 0000 0000
00000080: 0000 0000 0000 0000 0000 0000 0000 0000
00000090: 0000 0000 0000 0000 0000 0000 0000 0000
000000a0: 0000 0000 0000 0000 0000 0000 0000 0000
000000b0: 0000 0000 0000 0000 0000 0000 0000 0000
000000c0: 0000 0000 0000 0000 0000 0000 0000 0000
000000d0: 0000 0000 0000 0000 0000 0000 0000 0000
000000e0: 0000 0000 0000 0000 0000 0000 0000 0000
000000f0: 0000 0000 0000 0000 0000 0000 0000 0000
00000100: 0000 0000 0000 0000 0000 0000 0000 0000
00000110: 0000 0000 0000 0000 0000 0000 0000 0000
00000120: 0000 0000 0000 0000 0000 0000 0000 0000
00000130: 0000 0000 0000 0000 0000 0000 0000 0000
00000140: 0000 0000 0000 0000 0000 0000 0000 0000
00000150: 0000 0000 0000 0000 0000 0000 0000 0000
00000160: 0000 0000 0000 0000 0000 0000 0000 0000
00000170: 0000 0000 0000 0000 0000 0000 0000 0000
00000180: 0000 0000 0000 0000 0000 0000 0000 0000
00000190: 0000 0000 0000 0000 0000 0000 0000 0000
000001a0: 0000 0000 0000 0000 0000 0000 0000 0000
000001b0: 0000 0000 0000 0000 0000 0000 0000 0000
000001c0: 0000 0000 0000 0000 0000 0000 0000 0000
000001d0: 0000 0000 0000 0000 0000 0000 0000 0000
000001e0: 0000 0000 0000 0000 0000 0000 0000 0000
000001f0: 0000 0000 0000 0000 0000 0000 0000 0000
0.0 0.0 0.0 0.0 0.0 0.0 0.0 0.0
0.0 0.0 0.0 0.0 0.0 0.0 0.0 0.0
0.0 0.0 0.0 0.0 0.0 0.0 0.0 0.0
0.0 0.0 0.0 0.0 0.0 0.0 0.0 0.0
0.0 0.0 0.0 0.0 0.0 0.0 0.0 0.0
0.0 0.0 0.0 0.0 0.0 0.0 0.0 0.0
0.0 0.0 0.0 0.0 0.0 0.0 0.0 0.0
0.0 0.0 0.0 0.0 0.0 0.0 0.0 0.0
0.0 0.0 0.0 0.0 0.0 0.0 0.0 0.0
0.0 0.0 0.0 0.0 0.0 0.0 0.0 0.0
0.0 0.0 0.0 0.0 0.0 0.0 0.0 0.0
0.0 0.0 0.0 0.0 0.0 0.0 0.0 0.0
0.0 0.0 0.0 0.0 0.0 0.0 0.0 0.0
0.0 0.0 0.0 0.0 0.0 0.0 0.0 0.0
0.0 0.0 0.0 0.0 0.0 0.0 0.0 0.0
0.0 0.0 0.0 0.0 0.0 0.0 0.0 0.0

network_body._body_endoder.seq_layers.2.weight f4 [128, 128]
00000000: becb b0bc 5e0f d4bc a4dd 023e ad0a 423d
00000010: 9a41 c93d 71fb e03c 702e bb3d 767a a53c
00000020: 71e5 b33d da8e 813d 3b9f 723d e9cb df39
00000030: 46e9 a63c 8492 fe3d 6cea 46bd 6c7c 103d
00000040: 698d 953d 440c 8f3c adb2 97bd f720 7d3c
00000050: d00d 0bbc 736a fe3c 670f f7b9 fa0e bc3c
00000060: cc20 10be 8f21 db3d d20a 873d ddcf aaba
00000070: aac5 cb3d 2453 b2bc b5f8 b83d 3d75 d4bd
00000080: 799f 6a3d 27bc d3bd f10b 9f3c 232b 81bd
00000090: 6b28 d1bc b93f 30bd bc1f 5cbc d68a 5cbc
000000a0: fb85 1cbe 4022 613d 24bd 863d 12f5 f9bd
000000b0: e75d cb3d f1dc 9b3d 5c9f 63bd 0454 fcbd
000000c0: d682 47bc 10c4 48be 9b28 64bc 1bda ba3c
000000d0: d190 33be 6d2e a8bd 7ff6 423e fee1 59bd
000000e0: df30 033d 4eba a8bd 5db9 24bc 1508 73bd
000000f0: ff9c 58bd 4968 b43d 816c e2bd cfbf 523c
00000100: 8ab2 a83c 772e 903c 1321 e23b a01d 1f3d
00000110: 0dbc a53d dd5d 5c3e c032 c5bd cebd 99bd
00000120: aad1 24be 346a 073e 6486 ab3d e9c7 0ebd
00000130: bdf9 ecbd 24dd b33c 81d1 cdbd a318 adbd
00000140: 8dfe 2bbd 0cf6 8fbb e7c6 203d 6a37 60bd
00000150: b007 9b3c d07a 3b3d e11c 9a3d d2dc 573b
00000160: 5c62 16bd 2c0e 1ebd e2a7 9ebd 4e45 b0bc
00000170: cfb8 35bd a230 3a3e f3cd 163d 84e8 4c3c
00000180: ff0f a43d 0191 f13d e3fc 6dbc b0ed e6bd
00000190: 3d5d 1bbb 9d68 5fbd 66f7 873d 2327 e5bc
000001a0: 6bf9 a73c fbe6 11bd c822 643e c453 97bd
000001b0: 40cc aabc 43b0 173d 1479 9a3d 9057 233e
000001c0: d603 9abc 5cda bc3d 8f0f 56be 03d6 69bd
000001d0: b031 18bd 67c4 133a e72f 893d 8480 8dbd
000001e0: fff0 28bd 2c89 1dbd d680 07be 8f25 c33c
000001f0: 816d e73d 4f22 5a3d 2d20 b13d 2213 a73c
00000200: 7be3 d93c bf5d ecbd bf51 aa3d 293d 24bd
00000210: f2dc 303d 2883 a6bd 94b4 9d3d db13 9ebc
00000220: af5a 18bd 12c4 d0bc 80a8 8a3c 2a9b 0fbe
00000230: ced2 a33d 6fc8 acbd f32b db3d f48c aebd
00000240: 9d15 3cbe 1515 bfbc 87f9 903d 3e24 473e
00000250: d46d 4e3e f24a dbbd cea2 02bd d940 5c3d
00000260: b3df aebd ad5a f5bd 98ed dc3c fbc8 e1bd
00000270: 8102 b7bd 4ec5 0a3d cc38 3c3c a528 023e
00000280: 3e71 9dbd 471b a33c 580f 8a3d 01d0 5ebd
00000290: bde7 13bc 4fe7 d3bc 0e10 e03c 0fc0 113d
000002a0: 0ae4 e73c 66a7 7ebd 62e1 c53d 09c5 0c3d
000002b0: dac5 1c3d 9ff3 d5bd 1776 303e cd37 b4bc
000002c0: 626a 6c3e 3495 b53d ef36 3d3e f3b0 40b9
000002d0: bc6f 8abd 20ca 33be 7aaa 81bd aec0 1c3d
000002e0: c750 aebc d664 c23d e61d 86bd 0e50 c43d
000002f0: c786 a4bd f326 103d 32ba cdbc 8e97 bc3d
00000300: f57c 413d 313c 983c aff2 07be db83 7abc
00000310: fd8e cbbd 0551 0a3e d2db 4abd 0887 4fbd
00000320: 32f8 073e 9d55 853d 92fb 943d 073f 69bd
00000330: 2dff 6abd bf32 fa3d c050 2a3e cee7 753d
00000340: 9ea8 dfbc d14b 7e3a 69c1 973b 17e5 833d
00000350: 9015 aa3d 6d56 963d 37bd 56bb a32f e23d
00000360: f5ff 60bd dddc 673e 1c13 733c b7a6 b53c
00000370: 4d42 cb3d ee8f 063c 29bf da3c 84b5 4bbd
00000380: f034 82be 40d5 91bc 43d2 0abe 185a 2cbd
00000390: f9a8 34bd a719 2cbd 7da0 1f3d 3dab 0dbd
000003a0: 1379 f3bc bec8 033e 5c57 383e 184a 8abd
000003b0: 542f b83d c4a8 d73c a97e 92bd 1a07 1bbe
000003c0: cbcc a6bc 82d7 b7bd 28c0 3ebd 3efe 4dbd
000003d0: db22 673d d3f9 9b3b 441a 0b3c 1625 baba
000003e0: e0a8 c43d 090c 6d3d 6ebf 073d 8ebe c7bc
000003f0: c892 b2bc 91cd 50be a7bb aa3d feca 87bd
-0.021581527 -0.025886234 0.12779862 0.047373462 0.09826966 0.027463647 0.091397166 0.020199995
0.08783997 0.06326075 0.059233885 0.000426858 0.020374905 0.124302894 -0.048563406 0.035274908
0.073023625 0.017461903 -0.074071266 0.015449754 -0.00848718 0.031056618 -0.00047122987 0.02295636
-0.14075011 0.1069976 0.06593861 -0.0013031919 0.09949811 -0.02176816 0.09031812 -0.10373924
0.05728099 -0.103386216 0.019414874 -0.06307056 -0.025531968 -0.04302952 -0.0134353 -0.013460835
-0.15285484 0.054964304 0.065790445 -0.122049466 0.0993002 0.076105006 -0.0555719 -0.12320712
-0.01217719 -0.19606042 -0.013925697 0.022809079 -0.17535712 -0.0821198 0.19039343 -0.05319404
0.03202903 -0.0823866 -0.01005396 -0.05933388 -0.0528841 0.08808953 -0.11055852 0.012863114
0.020592947 0.017600281 0.0069009154 0.038846612 0.080925085 0.21520181 -0.096288204 -0.075069055
-0.16095605 0.13224107 0.08375242 -0.034858618 -0.11571071 0.021956034 -0.10049725 -0.08451965
-0.041990805 -0.0043933447 0.039252188 -0.054740347 0.018924564 0.04577142 0.075250395 0.0032938016
-0.036714897 -0.038587734 -0.07746865 -0.021517422 -0.0443657 0.18182614 0.036817502 0.012506608
0.080108635 0.117952354 -0.014525625 -0.11275804 -0.0023706697 -0.054543126 0.066389844 -0.027972763
0.020504674 -0.03562067 0.22278893 -0.07389024 -0.020849347 0.03703333 0.07542625 0.15951371
-0.018800657 0.09221336 -0.20904373 -0.057088863 -0.03715676 0.0005636871 0.0669859 -0.06909278
-0.041245457 -0.038460895 -0.13232741 0.02382162 0.11300183 0.053255375 0.08648715 0.020394865
0.026597729 -0.11541318 0.08316373 -0.04009739 0.04317946 -0.08130485 0.07700458 -0.019296577
-0.037195858 -0.025484119 0.01692605 -0.14024034 0.07999192 -0.08436667 0.10701742 -0.085229784
-0.1836762 -0.023325482 0.070788436 0.19447419 0.20159084 -0.10707654 -0.031893544 0.05377278
-0.08538761 -0.11980186 0.026968762 -0.11024662 -0.089360245 0.03387957 0.011488151 0.12710817
-0.07687615 0.019910468 0.06741208 -0.054397587 -0.009027419 -0.025867132 0.027351405 0.035583552
0.02830698 -0.062171362 0.09662129 0.034367595 0.038274623 -0.10446858 0.17232548 -0.021999264
0.23087457 0.08866349 0.18477987 -0.00018376466 -0.06759593 -0.17557573 -0.06331344 0.03826969
-0.021278752 0.09491889 -0.065486714 0.09585582 -0.08033519 0.035193395 -0.025113199 0.09208594
0.04723831 0.018583389 -0.1327617 -0.015290226 -0.09939382 0.13507469 -0.049526043 -0.050665885
0.13278273 0.0651047 0.07274546 -0.056944873 -0.05737226 0.1221671 0.16632366 0.06003552
-0.027302083 0.00097006286 0.0046312106 0.0644018 0.08304894 0.07340703 -0.003276659 0.11044242
-0.0549316 0.22642846 0.014836099 0.022174222 0.09924755 0.008213026 0.02670248 -0.049733654
-0.25431013 -0.01780188 -0.13556771 -0.042078108 -0.044106457 -0.04201665 0.038971413 -0.034587134
-0.029720819 0.12869546 0.18002075 -0.067524135 0.08993402 0.02632559 -0.07153065 -0.15139428
-0.020361325 -0.08976652 -0.046569973 -0.050291292 0.056429725 0.004760006 0.008490149 -0.0014201726
0.09602523 0.057872806 0.033141546 -0.024382856 -0.021798506 -0.20390917 0.08336573 -0.066305146

network_body._body_endoder.seq_layers.2.bias f4 [128]
00000000: 0000 0000 0000 0000 0000 0000 0000 0000
00000010: 0000 0000 0000 0000 0000 0000 0000 0000
00000020: 0000 0000 0000 0000 0000 0000 0000 0000
00000030: 0000 0000 0000 0000 0000 0000 0000 0000
00000040: 0000 0000 0000 0000 0000 0000 0000 0000
00000050: 0000 0000 0000 0000 0000 0000 0000 0000
00000060: 0000 0000 0000 0000 0000 0000 0000 0000
00000070: 0000 0000 0000 0000 0000 0000 0000 0000
00000080: 0000 0000 0000 0000 0000 0000 0000 0000
00000090: 0000 0000 0000 0000 0000 0000 0000 0000
000000a0: 0000 0000 0000 0000 0000 0000 0000 0000
000000b0: 0000 0000 0000 0000 0000 0000 0000 0000
000000c0: 0000 0000 0000 0000 0000 0000 0000 0000
000000d0: 0000 0000 0000 0000 0000 0000 0000 0000
000000e0: 0000 0000 0000 0000 0000 0000 0000 0000
000000f0: 0000 0000 0000 0000 0000 0000 0000 0000
00000100: 0000 0000 0000 0000 0000 0000 0000 0000
00000110: 0000 0000 0000 0000 0000 0000 0000 0000
00000120: 0000 0000 0000 0000 0000 0000 0000 0000
00000130: 0000 0000 0000 0000 0000 0000 0000 0000
00000140: 0000 0000 0000 0000 0000 0000 0000 0000
00000150: 0000 0000 0000 0000 0000 0000 0000 0000
00000160: 0000 0000 0000 0000 0000 0000 0000 0000
00000170: 0000 0000 0000 0000 0000 0000 0000 0000
00000180: 0000 0000 0000 0000 0000 0000 0000 0000
00000190: 0000 0000 0000 0000 0000 0000 0000 0000
000001a0: 0000 0000 0000 0000 0000 0000 0000 0000
000001b0: 0000 0000 0000 0000 0000 0000 0000 0000
000001c0: 0000 0000 0000 0000 0000 0000 0000 0000
000001d0: 0000 0000 0000 0000 0000 0000 0000 0000
000001e0: 0000 0000 0000 0000 0000 0000 0000 0000
000001f0: 0000 0000 0000 0000 0000 0000 0000 0000
0.0 0.0 0.0 0.0 0.0 0.0 0.0 0.0
0.0 0.0 0.0 0.0 0.0 0.0 0.0 0.0
0.0 0.0 0.0 0.0 0.0 0.0 0.0 0.0
0.0 0.0 0.0 0.0 0.0 0.0 0.0 0.0
0.0 0.0 0.0 0.0 0.0 0.0 0.0 0.0
0.0 0.0 0.0 0.0 0.0 0.0 0.0 0.0
0.0 0.0 0.0 0.0 0.0 0.0 0.0 0.0
0.0 0.0 0.0 0.0 0.0 0.0 0.0 0.0
0.0 0.0 0.0 0.0 0.0 0.0 0.0 0.0
0.0 0.0 0.0 0.0 0.0 0.0 0.0 0.0
0.0 0.0 0.0 0.0 0.0 0.0 0.0 0.0
0.0 0.0 0.0 0.0 0.0 0.0 0.0 0.0
0.0 0.0 0.0 0.0 0.0 0.0 0.0 0.0
0.0 0.0 0.0 0.0 0.0 0.0 0.0 0.0
0.0 0.0 0.0 0.0 0.0 0.0 0.0 0.0
0.0 0.0 0.0 0.0 0.0 0.0 0.0 0.0

value_heads.value_heads.extrinsic.weight f4 [1, 128]
00000000: c87b b0bd 3333 133e fd79 3b3e 76a8 0a3e
00000010: c6c3 8c3c 4c6a 4dbe d5ec dcbd 5359 413e
00000020: e985 2c3e 187e 4e3e 60b7 0b3d 286d b7bd
00000030: f5dd b03c a51b d03c 07ee 1fbd 8939 debd
00000040: ec69 efbd 131f cc3d bf8a 3cbd 6795 453e
00000050: dbf9 16bb aeaa 16be 91f8 aa3c de5c e93b
00000060: d144 b13d 6034 a33d bc37 ee3d 5bdb 08be
00000070: d894 b6bd 1432 f83d b340 24be 90e1 213e
00000080: 037d a1bd 4e97 463e 0c41 0a3e 2b92 45bd
00000090: c1c7 e2bd 41e9 203d 461e 4c3e 4821 5a3e
000000a0: 0879 19bd 2b0c 763d a63d 2f3e 29bb 023e
000000b0: af58 4fbc d73c 743d 16d1 0d3d b69b 32be
000000c0: 1678 18be d719 fb3d 6653 913d 48f5 01be
000000d0: 7252 0ebe 27cc d33d 4ff4 28be 45c2 6c3d
000000e0: 5bd2 d03d 91a4 593e f255 cdbc b9de b13d
000000f0: b25a 21be 9047 37bd f39a c63d 762e eb3d
00000100: 7cf2 49be e187 9b3d 3543 13be eb0c 06bb
00000110: da05 aa3d 6b2a 6b3d cc07 ec3d 214e 54be
00000120: 611c 3cbd bb69 57be aef2 0dbe 7ebd 25be
00000130: 4fcf efbd 4653 6e3d 1fbd bb3d 4ced 013e
00000140: a732 53be af31 9d3d e010 2cbe 623f 283e
00000150: 2ac8 c0bd a2dc 07be e8db 3f3e 49f8 84bd
00000160: be29 443e ef81 273e f512 45be 5076 6f3d
00000170: 07e5 7abd caec 593e e061 d7bd 6d51 153c
00000180: d338 db3d 10bf 3bbd 6270 c13d 6580 d3bd
00000190: c9a7 953d 34a1 233d aaa5 b2bd d91c e7bd
000001a0: f1f5 0c3e 5db6 ea3c 743d 143d 88b5 90bd
000001b0: 5b13 29be 530c 22be f552 56be e074 83bd
000001c0: b27a 933d 770b d1bb 4366 3b3d 45c7 143e
000001d0: 85b0 113e c61e 1e3e b587 cd3c 4a85 593e
000001e0: 6ff9 023e d5cb 263e ef9d 213e 4891 303e
000001f0: 9fa2 a0bc a2e5 84bd 14c7 ffbc 1f55 32be
-0.086173594 0.14375 0.18308254 0.13540825 0.017183196 -0.2006008 -0.107873596 0.1888173
0.16847958 0.20165288 0.034110427 -0.08956367 0.021590212 0.025403807 -0.03904536 -0.10850818
-0.11690125 0.099668644 -0.046030756 0.19295274 -0.002303711 -0.14713547 0.020870479 0.0071216663
0.08655704 0.07968974 0.11631724 -0.13364927 -0.089151084 0.12118927 -0.16040306 0.15808702
-0.07885172 0.19393656 0.13501376 -0.0482351 -0.11073256 0.03928495 0.19933423 0.21301758
-0.03746894 0.060070198 0.17113361 0.12766708 -0.012655421 0.059628334 0.034623228 -0.17442212
-0.14889559 0.12260788 0.07095985 -0.12691224 -0.13898638 0.10341673 -0.16499446 0.057802457
0.10196372 0.21254183 -0.025065396 0.08685059 -0.15757254 -0.04474598 0.09697523 0.11483471
-0.19721407 0.07594276 -0.14381106 -0.0020454477 0.08301897 0.0574135 0.11524925 -0.20732929
-0.0459255 -0.21036427 -0.13862106 -0.16185567 -0.11709463 0.058184884 0.09166931 0.12688178
-0.20624791 0.07675492 -0.16803312 0.16430429 -0.09413178 -0.13267758 0.18736231 -0.06492669
0.19156548 0.1635816 -0.19245513 0.05846244 -0.061253574 0.21281734 -0.10516715 0.009113652
0.10704198 -0.04583651 0.094452634 -0.10327224 0.07307393 0.039948657 -0.08723004 -0.11284799
0.13765694 0.02865141 0.03619142 -0.07065874 -0.1651129 -0.15825014 -0.20930083 -0.064187765
0.07201137 -0.0063795405 0.04575182 0.1452914 0.14227493 0.15441427 0.025089124 0.21242252
0.12790464 0.16288693 0.15782903 0.1724292 -0.019608794 -0.064891115 -0.031222858 -0.17415284
