Results/test21/SnowBall/SnowBall-637.onnx (onnx, 140898 bytes, 6 tensors)

action_model._discrete_distribution.branches.0.bias f4 [3]
00000000: 0000 0000 0000 0000 0000 0000
0.0 0.0 0.0

action_model._discrete_distribution.branches.0.weight f4 [3, 128]
00000000: 7d1b 4abc 3b6e 7fb9 d15a 173c f337 24bc
00000010: 1f41 16bc 2808 d53b 03a5 3e3b 30de 053c
00000020: 6a05 73bc 1cd7 1b3c 27f1 59bc 43a2 cabb
00000030: 75e7 783b 3122 833c ab37 cbbb 1247 f6bb
00000040: 7a41 dd3a 578f 923c 7583 94b9 df38 87bb
00000050: b56d 6dbb 93cd 3cb9 0227 183c 431a a8ba
00000060: e77b 3e3b 4dc3 5a3c 9da5 dc3b 0d42 c23c
00000070: 6d61 013b 4fd4 f23b 2599 fa3a 8da1 de3a
00000080: 45ab c63b 805b 603b a829 72ba f8c8 163c
00000090: 96fd bcbb 11fc 053c ef23 76bb bb83 ec3b
000000a0: 52c4 6dbc 0d22 fbbb da7b 53ba 628a 193c
000000b0: 7fcd e13b 6396 babb d519 d33b 17e8 43bb
000000c0: 6a81 923b 6262 94bc f873 2b3c d83f 663b
000000d0: 60f8 04ba 6b1d 1a3b 9213 773c 0d0b a938
000000e0: 0014 5abb a484 1a3b 483b 753b 5308 d03a
000000f0: 9ba2 01bc e25b 1c3b 5d04 dc3a a285 563b
00000100: 5765 7e3c b893 76ba b548 3cbb 933b 8abc
00000110: 7474 243c 2b8f 6a3a 3146 2c3c 6b9a bf37
00000120: 6d94 583c 8731 fbbc 1c2f 8339 9c09 29bc
00000130: cdc4 92b8 bfab 0c3a 44c7 1abc b529 863b
00000140: bffd 1d3c aac6 aa3b 5052 cebb d559 9d3b
00000150: 8f2a 393c 17f9 3f3b 1ce7 343c 1259 74bb
00000160: 082f 87bb 0089 4dbb cf28 18b9 f376 f33b
00000170: a3ce fc3b 7b2e d13b 7085 113c fbaa a1bb
00000180: eaaf dfbb f810 223c 2dea 16bc f3cf 2b3b
00000190: 2b8f 60bb 4f5b 0eba e741 043b 4532 d73b
000001a0: 130b c5ba 7086 ab3a 77c8 b33c 5c18 9f3b
000001b0: 9f0e 3a3c 6746 1ebb 829d 893a 2f22 f43b
000001c0: fb03 05bb cf5b 083c 5b04 afbb 03f9 f5ba
000001d0: c9ca 4abc 4439 853b f534 61bc c86c b63b
000001e0: 35d1 e9bb c01f 14ba 43ad b73b 3713 a339
000001f0: d68e 41bc 77eb 76bb cbcd 193c e0eb c7bb
00000200: 4376 95bb 0bd4 3ebb ca0d 903c 652c b3bb
00000210: e3d5 fbbb abc4 483c d5d8 50ba 619c beba
00000220: 857f ffbb 2be0 d4bb 424d d43b ab28 22bc
00000230: 79bb 133b c894 e3ba 2000 aeba b489 36bc
00000240: 8fe0 e2bb cd53 7f3c 7a1b 9bbc de4e bdbb
00000250: e38c 07bb eb81 c1bb 1411 42bb 2079 b73b
00000260: a5ee be3b 239c e6ba b761 54bc 8562 32bc
00000270: 6780 423c 539b a03c df7f 313c 6a8e 4dbb
00000280: 7f16 443c 0a86 573c 75fe 14bc 4adf 813c
00000290: ff20 c1bc 370f 003a c712 863b 9586 3d3c
000002a0: da78 bebc 08c3 cf3b ce07 1ab9 a2d5 ddbb
000002b0: b93f 4abc e200 13bc 0798 b83b 2ad7 ed3c
000002c0: 2221 0dbc 5ae3 6a3a b88f 52bc dbee 983a
000002d0: ef1c fcb9 aebd b3bb a3a9 7ebc 8fcb 933b
000002e0: 78fa e93b ee4a 24bc b2be dcbb 27ed 55bc
000002f0: dda2 793a cc66 93bb 215b 8dbc e51d cd3b
00000300: f75e 353c 7f44 34bc 48cd 093c 4fff a63b
00000310: 8552 95bc d32d c73a 3607 b43b 73e4 233c
00000320: b75c bebb f0ef e0bb 20ef 41bb 27a3 0fbc
00000330: 87f6 a33b bee6 2bbc 93ca 81bc d0a7 69bb
00000340: 9ae2 603a 377a dd3b 2270 813b f378 1a39
00000350: 0db1 113c f3c3 f5bb 2b99 6c3b c3f7 10bb
00000360: 53e8 8a3b 4d8c 0db9 1daa 563b 42fa 4b3c
00000370: e842 9aba f2f2 e1bc 70c5 8ebb 2ae5 de3b
00000380: 80fc d2bb 4a05 bcbb 5b12 2b3b 7893 5fbc
00000390: 8817 67b9 2729 663b 00dc 473c e4e5 a93a
000003a0: 3180 49ba 47d4 e8bb 251a 37bc 36bd 9ebb
000003b0: 70a7 353b 33df 4fbb 9a9c 88bc 1262 50ba
000003c0: dbe2 183c bfaf da3b 6aef a03c a3e8 993c
000003d0: a585 d6bb 07ea 96b9 52c2 75bb fdd4 593c
000003e0: bcd9 82bb d516 693b 2ae2 a5bb b39e 37bc
000003f0: 85cb 643c c8c4 bd3b 974d 973b 800f 133c
-0.012335655 -0.00024359759 0.009237961 -0.010023105 -0.0091707995 0.0065012164 0.0029090054 0.008170649
-0.014832834 0.009511735 -0.013302124 -0.006183894 0.0037979756 0.016007515 -0.0062017045 -0.0075157965
0.0016880475 0.017890615 -0.00028326703 -0.0041266526 -0.003622872 -0.0001800566 0.009286644 -0.0012825209
0.002906555 0.013352227 0.00673361 0.023713136 0.0019741908 0.007410563 0.0019119127 0.0016985402
0.0060628974 0.0034234226 -0.00092377746 0.009203188 -0.0057675345 0.008177773 -0.003755804 0.007217852
-0.014512138 -0.0076639713 -0.00080674666 0.009371372 0.006890952 -0.005694197 0.0064422884 -0.0029892975
0.0044709938 -0.018113319 0.010464661 0.0035133269 -0.0005072411 0.002351607 0.0150803495 8.060606e-05
-0.003327608 0.0023577595 0.0037419368 0.0015871621 -0.007912303 0.0023858477 0.0016785968 0.003273346
0.015527091 -0.0009406167 -0.002872986 -0.01687411 0.01003753 0.00089477253 0.010514782 2.284088e-05
0.013218981 -0.030663265 0.00025021366 -0.010317232 -6.9984795e-05 0.00053661683 -0.009446923 0.0040943273
0.009643017 0.005211671 -0.0062964335 0.0048019686 0.011301651 0.0029292756 0.011041429 -0.0037284535
-0.0041254796 -0.0031362176 -0.00014511052 0.0074299513 0.0077150627 0.0063837147 0.008881912 -0.0049337125
-0.0068263905 0.009891741 -0.009211105 0.0026216477 -0.0034265022 -0.0005430476 0.0020180882 0.006567272
-0.0015033208 0.001308633 0.021946175 0.004855199 0.011356025 -0.002415085 0.0010499211 0.007450364
-0.0020296562 0.00832267 -0.0053410954 -0.0018766228 -0.012377449 0.0040656645 -0.013745536 0.005567167
-0.007135535 -0.0005650483 0.005605371 0.000311041 -0.01181384 -0.003767697 0.009387444 -0.0061011165
-0.004561217 -0.0029118087 0.0175847 -0.0054679387 -0.0076854094 0.012253921 -0.0007966881 -0.0014542454
-0.007797184 -0.0064964495 0.0064789364 -0.009897391 0.0022542162 -0.0017363066 -0.0013275184 -0.011141229
-0.006923742 0.0155839445 -0.018934 -0.005777224 -0.002068334 -0.00590538 -0.002961223 0.005599156
0.0058267885 -0.001759414 -0.01296275 -0.010887747 0.011871434 0.019605314 0.0108337095 -0.0031365403
0.011968254 0.013154516 -0.00909387 0.015853543 -0.023575304 0.00048850797 0.004091594 0.011567731
-0.023250986 0.006340388 -0.00014689492 -0.006769852 -0.012344294 -0.008972378 0.0056333574 0.029033262
-0.0086138565 0.00089602696 -0.012851648 0.0011667864 -0.00048086743 -0.005485258 -0.015543374 0.00451035
0.007140454 -0.01002763 -0.0067366 -0.01305703 0.0009522865 -0.0044983383 -0.017255368 0.006259667
0.011070005 -0.011002659 0.008410759 0.005096353 -0.018227825 0.0015196152 0.0054940237 0.010003197
-0.0058093923 -0.0068645403 -0.0029591992 -0.008766926 0.0050037536 -0.010492025 -0.015843665 -0.0035653003
0.0008578688 0.006758954 0.003950135 0.00014731642 0.00889231 -0.0075001656 0.0036102037 -0.0022120334
0.004239121 -0.00013499074 0.0032755204 0.012449803 -0.0011769207 -0.027581666 -0.0043570325 0.006802221
-0.0064387918 -0.005737935 0.002610347 -0.013645999 -0.00022038643 0.0035119744 0.012198448 0.001296219
-0.00076866435 -0.0071053836 -0.011175667 -0.004844333 0.0027718209 -0.003171873 -0.016676236 -0.0007949184
0.00933143 0.0066737826 0.019645412 0.018787688 -0.0065466934 -0.00028784593 -0.0037499857 0.013295409
-0.003993241 0.0035566587 -0.0050623612 -0.01120727 0.013964538 0.0057912804 0.0046174037 0.008975863

network_body._body_endoder.seq_layers.0.bias f4 [128]
00000000: 0000 0000 0000 0000 0000 0000 0000 0000
00000010: 0000 0000 0000 0000 0000 0000 0000 0000
00000020: 0000 0000 0000 0000 0000 0000 0000 0000
00000030: 0000 0000 0000 0000 0000 0000 0000 0000
00000040: 0000 0000 0000 0000 0000 0000 0000 0000
00000050: 0000 0000 0000 0000 0000 0000 0000 0000
00000060: 0000 0000 0000 0000 0000 0000 0000 0000
00000070: 0000 0000 0000 0000 0000 0000 0000 0000
00000080: 0000 0000 0000 0000 0000 0000 0000 0000
00000090: 0000 0000 0000 0000 0000 0000 0000 0000
000000a0: 0000 0000 0000 0000 0000 0000 0000 0000
000000b0: 0000 0000 0000 0000 0000 0000 0000 0000
000000c0: 0000 0000 0000 0000 0000 0000 0000 0000
000000d0: 0000 0000 0000 0000 0000 0000 0000 0000
000000e0: 0000 0000 0000 0000 0000 0000 0000 0000
000000f0: 0000 0000 0000 0000 0000 0000 0000 0000
00000100: 0000 0000 0000 0000 0000 0000 0000 0000
00000110: 0000 0000 0000 0000 0000 0000 0000 0000
00000120: 0000 0000 0000 0000 0000 0000 0000 0000
00000130: 0000 0000 0000 0000 0000 0000 0000 0000
00000140: 0000 0000 0000 0000 0000 0000 0000 0000
00000150: 0000 0000 0000 0000 0000 0000 0000 0000
00000160: 0000 0000 0000 0000 0000 0000 0000 0000
00000170: 0000 0000 0000 0000 0000 0000 0000 0000
00000180: 0000 0000 0000 0000 0000 0000 0000 0000
00000190: 0000 0000 0000 0000 0000 0000 0000 0000
000001a0: 0000 0000 0000 0000 0000 0000 0000 0000
000001b0: 0000 0000 0000 0000 0000 0000 0000 0000
000001c0: 0000 0000 0000 0000 0000 0000 0000 0000
000001d0: 0000 0000 0000 0000 0000 0000 0000 0000
000001e0: 0000 0000 0000 0000 0000 0000 0000 0000
000001f0: 0000 0000 0000 0000 0000 0000 0000 0000
0.0 0.0 0.0 0.0 0.0 0.0 0.0 0.0
0.0 0.0 0.0 0.0 0.0 0.0 0.0 0.0
0.0 0.0 0.0 0.0 0.0 0.0 0.0 0.0
0.0 0.0 0.0 0.0 0.0 0.0 0.0 0.0
0.0 0.0 0.0 0.0 0.0 0.0 0.0 0.0
0.0 0.0 0.0 0.0 0.0 0.0 0.0 0.0
0.0 0.0 0.0 0.0 0.0 0.0 0.0 0.0
0.0 0.0 0.0 0.0 0.0 0.0 0.0 0.0
0.0 0.0 0.0 0.0 0.0 0.0 0.0 0.0
0.0 0.0 0.0 0.0 0.0 0.0 0.0 0.0
0.0 0.0 0.0 0.0 0.0 0.0 0.0 0.0
0.0 0.0 0.0 0.0 0.0 0.0 0.0 0.0
0.0 0.0 0.0 0.0 0.0 0.0 0.0 0.0
0.0 0.0 0.0 0.0 0.0 0.0 0.0 0.0
0.0 0.0 0.0 0.0 0.0 0.0 0.0 0.0
0.0 0.0 0.0 0.0 0.0 0.0 0.0 0.0

network_body._body_endoder.seq_layers.0.weight f4 [128, 138]
00000000: fc7b 0c3e bf62 a1bd 333f b73c 6f78 503d
00000010: b21e 3fbd ff73 e2bc 8bbb c6bd 3300 03bd
00000020: 67af 4b3d 3ed4 893d 1f5f 02bd 2aaf 25be
00000030: f3ab 0dbd c52b a6bc d220 843d 6830 adbd
00000040: e33c 8e3c ed0c 42bd b9a2 3a3d 9602 333c
00000050: 4398 08bd ff17 673d 6f2c 84bc de14 5b3c
00000060: efa7 863e bd7f 5abc 9940 c63d 931e 913d
00000070: 6178 913c 0f5d 5c3d 1555 1abe a571 adbb
00000080: b0a0 8eba 11ec 653c 485f d53d d5c6 34bd
00000090: fd32 083d cfe2 c53d b923 ebbc f3b0 5b3d
000000a0: 91d1 57bc 07db 5dbe 7ed5 9bbc 9b9b d4bd
000000b0: 6161 93bd 75df a0bc 783c 34bd e949 5b3c
000000c0: 8e29 433e 7fa6 06bd fe6b 83bc 60ff 6d3d
000000d0: c2d7 753c e54e 103d 8650 09bd 8d6b 00bd
000000e0: 8095 b93d f60f 9abc 57dc d93c 3959 a9bb
000000f0: f1e9 aa3d a592 db3b d3ad dabd 623b a7bd
00000100: 25c0 1c3d 61c6 eb3b 145e 29bd 197c 8ebd
00000110: 2ec7 e3bd 0cf5 2a3d 2f40 723d eea4 fb3c
00000120: fe7a dbbd 3cca d13c c8df 023d 063b a3bd
00000130: cd29 963d ec27 64bd 1ec9 c33d 9b1a 85bd
00000140: 2445 643d 621e 90bd d962 90bc aefb f23d
00000150: 4761 4b3e 79d5 033c 8086 24bc 9733 f5bc
00000160: ce1f 073c 93d6 353d f251 9f3d 7b87 db3d
00000170: 4ab7 febd ef72 11be 68c7 0f3d 4789 9b3d
00000180: 74d8 173d 8e7f 043d 62f7 a73d 6f79 903c
00000190: c626 4a3d b957 063e f3b1 d8bd 73b7 8ebd
000001a0: 99fa fa3d 3e4f 11bd b7ec 45bd b9fc de3d
000001b0: 671c 87bd 157c ffbc 058c 31bd cbe7 83bc
000001c0: 09dd b6bc 648a 74bd ce07 a53d a253 15bd
000001d0: 014f 943d 8558 1b3d 86af 213d d50c ebbd
000001e0: 2443 a13d c516 8f3d 249d 2a3d 8ca2 943d
000001f0: 54d0 733d e1e2 c7bd b468 1f3d c5dc 17bc
00000200: 133c 98bd 6598 833c 1bee 953d 52c2 e9bc
00000210: 5697 1abd 4c5b 20bd 84d8 06bd 9ced 13bd
00000220: ad99 81bd 09f6 fbbd b9e2 3bbd ef88 a53b
00000230: 6315 8d3d 3464 e63d c4cf c83c 3869 b8bd
00000240: af2a 7a3d f0f5 a2bd cb8f 2c3d f00f 8fbd
00000250: 10bd 383e d4d2 903d c568 e83b b768 4a3d
00000260: e2e6 873d be27 193d 5421 153d 34fd 783d
00000270: 01f5 f6bd cd65 31bd 6fbf 523d 618a a2bc
00000280: 2a05 a23c 4fba b3bd 93cf 9fbd bfff ffbd
00000290: ad70 a43c fbe8 e4bc 97c8 9bbc 5154 bebd
000002a0: c262 d1bd c1ad 223d b2cb c13c f310 4abe
000002b0: 2ddb 033e 92eb a9bc 06fe 443e 642d 2a3d
000002c0: 11c6 fc3d ad66 a1bd 012b d63d 521e 223d
000002d0: ae5a 06be 3273 25be a648 2a3d af87 573c
000002e0: f7c6 fabd cba2 163d f428 b4bb 9f41 bf3a
000002f0: ed1b 54bd 5e81 f23d 6bd7 7ebd 98e2 cabd
00000300: 1851 0bbe 3b4a 04be 557a b63a 8587 4c3d
00000310: 255c ad3b 51b4 cfbc 19ba 21bd 52f7 46bd
00000320: cef3 d33d 94e0 823d eb72 733d 0beb 0f3d
00000330: d090 833d f96a 16be 6ddd 683e 9346 c73d
00000340: 3d5f a7bd 809b c8bc 6a5f d23d 9a4d d33d
00000350: c4f3 2f3b 93c3 1a3e e769 163e 2cc6 a43d
00000360: ce37 c1bd c8fb 383d fcb5 143d 0643 f1bb
00000370: 6e2e 023d 9dea 9d3d cb9a b0bd e20f 45bd
00000380: f383 87be 8d14 9a3d 5bd6 fb3d e4f5 a8bd
00000390: 9055 f93d 50a1 543d 09a8 743d c483 9bbd
000003a0: 45c9 68bd 6898 913d 392a 8cbd 415f 803d
000003b0: 714b ef3d 028d a7bd f731 8cbd d580 413b
000003c0: d18c 933d b65a 423c b926 9a3c eb21 9c3c
000003d0: 5874 88bd a145 ee3b 8599 ac3b 5086 d43d
000003e0: 5fa5 013d aa3c 663a 21a5 f6bd e15b 0fbd
000003f0: 606b 813d c041 a83d 382d 1a3e 12d7 ae3d
0.13719171 -0.078801624 0.022369003 0.050896104 -0.046660133 -0.027643202 -0.0970374 -0.031982612
0.049727824 0.06729935 -0.031828996 -0.16180101 -0.03458781 -0.020284543 0.064515725 -0.084564984
0.017363017 -0.04737561 0.04556534 0.0109259095 -0.033348333 0.05641937 -0.016134469 0.013371674
0.26299998 -0.013336119 0.0968029 0.0708591 0.017757596 0.053799685 -0.15071519 -0.0052930885
-0.0010881629 0.014033333 0.10418564 -0.044134934 0.03325175 0.09662401 -0.028703557 0.05363555
-0.013172523 -0.21665584 -0.0190227 -0.10381242 -0.07196308 -0.019637803 -0.04400298 0.013384321
0.1905882 -0.032873627 -0.016042706 0.058104873 0.015005054 0.03523149 -0.03352406 -0.03135257
0.09061718 -0.018806439 0.026594324 -0.005168107 0.08345402 0.006700831 -0.106776856 -0.08165623
0.03826918 0.0071952795 -0.041349486 -0.069572635 -0.11121975 0.0417376 0.05914324 0.030718293
-0.10716818 0.025609128 0.031951696 -0.07970242 0.073321916 -0.055702135 0.095598444 -0.06499215
0.05573 -0.07037045 -0.01762526 0.1186441 0.19861327 0.008046501 -0.010041833 -0.029931827
0.008247329 0.044394087 0.07779302 0.107192 -0.12437303 -0.14204 0.035102278 0.07594543
0.03707166 0.032348208 0.082014814 0.017636029 0.049353383 0.13119401 -0.10580816 -0.06968584
0.12254829 -0.035475962 -0.048321452 0.10888047 -0.06597214 -0.031187097 -0.043346424 -0.016101738
-0.022322195 -0.059702292 0.08058129 -0.03645671 0.07241631 0.037926216 0.039474033 -0.11477057
0.07874134 0.06986765 0.041653767 0.07257566 0.05952485 -0.097600706 0.038918212 -0.009268944
-0.07433333 0.016063878 0.07320806 -0.028535042 -0.03774198 -0.039149567 -0.03292133 -0.036115274
-0.063281395 -0.12302787 -0.045870516 0.005051724 0.06888845 0.11249581 0.024513133 -0.09004444
0.061075862 -0.07957065 0.04212932 -0.06985462 0.18040872 0.07071462 0.0070925676 0.04941627
0.06635834 0.037391417 0.036408737 0.06078835 -0.120584495 -0.043309975 0.051452097 -0.019841375
0.019777853 -0.0877577 -0.078032635 -0.124999516 0.02007326 -0.027943125 -0.019016547 -0.09293426
-0.10223915 0.039716486 0.0236567 -0.19733028 0.12876578 -0.020742211 0.19237527 0.041547194
0.12342466 -0.07880912 0.10457421 0.039579697 -0.13120529 -0.16157225 0.04157319 0.013154908
-0.12244981 0.036776345 -0.005498046 0.00145917 -0.051784445 0.11841081 -0.062217157 -0.099065006
-0.13605154 -0.12918942 0.0013921956 0.04993393 0.0052905255 -0.025354536 -0.039484117 -0.048575707
0.103492364 0.06390491 0.059435766 0.035136264 0.06424105 -0.14689244 0.22740717 0.09730258
-0.08172462 -0.02448821 0.10272105 0.10317536 0.0026848176 0.15113668 0.14688836 0.08045611
-0.09434472 0.045161992 0.036306366 -0.007362726 0.03178256 0.077107646 -0.086232744 -0.04811085
-0.26467857 0.07523451 0.122967444 -0.08250025 0.12174523 0.051911652 0.059730563 -0.07593492
-0.05683257 0.07109147 -0.06843991 0.06268168 0.11684311 -0.08181192 -0.068454675 0.0029526253
0.07204593 0.0118624475 0.018817293 0.019059142 -0.06662816 0.007271484 0.0052673244 0.103771806
0.03165185 0.00087828434 -0.120432146 -0.034999732 0.06319308 0.08215666 0.15056312 0.08537115

network_body._body_endoder.seq_layers.2.bias f4 [128]
00000000: 0000 0000 0000 0000 0000 0000 0000 0000
00000010: 0000 0000 0000 0000 0000 0000 0000 0000
00000020: 0000 0000 0000 0000 0000 0000 0000 0000
00000030: 0000 0000 0000 0000 0000 0000 0000 0000
00000040: 0000 0000 0000 0000 0000 0000 0000 0000
00000050: 0000 0000 0000 0000 0000 0000 0000 0000
00000060: 0000 0000 0000 0000 0000 0000 0000 0000
00000070: 0000 0000 0000 0000 0000 0000 0000 0000
00000080: 0000 0000 0000 0000 0000 0000 0000 0000
00000090: 0000 0000 0000 0000 0000 0000 0000 0000
000000a0: 0000 0000 0000 0000 0000 0000 0000 0000
000000b0: 0000 0000 0000 0000 0000 0000 0000 0000
000000c0: 0000 0000 0000 0000 0000 0000 0000 0000
000000d0: 0000 0000 0000 0000 0000 0000 0000 0000
000000e0: 0000 0000 0000 0000 0000 0000 0000 0000
000000f0: 0000 0000 0000 0000 0000 0000 0000 0000
00000100: 0000 0000 0000 0000 0000 0000 0000 0000
00000110: 0000 0000 0000 0000 0000 0000 0000 0000
00000120: 0000 0000 0000 0000 0000 0000 0000 0000
00000130: 0000 0000 0000 0000 0000 0000 0000 0000
00000140: 0000 0000 0000 0000 0000 0000 0000 0000
00000150: 0000 0000 0000 0000 0000 0000 0000 0000
00000160: 0000 0000 0000 0000 0000 0000 0000 0000
00000170: 0000 0000 0000 0000 0000 0000 0000 0000
00000180: 0000 0000 0000 0000 0000 0000 0000 0000
00000190: 0000 0000 0000 0000 0000 0000 0000 0000
000001a0: 0000 0000 0000 0000 0000 0000 0000 0000
000001b0: 0000 0000 0000 0000 0000 0000 0000 0000
000001c0: 0000 0000 0000 0000 0000 0000 0000 0000
000001d0: 0000 0000 0000 0000 0000 0000 0000 0000
000001e0: 0000 0000 0000 0000 0000 0000 0000 0000
000001f0: 0000 0000 0000 0000 0000 0000 0000 0000
0.0 0.0 0.0 0.0 0.0 0.0 0.0 0.0
0.0 0.0 0.0 0.0 0.0 0.0 0.0 0.0
0.0 0.0 0.0 0.0 0.0 0.0 0.0 0.0
0.0 0.0 0.0 0.0 0.0 0.0 0.0 0.0
0.0 0.0 0.0 0.0 0.0 0.0 0.0 0.0
0.0 0.0 0.0 0.0 0.0 0.0 0.0 0.0
0.0 0.0 0.0 0.0 0.0 0.0 0.0 0.0
0.0 0.0 0.0 0.0 0.0 0.0 0.0 0.0
0.0 0.0 0.0 0.0 0.0 0.0 0.0 0.0
0.0 0.0 0.0 0.0 0.0 0.0 0.0 0.0
0.0 0.0 0.0 0.0 0.0 0.0 0.0 0.0
0.0 0.0 0.0 0.0 0.0 0.0 0.0 0.0
0.0 0.0 0.0 0.0 0.0 0.0 0.0 0.0
0.0 0.0 0.0 0.0 0.0 0.0 0.0 0.0
0.0 0.0 0.0 0.0 0.0 0.0 0.0 0.0
0.0 0.0 0.0 0.0 0.0 0.0 0.0 0.0

network_body._body_endoder.seq_layers.2.weight f4 [128, 128]
00000000: b48f 97bd 818e 3a3e cf68 8a3d 935b 2d3e
00000010: 36d5 40bc 949d 853c f2ba 8a3c 6c8f 7cbd
00000020: 376f f3bd 0668 b8bd 1b1b 35bd 486f 47bb
00000030: 077e 19bd bfa1 41be a6b1 75bd edec 0e3d
00000040: 7bf0 2b3d 569a d5bd 21d7 47bd 1ad5 d73d
00000050: e2b2 ab3d 6f62 e2bc 6d6f 82bd ee9a e83d
00000060: 6eb6 e93d ccf2 11bd 044d 7fbd f70f 16bd
00000070: 5ce5 82bd 5312 883b 085b bfbd d3f5 143e
00000080: 5dbf 0cbe 9824 893d b0b1 1bbe bc5d 91bd
00000090: 1bd8 a6bd d2ba 9e3d 81f2 91bd 1014 27be
000000a0: 977c 0d3d 880b c0bd 60fc 033e 9e49 fdbc
000000b0: 8017 c93c 3fa5 5c3d cabb 023e d604 fc3d
000000c0: 2e41 d8ba 8be6 973d b4f2 00be 6860 d43d
000000d0: 3ff3 393d 92ba 6d3d 91b3 453d 020e 173d
000000e0: 3c02 d93b ad29 843c 0504 c43c 5f73 d1bc
000000f0: ccae f1bb 49ab b2bd c482 21be 6656 063e
00000100: 326a 863d 51f8 bb3d 3ac2 5fbd 0a62 d03d
00000110: e207 a2bd 8a06 553c 4b00 b3bd 8156 13bd
00000120: 52af 8d3d 89e6 533d 06cf ebbd ba34 2bbc
00000130: 8b74 cf3c f3f8 203d f51f 61be 14ea afbd
00000140: 3f40 e03d 0ade 123d 8b7e a2bd 1d9d 333d
00000150: 4a0d ab3d ceeb 21be afde 8e3c 21d0 12bc
00000160: b5c2 27bd 34e8 d1bd 3715 b43d 92f9 d2bd
00000170: e472 023c 86c8 d7bd 3351 463c 3109 143e
00000180: 853f 983c df5f eb3c 1a9e 1c3e a110 283d
00000190: bf96 e03c b7f2 26bd 9637 bd3d 1f15 3fbe
000001a0: 9deb ecbd ae3d 77be b3c6 a43d c44e 15bb
000001b0: 5e63 c1bb cd79 583d 1f82 2abd 2906 963d
000001c0: 9446 0a3d 0851 833d 1d6a eebc 9c1f f7bd
000001d0: 1984 4abd a19b 38bc 9c5a 90bd c464 89bd
000001e0: 849b 8d3e cfc5 6a3d 3520 fc3d 61f4 ea3c
000001f0: 189b 393d b1f3 8c3d e298 24bd 1e08 1a3e
00000200: 192c 4fbd 0f6e 8d3d 84fe ce3d 3ae0 54bc
00000210: c35c 5e3d 0ebe deba 3cb0 9b3d 4e3c af3c
00000220: 167d 733c 1407 cf3d f102 0d3e a772 613d
00000230: c694 dabc a763 b63c 84f3 8abd b402 0fbe
00000240: c3e3 67be 66bc 9e3d 0eee ed3d 6bae 21bd
00000250: 73d9 ab3d 3fea 32bd 6a79 28bd dc0c b93b
00000260: 6d90 5b3c eb88 24bd 5d38 cb3b c8d6 f9bb
00000270: 9476 5038 c665 3bbd 5dc6 30bd e30c 453d
00000280: 8058 a2bd 4a2a 25bd c6d0 cf3d d1a9 74bd
00000290: 5c6f e53c b8d7 cabd 9633 723d 2661 7c3d
000002a0: 65c7 273e d918 75bd 12f7 af3d eea5 03be
000002b0: 718c 883d 044e 07be a6a9 9f3c 75a9 123e
000002c0: 0caa dc3d 24a4 203d 75d3 d83c cef8 583d
000002d0: 4302 b9bd bfcb 4b3c 23a3 f1bd f3ef d4bc
000002e0: 2750 3d3e 1535 f73d b39b 68bd 15c4 e7bd
000002f0: 737c a43d e621 f6bc 484c babd e757 3ebd
00000300: 6968 423c 66aa 8b3d f27e 023c 7298 893d
00000310: 535c fb3d 3596 3e3d ea76 713d 0653 773c
00000320: ad93 b1bd b94e babd ee2d 50bd 6521 d0bc
00000330: e139 823b f393 11be d765 9e3d ff5f 02be
00000340: e052 0f3d 3195 44bd c9d2 033d 48fe f0bd
00000350: 4768 d43d 0d3e 053c 4ba7 283d c450 813e
00000360: 7620 c6bd 6327 0e3d 3477 763c 38a3 a43b
00000370: 8d27 ba3d 949c dc3d c280 25bd f688 d13d
00000380: 85b4 223d b56d e2bc 9aff 90bd 1993 093e
00000390: 01f0 f63b f261 e13d ad26 a83d ef55 1c3e
000003a0: 7d3b eabb 6e69 6c3c bdea 35bc f3d7 a8bd
000003b0: 1c19 b13c 61cd b43b cce0 863c 3223 013e
000003c0: 8560 c6bd 3406 9cbc d1e0 dd3d 52c3 debd
000003d0: 1ac7 523d 0a48 a53d 91c9 96bd 3afd 1d3d
000003e0: 775b 903d bd08 ee3d 900c 39be 5e1a 8f3d
000003f0: 3d76 63bc c729 6bbe afdb 7abd e869 643d
-0.07400456 0.18218423 0.06758272 0.16929464 -0.011769583 0.01631049 0.016934846 -0.061660215
-0.11886447 -0.09004216 -0.044215303 -0.003043132 -0.037473705 -0.18909357 -0.059983872 0.03489392
0.041977387 -0.10429828 -0.048789147 0.10538693 0.083837286 -0.027634827 -0.06368909 0.113576755
0.11411749 -0.03563194 -0.062329307 -0.03663632 -0.06391403 0.004152575 -0.09343535 0.145469
-0.13744874 0.06696433 -0.15204501 -0.070979565 -0.081466876 0.07750477 -0.07126332 -0.16316247
0.034542646 -0.093771994 0.12889242 -0.030918892 0.024547338 0.05386853 0.12766948 0.1230561
-0.0016498917 0.074170195 -0.12592584 0.103699505 0.045397993 0.058039255 0.04826695 0.036878593
0.006622581 0.016133154 0.023927698 -0.025567709 -0.0073755737 -0.08724076 -0.1577254 0.13118896
0.06563224 0.09178222 -0.05462859 0.101749495 -0.0791166 0.013002047 -0.0874029 -0.03597117
0.06918205 0.051733527 -0.11514096 -0.010449583 0.025324127 0.039299916 -0.21984847 -0.08589569
0.10949754 0.035856284 -0.079342924 0.043851007 0.08352144 -0.15812609 0.017440168 -0.008960755
-0.04095717 -0.10249367 0.08793109 -0.10301508 0.007961962 -0.10536294 0.01210432 0.14456631
0.018584976 0.028732238 0.15294686 0.041031484 0.027415631 -0.040758815 0.09239118 -0.18660401
-0.11568377 -0.24144623 0.08045711 -0.0022782544 -0.005901738 0.052850533 -0.041628 0.07325394
0.033758715 0.0641194 -0.029103333 -0.12066576 -0.049442384 -0.011267574 -0.07048532 -0.06708673
0.27657712 0.05731755 0.123108305 0.028680982 0.045313925 0.06882418 -0.040184863 0.15042159
-0.050579164 0.06905758 0.10107139 -0.012992913 0.054287683 -0.0016993897 0.076019734 0.02139106
0.014861366 0.10108772 0.13770653 0.05504098 -0.026682269 0.022264315 -0.06784728 -0.13965875
-0.22645478 0.07750778 0.11617671 -0.03947298 0.083910845 -0.043680426 -0.041131414 0.005647285
0.013401133 -0.040169638 0.0062017874 -0.007624481 4.97015e-05 -0.045751356 -0.043157924 0.048107993
-0.07927036 -0.040323533 0.10147242 -0.059732262 0.028007202 -0.09904426 0.059131227 0.061616085
0.16384657 -0.05983815 0.08592047 -0.12856266 0.06667412 -0.13213354 0.019490074 0.14322455
0.10774621 0.039219037 0.026468018 0.052971654 -0.090336345 0.012438714 -0.11798694 -0.025993323
0.18487607 0.120706715 -0.05678911 -0.113166966 0.08031549 -0.03004546 -0.09096581 -0.04647055
0.011865714 0.0681961 0.007964836 0.0671853 0.12273469 0.046529967 0.058951296 0.015095478
-0.08670745 -0.090970464 -0.050825052 -0.025406549 0.003974185 -0.14216594 0.07734268 -0.12731932
0.034991145 -0.047993843 0.032183442 -0.1176725 0.10371452 0.00813247 0.041175168 0.25256932
-0.0967416 0.03470553 0.015043069 0.00502434 0.09089575 0.107720524 -0.040405996 0.10231201
0.039722938 -0.027640203 -0.07080002 0.1343502 0.007535935 0.1100501 0.08210502 0.15267156
-0.007148205 0.014429433 -0.011103329 -0.08244314 0.021618418 0.005517647 0.016464613 0.12611082
-0.096863784 -0.019045927 0.10833896 -0.10877098 0.05145941 0.08070381 -0.073626645 0.038571574
0.070486955 0.116227604 -0.18071198 0.06987451 -0.013883171 -0.22965156 -0.061244663 0.055765063
